first_dummy.pth (torch_old, 566650 bytes, 10 tensors)

gru.weight_ih_l0 f4 [300, 100]
00000000: e137 e13c 7e65 a53d e2b0 4f3d 2ffa 48bd
00000010: fc2a 763d 04e7 383d 28f7 593c f67d fcbc
00000020: a409 64bd 1912 3e3d d96a 69bd 0cce afba
00000030: 1d61 61bd 181b ffbd d9f9 0f3b 3c78 973d
00000040: e2e9 a8bd 3b5e 92bd e925 90bd ff6e 353c
00000050: da75 0abc 54c3 95bd e5b0 26bd f620 203d
00000060: a41d 5dbd f802 b43d fd5c 0f3d f6aa f83d
00000070: 2f32 92bc c2b4 eebc 5f41 89bd a536 14bd
00000080: 52ef d93d 2d18 e9bd 6bfd ad3d 6dcd 87bd
00000090: ef26 cbbd 93f8 66bb 429f 33bd 9b19 3c3d
000000a0: c5aa c73c 3412 813d 64be a9bd e447 c43b
000000b0: 5e4f 0a3e 3489 133d a150 c8bd b47f d13d
000000c0: 91ee 8cbd eb21 543d 9001 0fbe 53b1 d7bd
000000d0: fe89 b73d 7e81 193d 8ae8 c93d 65b0 fdbb
000000e0: 8c6b 5a3c d734 603c 71c8 d23d 76c5 503d
000000f0: 9703 8c3c e499 98bc 51ef d03b 509c e1bc
00000100: 5071 00be 1574 483d 8ece 243d f8e1 53bd
00000110: b231 523d 699b 4f3d c6a9 a83d 0581 9fbc
00000120: 0db5 f93d 1bd6 563c c835 473d a6f1 13bd
00000130: ba84 74bd 1f1e b43d 7b7d ea3d f3e8 c8bd
00000140: 5129 9b3d 0a41 f0bd dfcc a4bc 9267 ce3d
00000150: 88c1 273d 315a 223d f84f 663d d693 87bd
00000160: 9b99 1c3d 3720 de3c 9e98 38bd 8b43 5cbd
00000170: b581 2f3c b53d 73bd a76f d2bd 6d94 53bc
00000180: 0e62 853d 4547 6e3b 80c0 80bd a93e 943b
00000190: 5835 243e 1faf 303d 0b91 2d3d 20e3 c6bc
000001a0: 0983 aebd 9d38 88bd 4e00 21bd ad28 abbc
000001b0: 0a06 ddbc 6068 96bb 5231 553d ce02 66bd
000001c0: 8327 56bd 10d7 083d f32c 633c 8ea7 9cbd
000001d0: 7637 5fbc 735f 543d 2cb1 2d3c 1ee0 843d
000001e0: 2bcc 69bd 83e9 79bd ae82 0fbe 18ef 04bd
000001f0: 3f1c d83d 08f9 153e 4667 d5bd 4b56 7f39
00000200: 5a96 203d 4820 893d da50 a2bd 8efe 99bd
00000210: 0357 083e 45cd ac3c 7cb1 6f3c 7f96 7139
00000220: 8439 533c 64de 533d 06f3 e4bd f6be 3c3d
00000230: bb3f 393e 193d 743d 7a49 66bc 7261 3cbd
00000240: 7e99 36bd 06fd 3bbd 10ce 7f3d 86fc 8c3d
00000250: d79a 9bbc 28a3 c63d e1a3 fdbd 921f 443b
00000260: 18a6 a1bd 9f92 e9bd 3c26 c63c 3ada 11be
00000270: 9c67 12bd 81c5 133e fde6 8d3d f200 603c
00000280: 851a 423e cace 3e38 3534 e23b df60 f23d
00000290: f2d1 443d dbac b9bd 322c 6abd b840 a43d
000002a0: 01ba f3bd d69b 35bd 16a7 e53d e012 a43b
000002b0: 3332 16bc 75be bebb 4739 a2bd 5117 0dbe
000002c0: 9689 763d 3a52 253c 8f41 c8bc 34d3 dcbc
000002d0: 5f65 0ebd 1105 bdbd 1f6e d43d d547 4cbc
000002e0: db1f 1b3e 514d 843d 9fbe 7ebd b39a f9bb
000002f0: 8599 ccbd 3e4f 833d 0b14 a6bd 8288 603d
00000300: 546d 653d d49a 7bbe 9ece 763c 156a 073c
00000310: 415d debd 9623 28be df3e 1dbd c507 693d
00000320: 6b8c 473c 0955 80bc ee2d fabc 6a23 02bd
00000330: 874d 693d 2e97 123c 8869 87bd 63a9 24bc
00000340: 1f88 97bd 4362 323a 6969 9abc c0bf 93bd
00000350: f4bf 993d 762b 50bd dd3c 0e3c 76cb 4c3d
00000360: 26dc d43d 0e52 6dbd c5e6 0dbd b880 b7bd
00000370: 65ee e43d 1b2d 523d 34dd b13d aa48 24bd
00000380: 9679 073d afe9 c1bd 7990 0ebd 4f92 c33c
00000390: 1ff9 f83c 1360 dabd 8480 debd 4f86 773c
000003a0: 5973 a43d dc45 e43d 0ca0 193d cebd 823d
000003b0: e4af 8b39 0d09 a23d 0107 b6bd 0c8c cc3d
000003c0: d75d 80bd 133e 733d 7216 cfbc ee23 5bbd
000003d0: 9d00 313d f8c0 8ebd 7603 c33d bd66 493c
000003e0: 024b 963d d690 2dbd 8af3 a9bd da72 2bbd
000003f0: 1143 95bd a3b7 14bd 5137 a3bd fa89 b03c
0.027492465 0.08075999 0.050705798 -0.04906672 0.060099587 0.04514219 0.013303556 -0.030821782
-0.055673257 0.046403978 -0.056986663 -0.0013412847 -0.055024255 -0.124563396 0.002196899 0.0739598
-0.082477346 -0.07146879 -0.07038481 0.011073827 -0.00845095 -0.073126465 -0.040696044 0.039093934
-0.053983346 0.08789629 0.03500079 0.12141983 -0.017846195 -0.029138926 -0.06701922 -0.036184926
0.1064135 -0.11381564 0.08495601 -0.06630979 -0.09919535 -0.0035243377 -0.043853052 0.045922857
0.024373421 0.063023 -0.08288267 0.0059900153 0.13506839 0.03601952 -0.09781004 0.102294356
-0.068814404 0.05179016 -0.1396544 -0.10531869 0.08961867 0.03747701 0.098588064 -0.007741975
0.013331305 0.013684473 0.102921374 0.050969563 0.017091556 -0.018628068 0.006376185 -0.027540356
-0.12543225 0.04893883 0.04023605 -0.051729172 0.051316924 0.05068532 0.08235507 -0.019470701
0.12192736 0.01311257 0.048635274 -0.036119126 -0.05969689 0.08794808 0.11449715 -0.098100565
0.0757624 -0.11731155 -0.020117221 0.10078348 0.04095605 0.039636794 0.056228608 -0.06619994
0.038232427 0.02711497 -0.045067422 -0.05377535 0.010712077 -0.05938502 -0.10275202 -0.012913805
0.06512843 0.0036358398 -0.062867165 0.0045240712 0.16035974 0.04313576 0.042374652 -0.024278224
-0.08521087 -0.06651423 -0.03930693 -0.02089342 -0.026980419 -0.004590079 0.05204899 -0.05615502
-0.052283775 0.033408225 0.013865697 -0.07649146 -0.013624063 0.05184884 0.010601323 0.064880595
-0.057079475 -0.06101371 -0.14014694 -0.03245458 0.105522625 0.14645779 -0.104200885 0.00024350842
0.039205886 0.0669561 -0.079255775 -0.075192556 0.13314442 0.021093974 0.014629718 0.00023039615
0.012892131 0.05172576 -0.111791655 0.046080552 0.18090717 0.05962858 -0.014055604 -0.04599137
-0.044579975 -0.0458956 0.062452376 0.068841025 -0.018994732 0.09699088 -0.12384773 0.0029926044
-0.07893008 -0.11404919 0.024188153 -0.14243403 -0.03574334 0.1443081 0.06928823 0.0136721
0.18955429 4.5492117e-05 0.006903196 0.11834883 0.048051782 -0.09066173 -0.057171054 0.080201566
-0.11900712 -0.04433807 0.1121351 0.005007133 -0.009167242 -0.005821044 -0.07921081 -0.13778426
0.060189806 0.010090405 -0.024445323 -0.026956178 -0.034764644 -0.09229482 0.103725664 -0.012468298
0.1514887 0.064600594 -0.06219351 -0.0076173185 -0.09990219 0.064115986 -0.08109292 0.054817684
0.056012467 -0.24570781 0.01506391 0.008265038 -0.108576305 -0.16419825 -0.038390037 0.056892175
0.012179474 -0.015665548 -0.03053948 -0.031772055 0.0569587 0.008947177 -0.06611925 -0.010050151
-0.0739901 0.0006804803 -0.018849092 -0.07214308 0.07507315 -0.050822698 0.008681503 0.049998723
0.103935525 -0.05793958 -0.034643907 -0.08960098 0.11178283 0.051312547 0.08684769 -0.04010836
0.033074938 -0.094684 -0.03480575 0.023873476 0.030392228 -0.10662856 -0.10864356 0.015107705
0.08029813 0.11146137 0.03750615 0.063838586 0.00026643195 0.079118825 -0.08888055 0.09987649
-0.062678985 0.05938537 -0.025279257 -0.053501062 0.043213475 -0.069703996 0.095221445 0.012292561
0.07338525 -0.042374454 -0.082984045 -0.041857578 -0.072881825 -0.036307942 -0.07969535 0.021550167

gru.weight_hh_l0 f4 [300, 100]
00000000: b95e b33d 5354 493d 8d46 d8bc ea42 be3d
00000010: 5561 8dbd a686 a3bd 2da8 8bbc defb 923b
00000020: 2c4a adbb b991 0ebd a137 b4bd 4bd4 633d
00000030: a546 a4bd 2b1a 34bd c63d 0fbd 9acc bc3c
00000040: 908a 35bc 2ef2 70bd 855f 53bd d621 85bd
00000050: 701f 73bc 7a1d e43b 2737 be3d 3282 93bd
00000060: 8754 a7bd 17cd d53d 8a74 973d 47f7 773b
00000070: 1576 c33c df99 be3d 00c7 b03d d510 a6bd
00000080: 73c0 fe3d 5db7 483d e7e1 66bd 09d1 4a3d
00000090: d2d2 96bd 4ac1 ad3d cb5e 3cbc dea8 c03d
000000a0: 0067 10bc 71ad 90bd b037 1b3d 28d0 7cbd
000000b0: 3b87 303d 4dc3 e939 e6c0 8f3d 4e66 aebd
000000c0: 7267 c0bd 706b 18bb df98 983d dc96 0a3c
000000d0: 943d f5bc 2b50 3e3d 0e3d 123d 1fcd 973b
000000e0: 4651 053d f2eb 07be f123 3abd 93e0 cbbc
000000f0: 02bd 78bc 9b91 9dbd 3bea 993b 3c01 cabd
00000100: e7fc bebc d5a3 12bd 7fe1 083d 511d b73d
00000110: 3aa5 80bd 86dd 4f3d c89d 173c b4bc b6bd
00000120: 2969 8f3d 8a2c 3f3c 34a6 9dbd b4d3 9ebd
00000130: a47b 7c3c 8542 a13d 2a5d 13bd ecb3 3a3d
00000140: 7522 063e 92e7 ffbc 424b 4dbd 889b 91bd
00000150: 0183 60bd 19ca b93d 9898 393c 71a2 ae3d
00000160: c5ca 81bd 9101 15bc 8804 023d d719 d33d
00000170: 123f 02bd 3edc 843d 16c9 c03d f9a2 b7bc
00000180: 4087 b9bd b684 163d 6b2a 0dbd 0745 c03d
00000190: 86da 593d a23f 10bd 3951 8bbd c483 5c3d
000001a0: 1436 b43d 887c 123d c9cf 9bbd e626 3abb
000001b0: 2800 333d 09e4 20bb 37ee 953d ffc7 a33d
000001c0: 321e eb3c bfb7 c0bc 5c51 063d d198 69bb
000001d0: e6fa f33d a182 9dbc 0148 25bd 9676 cd39
000001e0: 5869 4fbc d5b8 d13d 148b c33d ddf3 c43d
000001f0: 5540 aa3d df37 4dbc 6f67 e43b 60b7 333d
00000200: 32cb 9fbb 8669 b83c 8227 91bc 80f3 733d
00000210: d520 c53b df9e 5d3d ed8f ffbc a926 60bd
00000220: d3ba 09bd 0d20 823d 24e9 01bd de6b d3bc
00000230: e702 533d 2182 b83c a4da 92bc 8749 f7bb
00000240: e70f 6dbc 3e3a 483a fabb b0bd 7824 e23d
00000250: 1311 81bd c4e4 ae3d c4b5 7bbd 573f 833d
00000260: 4788 673d 751a b8bc 718f 4b3d d0b0 7c3d
00000270: 9de2 813c 9b04 36bd 18f0 9fbd d3d4 62bd
00000280: c691 32bd 43ce 83bd a6d8 acbd d632 f3bc
00000290: 52a7 0b3d 883c cbbc 0fac cf3d b716 f53d
000002a0: 21e0 d4bd 70ef 313d b5cb 313d b86a b13c
000002b0: 0715 033d 1720 1bbd 2100 cebd 4b3d 8d3b
000002c0: 905a 99bd eeca 29bd 2cba 19bd e689 1dbc
000002d0: 26e1 993d 8d76 ee38 15cd e2bd a565 763d
000002e0: 25d4 26bd daa2 d13d b96c c5bc 1afb bcbd
000002f0: 377e 8a3d b88e 043c c8df c1bc 4622 953d
00000300: 853b 63bd d854 f63d c2a2 253d 51fd 8dbd
00000310: 7fd9 023b cc68 7a3c 8e2e 09bd 69cf 81bd
00000320: 8a15 10bd 8ddd 783d 2da0 753d 2544 223d
00000330: 0cfa 78bd 2602 53bc e7d3 f7bc 4e2c b33d
00000340: 962b 66bc 8892 3abd e34a 7d3d 585a 693d
00000350: c4da d93d 84c4 15bd a707 363d 209e 953d
00000360: 86f2 913d 2723 4bbc 3272 87bc 1cda 9f3d
00000370: 8686 063d bab6 3b3d 950d 2d3d 9803 37bd
00000380: 187d 10bd 4267 81bd 9c12 26bd 54f8 72bd
00000390: 3cab 543c 2e75 f63c 08f0 8e3d 9c0a 0abd
000003a0: f96a 4ebd 624a a9bd 7aa8 373d 94d6 b43b
000003b0: c85c a1bc 9ae1 47ba 4bf3 b63d 8696 32bd
000003c0: 6b04 e3bc 2560 963d 1764 a73d ca0b a03b
000003d0: 32c0 8a3d 66ed 42bd b785 86bd 553a 84bd
000003e0: 8d11 4cba d8f6 1d3b a4f0 8bbd 632a f1bc
000003f0: 052e 0fbd 5e4f 583d d3fa e6bc 2fac 35bd
0.08758301 0.049152683 -0.026400829 0.092901066 -0.0690333 -0.079846665 -0.017047966 0.0044855913
-0.005288383 -0.03480694 -0.08799673 0.05562238 -0.08021287 -0.04397027 -0.03497102 0.02304678
-0.011080399 -0.05882471 -0.051604766 -0.06500594 -0.014839038 0.0069615217 0.09287863 -0.07202567
-0.08170419 0.104395084 0.07395275 0.0037836598 0.023860017 0.09306692 0.08631706 -0.08108679
0.124390505 0.049002994 -0.05636778 0.049515758 -0.073644295 0.084841326 -0.01149721 0.09407209
-0.00881362 -0.07064331 0.037894905 -0.06172195 0.043097716 0.00044586734 0.07019214 -0.08515607
-0.09394731 -0.0023257397 0.07451033 0.008458819 -0.02993659 0.046463173 0.035702758 0.0046326066
0.03254821 -0.132736 -0.045444433 -0.024887359 -0.015181782 -0.07693788 0.004697112 -0.09863517
-0.023313953 -0.035800774 0.033418175 0.089411385 -0.062815145 0.05074837 0.009253927 -0.08922711
0.070024796 0.011668334 -0.07697716 -0.07755223 0.015410338 0.07874016 -0.03597752 0.045581743
0.13099082 -0.031238351 -0.0501206 -0.07109743 -0.054812435 0.0907175 0.011327885 0.08527077
-0.06337503 -0.009094612 0.031742603 0.10307663 -0.03179843 0.0648732 0.09413354 -0.022416579
-0.09059 0.036747657 -0.03446428 0.09388166 0.053186916 -0.035216935 -0.06802601 0.0538366
0.08799377 0.035763294 -0.07607991 -0.0028404533 0.04370132 -0.0024549982 0.073208265 0.079971306
0.028700922 -0.023525117 0.032792434 -0.0035644064 0.119130895 -0.019227328 -0.04035187 0.00039189
-0.012659393 0.10240332 0.095480114 0.09616826 0.083130516 -0.012525528 0.006970338 0.043876052
-0.0048765177 0.022511255 -0.017719034 0.05955839 0.006015877 0.05410659 -0.031196559 -0.05472437
-0.033625435 0.063537695 -0.03171648 -0.025808271 0.05151644 0.022522988 -0.017926522 -0.007546607
-0.014469123 0.00076380733 -0.08629604 0.11042112 -0.06302085 0.08539727 -0.061452642 0.064085655
0.05652645 -0.022473553 0.049697343 0.06169206 0.015855128 -0.044437986 -0.07809466 -0.055378746
-0.04359605 -0.06435826 -0.0843976 -0.029687326 0.034095116 -0.024809137 0.101402394 0.11967223
-0.10394312 0.043441236 0.04340716 0.021657333 0.032002475 -0.0378724 -0.10058618 0.004310285
-0.074879766 -0.041453294 -0.037531063 -0.009615397 0.07513647 0.00011370806 -0.110742725 0.06015553
-0.04072966 0.102361396 -0.024099695 -0.09227581 0.06762355 0.008090667 -0.023666278 0.07281928
-0.055476684 0.120279014 0.04043842 -0.06933082 0.0019966064 0.015283775 -0.033491664 -0.063383885
-0.03517679 0.060758162 0.05996721 0.03961577 -0.06078534 -0.01287893 -0.03025241 0.08748685
-0.014048478 -0.0455499 0.061838996 0.056970924 0.10637429 -0.036564365 0.04444089 0.073055506
0.07126336 -0.012398518 -0.016533945 0.07805273 0.032843135 0.04582856 0.04224928 -0.04468116
-0.03527555 -0.06318523 -0.04054509 -0.059318855 0.012980279 0.030085173 0.06979376 -0.033701524
-0.050394986 -0.082661405 0.044838406 0.005518744 -0.019697562 -0.0007624865 0.08933123 -0.04360058
-0.027712068 0.07342557 0.081733875 0.004884218 0.067749396 -0.047589682 -0.06568473 -0.064564385
-0.00077845977 0.002410343 -0.06833008 -0.029439157 -0.034955997 0.052810065 -0.028195774 -0.04435366

gru.bias_ih_l0 f4 [300]
00000000: abb7 583d 2e41 4d3e 720d ec3d 676a 3b3e
00000010: 7493 db3d 76bf 9e3d 36aa 953d b44a e33d
00000020: d0e2 5c3d c7cc d73d 7b29 ecbb 04fb 413e
00000030: f0aa 253e 8198 ab3d e6a5 033e 8a7c 263e
00000040: e831 013e a828 2a3e bc11 923d 8c1a 83bd
00000050: 33a6 94bc 45ec da3d 3d46 1c3e ce4e d13c
00000060: dd45 cc3d e425 173e 2c06 a23d 5719 953d
00000070: 6afd 2b3d e7e0 0d3e d2ea 063e e667 953d
00000080: 5afd d73d 2639 50bd 1230 313e d3c2 283e
00000090: 2f6e 8f3d a3d8 d33d 144e b63b e60a f53c
000000a0: a6d1 3b3c 5d3c 283d e4cf 06bd f5ed 183e
000000b0: 0241 4d3e def1 f7bb a2c9 a03c 3da3 293c
000000c0: 83e3 913d f5e9 8ebc d3ac e0ba 3bad 013e
000000d0: 4dfc 853d b01d 2a3e 0ce4 febc e5a3 b6bc
000000e0: 22f2 2bbd 0cd8 023d a4ee 883d cd90 213d
000000f0: 0a14 e13d 8d57 87bd a7cc 073d 4775 67bd
00000100: f08f e13d 74ae 4e3e bab9 e33d 5cce 283e
00000110: a6dd e63d 4929 da3d 1ee1 53bd ce1f 40bd
00000120: aecb 753b 2ed2 893d 0982 843d 8b30 01bd
00000130: 21f1 3d3c eac1 4b3d 4905 c03d 46ba 483e
00000140: e048 193e 88f3 16bd 05fb 4b3c ceb2 dc3d
00000150: 9394 51bc 53aa fe3c ecc1 253e edb6 8b3e
00000160: b4f5 b63c d1ff 9f3c 1fcf a93b fdae 36bd
00000170: 7ef0 9b3d c86c efbb ae74 af3d de82 c23b
00000180: ef4d 9b3d aa42 0cbd 9073 3f3d ed44 003d
00000190: 3586 3f3c 9f1f 7a3d aac2 623d ffef 323d
000001a0: 8265 5a3e cba5 44bd 2fdc 9bbd 6fff d6bc
000001b0: f5d4 183b 712d 21bc d131 833d 836c 62bd
000001c0: 3df0 ea3d bef6 1a3c 13ba 833e 4837 543e
000001d0: 3483 923e 67ba 0b3e 7fbf 63bd 06ef d8bd
000001e0: bb66 93bd 8a1c eb3d e665 023e 1565 e4bb
000001f0: 13d8 9abc 1b2f 853d 1613 25bd 7287 a7b8
00000200: e282 323c 10a0 0fbd 3f17 953d 21a5 473d
00000210: c39e edbc 8730 b3b9 ea0b 5b3e 9f81 8a3d
00000220: 8f3b 98bd d253 923d 3ec4 7f3d 5c8f 743c
00000230: 4286 bd3d da36 853d d4ae 36bc 5fde af3e
00000240: d576 f83c 8379 c6bd 4014 793d d3f4 c43c
00000250: e3b1 823e afbd 67b9 98d0 d93d 1ad5 e03d
00000260: 5e26 1fbc 8f72 633d 0fc2 48bd 8806 cfbd
00000270: 8d61 bcbc c9ce d53a 99c1 b4bc 6576 973d
00000280: c449 ee3d c9a3 00bd 3fcc babd f61c 9e3b
00000290: 28e0 fe3c 7786 67bc 84f4 dbbd 42e1 9c3d
000002a0: ef3f 8bbd e521 f0bc 3a40 9fbd 9c2d 953d
000002b0: d85a 0b3e 3cc7 efbc 946d c93c 2463 313e
000002c0: 82fa 57bd 38bc 83bd ed75 8f3c 7be8 3f3d
000002d0: 964c d9bb 587a 92bd e210 543d efe7 a93d
000002e0: bf26 e3bc 53bd 3f3c caf4 11be a5a4 fc3c
000002f0: 1f0f c7bb 55a5 833d 6f2c 96bd cad9 ebbd
00000300: f07a 30be abc6 9d3e 065b 24bd dce3 d4bd
00000310: da9a 9bbc 2dcb d63c df87 623c 8eaa c3bd
00000320: e2e9 a9bd 25b4 9abe 8fbc 8fbd 6bcc 3bbe
00000330: 4cb4 973e cbe9 afbd 147b aebd aad2 c03e
00000340: 7c71 cbbd 2edc fabd 35d7 1e3d 6150 993e
00000350: c585 013e 1484 1cbe b757 733c f0e3 93be
00000360: 93bb 343d 8a12 2cbe 9b03 24bd bb3b ebbc
00000370: 8f43 56be 0f41 683d 8bba 87bd a4ad 0dbc
00000380: 41f1 833e abdf 3cbe eeb4 21be 33cc 18be
00000390: 09c4 ae3d 6523 433c ab84 62be ec08 833e
000003a0: e487 6c3e bb68 d53c a3e5 e83d 53a3 fa3d
000003b0: 6174 18bd 6b31 603c bc6f f2bc 0545 a8bb
000003c0: 3a13 e73d bdfb 64be a9c3 7d3e a77a 713e
000003d0: 13d3 8b3d f0da 313d f9f9 8cbc 5dac ea3d
000003e0: c382 5f3c 42ea 03be 296f 87bd ec77 04be
000003f0: 8658 18bd 9f00 74be 3d25 1b3e 028c f7bd
0.052909534 0.20044395 0.11526002 0.18302308 0.10721484 0.07751362 0.07307856 0.11098233
0.053927243 0.10537105 -0.0072070933 0.18943411 0.16178489 0.08378697 0.12856254 0.16258445
0.12616694 0.16617072 0.07132289 -0.06401548 -0.018145656 0.10689596 0.15261169 0.025550272
0.09974263 0.14760548 0.079113334 0.07280224 0.04198972 0.13855325 0.13175514 0.07295208
0.1054637 -0.05083575 0.17303494 0.1648057 0.07003438 0.103440545 0.005563507 0.029912423
0.011463558 0.041073192 -0.032913104 0.14934523 0.2004433 -0.0075666746 0.019627396 0.01035386
0.071234725 -0.017445544 -0.0017141349 0.12663738 0.06542263 0.16612887 -0.0311146 -0.022294948
-0.041978963 0.03194432 0.06686142 0.039444733 0.1099015 -0.06608496 0.033154156 -0.05650833
0.11013782 0.20183736 0.11119409 0.1648497 0.11272745 0.10652406 -0.05172836 -0.04690533
0.0037505436 0.06729542 0.06470115 -0.031540435 0.011593134 0.049745478 0.09376008 0.19602308
0.14969206 -0.036853343 0.012449984 0.10776292 -0.0127917705 0.031087076 0.16187257 0.27288
0.022333957 0.019531162 0.0051821615 -0.044600476 0.076142296 -0.007306669 0.08567177 0.0059360107
0.07583224 -0.034243263 0.04674107 0.031315733 0.011689712 0.061065312 0.055361427 0.04368591
0.21327785 -0.048009675 -0.07610356 -0.026244847 0.0023320292 -0.009837494 0.06405986 -0.055279266
0.11471603 0.009458242 0.257279 0.20724213 0.28615725 0.13645326 -0.055602547 -0.10592465
-0.07197329 0.11480053 0.12734184 -0.0069700577 -0.01890186 0.06503125 -0.040301405 -7.988409e-05
0.010895463 -0.035064757 0.072798245 0.048741464 -0.029006368 -0.00034177696 0.21391264 0.067630045
-0.07433235 0.07144894 0.06244301 0.014926758 0.09254123 0.06504603 -0.011150081 0.34349343
0.030330101 -0.09691145 0.060810328 0.024042523 0.25526342 -0.0002210054 0.10635489 0.10978146
-0.009713737 0.055529173 -0.049013194 -0.101086676 -0.022995735 0.0016312237 -0.02206497 0.07395629
0.116351634 -0.031406198 -0.09120988 0.0048252298 0.031112745 -0.01413118 -0.10739997 0.07660152
-0.06799304 -0.029313037 -0.07775922 0.0728409 0.13608873 -0.029269807 0.024588384 0.17322975
-0.052729137 -0.06432384 0.017512286 0.04685257 -0.006631444 -0.071522415 0.051773913 0.08296191
-0.027728437 0.011702853 -0.14253536 0.030840227 -0.0060748006 0.06428019 -0.07332694 -0.11516149
-0.17234397 0.30815634 -0.04012587 -0.10395023 -0.018994737 0.026219929 0.0138263395 -0.09554015
-0.08296563 -0.30215564 -0.070183866 -0.18339698 0.29629743 -0.08589514 -0.08519569 0.37660724
-0.09933755 -0.12249027 0.038779456 0.29944137 0.12648685 -0.15284759 0.014852456 -0.2888484
0.044124197 -0.16803947 -0.0400425 -0.028715005 -0.20924209 0.05670267 -0.06627377 -0.008647356
0.2577 -0.18444698 -0.15791675 -0.14921646 0.085334845 0.011910294 -0.22120921 0.25592744
0.23098713 0.026050916 0.11371925 0.12238183 -0.037220363 0.013683657 -0.029594295 -0.005135181
0.11282964 -0.22361656 0.2478167 0.23581944 0.068273686 0.043421686 -0.01720904 0.11458657
0.013642016 -0.12882331 -0.06612999 -0.12936372 -0.037193798 -0.23828362 0.15150924 -0.12087251

gru.bias_hh_l0 f4 [300]
00000000: 0346 573d d5c9 e03c 76d5 7b3c 1bbe 993d
00000010: 1002 0a3e 9a4e ae3d 6bbc 853c da32 5b3e
00000020: ea0a 9dbd 9b40 f7bc 748b 163e 3e8c 173e
00000030: c331 7cbb c2ad 453d a2b9 0b3e 48d0 aa3d
00000040: 4673 d9ba 301b a93d 7adf 23bd 574d bb3d
00000050: 1c77 d93d f1d6 2f3d 1a4b bb3d a84c b33d
00000060: 9a1d a33d 9041 0f3c a144 f13d 02f6 73bd
00000070: 432f 31bc b2a7 ee3d f2ee f23d 94ea f83d
00000080: a4c9 a4b9 d177 eb3d b21a 323e 16f3 cd3d
00000090: 0d3e 8a3c f7a5 3cbd 7709 1a3e f8cf 423e
000000a0: dee6 423d 4b7a 023d b39f 7a3d 264c 813d
000000b0: 9266 243e 8c8d c53d c338 b93d bbd6 e83d
000000c0: c8f7 4cbd fdf4 c13c e7a2 e23d 093f e93d
000000d0: 159a 9bbc 8879 8f3d 53e3 95bd 37f9 dd3d
000000e0: 7e35 23bd a8e1 9a3c 8052 203e 7365 da3d
000000f0: bd6a 123c 3ded 2dbb 731a fbbb 3cf7 5abd
00000100: 3e07 ad3c c655 413c a41e 793d aff8 893d
00000110: 76e5 983d 8110 d83c 1194 f83d 60d6 fb3d
00000120: 481c 973d 15bd de3d d4b3 03bd aef1 903d
00000130: 8ed5 5d3d 3fc4 0ebb 643c 833d 1eb4 1e3e
00000140: 2e9b 22bd 3846 983d 388c 75bd bbcb 063d
00000150: 891f 10bd 8f0f 6f3d 2328 d8bb 2f91 2e3e
00000160: d9e5 cb3d 156e c33d 09a7 26bd d427 033d
00000170: 62c5 58bd 1175 2b3c f9d4 c73d bf46 cf3d
00000180: 85b4 14bc f125 fe3c 9c63 083e 6859 b53d
00000190: bbff e83d e992 58bc f35f 043d 93fd da3c
000001a0: e4bd 033e 9bb2 ce3d eeb0 e9bd f25e c63c
000001b0: 9525 c5bd 5fcb 30bd 8d6e 973d d7bf 5cbd
000001c0: 0d35 4dbc 6ada 77bd f3f5 9e3d 622c 813e
000001d0: 4893 403e c037 9a3e b90c 753c 3600 54bd
000001e0: 38e3 813d 77a0 2fba 7f3e 2e3e 6b2e 473d
000001f0: 40a9 8abd 3a90 a5bc bf02 0bbd 8df0 b63d
00000200: e172 313e 1fcd cdbc 0341 de3d ecf5 4e3e
00000210: a533 963b 3df5 9c3c 0800 8a3e 3bcd b03d
00000220: 9e9d c33d dc79 e73b b397 2fbc c337 ef3d
00000230: 78c5 73bd 97a4 7d3d 9cd6 063d 4744 ac3e
00000240: 6137 773d 4fad 03bc 5f15 3b3d 1e26 cabd
00000250: baf4 da3d 5dfc e73c 278d df3c bc35 363e
00000260: caa6 043e fc0d 463e a9e0 5abd faae 933b
00000270: 4ecf b0bd 9a55 10bc 5ac1 133d 85d2 10bd
00000280: 7f90 2b3d 9d9c eebd c74c b8bc c572 003c
00000290: 2357 553d 0e38 18bd 018e 3dbd 3cc5 37bd
000002a0: 4eb8 03bd e3f5 a43d f5b8 37bc 8ad6 c63c
000002b0: 95bd 8a3c 9c0b af3c b182 393d 8f23 f83d
000002c0: 64ac b43c 360b 08be 89c6 823d 48fd 923d
000002d0: 7edd 683d bd65 aa3a 993b 483b f0ee 133e
000002e0: e3c2 c2bd eadf bd3c d5de e4bd 8b7a dcbc
000002f0: 851a 963c db06 f03d ecb4 b2bd 287f b9bd
00000300: 939d fbbd 81bb 843e cb39 fcbd 77c8 05be
00000310: 482c 1f3e 62e0 dc3c 1af7 9ebc a238 bfbb
00000320: c50e ee3c d1e6 0fbe 2f7d 943d 5497 0abe
00000330: 37fc 413e d5cd 113d 146e 363d 6ff5 843e
00000340: e4f0 743c 83a4 88bc cbac 743d be6b 193e
00000350: 1b04 773e 5a55 98bd a949 76bd 4df9 b3bd
00000360: 943c b9bc 73f0 d2bd adb6 153d 7f55 ac3a
00000370: 04a1 11be 06ce 8e3b b8ed b8bd 6025 0dba
00000380: 3cac a43d 3f1f 0abd e2eb bebd 12e9 7d3c
00000390: 045b fd3c 19ef e5bc 4a1e b2bd cc7a 293e
000003a0: 6b6d 573e 4a81 dc3c f959 793d 8c95 543c
000003b0: af3a a5bd e494 7d3d c6e7 cfbd ccfd d7bd
000003c0: 9166 3dbd b60a 2abd 1475 de3c f0c4 043e
000003d0: a946 a93d 5d23 db3d 885f aa3d ea34 593d
000003e0: d3ce 02be dbac 43bd c15b b2bd 30ec d43c
000003f0: 5428 af3d 19d7 ccbd f0ee 37bd 9f71 17be
0.052557003 0.027439991 0.015370717 0.07506963 0.1347735 0.08511086 0.016325196 0.21406117
-0.07668097 -0.030182173 0.14701635 0.14799592 -0.0038481809 0.04826141 0.13645032 0.08340508
-0.001659014 0.08257139 -0.040008046 0.09145611 0.106184214 0.042929593 0.09145184 0.087548554
0.079646304 0.008743659 0.11780668 -0.059560783 -0.010814491 0.11653079 0.118619815 0.12154117
-0.00031430752 0.114974625 0.17392996 0.100561306 0.016875291 -0.046056714 0.15042673 0.19024646
0.047583453 0.03185491 0.061187457 0.06313352 0.16054752 0.096461385 0.090440296 0.113690816
-0.05004099 0.02367639 0.110662274 0.11388976 -0.01899437 0.07005602 -0.07318749 0.108385496
-0.039845936 0.01890643 0.15656471 0.10663881 0.008936581 -0.002653911 -0.007663065 -0.053458437
0.021121617 0.011800235 0.060820237 0.06736886 0.07465641 0.026375057 0.121376164 0.12296748
0.07378441 0.10875908 -0.03215392 0.07077347 0.05415874 -0.0021784452 0.06408003 0.15498397
-0.039698772 0.07435268 -0.059948176 0.032909136 -0.035186324 0.058364447 -0.0065965815 0.1704757
0.09955949 0.09542481 -0.04068664 0.032020405 -0.052922614 0.0104649225 0.09757418 0.101209156
-0.009076242 0.031023951 0.13319248 0.088549435 0.11376902 -0.01321862 0.032318067 0.026732242
0.12865406 0.1009266 -0.114107 0.024215195 -0.09626309 -0.0431627 0.07394133 -0.05389389
-0.012524855 -0.06051103 0.07761755 0.25229174 0.18806183 0.3012066 0.014956647 -0.051758014
0.06342167 -0.00066996313 0.17016028 0.048628252 -0.06770563 -0.020210374 -0.033938166 0.089326
0.17328979 -0.025122223 0.10852244 0.20210999 0.004583793 0.019159907 0.2695315 0.086328946
0.095515475 0.0070640873 -0.01071732 0.116805576 -0.059514493 0.061924543 0.03291951 0.3364584
0.060355548 -0.008036925 0.045674678 -0.098705515 0.10691209 0.028318578 0.027288986 0.17793936
0.1295425 0.19341272 -0.05343691 0.004506943 -0.0863329 -0.0088094715 0.036073066 -0.035357017
0.04188585 -0.11650965 -0.022497548 0.007839863 0.052085053 -0.037162833 -0.046278004 -0.04486583
-0.03215819 0.08054712 -0.011213531 0.024272222 0.016936103 0.02136784 0.045290653 0.12116157
0.022054859 -0.13285527 0.06385524 0.07177216 0.056851856 0.0013000291 0.00305531 0.14446616
-0.09509828 0.02317806 -0.11175314 -0.026913902 0.018323192 0.117200576 -0.08725914 -0.09057456
-0.12285914 0.25924304 -0.12315711 -0.13064753 0.15544236 0.026962463 -0.019404937 -0.0058356086
0.029059777 -0.14052893 0.072504394 -0.1353429 0.18943869 0.035596687 0.044538572 0.259685
0.014950011 -0.016680008 0.0597351 0.14982507 0.2412266 -0.074381545 -0.06012884 -0.08787785
-0.022611894 -0.10299768 0.036551166 0.0013148038 -0.14221579 0.004358056 -0.09029716 -0.00053842925
0.080406636 -0.033721205 -0.09322335 0.015497463 0.030927189 -0.028068112 -0.086971834 0.1655075
0.21037833 0.026917119 0.06087682 0.012975108 -0.08067834 0.06190957 -0.10151629 -0.10546455
-0.046240393 -0.04151412 0.027155437 0.1296575 0.082654305 0.107001044 0.083190024 0.05302898
-0.1277421 -0.04777227 -0.08708907 0.02599153 0.08552614 -0.10001964 -0.044905603 -0.14789437

gru.weight_ih_l0_reverse f4 [300, 100]
00000000: e974 673d 1167 9dbd 31d8 0e3d c1d1 373c
00000010: ade4 c53c 09db d5bc b4da a43d 562c 113d
00000020: 112b f9bc b4b2 c6bd 2bff 58bc 7eb9 473c
00000030: 7063 a2bd 5bba b4bc 1dc0 a43c 9b44 b33d
00000040: 30b7 9f3d 7af0 87bd 4b4d 773d eaeb babd
00000050: 8992 78bc 156b 8d3c 804f 683d 7e5a c5bd
00000060: f122 013d 497e 3e3d e2f6 5dbc 7b91 603d
00000070: 49d6 b23c 00e6 bbbd 9396 dbbc 56e1 153d
00000080: b537 c03c a418 b5bd ef20 c93c 4d9c f8bc
00000090: 00b4 2abd 1530 d93b 584a 763d d0d9 44bd
000000a0: c6b1 27bd a056 11bd 565b e53a d98b 723d
000000b0: 5981 8dbc f347 b83d fcde 49bd fb38 edbc
000000c0: 5030 9bbc 3551 ba3d 4bb2 71bd 7709 c53d
000000d0: 641d 9fbb 49ca 35bd 78a9 903d 431e 71bd
000000e0: 84d5 ee3c 6212 283d b4e1 5cbd a4cd d3bc
000000f0: e88c aa3d 510b 81bd 8c23 59bd 05a1 a7bc
00000100: 7c7b c6bd 3e7b 84bc 72e6 083d 7b55 65bc
00000110: 5395 ca3d 60b6 8e3c 7122 b53d d3e8 4b3d
00000120: f24a 903d 88d3 53bc 3741 9a3d 28da c5bc
00000130: e040 8f3c f58f 31bd 35b8 7c3d 7315 17bd
00000140: eb79 b1b9 317f 25bd f43f 83bd 33e7 98bd
00000150: b009 63bd 824b 21ba a603 703d 3bfc 0abc
00000160: 1456 b6bd ce31 1cbc df98 60bc 561f cebd
00000170: 1407 8cbd a19a 3cbd b16e 743c 4bef 67bd
00000180: 367a 843d fef2 5a3d fe4b 033d 51d7 f03c
00000190: f79e 033d ce82 90bc 9893 b3bd 5120 093d
000001a0: 88f3 23bd c939 33bd 1426 7a3d 40ad 76bd
000001b0: c988 3ebc 960d 8fbd be65 32bd 5bfe 7bbd
000001c0: d5ac af3d 86cb 203d 7bdd b53d d827 cabd
000001d0: 6348 d43b 0ac9 c9bd 24c2 06bd b0cb 913d
000001e0: 6d5f 02bd 8fd8 163b 6794 aebc f1e2 b7bd
000001f0: c78d c93c 2416 26bd 444f 693d 58c3 4c3d
00000200: 0025 a1bd e33b 9d3d 846b a4bd 6a20 c63b
00000210: 0070 cc3c 1cfe 803c a90c fabb bfbc 763d
00000220: 955f 52bc 2aaf 473c 9803 92bd 75b7 b93c
00000230: 0392 163d ab8a dd3b 01ba 91bd 81b1 25bd
00000240: bd60 78bd d678 413d 57de 49bd 44ca 583d
00000250: 72c0 d53c 7165 a4bd 6bc5 9a3d 4470 ccbd
00000260: d6c0 a1bc 4594 a3bd 09bc 0abd 9fce 933d
00000270: 51f4 bb3d 328f 80bb b842 c0ba 4dc4 36bd
00000280: c3bb ee3b 46b1 633d 7d78 99bd e382 753d
00000290: df09 48bd afa7 c93d 98bf a23d 17ee 313b
000002a0: bc84 c93d 67f8 c3bd f592 6fbd 7247 ad3d
000002b0: d953 0b3c e6e3 28bc 390d 35bd b8f8 92bc
000002c0: 26fc 463d 64be a1bc eab7 413c aeb1 d4bb
000002d0: 199f 3c3c faaa 21bd a88f 0fbd b253 2fbd
000002e0: 229b 1f3d ee07 05bd 5084 a93a 6f52 a3bd
000002f0: 909b a63d 2ad3 b6bc 6c48 373d eae0 bc3d
00000300: 4545 45bb 8086 babd d080 403d 78cd 1f3d
00000310: e727 a33d ae10 a53d 83c5 ad3c 26df 1cb9
00000320: cbee 163c d4d2 8d3d d598 8e3d b8b2 683d
00000330: e2da ab3d a815 8e3d 7f1f 9abd 22aa 81bd
00000340: 7be5 c2bd 32b5 7dbd 0804 5f3c c227 553a
00000350: e774 8cbc 46ff ab3d c306 8cbb ad84 9e3d
00000360: a5e3 95bc 67b1 78bd 0a98 f6bb 5b2f dd3c
00000370: c652 1bbd cbab ba3d dbb9 cb3d dcb8 42bd
00000380: fbae e3bb 850c a43d 276f a2bd 9713 5d3c
00000390: 65bb b8bd 6645 5f3d b308 9ebd b5fd c8bd
000003a0: d31d 0d3d edf0 b5bc 0204 863d 93de 793d
000003b0: d2f0 95bd 7ff0 c2bd b522 e83a ed77 afbd
000003c0: 270c 4d3d 4651 0d3c 4030 db3c b7e6 023d
000003d0: 3242 843d fd7d 9bbd e277 86bc 74fa c43d
000003e0: ca91 993d 697a af3d 1dc7 aa3d 09af d43b
000003f0: 4da8 3a3c 5511 28bc d98d 843d c20f e5ba
0.05650798 -0.07685674 0.034874145 0.011219443 0.024156893 -0.02610542 0.08049527 0.035442673
-0.030416043 -0.09702054 -0.013244431 0.012190221 -0.079291224 -0.022061517 0.020111138 0.0875332
0.07798612 -0.06637664 0.060376447 -0.09127028 -0.015171655 0.017262975 0.056716442 -0.09636401
0.031527463 0.046507154 -0.013547631 0.05482624 0.021830695 -0.091747284 -0.026805198 0.03659185
0.023464063 -0.088425905 0.024551837 -0.030347968 -0.041675568 0.0066280463 0.060129493 -0.048059285
-0.040941022 -0.035483003 0.0017498534 0.0592154 -0.017273592 0.08998098 -0.04928492 -0.028957834
-0.018943936 0.0909752 -0.059007924 0.09620946 -0.0048557986 -0.044382367 0.070635736 -0.05886675
0.029154547 0.041033156 -0.053926185 -0.025854893 0.08327657 -0.063009866 -0.053012416 -0.020462522
-0.096915215 -0.016172048 0.033422895 -0.013997431 0.098917626 0.017420948 0.0884446 0.049782585
0.07045545 -0.012928851 0.0753197 -0.024151877 0.01748699 -0.04335018 0.06169911 -0.03688569
-0.00033850907 -0.040404502 -0.064086825 -0.07465973 -0.05542916 -0.0006152914 0.05859723 -0.008482988
-0.08903137 -0.009533359 -0.013708322 -0.100645706 -0.068372875 -0.046045903 0.014918969 -0.056624692
0.064686224 0.05345439 0.032054894 0.029399546 0.032134023 -0.017640498 -0.08768386 0.033478085
-0.04002717 -0.04375628 0.06107147 -0.060223818 -0.011629292 -0.06985013 -0.04355406 -0.06152187
0.08577887 0.039256595 0.08880135 -0.09870881 0.0064783557 -0.09852798 -0.03289999 0.071189284
-0.031829286 0.0023017263 -0.021310998 -0.089788325 0.024603738 -0.04054846 0.05696036 0.04999098
-0.07868385 0.07677438 -0.080283195 0.0060463445 0.02495575 0.015746169 -0.0076309037 0.060238596
-0.012840171 0.012187758 -0.07129592 0.022670487 0.03676034 0.0067609153 -0.071155556 -0.040452484
-0.06063913 0.04723438 -0.049284305 0.05292727 0.026092742 -0.08027161 0.07557186 -0.099823505
-0.019745272 -0.079872645 -0.03387073 0.07217144 0.09177459 -0.00392332 -0.0014668321 -0.0446208
0.0072855665 0.055588983 -0.074936844 0.059939276 -0.04883754 0.09846436 0.079467 0.002714997
0.0983977 -0.09568863 -0.05848976 0.08460893 0.008503878 -0.0103082415 -0.044202063 -0.017940864
0.04858031 -0.019744106 0.011823634 -0.0064909076 0.011512541 -0.039469697 -0.03504911 -0.042804427
0.038966306 -0.032478265 0.0012933109 -0.07974707 0.0813514 -0.022317488 0.0447468 0.092225865
-0.0030101102 -0.09107685 0.046997845 0.03901431 0.07966595 0.08059822 0.021212345 -0.00014960449
0.009212206 0.06924978 0.06962744 0.056811064 0.08391358 0.06937724 -0.07525539 -0.063312784
-0.09516426 -0.06194038 0.013611801 0.00081312296 -0.017145587 0.08398299 -0.004273267 0.0774015
-0.018297026 -0.06071606 -0.0075254487 0.02700012 -0.037920736 0.09114798 0.099475585 -0.047539577
-0.0069483495 0.080102004 -0.07931357 0.01349344 -0.09020118 0.054509543 -0.07716503 -0.09814016
0.03445227 -0.022209609 0.06543733 0.06100328 -0.073213235 -0.09518527 0.0017710539 -0.08567796
0.050060418 0.008625334 0.026756406 0.031958308 0.06457938 -0.0759239 -0.016414586 0.09618083
0.0749851 0.0856827 0.08338759 0.0064905924 0.011392665 -0.0102580385 0.06472368 -0.001747601

gru.weight_hh_l0_reverse f4 [300, 100]
00000000: 56bd 983d 5942 a33c e9c5 883c d088 cd3d
00000010: d67a b4bd 768e 12bd adc9 9bbd e4e5 c43d
00000020: 3700 3dbd a3bb 113d 0c30 e4bc 94ee bc3d
00000030: 36ec a8bc 5776 073d c674 27bd 2f34 94bc
00000040: de82 0bbd e93c 3bbd b5a6 883d f3d5 193c
00000050: f618 973d 00ed b93c 8ffd 63bc 437f c83d
00000060: b8cc b0bc 3979 a5bd 6105 a43c 51b3 ca3d
00000070: 4f78 04bd 6757 c9bd 4f8e 2f3d 002d 0bbd
00000080: 832c b63d b99b 4e3d 6a90 babd 467b e33c
00000090: f5b4 38bc 99a4 23bd 121d acbb 2ccc d93c
000000a0: 7d3d f7bc 81e4 8abd d262 2f3d dd19 bebd
000000b0: 421c 92bc 1ce4 b4bd b075 10bd 6e70 483c
000000c0: 43f3 51bd be0c 1fbd 7741 abbd 8f8f c53d
000000d0: cf8d 143d 55a1 c8bd df65 01bd c3e7 bc3d
000000e0: 2f08 073d a456 c7bd 654e a93d 7e5e 723d
000000f0: 5df3 0fbd 49a5 42bd 6851 623c d9a1 a83c
00000100: e800 4d3d 203c 243c 1826 a53c bc4c 5abd
00000110: 23c2 aa3d 8db5 4cbd 4507 a43d 3881 83bc
00000120: ae8c 343d e64a ac3d 1aa1 b2bb 7624 43bd
00000130: 5d5e b53d 16e6 13bd 4d7d cb3d 44b3 c43d
00000140: e507 8a3d f094 6fbd d68d 803d 08d6 883d
00000150: fa5a 4a3d 67a8 2cbd ec04 6cbc d060 51bd
00000160: 6bd4 c8bd 0a95 3a3c 1ac6 b03d da6d ccbc
00000170: 00f1 843d f889 cabd dc45 a0bd d747 9fbd
00000180: 5f7e 9c3c dda2 d33c c5cf 5cbd 0376 21bd
00000190: 76cf 273d f943 0c3d 7667 ae3b fbcc 8a3c
000001a0: 3bc0 38bd 1fc4 b2bd a446 3dbd d98b 533b
000001b0: 8af2 c9bb 2dcc 78bd 1a5e 40bd 3717 e43c
000001c0: e65d c23c 95ad a23d a279 4d3c 57b1 933d
000001d0: a7ec 1c3c 7dbe 46bd d68e c03b 11bd 973d
000001e0: 3d7a 71bd 153a af3d 9055 c03d 70a1 81bb
000001f0: b722 ba3d dbff ac3d 4551 b73d db92 aa3d
00000200: 7daa a4bd 7d3f c9bd 8a04 cbbd 95fd 53bc
00000210: bce8 023d 92d3 c0bb e920 c2bc 67d0 a7bc
00000220: 539e 8c3d 3f24 55bd aab5 193c 0cb3 44bd
00000230: 67be 0ebd 3170 87bd 80fc 9bbd 79bb a43d
00000240: afc0 94bd 0879 873d 2ea6 c23c b842 903d
00000250: 7fdf a9bd b1b6 55bd 37ee 2b3c 14da 253c
00000260: 4134 52bc e6a1 b6bc c4c2 d03c 63eb 2bbd
00000270: ee32 94bd 3318 803d e6dc de3c ac98 bd3d
00000280: 44bc b1bd a3bf c7bd 301e 803d a68f 293d
00000290: 8c73 adbd 7fe4 7abd 1ec1 bd3d 0ddd a3bc
000002a0: 429f 8e3d f449 763d 1e84 98bd 4ac1 2e3d
000002b0: 0601 66bb f572 90bd 1811 6c3d a3b3 55bd
000002c0: df33 d73c 01b6 be3d 0bce 93bd 3ce1 153c
000002d0: 9e47 2ebb 678c 933c 5a6a 57bd 2266 49bd
000002e0: 2ff8 5ebd b082 853d f2c6 79bd b76e 2ebd
000002f0: 727b e9bb 0179 95bd 54b7 b1bd c2c0 84bd
00000300: ad69 d4bc 9636 c03d 1b4a d6bc 0795 843d
00000310: 6286 bd3d 8806 63bd ebde 4d3b e3a5 b03c
00000320: 71a0 5cbc c1b3 67bd 476a ba3d 7f1b 9bbd
00000330: b189 b5bd de31 b13d f92c a63c cc06 44bd
00000340: 54f4 113d fea7 69bc c333 67bd 90cf 3fbd
00000350: 7532 92bd 442d c33d 5540 453c ee5d 42bd
00000360: a7ee e7bc fb95 27bd 7452 97bd 7301 67bc
00000370: 65ea 643c 7242 473a 101f 8bbd 7bba 67bd
00000380: 09a4 2bbc 9a11 453d 3610 10bd 4df3 a03d
00000390: 2b61 abbd 4661 183d 5740 abbd 4dbb 203d
000003a0: 00e3 0a3d 68a1 35bd 04f2 56bd a389 303d
000003b0: a5c3 a83d 509c 7dbc 2ab0 5abd 5539 6c3d
000003c0: 5cc5 8b3d 056b aa3d cabb e0bc 5cc6 96bd
000003d0: d3da acbd d151 79bc dc7d a73c eec0 953d
000003e0: c8e6 013d f69e 9b3d 884a 993b 193f a63d
000003f0: dcd6 b4bd 4cb3 913d aace 913c 29ef dbbc
0.07457988 0.019929098 0.016695933 0.100358605 -0.088124916 -0.035780393 -0.07606826 0.09614161
-0.046142783 0.035579335 -0.027854942 0.09225193 -0.020620447 0.033071842 -0.04088285 -0.01809129
-0.03406035 -0.045712385 0.06672422 0.009389388 0.07377808 0.022696018 -0.013915434 0.09789898
-0.021581993 -0.08079762 0.020022096 0.09897483 -0.032341298 -0.09831124 0.042860325 -0.033978462
0.08895209 0.050441477 -0.09109576 0.027768742 -0.011273612 -0.039951894 -0.005252489 0.026586615
-0.030180687 -0.06781865 0.04281885 -0.09282277 -0.01783574 -0.08832571 -0.035268486 0.012233837
-0.051257383 -0.03883051 -0.08362096 0.09646522 0.03626805 -0.09796397 -0.031591292 0.092238925
0.03296679 -0.09733322 0.08266906 0.059172146 -0.0351442 -0.04752091 0.013813354 0.020584987
0.050049692 0.010024101 0.020159766 -0.053295836 0.0833781 -0.049977828 0.08009199 -0.016052827
0.044079475 0.08412723 -0.0054513337 -0.047642194 0.08855889 -0.0361081 0.099360086 0.09604505
0.06739787 -0.058491647 0.06277053 0.06681448 0.04940317 -0.04215279 -0.01440547 -0.05111772
-0.098061405 0.011388073 0.08631535 -0.024954725 0.064912796 -0.09889597 -0.078258246 -0.07777374
0.019103227 0.025834495 -0.053909082 -0.039419185 0.040969335 0.03424451 0.005322392 0.016943445
-0.0451052 -0.087288134 -0.046209946 0.00322794 -0.006162946 -0.060741592 -0.046964742 0.027843101
0.023726415 0.079432644 0.012541207 0.07211559 0.009577907 -0.048521508 0.0058764024 0.074091084
-0.058954466 0.08556 0.0939132 -0.0039560124 0.090886526 0.08447238 0.08951048 0.08328792
-0.080403306 -0.098265626 -0.09912975 -0.012938877 0.031960234 -0.005884596 -0.023697333 -0.020485116
0.068661354 -0.05203652 0.009381691 -0.048022315 -0.03484955 -0.06613196 -0.0761652 0.0804357
-0.07263314 0.06614882 0.023760881 0.070439756 -0.082945816 -0.05217618 0.010493807 0.010122795
-0.012829841 -0.022293996 0.025483496 -0.04197253 -0.072362766 0.06254616 0.027204942 0.092576355
-0.08678487 -0.09753349 0.06255758 0.04139676 -0.084693044 -0.061253067 0.0926535 -0.020002866
0.0696397 0.06012912 -0.07447074 0.042664804 -0.0035095825 -0.07053176 0.05763349 -0.052173268
0.026269851 0.09312058 -0.07217034 0.009147938 -0.002659298 0.018011285 -0.05259166 -0.049169667
-0.054435905 0.06519067 -0.060980745 -0.042586055 -0.0071253115 -0.0729847 -0.08677545 -0.06482078
-0.025929296 0.093854114 -0.026158383 0.06473737 0.09254147 -0.05542615 0.0031413387 0.021563476
-0.013465987 -0.05656791 0.09102302 -0.07573604 -0.08864153 0.086520895 0.020285117 -0.047858045
0.0356334 -0.014261244 -0.05644585 -0.046828806 -0.0713853 0.09530118 0.012039264 -0.04745286
-0.02831204 -0.040914517 -0.073887736 -0.014099467 0.0139719 0.00076011487 -0.06793034 -0.056574326
-0.010476121 0.04811249 -0.03517171 0.07858906 -0.08368143 0.037202142 -0.08361881 0.039241124
0.03390789 -0.044343382 -0.052476898 0.04310001 0.08240441 -0.015479162 -0.05339066 0.057671864
0.06824753 0.083211936 -0.027433295 -0.07362053 -0.08440175 -0.01521726 0.020445757 0.07312189
0.03171423 0.07598679 0.0046780743 0.08117504 -0.08830044 0.07114276 0.01779874 -0.026847439

gru.bias_ih_l0_reverse f4 [300]
00000000: d4e2 8e3d 8c52 b4bd a575 0abd 53e9 aabc
00000010: 5773 28bd 2818 ca3c 133c 3f3d e763 59bd
00000020: badc b13c b29c 1b3d e2b6 9fbd 301d 7cbb
00000030: cbdb d1bc 0f4d ad3d 6173 33bc 1ef0 78bd
00000040: e59d 303b d775 ba3d b2ed a2bc c39a 153d
00000050: d358 893d 6ed6 4c3b a160 8ebb 435d 763d
00000060: 7112 cb3c 55e6 b9bc 1af5 07bd 0911 963d
00000070: 13a2 5a3d ec60 ab3d 4108 0ebd fb0b 96bd
00000080: 58db 5bbd e6ff b83d d389 873a ed5f 36bd
00000090: e6ca 0fbb 90be 9e3d cd94 233c 3b8b 81bd
000000a0: fbf8 afbd 52aa 6b3d e595 503d 4b61 08bd
000000b0: 56e8 59bd 0eb9 98bd 44ef 533d 4a07 a6bd
000000c0: cac7 4bbd b207 62ba fa21 cdbc 2521 953d
000000d0: cedd a1bd 14d7 87bb 86e4 c03d 6abd 39ba
000000e0: 79c0 ccbc 69c7 4abc 822a 8b3d 171c 3b3c
000000f0: d81c 4cbd cd54 0dbd d35f 973c a913 323d
00000100: 303f b3bd 8d0b 3abc fcf1 9cbc f097 cdbc
00000110: 9e1d 7ebc 76e4 9fbd 95d1 2bbd 521e 6fbd
00000120: 7e4e 9dbd 202a 5bbd 82b1 69bd 4f2c 453c
00000130: 4f95 f7bb 186b 20bd 3fed 21bd 0ec9 ff3c
00000140: c042 97bd b48a 823d 121f 18bd 2df7 41bd
00000150: a755 823c 3393 203d 0e4d b13d c3e4 193c
00000160: e153 333b 19a4 893d 334d 80bd c17c 91bd
00000170: 0edd bebd f41d 4ebc e9d8 47bd db95 c5bd
00000180: 6aa8 73bd 00dc 9b3d 86a7 983d 1fbf 91bd
00000190: 6b85 9fbb a7b9 0bbd 8c9e a43d dcd1 643d
000001a0: 5179 78bd 5e93 27bc 13b9 29bd 62d9 913d
000001b0: 93af 8fbd 2d55 acbd 3270 13bd d98d 95bd
000001c0: 7322 98bd a5c5 c1bd b1e4 8fbc 1bb9 223d
000001d0: efd7 60bc fbf8 3c3d 107f d2bd 8f36 b5bd
000001e0: e516 33bb 46a7 c0bd ae71 debc 7fc4 b13d
000001f0: 226e 8fbd 25b8 b6bd 9f66 9abd 384e c1bd
00000200: 9960 a33d 4d41 a73d 52a3 1bbd bc10 7c3d
00000210: 4b26 493d 43c7 bb3d 7863 c8bd 75ba b83d
00000220: 2750 923d f0fc 2abd e48f a83d 0be5 a7bd
00000230: 6833 1d3c 20d3 a63c 7438 5f3c 9376 0bbc
00000240: 4627 a13d 971f 36bd 389f 13bd 22fc 8d3c
00000250: 9c1a b53d 3d44 cb3c e95d b5bd 132b 1e3d
00000260: dc93 0e3d 2d34 603c 4238 01bd e17f 8a3b
00000270: d5ec d6bc fb56 86bc 3b12 c63d 9495 c93c
00000280: 66ae 60bd 3e32 533d 0c90 b6bd b4b9 4d3d
00000290: 9cd2 a5bd 19c8 88bd 5734 17ba 6334 853d
000002a0: 747f 14bd 1822 ae3c e2e6 56bd 1dc7 803c
000002b0: 8636 603c b385 37bd 4da6 883b 2729 c73d
000002c0: bffe 42bd 3a69 b23d fdd5 81bd fa52 bdbc
000002d0: f5f9 84bc b937 a63d 1cc7 98bd c97f 1f3d
000002e0: 1bb5 433c 51e8 0bbc 6608 b73d e73d 533c
000002f0: 4d84 bd3c 1b32 cf3d 9bfb 1c3d a504 283b
00000300: b3c3 0ebd 2e4c 40bd ed42 a4bd 9e49 4d3c
00000310: 371f 8f3c 1aa8 28bd ac04 513b 5f26 c43d
00000320: 8b46 d6bd 1e51 3d3e 6536 cabd 00c9 333e
00000330: c4b3 0e3e 61ac 4cbe dd60 9a3e 5d06 9cbd
00000340: 6d80 f6bd 2781 193c 6ec5 493e bd68 c2bd
00000350: 2fe4 0f3e 4a4d c13c 9575 813e bc71 023e
00000360: 9f19 e3bd 7a7c 6c3e 4b72 9c3d 6616 163d
00000370: c4b8 413d 1e7b 44bd 97fe fdbd ba88 ac3d
00000380: 6f06 553e 1145 c2bd f947 023e 39d8 2a3d
00000390: 1139 2dbe d18d bb3d ca85 cc3d f5d1 c9bc
000003a0: e616 a43c fc74 74bd 3520 42bc a1b8 81bd
000003b0: eb89 6a3e 72c9 243e 1eeb 0b3e 50a9 033e
000003c0: 3ebd a53d 7dd1 e0bd fc1a 18bd 149c a13d
000003d0: 23da 8ebd 6007 99bd a01f 1bbe 6735 63bd
000003e0: 123c 5ebd c18f 1a3e 5a28 ad3d 874c c03d
000003f0: 2864 253d e3b5 25be 4c3a afbd 243e 063e
0.06976858 -0.08804807 -0.0338036 -0.02086321 -0.04112562 0.024669722 0.04668815 -0.05307379
0.021711696 0.037991233 -0.07798554 -0.0038469546 -0.0256175 0.084619634 -0.010952801 -0.06077587
0.0026949581 0.091045074 -0.019888733 0.036524545 0.06706395 0.003125574 -0.004345015 0.060147535
0.024789067 -0.022692839 -0.03319273 0.07327468 0.053377222 0.08368096 -0.03467584 -0.07326504
-0.05367598 0.09033184 0.0010340757 -0.044525076 -0.0021941005 0.07751191 0.009984207 -0.06325384
-0.08592411 0.057535477 0.0509242 -0.03329591 -0.05320009 -0.074571714 0.051741853 -0.08106859
-0.04975108 -0.00086223625 -0.025040615 0.072817124 -0.07903634 -0.0041455124 0.094185874 -0.0007085415
-0.024994122 -0.012376645 0.06795217 0.011420271 -0.049832195 -0.0345047 0.01847831 0.04347578
-0.087522864 -0.011355293 -0.019158356 -0.025096864 -0.015509991 -0.07807247 -0.04194792 -0.058378525
-0.07680987 -0.05350697 -0.05705405 0.01203449 -0.007555641 -0.039164633 -0.039532896 0.0312238
-0.073857784 0.06374112 -0.037139006 -0.047354866 0.015909983 0.03920288 0.08657275 0.00939292
0.0027363228 0.06720752 -0.062647246 -0.07103873 -0.093195066 -0.012580384 -0.048790846 -0.09647723
-0.059486784 0.07610321 0.074538276 -0.071165316 -0.0048681996 -0.0341126 0.08038053 0.0558642
-0.06066257 -0.010228006 -0.041436266 0.071215406 -0.0701591 -0.084146835 -0.03599567 -0.07302446
-0.07428446 -0.09461526 -0.017565103 0.03972731 -0.013723358 0.046135884 -0.102781415 -0.08848297
-0.0027326879 -0.09406905 -0.027153816 0.08680057 -0.07003428 -0.089218415 -0.07539105 -0.09438747
0.07977409 0.08166752 -0.03799755 0.061539397 0.049108785 0.091688655 -0.09784597 0.09019939
0.07144194 -0.041745126 0.0823057 -0.08197983 0.009594776 0.020364344 0.013624299 -0.008512157
0.07868819 -0.04446372 -0.036040515 0.01733214 0.08842966 0.024812812 -0.088558026 0.038615298
0.03480898 0.013684315 -0.031547792 0.00422667 -0.026235977 -0.016398897 0.09671446 0.024607457
-0.05485382 0.051561587 -0.089141935 0.05022593 -0.08096811 -0.066787906 -0.0005767992 0.065041326
-0.03625436 0.021256492 -0.05246628 0.015719945 0.013684874 -0.04480524 0.004170215 0.09724646
-0.047606226 0.087114766 -0.06339643 -0.023110855 -0.01623247 0.08116097 -0.07459852 0.038940225
0.011945034 -0.008539275 0.08937149 0.012893177 0.023134375 0.10116979 0.038325887 0.0025637534
-0.034854602 -0.04694765 -0.080205776 0.012529759 0.01747094 -0.04117594 0.0031893654 0.09577631
-0.10462674 0.18487975 -0.09873656 0.17557144 0.13935763 -0.19987632 0.30152026 -0.07618401
-0.12036214 0.009369171 0.1970422 -0.094926335 0.14051889 0.023596425 0.2528502 0.12738699
-0.11088871 0.23094359 0.07638987 0.036642455 0.047295347 -0.047968976 -0.12402075 0.08424516
0.20803235 -0.094858296 0.12722768 0.041710112 -0.169163 0.09157909 0.09986456 -0.024636248
0.02003045 -0.059681877 -0.011848499 -0.06334043 0.22904174 0.1609247 0.13663909 0.12857556
0.08092736 -0.10977457 -0.03713511 0.07891098 -0.069752 -0.0747211 -0.15148783 -0.05547085
-0.054256506 0.150939 0.08454962 0.093895964 0.04037872 -0.16182666 -0.08556041 0.13109642
