sec.pth (torch_old, 515045 bytes, 11 tensors)

transitions f4 [31, 31]
00000000: 0040 1cc6 0040 1cc6 0040 1cc6 0040 1cc6
00000010: 0040 1cc6 0040 1cc6 0040 1cc6 0040 1cc6
00000020: 0040 1cc6 0040 1cc6 0040 1cc6 0040 1cc6
00000030: 0040 1cc6 0040 1cc6 0040 1cc6 0040 1cc6
00000040: 0040 1cc6 0040 1cc6 0040 1cc6 0040 1cc6
00000050: 0040 1cc6 0040 1cc6 0040 1cc6 0040 1cc6
00000060: 0040 1cc6 0040 1cc6 0040 1cc6 0040 1cc6
00000070: 0040 1cc6 0040 1cc6 0040 1cc6 c2fa 65c1
00000080: e9a3 efc1 c4fc 7cc2 f54b 95c1 69b5 2cc1
00000090: cc54 6dc0 4d4a 913f e802 87bf adba bdbf
000000a0: 735b 57c0 4f69 773f 8f5b b53f 7dd8 8cbf
000000b0: 92b9 69bf ae6a aebe f822 06c0 3720 a0bf
000000c0: e0a1 33c1 a822 c3c0 2543 5ec0 3c88 59c0
000000d0: 5886 6bc0 3702 c33e 4aaa 62bf 2aed 353c
000000e0: c238 68c0 78f5 9ec0 06be 9c3f eba6 eebf
000000f0: 0040 1cc6 0040 1cc6 38f0 e6c1 0b7b 1dc2
00000100: f5c9 8bc1 e71d 90c1 4387 1fc1 cf05 c0bf
00000110: 2d64 903e cc32 8d3f 340b 493f 5ab4 d53d
00000120: b322 ab3e 876e bb3e 0e55 863e e546 bfbd
00000130: fc49 093e 8f3f d83f 7424 783e 010d 07c1
00000140: 79df 19be 0314 b2bf c46d b1bf 5503 f8bf
00000150: 2825 bc3e f651 633f ea05 543f c26c babf
00000160: 7c41 b73e d59f 9a3e d0a7 07bf 0040 1cc6
00000170: 0040 1cc6 cc26 69c1 2e7a aec1 2d5c 95c1
00000180: 98a0 33c1 dde2 c5c0 2c3e 23bf dcfe e73f
00000190: cccf 9b3e 43b3 d23e db58 5bbe a61e 883f
000001a0: 9e8f 693e 882e 27bf 6038 233f 9a9d 5e3f
000001b0: a72c fbba b137 49be 06c2 8fc0 c9df b63e
000001c0: 0f1a b53e 170d 41be 8a11 6fbf a5f7 d1bf
000001d0: f37d 33bf f084 35bf 1cca e4be 06c7 93be
000001e0: 8316 db3e 17bc 18bf 0040 1cc6 0040 1cc6
000001f0: 3f59 4bbf d1eb 50c1 795a 0ac1 31b2 40c1
00000200: 4c99 33c0 3618 783f e970 11bf 1a8e 6f3e
00000210: 6153 d23f f781 70bd 9da5 3bbf 2fe0 c5bf
00000220: c472 77be dced e63f c43e 1f3f 53bd 3b3f
00000230: bf6c c43d b333 0fc0 6938 8dbe d6f1 c1bf
00000240: 000e 75bf 6e6b 023f 98ad 15bf 0434 0fbf
00000250: 2418 13bf 7cb7 a93e 7a04 873f a994 d63f
00000260: e80e 5cbe 0040 1cc6 0040 1cc6 6f13 4abf
00000270: 3aea 13c0 af2c a8bf 08fb 443f dbed e03f
00000280: 45bc 0abf 1e4e b3be 6c87 66bf 7c27 d53f
00000290: 10ac 22bf 162a e73f 948b d7be 9ba8 edbe
000002a0: adc1 98bc 46a9 113f 801c 2a3f 07d0 96bf
000002b0: 1a3d b53d e490 dabf 365d 80bf 144e 84be
000002c0: fdf8 95bf 3eb4 733f 85db 133f d5f7 493f
000002d0: 9cca a03f 40a7 ab3f 8a17 6d3e 3ef9 c2bf
000002e0: 0040 1cc6 0040 1cc6 3232 073f 53a3 21bf
000002f0: e5db 74bf c717 edbe 71bb 5c3f 4bdc ff3f
00000300: 9b3e 25bf 096a 0a3f 1814 323f a0a8 0740
00000310: b1fb 0840 0b26 753f f952 5cbd 2568 733f
00000320: e671 64bf 898a 9d3f 1787 e7bf 8d0e 9b3e
00000330: 90a8 683f f1e6 043c f3aa bb3f db40 48bf
00000340: 266a 86bf 3bf7 583f 4e98 c53e 5a54 933f
00000350: 6cf1 bf3d d6d7 88bf 3d4f d9bf 0040 1cc6
00000360: 0040 1cc6 191e b13f d3ac 22bf c8ca 30c0
00000370: 4b19 0540 b912 b2bf 54d4 c4bf 8248 793f
00000380: 3454 eb3d 9669 b63e e0e4 023f 7940 2b40
00000390: 7bf3 663f 4636 61bf 5e71 863e db3c b8bf
000003a0: 1482 693f c39d 453d 9d76 adbf f243 5abf
000003b0: 2bae f43e 97e0 bebf 4dc6 49be 75aa ab3e
000003c0: f844 6c3e 5df2 a1be 98cc 2f3e 8b98 b83e
000003d0: 6966 0ebb 8a0a c0bf 0040 1cc6 0040 1cc6
000003e0: 9f3b 27bf c272 dbbe ce7c 143f b45c 983d
000003f0: 5d05 4dbf 308a 863f fd66 a7be aef1 96bf
-10000.0 -10000.0 -10000.0 -10000.0 -10000.0 -10000.0 -10000.0 -10000.0
-10000.0 -10000.0 -10000.0 -10000.0 -10000.0 -10000.0 -10000.0 -10000.0
-10000.0 -10000.0 -10000.0 -10000.0 -10000.0 -10000.0 -10000.0 -10000.0
-10000.0 -10000.0 -10000.0 -10000.0 -10000.0 -10000.0 -10000.0 -14.37372
-29.955034 -63.24684 -18.662088 -10.79429 -3.7083006 1.13508 -1.0547762 -1.4822594
-3.3649566 0.96645063 1.4168566 -1.1003567 -0.9129878 -0.34065765 -2.0958843 -1.2509831
-11.22702 -6.0979805 -3.4728482 -3.39894 -3.6800747 0.38087627 -0.8854109 0.011103908
-3.6284642 -4.9674644 1.224549 -1.8644689 -10000.0 -10000.0 -28.867294 -39.37016
-17.473612 -18.0146 -9.970523 -1.5001773 0.28201428 1.1031127 0.7853272 0.1043479
0.3342491 0.36607763 0.26236767 -0.09339694 0.13407129 1.6894397 0.24232656 -8.440675
-0.15026654 -1.3912357 -1.3861623 -1.9376017 0.36747098 0.8879694 0.82821524 -1.456444
0.35792148 0.30200067 -0.52990437 -10000.0 -10000.0 -14.571972 -21.809658 -18.670008
-11.226707 -6.1839433 -0.6376674 1.8124652 0.30431974 0.4115239 -0.21420614 1.0634353
0.22808692 -0.65305376 0.63757896 0.8695923 -0.0019163088 -0.19650151 -4.4924345 0.3571761
0.35371444 -0.1885265 -0.9338614 -1.64037 -0.7011406 -0.7090597 -0.44685447 -0.2886278
0.42790613 -0.59662 -10000.0 -10000.0 -0.79433054 -13.057572 -8.647088 -12.043504
-2.8062315 0.9691194 -0.5681291 0.23394051 1.6431695 -0.058717694 -0.7329958 -1.545904
-0.24164873 1.8041339 0.6220515 0.7333576 0.09591054 -2.2375305 -0.275821 -1.5151927
-0.9572449 0.50945175 -0.5846801 -0.55938745 -0.5745871 0.331478 1.0548241 1.6764117
-0.21490061 -10000.0 -10000.0 -0.78935903 -2.311171 -1.3138636 0.76945543 1.7572588
-0.54193527 -0.35020536 -0.9005039 1.6652675 -0.63543797 1.8059719 -0.42098677 -0.46417698
-0.01864704 0.56898916 0.6644974 -1.1782235 0.08849545 -1.7075467 -1.0028446 -0.2584082
-1.171661 0.951969 0.57756835 0.78893787 1.2561831 1.3410416 0.2315351 -1.5232313
-10000.0 -10000.0 0.52810967 -0.6313984 -0.9564803 -0.46307203 0.8622351 1.9989103
-0.64548653 0.54068047 0.6956191 2.119667 2.140362 0.95761174 -0.053790066 0.95080787
-0.89236295 1.2307903 -1.8088101 0.3028454 0.90882206 0.008111701 1.4661545 -0.7822396
-1.0501144 0.84752244 0.38592762 1.1510117 0.093722194 -1.0690868 -1.6977307 -10000.0
-10000.0 1.383731 -0.6354496 -2.7623768 2.0796688 -1.3911964 -1.5377297 0.97376263
0.1149067 0.3562743 0.51130486 2.67581 0.9021527 -0.8797344 0.26258367 -1.4393572
0.9121411 0.048246156 -1.3551823 -0.85259926 0.4778913 -1.4912289 -0.19704552 0.33528486
0.23073184 -0.3163022 0.1716789 0.3605388 -0.0021728522 -1.5003216 -10000.0 -10000.0
-0.6532535 -0.4286099 0.58002937 0.07439557 -0.8008631 1.0510921 -0.3269576 -1.1792505

gru.weight_ih_l0 f4 [300, 100]
00000000: 8054 99bb 9a04 c5bc 92c3 bb3d 314f 03be
00000010: 9726 a03d a5f9 b33d fcc3 13bd fb53 69bd
00000020: df2e 6dbd 8047 56bd 545f 95bd 457b 06bb
00000030: 008c 6fbc d65b fd3d ab39 a33d 329f 433d
00000040: 929a 33bc 7fc6 753d b134 91bc 4eb5 74bd
00000050: 0c8a 653d 0c8d b0bd 64e4 0bbe f05d 39bd
00000060: 6276 843c d0b2 8cbd d164 c03d 231a 8f3d
00000070: 03fa c23d 8e80 87bd e5e6 b53d fe3c 343d
00000080: e1fa 6c3d 5f01 153c 36f5 933c 5976 1abe
00000090: bd93 02bd 5d34 d53d d970 e93d 0994 7a3c
000000a0: b824 d4bd 9db7 203b e6aa 013d 2db5 3b3d
000000b0: b111 a7bd 506d b5bd 56c5 4a3b 838c c83d
000000c0: 8e22 f9bd b581 363d 326d 733d eacf 8e3d
000000d0: eea0 88bd 4251 993c fa77 80bd 799a c5bc
000000e0: ee14 95bd a5cd 493c 48c2 f7bd 52ce a23d
000000f0: 90c8 643d 1105 783c 4036 623c c651 c2bd
00000100: 7140 c43d 6f31 8a3d b533 7b3d 2544 89bd
00000110: 7c49 903d 208d 433d 030d e03c 938d e3bd
00000120: d2f2 333c 7956 9ebc 7c1d 963d 6fdc d53d
00000130: 6b32 a2bd b5d9 df3d 944f b13c 6456 dd3d
00000140: f8bc 2bbd bac8 2cbc bbbe 9b3c 5990 1b3e
00000150: 3d12 103d 0c96 93bd 35f3 033e ddfd 7dbd
00000160: b08d eabc 5f64 523c 43e7 0abd 2357 863d
00000170: 448c 703d 5cc1 063e 79b4 34bd 7054 263d
00000180: 3706 643c 4ace 99bd 65ab 9dbc af08 9a3d
00000190: 32c1 85bd 4390 c83c b74d 95bd 899d a13c
000001a0: c0d7 f53d 5886 05bd 4b92 e7bd 5c36 1d3d
000001b0: 07b1 c0bd 4650 c63c ffcf c4bd 7253 b2bd
000001c0: fd89 b0bc c6fb 18bd d8c0 1c3d f4ef 333c
000001d0: 4179 cf3d a7d6 a6bd f326 1b3d c152 38bd
000001e0: eb78 a73d 4b0b 4ebd 8492 333d 096e 83bd
000001f0: c8d4 913d 8c85 bbbd d2ba 953b 3efd 8b3d
00000200: 0ec6 b83d 55a9 093e ceec a6bd 11eb 7e3d
00000210: 3dfd d2bd 4541 b93d 1d6c 27bc 68e8 22bd
00000220: 406f 31bc 5b7b 2f3d b283 263d e620 933d
00000230: aa73 f6bb 6bb7 3ebd b00f 333d 7d47 923d
00000240: f8a0 19bb 99bc 8b3b 3cab 263d 87ec aeba
00000250: 4bf7 f1bc 85f3 e43d 2f67 113d 5fe7 063d
00000260: 9d97 b73d c5d0 73bd fde3 b83d 2c4d a23d
00000270: be00 043c 38ee e33d 510e 503d 4012 bc3d
00000280: 45d2 663d 2369 b63d e04c c73d bda0 45bd
00000290: 2c59 b33d cf03 9dbb d4a0 a93d a636 c03d
000002a0: e384 aa3b 8388 873d 6138 b73c 2113 d53d
000002b0: 6796 423d 7b83 e23d 6c50 953c d350 5e3d
000002c0: e16c cbbd 1934 663d 8d23 bdbd b36b b83b
000002d0: b0cc ebbc 9a8e 413d 4cb6 2dbd 7d26 233c
000002e0: a39a 9a3c 3af3 0b3c cc08 303c b1f8 833b
000002f0: 9356 9bbd 080f ae3d d04b 69bd 7de3 453d
00000300: 7170 b6bd 7004 8a3d 4a39 d53d 8e8e 9bbd
00000310: e8d7 bd3d 6863 913d 50bb 823c e02b b4bd
00000320: 2df7 223c 7bcf bebd 56a0 cebd 349e a93d
00000330: 9af6 42bd c411 dfbd dd1a 093d 71bc 47bd
00000340: 89f6 263d ad84 4dbd 2a1f c7bd 35bf dfbd
00000350: a6bf 423d 655c b9bd 284a 94bd 015c 4bbd
00000360: f425 813d 2050 92bd d3eb 753d f753 d03d
00000370: f096 b8bd f036 93bd 5b39 f13c 26bd 2b3d
00000380: 15c0 12bd 543c f0bb b39c c7bd f7f0 98bc
00000390: 0f47 9c3d 3c2b cb3d e001 cbbd 783c 863d
000003a0: cad4 783c 670a b33c 6027 e63d 52f4 83bd
000003b0: 320b 49bd 41df a53d b9a8 0abd ed86 0a3c
000003c0: ac84 b2bd a2ea 28bd a124 49bd 8e9c 163d
000003d0: ba0a 3c3b 3d27 443d 02ed b73d 7465 6f3d
000003e0: 3709 ed3d 4216 923d 1c77 93bd 6180 8fbd
000003f0: d009 b6bc fe3b 173d 417b e73c 3670 96bd
-0.0046792626 -0.024050046 0.091681615 -0.12823178 0.078198604 0.0878785 -0.036075577 -0.056964856
-0.057906028 -0.05231428 -0.07293573 -0.0020520252 -0.014620781 0.12371032 0.07969984 0.047759242
-0.010962145 0.060003754 -0.01772532 -0.059743218 0.056039855 -0.086206526 -0.13661343 -0.0452556
0.01616973 -0.06870043 0.09394229 0.06987407 0.09520342 -0.06616317 0.0888193 0.04400348
0.057856444 0.009094565 0.018061262 -0.15084209 -0.031879175 0.10410378 0.11398477 0.015294083
-0.10358566 0.0024523505 0.031657122 0.04582708 -0.08157671 -0.0885874 0.0030940375 0.097924255
-0.12164794 0.044557292 0.05943031 0.0697325 -0.0667132 0.018715505 -0.06272884 -0.02412151
-0.07279383 0.012317096 -0.12097603 0.07949509 0.055855334 0.015137927 0.0138068795 -0.09488253
0.09582604 0.0674771 0.06132861 -0.06702451 0.07045266 0.04774201 0.027349954 -0.111109875
0.010983186 -0.019328343 0.073298424 0.10442435 -0.07919773 0.10930196 0.021644391 0.10807493
-0.04192826 -0.010545904 0.019011846 0.15191783 0.035173643 -0.072063535 0.12885745 -0.06200968
-0.028632015 0.012841313 -0.033911955 0.06559589 0.058727518 0.13159698 -0.044117425 0.04060787
0.013917497 -0.0751005 -0.019246766 0.075211875 -0.0653099 0.024482852 -0.072902136 0.019728439
0.12004042 -0.032598823 -0.113072 0.03838192 -0.09408765 0.0242082 -0.096099846 -0.08707322
-0.021550173 -0.037349485 0.038269848 0.010982502 0.10130549 -0.081464104 0.03787894 -0.045000795
0.0817736 -0.05030374 0.0438409 -0.06417472 0.07120663 -0.091563314 0.00456939 0.068354115
0.09022151 0.13443501 -0.08150636 0.062235896 -0.103022076 0.09045652 -0.010218647 -0.03977242
-0.010829747 0.04284225 0.04065294 0.07184009 -0.0075211124 -0.04656164 0.043716133 0.071425416
-0.0023441892 0.004264426 0.040690646 -0.0013345637 -0.029536864 0.1117926 0.035498794 0.032935496
0.08964465 -0.05952527 0.0902786 0.079248756 0.008056818 0.11129421 0.050794903 0.091831684
0.056352872 0.08906772 0.097314596 -0.048248995 0.087572426 -0.004791714 0.08282629 0.09385423
0.0052038296 0.066178344 0.02236575 0.10404039 0.047506716 0.11060234 0.018226825 0.0542763
-0.099328764 0.056202028 -0.092352964 0.005628073 -0.028784126 0.047255136 -0.04241018 0.009957907
0.018872565 0.008541876 0.010744285 0.004027449 -0.07584872 0.08498961 -0.056957066 0.048312653
-0.08908165 0.06739128 0.10411318 -0.075955495 0.092696965 0.07099038 0.015958458 -0.08797431
0.009946627 -0.093169175 -0.100891754 0.08282128 -0.04759846 -0.108920604 0.033472884 -0.048763696
0.040762458 -0.050175358 -0.09722741 -0.10925142 0.04754605 -0.09050826 -0.07240707 -0.04964829
0.06306067 -0.07144189 0.060039353 0.10172265 -0.09013164 -0.07188213 0.029446295 0.041928433
-0.035827715 -0.0073314104 -0.09746685 -0.018669588 0.07630741 0.09920356 -0.09912467 0.06554502
0.015187452 0.021855546 0.11237979 -0.06443085 -0.049082942 0.08099223 -0.033852313 0.00845502
-0.087167114 -0.04123939 -0.049107198 0.036770396 0.0028692917 0.047888983 0.089807525 0.058446363
0.11574023 0.071331516 -0.07200453 -0.07006908 -0.022221476 0.036922447 0.028257014 -0.07345621

gru.weight_hh_l0 f4 [300, 100]
00000000: 7be9 a53d ac1e 87bc 8ab6 023d 4edb 993d
00000010: 2081 42b9 8165 93bd 5a93 b4bc ed82 80bd
00000020: 0c73 99bd 3486 89b9 1729 713d 7056 a5bd
00000030: 8204 0a3b 4586 b43d 2e53 dc3c d911 1a3d
00000040: 6b81 11bd 0a0c 013d afe4 47bd a844 a6bd
00000050: 62a0 dcbd 871e 90bd 32cb 113c 555b 533d
00000060: 5b5a a2bd 2b8c 4cbd b680 c63d 8df0 483c
00000070: 3425 953b 9142 303c 5e1e 363c 9045 913d
00000080: 1c9d bdbd 2e6f c23d a6b5 683c edeb 833d
00000090: dbf8 44bd 4c33 86bd 72c4 443d 920e d13c
000000a0: 7218 4cbd c957 e23d 8f8c 6b3d 535c 803d
000000b0: 15e3 d1bc 73cd 5bbb 5812 673d 36af 99bd
000000c0: 830d c83c 4ff9 f83c bead cb3c 813f 55bd
000000d0: ca18 c5bd 5cb9 8c3d 4004 c0bd 8f58 32bd
000000e0: 5919 39bb d0f6 25bd 5033 243d d9c3 08bd
000000f0: 6a1f 9f3d 3a50 80bd 3750 98bd 0360 7f3d
00000100: 5447 e53d b23d 4e3c 6f44 bcbd 4c76 8cbd
00000110: 8f08 52bd 9d09 643b 6245 5ebd 1c25 80bc
00000120: ec5c fe3c 810e 643d 72cb a5bd 9e94 a33d
00000130: 0485 82bd c80d 3fbd d992 43bd 9fe4 463d
00000140: e14b 663d e189 d8bc 1292 e53b 5762 8bbd
00000150: c1aa 713d fc24 e03c f6d8 88bc ab87 3f3d
00000160: 3d88 a13d ee12 493c feb5 753d be09 1abd
00000170: 6a6b b43d 72b4 9fbd 8315 ef3c f415 ecbc
00000180: 13b7 2cbd df54 a9bd b2b8 8d3c d36f b33d
00000190: 4154 acbc b17d 72bd 3b42 8d3d 0878 bdbb
000001a0: 9a93 c5bd 3757 a0bd 3edd 1f3d c650 733c
000001b0: 403d ae3c cd7b 363d 73da 35bd 09f2 8b3d
000001c0: 2581 a13d a56b 61bd fa27 9a3d 2844 473b
000001d0: b01b cabd 677a 97bd 56ae 69bd 0071 43bd
000001e0: 0edb edbd 4060 273d e80b 85bd 1e24 5cbb
000001f0: d6cf 2bbd 1939 47bd a233 a7bd ee37 8e3a
00000200: 3f89 0f3c efe6 f4bd 9d8a 83bd 5573 023d
00000210: 8e6a e4bc 01ef ff3c 49a8 8cbc 021f 093c
00000220: fa30 9abd e78d 40bd e2a3 bb3d d9d3 583d
00000230: 6f50 813b 07a3 e6bc 9291 27bc 0ed2 b7bc
00000240: 67c9 153c 3284 d0bc 70ec 84bb 2a28 4bbd
00000250: f541 50bd 284c 6c3d fc5e d2bd 28aa 913d
00000260: 52cc 963d 3ee1 873d 87a2 853c e7af 04bc
00000270: a4be 87bd a7ef d1bd a342 eebc 6d2c 863d
00000280: e0be 8fbd 4be2 b03d be49 323c 2e61 bebc
00000290: 1987 d2bd 70b6 ab3c 164c 6ebd 1ffb 9a3d
000002a0: f8f2 5cbc 9f73 8d3d 8816 1a3d b8ba b7bc
000002b0: 6571 583c 2df2 41bd bc86 4d3b c8ac a13c
000002c0: acf9 883d cd45 063d f93a 02bd 1452 65bd
000002d0: 6651 7fbd f9a6 983d 3b69 b8bd 7e60 cabc
000002e0: 64eb d9bc 9865 cf3c 8683 81bd 3452 803d
000002f0: 9d03 9f3d 1693 973c ad4b e1bb 9d66 b7bc
00000300: 5095 a73c 964e 8b3d 083e b8ba 2464 92bd
00000310: 8715 a73d 7475 e53c 56d3 fe3c 379f 913d
00000320: 0312 fbbd 70d6 1f3d 60ff a1bd 4968 5b3c
00000330: 7305 7a3d 7080 95bd 930d 4aba 7de9 303c
00000340: 746a 9bbd 36ee 21bd f4f5 a33d 4bc7 50bd
00000350: 916f 313d c96d f03c 75ab 87bb 7b8e 863c
00000360: 263a f5bd eaad a1bd e301 95bd 2141 883d
00000370: e709 2d3d 8041 8ebc 6494 783d 0e1d f23d
00000380: 49a7 cdbd 76d8 6cbd 8388 91bd 5691 10bd
00000390: cc23 05b9 00d7 553d 61c3 663d 2ce3 993d
000003a0: 5219 ca3c 71c4 debc 2808 c8bd 6d88 9dbc
000003b0: 886d 9a3d 77a1 4fbc 8527 3cbd 6526 b4bd
000003c0: 64d7 2ebd bd27 143b 9eea 0cbc deac a6bd
000003d0: 7514 6c3d 5637 9f3d 3532 a43d 270e 7b3d
000003e0: 639f bfba 50ea 943d c7be 28bd 6097 69bd
000003f0: d1b7 80bd fe1e cbbc 59da 19bc e8e8 a63d
0.081011735 -0.016494118 0.031912364 0.07512532 -0.00018549385 -0.07197095 -0.022042919 -0.06274972
-0.074926466 -0.00026230665 0.058877077 -0.08073127 0.0021059816 0.088146724 0.026895132 0.037614677
-0.035523813 0.031505622 -0.048802074 -0.08118564 -0.10772778 -0.07037073 0.008898543 0.051600773
-0.0792739 -0.049938362 0.096925184 0.012264383 0.004551554 0.010758058 0.011115639 0.07093346
-0.09258482 0.09493862 0.014203465 0.06441484 -0.04808889 -0.06552753 0.048038907 0.025519643
-0.049828 0.110519 0.057507094 0.062676094 -0.025620976 -0.0033539205 0.05641398 -0.07504122
0.024420505 0.030392317 0.02486312 -0.052062515 -0.09623869 0.06871292 -0.093758106 -0.043541487
-0.0028243868 -0.040518582 0.040087998 -0.0333899 0.07769664 -0.06265302 -0.07437175 0.062347423
0.111952454 0.0125879515 -0.0919274 -0.06858501 -0.051277693 0.003479577 -0.054265387 -0.015642695
0.031050168 0.055677895 -0.08095445 0.07987331 -0.06373027 -0.046644002 -0.047747467 0.048557874
0.056224708 -0.026432933 0.0070059383 -0.06805866 0.059000734 0.027361386 -0.016705018 0.046760242
0.078873135 0.01227258 0.059988014 -0.037606947 0.0880955 -0.07798089 0.029185062 -0.028819062
-0.04216678 -0.08268141 0.017299984 0.08761563 -0.02103627 -0.0592019 0.06897398 -0.005782131
-0.096472934 -0.07829135 0.039029352 0.014850801 0.02126944 0.04455166 -0.044397783 0.06833274
0.078859605 -0.0550343 0.07527156 0.0030405615 -0.09868562 -0.07396393 -0.057051025 -0.047715187
-0.11614047 0.040863276 -0.064964116 -0.0033590863 -0.041946255 -0.048638437 -0.08164145 0.0010850409
0.008760749 -0.119581096 -0.06422923 0.03184827 -0.02788284 0.031241896 -0.017170088 0.008369209
-0.07528873 -0.04701033 0.091621175 0.05293641 0.003946356 -0.02815391 -0.010227578 -0.022439029
0.009142256 -0.02545366 -0.004056506 -0.04959885 -0.05084415 0.057689816 -0.10272023 0.07112533
0.0736319 0.066347584 0.01631285 -0.008098579 -0.06628159 -0.10250788 -0.02908451 0.06551442
-0.070188284 0.08636912 0.010881839 -0.023239698 -0.10279674 0.020961016 -0.05817803 0.07567429
-0.013485663 0.069068186 0.037619144 -0.022427902 0.013210629 -0.047350097 0.0031360826 0.019735709
0.06688246 0.03278141 -0.031794522 -0.05598648 -0.062333487 0.074537225 -0.09004446 -0.024704214
-0.0266015 0.025316998 -0.06323914 0.06265679 0.07764361 0.018502753 -0.0068754763 -0.022387797
0.02045694 0.068020985 -0.0014056573 -0.071480066 0.08158403 0.028010108 0.031106632 0.07110446
-0.12259295 0.039022863 -0.07910037 0.013391563 0.061040353 -0.07299888 -0.0007707711 0.010797855
-0.07588664 -0.039533816 0.08005896 -0.05097131 0.04331929 0.029349225 -0.0041403123 0.016425362
-0.119739816 -0.078944996 -0.072757505 0.06653047 0.04224577 -0.017365217 0.06068839 0.11821948
-0.10041673 -0.05782362 -0.07106116 -0.035294853 -0.00012697204 0.052206993 0.05633867 0.07514033
0.024670277 -0.02719328 -0.09767181 -0.019230092 0.07540423 -0.012672774 -0.045936126 -0.08796386
-0.04268588 0.0022606694 -0.008600859 -0.081384405 0.057636697 0.07774226 0.08017389 0.061292794
-0.0014619644 0.07271254 -0.041197564 -0.057029128 -0.0628506 -0.024795052 -0.009390437 0.08149892

gru.bias_ih_l0 f4 [300]
00000000: c49c 90bd 579f 8c3d 2359 eb3d 43a4 c63c
00000010: a4ea b9bc bfea e1bc 353c 7cbd 10c7 04bd
00000020: f9df 88bd 6ddc 0fbd 57d8 c53d 670e 60bc
00000030: 6d19 e9bc 8f35 81bb 46c5 6a3d 6a29 2b3c
00000040: 0189 1b3d 052a 153d 3ea0 9bbc 1142 a53d
00000050: 1553 f0bb d902 cd3d 019a b53d 140e e03c
00000060: da15 d83d f66b 42bd 4c47 003e 8aab b73d
00000070: 134d acb9 2ea0 8b3d e6d9 94bd 7ea4 63bd
00000080: 1041 883d ea92 a73d 212a 6cbc c2ed 823d
00000090: d657 53bd 8e85 223d 358b 923c 64cf b03d
000000a0: 7ef4 d93d 7977 903d e246 8bbd 7f20 5fbd
000000b0: a0cf 47bc 494c 82bc 3cad a43b 13f5 25bc
000000c0: 4959 0ebd ab4f 82bd 7297 86bd 9db2 a5bc
000000d0: 6205 973d acd2 1a3c d45b d63b 0292 1abc
000000e0: 4105 b8bd 956b e3bb 9a12 51bc 9ba2 61bd
000000f0: bfa6 b13c 0584 82ba 1655 76bb 4a5b 88bd
00000100: 4c60 e73d e1ff a1bd a2c4 1bbd 1e5c 1a3c
00000110: d1b1 713d 9493 c9bb 7d59 abbc 8c0a 2fbb
00000120: 5a90 193c 3986 aabd f09e 33bd 216b aabc
00000130: fbec b33d 05c5 9f3c a071 723d 06be e73c
00000140: 4cd7 473d 4ff8 33bd 988f bf3d 2ddb db3d
00000150: 446e bb3c 6832 ad3d bb63 df3d 7877 b53d
00000160: 46ba 3bbd 2c31 b13d 3ad4 a93d d56f e1bd
00000170: baa1 453d 6912 47bc 4339 b13d 82cf b03b
00000180: 223e aa3d 70c9 a63d 1a9c e7bb 492f 89bd
00000190: 66e3 0dbd 1ede 41be d7ff 63bd 57c3 e83c
000001a0: 612e 6f3c 26bc 973d 9c8e 9bbd d393 b1bd
000001b0: 397d bdbd 69ab 493d 1110 383d cb32 40bd
000001c0: 1e9e 7ebd c3ee 8c3d 0028 a6bb ee65 b2bd
000001d0: 5895 a23d 0d21 6fbd 7cb3 1f3d 28c0 84bc
000001e0: da02 98bd 7a63 11be a5bc c6bb 8f16 50bc
000001f0: b59b 963d 9e4c 12be b0a8 2ebd 2a08 81bd
00000200: ecaf 0fbd 9253 21bd f3ce 8b3d 5278 a93b
00000210: 089f c7bd 209c 843d 1165 81bd 9bb0 87bd
00000220: 9bb9 84bb 7233 8abd 7903 d4bc cf05 ab3d
00000230: be4d d0bc 0c53 b73d 3cf0 ecbd 091e 93bc
00000240: 00d8 abbd 5f41 43bd a059 8cbd d80f 643d
00000250: 31bd aebc fb36 c6bd f338 4e3c 99a5 393b
00000260: 73ad f0bd f7a6 2f3d 94b9 15bd 9aac 88bd
00000270: 0b5a 7f3a f2f4 45bd 221e a7bd 7cd4 3a3d
00000280: 7ec4 13be f8cb cfbd 6093 f5bd b043 a5bc
00000290: 53b0 08be 16cb 58bc 4d2a b43a 1585 e4bd
000002a0: 8666 973d 036a 1c3d f7b3 0abe ac87 ac3a
000002b0: 0a64 4cbc 214f f0bd 5118 ccbd 53f1 d3bd
000002c0: bfcb abbc 7a17 0abe 0e30 ffbd 288a 4a3a
000002d0: 6829 6fbd 0337 20be fa0a 41bc d6e4 b43c
000002e0: 80d6 c23b 5f8a b0bd 3c68 4d3d e4a1 8abd
000002f0: ecc3 83bd ec91 1dbd 8176 8abc 3715 ccbd
00000300: 0115 303d 7a33 53bc 7284 893c ed61 aabd
00000310: 2d88 b6bd 36bd 40bd 8b6a 29bd 55bb 95bd
00000320: 9fa4 99bd 3e4b c0bd d199 95bc 9692 d9bb
00000330: c9ef 9aba 5feb 163d 85c0 df3c dcc6 113e
00000340: 5d62 11bd e8a4 f7bd b279 763d 232b 04bd
00000350: d22a 383c 4023 bb3d 0542 393e f02e ab3d
00000360: 40a0 3abd b9dd ab3d 896f 62bc 0d3d 91bc
00000370: 42b5 e1bd 9639 0b3c 2883 263d 0f2b 38bc
00000380: 1867 abbd e6d3 42bd 95d9 90bd cdb8 233e
00000390: 12f5 373d 3c5a 72bc 1cf4 9a3c 37f5 0d3d
000003a0: 5c84 a1bb de07 7b3d dfe7 373c b564 8e3c
000003b0: d9bf 09bd 68de 963c 8f01 dfbd de57 983d
000003c0: ea7b b9bd daa4 f3bd 6674 8f3d ed1d 423d
000003d0: 2074 a83c a89d 2e3e df54 09be d1c2 4b3d
000003e0: d4eb 933c ea5e 1f3e 9e93 4c3d cec4 bfbd
000003f0: ea20 003d 96f0 79bd 937b 9d3c 4d2c e6bc
-0.07061151 0.06866329 0.11491611 0.024248248 -0.022694893 -0.027577756 -0.061580855 -0.032416403
-0.066833444 -0.035122324 0.09660404 -0.013675309 -0.028454507 -0.0039431523 0.05731704 0.010446886
0.037972454 0.036417026 -0.018997308 0.08069242 -0.007334123 0.10010309 0.088672645 0.027350463
0.10551043 -0.04746624 0.12527198 0.08968265 -0.0003286382 0.06817661 -0.07268123 -0.055576794
0.06653035 0.081823185 -0.014414341 0.06393005 -0.05159744 0.03967815 0.017888645 0.086333066
0.10642336 0.070540376 -0.06800629 -0.05447435 -0.012195498 -0.015905516 0.005025534 -0.010129231
-0.034753118 -0.06362852 -0.06571855 -0.020226771 0.073740736 0.009449642 0.0065417085 -0.009434225
-0.08985377 -0.006940315 -0.012760783 -0.055086713 0.021685956 -0.0009957558 -0.0037587336 -0.06658037
0.11297664 -0.07910133 -0.03802932 0.0094213765 0.05900747 -0.006151626 -0.020916695 -0.0026709167
0.009372795 -0.08326382 -0.043852746 -0.020803036 0.08785435 0.019503126 0.059190392 0.028288852
0.048789307 -0.043937977 0.0935356 0.10735164 0.022879727 0.0845688 0.10907694 0.088606775
-0.04583194 0.08651957 0.08292432 -0.110076584 0.048249938 -0.012150385 0.086535 0.0053958306
0.08312632 0.0814389 -0.0070681693 -0.06698472 -0.034640692 -0.18932387 -0.05566391 0.028413458
0.01459846 0.07408933 -0.0759556 -0.08670773 -0.092524 0.049235735 0.044937197 -0.04692344
-0.06216251 0.06881478 -0.0050706863 -0.08710848 0.07938641 -0.05838113 0.03898953 -0.016204908
-0.07422419 -0.14198104 -0.0060649686 -0.012700691 0.073539175 -0.1428704 -0.04264134 -0.06300385
-0.03507988 -0.03938634 0.06826582 0.005171814 -0.0974713 0.06475091 -0.06318105 -0.06625482
-0.004050446 -0.06748094 -0.025880562 0.08350717 -0.025427695 0.08951387 -0.115692586 -0.017958658
-0.08390808 -0.047669765 -0.06853032 0.055679172 -0.021330448 -0.096784554 0.01258682 0.0028327464
-0.11751833 0.04288384 -0.036553934 -0.06673546 0.00097408955 -0.0483293 -0.08160044 0.045612797
-0.14430425 -0.10146326 -0.11991 -0.020173877 -0.13348512 -0.013232013 0.0013745517 -0.11158196
0.07392602 0.03818704 -0.13545214 0.0013162992 -0.012475023 -0.11733843 -0.099655755 -0.10348763
-0.020971177 -0.13485518 -0.124603376 0.00077262754 -0.058389097 -0.15645985 -0.011782402 0.022081774
0.0059459805 -0.08620142 0.050148234 -0.067691594 -0.064338535 -0.03846924 -0.01690221 -0.09964984
0.04298878 -0.012890691 0.016786788 -0.08319459 -0.08912692 -0.047055446 -0.041361373 -0.073111214
-0.07502102 -0.09389351 -0.018261822 -0.006639789 -0.0011820729 0.03684556 0.02731348 0.14236015
-0.035494197 -0.12092 0.06017465 -0.0322677 0.011240678 0.09137583 0.1809159 0.08358562
-0.045562983 0.083918996 -0.013820537 -0.017729307 -0.110209 0.008497616 0.040652424 -0.011240735
-0.08369273 -0.047565363 -0.070727505 0.15988465 0.04491145 -0.014792021 0.018915229 0.034657683
-0.0049291085 0.0612868 0.011224716 0.017382005 -0.033630226 0.018416598 -0.10888969 0.07438634
-0.09056838 -0.11896677 0.07004623 0.04739182 0.020563185 0.17052329 -0.13411282 0.04974634
0.018056788 0.1556355 0.049945466 -0.093637094 0.03128139 -0.061020456 0.019223964 -0.028097296

gru.bias_hh_l0 f4 [300]
00000000: e74f 9ebd 50f3 80bd 3a07 653d ce00 8abc
00000010: 3f0d 4a3d ed78 dcbc 947c aabc d2c9 b1bd
00000020: 3c71 0f3d 8217 61bd 2914 9a3d 3f27 8a3d
00000030: 45f9 90bd fa31 a83d a446 473d d467 36bd
00000040: 4892 f83b c36c 81bc 4d1b cf3b 162b 3d3d
00000050: a76e 873d ff25 dc3d 3ca1 2fbd 9abe af3d
00000060: 936b 27b9 6190 1cbd 88bc 01bd c5c6 873d
00000070: e28c 8d3c 0ee5 fe3c 1994 98bd f01b babd
00000080: 89d6 363d b644 7b3d 06e7 be3d a0f8 72bd
00000090: ae81 d4bc 1ad2 183c 0ae8 49bd 25ee f8bc
000000a0: 0d17 febb 1025 833c 50c6 97bd c9d4 91bd
000000b0: f00c c23d 5e0e 3fbc b076 223d 0a21 4c3d
000000c0: 5ec5 313d 798c ed3d 9c86 ce3c acee 253d
000000d0: 1c16 953d 3616 6ebd 7b44 49bc e599 b33c
000000e0: fc32 0bbc 7d15 cd3d 955d d33a 574f 2abd
000000f0: c8fc 0abd 4376 71bd 447c 463d 2b31 873a
00000100: 5616 8abd dfba 813d cdde 7fbc 6035 a8bd
00000110: de01 353d 556d c03d d038 b83d 7388 5bbd
00000120: 74f6 6e3d 7954 82bd 1a4e 82bd 7276 46bc
00000130: 0149 b9bd 3867 cd3d 1d06 873d d6e8 633d
00000140: 6dd7 b33a 4815 c1bc c39b bb3d 174d 643d
00000150: c41b 73bd c429 97bd df55 6fbd 61bc ff3c
00000160: 49d9 e6bb d242 87bd f352 9d3d 4bf3 04bc
00000170: 524c 873d 1f18 623d 3349 1cbb 5700 9e3d
00000180: 1221 f13d 2708 4b3d d6d2 03bc eb5c a7bd
00000190: 0293 48bd 3587 8dbd 6bc7 2abd fd23 f3bc
000001a0: 4a03 21be 29af 25bd b6fe edbd 1b38 9c3c
000001b0: 50ca 3d3d 7c80 1cbc eab8 02be f272 10bc
000001c0: 1652 8f3d 709b 483d 86ae c3bd 7445 9dbd
000001d0: 9a89 02bd 5e63 413d 1911 d9bc 31c7 a9bc
000001e0: ade6 353d 3f94 81ba 2c28 6fbd 6518 40bd
000001f0: 947c a9bd 750a eabd 92d1 83bc 4383 30bb
00000200: 244e 433d e32a 053b 1d20 a7bc c3e7 dfbd
00000210: ec7d 0abc d90c 41bd e015 24bd f49b 8a3d
00000220: c73e 8dbd 181f 4bbd 90ef 0ebd d229 5bbd
00000230: 9b77 43bd a915 dd3c 5414 0cbe a3e0 debd
00000240: a19c f3bd 51d7 853c 5245 41bd 0ffa 63bc
00000250: c1d1 773d 6d50 c2bc 3494 ebbc 8938 87bd
00000260: b160 72bd c11a 67bd 8c7b 79bb a6ab 22be
00000270: 19c6 15be b6d5 213c 7972 34bd 21e2 893c
00000280: 823d 3b3c 1e37 0dbe ffbd debd 4714 2f3c
00000290: 5a83 29bd 75b8 3c3d 282f 01be 1720 7a3d
000002a0: ffab 983d 5e17 a3bd 46c1 ecbd 5161 613d
000002b0: 78b2 973d 07af e2bd 8def 76bd b7bc 9dbd
000002c0: 8a9e a53d 45fb 203d 7ca9 6ebd 899f 643b
000002d0: 9315 93bc aa27 0fbe 8d9a e43c 7eda 073b
000002e0: 2d8b 04be 78c4 8c3c c8b2 94bb 0a08 d3bd
000002f0: 126b f3bd fcda 55bd 029b b9bd b445 8fbc
00000300: 9949 edbd abe2 e73c 7f46 babd 310e b6bd
00000310: 5401 24bd 9f7c fbbd caba b0bd 3ccd 0abe
00000320: 017e 96bc 2921 12bd f26e ca3d b679 2b3d
00000330: 1f07 453c df21 d53c 33e9 c43d cc57 9d3d
00000340: 051f af3d 344a 9abd 0a5f 133d da1b 90bd
00000350: 8eb9 38bc 7930 aa3d bf91 8d3d 0662 013e
00000360: fb40 bf3c 8c28 ab3d df2c b03d 4753 84bd
00000370: 2584 2fbd e99c cc3c a5a2 df3d 39c8 503a
00000380: 0052 373d 07f3 4fbc 6b76 573d 8d49 0f3d
00000390: f1a4 5d3d f221 3dbd 6f5d 9a3c 60c4 4a3d
000003a0: 7a27 69ba d3bf b63d f5b8 82bd f319 953c
000003b0: 3733 d7bc 819b a43d 4850 a2bc a3e1 113e
000003c0: 0545 8cbd ba40 ef3b 895f f13c e225 453c
000003d0: 79e6 c13d c224 1c3e f38a c9bd c73b d53d
000003e0: 8ba0 59bd a31e b03d ef85 a13c 77b8 09be
000003f0: d3a6 1fba 301b 88bd 149c 5ebd 0f91 8f3d
-0.07730084 -0.06296408 0.055915095 -0.016846087 0.04932904 -0.02691313 -0.020811357 -0.08681072
0.035020098 -0.05495406 0.075233765 0.06745767 -0.070787944 0.08212657 0.048651353 -0.044532612
0.0075857975 -0.015798932 0.006320393 0.046183668 0.06612902 0.10749435 -0.042878374 0.08581276
-0.00015966436 -0.038223628 -0.031673938 0.06629709 0.017279092 0.031115081 -0.074501224 -0.0908736
0.04463819 0.061344825 0.09321408 -0.05931914 -0.025940742 0.009327436 -0.049293555 -0.030386994
-0.0077542127 0.016008884 -0.07410872 -0.07120664 0.09475124 -0.01166114 0.03966397 0.049836196
0.043401115 0.11599059 0.025210671 0.04051082 0.07279608 -0.05812665 -0.012284393 0.021923969
-0.008496042 0.10013864 0.0016125912 -0.04157957 -0.033932477 -0.058950674 0.048458353 0.0010314336
-0.067425415 0.06334471 -0.015617085 -0.082133055 0.044191234 0.093958534 0.08995211 -0.053596925
0.058340505 -0.06363768 -0.06362553 -0.0121132005 -0.090471275 0.10029453 0.06592963 0.05564197
0.0013720818 -0.023569718 0.091605686 0.05573758 -0.05935265 -0.07381013 -0.058431502 0.031217756
-0.0070449454 -0.06604542 0.07681837 -0.008114646 0.06606354 0.055198785 -0.002384734 0.077149086
0.11773886 0.04956832 -0.008045873 -0.081720196 -0.048968323 -0.06910554 -0.041694086 -0.029680246
-0.15723911 -0.04045025 -0.11620848 0.019069722 0.04633552 -0.009552117 -0.12765852 -0.008816468
0.069980785 0.04897636 -0.09554772 -0.07679263 -0.03186951 0.047213905 -0.02649741 -0.020724865
0.044409443 -0.00098861 -0.05838792 -0.046898264 -0.082757145 -0.11427776 -0.016091142 -0.0026933707
0.047681943 0.0020319752 -0.020401055 -0.10932877 -0.008452874 -0.047131393 -0.040059924 0.06768027
-0.068967395 -0.0495902 -0.034896433 -0.05350668 -0.047721487 0.026987867 -0.1367963 -0.1088269
-0.11895109 0.016338022 -0.04718525 -0.013914599 0.06050277 -0.02371999 -0.028757192 -0.0660258
-0.059174243 -0.056422 -0.0038068024 -0.15885791 -0.1462635 0.009877613 -0.044054482 0.01683146
0.011428239 -0.13790557 -0.10876083 0.010685987 -0.041385032 0.04607435 -0.12615645 0.06106576
0.07454681 -0.07963441 -0.115603015 0.05502445 0.07407087 -0.1106854 -0.060287047 -0.0770201
0.080868796 0.03930213 -0.0582671 0.003488513 -0.017954623 -0.13979974 0.027905727 0.0020729597
-0.12943716 0.017183527 -0.004537914 -0.10304268 -0.118856564 -0.052210793 -0.090627685 -0.017489292
-0.11586303 0.028306326 -0.09095477 -0.088894255 -0.04004033 -0.12279629 -0.08629377 -0.13554853
-0.01837063 -0.035676155 0.098844424 0.04186412 0.012025624 0.026017128 0.09614792 0.076827615
0.085508384 -0.075336844 0.03597931 -0.07036562 -0.011274708 0.08310027 0.069125645 0.12635049
0.023346415 0.08357343 0.086023085 -0.064611964 -0.042850632 0.024977164 0.10919694 0.0007964406
0.044755936 -0.01269222 0.052603167 0.034982253 0.05411238 -0.04617495 0.01884338 0.049503684
-0.0008894127 0.08923306 -0.06382934 0.01820085 -0.026269538 0.080374725 -0.019813672 0.1424623
-0.06849102 0.007301417 0.0294645 0.012032958 0.09467787 0.15248397 -0.098409556 0.10411792
-0.05313162 0.085995935 0.019717185 -0.13449274 -0.00060902274 -0.066458106 -0.054348066 0.070100896

gru.weight_ih_l0_reverse f4 [300, 100]
00000000: 6583 3b3d f5f0 bf3c e786 973d a732 843d
00000010: cc8b 7f3c 0384 753d c77b 063d c4e7 bdbd
00000020: a1be b93d 09bd c3bd d7c2 7c3c 9a50 ddbc
00000030: cb34 83bd c34a 9abc d735 2a3d 6368 81bd
00000040: 2dfb d1bc a34a c13d 35c4 b13b 72c2 90bd
00000050: 080a 8cbd b30d c0bd 0400 043d 077f 31bb
00000060: 95ce 83bd 6ccb 2fbc 4d91 893d 0e6f c03d
00000070: db78 c0bd 4e30 3cbd e2b0 a33d 881e c4bd
00000080: 1dc2 9bbc 43c8 353d 8be7 033d 804a f63c
00000090: dfa1 cabc 147a a83d 6da8 2ebc f144 14bd
000000a0: 3c6a ba3d 96b1 e1bb 4f9e 353d fd94 58bd
000000b0: 8a10 073c 3264 0b3c 3e98 a83d 252f 3dbd
000000c0: 88ce 9dbd 00bf 79bc 1f7a 27bd d869 95bd
000000d0: 9f6c c53d b456 d23c 3bcf 1e3d be27 e13b
000000e0: aaa7 bebd 7524 49bd 2edc 80bd af95 20bd
000000f0: b6ec a43d 1afb a63d 2b36 8bbd 133d a83d
00000100: 84a9 823d db39 8cbc 2429 9bbd ae9c 27bd
00000110: 91be cbbd 3f4a 86bd 8e56 50bd 0003 41bc
00000120: 2b5b 22bc 071d c83d 1f66 b23d 0a8c 783d
00000130: 412e c4bd 3fc6 65bd 2dac ab3c f4f2 863d
00000140: b938 39bd fd48 9d3d e328 1abd 0e93 0c3d
00000150: ffa2 f23c 68fa 493d 4c60 633d cbb8 93bd
00000160: 816a c83d 5307 85bc 2cf3 c23d 865f 1a3d
00000170: dac1 ebbc a810 0cbc 2259 95bd 6b06 3dbd
00000180: e110 9fbd 4393 433d 55f5 a33b dd3c 413d
00000190: 87f2 e6bc 9031 afbd 98bb 92bc 6d62 a8bd
000001a0: 544f b0bd e277 7d3d c5b3 9d3d 3a42 a5bd
000001b0: 2c19 2e3d 10f7 01bd c35e 08bd 4201 7c3d
000001c0: 9250 95bd 34bf a73c 0692 043d ac82 b43d
000001d0: b7db 4c3c 67ec 293d 85e0 873d b399 85bd
000001e0: f443 16bd 65ec 923d 562a 3c3d cacc a7bc
000001f0: cfde 483c e25d 653c 2f47 d33d 9cb8 7d3d
00000200: 673d bcbd a307 86bd 33db 783d 51b6 26bd
00000210: 2eab a3bd 0bbe 82bd a575 a03c 77f2 70bd
00000220: e9da f3bc ef36 7fbc 38a2 513b 9bd7 9ebd
00000230: c585 63bd 4377 543d a19f 8b3d c9d2 a63d
00000240: 9a7e 613d 1788 723d 7db9 243d 0a6a 7ebd
00000250: 1d51 e3bb 3443 fd3c 4cfc b4bd 96d3 f5bb
00000260: 0021 033a b69e 51bd 428f 9e3d 9e3f 7dbd
00000270: f3ce 60bd d9b9 15bc 5516 6ebd c15c aabd
00000280: d0d3 21bd 79ea 143d 7ead 5d3d de2e c23c
00000290: 1567 f2bb 0763 63bd be97 223d ee8a cdbc
000002a0: 6965 84bd 30fc 87bd 17f5 6abd 0829 e6bb
000002b0: 13b8 b8bd 4eab 4b3d ee4d 863d 1338 1bbc
000002c0: c376 b83a 3b5e aebd abb3 b03d bf83 4a3a
000002d0: d01e b8bd 872b c7bb 22a0 79bd 31a1 1ebd
000002e0: ddb4 cc3d 0770 bb3d abfd 8fbd 6b3a 903d
000002f0: 3a23 793d f2b3 20bc 6637 92bb e144 8ebd
00000300: 965a b4bd a020 36bd 80ea 46bd 9e4e b1b9
00000310: c048 ab3d b8b5 9bbd 6e32 b23c 1574 453d
00000320: ae72 3d3d 370d a53d f0f1 c43d 3416 b53c
00000330: ca25 0f3d 67ad 33bd 9206 c5bd 0ddc 483d
00000340: 7365 bfbd ba64 d8bb e478 a73d 81fd 8dbd
00000350: aa65 3cbd 0484 853c 9337 203d ee4b a8bd
00000360: 7a1a a8bb d9e4 9d3c 0f17 53bd 7be1 b03d
00000370: 8690 543d 682f 1cbc e990 423d ad94 11bb
00000380: 94f7 73bc 5ed5 42bd db0e 4dbd 2b78 b3bd
00000390: 16fc 48bd 63fb 60bc 2715 dfbd 4436 253d
000003a0: 943b 133d 1f58 f43d b719 be3d a07a 60bd
000003b0: 1c22 5abd 2ec6 ad3c 8bf2 cebb d1f4 3a3d
000003c0: 2070 2d3d a0dc 8cbc 78b6 52bd c7aa b7bc
000003d0: 448e 80bd 3d9e a83b a0a6 14bc 909e 0ebd
000003e0: af91 cc3c 646f 9a3d 414c 133c 4bf4 15bd
000003f0: a4aa e3ba 8111 b13d f44a cb3c 14c0 053d
0.045779604 0.023430327 0.073987775 0.06454974 0.015597295 0.05994035 0.032832887 -0.092727214
0.09069563 -0.0955754 0.015427313 -0.027015973 -0.06406554 -0.018834477 0.041555252 -0.06318738
-0.025632465 0.09438064 0.005425001 -0.070683375 -0.06837851 -0.09377613 0.032226577 -0.002708377
-0.06435887 -0.010729652 0.06717167 0.09396182 -0.09398051 -0.045944504 0.07992722 -0.09576136
-0.019013459 0.044380438 0.03220324 0.030064821 -0.02473539 0.082264096 -0.010660273 -0.03619856
0.09102294 -0.006887625 0.044340428 -0.05287646 0.008243689 0.008507775 0.08232163 -0.04618754
-0.07705408 -0.015243292 -0.040887948 -0.07295579 0.096398585 0.025676109 0.03877185 0.0068711927
-0.09309323 -0.049107034 -0.06291996 -0.03920525 0.080529615 0.081533626 -0.06797441 0.08214774
0.06379989 -0.017117431 -0.07576206 -0.040920906 -0.09948457 -0.0655713 -0.050863795 -0.0117805
-0.009909431 0.097711615 0.08710884 0.060680427 -0.09579135 -0.056097265 0.020956123 0.065893084
-0.04522011 0.07679937 -0.03763665 0.03431993 0.029618738 0.04931107 0.055511758 -0.07212981
0.09785939 -0.016238844 0.095190376 0.037688754 -0.028778959 -0.008548893 -0.07292391 -0.0461487
-0.07766891 0.04774786 0.005003611 0.047177184 -0.028191818 -0.08554375 -0.017911717 -0.08221898
-0.08608881 0.061881907 0.07700304 -0.08069272 0.042504475 -0.031729758 -0.033293497 0.061524637
-0.07290758 0.020476915 0.03236582 0.08813986 0.012503556 0.041485216 0.066346206 -0.065234564
-0.0366859 0.07173995 0.045938812 -0.020483393 0.012260153 0.013999434 0.103163116 0.061943635
-0.09191399 -0.06544425 0.06075592 -0.040701214 -0.07991634 -0.06383904 0.019587347 -0.058824982
-0.02976747 -0.015577062 0.003198756 -0.07755967 -0.055547494 0.05187155 0.06817556 0.08145673
0.055052377 0.059211817 0.040215958 -0.062112845 -0.0069371597 0.030915834 -0.08837184 -0.0075020296
0.0005002171 -0.05117675 0.07742168 -0.06182825 -0.054884862 -0.009138548 -0.058126766 -0.08318473
-0.03950864 0.036356423 0.054120533 0.023703989 -0.0073975422 -0.05551436 0.039695494 -0.02509066
-0.06464655 -0.06639898 -0.057362642 -0.0070239343 -0.09019484 0.049723916 0.06557833 -0.009473818
0.001407348 -0.08514067 0.08628019 0.000772532 -0.08990252 -0.006078187 -0.06094373 -0.038727943
0.099954344 0.09152227 -0.07030805 0.07042392 0.06082461 -0.009808527 -0.0044621704 -0.06946731
-0.088063404 -0.044464707 -0.04856348 -0.00033818645 0.08363485 -0.076030195 0.021752562 0.048206408
0.046251945 0.08059161 0.096164584 0.022105314 0.034948148 -0.04386654 -0.09620394 0.04903798
-0.09345522 -0.0066038044 0.08177355 -0.06933118 -0.045995392 0.016298302 0.0391155 -0.082176074
-0.0051301094 0.019274162 -0.051535662 0.08636757 0.05189564 -0.009532787 0.04750148 -0.0022213862
-0.01489057 -0.047566764 -0.050062995 -0.087631546 -0.049068533 -0.01373181 -0.10892706 0.040334955
0.03594549 0.1193087 0.092822485 -0.054804444 -0.053255185 0.021212664 -0.0063155345 0.04564363
0.04234326 -0.017195046 -0.051443547 -0.0224203 -0.06277135 0.0051458166 -0.00907293 -0.034819186
0.024971811 0.07540777 0.008990348 -0.03660993 -0.001736958 0.08645917 0.024816014 0.032653883

gru.weight_hh_l0_reverse f4 [300, 100]
00000000: 7fcb 86bb 956b ac3c 6433 95bd e17d ccbd
00000010: e85f 863c 27f7 4abd 6e3a 733d bd09 6abd
00000020: dcb3 f53c e5bf 253d c546 3ebd 812c 0bbd
00000030: 3c3e 8fbd cb36 8a3d c969 3bbd ccdc b33d
00000040: 05e0 fe3b a9fb a0bd 0d1d 02bd faaf b83d
00000050: e8fa a23d 7777 a5bd 8c91 913c 2647 55bc
00000060: ffa3 c1bd 4d0b bdbc 784b 0a3d d181 553c
00000070: 8317 05bd 432b c1bc 62ad b4bd bc49 8ebd
00000080: 47c7 9f3d bc9d 12bc 25c7 f3bc 68bf f7bb
00000090: 1076 583d 2d6c 603d 97fd 873d ac9e 02bc
000000a0: c99e 753d e236 933d 9421 b7bd bf19 3e3d
000000b0: b9ac 9bbd bf26 c6bd 7949 38bd 3d43 cbbd
000000c0: 8960 1a3d d480 133d f8e4 e03c a0bc 90bc
000000d0: 944f a3bd 7e21 7dbd 80ae ba3d 3b36 c6bd
000000e0: ba5d b7bd 5ef0 8dbd f8e2 59bd 599d c0bd
000000f0: a721 9fbc 3bc8 583d 7464 02bc bcf0 c1bd
00000100: 9eb4 16bd 7e04 bc3c 06e7 383c 58fb 9b3d
00000110: e80b 6dbd 9d16 2f3d 7f48 353d 8800 2b3a
00000120: eb3e dcbc 8713 873b 5725 69bd e08a 5b3d
00000130: c9b7 3f3d 8ed5 243d 6645 973d b346 5dbd
00000140: 9e3b 37bd c6a3 b3bc 09e3 c63d 6cfc 393d
00000150: 7243 c5bd b48f b93d 6117 3f3d f5e2 0ebb
00000160: 6f7d 9c3c 9812 3abd 774e 993c d79d 973d
00000170: e5a4 b4bd 3b67 2c3d b293 42bd 7598 88b7
00000180: cd31 2e3d 9bc8 cebc 81ee 95bd 9238 7c3d
00000190: e5f6 b33d bf96 6a3b d1b6 8dbb 0010 1abd
000001a0: c2bb 23bd ad4b bd3d c15a bd3d 727c a7bd
000001b0: e10d 033d 38d0 6abd dd69 a5bd 06b1 b93d
000001c0: 0f80 4d3d 8909 84bc 2d8e 633d 8374 86bd
000001d0: 538c 573c 7f25 2dbd 209d b03c d9b3 bd3d
000001e0: acaf 0c3d 9364 493d 17bd b8bd d4b7 89ba
000001f0: ad25 d8bb e187 9ebc 85d9 0e3d 150d ffbc
00000200: 3729 a63d a5a6 c2bc ef0a bbbd cc7e b1bd
00000210: c931 933d 4b41 e83b 04f2 413d 1721 703d
00000220: 9c42 47bd 6094 a23c 3050 213d 9ef0 423d
00000230: 6c3b ac3d 3089 9c3d bdff 5abd 2d54 17bb
00000240: 8b50 c53d 33c3 b1bd 59ee 17bd 7b66 90bd
00000250: 79db f8bc 7f24 9d3d 4193 3cbd 8609 81bd
00000260: 66c5 a4bc bfbe 8b3d b886 d3bc 748f 7b3d
00000270: 297e 1c3d 21e7 8c3d 5b2f b3bd c5c0 9f3d
00000280: fb3b a1bd ca8c 8d3c 11b7 96bd d214 b0bc
00000290: b095 683b d2f6 703c 587e 4c3c a899 f23b
000002a0: eca0 f13c 30e8 50bd 012f 213c 918a 593d
000002b0: 9588 7b3d a9f5 013d 5f57 a43c 66cf 8c3a
000002c0: d607 cc3c 9df6 743c 155e 513d 1388 ba3d
000002d0: 63ab 48bc 10d6 cb3d 0980 c63d 87dc 8c39
000002e0: 7aff 273a 2be0 75bc 93b6 2abb b51c 883c
000002f0: b4ef 4d3c 20c0 c93a d482 8f3d fcdf 33bd
00000300: fb2c 95bd 605b 5cbd 0903 6d3d c94f b23d
00000310: aa01 c33d 7a5e 983d 75cf 7f3d 4198 05bd
00000320: 6673 c23d 3bba b3bd c772 37bc 77d4 babd
00000330: 1f05 bc3d 99f2 a33d d20b b1bd 1796 0dbd
00000340: e998 a5bc 3270 373d e2da 04bd 934a d4bd
00000350: 37eb fbba 7448 fb3c bd8b 34bb 6007 dcbd
00000360: fa00 aa3d 57f8 99bd a1ca 913d 89aa ae3d
00000370: 98a4 a63d e015 e23d 3cd0 c8bd 6509 01bd
00000380: ab28 c33d 2a22 1b3d e382 54bd 235e 80bc
00000390: 5081 96bc 9c30 f83c ded2 b4bd 0413 bfbd
000003a0: 7fea a83d 820a d13c eacd 9ebd b695 79bd
000003b0: 6be3 bc3d c0a7 b73d 3d87 203d 1fb7 d73d
000003c0: cee8 9e3d a71d 50bd 841b bc3b dee1 3dbc
000003d0: c67e f4bc 74de 08bd 0cfa c63b 615e 88bd
000003e0: c494 54bd d7c0 8c3c 86c5 46bc e23e e5bc
000003f0: abb6 bd3d f2a2 75bd 2f5f 88bd 3e5a bfbd
-0.004113614 0.021047393 -0.072851926 -0.09984947 0.016403154 -0.04955211 0.059381895 -0.057138193
0.02999299 0.040466208 -0.04645421 -0.03397799 -0.06994292 0.06748732 -0.04575518 0.08782348
0.00777817 -0.078605 -0.031765986 0.0901794 0.07958013 -0.08079427 0.017769597 -0.013017451
-0.09455108 -0.023076678 0.03376338 0.013031439 -0.032493126 -0.0235802 -0.08822133 -0.069476575
0.07801681 -0.00894874 -0.029758045 -0.007560659 0.05284697 0.054790664 0.06640165 -0.007972401
0.059965882 0.071882024 -0.089419514 0.046411272 -0.076013036 -0.09675359 -0.044991944 -0.09924934
0.03768972 0.036011532 0.02745293 -0.017668068 -0.07974163 -0.06179952 0.091153145 -0.096783124
-0.08953424 -0.06930612 -0.05319497 -0.09405012 -0.019425226 0.05292533 -0.00795852 -0.094697446
-0.036793344 0.02295136 0.011285549 0.076162994 -0.057872683 0.042746175 0.04425859 0.00065232115
-0.02688547 0.004122201 -0.056920376 0.05359924 0.04680613 0.040242724 0.073862836 -0.054022502
-0.04473459 -0.02192868 0.09711272 0.045406744 -0.09632005 0.09060612 0.046653155 -0.0021802757
0.01910278 -0.04542789 0.018714173 0.074031524 -0.08820514 0.042090636 -0.047504134 -1.6283457e-05
0.042527962 -0.02524214 -0.07320882 0.061577387 0.08787326 0.0035795418 -0.004324772 -0.037612915
-0.03997398 0.0924295 0.092458256 -0.08178033 0.031995658 -0.05732748 -0.080768324 0.09066968
0.050170954 -0.016117828 0.05555551 -0.065651916 0.0131560145 -0.042272087 0.021559298 0.09262819
0.03434722 0.04916818 -0.09020441 -0.0010507056 -0.006596288 -0.019351901 0.03487541 -0.031134168
0.0811333 -0.023761103 -0.09132945 -0.08666763 0.0718723 0.0070878617 0.047349945 0.058625307
-0.048647508 0.019846141 0.039383113 0.04759275 0.08409771 0.07643354 -0.053466547 -0.0023090944
0.09634503 -0.086798094 -0.03709254 -0.070507966 -0.03037809 0.07672977 -0.04603887 -0.063006446
-0.020113658 0.06823491 -0.025821075 0.061416104 0.038206253 0.06880022 -0.08749267 0.0780044
-0.078727685 0.017279048 -0.07359136 -0.021494303 0.0035489611 0.014707284 0.012481295 0.007403571
0.029495679 -0.05100268 0.009837867 0.053110663 0.06140955 0.03172842 0.020061193 0.0010742962
0.02490608 0.014951375 0.051115114 0.09107985 -0.012247893 0.099529386 0.096923895 0.00026867187
0.00064086134 -0.015007059 -0.0026048764 0.016615251 0.012569357 0.0015392341 0.07007375 -0.04391478
-0.0728397 -0.05379808 0.057864223 0.08706624 0.09521802 0.07439895 0.062453706 -0.032615904
0.09494667 -0.08775755 -0.011196799 -0.09122556 0.09180664 0.08005256 -0.08644833 -0.034566965
-0.020214515 0.044784732 -0.032435305 -0.103657864 -0.001921988 0.030674197 -0.002754911 -0.10743594
0.083009675 -0.0751807 0.071187265 0.08528621 0.081368625 0.110393286 -0.098053426 -0.0315031
0.09529241 0.03787438 -0.051882636 -0.015669888 -0.018372208 0.030296616 -0.08829282 -0.09329799
0.082478516 0.025517706 -0.07754119 -0.06093379 0.09223064 0.08967543 0.039191473 0.105329745
0.07759248 -0.05080953 0.005740585 -0.011589495 -0.029845607 -0.033415273 0.0060722884 -0.06658626
-0.051899686 0.017181797 -0.012132054 -0.027984086 0.09263357 -0.05996985 -0.0665878 -0.09343384

gru.bias_ih_l0_reverse f4 [300]
00000000: 4927 aebd e40b 693d 7025 8d3d 051b 9e3d
00000010: 3f27 423d e9da 9c3d 97ca 763d b0b6 a73d
00000020: 0d45 813d 84d8 623d e373 a6bd 8494 26bd
00000030: df1c 503c 8f27 07bc 1fb9 333d 7056 a73c
00000040: f57c a03d a1fe 943d 87a7 0d3d 6642 8f3d
00000050: 3481 4d3d 4f29 d0bc e09b c93d f6bf 433d
00000060: 71cd 25bd 7839 0d3d cf30 64bd 2ba5 fdbb
00000070: 4013 973d 5003 8d3d 5f9c 7d3d 6c49 eb3d
00000080: 1484 873c b0d6 01bc 034a 67bd 8b60 a93d
00000090: 3f2b ec3d c674 9c3d bca8 dfbc 4e94 f53d
000000a0: 940d 573d 23be d43d 90e1 b23d 473b 37bb
000000b0: 3085 d73d 7809 b73d c25a 413d e9b3 1c3c
000000c0: 5b4c 5b3c 4a00 0fbd 33e6 4b3d 19d9 7e3d
000000d0: dccf adbd 64f9 5d3d 880e a83d 3a7d 2ebc
000000e0: 7a24 c23d cfb4 c0bc e9e0 c7bc d084 c0bc
000000f0: fb35 70bd ec0a de3b 07ce 64bd a290 833d
00000100: d6f0 afbd c3f3 90bc 5c3e 923d 42bb a13d
00000110: fce9 0e3d f8bd 94bd 885d 623d 61cb 823d
00000120: e213 6a3d 62c8 3d3d 6360 863d eb29 27bd
00000130: 4f9a f23d 1a2c 6d3d df2d 793d 6905 303d
00000140: f542 053e 2daf 6f3d bdfc 143c d91b f1bb
00000150: 7954 b53d e333 26bc da48 fc3c 2979 6cbd
00000160: 49f8 f63c 32b7 3e3d cfc7 703c 68c1 4f3d
00000170: e113 c33d eef2 173d 6ff1 2f3d 5fca d73d
00000180: 6f44 1abc 2c54 b13d 7747 72bd e823 833d
00000190: 15a6 803d 54f4 743d ec6f d5bc 2dee babd
000001a0: 7534 16ba f655 743d 1f9e 92bc bd5d 953d
000001b0: d7bd dbbc 54f5 db3c 8ce1 7abd 9233 fabb
000001c0: d96f bdbd 40e1 82bd 24f6 153b 3d79 48bd
000001d0: 6324 05be 870b 9ebc 0c0d 40bd 7c2b d1bd
000001e0: 6063 993d c5f8 4b3d 1ff8 b2bd 08e9 9dbd
000001f0: ab11 ffbd d3f6 a43d cbad 74bd e734 a23c
00000200: d00c 8cbd cf7b 9b3d 3f39 acbd 1938 07be
00000210: 04f1 a6bd d39a 56bd 9c3f ce3c fd20 03bc
00000220: 2070 13bc c4b9 55bd 69eb 0bbd bf5c eabd
00000230: b653 dcbd 9a00 92bd 264b 463d aa97 f73c
00000240: a663 14bd 7a30 01be 4ce4 973c eff6 1dbe
00000250: 58e9 a23c 1f34 213d 12c7 2ebd 49ca a83c
00000260: a86f 143d e75e 2cbd c539 1f3d 6b3e f4bd
00000270: 010f 8cbd b675 c1bd c418 6c3c f132 3e3d
00000280: 6923 023d 696f f73c 5c2c 68bd 6e7d 46bd
00000290: eba3 89bc 36c0 533d 2fff 493c 763e d13c
000002a0: 1894 733c 6c10 8f3d 9fd4 323b 8068 033c
000002b0: bdc9 e8bd abea 06be f631 153d 1c86 003b
000002c0: 945b 913b 74aa 8abd 827a 00bd 56fb 963d
000002d0: 56ed 0cbe f427 d2bd a578 513d a4c9 0f3d
000002e0: df6b e7b9 ec72 2b3d 0052 ee3c a1a4 72bd
000002f0: 01b1 a0ba 38c8 07bd cc9f 07be ec91 753d
00000300: fed5 3c3d 84cd a13b 7ec7 2abd d38a 2a3d
00000310: 1c3e a9bd 03a0 0bbe 4c6f 8ebd d232 c4bd
00000320: e1b1 563d 934f c43d 3a26 bc3c 4941 74bd
00000330: 6b85 eebd 206c 1ebe 11e9 94bd 1339 14bc
00000340: 517b a2bc 5fba 1b3e 326e 83bb b426 ecbd
00000350: a609 60bc 62be 32bd 7efa e13d eacd 9ebd
00000360: 9aba 4ebd 24af 3e3e 1502 efba a32a 103e
00000370: c1d4 bebd eb71 343e 4988 173d 5520 6b3d
00000380: 9a47 f43b bc35 203d 378d 1abe ad6b dfbc
00000390: 6984 0f3d 859b 76bd 7eee 87bd 26c3 413d
000003a0: bab3 e8bd 0294 b6bc 6770 733d e67a a8bd
000003b0: 12fc b53c 8c49 cb3d 5ccb 81bd 1853 c73d
000003c0: ceab 593c 85a9 0abd 6374 803d 77c1 c7bd
000003d0: f305 183e 579f 683c 201a ffbb b706 c5bd
000003e0: 5bf6 3b3e b532 aa3d 59be b7bd 0069 2fbe
000003f0: 5a3a 523d cca0 bdbd 92bb 113e 2bdb bcbc
-0.08503587 0.056896105 0.06891906 0.07719997 0.04740071 0.07658941 0.0602518 0.08189142
0.063119985 0.055382267 -0.081275724 -0.04066898 0.012702196 -0.008249178 0.043877717 0.020426959
0.07836334 0.07275129 0.034583595 0.06995086 0.050172046 -0.025410322 0.09844184 0.04779049
-0.040479127 0.034478635 -0.05571061 -0.007740637 0.073767185 0.068853974 0.061916705 0.114886135
0.016542472 -0.007924721 -0.056467067 0.08270367 0.11531686 0.0763946 -0.027302139 0.119911775
0.052503183 0.10387828 0.08734429 -0.0027958916 0.105234504 0.08937353 0.047205694 0.009564378
0.013384904 -0.034912385 0.049780082 0.06221876 -0.08486912 0.054192916 0.082058966 -0.0106499735
0.094796136 -0.023523716 -0.024399238 -0.02350083 -0.05864523 0.0067762043 -0.055860545 0.06424071
-0.08590858 -0.01769436 0.071408 0.07897045 0.034891114 -0.07262796 0.05526498 0.06386448
0.057147868 0.046333678 0.06561353 -0.04081146 0.11845838 0.057903387 0.06083476 0.04297391
0.13013823 0.05851667 0.009093461 -0.007358056 0.088540025 -0.010144207 0.030796457 -0.057732735
0.030147688 0.046561427 0.014696076 0.050721556 0.09525276 0.03709691 0.04295486 0.10536646
-0.00941573 0.08658633 -0.059150185 0.06403333 0.06281678 0.059803322 -0.026054345 -0.0912746
-0.00057298626 0.05965229 -0.017897664 0.0729327 -0.026823921 0.02685038 -0.061250255 -0.007635542
-0.09249849 -0.06390619 0.0022882307 -0.048943747 -0.13002162 -0.019292606 -0.046887442 -0.10213372
0.074896574 0.049797792 -0.087387316 -0.07710463 -0.12454542 0.080548905 -0.059736054 0.019800616
-0.06838381 0.07591974 -0.08409356 -0.13204993 -0.08151439 -0.052393746 0.025176816 -0.0080034705
-0.008998901 -0.052179113 -0.03416005 -0.11443471 -0.10758154 -0.07129021 0.04841151 0.030223686
-0.036227845 -0.12616149 0.018541478 -0.15426229 0.019886658 0.039356347 -0.042670317 0.02060427
0.036239296 -0.042082693 0.038873453 -0.11925968 -0.06838799 -0.0944628 0.014410201 0.0464353
0.03177205 0.030204492 -0.05668293 -0.048459463 -0.016801795 0.05169698 0.012328907 0.025542479
0.014866851 0.06985554 0.0027287377 0.00802052 -0.113666035 -0.13175456 0.0364246 0.0019611185
0.004435966 -0.067707926 -0.031366833 0.07372157 -0.13762411 -0.10261527 0.051140446 0.03510441
-0.00044140124 0.041857645 0.029091835 -0.059239034 -0.0012259783 -0.033149928 -0.13244551 0.059953615
0.046102516 0.0049378294 -0.041694157 0.0416363 -0.082637995 -0.13635258 -0.06954822 -0.09580006
0.052415732 0.0958549 0.022967447 -0.059632573 -0.11646541 -0.15470934 -0.072710164 -0.009046811
-0.019834192 0.15207814 -0.004010939 -0.115308195 -0.013674175 -0.043638594 0.11034106 -0.07754119
-0.050470926 0.18621498 -0.0018234873 0.14078765 -0.09317923 0.17621581 0.036995206 0.05740388
0.0074548246 0.039113745 -0.15092932 -0.027273024 0.035038386 -0.06020691 -0.06637286 0.04730525
-0.11362405 -0.022287372 0.059433367 -0.08226566 0.022214923 0.09926137 -0.06337616 0.09732646
0.01328559 -0.033853073 0.06272199 -0.09753697 0.1484602 0.014198146 -0.0077850968 -0.096204214
0.18355696 0.08310453 -0.08971853 -0.17129898 0.05132518 -0.09259185 0.14231709 -0.023053726
