sec_dump.pth (torch_old, 515150 bytes, 11 tensors)

transitions f4 [31, 31]
000000 00 40 1c c6 00 40 1c c6 00 40 1c c6 00 40 1c c6
       -10000.0 -10000.0 -10000.0 -10000.0
000010 00 40 1c c6 00 40 1c c6 00 40 1c c6 00 40 1c c6
       -10000.0 -10000.0 -10000.0 -10000.0
000020 00 40 1c c6 00 40 1c c6 00 40 1c c6 00 40 1c c6
       -10000.0 -10000.0 -10000.0 -10000.0
000030 00 40 1c c6 00 40 1c c6 00 40 1c c6 00 40 1c c6
       -10000.0 -10000.0 -10000.0 -10000.0
000040 00 40 1c c6 00 40 1c c6 00 40 1c c6 00 40 1c c6
       -10000.0 -10000.0 -10000.0 -10000.0
000050 00 40 1c c6 00 40 1c c6 00 40 1c c6 00 40 1c c6
       -10000.0 -10000.0 -10000.0 -10000.0
000060 00 40 1c c6 00 40 1c c6 00 40 1c c6 00 40 1c c6
       -10000.0 -10000.0 -10000.0 -10000.0
000070 00 40 1c c6 00 40 1c c6 00 40 1c c6 34 4a 65 c1
       -10000.0 -10000.0 -10000.0 -14.330616
000080 74 91 ee c1 82 fe 7b c2 31 ba 94 c1 3b 2e 2c c1
       -29.821022 -62.998543 -18.590914 -10.761287
000090 a7 9f 6c c0 d5 7b 92 3f eb 6c 86 bf bf 5a bd bf
       -3.6972444 1.144404 -1.0501989 -1.4793319
0000a0 09 04 57 c0 7e 24 78 3f 26 7d b5 3f 7f bc 8c bf
       -3.3596213 0.9693068 1.4178817 -1.0995024
0000b0 93 1d 69 bf 38 d3 ad be 31 19 06 c0 b1 02 a0 bf
       -0.9106075 -0.3395021 -2.0952876 -1.2500821
0000c0 4b ff 32 c1 4e 3c c2 c0 e2 89 5d c0 57 bc 58 c0
       -11.187327 -6.0698614 -3.4615407 -3.3864954
0000d0 9f 95 6a c0 27 a6 c4 3e 3b a5 61 bf a3 9e 6d 3c
       -3.6653821 0.38408014 -0.88142747 0.014503154
0000e0 7b 84 67 c0 a1 21 9e c0 ac 2c 9d 3f f1 68 ee bf
       -3.617461 -4.941605 1.2279258 -1.8625776
0000f0 00 40 1c c6 00 40 1c c6 e7 23 e6 c1 7f d6 1c c2
       -10000.0 -10000.0 -28.76753 -39.20947
000100 1d 17 8b c1 1f 96 8f c1 73 e9 1e c1 4a 0c bf bf
       -17.386286 -17.948301 -9.931994 -1.4925625
000110 19 82 90 3e 59 8e 8d 3f 38 52 49 3f 3b 26 e0 3d
       0.28224257 1.1059066 0.7864108 0.10944792
000120 bb 2c ab 3e 8c 76 bb 3e 6f 6d 86 3e c0 67 be bd
       0.33432564 0.36613882 0.26255366 -0.092971325
000130 c8 5f 09 3e 97 5b d8 3f 59 5d 78 3e af 7b 06 c1
       0.13415444 1.6902951 0.2425436 -8.405196
000140 cd 82 11 be 1c 61 b1 bf 74 74 b0 bf 38 6c f6 bf
       -0.14210053 -1.385776 -1.3785539 -1.9251776
000150 19 40 bc 3e 6d bc 63 3f 4b 62 54 3f c7 dc b9 bf
       0.36767653 0.8895939 0.82962483 -1.4520501
000160 3a 90 ba 3e 84 bb 9a 3e 8d 8d 07 bf 00 40 1c c6
       0.3643816 0.30221188 -0.52950364 -10000.0
000170 00 40 1c c6 bc 64 68 c1 95 b0 ad c1 99 c4 94 c1
       -10000.0 -14.524593 -21.711222 -18.595995
000180 eb d9 32 c1 44 cb c4 c0 f8 97 22 bf cd 03 e8 3f
       -11.178203 -6.1498127 -0.63513136 1.812616
000190 7a f3 9b 3e 84 d7 d2 3e c5 ec 5a be f6 1e 88 3f
       0.30459195 0.4118005 -0.21379383 1.0634449
0001a0 99 90 69 3e 23 2e 27 bf 73 3e 23 3f 60 9f 5e 3f
       0.22809066 -0.65304774 0.63767165 0.86961937
0001b0 81 a0 f7 ba eb 32 49 be 82 02 8f c0 14 f4 ba 3e
       -0.0018892438 -0.1964833 -4.469056 0.36514342
0001c0 1e 05 b8 3e 89 98 38 be d5 21 6e bf 93 f7 d1 bf
       0.35941404 -0.18026938 -0.93020374 -1.6403679
0001d0 f7 79 33 bf 03 80 35 bf 38 0a e4 be e1 7f 92 be
       -0.7010798 -0.70898455 -0.44539046 -0.2861319
0001e0 fd 18 db 3e fb b5 18 bf 00 40 1c c6 00 40 1c c6
       0.42792502 -0.5965268 -10000.0 -10000.0
0001f0 2b b2 4a bf 54 54 50 c1 d8 cc 09 c1 f5 c3 3f c1
       -0.7917811 -13.020588 -8.612511 -11.985341
000200 a8 d2 32 c0 e3 9d 78 3f b8 6f 11 bf f3 49 70 3e
       -2.7941074 0.97115916 -0.56811094 0.2346571
000210 e4 5b d2 3f c8 5a 70 bd 9d a5 3b bf 2f e0 c5 bf
       1.6434293 -0.058680326 -0.7329958 -1.545904
000220 f2 71 77 be 79 ef e6 3f d3 3e 1f 3f ed c0 3b 3f
       -0.2416456 1.8041831 0.6220524 0.73341256
000230 6d 6f c4 3d 93 95 0e c0 61 7c 8b be 6e 34 c0 bf
       0.09591565 -2.2278793 -0.2724333 -1.5016
000240 6d e7 74 bf 3f 79 02 3f 87 ad 15 bf 91 23 0f bf
       -0.9566563 0.50966257 -0.58467907 -0.55913645
000250 0e 18 13 bf dd d6 a9 3e be 3c 87 3f 90 9b d6 3f
       -0.5745858 0.3317174 1.0565412 1.6766224
000260 c6 09 5c be 00 40 1c c6 00 40 1c c6 f9 f0 48 bf
       -0.21488103 -10000.0 -10000.0 -0.78492695
000270 74 ff 12 c0 96 33 a7 bf b0 0c 46 3f d7 1f e1 3f
       -2.2968416 -1.3062618 0.7736311 1.7587842
000280 ed b6 0a bf 65 4d b3 be 38 87 66 bf 9e 29 d5 3f
       -0.5418537 -0.35019985 -0.9005008 1.6653326
000290 e3 ab 22 bf 37 2a e7 3f 78 8b d7 be 86 a8 ed be
       -0.6354353 1.8059758 -0.42098594 -0.46417636
0002a0 a2 c0 98 bc 47 a9 11 3f 91 1c 2a 3f 07 d0 96 bf
       -0.018646542 0.5689892 0.6644984 -1.1782235
0002b0 2e 04 ba 3d 42 90 da bf da 5a 80 bf 55 49 84 be
       0.090828285 -1.7075274 -1.0027726 -0.25837198
0002c0 dd f8 95 bf 58 b4 73 3f 4c dc 13 3f 01 f8 49 3f
       -1.1716572 0.9519706 0.5775802 0.7889405
0002d0 db d0 a0 3f 7f b0 ab 3f ae 18 6d 3e 02 f9 c2 bf
       1.2563738 1.3413237 0.23153946 -1.5232241
0002e0 00 40 1c c6 00 40 1c c6 db 9b 07 3f 37 9a 1f bf
       -10000.0 -10000.0 0.5297219 -0.6234469
0002f0 79 c7 74 bf ac 09 ed be 91 c2 5c 3f 37 e0 ff 3f
       -0.9561687 -0.46296442 0.86234385 1.99903
000300 9b 3e 25 bf 12 6a 0a 3f 23 14 32 3f a6 a8 07 40
       -0.64548653 0.540681 0.69561976 2.1196685
000310 b1 fb 08 40 0b 26 75 3f f9 52 5c bd 25 68 73 3f
       2.140362 0.95761174 -0.053790066 0.95080787
000320 e6 71 64 bf 89 8a 9d 3f 17 87 e7 bf 96 23 9b 3e
       -0.89236295 1.2307903 -1.8088101 0.30300587
000330 38 ac 68 3f 60 41 05 3c 65 ad bb 3f c1 40 48 bf
       0.90887785 0.008133262 1.4662291 -0.78223807
000340 26 6a 86 bf 3b f7 58 3f 63 98 c5 3e 38 55 93 3f
       -1.0501144 0.84752244 0.38592824 1.1510382
000350 dc f4 bf 3d d6 d7 88 bf 3d 4f d9 bf 00 40 1c c6
       0.09372875 -1.0690868 -1.6977307 -10000.0
000360 00 40 1c c6 a2 4f b1 3f e0 4e 21 bf d0 bc 30 c0
       -10000.0 1.3852427 -0.6301098 -2.7615242
000370 7a 30 05 40 a0 12 b2 bf 54 d4 c4 bf 82 48 79 3f
       2.0810838 -1.3911934 -1.5377297 0.97376263
000380 3a 54 eb 3d 96 69 b6 3e e0 e4 02 3f 79 40 2b 40
       0.11490674 0.3562743 0.51130486 2.67581
000390 7b f3 66 3f 46 36 61 bf 5e 71 86 3e db 3c b8 bf
       0.9021527 -0.8797344 0.26258367 -1.4393572
0003a0 14 82 69 3f c3 9d 45 3d 8a 76 ad bf de 43 5a bf
       0.9121411 0.048246156 -1.35518 -0.8525981
0003b0 40 af f4 3e 97 e0 be bf 3e c6 49 be 75 aa ab 3e
       0.47789955 -1.4912289 -0.1970453 0.33528486
0003c0 f8 44 6c 3e 5d f2 a1 be b1 cc 2f 3e b7 98 b8 3e
       0.23073184 -0.3163022 0.17167927 0.36054012
0003d0 3a 66 0e bb 8a 0a c0 bf 00 40 1c c6 00 40 1c c6
       -0.0021728412 -1.5003216 -10000.0 -10000.0
0003e0 8a 38 27 bf 4f 35 d9 be a1 9f 14 3f 65 53 9c 3d
       -0.65320647 -0.42423484 0.58056074 0.07633094
0003f0 b9 04 4d bf ad 8a 86 3f fd 66 a7 be ae f1 96 bf
       -0.8008533 1.051107 -0.3269576 -1.1792505

gru.weight_ih_l0 f4 [300, 100]
000000 43 00 84 bb 9c e4 c7 bc d1 16 bc 3d 47 93 03 be
       -0.0040283515 -0.024401002 0.091840394 -0.1284915
000010 cb f2 a0 3d d2 68 b4 3d 37 6c 16 bd 71 6e 66 bd
       0.07858809 0.088090554 -0.036724295 -0.05625767
000020 91 b3 6a bd 3b 09 56 bd 7f cf 93 bd 51 a7 82 bb
       -0.057300154 -0.052254897 -0.07217311 -0.003987231
000030 a0 40 84 bc d3 be ff 3d 9a b3 a3 3d 3a fc 40 3d
       -0.016144097 0.12487569 0.07993241 0.047115542
000040 27 56 22 bc 93 22 70 3d b8 61 92 bc 39 2d 71 bd
       -0.009908236 0.058626723 -0.017868862 -0.05888102
000050 c2 21 64 3d 56 4c b0 bd cc 22 0b be 41 6d 3b bd
       0.055696256 -0.0860831 -0.13587493 -0.04575849
000060 72 1f 83 3c ab 74 8c bd af 65 be 3d 15 40 90 3d
       0.016006205 -0.0685819 0.09296738 0.07043473
000070 86 20 c1 3d a2 67 85 bd 6c 53 b5 3d 8a 9f 35 3d
       0.094300315 -0.06513907 0.08853802 0.0443416
000080 47 f2 70 3d b1 f2 25 3c 60 ac 96 3c 35 00 1a be
       0.058824804 0.010128663 0.018392742 -0.15039141
000090 e5 07 03 bd ac 81 d7 3d 52 ce e9 3d b0 45 73 3c
       -0.03198995 0.1052278 0.114163056 0.014848158
0000a0 68 36 d7 bd ad ee 41 3b 25 e7 00 3d f8 58 40 3d
       -0.10508424 0.0029591725 0.031470437 0.046959847
0000b0 f6 e2 a8 bd 4b 05 b5 bd c3 99 63 3b 34 f9 c7 3d
       -0.08246414 -0.088389 0.00347291 0.097643286
0000c0 5d c9 f7 bd ef 78 38 3d 3c 8c 75 3d 21 93 8d 3d
       -0.12098954 0.045037206 0.05994819 0.06912828
0000d0 5e 5b 8a bd 90 53 9b 3c 4f ba 7e bd a5 ca ca bc
       -0.06755708 0.018960744 -0.062189396 -0.024754832
0000e0 ed 97 92 bd 6a d0 3c 3c 35 a3 f8 bd cf 66 a3 3d
       -0.07157884 0.011524299 -0.12140504 0.079785936
0000f0 47 a8 66 3d da b1 6d 3c 2b f8 61 3c 23 af c2 bd
       0.056312826 0.014507735 0.013792078 -0.09506061
000100 a7 30 c2 3d a0 ba 8c 3d a2 2f 7c 3d 45 a3 88 bd
       0.09481936 0.068715334 0.061568864 -0.06671766
000110 65 d7 90 3d a1 29 40 3d a5 30 df 3c 46 c8 e2 bd
       0.07072333 0.0469147 0.027244875 -0.110733554
000120 28 ec 34 3c 5e 3f 99 bc 58 e3 95 3d 75 02 d7 3d
       0.011042632 -0.018706974 0.07318753 0.104985155
000130 6b 76 a1 bd 48 50 e3 3d 4e 22 b4 3c 35 4b de 3d
       -0.078839146 0.11099297 0.021989014 0.10854188
000140 be ef 25 bd 13 8d 35 bc e8 92 97 3c 3c e7 1b 3e
       -0.04051184 -0.011080998 0.018502668 0.15224928
000150 dc 48 0f 3d a0 55 95 bd a9 8e 04 3e 5f 4e 82 bd
       0.034981593 -0.07291722 0.12945046 -0.06362604
000160 6a b4 e6 bc 7a 92 60 3c e4 5e 0b bd a1 02 87 3d
       -0.0281622 0.013706798 -0.03402604 0.06592298
000170 7a e2 75 3d c3 d0 07 3e 36 c7 34 bd 59 d3 2d 3d
       0.060030438 0.1326323 -0.044135295 0.042437885
000180 af 6b 61 3c 4d cd 98 bd 49 3d 9d bc d2 dd 9b 3d
       0.013758584 -0.07461033 -0.019194262 0.07610668
000190 71 3e 85 bd 25 6f cc 3c 45 83 95 bd 62 cf 9f 3c
       -0.065060504 0.024955342 -0.07300428 0.019508068
0001a0 d5 15 f5 3d c4 c3 03 bd 33 56 e7 bd aa 01 1d 3d
       0.11967055 -0.03216912 -0.11295738 0.038331665
0001b0 0f c4 bf bd dd 94 c0 3c 58 88 c3 bd 41 c6 b2 bd
       -0.09363567 0.023508484 -0.0954749 -0.0872922
0001c0 44 48 b3 bc 28 19 17 bd e4 72 1d 3d 38 58 2d 3c
       -0.021885045 -0.036889225 0.038439646 0.010580115
0001d0 58 97 ce 3d 7f 7f a6 bd 55 d8 1a 3d 92 85 38 bd
       0.1008746 -0.08129787 0.037803967 -0.045049258
0001e0 bb 60 a7 3d 0d 76 4d bd 12 82 33 3d 18 1f 84 bd
       0.08172747 -0.05016141 0.043825217 -0.06451243
0001f0 5a d0 92 3d e7 12 bb bd 32 9e 95 3b f7 a0 8b 3d
       0.07168646 -0.09134465 0.0045659775 0.06817811
000200 4d c7 b8 3d 90 5e 09 3e a6 a0 a5 bd d7 8e 7f 3d
       0.090223886 0.13414979 -0.08087282 0.062392082
000210 44 22 d3 bd 0f dc b7 3d ba 71 2b bc b3 41 22 bd
       -0.1030927 0.0897752 -0.010464126 -0.039613437
000220 82 e5 36 bc bd f3 30 3d 0a df 27 3d 21 d9 93 3d
       -0.011163117 0.043201197 0.04098419 0.072191484
000230 c2 dd f2 bb 21 75 3f bd a4 b7 30 3d fb bf 92 3d
       -0.0074116895 -0.046742562 0.043143883 0.071655236
000240 e2 28 31 bb a5 1e 7e 3b 00 62 26 3d 0d be 9c ba
       -0.0027032425 0.003877559 0.040620804 -0.0011958495
000250 36 8f f4 bc 34 9a e4 3d ce f2 12 3d 8f 55 08 3d
       -0.029853445 0.111622244 0.035876088 0.03328472
000260 66 82 b6 3d fd 66 73 bd 9e fa b7 3d a9 12 a3 3d
       0.0891159 -0.05942439 0.08983348 0.079625435
000270 d2 eb 0c 3c 14 4a e3 3d f9 fa 50 3d 76 81 bc 3d
       0.008601146 0.11098114 0.051020596 0.0920438
000280 33 92 68 3d be a1 b5 3d 2a c3 c7 3d b2 b4 46 bd
       0.05678005 0.088687405 0.097540215 -0.04851217
000290 bc 4d b3 3d 45 ed 9d bb c4 c7 a9 3d 4e 4d bf 3d
       0.08755061 -0.0048195445 0.082900554 0.093409166
0002a0 52 08 a7 3b ad af 87 3d 13 93 b5 3c 5a 60 d4 3d
       0.0050974274 0.06625304 0.022164857 0.1036994
0002b0 f1 83 41 3d 41 56 e2 3d 4a 5e 93 3c 69 c2 5f 3d
       0.04724497 0.11051608 0.017989296 0.054628763
0002c0 e6 43 cb bd 68 10 68 3d 58 b4 bc bd 36 fa b9 3b
       -0.0992506 0.05665627 -0.09214085 0.0056755794
0002d0 2d ba e9 bc fe fb 41 3d d2 32 2c bd b4 95 24 3c
       -0.028531158 0.04735946 -0.042040654 0.010045458
0002e0 57 78 9b 3c 2d c5 0c 3c b8 04 34 3c b7 3a 66 3b
       0.018978281 0.008591932 0.010987453 0.0035130212
0002f0 bf e1 9a bd 95 af ae 3d 26 be 67 bd e2 4d 48 3d
       -0.07562589 0.08529583 -0.056577824 0.0489024
000300 d8 fd b5 bd 24 9b 89 3d 5a 74 d4 3d 29 75 9b bd
       -0.088863075 0.06719044 0.10373755 -0.07590706
000310 ad 66 be 3d e3 81 91 3d 9e 6e 81 3c f6 d6 b3 bd
       0.092969276 0.07104852 0.015799817 -0.08781235
000320 0b 7f 24 3c dd ef bd bd 91 b0 cc bd 80 86 aa 3d
       0.010040055 -0.09274266 -0.09994615 0.08326435
000330 ea 89 42 bd eb 49 df bd 18 98 0b 3d d1 c1 47 bd
       -0.047494806 -0.109027706 0.034080595 -0.048768822
000340 3c 45 25 3d fc f1 4a bd 71 6a c8 bd 90 0b dd bd
       0.04034923 -0.04954718 -0.09785927 -0.10793221
000350 48 c2 44 3d 84 c0 b9 bd fc 41 94 bd 3e 71 49 bd
       0.048036844 -0.090699226 -0.07239148 -0.04918026
000360 4e c7 80 3d c3 3c 90 bd 55 ab 73 3d 8e 75 cf 3d
       0.06288014 -0.070428394 0.059489567 0.10129844
000370 ee 26 b8 bd cd c2 93 bd 35 8d f5 3c 4c 65 30 3d
       -0.089918 -0.0721489 0.02997456 0.043065354
000380 b4 55 10 bd ec 56 f7 bb 00 85 c6 bd ec 5b 8e bc
       -0.035237983 -0.0075482037 -0.096933365 -0.017377816
000390 05 e9 9c 3d 4e 6f ca 3d cb a4 cc bd a7 e9 86 3d
       0.076616324 0.09884511 -0.09992369 0.065875344
0003a0 23 d9 75 3c e6 b6 aa 3c c1 c3 e5 3d 67 42 82 bd
       0.015005383 0.020839166 0.11218978 -0.063603215
0003b0 4c 94 4a bd f1 e3 a5 3d 7d 33 0c bd 54 a7 14 3c
       -0.049457833 0.08100117 -0.03422879 0.009073097
0003c0 a3 8a b1 bd 8d fc 28 bd d5 b1 49 bd bc bd 13 3d
       -0.08669021 -0.041256476 -0.04924186 0.036069617
0003d0 02 57 61 3b 3b 2f 43 3d 3b da b7 3d 24 d2 6f 3d
       0.0034384136 0.047652464 0.08977171 0.058550015
0003e0 00 79 ed 3d 96 f5 91 3d 34 86 93 bd 98 82 90 bd
       0.115953445 0.0712692 -0.072033316 -0.07056159
0003f0 c2 98 b0 bc 04 f7 15 3d fc 15 e3 3c 41 cc 96 bd
       -0.021557216 0.036612526 0.027720444 -0.07363177

gru.weight_hh_l0 f4 [300, 100]
000000 82 db a6 3d 5d 73 8a bc ac 10 04 3d 27 87 96 3d
       0.081473365 -0.016900713 0.032242462 0.07349997
000010 a7 b9 d8 39 fd b4 92 bd 9d 33 b2 bc 53 7a 7f bd
       0.00041337052 -0.07163427 -0.021753127 -0.062372517
000020 c3 07 9c bd ae 34 4d ba 90 04 6b 3d 75 7c a8 bd
       -0.07618668 -0.0007827979 0.057377398 -0.08226863
000030 36 ef 18 3b 07 0a b5 3d a5 56 df 3c df 86 1b 3d
       0.002333594 0.08839803 0.027262995 0.03797042
000040 6f 5c 12 bd f6 b3 01 3d 8a e6 45 bd 96 a5 a7 bd
       -0.035732683 0.031665765 -0.048315562 -0.0818588
000050 f9 2e dd bd 0b 79 8c bd 6f db 16 3c 4b 8c 51 3d
       -0.10799975 -0.068590246 0.0092075905 0.051159184
000060 73 e3 a3 bd a7 8f 53 bd 52 b2 c5 3d 96 43 4e 3c
       -0.08002367 -0.05165067 0.096531525 0.012589356
000070 c4 b7 82 3b e6 ee 2b 3c a7 4b 39 3c 2d 43 90 3d
       0.0039891917 0.01049397 0.011309541 0.07044063
000080 37 7d bb bd a6 5a c3 3d f9 71 5f 3c 8b 79 83 3d
       -0.09154742 0.09538774 0.013638013 0.06419667
000090 c2 b3 46 bd 4c 17 88 bd 7a 74 44 3d 05 a9 d5 3c
       -0.048511274 -0.066450685 0.047962643 0.026081571
0000a0 52 a1 4e bd 53 9a e3 3d 23 35 65 3d 9f 01 7e 3d
       -0.050446816 0.111134194 0.05595888 0.062013265
0000b0 65 d1 cd bc c9 dc 78 bb 65 03 66 3d bb 39 98 bd
       -0.025124261 -0.0037973395 0.05615558 -0.07432886
0000c0 cc d7 c5 3c ed 82 fd 3c 08 18 cb 3c 0b a3 52 bd
       0.024150752 0.03094622 0.024791732 -0.05142502
0000d0 3e ae c5 bd 15 6e 8f 3d 04 d3 bf bd 69 c6 2e bd
       -0.09652375 0.07003418 -0.0936642 -0.042669687
0000e0 4b 6b d5 ba b3 5a 26 bd f1 d9 22 3d 43 5d 0c bd
       -0.0016282586 -0.04061384 0.039758626 -0.03426863
0000f0 73 b9 9d 3d d6 b0 82 bd 7e dc 94 bd b3 85 7c 3d
       0.07701387 -0.06381385 -0.07268618 0.061650943
000100 ad f8 e3 3d 27 8b 49 3c 0a 0b be bd f5 56 8b bd
       0.111314155 0.012301243 -0.09279449 -0.06803695
000110 15 0a 51 bd 06 00 aa 3b 7f 58 62 bd 7c aa 8d bc
       -0.051035006 0.005187991 -0.055260178 -0.017293207
000120 aa 21 01 3d ae 8c 62 3d f0 dd a5 bd 62 12 a4 3d
       0.031526245 0.055309944 -0.08098972 0.08011319
000130 cc ac 82 bd ed 2b 41 bd 7b 65 45 bd 35 65 43 3d
       -0.06380615 -0.04716103 -0.048192482 0.04770394
000140 3b 73 65 3d 00 00 d7 bc a6 29 d0 3b 13 7b 8a bd
       0.056018095 -0.026245117 0.006352621 -0.06761756
000150 93 41 75 3d f4 5a dc 3c ca b2 8d bc 47 0d 47 3d
       0.05987699 0.026898839 -0.017297167 0.048596647
000160 93 6b a0 3d 53 a4 57 3c 2e b3 74 3d c1 7e 17 bd
       0.07833018 0.013161737 0.05974119 -0.036986116
000170 50 02 b5 3d ba 7a a0 bd 82 c7 f1 3c 59 b1 e7 bc
       0.08838332 -0.07835908 0.029514078 -0.028282808
000180 da 42 2a bd 6d df a9 bd 98 89 8b 3c f9 9e b1 3d
       -0.04156766 -0.08294568 0.017033383 0.086729
000190 42 20 ab bc d2 0b 72 bd ab 74 8d 3d 8b f2 bf bb
       -0.020889405 -0.059093304 0.06907018 -0.005857771
0001a0 80 c9 c5 bd d4 db a0 bd 87 c9 1e 3d be 89 6f 3c
       -0.09657574 -0.07854429 0.03876641 0.014620243
0001b0 d9 dc ad 3c 0f 86 37 3d b7 b8 36 bd 8b d7 8b 3d
       0.021223472 0.044805583 -0.04460975 0.06828221
0001c0 f2 df a1 3d e7 72 62 bd cd b1 99 3d 24 ef 38 3b
       0.07904042 -0.05528536 0.07504616 0.002821871
0001d0 a4 66 ca bd 90 59 97 bd 34 8d 6a bd f3 21 43 bd
       -0.098828584 -0.073901296 -0.057263568 -0.0476398
0001e0 f9 65 ed bd f4 00 28 3d c0 84 85 bd 9a 4f 56 bb
       -0.11591715 0.041016534 -0.06519461 -0.0032701255
0001f0 25 44 2b bd 9b f4 47 bd 42 01 a7 bd 3c da 6c 3a
       -0.041813035 -0.04881726 -0.08154537 0.0009035205
000200 8e 11 11 3c f5 63 f4 bd f2 42 83 bd d4 5d 02 3d
       0.008854283 -0.11933128 -0.06409253 0.031827763
000210 5f 3b e2 bc 5b 17 fe 3c 9d 20 8b bc 3e a0 09 3c
       -0.027616201 0.031016996 -0.016983325 0.008400021
000220 8c e5 99 bd 27 c6 40 bd 6f c2 bb 3d a0 cd 57 3d
       -0.07514486 -0.047063973 0.09167945 0.052686334
000230 54 89 82 3b 64 dd e6 bc 97 68 29 bc af d7 b7 bc
       0.003983656 -0.02818174 -0.010339878 -0.022441713
000240 95 76 15 3c c2 52 d0 bc f3 af 78 bb 19 fd 4b bd
       0.00912251 -0.025430087 -0.003794667 -0.04980192
000250 11 36 4f bd fb b7 6b 3d 76 78 d2 bd ab 1d 92 3d
       -0.05058867 0.057548504 -0.10276882 0.07134565
000260 7b 08 97 3d 53 2a 88 3d e3 83 84 3c 51 b5 00 bc
       0.073746644 0.06648698 0.01617617 -0.007855729
000270 42 2e 87 bd b2 50 d2 bd 43 ac ec bc 0c f1 85 3d
       -0.0660062 -0.10269298 -0.028890735 0.06540117
000280 8a e3 8f bd 0c ba b0 3d a2 fe 34 3c d7 77 bf bc
       -0.070258215 0.086292356 0.011047037 -0.023372574
000290 7f 68 d2 bd 69 db ad 3c a0 f7 6e bd a8 76 9a 3d
       -0.10273837 0.021222787 -0.058341622 0.07542163
0002a0 31 29 61 bc 5d 8b 8d 3d 65 4d 1a 3d 0c 99 b8 bc
       -0.013742731 0.06911347 0.037671465 -0.022533916
0002b0 13 c6 55 3c 21 02 41 bd 15 bb 5d 3b 6b 44 a1 3c
       0.013047713 -0.04712117 0.0033833433 0.019685945
0002c0 16 72 89 3d e1 a1 06 3d 29 79 01 bd e6 bf 65 bd
       0.06711213 0.032869224 -0.031609688 -0.05609121
0002d0 52 4a 7e bd 79 2c 99 3d 9d 75 b8 bd d3 44 cc bc
       -0.062082596 0.074791856 -0.09006808 -0.024935162
0002e0 27 cf d7 bc 02 9c ce 3c d4 4e 81 bd a9 8b 80 3d
       -0.026343895 0.025220875 -0.063138634 0.06276638
0002f0 f9 a9 9e 3d 10 ad 97 3c eb 57 d9 bb b6 ab b5 bc
       0.077472635 0.01851514 -0.006632795 -0.022176605
000300 3f aa a5 3c 9f ad 8b 3d a7 51 97 ba 22 b5 92 bd
       0.020222781 0.06820225 -0.001154472 -0.071634546
000310 5c 02 a7 3d 57 a6 e7 3c 7f 5d 00 3d 12 25 91 3d
       0.08154747 0.02827756 0.031339165 0.07087149
000320 9f 30 f9 bd 26 71 1e 3d d3 3a a1 bd 46 61 6a 3c
       -0.12167477 0.038682126 -0.07872548 0.014305418
000330 64 f4 77 3d b5 98 96 bd b9 0d 84 ba 31 b1 2d 3c
       0.060535803 -0.07353345 -0.001007489 0.010601328
000340 3d 6c 9a bd bf 1d 1f bd ae dd a3 3d 7d 41 4c bd
       -0.07540176 -0.038846727 0.080012664 -0.049867142
000350 38 f4 34 3d 15 79 ee 3c b9 4b 8a bb d9 a3 85 3c
       0.044178218 0.02911047 -0.0042204526 0.01631348
000360 07 75 f4 bd da c8 a2 bd 6e cc 95 bd 72 95 89 3d
       -0.11936384 -0.07948466 -0.073143825 0.067179576
000370 99 c9 2d 3d dc 7a 8c bc d7 fa 77 3d 61 21 f2 3d
       0.042428587 -0.017148428 0.060541954 0.11822773
000380 63 53 cc bd 4e df 69 bd 04 e9 90 bd 48 f3 12 bd
       -0.09976842 -0.057097726 -0.07075694 -0.035876542
000390 6c 99 19 38 ee ca 56 3d c7 bb 67 3d fc d7 9a 3d
       3.6620928e-05 0.052439623 0.056575563 0.07560727
0003a0 52 8e c8 3c 96 36 df bc 94 85 c6 bd 46 e3 9d bc
       0.024481926 -0.027247708 -0.09693447 -0.019273411
0003b0 12 d3 9b 3d 47 d9 43 bc 18 16 39 bd 11 fa b4 bd
       0.07608618 -0.011953658 -0.045187086 -0.08836759
0003c0 da b6 2c bd cd 74 22 3b 72 ac fe bb 71 46 a4 bd
       -0.04216657 0.0024788857 -0.007772022 -0.08021248
0003d0 ef fe 68 3d f8 ff 9e 3d 23 9f a4 3d 3b e2 79 3d
       0.05688375 0.07763666 0.080381654 0.061006766
0003e0 85 08 a2 ba de 9b 93 3d fc 6b 2a bd 26 4d 6b bd
       -0.0012362158 0.07207464 -0.04160689 -0.05744662
0003f0 88 c7 7e bd 32 e9 d2 bc 02 f3 23 bc 9d 84 a6 3d
       -0.062202007 -0.025745962 -0.010006668 0.08130763

gru.bias_ih_l0 f4 [300]
000000 2f 1e 90 bd 06 0f 8c 3d 04 dc ea 3d 61 2a c8 3c
       -0.07037007 0.06838803 0.11467746 0.02443427
000010 84 91 b8 bc 55 ab e3 bc 34 19 7c bd a9 01 05 bd
       -0.022530325 -0.027791658 -0.061547473 -0.032472286
000020 20 93 89 bd 51 04 10 bd 5a ce c5 3d 00 f0 65 bc
       -0.06717515 -0.035160366 0.09658499 -0.014034271
000030 4d ff ec bc fd 67 81 bb 7c cc 6a 3d 12 84 2b 3c
       -0.02893033 -0.003949164 0.057323918 0.0104685
000040 2a 3a 1b 3d dc fb 15 3d fb 92 9b bc 6d 37 a4 3d
       0.037897266 0.036617145 -0.018990984 0.08018384
000050 b0 7b f0 bb d2 d5 cb 3d 4e 8f b5 3d ec 40 df 3c
       -0.0073389634 0.09952892 0.08865224 0.027252637
000060 ee 5a d7 3d 3a e3 42 bd 19 65 ff 3d 41 c3 b7 3d
       0.1051539 -0.04757998 0.12470455 0.089727886
000070 c1 7d e1 b9 fb 91 8b 3d a1 7b 94 bd 9b 18 64 bd
       -0.00043009038 0.06814953 -0.07250143 -0.055687528
000080 d8 40 88 3d 44 63 a7 3d 94 00 6c bc a9 e6 82 3d
       0.06652993 0.0817323 -0.014404435 0.06391651
000090 cf d7 52 bd 37 29 22 3d be 75 90 3c 63 ba b0 3d
       -0.051475342 0.039590087 0.017634269 0.086293004
0000a0 8a 7b d8 3d e3 d2 90 3d c6 16 8c bd 7c 55 61 bd
       0.10570438 0.070714734 -0.06840281 -0.055013165
0000b0 c3 e9 3c bc 7f 78 80 bc bb 54 a4 3b f9 38 24 bc
       -0.0115303425 -0.015682457 0.0050149835 -0.010023349
0000c0 07 68 0e bd 04 0a 83 bd 42 e0 85 bd 84 9a a3 bc
       -0.034767177 -0.06398395 -0.065369144 -0.01997114
0000d0 66 2b 97 3d 58 5e 1f 3c 64 35 c2 3b dd a0 18 bc
       0.073813245 0.009727083 0.005926775 -0.009315697
0000e0 4b e9 b8 bd 2c 2e d9 bb 60 a9 52 bc 23 b5 66 bd
       -0.09028872 -0.0066278186 -0.012857765 -0.05632509
0000f0 73 9f af 3c 26 df 3a ba d2 f9 66 bb 3d 40 88 bd
       0.021438336 -0.00071285886 -0.003524412 -0.066528775
000100 6e 82 e7 3d 26 db a1 bd 86 f9 1b bd 90 70 1a 3c
       0.11304174 -0.07903127 -0.03807976 0.009426251
000110 fd b3 71 3d 7d 95 ce bb c9 39 aa bc 13 ad 38 bb
       0.05900954 -0.0063044415 -0.020779507 -0.0028179332
000120 9d 63 17 3c 74 88 aa bd 9d 20 34 bd e6 4c a8 bc
       0.009240058 -0.083268076 -0.043976415 -0.02054448
000130 cd ee b3 3d 6e be 9f 3c 6c 77 72 3d ca 53 e6 3c
       0.08785782 0.019499984 0.05919592 0.028116126
000140 a1 0f 48 3d 70 28 30 bd 77 6f bf 3d ec 95 db 3d
       0.04884303 -0.043007314 0.09347432 0.10721955
000150 8f 30 c3 3c 9c c9 ac 3d d1 56 df 3d d0 34 b5 3d
       0.023826865 0.084368914 0.10905231 0.08847964
000160 59 12 40 bd 87 e0 b0 3d 06 d3 a9 3d 23 29 dd bd
       -0.046892498 0.08636575 0.08292203 -0.10798862
000170 af 8e 45 3d dc e9 48 bc 0c 30 b2 3d 3b 36 b5 3b
       0.048231777 -0.012262788 0.087005705 0.0055301464
000180 f6 c8 aa 3d 7a cd a6 3d e8 d6 e7 bb cc 83 89 bd
       0.083391115 0.0814466 -0.0070751794 -0.067145914
000190 c1 e6 0d bd a8 94 42 be 5a 9f 63 bd f8 82 e5 3c
       -0.034643892 -0.1900202 -0.05557189 0.028016552
0001a0 ba 0d 7a 3c 61 8a 98 3d 13 22 9b bd a6 15 b2 bd
       0.015262062 0.07448269 -0.075748585 -0.08695535
0001b0 fe 98 bd bd 98 0b 4a 3d e9 99 36 3d b7 80 40 bd
       -0.092576966 0.049327463 0.044580374 -0.046997752
0001c0 40 e5 80 bd c4 36 8d 3d 10 23 a0 bb e7 2e b2 bd
       -0.06293726 0.06895211 -0.0048869923 -0.08700352
0001d0 c4 b7 a4 3d 31 f2 6e bd 0f da 1e 3d 8f 4e 8d bc
       0.08042863 -0.05833644 0.038782176 -0.017249374
0001e0 46 03 98 bd 7b 3f 10 be d5 b4 c2 bb 06 c0 50 bc
       -0.07422499 -0.14086716 -0.005941967 -0.012741094
0001f0 e9 2c 96 3d c3 b1 11 be f5 5b 2d bd 0d 8f 80 bd
       0.07332785 -0.14227967 -0.042324025 -0.06277285
000200 5d 8f 0e bd 96 58 20 bd 22 5d 8b 3d b7 be b4 3b
       -0.03480469 -0.039146982 0.06804873 0.005515899
000210 10 4c c9 bd d2 ac 84 3d 59 d4 81 bd 37 49 8a bd
       -0.09828961 0.06478275 -0.0633933 -0.06752246
000220 9b 98 a9 bb bc ea 8a bd ec aa d0 bc b8 e9 a9 3d
       -0.0051756627 -0.06783053 -0.025472127 0.082965314
000230 91 52 d5 bc 79 58 b5 3d 55 87 e9 bd 6f dd 92 bc
       -0.026040347 0.088547654 -0.11402766 -0.017927853
000240 96 91 aa bd a4 67 41 bd 5d 19 8c bd a2 dd 61 3d
       -0.083285496 -0.04721798 -0.06840775 0.055143006
000250 b5 c4 ac bc 84 b2 c8 bd 2d cd 4f 3c 31 bb 24 3b
       -0.021089891 -0.09799674 0.012683195 0.0025135989
000260 03 a1 f0 bd 99 a9 2c 3d eb 7c 15 bd 5b 59 89 bd
       -0.117494605 0.04215393 -0.036496084 -0.06706496
000270 70 16 9e 3a 89 eb 42 bd e3 36 a7 bd 61 59 39 3d
       0.001206113 -0.047587905 -0.08164766 0.045251254
000280 b5 1b 14 be 4a 33 cf bd 38 f3 f4 bd 36 b9 a4 bc
       -0.14463694 -0.101172045 -0.11960453 -0.020107847
000290 05 74 08 be ca 76 59 bc 6b 5d 5c 3a ea ff e4 bd
       -0.13325508 -0.01327295 0.00084062543 -0.11181624
0002a0 a2 db 97 3d 69 27 1a 3d 23 f3 0a be 20 db b0 3a
       0.074149385 0.03763524 -0.13569312 0.0013493039
0002b0 1c e9 4b bc f7 ed ef bd 7b 3a cc bd 2e 25 d4 bd
       -0.012445714 -0.1171531 -0.09972092 -0.10358654
0002c0 7b bc ad bc 31 52 0a be 5e bd fe bd 51 8f 7d 3a
       -0.021208039 -0.13507916 -0.12438463 0.000967254
0002d0 e5 5d 6f bd d0 ec 1f be f0 40 3b bc 41 a3 ad 3c
       -0.058439154 -0.1561768 -0.0114290565 0.02119601
0002e0 99 ed ca 3b 58 e8 af bd c7 d8 4c 3d 5e 93 8b bd
       0.0061928746 -0.08589238 0.050011422 -0.068152174
0002f0 5a ea 82 bd cb 92 1c bd a1 72 89 bc e6 ae cc bd
       -0.06392355 -0.03822593 -0.016778292 -0.09994297
000300 a1 1c 30 3d 21 f4 50 bc 5b 6b 8d 3c 4c 19 ab bd
       0.042996053 -0.012753517 0.017263105 -0.08354434
000310 bf bd b5 bd 1b e2 3f bd 56 af 28 bd 31 60 96 bd
       -0.08874082 -0.04684649 -0.04118284 -0.07342566
000320 8e f6 98 bd 4f 00 c1 bd 4f f6 9a bc 07 5c b2 bb
       -0.074689016 -0.09423887 -0.018916277 -0.0054430994
000330 a4 ee 30 ba 33 bb 1a 3d bf a5 df 3c 1a 29 12 3e
       -0.00067494274 0.037776183 0.027300714 0.14273492
000340 23 ac 11 bd 60 bb f7 bd 94 92 72 3d 3a fc 06 bd
       -0.035564553 -0.12096286 0.05922182 -0.032955386
000350 2b c0 59 3c a2 06 bb 3d c0 32 39 3e c8 36 ab 3d
       0.013290445 0.091321245 0.18085766 0.08360058
000360 f2 ce 3b bd 27 ad a9 3d 70 2a 53 bc 51 cf 89 bc
       -0.045851655 0.08284979 -0.012888536 -0.016822489
000370 a7 ac e2 bd 27 45 05 3c 09 d9 27 3d d3 e5 2b bc
       -0.11068087 0.008134163 0.040978465 -0.010491806
000380 34 07 ab bd 7f 6b 3f bd 1b 22 8f bd d7 fd 23 3e
       -0.08350983 -0.046733376 -0.06988927 0.16014801
000390 af 07 38 3d 65 39 77 bc 7a 07 8b 3c 15 7d 0d 3d
       0.044929203 -0.0150893675 0.016971339 0.034543116
0003a0 7e e4 8a bb 95 fd 79 3d 2a a9 33 3c 4f f9 89 3c
       -0.004238664 0.06103285 0.010965625 0.016842512
0003b0 66 2c 09 bd 22 6e a0 3c d4 8c df bd 12 2d 99 3d
       -0.033489607 0.019583765 -0.10915533 0.074792996
0003c0 4a 0a bb bd 81 c1 f0 bd 0b d0 8d 3d f9 42 3c 3d
       -0.09132822 -0.11755658 0.06924447 0.045962308
0003d0 4b 07 ac 3c 48 be 2d 3e af 7b 09 be 62 4d 4e 3d
       0.020999571 0.16967118 -0.13426088 0.050366767
0003e0 95 fe 93 3c ec cf 1f 3e f9 9d 45 3d c6 af bf bd
       0.01806573 0.1560666 0.048246358 -0.09359698
0003f0 19 25 f1 3c 70 35 7b bd 6c 08 a1 3c 6e f1 e1 bc
       0.029436635 -0.06133026 0.019657336 -0.027580943

gru.bias_hh_l0 f4 [300]
000000 53 d1 9d bd ab 83 81 bd 05 0d 64 3d b8 7a 88 bc
       -0.07705941 -0.06323942 0.05567648 -0.01666008
000010 d9 b9 4a 3d 83 39 de bc 8e 36 aa bc 28 e7 b1 bd
       0.049493644 -0.027127033 -0.020777967 -0.08686668
000020 f0 0a 0e 3d 68 3f 61 bd 29 0a 9a 3d 0d 6b 89 3d
       0.0346784 -0.05499211 0.07521469 0.067098714
000030 bf f2 91 bd d7 2e a8 3d da 4d 47 3d 35 51 36 bd
       -0.07126378 0.08212059 0.04865823 -0.04451104
000040 24 1c f6 3b 17 92 7f bc 48 50 cf 3b ad 15 3b 3d
       0.007510679 -0.015598795 0.006326709 0.04567497
000050 12 6c 87 3d f8 f8 da 3d be b6 2f bd 53 8b af 3d
       0.0661241 0.10692018 -0.042898886 0.08571496
000060 4f 55 07 ba a5 07 1d bd fa 0f 04 bd 7b de 87 3d
       -0.0005162553 -0.03833737 -0.0322418 0.06634232
000070 22 b8 8c 3c 4b ac fe 3c d4 35 98 bd f7 55 ba bd
       0.017177645 0.031088015 -0.07432142 -0.09098428
000080 16 d6 36 3d 7b e5 7a 3d 35 ec be 3d cf 06 73 bd
       0.044637762 0.061254006 0.09322397 -0.059332665
000090 b0 81 d3 bc a5 60 17 3c cc f2 4a bd 4c 42 f9 bc
       -0.025818676 0.00923935 -0.049547955 -0.03042712
0000a0 18 d3 0a bc ca 92 84 3c 34 96 98 bd 4b ef 92 bd
       -0.00847318 0.016183276 -0.07450524 -0.07174548
0000b0 b2 69 c3 3d b9 66 3b bc a6 6b 22 3d 0b 90 4c 3d
       0.09541644 -0.011438065 0.039653443 0.049942058
0000c0 a6 b6 31 3d 2b d2 ec 3d a7 63 d1 3c b9 fa 26 3d
       0.043387078 0.11563524 0.025560213 0.04076645
0000d0 20 3c 95 3d 55 f3 6c bd be 57 53 bc 73 92 b4 3c
       0.072868586 -0.057849247 -0.012899337 0.022042489
0000e0 1f 53 12 bc 50 b9 cd 3d e5 a7 c6 3a de 61 2f bd
       -0.00893095 0.10045111 0.0015156238 -0.042817943
0000f0 69 00 0c bd b3 4d 70 bd 01 72 47 3d cf f4 8d 3a
       -0.03418008 -0.05866785 0.048692707 0.0010830405
000100 40 f4 89 bd 9f df 81 3d 36 59 80 bc df 32 a8 bd
       -0.0673604 0.063414805 -0.01566754 -0.08212828
000110 09 04 35 3d 3a 1d c0 3d c2 80 b8 3d ae 22 5c bd
       0.0441933 0.093805745 0.090089336 -0.05374401
000120 4b 6b 6e 3d b3 56 82 bd e4 8e 82 bd f9 39 42 bc
       0.05820779 -0.06364193 -0.063749105 -0.011854642
000130 3e 47 b9 bd a4 65 cd 3d f7 08 87 3d ad 33 63 3d
       -0.090467915 0.10029152 0.06593507 0.055469204
000140 2d e0 ba 3a 7e 75 b9 bc a2 7b bb 3d 98 c2 63 3d
       0.0014257483 -0.022639032 0.091544405 0.0556055
000150 b4 3a 6f bd 99 92 97 bd c1 6f 6f bd d1 b1 fe 3c
       -0.058405593 -0.07401008 -0.058456186 0.031090649
000160 bf cc 04 bc 7c 93 87 bd bf 51 9d 3d 1d 7a c5 bb
       -0.008105456 -0.06619927 0.076816075 -0.00602652
000170 c2 42 87 3d 48 a2 61 3d 16 df fa ba c8 46 9e 3d
       0.0660453 0.055086404 -0.0019139971 0.07728344
000180 e9 ab f1 3d 17 10 4b 3d 40 f0 03 bc 6f b1 a7 bd
       0.118003674 0.04957589 -0.0080528855 -0.0818814
000190 60 96 48 bd 44 f4 8e bd ed 66 2a bd 67 64 f6 bc
       -0.048971534 -0.06980184 -0.041602064 -0.030077172
0001a0 5a 55 20 be aa 12 24 bd 30 92 ed bd bd 30 9a 3c
       -0.15657559 -0.040056862 -0.11600149 0.018822068
0001b0 ed 92 3d 3d ea ff 1a bc 8e 16 03 be 7d aa 11 bc
       0.046282697 -0.009460429 -0.12801573 -0.008890745
0001c0 eb bb 8d 3d 8b 2b 49 3d 3c 4e c3 bd 6d 0e 9d bd
       0.06920608 0.04911379 -0.095364064 -0.07668767
0001d0 c7 89 fc bc 4b 92 41 3d 06 c4 da bc 98 55 b2 bc
       -0.030827416 0.047258656 -0.0267048 -0.02176933
0001e0 d9 e5 35 3d 4f 7f 03 39 43 a7 6e bd d8 42 40 bd
       0.044408653 0.0001254056 -0.058264982 -0.046938747
0001f0 65 eb a9 bd c8 d4 e8 bd 04 38 81 bc 07 5d 21 bb
       -0.08296851 -0.1136871 -0.01577378 -0.00246221
000200 b7 6e 44 3d 54 da 14 3b ef e7 a8 bc 57 33 df bd
       0.04795715 0.0022713142 -0.020618407 -0.10898464
000210 e7 e5 17 bc 8d eb 40 bd 83 f4 24 bd 5f 03 88 3d
       -0.009271122 -0.04709964 -0.040272247 0.06641268
000220 be 8c 8f bd a7 8d 4c bd 42 43 0d bd 2f 62 5d bd
       -0.07009266 -0.049939778 -0.03448797 -0.054048713
000230 05 fa 45 bd 53 2b d5 3c e7 5f 0a be 76 d0 de bd
       -0.04833414 0.026021635 -0.13513146 -0.108796045
000240 3b 56 f2 bd cc 8a 89 3c a3 c4 40 bd 12 c3 6c bc
       -0.118328534 0.016789816 -0.047062527 -0.014450805
000250 ff cd 78 3d 6d 3e cc bc 1e ca ea bc dc df 87 bd
       0.06074333 -0.02493211 -0.02866083 -0.06634495
000260 d6 47 72 bd 26 18 6a bd 87 b1 75 bb 03 02 23 be
       -0.05915054 -0.057151936 -0.0037489848 -0.15918736
000270 4b 89 15 be 83 fb 2d 3c 0c a4 34 bd f2 eb 86 3c
       -0.14603154 0.010619047 -0.04410176 0.01646993
000280 c8 ca 35 3c bc ea 0c be d6 1d de bd 79 29 30 3c
       0.01109571 -0.13761419 -0.108455345 0.010752075
000290 b1 91 28 bd 85 8d 3c 3d 27 bb 01 be 62 2a 79 3d
       -0.041154567 0.0460334 -0.12669049 0.060831435
0002a0 1b 21 99 3d b2 38 a4 bd 85 3f ed bd f0 83 61 3d
       0.074770175 -0.08018626 -0.11584381 0.055057466
0002b0 d4 c1 97 3d dc 4d e2 bd ff 33 77 bd 91 f0 9d bd
       0.07410017 -0.11050007 -0.06035232 -0.077119
0002c0 60 22 a5 3d ba 10 20 3d 1b c4 6d bd e4 60 71 3b
       0.08063197 0.03907845 -0.05804835 0.0036831433
0002d0 84 7e 93 bc 77 dd 0e be 94 7f e7 3c 67 9b 9b 3a
       -0.018004663 -0.1395167 0.028259076 0.0011871875
0002e0 6e 4a 04 be aa 4c 8f 3c 20 2f 99 bb 88 f9 d3 bd
       -0.12919018 0.017492611 -0.004674807 -0.10350329
0002f0 84 91 f2 bd dc db 54 bd 12 5a b9 bd 56 ac 91 bc
       -0.11844161 -0.051967487 -0.09050383 -0.017782371
000300 d0 45 ed bd 63 02 e9 3c ce 4c b9 bd 90 c5 b6 bd
       -0.11585581 0.02844352 -0.090478525 -0.08924401
000310 86 6c 22 bd 14 0f fb bd 3e 5d b0 bd b6 1f 0b be
       -0.039654277 -0.12258735 -0.086115345 -0.13586316
000320 12 c2 93 bc e1 79 13 bd 22 a5 c8 3d fc 1c 2e 3d
       -0.018036876 -0.036004905 0.097971216 0.04250811
000330 61 f5 4e 3c eb 23 dc 3c b9 e9 c4 3d 76 c3 9d 3d
       0.012631745 0.026872596 0.096148916 0.07703297
000340 59 2c af 3d 8c f7 99 bd 00 93 0f 3d ab cf 91 bd
       0.085533805 -0.07517919 0.0350523 -0.07119688
000350 a3 84 31 bc cd 20 aa 3d be 78 8d 3d 9e 5f 01 3e
       -0.010834846 0.083070375 0.06907795 0.12634131
000360 d4 92 bd 3c 98 dc a9 3d df 02 b2 3d d7 cc 82 bd
       0.023141302 0.08294028 0.08691954 -0.06386726
000370 65 69 30 bd 51 7d cc 3c 23 31 e0 3d 8e 3b 8a 3a
       -0.043069262 0.0249621 0.10946872 0.0010546313
000380 f1 89 37 3d ae 71 46 bc 70 d7 5a 3d 74 cf 0f 3d
       0.044809286 -0.012112064 0.053428113 0.035109952
000390 5f 6c 5d 3d da 23 3e bd de 2c 8d 3c a8 89 4a 3d
       0.05405843 -0.04642091 0.017233308 0.049447685
0003a0 ec fe da b9 0f 39 b6 3d f2 02 83 bd 09 bc 91 3c
       -0.00041770132 0.08897602 -0.06397046 0.017789857
0003b0 52 95 d5 bc 80 c4 a6 3d 84 fa a4 bc fe 1b 12 3e
       -0.026072178 0.08142948 -0.020138986 0.1426849
0003c0 e3 73 8d bd 67 ee 07 3c 22 04 ee 3c 2d 25 37 3c
       -0.06906869 0.008296586 0.029054705 0.011178297
0003d0 f8 63 c5 3d 77 52 1b 3e 27 c9 c9 bd ed 21 d6 3d
       0.09638208 0.15168177 -0.0985282 0.104556896
0003e0 43 a9 59 bd 53 f8 b0 3d 5e 0f 99 3c 1e a2 0a be
       -0.053139936 0.08641114 0.018684085 -0.13538405
0003f0 47 f8 06 bb 6d 06 89 bd b8 64 5d bd cd d4 8f 3d
       -0.0020594762 -0.06690679 -0.05405113 0.070230104

gru.weight_ih_l0_reverse f4 [300, 100]
000000 e1 71 3b 3d a7 cb bf 3c b9 95 97 3d 25 30 84 3d
       0.0457629 0.023412539 0.07401604 0.06454495
000010 a2 ff 7f 3c be 94 75 3d 56 74 06 3d db fe bd bd
       0.015624912 0.059956305 0.03282579 -0.092771254
000020 91 be b9 3d a7 a6 c3 bd 8f 6e 7b 3c 36 61 dd bc
       0.09069551 -0.09553271 0.015346183 -0.027023893
000030 89 2f 83 bd b6 11 9a bc 62 4d 2a 3d c9 53 81 bd
       -0.06405551 -0.018807273 0.041577704 -0.06314809
000040 ef 96 d1 bc 82 4e c1 3d 36 ea b1 3b b5 b0 90 bd
       -0.025584666 0.09438802 0.0054295314 -0.07064954
000050 d8 f5 8b bd aa 1f c0 bd 46 b5 03 3d 1a 08 2f bb
       -0.06834 -0.093810394 0.032155298 -0.002670771
000060 98 bd 83 bd 48 a6 30 bc 62 90 89 3d 90 81 c0 3d
       -0.064326465 -0.010781832 0.06716992 0.09399712
000070 6b 7a c0 bd f3 38 3c bd a4 c3 a3 3d 30 f8 c3 bd
       -0.093983494 -0.04595275 0.079963 -0.095688224
000080 53 37 9c bc 02 be 35 3d 99 da 03 3d 79 52 f6 3c
       -0.01906935 0.04437066 0.032190893 0.030068623
000090 64 99 ca bc a3 a2 a8 3d 55 85 2d bc 25 40 14 bd
       -0.024731345 0.082341455 -0.010590871 -0.036193985
0000a0 9c 70 ba 3d 12 5b df bb e4 63 35 3d f4 90 58 bd
       0.0910351 -0.0068162763 0.044284716 -0.052872613
0000b0 eb b0 06 3c 81 db 0a 3c 92 7e a8 3d 2b fc 3c bd
       0.0082208915 0.008475185 0.08227266 -0.046138924
0000c0 6d cc 9d bd 6b 18 79 bc f3 1b 27 bd 69 54 95 bd
       -0.07705007 -0.015203576 -0.04079814 -0.072914906
0000d0 de 80 c5 3d 6f 1e d2 3c 2d c5 1e 3d 86 0b e3 3b
       0.0964372 0.025649277 0.03876226 0.006928864
0000e0 3f 90 be bd f3 10 49 bd f9 fe 80 bd 7d 6a 20 bd
       -0.093048565 -0.04908843 -0.06298632 -0.039164055
0000f0 e2 09 a5 3d 4d ee a6 3d c3 00 8b bd 59 2a a8 3d
       0.080585256 0.08150921 -0.06787255 0.08211202
000100 b2 c5 82 3d 8a 93 8c bc 56 51 9b bd 4b 6e 27 bd
       0.06385364 -0.017160196 -0.07583873 -0.040876668
000110 a0 a2 cb bd a9 60 86 bd ca 30 50 bd e5 2f 42 bc
       -0.09943128 -0.06561405 -0.05082778 -0.011852239
000120 e8 23 22 bc 87 48 c8 3d 1d 7f b2 3d 1f bc 78 3d
       -0.009896256 0.097794585 0.08715651 0.06072628
000130 b5 21 c4 bd ed 65 65 bd 72 8e ab 3c bc 0d 87 3d
       -0.095767416 -0.056005407 0.020941947 0.065944165
000140 68 51 39 bd dc 5a 9d 3d 6c ef 19 bd 80 86 0c 3d
       -0.04524365 0.07683346 -0.037581846 0.034307957
000150 67 5d f2 3c 18 08 4a 3d 0c 9d 63 3d 1a c1 93 bd
       0.029585553 0.049324125 0.055569693 -0.072145656
000160 5f 6f c8 3d f5 fb 84 bc f8 ff c2 3d e5 6f 1a 3d
       0.09786867 -0.016233424 0.095214784 0.037704367
000170 a7 65 eb bc e2 b1 0b bc 63 4b 95 bd 5c b9 3c bd
       -0.028734995 -0.008526297 -0.072897695 -0.04607521
000180 79 03 9f bd e1 9c 43 3d f4 49 a6 3b 76 44 41 3d
       -0.07764334 0.047757033 0.005074734 0.04718443
000190 4c e8 e5 bc 88 0e af bd 8f 2e 92 bc ae 54 a8 bd
       -0.02806487 -0.085476935 -0.017844466 -0.08219276
0001a0 a8 ad b0 bd 9f 9d 7d 3d 03 9c 9d 3d 38 d4 a4 bd
       -0.08626872 0.061917897 0.076957725 -0.0804829
0001b0 91 0e 2e 3d 80 c1 03 bd 9e 15 07 bd d9 5d 7c 3d
       0.04249436 -0.032166958 -0.0329796 0.061612938
0001c0 44 a2 95 bd 0b d2 a6 3c ca 43 04 3d 86 cd b3 3d
       -0.0730634 0.020363828 0.03229121 0.08779435
0001d0 f3 a0 4b 3c ee 8c 2a 3d d8 01 88 3d ad d9 85 bd
       0.01242851 0.041638307 0.06640977 -0.06535659
0001e0 27 d3 16 bd b8 2c 93 3d 48 d5 3d 3d 29 cd a8 bc
       -0.036822464 0.07186264 0.04634598 -0.02060564
0001f0 d3 b3 4a 3c f9 dd 69 3c f0 13 d3 3d b6 aa 7d 3d
       0.012371975 0.014274114 0.10306537 0.06193038
000200 c2 7f bc bd 2b 4b 86 bd f8 52 78 3d e1 81 27 bd
       -0.09204055 -0.06557306 0.060626 -0.040895347
000210 0c 44 a3 bd d3 0b 83 bd a0 db 9f 3c 3f 23 6f bd
       -0.07971963 -0.0639874 0.019513905 -0.058383223
000220 28 74 f5 bc 69 59 7e bc 06 4a 43 3b af e1 9e bd
       -0.029962614 -0.015524247 0.002979876 -0.077578895
000230 15 da 63 bd 30 24 53 3d 28 a1 8b 3d 40 80 a6 3d
       -0.0556279 0.051548183 0.068178475 0.081299305
000240 59 df 61 3d 19 5b 72 3d 5c a7 25 3d 4a 21 7f bd
       0.05514464 0.05916891 0.04044281 -0.062287606
000250 3e 41 e3 bb 9e 7d fc 3c 45 3b b5 bd 18 a2 fb bb
       -0.0069352677 0.030821618 -0.088491954 -0.007679235
000260 bd 5e 78 39 6b c2 50 bd 5a 3c 9e 3d f4 d2 7d bd
       0.00023686416 -0.05096666 0.07726355 -0.06196876
000270 96 72 60 bd a8 17 19 bc 17 54 6d bd 4d 72 aa bd
       -0.054796778 -0.009344019 -0.057941522 -0.083225824
000280 7a 91 22 bd 31 38 15 3d e0 4a 5c 3d 0c 29 c2 3c
       -0.03968952 0.03643054 0.053782344 0.023701213
000290 25 62 fa bb c3 10 63 bd 38 e3 22 3d 00 f0 ce bc
       -0.0076410943 -0.055435907 0.039767474 -0.025260925
0002a0 ee 8c 84 bd e0 8d 87 bd 41 ad 6a bd 5e ea e0 bb
       -0.06472193 -0.066188574 -0.057294134 -0.0068638762
0002b0 ba 1d b9 bd 97 08 4a 3d f8 d3 85 3d 2d df 1d bc
       -0.09038873 0.0493246 0.065345705 -0.009635729
0002c0 55 a0 bf 3a 3b a7 ae bd 05 09 b1 3d 8b 25 21 3a
       0.0014619926 -0.085279904 0.086442985 0.0006147257
0002d0 35 d0 b7 bd 6e 69 c8 bb 9d d3 79 bd e5 5a 1f bd
       -0.08975259 -0.006116084 -0.060992826 -0.038905043
0002e0 68 e9 cc 3d bb 3d bb 3d 53 24 90 bd 86 cb 8f 3d
       0.10005456 0.091426335 -0.07038178 0.07021241
0002f0 9d 62 79 3d 4b e8 1f bc bf a4 8e bb 8e f6 8d bd
       0.06088506 -0.009759973 -0.0043531354 -0.06931792
000300 ff 94 b4 bd c0 08 37 bd 0d c6 47 bd b4 c7 c3 b9
       -0.08817481 -0.04468608 -0.04877286 -0.0003734209
000310 b8 f6 aa 3d ca 53 9b bd 9c 7d b0 3c e8 c5 45 3d
       0.08347839 -0.07584341 0.02154427 0.04828444
000320 b0 c3 3e 3d 22 83 a5 3d 72 52 c4 3d e8 8e b5 3c
       0.04657334 0.08081652 0.09586038 0.02216287
000330 96 33 0e 3d 58 87 31 bd f3 fc c4 bd ff 7a 4a 3d
       0.034717165 -0.043341964 -0.09618559 0.049433704
000340 4b 9f be bd ad ab f0 bb 0d 5d a8 3d 4b 3d 8e bd
       -0.093077265 -0.007344684 0.08220873 -0.069452845
000350 4c ac 3c bd 81 da 86 3c ad c9 1f 3d 03 2a a9 bd
       -0.046062753 0.016461613 0.039010692 -0.08259966
000360 9e 9f b9 bb 57 71 a0 3c 7c 72 53 bd 33 98 b0 3d
       -0.00566478 0.019585295 -0.051622853 0.0862278
000370 c5 c8 54 3d 1c 29 19 bc b8 b7 43 3d 95 96 24 bb
       0.05194928 -0.00934818 0.04778263 -0.0025114168
000380 6c a5 6c bc 61 78 41 bd 47 df 4d bd 5e 6e b4 bd
       -0.0144437365 -0.047233943 -0.050261762 -0.08810113
000390 7c b9 49 bd 3a 4d 63 bc 7d 76 de bd cb 0a 26 3d
       -0.049249157 -0.013873393 -0.108624436 0.040537637
0003a0 f2 ea 13 3d 99 60 f3 3d 4c 96 bd 3d db 05 5e bd
       0.036112733 0.11883659 0.092571825 -0.054204803
0003b0 0c 36 5c bd e1 eb ad 3c 47 02 d6 bb d5 81 3c 3d
       -0.05376248 0.02123064 -0.006531033 0.046022255
0003c0 50 b5 2e 3d 23 43 8c bc d5 e4 54 bd dc 8e b5 bc
       0.04265338 -0.017121857 -0.051976044 -0.022162847
0003d0 16 a4 80 bd 55 33 a2 3b ae cd 15 bc 59 57 0e bd
       -0.06281297 0.004949967 -0.009143276 -0.03475127
0003e0 30 48 cc 3c 58 bf 99 3d fa fc 17 3c 1f 3e 16 bd
       0.024936765 0.07507199 0.009276623 -0.036680337
0003f0 50 eb 0d bb 60 49 b1 3d e2 ea c9 3c 6e a4 06 3d
       -0.002165515 0.08656573 0.024648134 0.032871656

gru.weight_hh_l0_reverse f4 [300, 100]
000000 a3 f1 86 bb 3e 60 ac 3c f1 34 95 bd 47 79 cc bd
       -0.004118161 0.021041986 -0.072854884 -0.09984069
000010 dd 6a 86 3c 54 1f 4b bd da 2f 73 3d 49 25 6a bd
       0.016408378 -0.049590424 0.059371807 -0.057164464
000020 04 c6 f5 3c 9e 94 25 3d 67 48 3e bd 1b 11 0b bd
       0.030001648 0.040424936 -0.046455767 -0.03395186
000030 39 38 8f bd cf 41 8a 3d b8 83 3b bd d6 d4 b3 3d
       -0.069931455 0.06750833 -0.045779914 0.087808296
000040 82 26 fd 3b 2d eb a0 bd f3 00 02 bd 58 bc b8 3d
       0.0077255378 -0.07857356 -0.031739186 0.09020299
000050 fa 0b a3 3d 42 7d a5 bd ac a5 91 3c 34 c3 55 bc
       0.07961269 -0.08080532 0.017779194 -0.013047028
000060 b8 a8 c1 bd a8 12 bd bc 63 49 0a 3d a0 40 55 3c
       -0.09456009 -0.023080185 0.033761393 0.013015896
000070 76 2c 05 bd 93 62 c1 bc b1 aa b4 bd 58 37 8e bd
       -0.032513104 -0.023606574 -0.08821619 -0.0694415
000080 2a ba 9f 3d 67 3c 12 bc 19 8f f3 bc 08 4b f8 bb
       0.0779918 -0.008925534 -0.02973132 -0.007577304
000090 c3 a0 58 3d b6 6b 60 3d 1f 05 88 3d c4 ec 02 bc
       0.05288769 0.05479022 0.06641602 -0.00799102
0000a0 8c 94 75 3d ca 3a 93 3d 24 21 b7 bd f1 31 3e 3d
       0.05995612 0.071889475 -0.08941868 0.046434347
0000b0 c2 b0 9b bd 97 21 c6 bd 48 58 38 bd 85 37 cb bd
       -0.07602073 -0.096743755 -0.045006067 -0.09922699
0000c0 72 50 1a 3d 67 a3 13 3d 83 38 e1 3c 80 fa 90 bc
       0.037674375 0.036044504 0.027492767 -0.017697573
0000d0 8a 51 a3 bd dc 1d 7d bd 95 ba ba 3d b1 51 c6 bd
       -0.07974537 -0.061796054 0.09117619 -0.0968355
0000e0 c8 5d b7 bd 9a f0 8d bd 75 08 5a bd d9 9e c0 bd
       -0.08953434 -0.06930657 -0.05323072 -0.09405298
0000f0 d3 3c 9f bc bb d7 58 3d e2 25 02 bc 47 ec c1 bd
       -0.019438183 0.05294011 -0.007943602 -0.094688945
000100 11 a8 16 bd 73 d9 bb 3c d2 44 38 3c 51 f0 9b 3d
       -0.036781374 0.022930836 0.011246877 0.07614196
000110 de ee 6c bd 95 1e 2f 3d 2a 38 35 3d a5 8a 28 3a
       -0.05784499 0.042753775 0.044243015 0.0006429351
000120 dd 72 dc bc df 41 87 3b 14 32 69 bd 6a 9f 5b 3d
       -0.02691024 0.0041277255 -0.056932524 0.053618826
000130 83 a0 3f 3d d7 ca 24 3d b2 44 97 3d cc 4f 5d bd
       0.046783935 0.040232506 0.073861495 -0.05403118
000140 d9 2f 37 bd 8f 66 b3 bc 81 eb c6 3d 8b fa 39 3d
       -0.044723365 -0.02189949 0.097128876 0.045404952
000150 54 2c c5 bd db 9c b9 3d 26 21 3f 3d 10 27 0e bb
       -0.096275955 0.09063121 0.046662472 -0.0021690764
000160 09 95 9c 3c 7f 14 3a bd f9 34 99 3c 86 9c 97 3d
       0.019114034 -0.045429703 0.018702017 0.07402901
000170 22 b9 b4 bd 7b 64 2c 3d 87 9d 42 bd 82 18 37 b7
       -0.08824374 0.042088013 -0.04751351 -1.0913356e-05
000180 a5 34 2e 3d b3 bf ce bc 44 e6 95 bd 00 56 7c 3d
       0.042530674 -0.025237894 -0.0731931 0.061605453
000190 e3 04 b4 3d a6 60 70 3b 8d 24 8a bb 46 76 19 bd
       0.087899946 0.00366787 -0.004215783 -0.03746631
0001a0 4f fb 23 bd 3a a5 bd 3d af a5 bd 3d 0c ce a7 bd
       -0.04003459 0.0926003 0.09260117 -0.08193597
0001b0 91 aa 03 3d a0 52 6b bd ad a2 a5 bd a7 65 b9 3d
       0.032145087 -0.057451844 -0.080876686 0.09052592
0001c0 7b d3 4c 3d e1 3b 83 bc d4 33 64 3d 4c 23 86 bd
       0.05000637 -0.016019763 0.05571349 -0.06549701
0001d0 00 d2 55 3c 7e b1 2d bd 25 af b1 3c 75 e0 bd 3d
       0.013050556 -0.042405598 0.02168996 0.092713274
0001e0 cf da 0b 3d 05 7e 48 3d b3 86 b8 bd a5 8f 62 ba
       0.03414422 0.048948307 -0.09010067 -0.00086426205
0001f0 a6 1a d3 bb 38 48 a0 bc 88 92 0f 3d d8 cf fd bc
       -0.0064423857 -0.019565687 0.035051852 -0.030982897
000200 42 f3 a5 3d 53 25 c3 bc 06 dc ba bd 1b d3 b1 bd
       0.08103038 -0.023821509 -0.091239974 -0.08682843
000210 5b 88 93 3d b6 df ed 3b 7b 4a 42 3d fa b7 70 3d
       0.07203742 0.0072593344 0.04743431 0.058769204
000220 eb d9 46 bd bf 9b a1 3c 8a d6 21 3d b5 5f 43 3d
       -0.048547667 0.019727586 0.03951124 0.047698695
000230 fc e8 ab 3d 99 28 9c 3d a2 35 5b bd d5 aa 0f bb
       0.083940476 0.07624931 -0.053517945 -0.0021921892
000240 d8 fa c4 3d a5 8a b1 bd b4 68 17 bd be aa 90 bd
       0.09618157 -0.086690225 -0.036965087 -0.070638165
000250 18 9e fa bc 04 4f 9d 3d 50 10 3c bd 51 42 81 bd
       -0.030592963 0.07681087 -0.045913994 -0.06311477
000260 ee 97 a3 bc 6f 06 8c 3d e9 d9 d4 bc 5b 10 7b 3d
       -0.019969907 0.068371646 -0.025982814 0.061294895
000270 be 50 1d 3d 16 4e 8d 3d 95 36 b3 bd ef f2 9f 3d
       0.03840708 0.06899659 -0.08750645 0.07810008
000280 d1 de a0 bd e7 33 8f 3c e5 12 97 bd fb 06 b2 bc
       -0.07854999 0.017480804 -0.07376651 -0.021731844
000290 7b 82 60 3b 3a 08 73 3c 90 38 50 3c 25 f7 f7 3b
       0.003425746 0.014833504 0.012708798 0.0075673037
0002a0 a0 bc f2 3c 51 56 50 bd 7c eb 21 3c 03 1e 59 3d
       0.029630959 -0.050863568 0.009882804 0.053007137
0002b0 95 11 7c 3d 86 a0 02 3d 6a 51 a5 3c 02 1f 6f 3a
       0.061540205 0.03189137 0.020180423 0.0009121747
0002c0 ac de cd 3c 6d 13 77 3c d4 a1 50 3d 75 d3 ba 3d
       0.025130592 0.015080315 0.05093558 0.091223635
0002d0 21 2f 46 bc 2d 8e cb 3d df c6 c6 3d fe 28 01 3a
       -0.012096197 0.09939227 0.097059004 0.0004927068
0002e0 b6 81 33 3a 4e c2 78 bc b3 86 2d bb 80 8f 89 3c
       0.00068476365 -0.015183045 -0.0026477992 0.016792059
0002f0 55 65 4a 3c f7 68 b2 3a 18 d5 8f 3d 61 b5 33 bd
       0.012353261 0.0013611604 0.07023066 -0.04387415
000300 a3 18 95 bd f7 cd 5b bd e8 a3 6d 3d b0 48 b2 3d
       -0.0728009 -0.05366322 0.05801764 0.0870527
000310 69 44 c3 3d db 93 98 3d 07 56 80 3d 18 01 05 bd
       0.095345326 0.07450076 0.062664084 -0.032471746
000320 08 da c1 3d 38 60 b4 bd e9 20 3c bc 2c cc ba bd
       0.09465414 -0.08807415 -0.011482456 -0.09120974
000330 40 47 bc 3d 4e 8a a4 3d b1 79 b0 bd 4c 66 0e bd
       0.09193277 0.08034192 -0.08616961 -0.034765527
000340 8a 97 a6 bc 4c 9c 36 3d 8b 70 03 bd 3d c0 d3 bd
       -0.020335931 0.04458265 -0.03208975 -0.10339401
000350 24 2a 0c bb 53 ee f9 3c 06 24 2f bb 5b 6f db bd
       -0.0021387422 0.03050915 -0.0026724353 -0.10714599
000360 01 21 aa 3d b2 07 9a bd 19 40 92 3d f5 09 ae 3d
       0.08307076 -0.07520999 0.07141132 0.08497993
000370 ef 37 a7 3d fc 93 e1 3d 3b dc c8 bd 3e 00 02 bd
       0.08164965 0.11014554 -0.09807631 -0.031738512
000380 45 97 c2 3d 81 05 1a 3d 66 6a 53 bd c6 97 82 bc
       0.095015086 0.037602905 -0.05161514 -0.015941512
000390 89 4a 93 bc af 87 f8 3c b1 74 b5 bd ec 09 bf bd
       -0.017979877 0.030338136 -0.08860148 -0.09328064
0003a0 28 55 a8 3d aa 2e d3 3c f3 0e 9f bd 76 6e 78 bd
       0.08219367 0.025779087 -0.07766523 -0.06065222
0003b0 7e 83 bc 3d b8 23 b7 3d 34 a3 1f 3d 73 31 d7 3d
       0.09204768 0.0894236 0.038974002 0.105074786
0003c0 87 3c 9f 3d 85 d8 4f bd 72 7d b3 3b b2 24 3a bc
       0.077752165 -0.0507436 0.0054776007 -0.011361288
0003d0 a0 3a f4 bc 15 99 08 bd 5c 5f d0 3b ad 31 88 bd
       -0.02981311 -0.033349115 0.006359024 -0.066501
0003e0 48 88 55 bd fc cb 89 3c 14 08 44 bc 14 fb e3 bc
       -0.05213192 0.0168209 -0.011964817 -0.027829684
0003f0 d9 73 bd 3d bd af 76 bd 8f f3 88 bd d6 b3 bf bd
       0.09250612 -0.06022619 -0.0668708 -0.09360473
