parameter/chr_parameter/my_character_linear_5204.pth (torch_old, 80969 bytes, 2 tensors)

lastnet.weight f4 [100, 200]
000000 e7 19 bf 3d c9 ee 50 3d 47 ef 93 bd 7a 9a 21 3d
       0.09331112 0.051008973 -0.07223373 0.03945396
000010 84 05 69 bd 1f ac 78 bd d9 4c 2c bd cc 88 a3 3d
       -0.056890026 -0.060711022 -0.042065475 0.07985076
000020 de 45 80 bd 81 11 df 3b dd af 1c 3d 1a fb ca 3d
       -0.06263326 0.0068075066 0.038253654 0.09911175
000030 97 a2 dd bc 9b 34 0a 3b c2 e9 b2 3b d2 0b 37 bc
       -0.027055068 0.0021088484 0.005459995 -0.011172252
000040 2a 1e 50 bd 9e aa 9d 3c 47 b3 ac 3d 35 42 42 3b
       -0.050810017 0.019246396 0.08432632 0.0029641513
000050 5f 26 69 bd 2d 18 2c bd 93 95 28 3c 38 b8 aa bd
       -0.05692136 -0.042015243 0.0102895675 -0.08335918
000060 27 87 10 3d 57 14 29 3d 6e 9e 16 bc 84 4a 94 3b
       0.03528514 0.041279163 -0.009193046 0.0045254845
000070 44 53 80 bd 75 6a 19 bd a4 27 00 3d dd 1e f6 bb
       -0.06265882 -0.03745504 0.031287804 -0.0075110034
000080 10 04 c2 bc dd 89 9d bd da 4a 43 bc a3 cb e0 3c
       -0.023683578 -0.07692311 -0.0119197015 0.027440852
000090 93 da 25 bc df b9 67 bd 6b f0 8a bd 4b 97 ea 3c
       -0.010122913 -0.056573745 -0.06784137 0.028636595
0000a0 51 fd aa 3c 75 7a 2f bd 49 d5 37 bd e1 cd e1 3c
       0.020872744 -0.042841394 -0.04488114 0.027563991
0000b0 db b9 5b bc b3 92 38 3d 3e 7f d0 bc 3a 72 1a 3d
       -0.013411011 0.04506178 -0.025451299 0.03770659
0000c0 64 49 09 3d 28 bd 3d bd 67 8e 10 bc 0b 28 21 bc
       0.033517256 -0.04632297 -0.008823014 -0.009836207
0000d0 89 0f de bb 7d 35 8c 3c 61 e7 7c bd 89 4a 82 bc
       -0.0067767543 0.017115349 -0.061744098 -0.015904682
0000e0 e8 e3 5c bd 2a 8a 4c 3a dc 8c 03 bd a3 a6 96 3c
       -0.053928286 0.00078025705 -0.032116756 0.018390005
0000f0 02 da 53 bd 0f 40 73 3c 29 04 d3 3c 87 ff 97 bc
       -0.05172158 0.014846816 0.02575882 -0.018554462
000100 d6 b9 8d 3d d3 be 9e 3b b1 bc 54 3d 64 6c d3 bb
       0.06920211 0.0048445254 0.051937763 -0.00645213
000110 55 e2 ef bc 67 92 05 bd 2c e0 27 3c 2d 2b 2e 3d
       -0.029282728 -0.032610323 0.010246318 0.042521644
000120 9a 7c a7 bc 25 03 1f 3d c2 3d 09 3c 67 32 f6 3c
       -0.020445157 0.03882136 0.008376541 0.03005333
000130 ed 36 54 3d 09 4d 3e 3d 94 1b c2 bc d9 e9 88 bd
       0.051810194 0.046460185 -0.02369479 -0.06685228
000140 ab 95 89 3d 14 55 e6 bc 2b b5 34 bb 5d ba c8 3c
       0.06718 -0.02811674 -0.0027573805 0.024502927
000150 8f 8a 94 3d 99 60 81 3d b4 e8 1b bc d0 3b d3 3d
       0.072529905 0.06317253 -0.00951593 0.10314143
000160 c6 e9 0e 3c 47 52 85 bc 12 b8 1b bd 83 09 6b bd
       0.008722728 -0.016274584 -0.03801734 -0.057382118
000170 48 6b 8f 3d 96 bc a1 bc 5c 68 0f 3c 3c f8 51 bd
       0.07002884 -0.019743245 0.008752909 -0.051262125
000180 c2 d3 3f bd 38 1e 43 3d d4 b6 60 bd 3e ac 94 3d
       -0.046832807 0.04763624 -0.05486186 0.07259415
000190 40 f8 92 3d 40 9f fb 3c 2b b8 97 bd 25 b6 2d 3d
       0.07176256 0.030715585 -0.07408174 0.042410035
0001a0 1f 6e 6c 3d 7c f3 76 3d f7 55 8c 3c 81 d3 57 3d
       0.057722207 0.0602908 0.017130835 0.05269194
0001b0 73 9c a4 3d e0 b7 00 bb 25 8c 03 bd f0 37 61 bd
       0.08037653 -0.0019640848 -0.032116074 -0.054984987
0001c0 88 b4 35 bc 92 52 3a bd 2c 42 c3 3c 1c 70 7a 3d
       -0.011090405 -0.0454889 0.023835264 0.061142072
0001d0 6a 55 78 bd 20 7a 38 3d 5e 3c dc ba 40 da 9c bd
       -0.060628332 0.045038342 -0.0016802659 -0.076588154
0001e0 58 94 2b bc 74 ca 5b 3d 39 c4 8f 3d f7 70 84 bc
       -0.01047238 0.05365987 0.070198484 -0.016167147
0001f0 94 91 1d bd 5b 55 f5 bc da c4 2b bc d6 2a b5 3c
       -0.038468912 -0.029947927 -0.010483945 0.022115152
000200 4a 7d b0 3c 64 2f 72 bc 3e 53 91 3d fc 66 55 bd
       0.021544117 -0.014781807 0.07095955 -0.052100167
000210 82 8f 56 bd b9 3f 1e bd 3d b9 3a 3d a0 eb 7a bd
       -0.052382953 -0.03863499 0.045586813 -0.061259866
000220 19 d0 8c 3c 8f 72 2f 3d e0 d8 d9 bc b3 f8 23 3d
       0.017189072 0.04283386 -0.026592672 0.0400321
000230 17 ca e9 bc 2f 35 fa bc 1b ae 49 3b d8 f9 44 3d
       -0.028538747 -0.030542938 0.003077394 0.048089832
000240 8f 24 af bd 6f 2a 59 3d 0c 4e cc 3c 62 1e 2b 3d
       -0.08551895 0.053018983 0.02493956 0.041777022
000250 75 c0 cf bc 70 02 15 3d 59 5f 5a 3d df 22 b5 3d
       -0.025360325 0.036379278 0.053313587 0.08844542
000260 5c 36 98 bd 36 eb 63 bd 84 c4 b3 3b 8f a9 9f bd
       -0.07432243 -0.055644237 0.005486073 -0.077960126
000270 dd d4 3d 3d 7d a1 ac bc 3a ad 06 bd ea 5d b8 bb
       0.04634558 -0.021073097 -0.032880045 -0.00562643
000280 79 ae 32 3d da c8 67 3d a7 38 32 3d 16 10 31 bd
       0.04362342 0.05658803 0.04351106 -0.04322823
000290 7f 17 19 3d 42 60 82 bd 29 a1 70 bd 3b 45 3b 3d
       0.037375923 -0.06366016 -0.058747444 0.04572032
0002a0 77 66 1f bc fc d6 a4 3a 07 62 1a 3c 53 04 18 bd
       -0.009729019 0.0012576277 0.009422786 -0.0371135
0002b0 15 55 62 3c 71 71 a0 3c 02 2f cb b9 67 18 97 bd
       0.01381423 0.019585343 -0.000387542 -0.07377701
0002c0 2c db be 3b 9c ab 4f bd 17 15 57 bd eb 75 82 3c
       0.005824467 -0.05070077 -0.052510347 0.015925368
0002d0 a3 61 ec bb ec 17 04 bd 47 94 06 3c 58 9b c2 3c
       -0.0072137876 -0.032249376 0.008214063 0.023755714
0002e0 21 f7 97 3b fc 7c 27 3c 52 a5 68 3d 27 c8 2f bc
       0.0046376144 0.01022267 0.056798287 -0.010728872
0002f0 92 5e 1f bc 5b 8a 8c 3c 1f c9 2a bd 6d 30 8a 3b
       -0.009727137 0.017155817 -0.04169571 0.0042171986
000300 d7 fc 50 bd e8 7d cf bc dc 1a 56 bc d9 3c 54 bc
       -0.051022377 -0.025328591 -0.013067927 -0.01295396
000310 52 53 30 3d 62 32 0c 3d 7a cc a0 3d 9f 49 01 bd
       0.04304821 0.034227736 0.07851501 -0.03156435
000320 40 ac 1c bd 13 cc 5f 3c d9 97 1a bd 26 c4 04 bc
       -0.038250208 0.013659495 -0.03774247 -0.008103406
000330 b7 56 83 3d 45 38 60 3d 0a 46 13 3d 2d 19 60 3d
       0.06413024 0.054741163 0.035955466 0.05471151
000340 2d 53 c1 bc 69 c1 15 3d e8 f5 ca bc 8d 27 78 bc
       -0.023599232 0.036561403 -0.02477546 -0.015146148
000350 d5 28 f6 bc dd cc 53 bd ae 63 f4 bc 16 cf 41 3d
       -0.030048767 -0.051709045 -0.029832687 0.047316633
000360 48 24 8d bb 40 95 74 3d ad 72 d3 bc 3c ac c5 bc
       -0.0043073036 0.05971265 -0.025811518 -0.02412998
000370 04 c6 de 3c 64 19 ff b9 76 c1 64 bd 17 af 6d 3b
       0.02719403 -0.00048656308 -0.05584856 0.0036267692
000380 55 fb 4b 3c 3c b5 57 bc de 40 8a bd 9c 1e 76 bd
       0.012450059 -0.013165768 -0.06750654 -0.060087785
000390 62 d5 e3 3c d2 65 15 3d 40 cf 7b bd 08 f4 46 3c
       0.02781171 0.036474057 -0.061476946 0.0121431425
0003a0 2d e7 e3 3d da b0 83 3d c4 f9 4b 3d 59 f6 0d bd
       0.11128078 0.06430216 0.049798742 -0.034658764
0003b0 29 b8 d6 3d 01 ec 4c 3d a4 24 02 3d 8f 90 f0 bc
       0.104843445 0.05002976 0.031773224 -0.029365806
0003c0 31 f5 8e bd 79 c9 2f 3d d0 e3 cd 3c 27 0e c0 bb
       -0.0698036 0.04291675 0.025133044 -0.005861062
0003d0 03 e3 ba 3c ee 8b f9 3c 3b 80 4b bd 96 aa b1 3b
       0.022813326 0.030462231 -0.049682837 0.0054219468
0003e0 3b ec c3 3b ec 69 43 3d 77 78 18 3b 48 d8 58 3d
       0.0059790886 0.047708437 0.0023265162 0.052940637
0003f0 18 46 8e 3d 5a 5e 28 bd 9a ec 0d bc 26 b1 4e bd
       0.06946963 -0.041105606 -0.008662367 -0.05046191

lastnet.bias f4 [100]
000000 90 1e ac bc 0b 98 02 bc 1d 75 85 3e 73 bf 29 3e
       -0.021010667 -0.00797082 0.26065913 0.16576938
000010 8e a4 84 3e 3a 81 91 be bb 7e 27 3a 91 dd 8b 3e
       0.25906795 -0.28418905 0.0006389429 0.2731748
000020 ce 77 0d 3e 2b 9e e1 3d 5f e0 ba be 83 64 66 3e
       0.13815233 0.11016496 -0.36499307 0.2249928
000030 c1 c8 28 be 5c 78 6c be 42 b7 db bd 02 23 70 be
       -0.16482832 -0.23092788 -0.10728313 -0.23450854
000040 a3 c0 cc 3e f0 08 a2 3e 03 cf a1 3e 54 93 e1 3e
       0.3999072 0.31647444 0.3160325 0.44057715
000050 0d 75 11 be 21 a0 29 be d4 42 39 be 2f 94 83 3e
       -0.14204808 -0.1656499 -0.18091899 0.25698993
000060 33 04 48 be ce fa 00 bd 19 3e 43 3c 6b 1d 2d 3d
       -0.19532852 -0.031489186 0.011916661 0.042264383
000070 e3 01 96 bd 32 d0 28 bf 14 59 0d 3e 75 88 ca 3e
       -0.073245786 -0.6594268 0.13803512 0.39557233
000080 c7 c8 a5 3d 30 19 24 3e 66 c3 3d be 0f cc c8 bd
       0.08094936 0.16025233 -0.1853157 -0.09804546
000090 bc dd 80 3e aa 1a e7 3d 6a 21 c6 bd b2 18 a3 3d
       0.2516917 0.11284383 -0.09674342 0.07963695
0000a0 c9 44 b1 3e a7 30 da bd 28 cd bd 3d d0 8d 82 be
       0.3462279 -0.10653811 0.09267646 -0.2549882
0000b0 1f 73 c6 bd 35 81 47 3d ce e1 63 3d 18 88 c7 be
       -0.09689926 0.048707206 0.055635266 -0.3897102
0000c0 4d 47 82 be ed f9 f6 be 0f f9 96 be 21 2d aa bd
       -0.25445023 -0.48237553 -0.29486892 -0.08309389
0000d0 e3 4b af 3d 19 61 cf bd e5 2f 04 3f a6 90 06 be
       0.08559396 -0.10125942 0.5163558 -0.13141116
0000e0 f7 53 57 be 64 f8 5a 3e 47 48 2e 3e d1 61 6e 3e
       -0.21028124 0.21383816 0.17019759 0.23279501
0000f0 ec af 61 bd f2 19 a7 bb 07 5e dc 3c 85 cd 5d bd
       -0.055099413 -0.0050995285 0.026900304 -0.054151077
000100 03 74 aa be ec 28 82 be a9 1e 00 3f a1 a4 46 bc
       -0.33291635 -0.25421846 0.50046784 -0.0121242115
000110 af 08 53 3d 06 5f 9c be 3e 0d 26 3d db 99 d5 bd
       0.051521953 -0.30541247 0.040539972 -0.10429736
000120 86 24 d7 3c ab e2 25 3e 28 84 23 3e 50 b4 80 bd
       0.026262533 0.16199748 0.15968382 -0.06284392
000130 72 38 32 be fd f4 cf 3d d3 09 cd 3d fc aa 3c be
       -0.17404345 0.1015415 0.100116394 -0.184246
000140 f6 76 51 be 3d c0 85 be 20 38 e4 be 93 54 4c be
       -0.20455536 -0.2612323 -0.4457407 -0.19954138
000150 09 14 13 3e 55 71 03 bc c7 1f 29 3e a9 6d b4 3d
       0.14363112 -0.008022626 0.16516028 0.088099785
000160 d7 2d 32 bd c5 30 4e be 1a ba 86 3c 08 5d 17 bd
       -0.043500748 -0.20135792 0.016446162 -0.036953956
000170 7f 8f 92 be 7e 62 a4 be 30 d7 43 bd f9 03 00 bd
       -0.28625104 -0.32106394 -0.04781264 -0.03125379
000180 01 b0 47 3e aa ca 3c 3e 2c ba 5a 3e b8 52 26 3d
       0.19500734 0.18436685 0.21360081 0.04060623
