parameter/chr_parameter/my_character_rnn_527.ckpt (torch_old, 486018 bytes, 8 tensors)

chr_rnn.weight_ih_l0 f4 [300, 100]
000000 08 7b a0 3c ce 6b 87 bc 92 52 b4 3d ee 6e 11 bd
       0.019589916 -0.016530897 0.088048115 -0.03550618
000010 85 9d 89 3d 34 48 5f bc 7e f4 65 3d 21 12 5c 3d
       0.067194976 -0.013628054 0.05614137 0.053728227
000020 c6 39 8d bd 2d d4 c7 bd 49 2a 27 bc 11 18 a7 3c
       -0.06895785 -0.09757266 -0.010202953 0.020397218
000030 75 0a 04 3d 80 d6 8b 3d 3f dd aa 3d 83 34 1f bd
       0.032236535 0.06828022 0.083429806 -0.03886844
000040 ef fb bd 3c 3e 66 ae bc 4e 7c 56 bd 83 89 79 bb
       0.02319142 -0.021288987 -0.05236464 -0.0038076348
000050 a0 e1 bd 3d aa 2a da bb dd aa 86 3d 50 80 bd bd
       0.0927155 -0.006657918 0.06575558 -0.09252989
000060 e5 4b 81 bd 0b 64 bc 3d 05 49 82 3d 08 7a b6 3c
       -0.06313304 0.09198769 0.063615836 0.022274986
000070 eb 61 c9 3d 0d 87 a3 3d b1 45 ac 3d bf 59 9c 3d
       0.098331295 0.07984743 0.0841173 0.07634305
000080 fa 79 28 3d b8 ed c6 3d 34 c2 9c 3c 2c 45 ab 3c
       0.04113195 0.0971331 0.019135572 0.020907007
000090 8c 05 04 bd 2a c4 85 bc 22 77 47 3d 0d 90 63 3d
       -0.032231852 -0.01632889 0.0486976 0.0555573
0000a0 05 76 8d 3d 36 96 68 bc 1a 97 48 3d 10 f2 ae 3d
       0.06907276 -0.014195969 0.048972227 0.085422635
0000b0 1d 5e 9c 3d 1f a6 5c 3d ea 0b 20 3c e2 65 90 bd
       0.07635138 0.053869363 0.0097684655 -0.070506826
0000c0 3e 4b 0f bd 4d 32 46 3c e5 d6 8f bd 27 05 8b bc
       -0.034983866 0.012096954 -0.0702341 -0.01697023
0000d0 64 0b 7e 3d de 6b 4d 3d 09 33 87 3d 08 30 99 bd
       0.06202258 0.0501517 0.06601531 -0.07479864
0000e0 73 ac 70 3d 85 6c 11 3d 03 36 62 3d 59 94 87 bd
       0.05875821 0.035503883 0.05522729 -0.06620092
0000f0 83 ea c9 bd fe da 7f 3d da 92 23 bd f5 cf a2 ba
       -0.09859183 0.062464707 -0.03993497 -0.0012421595
000100 4c 8d a1 3c 3c 54 cc bc a2 01 63 3c 25 3d be 3d
       0.019720696 -0.02494251 0.01385537 0.09289006
000110 a3 82 40 bd 29 37 b8 3c fb 95 97 3d 38 f1 81 bd
       -0.046999585 0.02248724 0.074016534 -0.06344837
000120 10 69 8c bd 9e e0 02 3d fb 31 71 3d b2 fe 9f bc
       -0.068559766 0.031952493 0.058885556 -0.019530628
000130 d8 24 95 3c 1a 1a 25 3d 15 46 d4 bb 3f ed 85 3d
       0.018206045 0.040308096 -0.006478081 0.06539392
000140 4a a7 6d 3c 3e 76 b4 bd 4d 34 bd bd fd f9 a9 3c
       0.014505217 -0.088116154 -0.09238491 0.020749087
000150 8d ba 2c bd b6 e7 7a bd ce 90 b3 3d 43 cb bf 3c
       -0.042170096 -0.061256133 0.08767854 0.023412352
000160 d8 db cb 3d 06 38 92 3d be 2d a0 bc cf ce 87 3d
       0.09954041 0.07139592 -0.019553062 0.066312425
000170 69 db a5 3a 00 3b a3 3b 80 bb 5e bd 9e 61 a0 bd
       0.001265389 0.0049813986 -0.054378033 -0.07831119
000180 50 cd 80 bd 00 86 a5 bd 32 d4 38 bd 94 0c 20 3d
       -0.0628916 -0.08082199 -0.04512424 0.039074495
000190 1b df bc 3d d2 6a 0a 3d 45 2f 8a bc 78 72 25 bd
       0.092222415 0.033793278 -0.016868243 -0.04039237
0001a0 e3 ff c4 bc 15 34 b9 bd 2c 62 b0 3c e8 6f b3 bd
       -0.024047798 -0.09043137 0.021531187 -0.08761579
0001b0 e8 92 c6 bd 90 1e 30 bd 69 fa c4 bd 96 d8 8b bc
       -0.09695989 -0.042997897 -0.096180744 -0.01707105
0001c0 b1 a2 b9 3b 91 56 c6 3c f4 4a 3d 3d b9 21 c8 bd
       0.0056651463 0.0242112 0.04621406 -0.09772057
0001d0 e5 90 40 3b 36 ea 31 bc 6d eb eb 3a b4 82 df bc
       0.002938324 -0.010859063 0.001799924 -0.027284004
0001e0 1b ad 51 3c ca 16 f0 3c ef 54 93 bb 8a cc 7f 3d
       0.012797619 0.029307742 -0.004496209 0.062450923
0001f0 59 bf ba 3d 10 ae 76 3c d0 05 ca 3d e2 3b 54 3d
       0.09118528 0.015056148 0.0986439 0.05181492
000200 a7 84 46 bd 35 e6 c3 3d 68 37 27 bc 26 5c 8e bd
       -0.04846635 0.09565393 -0.010206081 -0.0695117
000210 d0 fa aa bd 0a 2a 90 bc 6a 21 61 3d a2 58 35 3d
       -0.0834862 -0.01759817 0.054963507 0.04427398
000220 15 8e 14 3d 11 04 91 bd 90 5f b2 3c 3c 7c 50 3c
       0.036268312 -0.07080854 0.021774083 0.012724932
000230 a5 61 87 bd ef d9 e3 3c 30 b4 03 3c 0b d6 f1 3c
       -0.06610421 0.02781388 0.0080385655 0.029521009
000240 9c 0e cc 3d c2 19 e2 bc 07 20 2a 3d c3 fe a4 bd
       0.09963724 -0.027600173 0.04153445 -0.080564044
000250 c2 87 ee b9 5c b4 b8 3c bf 0a 3a bd c8 b8 39 bd
       -0.00045496045 0.02254694 -0.045420405 -0.045342237
000260 fe 04 44 bd bd 28 c9 bd 7d 61 59 3d 5f 0d 34 bd
       -0.047856323 -0.09822223 0.053071488 -0.043958064
000270 5c 79 d6 bb f9 95 b9 3d 9e 18 7e bc 31 5f da 3a
       -0.006545229 0.09061808 -0.015508799 0.0016660449
000280 13 85 be 3d 03 ee 9c 3d 94 91 cb bc 79 a8 28 3c
       0.09302726 0.07662585 -0.02484969 0.010294073
000290 2e e5 19 3d 27 fc d5 3b 0a 57 8e 3d e6 8e 99 bd
       0.03757208 0.006530303 0.06950195 -0.07497959
0002a0 38 4e 32 3d f1 3e f9 bc 50 78 5a 3d a9 fd c1 3d
       0.043531626 -0.03042552 0.053337395 0.0947221
0002b0 c6 6d 97 bd f6 55 7e 3d d3 01 9c 3d f5 3c 87 3d
       -0.073939845 0.062093697 0.076175354 0.066034235
0002c0 21 9f 9b 3d 1b 36 d5 bc 32 a0 4d 3d ec 17 54 bc
       0.07598711 -0.026026776 0.050201602 -0.012945157
0002d0 31 67 53 bb e3 dc ab 3d 93 62 ee bc a9 24 a9 3d
       -0.0032257552 0.0839174 -0.029099738 0.082589455
0002e0 2c 88 65 3d f7 30 c5 bc 37 36 05 bd ad b5 6a bc
       0.056038067 -0.0240712 -0.032522406 -0.014325541
0002f0 a5 af c7 3d 31 35 83 ba 1e a7 85 3d 4c 12 e8 bc
       0.097502984 -0.0010010359 0.06526016 -0.028329037
000300 ea dd 9d bd b9 02 b4 3d 40 f5 03 bd fc ee 0c bd
       -0.077083424 0.08789582 -0.03221631 -0.0344076
000310 38 26 8d bc a9 eb 1f bd 74 d3 d2 3c d5 4f bc 3d
       -0.017230138 -0.039043102 0.025735594 0.09194914
000320 75 8e 04 bc c3 de be bd c9 67 ec 3b c7 1c f3 bc
       -0.008090605 -0.09319832 0.0072145206 -0.029676808
000330 53 03 ad 3d bc 70 87 3d 6f b4 87 3d f6 85 c4 bc
       0.084479 0.06613299 0.06626212 -0.023989659
000340 9f 3d 5f 3d 21 8e 09 bd ec 31 6c bc 43 ea d2 3c
       0.054502126 -0.03358281 -0.014416199 0.02574647
000350 63 79 0d bd c3 70 45 bd 60 ec c2 3b c4 ee a0 3d
       -0.03453959 -0.04820324 0.0059485883 0.07858041
000360 5e 05 aa bd d0 d1 46 bd 18 85 29 3c 30 39 b7 3d
       -0.08301805 -0.048539937 0.010346673 0.089464545
000370 a2 b0 62 bd 3f 9e bf bd 78 41 86 3b 14 fe ae 3c
       -0.05534423 -0.09356355 0.00409716 0.021361388
000380 f2 ed 3a 3d 33 e7 7f bd 92 1c f2 bc a0 79 c3 bc
       0.04563708 -0.062476348 -0.029554639 -0.023861706
000390 92 a0 48 3d 30 b3 85 3b b7 4d 32 bd fa 40 2c 3d
       0.048981257 0.0040801987 -0.043531146 0.042054154
0003a0 40 12 39 3b a9 87 ad 3d e2 c8 22 3c 22 de 4e 3d
       0.0028239638 0.08473141 0.0099355895 0.05050481
0003b0 ba 8b 1b bd 07 2e 39 3c d0 f4 cf 3b 40 cc b9 bd
       -0.03797505 0.011302478 0.0063463226 -0.09072161
0003c0 fb bb bb 3d cd 19 a3 3d 64 76 7a bd 34 8c 79 3d
       0.09166714 0.079639055 -0.061148062 0.060924724
0003d0 92 f8 be bd 51 82 bd 3d 57 32 5b 3d e6 61 49 bd
       -0.09324755 0.092533715 0.053514805 -0.04916563
0003e0 14 8c 8e 3d 37 af b5 bd ac be 48 3d 5b ec 70 bd
       0.069603115 -0.0887131 0.049009964 -0.058819156
0003f0 b6 bf b4 bc 89 fa a2 bd c6 e5 30 3d d0 e9 2d bd
       -0.022064071 -0.07957942 0.04318788 -0.04245931

chr_rnn.weight_hh_l0 f4 [300, 100]
000000 37 53 b4 3d cb 39 f9 ba c0 9e 5d 3c e1 dd 84 3d
       0.088049345 -0.0019014416 0.0135266185 0.064876325
000010 28 5d af 3d 3f 75 8a 3d 4d 49 0c bd c5 ca 1f 3d
       0.0856269 0.06760644 -0.034249593 0.039011735
000020 9d 49 31 bc 51 05 10 3d 8b 23 04 3d c2 d5 35 3d
       -0.010820773 0.03516132 0.03226046 0.04439331
000030 fb 65 9f bd 26 34 93 bd c9 1c 51 bd 0b df 35 bd
       -0.07783123 -0.07187681 -0.051052842 -0.044402163
000040 c6 b1 58 3d a7 22 bc bd fc 83 b3 bd 2c ff be bd
       0.052903913 -0.09186297 -0.087654084 -0.09326014
000050 56 7e da bc af 6b cf 3b d0 84 bc bb 28 f6 7c bc
       -0.02667157 0.0063299756 -0.005753137 -0.015439548
000060 a3 27 5e 3c a4 cd f4 3c 27 8b 8a 3d 13 74 8d bd
       0.013559255 0.029883213 0.067648225 -0.06906905
000070 fb 36 25 3d 0f 65 a9 3d 52 8c 43 bd 0e 57 52 bc
       0.040335637 0.082712285 -0.04774124 -0.012838138
000080 43 d7 5e bd bc d0 ed 3c f8 66 91 3d 0c 86 3d bd
       -0.05440451 0.029030196 0.07099718 -0.046270415
000090 9b 29 af 3c 8d 8f d2 3c e5 77 b2 3d d8 07 59 bd
       0.021382144 0.025703216 0.08714274 -0.052985996
0000a0 18 70 bd bd d1 2c a1 3d 1b 56 76 bd f6 93 7b bc
       -0.09249896 0.07869876 -0.06014071 -0.015355101
0000b0 35 ec b2 bc 15 5f a0 3d fa ae c4 bd a3 e3 60 bd
       -0.021841148 0.078306355 -0.09603687 -0.05490459
0000c0 92 20 a9 bd e8 a5 82 3d 97 81 6d bb 85 21 06 bd
       -0.082581654 0.063793 -0.0036240572 -0.03274681
0000d0 27 83 98 3c 43 6e b4 3d a0 6e bc bd 92 a9 91 3d
       0.018617226 0.08810093 -0.092007875 0.07112421
0000e0 39 23 9c 3d 2b 1b 9a 3c fd 0a 93 3c 15 56 f6 bc
       0.07623906 0.018811783 0.017949576 -0.030070344
0000f0 c8 12 6d 3d e2 19 ee 3b 28 4f 95 3d f6 40 08 3d
       0.05787924 0.007266269 0.072904885 0.033265077
000100 53 3a 54 3c ca 18 9b 3d 14 37 70 bb 9d f7 9d bc
       0.012953359 0.075730875 -0.0036653923 -0.01928311
000110 e7 77 a5 bd 92 02 dd 3c dc 76 71 3d 33 0d a9 bd
       -0.0807951 0.026978765 0.058951244 -0.08254471
000120 fa 99 1d 3d 95 1d 16 3d 35 49 4c bd aa 8a e3 bc
       0.03847692 0.036649305 -0.049874503 -0.027776081
000130 12 2b c4 bd 61 1b 0f 3d f4 0a 81 bd 16 d2 bd bd
       -0.095785275 0.03493822 -0.06300917 -0.09268586
000140 a8 ff e1 bb 30 fe bd bd f4 8d bc 3d cc bf a0 3c
       -0.0068969317 -0.09276998 0.09206763 0.019622706
000150 ce 52 80 3c bb 5c aa 3c 5e 2d c2 bc 39 b3 80 bd
       0.015664484 0.02079617 -0.023703273 -0.06284184
000160 5a 1b 4d 3d be 43 90 bd 47 49 9f 3d be 54 93 3d
       0.050074913 -0.07044171 0.077776484 0.07193898
000170 92 ce b0 bd 81 ba c2 bc cb b7 06 bd 24 af 93 3c
       -0.0863315 -0.023770573 -0.032890122 0.01802785
000180 e0 f1 fe 3c 0b cf 5f 3d 96 05 9e 3d a0 ea c8 bd
       0.031121194 0.05464081 0.07715909 -0.09810376
000190 4c 26 83 bb 3b 18 97 bc f4 7b c2 3c 22 f6 eb 3c
       -0.004002368 -0.018444171 0.023740746 0.028803889
0001a0 69 6d b5 bd 77 eb 99 3d 8a c8 3e 3d db 74 82 3d
       -0.08858759 0.075156145 0.046577968 0.06369945
0001b0 43 7b 29 bc af 40 5c bd fb 85 35 3c 77 4c c1 bd
       -0.010344329 -0.053772625 0.011079307 -0.09438413
0001c0 22 03 92 3b 9f fe a4 bc 97 df 26 3d 59 64 44 bd
       0.00445594 -0.020140944 0.040740576 -0.04794726
0001d0 05 86 cc 3d 61 93 76 bd b0 a6 19 3d 87 75 66 3d
       0.099865 -0.060199145 0.03751248 0.056264427
0001e0 6a f0 b1 bd 45 9e 44 bc 56 85 5c 3d 90 a2 75 bd
       -0.086884335 -0.012000625 0.053838097 -0.059969485
0001f0 e3 6e 49 bd 43 70 87 bd 0e c7 5e 3b ff f9 d6 3c
       -0.049178015 -0.06613209 0.0033993158 0.026242254
000200 73 0f a6 bd d0 39 da 3c 36 48 31 3d f7 1c 63 3d
       -0.081084155 0.026638895 0.043281756 0.055447545
000210 e2 19 ba 3d 61 00 9d 3d b1 70 00 bd 8b 69 48 3d
       0.09086968 0.07666088 -0.03135747 0.04892878
000220 00 65 6c bc 35 da c4 3d b6 cd 38 bd 1a e9 6f 3d
       -0.014428377 0.09611932 -0.045118056 0.058571912
000230 ee dc 8a 3d eb 50 4b bb dc 3e 9c bd 0e 20 c0 3d
       0.0678042 -0.0031023573 -0.07629177 0.09381114
000240 d8 6b b4 3c ae e8 fb bc 7a b1 09 3d ea 3e 61 bc
       0.02202408 -0.030750599 0.03361652 -0.01374791
000250 bb ab 2c 3d 3d 0d 51 bd 6b 7f a5 3c 58 b3 8d 3d
       0.042155962 -0.051038016 0.02020236 0.06918973
000260 01 73 b4 bd 48 ad 87 bd bc c7 a4 3d 3e 85 6f bd
       -0.08810998 -0.06624848 0.08045909 -0.05847668
000270 69 4a bc 3d 4c 08 bd 3d 85 05 a8 bd 8d d3 e9 3c
       0.0919388 0.09230098 -0.08204178 0.028543258
000280 30 d1 bb 3d 40 e9 3a 3d 94 d9 7e 3d aa 0d 4f bd
       0.09170759 0.0456326 0.062219217 -0.05055014
000290 d1 9b a0 bd ff 92 53 bc 4f 90 41 bb 99 83 76 bc
       -0.078422196 -0.012913465 -0.0029535478 -0.015046024
0002a0 56 2a b9 bd ec 29 4b 3d 7d 3c bf 3c 57 ae 37 3d
       -0.09041278 0.049600527 0.023344273 0.044843998
0002b0 86 bc 3e 3d 9b b5 32 3d eb 41 8e 3d 85 25 0c 3c
       0.04656651 0.043630224 0.069461666 0.008553867
0002c0 8c d7 9b 3c 96 72 10 3d 7d 21 9a 3d cc a8 02 3c
       0.01902368 0.035265528 0.07525919 0.007974815
0002d0 4f 09 9e bd 73 30 4b 3d be b8 19 bd 83 52 c5 3b
       -0.07716619 0.04960675 -0.0375297 0.006021799
0002e0 ed fb 88 3d 85 a1 6e bd ec 98 8a bd bd 92 ac bd
       0.06688676 -0.058259506 -0.06767449 -0.084264256
0002f0 25 94 0b bd a0 15 b0 bd 88 d4 5e bd 2d 61 f9 bc
       -0.03407683 -0.08597875 -0.054401904 -0.030441845
000300 36 04 ae 3d 7e 62 f3 3b 32 3a 80 3d 4c aa ab 3d
       0.08496897 0.0074275127 0.062611 0.08382091
000310 7e b3 a2 bd 2e d0 34 bd a5 63 72 3d f3 31 b6 bd
       -0.07944392 -0.044143848 0.05917706 -0.08896246
000320 bf ba 2b bd e4 d8 42 bd bb 59 e5 39 d4 aa 74 3c
       -0.04192614 -0.047570124 0.00043745138 0.014933307
000330 f7 c8 a0 bb 1c fe b7 bd 5e 19 9f bd f8 5c ee 3c
       -0.0049067694 -0.089840144 -0.0776851 0.029097065
000340 9b 3e 53 bd 27 c8 a7 3d e1 f6 a7 bd 3a e0 02 3a
       -0.051573377 0.08192473 -0.08201385 0.0004992519
000350 39 30 bf bc 4d ef 11 3d a1 62 1f bc da 46 82 3d
       -0.023338424 0.035628606 -0.009728105 0.0636117
000360 11 30 08 bd f8 e1 5b bd b4 0b b0 bc c4 c2 2e 3d
       -0.033248965 -0.053682297 -0.021489955 0.04266621
000370 8d a5 08 bd db b7 63 3d 76 95 1c bc 83 05 c2 3b
       -0.033361007 0.05559526 -0.009557119 0.005921067
000380 4b 2d 32 bd 5e 70 4f 3d 24 f6 8b 3d 97 5d 0d 3d
       -0.043500226 0.05064427 0.06834057 0.034513082
000390 ab a3 32 bd 5e 22 e2 bc 1a c5 ef 3c 3e 6e 70 3d
       -0.043613117 -0.027604278 0.02926879 0.058698885
0003a0 b2 cf ea 3c c1 0f 08 bd 20 0b 60 bc fa c2 b4 bc
       0.02866349 -0.03321815 -0.013674527 -0.022065628
0003b0 65 f6 57 3d d9 2c a2 bd c9 1c af 3d 73 4d 5e bd
       0.052725215 -0.0791871 0.08550412 -0.05427308
0003c0 13 d0 a9 bd a8 7a 65 3d ea de 8b bd 06 8a 11 bd
       -0.0829164 0.056025177 -0.06829627 -0.03553202
0003d0 d1 a9 40 bd 88 8c ba 3d 88 2d d2 3c 75 1a 16 3b
       -0.04703695 0.091088355 0.025656477 0.0022903953
0003e0 34 71 b5 bd 12 84 a7 bd f8 54 b1 3d 4a 55 6c bd
       -0.088594824 -0.08179487 0.08658785 -0.057698525
0003f0 31 39 f8 3c 43 c2 af 3d bf a7 89 3d 07 dd 3f bd
       0.030300708 0.08581974 0.06721448 -0.046841647

chr_rnn.bias_ih_l0 f4 [300]
000000 a7 6a c5 bd 74 39 87 3d 6b ec 80 3d f5 4c c0 bd
       -0.09639483 0.06602755 0.06295093 -0.093896784
000010 1b 17 f0 bc 4e 1f d5 ba f2 1b 90 3d 23 54 75 bd
       -0.029307893 -0.001625994 0.0703658 -0.059894692
000020 bd 2a a4 bb be 60 b3 3d da f4 b6 3d dc 99 cd 3d
       -0.0050099776 0.087586865 0.089334205 0.10039112
000030 54 4e 50 3c 1a cc 21 3c d1 64 22 3d 87 ea 0e 3d
       0.012713987 0.009875322 0.039646927 0.03489163
000040 43 92 ab 3d 39 7a 87 bc 6b 76 17 3d 68 73 ab 3c
       0.083775066 -0.016537772 0.036978167 0.020929053
000050 b6 3b d7 bc d3 32 c3 3d c2 be a1 3d d3 58 4f 3c
       -0.02627359 0.09531178 0.07897712 0.012655455
000060 a9 76 66 3d f7 2f a8 3d 03 c9 0d 3d 1d f2 af 3d
       0.056265507 0.082122736 0.034615528 0.08591101
000070 4d 45 8e bd f9 0f 3e bd 35 43 71 3d ed 91 5c bd
       -0.06946812 -0.04640195 0.058901984 -0.053850103
000080 4b 99 36 bd 6a 06 97 3d 50 b8 d6 bc 69 c9 5a 3d
       -0.044579785 0.0737427 -0.026210934 0.053414736
000090 c5 41 b5 3d a3 7a 0c bd df cd 69 bc 6e af a6 bd
       0.08850435 -0.034296643 -0.014270275 -0.08138929
0000a0 57 d7 b3 bd 0c 8b 87 bc c4 8e 73 3d 77 68 46 bd
       -0.08781307 -0.016545795 0.059462324 -0.04843947
0000b0 1c 23 96 bd 94 25 9e 3d 04 92 0f 3d e9 ec 43 3c
       -0.07330915 0.07722011 0.03505136 0.011958339
0000c0 81 fc 37 3d d9 e7 83 bc e2 56 01 3d d0 12 8d bd
       0.04491854 -0.016101765 0.031577 -0.06888354
0000d0 fc 61 ab bc bc 30 bc bd 2d 29 ac 3d 0c 76 a6 3d
       -0.020920746 -0.09188983 0.08406291 0.081279844
0000e0 a9 b6 d7 bc 32 fe 2e bd c8 ee b7 bc a0 73 90 3d
       -0.026332216 -0.04272289 -0.022452727 0.07053304
0000f0 53 10 90 3d 49 2e 33 bc f0 5b 8d bd 67 42 ae bd
       0.070343636 -0.010936328 -0.06902301 -0.08508759
000100 5a ca a3 3d 07 2c 8d 3c 34 75 5e bd c4 4d 52 3d
       0.0799758 0.017232908 -0.054310992 0.051343694
000110 3f cb 52 bd ec 15 03 bd 67 4c 37 bd 4e 37 c8 3b
       -0.05146336 -0.03200333 -0.044750597 0.0061101085
000120 90 5b cc 3b 99 b3 99 3d 27 ba 60 3c e8 57 69 bd
       0.006236501 0.07504959 0.013716257 -0.0569686
000130 a8 d2 99 bb 91 69 52 3d 75 37 d5 3c 02 27 9c 3c
       -0.0046943016 0.051370207 0.02602742 0.01906157
000140 a2 70 23 bd 8c a3 bf 3d 36 2a 25 bd 4d f9 a3 bd
       -0.039902337 0.09357366 -0.04032346 -0.08006535
000150 60 3f a1 bd aa 9d 07 bd 07 f3 a5 3d 57 7c 01 bc
       -0.07873416 -0.033109345 0.081029944 -0.00790318
000160 42 8d b2 3d 3d bf eb bc 56 09 8a bc c0 2d f4 bc
       0.08718349 -0.028777713 -0.016850155 -0.029806972
000170 09 d5 be 3c 90 ae b8 bd 08 2b 12 bc 3d 72 04 3c
       0.023294942 -0.0901767 -0.008921392 0.008083877
000180 35 87 0e ba f1 05 eb bc 5d 10 8e bd 7a 7a 58 3d
       -0.00054370175 -0.028689357 -0.06936715 0.052851178
000190 17 1a 3c 3c 2b 49 b5 bd 40 34 02 bb 67 d2 15 bd
       0.01148083 -0.08851846 -0.001986757 -0.03657761
0001a0 b5 b6 91 3d 9e 28 59 3d 93 db 8e bd 3d 19 19 bd
       0.07114927 0.05301725 -0.06975474 -0.037377585
0001b0 6b ee 9d 3d 45 33 b4 bd c5 17 9c 3c fd d3 86 bd
       0.0771149 -0.087988414 0.019054303 -0.06583402
0001c0 aa a3 8e 3d a3 99 50 3c 69 ba cf bc 69 0c d1 3d
       0.0696481 0.012731942 -0.025357442 0.10207445
0001d0 4b ea 1c 3d 91 ac 52 3d 3a 70 c5 3c 75 b6 b2 3d
       0.038309377 0.051434103 0.024101365 0.08726207
0001e0 e2 ea 59 3d bb d3 17 bd cb 5b 56 3d c9 34 d7 bc
       0.053202517 -0.037067156 0.052333634 -0.026270287
0001f0 89 79 9a bc cf 00 a7 3d 1d 1a 7c 3d c6 f2 66 ba
       -0.01885678 0.08154451 0.06154834 -0.000880998
000200 b4 fa 7f bd d7 99 d1 3d 13 24 9e bd 74 2d a5 3d
       -0.06249495 0.10234421 -0.07721724 0.0806531
000210 03 c3 83 bd 2f 7b 98 bd e4 b9 1d bc 89 9e bc 3c
       -0.0643368 -0.074453704 -0.009626839 0.023024814
000220 3c ff 66 3c 68 9f 22 bd 68 d0 a1 3c ca fb ac 3d
       0.014098939 -0.039702803 0.019752696 0.084464625
000230 58 54 c8 3d a4 9c ba bd 49 88 b0 3c b8 9b ae 3c
       0.09781712 -0.09111908 0.02154936 0.021314487
000240 f5 c1 db bd 85 47 1a bc 55 5c 58 bb 2d 2d cc 3d
       -0.10730354 -0.009416466 -0.0033014019 0.09969554
000250 92 03 d8 bc cd c3 88 3d 86 ec 86 bd 22 56 96 bb
       -0.02636889 0.06677971 -0.06588082 -0.0045879046
000260 e9 d2 04 3d 05 14 2e 3d cc f0 a0 3d a2 9b 69 bd
       0.032427702 0.04249956 0.07858428 -0.05703319
000270 8e 09 52 3d 18 08 14 3d 46 68 38 bd 87 39 a2 3d
       0.051278643 0.03614053 -0.045021318 0.07921129
000280 dc 53 9b bd bb 55 3b bd 57 1b 6e bd c4 4c 8a 3c
       -0.07584354 -0.045736056 -0.058131542 0.016882308
000290 23 95 7a 3d fd c3 a8 bc 97 b5 8b bc 3d 52 9a 3d
       0.061177384 -0.020601267 -0.017054362 0.07535217
0002a0 85 a8 2d 3d 24 24 bf 3c 8d 4a 2e bd 2d b1 66 bc
       0.04239704 0.023332663 -0.042551566 -0.014080328
0002b0 e5 df 13 3d 51 4c 2c bd 50 6b 63 3d 3a 58 23 bd
       0.036102194 -0.04206497 0.055522263 -0.03987906
0002c0 7b 3b c1 3d af c0 39 3d 9b e9 c8 3c bb f0 c2 3c
       0.09435173 0.045349773 0.024525454 0.02379643
0002d0 9b 0c b8 bd 08 6e 97 bc 37 9c 88 3d a4 5c 8f bd
       -0.08986779 -0.018485084 0.066704206 -0.07000092
0002e0 95 36 00 bd 0f 3b 39 3d 2d 2f 10 bd 45 ff 6c 3d
       -0.031302053 0.04522234 -0.03520124 0.05786063
0002f0 24 5b 42 bd 1d 94 2b 3c bf 05 ed 3c b0 71 5e bc
       -0.0474502 0.010472325 0.028933404 -0.01357691
000300 0a 68 87 bc 66 35 cd 3b 44 44 9f bd bb 7e a1 39
       -0.016529102 0.006262469 -0.077766925 0.00030802735
000310 23 63 e0 3c f0 16 27 3d f4 6a a5 3d 6f 3c ca 3d
       0.027391022 0.04079336 0.0807704 0.09874808
000320 2d 5f 7b bc 92 1e a9 bc 04 c7 14 bd 1b d1 05 3e
       -0.015342516 -0.02064446 -0.03632261 0.13068049
000330 57 b0 95 bc e1 ad d8 bb 38 0f 84 bd db e0 ec 3b
       -0.018272562 -0.006612525 -0.06448215 0.0072289533
000340 da e0 ed 3b 9f a0 8f bd a8 14 19 bd 5f 48 83 bd
       0.0072594704 -0.07013058 -0.037373215 -0.06410288
000350 c7 a7 c6 3d f5 26 87 bd 2b 6f b6 3c c2 db 75 bb
       0.0969997 -0.06599227 0.022269806 -0.003751502
000360 da ac b4 bd 50 4f e9 bd ae 0e 73 3c 71 49 17 bd
       -0.08822031 -0.11392081 0.014835043 -0.036935274
000370 a4 51 3e bd 57 44 99 3d b5 de a0 bd 3e b3 18 3e
       -0.046464577 0.07483738 -0.07854978 0.14912125
000380 7b 74 28 bd 41 d1 bb bd 7d eb 9e bc db 3f bd 3d
       -0.04112671 -0.091707714 -0.019399399 0.09240695
000390 af 2a 17 3e 68 ed 01 3d 14 56 6c 3c 69 fb 2b 3e
       0.14762376 0.03172055 0.0144248195 0.16795124
0003a0 7d de ee 3d 83 ce 37 3e 74 1f d9 bd 04 73 23 be
       0.1166353 0.17949872 -0.10601702 -0.15961844
0003b0 31 55 57 3d b3 16 ce 3d e1 2b 49 bd c0 42 f3 3d
       0.05257148 0.10062923 -0.04911411 0.11877966
0003c0 ef ec 94 3d 50 78 1c be 6a 59 17 be 89 b5 dc 3d
       0.07271754 -0.1528027 -0.14780203 0.107768126
0003d0 06 43 60 bd 43 6a e1 3d 31 73 7e bd 40 4d 99 bc
       -0.05475142 0.11006596 -0.062121574 -0.018713593
0003e0 1f 74 34 bd ff b7 53 bd 16 6c b5 bd 59 95 0b be
       -0.044056054 -0.051689144 -0.088585064 -0.1363119
0003f0 07 40 ec 3d 64 d3 38 bc 40 d5 f1 3d 06 9a 2b 3d
       0.1153565 -0.011280868 0.11808252 0.041894935

chr_rnn.bias_hh_l0 f4 [300]
000000 05 be a9 3d 24 85 1b 3c 49 17 9d 3d 48 7f a3 3d
       0.082881965 0.009492192 0.07670457 0.07983261
000010 74 6b be 3d a3 2a 9d bd 18 b2 06 3d 61 12 a4 bd
       0.09297839 -0.07674148 0.032884687 -0.08011318
000020 f5 ac 01 bb 07 f5 8d bd dd 68 50 3c 0f ca 67 bc
       -0.0019786928 -0.06931501 0.012720314 -0.014147296
000030 56 1a 0a 3d 63 dc 60 bd 60 2e 61 bd 24 fc ba 3d
       0.033716522 -0.054897677 -0.054975867 0.09130123
000040 44 c4 f2 39 02 78 ab bd 6a 5a b5 bc 70 f3 8c bd
       0.00046304066 -0.08372499 -0.02213784 -0.068823695
000050 ba db 0d 3d 52 06 ba bd 7b 16 a0 bc d3 e0 94 3d
       0.034633376 -0.09083237 -0.01954197 0.07269444
000060 a6 04 c9 bc b0 63 48 3d 0f ca 9e bd ee 67 eb bb
       -0.02453835 0.048923194 -0.07753383 -0.0071840202
000070 20 95 35 3c c4 5a 2c 3d ca 41 a1 3d f2 b8 e2 bc
       0.011082917 0.04207875 0.078738764 -0.02767608
000080 a2 b7 cf ba a1 fa 82 3d cc 5b 49 3c 4b b8 40 bd
       -0.0015847574 0.0639546 0.0122899525 -0.047050755
000090 29 39 8f bd d2 2b 31 bc cb d2 fd 3c e2 5c 5d bc
       -0.06993324 -0.01081367 0.030984303 -0.0135109145
0000a0 04 10 27 bc f7 0f f6 bc 28 9f 0e bd 78 2f 7a 3d
       -0.0101966895 -0.03003691 -0.034819752 0.061080426
0000b0 17 25 cb 3d 1e 9d c8 bd d8 e7 dd bb fa af cd bc
       0.09919184 -0.09795593 -0.0067720227 -0.025108326
0000c0 b2 3e 8c bd f3 0e ce 3c af 49 cb 3d 54 0b 9c bd
       -0.06847896 0.025153613 0.099261634 -0.07619348
0000d0 84 0e a5 bc 7e d3 85 3d 50 5e 74 bd fc 6c 1e bd
       -0.020148523 0.065344796 -0.059660256 -0.038678154
0000e0 ba cb 28 3b 23 d6 61 3d 95 21 2c bc b8 d1 b0 bd
       0.0025756196 0.055135857 -0.010506053 -0.08633751
0000f0 d7 24 4a 3d 09 1f 44 3d 13 42 a1 bd f9 5e 76 3d
       0.04935154 0.04788116 -0.07873931 0.060149167
000100 9b 92 aa bd ce 53 ad bd 69 cc a9 3d f0 dd 91 3d
       -0.08328744 -0.0846325 0.08290941 0.07122409
000110 d5 37 10 bd af b7 c1 3c f1 5a b0 3d 0c e4 37 3d
       -0.035209496 0.023647157 0.08611096 0.044895217
000120 df 0b 5b 3d 49 c0 17 3d 3a c2 cb 3d 3b 6c b6 3d
       0.053478118 0.03704861 0.09949155 0.08907362
000130 5e 54 97 3d 4a cd 28 3b 6c 19 a3 bd 4a 69 a1 bd
       0.07389139 0.0025757127 -0.07963833 -0.078814104
000140 96 57 8c 3d 59 87 28 bd 0e 64 78 3d 55 68 a5 bd
       0.06852643 -0.041144703 0.060642295 -0.080765404
000150 4e 80 94 3d 58 0c 54 3d 9d d9 b5 3d 4c 8c 0f 3b
       0.07251035 0.051769584 0.08879397 0.0021903692
000160 8a 50 bd 3d de 4e 26 bd 89 59 ca bd 5c 63 c8 bd
       0.09243877 -0.040602557 -0.09880359 -0.09784576
000170 a9 ae d0 3c 87 d8 d3 3d 0c 99 a4 3d c7 ea 94 3d
       0.02547391 0.10344034 0.08037004 0.07271343
000180 45 fc 16 3d d2 a3 85 3d 2e 7f e7 3b 5a 98 89 bd
       0.036861677 0.06525387 0.0070647215 -0.06718512
000190 9b f6 2c 3d 55 2e 34 bd cb 3d ca bc 2e 7d 52 bd
       0.04222737 -0.0439895 -0.024687668 -0.051388912
0001a0 ba d4 2f bd db 96 8e bd d6 af 8f bb 80 5d ae 3d
       -0.04292748 -0.06962367 -0.004384975 0.085139275
0001b0 08 55 4d bd 60 91 16 3d b6 30 a3 bc e6 19 c7 3c
       -0.05012992 0.036759734 -0.019920688 0.024304342
0001c0 36 bd 91 bb f3 07 8b bd 2d 8f 97 bd 36 8b 76 bd
       -0.0044476045 -0.067886256 -0.074003555 -0.060191356
0001d0 cb d1 7f 3d 19 fb a7 bd 14 ff 32 3d 6d 56 75 3b
       0.062455934 -0.0820219 0.043700293 0.0037435547
0001e0 28 65 91 bd c1 8e 7f bd 1a 80 1c bd e5 63 49 bc
       -0.07099372 -0.062392 -0.038208105 -0.012291883
0001f0 a4 4b 1e 3c 2d 16 b4 bd fa af 2b bc 1c 09 01 bd
       0.009661589 -0.08793292 -0.010478968 -0.031502828
000200 4f db a2 3d e1 5c 55 bb ad 1b 89 bc 33 44 af bc
       0.07951986 -0.003255658 -0.01673683 -0.021394825
000210 02 2f 87 3d e5 90 8a 3d a4 1f 24 bc 4f 7f 9d 3d
       0.06600763 0.06765918 -0.010017309 0.07690298
000220 1e 4c 10 3d c7 e9 97 3d 34 fa 93 3c f0 71 9a bd
       0.03522884 0.07417636 0.018063642 -0.07541263
000230 e6 50 6c bd c5 62 b4 3d d6 f5 ab bd 31 36 b0 bd
       -0.05769434 0.08807901 -0.08396499 -0.08604086
000240 af 69 f3 bb c1 c0 df bc 8c 78 b0 3d 5a 2e a0 3b
       -0.00742837 -0.027313592 0.086167425 0.004888338
000250 b2 55 02 3c 7c 7c 4a bc eb 35 5a 3d 6f a7 ce bd
       0.007955002 -0.012358781 0.053274076 -0.10090529
000260 b5 31 3f 3d 6b a0 94 3d 4c 1b a3 3d 7f ff c2 3d
       0.046678264 0.0725716 0.07964191 0.09521388
000270 30 98 ed bc de ec c7 bd 5f 5e 42 bd 10 d7 f8 b8
       -0.029003233 -0.09761976 -0.04745328 -0.0001186562
000280 fa 5f 7c 3d 50 74 be 3d 32 1b 8f 3d 08 db d3 bc
       0.061614968 0.092995286 0.06987609 -0.025861278
000290 07 34 6f 3d 38 d1 52 3d 6a d4 8f 3a 97 89 93 bd
       0.058399227 0.051469058 0.0010973339 -0.072039776
0002a0 be 92 45 bd a5 38 f3 bc ee d6 96 3b 0e ae 33 bd
       -0.048235647 -0.029690096 0.0046032583 -0.043867163
0002b0 b9 82 56 bd 98 05 d2 bd 12 db 69 bd 46 2a f3 bc
       -0.05237076 -0.10254973 -0.057093687 -0.029683243
0002c0 b4 6a e6 3c d6 2c 23 bd 01 73 a7 3d f1 eb 58 3d
       0.028127052 -0.03983768 0.08176232 0.052959386
0002d0 18 cb 46 3d 6e 7a ae bc 6b 25 b2 bd d0 c7 be 3c
       0.04853353 -0.021298613 -0.08698543 0.023288637
0002e0 81 41 67 3b 81 3d 9f bd fc 8d 1c 3d 1d b5 d1 bc
       0.0035286846 -0.07775403 0.038221344 -0.025599057
0002f0 9c c3 99 3b e0 73 cf bd 37 43 a4 bd a6 07 7d 3d
       0.004692508 -0.10129523 -0.08020633 0.061774872
000300 61 df 09 bd cc fe 62 3d bd 3f 4a 3d 84 a6 0b bd
       -0.033660296 0.055418774 0.04937719 -0.03409435
000310 af dc fc 3c 22 10 f8 bc 6a 6f 03 bd f3 f6 ac 3d
       0.030866949 -0.03028113 -0.032088675 0.08445539
000320 30 7f 18 bd 45 5d 55 3d 12 de fd bc c9 76 ea 3d
       -0.03723067 0.052090902 -0.03098968 0.11448438
000330 dc b6 86 bc 89 ff 24 3d 08 32 35 3d c6 25 87 bd
       -0.016444616 0.04028276 0.044237167 -0.065990016
000340 6b 3b 81 3d 4d cc c3 3c 25 54 24 bd d6 fb 7c 3d
       0.06310161 0.02390113 -0.04011931 0.061763607
000350 05 db 00 3e 7b 20 a1 3b aa 44 c1 bd 33 b0 dd bc
       0.1258355 0.004917202 -0.09436925 -0.027061557
000360 b7 c1 58 bd c6 df cf bd 53 81 a2 3d 82 ee d9 bc
       -0.052919116 -0.10150103 0.07934823 -0.026602987
000370 b6 92 69 bd b6 47 93 bc 07 86 2c bd 83 a3 2d bc
       -0.05702468 -0.01797853 -0.042120006 -0.010598066
000380 b5 fb e7 bc 8c c3 4f 3d 3a 30 f9 bb ef 05 23 3c
       -0.028318265 0.050723597 -0.007604626 0.009950145
000390 53 d1 d4 3d 0e 0c 27 3c d9 89 ee 3d 1c 09 fe 3d
       0.10391488 0.010195745 0.11647386 0.12404081
0003a0 1d da 65 bd ec b5 e8 3d fa 22 85 3d 7f 38 9d bd
       -0.056116212 0.11362824 0.06500812 -0.076767914
0003b0 47 b6 83 bd 44 91 04 3c 84 13 be bc 6f 09 f2 3d
       -0.06431251 0.008091275 -0.023202665 0.118182056
0003c0 21 1c 4f 3d 18 cf a5 bd 9d ca e6 bd 6b 48 6c 3d
       0.050563935 -0.080961406 -0.11269114 0.05768625
0003d0 42 ff 2b bd b4 ae 2b bc d2 8c bb bd 74 3f 5c 3d
       -0.04199148 -0.010478664 -0.09157719 0.05377145
0003e0 f4 eb b6 3c bf 71 ee bc 53 bf 83 3d a7 2e ed bc
       0.022329308 -0.029106973 0.064329766 -0.02895291
0003f0 dc 1a 0c bd 39 d0 01 3e dd 1d 8e bb 9d 30 b7 3d
       -0.034205303 0.12677087 -0.004337056 0.08944819

chr_rnn.weight_ih_l0_reverse f4 [300, 100]
000000 3b 83 c8 3d 7e bb 66 bd bd 49 c2 bd 19 1b 8a 3d
       0.09790655 -0.05633115 -0.09486721 0.0674345
000010 dc 6b ec 3c 79 48 79 bd 55 e9 13 bd de 09 c6 bd
       0.028860025 -0.06086013 -0.036111195 -0.09669851
000020 3a 1f af bd f2 d5 77 bc fe 38 c0 bd 16 af 88 3d
       -0.08550878 -0.015126692 -0.093858704 0.0667402
000030 c9 70 8f 3d 1f 72 9f 3d d6 f3 c1 3b e8 38 21 3c
       0.07003934 0.07785439 0.00591896 0.009840228
000040 4c 26 02 b9 e5 ba bc 3d 15 12 c5 bc 73 a7 c6 bd
       -0.00012412033 0.09215335 -0.024056474 -0.09699907
000050 73 cd 25 3d bf 00 b0 bd dc 89 85 3d 38 51 b2 3c
       0.040479135 -0.08593892 0.06520435 0.021767244
000060 6e a1 5c 3d 98 35 fc bc 0a f7 9f bd 62 76 0b 3d
       0.05386489 -0.030787274 -0.07810791 0.034048446
000070 0c 01 ac 3c ab 1a ac bd 91 45 bd 3d e5 ba 99 bd
       0.020996593 -0.08403524 0.09241784 -0.075063504
000080 c0 61 4d bd c8 20 bb bd d1 c6 3f bd 03 5e 2c bd
       -0.05014205 -0.09137112 -0.046820465 -0.042081844
000090 a7 a0 33 bd 77 38 a1 3d e8 84 71 3d 11 07 a7 3d
       -0.043854382 0.07872098 0.05896464 0.08155645
0000a0 40 c7 fb 3b 05 9d 89 bd 67 17 fb 3c 35 3f c3 bd
       0.0076836646 -0.06719402 0.030650808 -0.0953354
0000b0 50 30 29 bd b5 e1 4c 3d f3 c7 97 bd 52 43 ac 3d
       -0.04130584 0.05001994 -0.07411184 0.08411278
0000c0 e9 4d 99 3d 13 c4 2e bd 42 6c bb bd d6 8a ac bc
       0.07485563 -0.04266746 -0.09151508 -0.021062296
0000d0 99 a5 b0 bd 21 c4 ab bd 35 25 21 3d 79 f1 b2 bd
       -0.08625335 -0.08387018 0.039342124 -0.087374635
0000e0 d7 0c 56 3b ea 0d 20 3d b9 2b 35 39 6d 11 24 bb
       0.0032661462 0.03907577 0.00017277793 -0.00250348
0000f0 00 c4 a5 3c 08 ab c3 bc a7 99 59 bd 22 e5 6a bd
       0.020235062 -0.023885265 -0.05312505 -0.057347424
000100 c2 8c bc bd b4 0e a4 bb 64 34 33 bd e3 33 98 3c
       -0.09206535 -0.0050066356 -0.043751135 0.018579429
000110 a5 67 15 3d f4 02 d3 bc 50 a4 13 3d d2 f0 2a 3c
       0.036475796 -0.025758244 0.036045372 0.010433393
000120 12 86 90 3d 5f a8 e6 bc 8c 45 0e 3c 3d 4d 84 3d
       0.07056822 -0.028156457 0.008683573 0.064600445
000130 25 2b 9b 3d 7a 9a 56 3d b2 f9 9d bd c8 32 88 3d
       0.075765885 0.052393414 -0.07713641 0.06650311
000140 e4 be 47 3c 87 c4 bd bd 9e 19 ba bd 43 d5 9b bd
       0.012191508 -0.09266 -0.09086917 -0.07609036
000150 8f d8 b8 3b d7 65 c2 bd 82 79 b4 bd b4 85 1c bd
       0.00564105 -0.09492081 -0.08812238 -0.038213447
000160 65 99 71 bd 16 b8 a4 3c da 1a 6a 3c 0b a0 96 3d
       -0.05898418 0.02010731 0.0142886285 0.073547445
000170 fb 01 b1 3c 8c 9c c0 3c f4 f1 c9 3c a4 e0 0a bd
       0.02160739 0.023512147 0.024651505 -0.03390564
000180 08 cf 96 bd 55 07 f8 3c ef e0 f2 3c ad da ad 3b
       -0.07363707 0.030276934 0.029648272 0.005305609
000190 2d 35 85 bd 3e 47 68 bd 54 f0 35 bd 6a 54 53 bd
       -0.06504283 -0.056708567 -0.044418648 -0.051594175
0001a0 e6 1a 9d bc e1 bf 21 bc c6 01 c7 3c 3f 01 96 3d
       -0.019177865 -0.009872408 0.024292838 0.073244564
0001b0 8d 23 88 3c 7b 77 c3 bd b0 3d 07 bd 8c f9 df bb
       0.016618514 -0.095442735 -0.033017814 -0.006835168
0001c0 57 4b 0a bb 95 e5 9a bc 23 9f c5 bd da fb 93 bd
       -0.0021102035 -0.018908301 -0.096494935 -0.07225771
0001d0 8e 15 1b bd fc 5a c6 3d 2a ff 42 bd e4 ad f2 bb
       -0.037862353 0.09685323 -0.047606625 -0.0074059833
0001e0 a8 cf 8d 3d 35 8d a5 3d 50 35 94 3b 69 e9 bd 3d
       0.06924373 0.08083574 0.004522957 0.09273035
0001f0 a2 49 09 3d 53 25 5f bd ea 67 c1 3c e0 84 e5 3b
       0.033517487 -0.054478955 0.02360912 0.0070043653
000200 12 4d 19 3d 7a 08 35 3d 24 d4 12 bd 00 3d 26 3a
       0.037427016 0.044197537 -0.035846844 0.0006341487
000210 8a c7 bf bd 21 f5 12 3d ca c3 b3 bd 53 d1 35 bd
       -0.09364231 0.035878304 -0.08777578 -0.04438908
000220 3f 49 91 3d 63 d9 bc bc 74 39 b4 3d e2 57 0a 3c
       0.07094049 -0.023052877 0.08800021 0.008443804
000230 ad cc 11 bd bc 66 b4 bc c8 40 3a 3d 75 de b6 bd
       -0.035595585 -0.022021644 0.045471936 -0.08929149
000240 d9 53 ca bd 2f 6e 72 bd 3a 79 72 3d 95 fb c4 3d
       -0.09879274 -0.05918711 0.059197642 0.09618298
000250 db 17 c4 bd f0 7d aa bc 20 95 70 3d be 3a 3e bd
       -0.095748626 -0.020812005 0.058735967 -0.04644274
000260 95 c0 d5 3c ee b5 8f bd 3c c3 f2 3c 32 65 82 3d
       0.026092807 -0.07017122 0.02963411 0.06366958
000270 48 62 c6 bc d9 95 8e bd 4d 90 7c 3c 2d b1 b6 bd
       -0.024216786 -0.06962175 0.015415263 -0.08920512
000280 d2 fa 62 3d 4b b5 cb 3d f0 b4 36 3c 87 cd 9c bb
       0.055414982 0.09946688 0.011151537 -0.004785243
000290 00 69 3b bc 90 73 87 bd 70 2d 5b 3d 28 2d c5 bd
       -0.011438608 -0.06613839 0.05351013 -0.096277535
0002a0 ba 28 9c 3d 36 89 a0 3b 8e b2 61 3d 47 7d af 3c
       0.076249555 0.0048991693 0.055101924 0.021422042
0002b0 9b 44 27 3c b3 61 a8 bd 14 b7 54 bd a6 4d 09 bd
       0.010209228 -0.0822176 -0.05193241 -0.033521317
0002c0 55 3b 93 3d 21 a7 9b bd 5d d0 a8 bb e9 af 92 3c
       0.07189051 -0.07600237 -0.005151792 0.017906146
0002d0 90 2c b2 bd 8f 92 7c bd fc 1d 83 3c 03 ca 6f bc
       -0.08699906 -0.061663207 0.016005509 -0.014635566
0002e0 55 3d 05 3d 44 79 76 bd 39 5c c0 bd f1 13 9d 3d
       0.032529194 -0.06017424 -0.0939259 0.07669819
0002f0 6f 12 c7 bd 69 2f 61 bd 3d e8 a4 3d d0 d2 b3 3b
       -0.09720313 -0.054976854 0.080521084 0.0054877773
000300 23 32 bc 3d 50 0d 87 bb f3 58 b9 bd 12 19 2a 3d
       0.0918925 -0.00412146 -0.09050169 0.041527815
000310 f7 89 58 bd 11 e5 5f bd 07 65 fd 3a 8d d6 c5 bc
       -0.05286595 -0.054661814 0.0019332477 -0.024150157
000320 80 93 bd 3d 35 ab 94 3d 31 5c ea 3b 2a b5 23 bd
       0.09256649 0.07259218 0.0071521034 -0.039967693
000330 3d a6 a7 3d 5f 91 a1 3c 75 3f 41 3d 62 99 a1 3d
       0.08186004 0.019722639 0.047179658 0.078905836
000340 62 cb 11 bd b5 77 a9 bd 46 73 10 bc ab de 4a 3d
       -0.03559435 -0.082747854 -0.008816546 0.04952876
000350 f2 fe 43 bb 0c ac 2b bd 4a 59 27 bd 8b f1 8d 3d
       -0.0029906598 -0.041912124 -0.040856637 0.06930836
000360 cf e5 5b 3d a7 5e 40 bd 7b c6 25 3d a8 56 43 3d
       0.05368596 -0.046965268 0.04047249 0.047690064
000370 0d 49 42 bd 37 04 a9 3d 85 78 ca bd 2c 2b a3 bc
       -0.047432948 0.08252757 -0.098862685 -0.019918047
000380 30 cc 0d bc 0f ea c2 3d 85 47 f2 b9 40 2f 64 3b
       -0.008654639 0.095172994 -0.00046211123 0.0034818202
000390 f8 6a 89 3c 6b 61 bb bd e0 ff 8e bb d6 d8 43 3d
       0.01677464 -0.091494404 -0.004363999 0.047814213
0003a0 c0 82 e8 3a 1b d7 09 bd 98 b7 ba 3d 6a ad 50 bd
       0.0017739162 -0.033652406 0.09117049 -0.05094663
0003b0 fc e4 6c 3d a8 2a 8d 3d cc 2c b7 bc 3f 7f 1c 3d
       0.057835564 0.06892902 -0.022360228 0.03820729
0003c0 72 b9 57 3d 3b 20 b8 bd 64 6a 3a bd 32 65 a9 3d
       0.05266709 -0.089905225 -0.04551162 0.082712546
0003d0 11 1d be 3d 8e 6f 75 bc 63 26 38 bd 3c 40 b1 3d
       0.09282888 -0.01498021 -0.044958483 0.0865483
0003e0 7c 63 02 3d 90 44 b8 3c 78 e4 29 3d 8b 66 87 3d
       0.031833157 0.02249363 0.04147765 0.066113554
0003f0 62 49 93 bd 6d b5 48 3d 34 e2 54 bd 3f fb 7b ba
       -0.07191731 0.049001146 -0.051973537 -0.0009612329

chr_rnn.weight_hh_l0_reverse f4 [300, 100]
000000 1c f7 48 bc 94 d0 cd 3c f9 51 6e bd 13 5a 68 3b
       -0.012265947 0.025123872 -0.058183644 0.003545408
000010 56 e8 1b 3d 84 09 f2 bc af 05 ae bc 05 f0 c1 3b
       0.03806337 -0.029545553 -0.021242945 0.005918505
000020 5b d1 3a bc be 09 4f 3d 18 db 20 3c cf 00 c4 3d
       -0.011402453 0.0505464 0.009817861 0.09570467
000030 d7 6a 71 3d 32 82 ad 3c 6d 22 5e 3d 39 87 78 bd
       0.05893978 0.021180246 0.05423205 -0.060675833
000040 ff 08 ae 3d ff f1 ad 3c 12 04 b0 bc 90 7a 92 3d
       0.084978096 0.021233557 -0.021486316 0.07152283
000050 79 a0 c5 3d 15 1c c7 3d 9c ea b1 3d c8 5b 6c bc
       0.09649748 0.09722153 0.08687326 -0.014426179
000060 a1 0f b7 3c 95 7d 63 3c af d9 a8 bd 9d e8 5e 3d
       0.02234632 0.013884922 -0.08244645 0.054421056
000070 25 1e e6 bc f5 ad 80 bd 6a 14 cc bb 17 35 a1 3d
       -0.028090546 -0.0628318 -0.0062280195 0.07871454
000080 61 2d 20 bd 39 aa 6b 3d 67 61 a0 3d b7 54 a0 3b
       -0.039105777 0.057535384 0.07831078 0.0048929113
000090 57 19 3b 3b 5f 88 80 3c 5e 34 cd bc f8 82 85 3d
       0.002854904 0.015690027 -0.025049385 0.06519121
0000a0 34 0e ca bd 0c 4e 1a 3d 57 6c 8d 3c 3d df 36 bd
       -0.0986599 0.037672088 0.017263575 -0.04464649
0000b0 f9 a8 00 bd 24 e9 6f bd fc 45 a7 3d a4 03 31 bc
       -0.031411145 -0.05857195 0.08167645 -0.010804091
0000c0 a5 c3 89 bd 1e a8 8c bc 24 81 93 bd db cb 62 bd
       -0.06726769 -0.017170008 -0.07202366 -0.055370193
0000d0 47 d9 98 bd c4 e6 52 bd d9 ba 89 3d 87 23 96 bd
       -0.07463317 -0.051489606 0.067250915 -0.07330995
0000e0 ea 89 02 bd 92 9f b0 3d e2 26 68 3d c6 dc 5f 3d
       -0.031869806 0.086241856 0.056677707 0.054653905
0000f0 b4 93 bb 3d 28 29 7a 3c ed 3b 75 bd 15 8a c4 3d
       0.091590315 0.0152686015 -0.059871603 0.095966496
000100 7f 87 a4 3c a9 58 89 bd 63 ce aa 3d ef 38 bd 3d
       0.02008414 -0.06706364 0.083401464 0.09239375
000110 df 98 82 bc b4 06 bb bd ca e5 2e bd c2 d1 9a bb
       -0.015942035 -0.09132138 -0.042699613 -0.004724712
000120 f3 bb fb 3a 0e fc a2 bd 31 06 67 3d 7d d7 18 bd
       0.0019205794 -0.07958232 0.05640239 -0.03731488
000130 c2 01 81 bd 35 ab 85 bc 19 74 41 bd 53 d7 27 ba
       -0.062991634 -0.01631699 -0.04722986 -0.000640263
000140 ec 34 4b 3d 0b 70 ff bc b5 cb ca 3d 6e 17 27 bb
       0.049611017 -0.031181356 0.09902135 -0.0025496143
000150 c0 1e 03 3d 1e c8 c7 bd c6 ec 8d bd fa 3e 88 bd
       0.032011747 -0.09754966 -0.069299266 -0.06652637
000160 c5 71 45 3d 53 a6 c8 bd 95 30 64 bd 12 5f c3 3c
       0.048204202 -0.09797349 -0.055710394 0.023849044
000170 b9 a2 2d bd 52 4f 37 bd d0 db 87 bd 61 67 2b bc
       -0.042391513 -0.04475338 -0.06633723 -0.010461659
000180 67 b0 a6 3d d2 c6 b5 bd a0 c6 24 3d 28 89 b6 bd
       0.08139115 -0.088758126 0.040228486 -0.08912879
000190 32 82 55 3c 8d af b4 3d c1 6e c7 3d 16 c2 c7 bc
       0.013031529 0.08822546 0.097379215 -0.02438454
0001a0 ad 20 d5 3a 31 d3 cb 3d 0f 4b c7 bd 3f c8 0d bd
       0.0016260348 0.09952391 -0.09731113 -0.034614798
0001b0 b2 bd d0 3c ab 54 8c bd 55 9f 8b bd 85 76 41 3d
       0.025481079 -0.06852087 -0.068174995 0.04723217
0001c0 28 e9 5f 3a 36 1b eb bc 46 f9 3f 3d ad 0f fd bc
       0.0008541518 -0.028699499 0.046868585 -0.030891264
0001d0 39 2a 27 3c ea 67 91 bd 05 f6 9c bd 24 55 b8 3d
       0.010202938 -0.07099898 -0.07664112 0.09000614
0001e0 ca d4 ac 3d 18 7f 1d 3d 27 41 a1 3d d1 e9 75 3d
       0.08439024 0.038451284 0.07873755 0.060037438
0001f0 20 e8 b2 bd 0c 7e 80 3d 79 aa 41 bd 5a c6 ac bd
       -0.087356806 0.062740415 -0.047281716 -0.0843627
000200 38 07 9e bb 17 d0 c2 3c 53 0b ee 3c ac 85 9c bd
       -0.004822638 0.023780866 0.029058134 -0.076426834
000210 63 b4 89 bc ec e3 ff bb 37 1f 16 3d b5 c4 ad bc
       -0.016809648 -0.007809153 0.036650863 -0.021211961
000220 9e 1b 07 3d 85 dc a3 bd 05 32 6e 3c d1 e2 e1 3c
       0.032985322 -0.08001045 0.014538293 0.027573975
000230 d0 ba bb 3c fe 83 b4 bd 19 59 b7 3c 79 97 f4 bc
       0.022916228 -0.08814238 0.022381352 -0.029857384
000240 08 f9 56 bd 97 e1 9a 3d 23 80 07 bd 7a 53 51 3d
       -0.05248359 0.07562559 -0.033081185 0.051105
000250 58 38 ae 3d ac be 18 bd 18 6b e1 bb 6a 55 8b 3c
       0.085068405 -0.037291214 -0.0068792216 0.017008502
000260 3a a2 b1 3d df 61 a3 bd a9 0b 64 bd ad 8b a4 3c
       0.086735204 -0.07977652 -0.055675182 0.020086134
000270 bb e0 c4 3d 04 f1 a7 bd 3b 8e 8e 3d 81 75 12 bd
       0.096131764 -0.08200267 0.06960722 -0.03575659
000280 4a e3 b7 bd 0d 4c 1f bd e2 35 c8 bc 41 9c 91 bd
       -0.08978899 -0.038890887 -0.024439756 -0.07109881
000290 9e 60 15 3d af 71 5d 3d bb 77 70 3d 73 a0 07 bd
       0.036469094 0.054063495 0.058707934 -0.033112
0002a0 82 6e b6 bd 16 dd 6f 3d f2 c3 34 bd 85 77 a3 bd
       -0.089077964 0.058560453 -0.04413218 -0.07981781
0002b0 67 c6 d1 3c df 9d 02 bd ff 0d 9a 3d 00 c5 71 bd
       0.0256073 -0.03188884 0.07522201 -0.059025764
0002c0 d1 f7 95 bd 69 ee ae bd d6 f7 c6 bd 7e 4a 39 bd
       -0.07322658 -0.08541567 -0.0971524 -0.045237057
0002d0 65 45 62 bd 9c 08 5f bc b5 02 f3 bc db 48 c8 3d
       -0.05524196 -0.0136128925 -0.029664377 0.09779521
0002e0 c9 86 a5 bd d7 bb 15 3d f4 07 fa bc 8d 41 94 3d
       -0.08082349 0.03655609 -0.03052137 0.07239065
0002f0 3f d5 a3 3d 33 f6 a2 3d e2 dc 96 ba e1 94 7f 3d
       0.07999658 0.07957115 -0.001150992 0.06239784
000300 eb 82 bd bc 8a 26 30 bc 78 f3 b0 3d 99 bd 8e bd
       -0.023133716 -0.010751376 0.08640188 -0.06969757
000310 6b b3 90 bd 68 ec dd bb 80 14 0a 3d 6d e3 af bd
       -0.07065471 -0.0067725666 0.033710957 -0.085883
000320 0d 24 1b 3c ab 24 83 3d 40 3e bd 3d 4f 07 bd bd
       0.009469044 0.06403478 0.09240389 -0.0922991
000330 4e 59 47 bd 41 79 81 39 85 19 39 bd f8 c7 40 bc
       -0.048669152 0.0002469514 -0.045190353 -0.011766426
000340 43 f0 b2 bd 02 8f c0 bd 95 62 a7 3d 8d 0b 4b 3d
       -0.087372325 -0.094022766 0.081731 0.049571563
000350 cb 3c 29 3d d2 44 ae bd a7 4d 9a bc 66 bb 7e bd
       0.041317742 -0.0850922 -0.018835856 -0.062190436
000360 8d 8e 7e bd 44 03 03 bd 37 ad a9 bd 5b 92 67 3d
       -0.062147666 -0.031985536 -0.08284991 0.05653606
000370 63 99 99 bd 34 a7 9e bd 96 84 78 3c 04 3d 3c bc
       -0.07499959 -0.07746735 0.01516833 -0.011489157
000380 28 fc 0a bd da 86 98 3c f8 c5 a5 3d e9 07 c0 3c
       -0.03393188 0.01861899 0.080944 0.023441272
000390 78 de a1 bd 91 96 fb bc 60 20 0d 3d ed 7b ba 3c
       -0.07903761 -0.030711444 0.034454703 0.02276417
0003a0 64 75 e6 3c 8e dc 3a 3d 03 aa 78 bd 85 c0 75 3c
       0.028132148 0.045620494 -0.06070901 0.0149995135
0003b0 e6 ca b8 3c 56 c6 97 3d 21 a3 b1 bc 5c 55 a3 bc
       0.022557687 0.074108765 -0.021684231 -0.019938163
0003c0 5f 37 c4 bd c8 e4 59 bd 22 dc e4 3c d9 b2 82 bd
       -0.09580874 -0.0531967 0.027936999 -0.06381769
0003d0 16 7b 23 bd c4 ec 5f 3d 7a ae 48 3d ef 3f 4b bc
       -0.039912306 0.054669157 0.04899452 -0.01240538
0003e0 b9 bb b7 3c cb 51 1f 3d 99 7a 80 bd a9 f1 34 bd
       0.02242838 0.038896363 -0.06273384 -0.044175778
0003f0 76 4d 55 3d 5f 6d 1a 3d da 58 5e 3d fb a2 1b bc
       0.052075826 0.03770196 0.054283954 -0.009499307

chr_rnn.bias_ih_l0_reverse f4 [300]
000000 b2 11 54 3d 04 2c dc bb 87 40 d0 bc df 18 54 bc
       0.051774688 -0.0067191143 -0.025421394 -0.012945383
000010 f0 87 29 bd 1a eb b2 bd 12 af 92 3d 7f b6 40 bd
       -0.041389406 -0.08736248 0.07162298 -0.04704904
000020 2c ad 4c 3d 18 e9 23 bd b2 db 04 bd 17 3e 8f 3d
       0.049969837 -0.040017217 -0.03243608 0.069942646
000030 25 10 89 3d b5 69 c7 bd 72 b0 c6 3d a8 b1 28 bd
       0.066925324 -0.09736959 0.09701623 -0.04118505
000040 fa 7a ba bc 02 ad 9c bd 5f 8d c1 bd 70 0a aa 3d
       -0.022763718 -0.07650186 -0.094507925 0.08302772
000050 8d 8b b5 bd 5d e6 81 3c 18 a3 2f bd a4 42 17 3d
       -0.08864508 0.015856916 -0.042880148 0.036928788
000060 ed 54 0a bd 48 da b2 3d ac 17 b5 3d bc b2 aa 3c
       -0.033772398 0.0873304 0.08842406 0.02083718
000070 c9 94 b4 ba b5 46 09 3d bc 18 c9 3d e7 0a 46 bd
       -0.0013777252 0.033514697 0.09819171 -0.04835024
000080 52 c6 c6 ba 07 2d 90 3d 8d f5 c4 bc 0a 50 62 3d
       -0.0015165305 0.07039838 -0.024042869 0.055252112
000090 da b4 1c 3d dc 07 d2 3d 94 52 0e bd c5 6e a9 3d
       0.03825841 0.10255405 -0.03474672 0.08273081
0000a0 a5 80 0c bc 87 33 15 bc 42 bd 01 3b e8 ae 4e 3d
       -0.008575593 -0.009106523 0.0019796644 0.050459772
0000b0 61 7a 11 bd 74 f4 fa 3c 06 01 4b 3d c3 07 19 bc
       -0.0355171 0.030634142 0.049561523 -0.009340229
0000c0 6b 35 8d bd 8c b9 5c bb 1c 69 65 bd 0c 80 c8 3d
       -0.06894954 -0.003367993 -0.056008443 0.09790048
0000d0 de 21 ab 3d 52 df 38 bd 65 d1 80 3d 29 6c 09 bd
       0.08356069 -0.04513485 0.06289939 -0.033550415
0000e0 47 5f 99 3d 30 58 b0 3d 3a c3 04 3c 00 9f 92 bd
       0.07488876 0.086105704 0.008103186 -0.07159233
0000f0 8a 98 83 bd 66 11 cc 3c 76 8f d0 3d 4d 40 9d bd
       -0.06425579 0.02491064 0.10183613 -0.0767828
000100 bb a2 78 3d 42 fe 75 3b ba ae 00 bd be 25 8a bd
       0.060702067 0.0037535583 -0.031416632 -0.0674548
000110 28 c3 a7 bc 4c 23 92 bd f5 74 65 3d c0 99 b1 bc
       -0.0204788 -0.071356386 0.056019742 -0.021679759
000120 94 a0 d6 bc ba 59 cb bd 96 40 f5 3b 45 73 9f bd
       -0.026199616 -0.09929223 0.007484506 -0.07785658
000130 38 1f b0 3d 16 9a a9 3d ab ab 87 3d 50 7e ca 3b
       0.085997045 0.08281343 0.0662454 0.0061796084
000140 60 84 38 bd dc 33 aa bc 94 2f a1 3d 04 9f 96 3d
       -0.045048118 -0.020776682 0.07870403 0.073545486
000150 bf 60 40 3d 48 8b 3e 3c a5 54 48 3c 5f ca 20 bd
       0.046967264 0.011629887 0.012227212 -0.039255496
000160 df b5 a0 3d 66 8c a0 3d 3b 21 e3 3c 55 f2 59 3d
       0.07847189 0.07839279 0.027725806 0.05320962
000170 d0 3b 97 3d 71 85 07 bd 4f f2 59 3d ee 0d bf 3d
       0.07384455 -0.033086244 0.0532096 0.09328829
000180 82 8e 99 bb 20 ed f7 bb 67 d4 25 3d e3 9f f6 3c
       -0.0046861777 -0.0075661093 0.040485766 0.030105537
000190 47 64 10 bd c8 79 12 bd 5e ce a4 3d 33 30 c0 3d
       -0.035251882 -0.03576067 0.08047174 0.09384193
0001a0 6f 85 02 bd 6b 88 05 3c 5b fa 6f 3d 20 47 a8 bd
       -0.031865533 0.0081502 0.058588367 -0.08216691
0001b0 66 eb 9e bd 25 c4 c0 bd d4 18 83 3c 6e 5f 4e 3c
       -0.077597424 -0.094124116 0.01600305 0.012595994
0001c0 1f 1c a3 3d 7f 0f a4 bc 04 a2 0b bd ed e2 8b 3c
       0.07964348 -0.02002692 -0.034090057 0.01707598
0001d0 c4 2d 81 bc 89 68 67 3d 70 6f 63 bd 41 36 54 bc
       -0.015768893 0.056496177 -0.055526197 -0.012952388
0001e0 4e e0 c1 bd 66 7f 4b 3c 9e 1a 3b bd c9 f7 d3 3d
       -0.09466611 0.012420511 -0.04567968 0.10349996
0001f0 30 80 b6 bc bf 69 8b 3c 2b 8c 9e bd 97 5c 94 3d
       -0.022277921 0.017018197 -0.07741579 0.072442226
000200 54 45 95 3d b8 36 5d bd 3c 7f 77 bd c0 1d 7b 3d
       0.07288614 -0.054007262 -0.060424075 0.06130767
000210 65 84 bb 3d 40 82 85 3d 53 3d 84 bd 9d a1 03 bd
       0.09156112 0.06518984 -0.06457009 -0.03213655
000220 34 23 15 bd d1 78 43 bd a0 35 11 bd 7a 1a c4 bd
       -0.036410525 -0.04772264 -0.03545153 -0.095753625
000230 d8 6e be bc fa 17 a2 bd de 01 79 bd de 53 ba 3c
       -0.023246214 -0.079147294 -0.060792796 0.02274507
000240 22 89 31 3d 17 50 a7 bd 51 b7 44 bd 00 91 88 bc
       0.04334367 -0.08169573 -0.048026387 -0.016670704
000250 75 80 9b 3d a7 25 34 3d b5 f9 c4 3d b9 f3 87 bc
       0.075928606 0.04398122 0.0961794 -0.016595708
000260 79 95 bd 3d c6 3f 1c bd 3d bb 1b bd 79 20 48 bd
       0.09257025 -0.038146757 -0.03802036 -0.048859093
000270 a1 44 d4 3c fb 00 6d 3d d5 42 11 3d d8 7f b4 3d
       0.025911631 0.057862263 0.035464127 0.08813447
000280 8e 16 ac bd 90 ef 48 bc cf 14 3d 3d 7c c3 35 bd
       -0.084027395 -0.012264147 0.046162423 -0.04437588
000290 be d0 07 bd 08 03 ab bb ff 5b 60 bc 5c 72 c6 3c
       -0.033158056 -0.005218867 -0.013693809 0.024224453
0002a0 38 7d 76 3d 22 f9 ae bc 75 06 1d 3d 16 78 a4 bd
       0.06017801 -0.02135903 0.038336236 -0.08030717
0002b0 20 00 c2 bc 73 1f c3 bd 3a aa 62 3d c3 29 ae bd
       -0.0236817 -0.09527483 0.055338122 -0.08504059
0002c0 36 89 0c 3d de 2c 96 bd 2f c4 89 3d 0b f2 c1 3d
       0.034310542 -0.073327765 0.06726872 0.09469994
0002d0 ce b2 25 bd ce 4a bf bc 8b aa b7 3c 32 48 ae bc
       -0.040453725 -0.0233511 0.022420188 -0.02127466
0002e0 a0 77 27 3d ed bd cd 3c dc 2e 8b 3d ce 79 09 3d
       0.040885568 0.025114978 0.06796047 0.033563428
0002f0 1d 82 b1 bc 4d b2 e6 bb 90 fd 9d bd 08 af 31 bd
       -0.021668488 -0.007040298 -0.07714379 -0.043379813
000300 e3 3a 5a bd 85 81 80 bd a3 45 4b 3b 50 1f be 3d
       -0.053278815 -0.06274704 0.0031016849 0.09283316
000310 81 28 c5 3b 16 c7 52 3d 67 fd 16 bd 59 8b 35 3c
       0.0060167913 0.051459394 -0.036862757 0.011080586
000320 5f c1 a4 3d 2a b0 24 3e b8 97 0b 3e e7 ff 32 bc
       0.08044695 0.16082826 0.13632095 -0.01092527
000330 9f 5b e6 bd f6 26 65 3d 3c 45 c8 bd 0a a0 03 bd
       -0.11247944 0.05594536 -0.097788304 -0.032135047
000340 b3 f6 8e 3d 4a 80 10 3d d8 f9 07 3e 6b c5 5d bd
       0.06980648 0.035278596 0.13278902 -0.05414335
000350 91 87 07 bd 6e 30 00 be 4e 7f ea 3c e2 e8 29 3e
       -0.03308827 -0.12518474 0.028625157 0.16592744
000360 7f 01 06 bd 70 ef 96 bd 78 eb 04 3d bf 0f 8a bd
       -0.03271627 -0.07369888 0.032451123 -0.067412846
000370 f3 95 6f 3d 52 ed 9e bc 97 29 b8 3d 7e 1a e1 3d
       0.058492612 -0.019400273 0.08992308 0.10991381
000380 86 c6 86 3d 82 a6 8c 3d 49 5e b1 3d c6 75 1f 3d
       0.06580834 0.06867696 0.086605616 0.038930677
000390 f8 18 b7 bd e7 1e 6b bd ed d4 77 bd c9 12 68 3c
       -0.08940309 -0.057402518 -0.060505796 0.014164635
0003a0 ea 74 ca bc c9 02 33 bd 3c 66 df 3d 3d 34 b1 bc
       -0.024713952 -0.043703828 0.109081715 -0.021631354
0003b0 e2 b5 79 3d c6 a1 d3 bd 25 9a 4a bd 19 b6 f3 3d
       0.060964473 -0.1033359 -0.04946341 0.11899967
0003c0 7e 7d a3 bc 77 d5 e4 3c 4c 80 84 b9 b0 e1 68 3d
       -0.0199573 0.02793382 -0.0002527259 0.056855857
0003d0 2f db 7b 3d c8 4e 8b 3d fd 5f 0c bd 3e 27 fa bb
       0.061488327 0.06802136 -0.03427123 -0.0076340726
0003e0 29 3c 52 3d 92 51 06 be 83 fa bb bd d4 a9 1c bd
       0.051326904 -0.13117054 -0.09178641 -0.0382479
0003f0 82 26 bf bd 37 53 02 3e e4 fc 7c 3d 3e 8e 27 3d
       -0.09333517 0.12727056 0.061764613 0.040907137
