parameter/chr_parameter/my_character_rnn_5204.pth (torch_old, 486018 bytes, 8 tensors)

chr_rnn.weight_ih_l0 f4 [300, 100]
0	0xbdcafaa9	-0.09911091
1	0x3db74c33	0.08950081
2	0x3c89444e	0.016756203
3	0xbd98209e	-0.07428096
4	0x3d1d9cfe	0.038479798
5	0x3dae3634	0.08506432
6	0xbc912f27	-0.01772268
7	0x3bc66744	0.0060547907
8	0xbdd207de	-0.10255407
9	0x3da0bb94	0.07848278
10	0xbd68c325	-0.05682673
11	0xbcef95ea	-0.02924629
12	0x3d3efcdb	0.04662786
13	0xbd74291c	-0.059609517
14	0xbcb148aa	-0.021641094
15	0x3d70994b	0.05873994
16	0xbd630d94	-0.05543287
17	0xbd9e25df	-0.07722067
18	0xbcc42a47	-0.02394594
19	0x3da40b74	0.08009997
20	0xbc4e1ee8	-0.012580611
21	0x3da011bb	0.07815882
22	0xbd33070a	-0.043707885
23	0x3c82a37d	0.015947098
24	0x3bda3000	0.006658554
25	0xbc1318df	-0.008978098
26	0xbd7777ca	-0.060416974
27	0xbd7fbe03	-0.06243707
28	0xbd4347b3	-0.0476758
29	0xbd93978d	-0.072066404
30	0xbd86ead0	-0.06587756
31	0x3d7dc7d0	0.061958134
32	0x3d857641	0.06516696
33	0x3be5b56f	0.007010154
34	0xbdbc3a85	-0.09190849
35	0xbd2318ee	-0.039818697
36	0xbd9468f6	-0.07246582
37	0xbd405616	-0.046957098
38	0xbd8f389b	-0.069932185
39	0x3cc6afe0	0.024253786
40	0xbdb1c884	-0.086808234
41	0x3da25c33	0.07927742
42	0x3c8c4b00	0.017125607
43	0x3c8f81ff	0.017518042
44	0x3d184e3b	0.03718398
45	0xbd3df133	-0.046372604
46	0xbce023dc	-0.02736085
47	0xbd80dfe6	-0.06292705
48	0xbd64565c	-0.05574642
49	0xbc5003ac	-0.012696188
50	0x3d30992d	0.04311483
51	0x3cc34989	0.023838775
52	0x3db3c32f	0.08777463
53	0xbd73b4df	-0.059498664
54	0x3d547f1a	0.051879026
55	0x3d809f6a	0.06280406
56	0xbd8ee78c	-0.06977758
57	0xbc69b006	-0.014263159
58	0x3bd27a6e	0.006423286
59	0xbd3ad34f	-0.045611676
60	0xbbe8fad0	-0.0071099773
61	0x3dc77927	0.09739905
62	0x3c36e258	0.011162363
63	0xbd17bdd5	-0.037046272
64	0xbdc5bc6c	-0.09655079
65	0xbc94fa44	-0.018185742
66	0xbcda2058	-0.02662675
67	0xbdbe2b73	-0.09285631
68	0xbd826bfd	-0.063682534
69	0x3d299830	0.041404903
70	0xbd68fdcf	-0.056882676
71	0x3ce5a248	0.028031483
72	0x3d759ea6	0.059965752
73	0x3cf0d582	0.029398683
74	0x3d3452b6	0.04402419
75	0xbdb4d682	-0.088299766
76	0x3bed2637	0.0072372216
77	0x3d758b7c	0.059947476
78	0x3d108a2a	0.035288014
79	0x3cb98001	0.022644045
80	0x3d8ade15	0.0678064
81	0x3d42c9f5	0.047555882
82	0x3dadfb81	0.08495236
83	0x3ca9be21	0.020720543
84	0x3d184582	0.037175663
85	0x3d8198db	0.06327983
86	0xbd9b4320	-0.075811625
87	0xbdab7c90	-0.08373368
88	0x3dcb958e	0.09940635
89	0xbd96c66e	-0.07362066
90	0x3aed24d0	0.0018092636
91	0x3c9033d8	0.017602846
92	0xbdb53580	-0.08848095
93	0x3d4bb692	0.04973466
94	0x3d5a8d52	0.05335743
95	0xbda8a696	-0.08234899
96	0x3d89a921	0.06721712
97	0xbd8e1e42	-0.06939365
98	0x3d00d1f9	0.031450246
99	0x3d9639b8	0.07335228
100	0xbcac118f	-0.021004466
101	0xbcb5979f	-0.022167025
102	0x3d6d6167	0.05795422
103	0x3dca7660	0.098858595
104	0xbd7c73ba	-0.061633803
105	0x3d631c77	0.055447068
106	0x3d9170d4	0.071015984
107	0x3dca83d5	0.09888426
108	0xbd9aa698	-0.075513065
109	0xbd47a680	-0.04874277
110	0xbd9eba3b	-0.077503644
111	0x3dc9678c	0.09834203
112	0x3dcc4b03	0.09975245
113	0xbd95e003	-0.073181175
114	0x3dc5d92e	0.09660564
115	0x3c880f5c	0.016608886
116	0x3dbcbb10	0.09215367
117	0x3db425d3	0.08796277
118	0x3caa5280	0.020791292
119	0x3d5cdf54	0.05392392
120	0x3d3d480e	0.046211295
121	0xbd9d7a8a	-0.07689388
122	0x3d963b71	0.07335556
123	0x3c14820e	0.009064211
124	0x3db362f5	0.08759109
125	0x3c04ea5e	0.008112518
126	0x3d7334ae	0.05937641
127	0xbdb3548f	-0.08756363
128	0x3d12eda0	0.035871148
129	0x3cdeb8c4	0.027187712
130	0xbdae5725	-0.08512715
131	0x3cf1b311	0.02950433
132	0xbdb38037	-0.087646894
133	0x3d99c2b3	0.07507839
134	0xbd1e2bd3	-0.038616013
135	0xbd32fbf1	-0.0436973
136	0xbd4a1e49	-0.04934529
137	0x3a9cc1cd	0.0011959613
138	0xbd30b8f9	-0.043145154
139	0xbdb5ec4f	-0.08882963
140	0xbd8a8c55	-0.067650475
141	0xbcc0face	-0.023557093
142	0x3d7c1082	0.06153918
143	0x3d18e76c	0.037330076
144	0xbce879cb	-0.028378388
145	0x3ce7c40e	0.028291728
146	0x3b42f719	0.0029749332
147	0x3d83dfcb	0.064391695
148	0xbb9a1c62	-0.0047030905
149	0xbb86c3dc	-0.0041127037
150	0x3c9e79b4	0.019345142
151	0x3cb81566	0.022471141
152	0xbcbf86c3	-0.02337969
153	0xbcf0b5bc	-0.029383533
154	0xbd88528c	-0.066563696
155	0xbd9bbebf	-0.07604741
156	0xbc568bbd	-0.01309484
157	0x3cf1bf9d	0.029510314
158	0x3dc05204	0.09390643
159	0x3ceb784d	0.028743887
160	0xbdc59152	-0.09646858
161	0xbd9851a2	-0.07437445
162	0x3d0c064a	0.034185685
163	0x3db680fb	0.0891132
164	0xbd6feb1f	-0.05857384
165	0x3d55e05f	0.05221593
166	0xbdbd006d	-0.09228597
167	0x3d2d5050	0.04231292
168	0x3c3b42d1	0.0114295045
169	0xbb0e1d70	-0.0021685027
170	0xbd75ae76	-0.059980832
171	0xbcc386e1	-0.023868026
172	0xbc7a1a18	-0.01526501
173	0x3d05239a	0.032504655
174	0x3d909385	0.07059387
175	0xbcecb1af	-0.02889332
176	0xbd399af5	-0.045313794
177	0xbcdc1304	-0.026864536
178	0xbcea75fa	-0.028620709
179	0x3b4a5bb8	0.0030877423
180	0xbdb89bc3	-0.09014084
181	0x3d953fd3	0.07287564
182	0xbdb32b29	-0.087484665
183	0x3daed81c	0.08537313
184	0xbd57fb4f	-0.0527299
185	0x3dbb28da	0.09138651
186	0xbd0372f4	-0.03209205
187	0x3d03eda1	0.032209042
188	0xbd89832c	-0.06714472
189	0x3c8cc51b	0.017183831
190	0x3bd8fce3	0.0066219433
191	0xbdb757f3	-0.08952322
192	0x3c868b68	0.016423896
193	0x3cedead4	0.029042639
194	0x3c9e9f98	0.01936321
195	0xbda61da8	-0.08111125
196	0x3db11eb9	0.08648438
197	0xbd4da578	-0.05020663
198	0x3dab5d9f	0.08367466
199	0xbd711e75	-0.058866937
200	0xbdcb7880	-0.09935093
201	0xbd0e9b39	-0.034816
202	0xbd5a483e	-0.05329155
203	0x3dac815a	0.08423109
204	0x3d917553	0.07102456
205	0xbdbbd896	-0.0917217
206	0x3c8f8a3f	0.017521976
207	0x3d7abd6b	0.0612158
208	0x3bcb72f1	0.0062087704
209	0x3b152b9d	0.0022761591
210	0xbda829ed	-0.08211122
211	0x3dbc38f4	0.091905504
212	0x3dc2f48f	0.09519302
213	0x3dc8eece	0.098111734
214	0x3b0da83a	0.0021615163
215	0x3cb60735	0.022220233
216	0xbd20a8de	-0.039223544
217	0xbcec7195	-0.028862754
218	0x3d8b39cf	0.067981355
219	0x3d60829b	0.054812055
220	0x3db751c7	0.08951145
221	0xbcd3bc6b	-0.02584668
222	0xbdaec2a0	-0.085332155
223	0xbdb4b2d7	-0.088231735
224	0x3d867dff	0.065670006
225	0x3d596143	0.05307127
226	0x3d91d7ff	0.07121276
227	0xbdbfae9b	-0.09359475
228	0xbcf8d592	-0.030375276
229	0x3db82741	0.08991862
230	0x3cae544c	0.02128043
231	0xbd3b4465	-0.045719523
232	0xbd4b970a	-0.04970459
233	0x3ca3df07	0.020003809
234	0x3d7d9dae	0.061917953
235	0x3d91df48	0.07122666
236	0xbcb69478	-0.022287592
237	0x3dc2a849	0.09504754
238	0xbd29d347	-0.041461255
239	0x3d74eeaa	0.05979792
240	0xbd102bab	-0.035197895
241	0xbdb64161	-0.08899189
242	0x3d863d23	0.0655463
243	0xbd98637e	-0.07440852
244	0x3c259bcf	0.010107948
245	0xbd64f8dc	-0.055901393
246	0xbda5bb6f	-0.08092391
247	0xbdcaed9b	-0.09908601
248	0xbd53b2a0	-0.051684022
249	0x3d88eb0f	0.06685459
250	0xbd82fedd	-0.063962676
251	0xbd8f37d1	-0.06993068
252	0x3d324b2a	0.043528713
253	0x3bdd4c39	0.006753471
254	0x3d760fb8	0.060073584
255	0x39a05328	0.00030579534

chr_rnn.weight_hh_l0 f4 [300, 100]
0	0xbd3c4c5a	-0.045971252
1	0xbd75b97d	-0.05999135
2	0xbcc1c6ab	-0.023654303
3	0xbd87a463	-0.06623151
4	0xbdb7857c	-0.08961007
5	0xbd56e4df	-0.052464362
6	0x3cff6e95	0.03118066
7	0x3db4dada	0.08830805
8	0xbd2a73a2	-0.041614182
9	0xbd816371	-0.06317795
10	0x3d7ff23e	0.06248688
11	0xbdce3667	-0.1006897
12	0xbd65fb2d	-0.056147743
13	0xbdb0dd40	-0.0863595
14	0x3c706f48	0.014674969
15	0x3d623643	0.05522753
16	0x3dafd34e	0.08585225
17	0x3da78aa3	0.0818074
18	0xbd60f16b	-0.054917734
19	0xbda7110d	-0.08157549
20	0x3cbf19f4	0.023327805
21	0x3d752706	0.05985167
22	0x3d8164c3	0.06318047
23	0xb92981af	-0.00016165407
24	0xbda6f25c	-0.08151695
25	0xbd8aa94c	-0.06770572
26	0xbdadf279	-0.084935136
27	0x3da5300f	0.08065807
28	0xbdb8d668	-0.0902527
29	0x3caecb20	0.021337092
30	0xbdbe2269	-0.09283907
31	0x3d641017	0.055679407
32	0x3dac0f81	0.08401395
33	0x3d4fd2ef	0.05073827
34	0x3d9d8b8f	0.07692634
35	0xbbef6a8a	-0.0073064016
36	0xbb2ddf37	-0.0026530751
37	0x3d702642	0.058630235
38	0xbbe84188	-0.00708789
39	0x3daeea48	0.08540779
40	0x3c63c47d	0.013901827
41	0xbcf886ba	-0.03033768
42	0x3d0082b8	0.031374663
43	0x3db9d145	0.09073118
44	0xbdb2d359	-0.087317176
45	0xbc292db1	-0.010325835
46	0xbd66ad1a	-0.056317426
47	0xbbd66b7d	-0.0065435753
48	0xbd1f432d	-0.038882423
49	0x3d79d400	0.060993195
50	0x3db59a92	0.088673726
51	0x3cd90bcf	0.026494889
52	0xbd8d573f	-0.069014065
53	0xbdbab3b1	-0.09116305
54	0x3d14ad56	0.03629812
55	0x3cd36167	0.025803281
56	0x39d0e772	0.00039845292
57	0x3cf8d20e	0.0303736
58	0xbd8c43ff	-0.06848907
59	0xbd989215	-0.07449738
60	0x3d68cfba	0.05683873
61	0x3d7ff407	0.062488582
62	0xbda9168b	-0.08256253
63	0x3a4a9992	0.0007728572
64	0x3d415bd1	0.047206704
65	0x3dce66db	0.10078212
66	0x3d62357d	0.05522679
67	0xbda7aeca	-0.08187635
68	0xbd728a22	-0.059213765
69	0x3d42681b	0.047462564
70	0x3c0ffc39	0.008788162
71	0xbda8bf9f	-0.08239674
72	0xbda1cf6c	-0.07900891
73	0xbdb01a04	-0.08598712
74	0xbd8c9c3b	-0.06865736
75	0xbcc4f11a	-0.024040747
76	0xbd60eb96	-0.054912172
77	0xbdad5477	-0.08463376
78	0xbd17b3b6	-0.03703662
79	0x3dbb3cd4	0.091424614
80	0xbd98c2a2	-0.07458998
81	0xbd5a5864	-0.053306952
82	0x3d454c6c	0.048168585
83	0x3d6ae971	0.057351533
84	0xbd9ec0c8	-0.07751614
85	0x3c94869d	0.018130595
86	0xbb5846d8	-0.003300121
87	0x3cad7b19	0.021176862
88	0xbda80a37	-0.08205073
89	0x3d3ae080	0.045624256
90	0x3c42de6b	0.011893849
91	0xbd0ca24a	-0.03433446
92	0x3af6a7af	0.0018818284
93	0xbd9eb6c9	-0.07749707
94	0x3dbcb523	0.092142366
95	0xbd8b4519	-0.06800289
96	0x3d40dbda	0.047084667
97	0xbcbbd36e	-0.022927966
98	0x3d901366	0.0703495
99	0x3d2bd655	0.04195245
100	0xbdb697f6	-0.08915703
101	0x3d2355f4	0.039876893
102	0x3d60faa0	0.054926515
103	0xbd4c38cd	-0.049858857
104	0xbd991c00	-0.07476044
105	0xbd15b999	-0.036553953
106	0x3dbdcd14	0.09267631
107	0xbd700916	-0.058602415
108	0x3cf980cd	0.030456925
109	0xbd8cdf53	-0.06878533
110	0x3dc1cdc2	0.09463073
111	0x3dc4aa0d	0.09602747
112	0xbd93ab5a	-0.07210417
113	0xbd88588c	-0.06657514
114	0x3d9d3885	0.07676796
115	0xbcff4db9	-0.03116499
116	0x3dc3f845	0.09568838
117	0x3d1e90ca	0.0387123
118	0x3d856ad5	0.06514517
119	0x3d9727b5	0.073806204
120	0x3d94a299	0.072575755
121	0x3afe902a	0.0019421626
122	0x3c95a934	0.018269159
123	0x3dabe5c8	0.08393437
124	0xbd8c2fc9	-0.06845052
125	0xbd9012c7	-0.070348315
126	0x3dad3b4a	0.08458574
127	0xbd597c8c	-0.053097293
128	0x3d9bae56	0.07601611
129	0xbc257c3e	-0.010100422
130	0xbdc96d73	-0.09835329
131	0x3d7ee644	0.062231317
132	0x3dbf3f7c	0.093382806
133	0xbd0a7a5e	-0.033808105
134	0xbd4d48b4	-0.050118163
135	0x3c91898b	0.01776578
136	0xbd28994e	-0.041161828
137	0xbdc809bf	-0.09767484
138	0xbb86db94	-0.004115531
139	0xbdac83a0	-0.08423543
140	0xbd16fe0c	-0.03686337
141	0x3b1d1c79	0.002397327
142	0xbcdbf834	-0.02685175
143	0x3d8512bd	0.06497715
144	0x3d3a18de	0.04543387
145	0xbc856292	-0.016282354
146	0x3d7418af	0.059593853
147	0xbd4bcf34	-0.04975815
148	0xbdc0aedb	-0.09408351
149	0xbd848666	-0.06470947
150	0xbd2b1e9d	-0.041777242
151	0xbd9db6cc	-0.07700881
152	0xbdbb2e5a	-0.091397
153	0xbba1ecb0	-0.0049415454
154	0xbd7cadcd	-0.061689187
155	0x3d6ec256	0.058290802
156	0xbdb33232	-0.08749808
157	0xbcfd3d94	-0.030913152
158	0xbd342a48	-0.043985635
159	0x3cd42227	0.025895191
160	0x3d9cb85b	0.076523505
161	0xbda7b390	-0.08188546
162	0x3c41a369	0.011818745
163	0xbd9e8a4a	-0.0774122
164	0xbda66d1c	-0.0812628
165	0xbce25b81	-0.027631523
166	0x3d198b71	0.037486497
167	0xbd8456a9	-0.064618416
168	0xbd86427b	-0.06555649
169	0xbd76ba03	-0.06023599
170	0x3dca7b77	0.0988683
171	0xbd85c944	-0.06532529
172	0x3bb5946a	0.005541374
173	0xbd06887b	-0.032845
174	0xbd34a2f7	-0.044100728
175	0x3d75aa53	0.059976887
176	0x3d9cf8e7	0.07664662
177	0x3cafaf37	0.021445854
178	0x3a8fce79	0.0010971568
179	0xbdc175dd	-0.09446309
180	0x3dc39e43	0.095516704
181	0x3dca6349	0.098822184
182	0xbd844ab2	-0.064595595
183	0xba69490e	-0.00088991306
184	0xbcd01f57	-0.025405569
185	0x3d952bb1	0.07283724
186	0x3ccb0f13	0.024787461
187	0xbd8690fc	-0.06570622
188	0xbdc7bcee	-0.09752832
189	0x3da3c3dc	0.079963416
190	0x3d4766f7	0.04868218
191	0xbd630723	-0.055426728
192	0xbd2b9226	-0.041887425
193	0x3cd61436	0.026132684
194	0xbcd7d9af	-0.026348917
195	0xbdb52b8d	-0.08846197
196	0xbce6b97d	-0.02816462
197	0xbd66b1a4	-0.056321755
198	0xbd5486e8	-0.05188647
199	0xbd0c6e0e	-0.034284644
200	0xbccedb78	-0.025251135
201	0xbd6a7b33	-0.0572464
202	0x3d0605a4	0.032720223
203	0x3d854d24	0.06508854
204	0xbdcb1dee	-0.09917818
205	0xbd977585	-0.07395462
206	0xbd2f0528	-0.042729527
207	0x3c837363	0.016046232
208	0xbd565bf2	-0.05233378
209	0xbd73a095	-0.059479315
210	0xba95afe2	-0.0011420215
211	0x3d818fbd	0.06326244
212	0xbdb0d06f	-0.086335056
213	0xbd93a2d2	-0.0720879
214	0xbcf322fa	-0.029679764
215	0xbce043bc	-0.027376048
216	0xbd879887	-0.06620889
217	0xbd4f3eb4	-0.050596908
218	0x3d8f8c23	0.07009151
219	0xbd04100c	-0.032241866
220	0x3c507452	0.012723045
221	0xba17531a	-0.0005772576
222	0x3cb266f5	0.02177761
223	0xbc7a677b	-0.015283461
224	0xbd6736a7	-0.056448605
225	0x3c2cd6f4	0.010549296
226	0x3d65ae80	0.05607462
227	0xbcc04543	-0.023470527
228	0x3dcb3e76	0.09924023
229	0x3d173988	0.0369201
230	0xbd8c0049	-0.06835992
231	0x3dc30108	0.09521681
232	0xbd0555bb	-0.032552462
233	0x3d054363	0.032534968
234	0xbd1b79fc	-0.03795813
235	0x3c8bdfff	0.017074583
236	0x3dbf1443	0.093300365
237	0x3d995383	0.07486632
238	0xbda1e976	-0.07905857
239	0x3d7b1e0d	0.061307956
240	0x3d6a8a97	0.057261076
241	0xbd48debb	-0.049040537
242	0x3d0c290a	0.034218825
243	0xbd988994	-0.07448116
244	0x3d9a9c93	0.075493954
245	0xbc884b16	-0.016637366
246	0xbc214349	-0.009842702
247	0xbd80a635	-0.062817015
248	0x3c7d7719	0.01547029
249	0xbd33c714	-0.043891028
250	0x3dafa262	0.08575894
251	0x3d0cdc0a	0.034389533
252	0xbdc54c03	-0.09633639
253	0xbc380a3e	-0.011232911
254	0xbd5c1bda	-0.0537375
255	0xbce94741	-0.02847636

chr_rnn.bias_ih_l0 f4 [300]
0	0xbd1a6a5a	-0.03769908
1	0x3d11e9c6	0.035623334
2	0xbd5ef028	-0.05442825
3	0x3ca2486b	0.019809922
4	0xbcd3ff2d	-0.025878513
5	0x3d8cf4f4	0.068826586
6	0xbd9be46c	-0.076119274
7	0xbd82d847	-0.06388908
8	0x3c8df94a	0.017330784
9	0x3a22d779	0.00062119175
10	0xbd2a75a6	-0.041616105
11	0x3dd955bb	0.10612055
12	0xbd7916b1	-0.060812656
13	0xbd376eed	-0.04478352
14	0xbcb6b807	-0.022304548
15	0x3e1ec761	0.15505745
16	0xbd4f1a7d	-0.05056237
17	0x3d4d7716	0.050162397
18	0xbd83daed	-0.06438241
19	0x3dcfd896	0.10148732
20	0x3cc90699	0.024539279
21	0x3dab21a1	0.083560236
22	0x3d84f037	0.0649113
23	0xbd5e3eb9	-0.054259036
24	0x3da4f7f3	0.08055105
25	0xbd9e8b92	-0.07741465
26	0x3c9824fb	0.018572321
27	0xbdb9cba3	-0.09072044
28	0x3d93778e	0.072005376
29	0xbd620668	-0.05518189
30	0xbc8a6fda	-0.016899038
31	0xbc517f39	-0.01278668
32	0xbd893f6a	-0.067015484
33	0x3db44a42	0.08803226
34	0xbd33905d	-0.043838847
35	0xbca421ee	-0.02003571
36	0x3dbc1806	0.091842696
37	0x3c189937	0.009313873
38	0xbd9cf6ef	-0.07664286
39	0x3d075cf2	0.033047624
40	0x3ddb7d6c	0.10717282
41	0x3dac2751	0.084059365
42	0xbd2d236c	-0.04227011
43	0x3cf854a9	0.030313807
44	0x3d2a4066	0.04156532
45	0x3cc4a8ed	0.024006331
46	0x3dadaf49	0.084806986
47	0x3dd121dd	0.10211537
48	0xbcbd4a35	-0.023106674
49	0xbcf3138a	-0.029672403
50	0xbd0b2c5b	-0.033977848
51	0xbb380e85	-0.0028084826
52	0x3cf5ba90	0.029996186
53	0xbbae8c37	-0.0053267735
54	0xbdae350f	-0.08506214
55	0x3d208afe	0.039195053
56	0xbdac709c	-0.08419916
57	0x3d1a2e59	0.037641857
58	0xbdb80120	-0.089845896
59	0x3d879ce2	0.0662172
60	0x3ce7e089	0.028305309
61	0x3bb98679	0.0056617823
62	0xba0e9023	-0.0005438348
63	0x3aefbb69	0.0018290106
64	0xbd5890e9	-0.052872572
65	0xbdb6ad99	-0.0891983
66	0xbcd829bc	-0.026387088
67	0xbd8d6414	-0.06903854
68	0x3dc49e01	0.09600449
69	0xbdab8003	-0.08374026
70	0xbd3b721a	-0.045763113
71	0x3dcccdf5	0.10000221
72	0x3db15d26	0.08660345
73	0xbdc54ebd	-0.09634159
74	0x3db6692e	0.0890678
75	0xbc3a4d1a	-0.0113709215
76	0x3de83bfd	0.11339567
77	0xbcf52caf	-0.029928533
78	0x3d1356fe	0.035971634
79	0x3d9b55ec	0.07584748
80	0xbd068d6c	-0.032849714
81	0x3dd26c56	0.1027457
82	0xbd2b38d1	-0.04180223
83	0xbd7c249d	-0.061558355
84	0xbccb7f80	-0.02484107
85	0xbc181fb3	-0.009284901
86	0x3db43728	0.08799583
87	0xbd3ba2c8	-0.045809537
88	0xbd554ff7	-0.052078214
89	0xbccbe900	-0.024891376
90	0xbcd6c63a	-0.026217569
91	0x3dbd8d11	0.09255422
92	0x3d4cf0ed	0.050034452
93	0x3d93bb52	0.07213463
94	0x3c7ffb29	0.015623846
95	0xbdab5d22	-0.08367373
96	0xbd823286	-0.06357293
97	0x3cf42234	0.029801466
98	0x3d7b3d5b	0.06133781
99	0x3dcb58f4	0.09929076
100	0xbc6bf435	-0.014401485
101	0xbdcad633	-0.099041365
102	0xbde0c272	-0.109745875
103	0x3d83a6f2	0.06428327
104	0xbd91eb9a	-0.071250156
105	0xbb109511	-0.0022061507
106	0x3d11d5d0	0.035604298
107	0xbd34b98e	-0.04412227
108	0xbd3cf5bb	-0.046132784
109	0x3c8be2b5	0.017075876
110	0x3dab7e96	0.08373754
111	0x3becd8d6	0.0072279973
112	0xbdecefd8	-0.11569184
113	0xbda5c187	-0.08093553
114	0x3d328b26	0.043589734
115	0xbde6d467	-0.11270981
116	0x3b94d9e2	0.004542575
117	0xbdc833cc	-0.097755045
118	0x3ceb9623	0.028758114
119	0xbcfc671c	-0.030810885
120	0xbd29e34e	-0.04147654
121	0x3da60b50	0.081076264
122	0x3d0262e0	0.031832576
123	0x3cdb7f13	0.026793992
124	0x3d6e7ff7	0.058227506
125	0xbdbfd1cf	-0.0936619
126	0xbd21f020	-0.03953564
127	0x3dd44039	0.10363812
128	0x3d84c3d3	0.06482663
129	0xbd564124	-0.052308217
130	0x3ce565b3	0.028002596
131	0x3c7685a2	0.015046509
132	0x3d53b683	0.05168773
133	0xbdf464d3	-0.11933293
134	0x3c2dfa88	0.010618813
135	0xbd5ddb1b	-0.054164033
136	0x3c3eb6a7	0.011640227
137	0xbcb451e7	-0.02201171
138	0xbc54bbf9	-0.012984269
139	0x3c9c8249	0.019105094
140	0xbdaabeb1	-0.08337153
141	0xbb8d2818	-0.004307758
142	0x3b6abcb9	0.0035818054
143	0x3d86120b	0.0654641
144	0x3d90d24b	0.0707136
145	0xbc01b8c1	-0.007917584
146	0xbdcbe29f	-0.09955334
147	0xbdc19f03	-0.09454157
148	0xbdbef75e	-0.09324525
149	0x3ccbf4f3	0.024897074
150	0xbe1a1eb3	-0.15050773
151	0xbcf8842e	-0.030336466
152	0xbd1cadab	-0.03825156
153	0x3d8ae67a	0.06782241
154	0xbd0a1b60	-0.033717513
155	0x3dcc1ad0	0.099660516
156	0xbd845fa4	-0.064635545
157	0xbcab4f51	-0.020911844
158	0xbd339ad5	-0.04384883
159	0xbd86abc0	-0.065757275
160	0xbb522801	-0.0032067301
161	0x3d51d37b	0.051227074
162	0xbcb0fa3e	-0.0216037
163	0xbceaf10a	-0.02867939
164	0x3db4a987	0.08821397
165	0xbd2d977e	-0.042380802
166	0xbb6290d7	-0.0034571195
167	0x3d75414c	0.059876725
168	0xbd374042	-0.044739015
169	0xbd6b4def	-0.05744737
170	0x3d4bdf41	0.04977346
171	0x3d9369ff	0.071979515
172	0xbd33a010	-0.04385382
173	0xbd978e1a	-0.074001506
174	0x3c2d907f	0.010593533
175	0x3d9c9dba	0.076472715
176	0xbe02921c	-0.12751049
177	0xbcde26a6	-0.027118038
178	0xbc24ec0b	-0.010066043
179	0xbd8dea3a	-0.06929441
180	0xbdcb20fa	-0.09918399
181	0x3db1ac3f	0.086754315
182	0x3dae1e02	0.08501817
183	0xbd13895b	-0.036019664
184	0xbd67fc2f	-0.056636985
185	0x3d6a5d24	0.057217732
186	0x3d70d2e8	0.058794886
187	0x3d41bc78	0.04729888
188	0xbd0c65c6	-0.034276746
189	0xbd0db7b4	-0.03459902
190	0xbd0d9417	-0.034565058
191	0x3d74f86f	0.059807237
192	0x3d5c16e3	0.053732764
193	0xbe030262	-0.12793878
194	0x3cba9e06	0.02278043
195	0xbc443cd1	-0.01197739
196	0xbd8ca622	-0.06867625
197	0xbc068575	-0.00821053
198	0xbd3b9b9f	-0.04580271
199	0xbb5cedbe	-0.0033711041
200	0xbdb59f7b	-0.08868309
201	0xbdc22663	-0.09479978
202	0xbd68c691	-0.056829993
203	0xbce6bd91	-0.028166564
204	0x3da1deb6	0.07903807
205	0xbdaec071	-0.08532799
206	0x3b72af23	0.003703066
207	0x3dc50e3c	0.096218556
208	0xbdb87fc1	-0.09008742
209	0xbc5901ad	-0.013245028
210	0xbc820784	-0.015872724
211	0x3d6fc636	0.058538638
212	0xbd551e13	-0.052030634
213	0xbd853d63	-0.06505849
214	0x3d5567f8	0.052101105
215	0xbd1e622d	-0.038667846
216	0xbc99d8c3	-0.018780118
217	0x3dc054a2	0.093911424
218	0xbd661af0	-0.056178033
219	0x3dfb0c49	0.122582026
220	0xbd844280	-0.06457996
221	0xbc5a1147	-0.013309783
222	0xbdbfb724	-0.09361103
223	0x3d837acb	0.06419905
224	0xbdc99670	-0.09843147
225	0xbd0fc4c0	-0.035099745
226	0xbc9a9850	-0.018871456
227	0xbd0b189e	-0.033959024
228	0x3de67563	0.112528585
229	0x3d859031	0.06521643
230	0xbd466548	-0.048436433
231	0xbd64a0d8	-0.055817455
232	0xbcfb08dc	-0.030643873
233	0x3da68e03	0.08132555
234	0xbd0c2fd7	-0.03422531
235	0xbb8686ab	-0.004105409
236	0x3ccec17b	0.025238743
237	0xbd3d072b	-0.046149414
238	0xbb6c439f	-0.0036051048
239	0x3d4a3eed	0.049376417
240	0xbdb6cb60	-0.089255095
241	0xbd9d5cb5	-0.07683698
242	0x3d1d572c	0.03841321
243	0x3d806d0f	0.06270801
244	0x3c956713	0.018237626
245	0x3da533c0	0.08066511
246	0xbe1eaa74	-0.1549471
247	0x3d754032	0.059875675
248	0x3d808398	0.062750995
249	0x3d964b46	0.07338576
250	0xbd81faa6	-0.063466355
251	0x3dd1990a	0.10234268
252	0x3bbd32f0	0.0057738945
253	0x3ca7f90e	0.0205045
254	0x3d6d6440	0.057956934
255	0xbd6e4c8f	-0.05817848

chr_rnn.bias_hh_l0 f4 [300]
0	0x3cbda14e	0.023148205
1	0x3d28b302	0.04118634
2	0xbd868372	-0.0656804
3	0xbd0d0d3d	-0.034436453
4	0x3dad94c3	0.0847564
5	0xbd2819a3	-0.041040074
6	0x3d843545	0.06455473
7	0xbbd2bcef	-0.006431214
8	0x3dc6a793	0.09699931
9	0xbda9c05f	-0.08288645
10	0xbd35eabd	-0.044413317
11	0xbd0a89ec	-0.03382294
12	0x3c902432	0.017595384
13	0xbd2dc3f3	-0.0424232
14	0xbb190331	-0.002334785
15	0x3dd07e4f	0.101803415
16	0x3d42e9fc	0.047586426
17	0x3db3acde	0.08773206
18	0xbd1dc879	-0.038521264
19	0xbd8624df	-0.06550001
20	0xbd83840a	-0.06421669
21	0xbd238ff9	-0.039932225
22	0xbd0fea29	-0.035135422
23	0x3db6eaff	0.08931541
24	0xbbc538ff	-0.0060187574
25	0xbda54e7f	-0.080716126
26	0x3d8cc034	0.06872597
27	0xbd00686f	-0.031349596
28	0xbd9c7e54	-0.07641283
29	0xbce77c63	-0.028257554
30	0xbd8da821	-0.06916834
31	0x3da0e1cb	0.078555666
32	0xbdabcf9b	-0.08389207
33	0x3d5e301a	0.054245092
34	0x3d5bccf0	0.05366224
35	0x3d51764d	0.05113821
36	0x3dc7a594	0.097483784
37	0xbd30c731	-0.043158714
38	0x3c87274a	0.016498227
39	0x3dbb1310	0.09134495
40	0x3d59af4c	0.05314569
41	0x3d4d7d21	0.05016816
42	0xbd37af9c	-0.04484521
43	0x3d0d24f0	0.034459054
44	0x3d19a5d2	0.037511654
45	0xbcbae278	-0.022813067
46	0x3dc5faea	0.09666999
47	0x3d97a10c	0.07403764
48	0x3d893e82	0.067013755
49	0xbda6c0a4	-0.08142212
50	0x3deb7b15	0.114980854
51	0xbcf86fde	-0.03032678
52	0x3b77b0b0	0.0037794523
53	0xbd1d4a82	-0.038401134
54	0xbc97b94f	-0.01852098
55	0x3d6752a1	0.056475285
56	0x3c87328d	0.016503597
57	0x3d473681	0.048635963
58	0xbd0ad70b	-0.033896487
59	0xbd412bc2	-0.04716087
60	0xbd9a0fab	-0.0752252
61	0x3dd37d53	0.10326638
62	0xbd8f1ff6	-0.06988518
63	0x3db394d3	0.0876862
64	0x3bb84487	0.0056234035
65	0x3d53044a	0.051517762
66	0x3d0bb982	0.03411246
67	0xbdb36966	-0.087603375
68	0xbdbc2470	-0.091866374
69	0xbdb1a184	-0.08673385
70	0x3db6ca1d	0.08925269
71	0x3c4c7cd8	0.012480937
72	0x3ddb4833	0.1070713
73	0x3cc3e65a	0.023913551
74	0x3dcf4cca	0.10122068
75	0xbd3b7aa8	-0.04577127
76	0xbd95796b	-0.07298549
77	0xbd193e5e	-0.037412994
78	0xbd5d6aff	-0.054057118
79	0x3dd2ff12	0.10302557
80	0x3d5c9869	0.053856287
81	0xbd349c77	-0.04409453
82	0xbdbcb880	-0.09214878
83	0x3d1099d7	0.035302963
84	0xbda91a5d	-0.082569815
85	0xbcc27df7	-0.023741705
86	0x3dc333f0	0.09531391
87	0xbd4c7cb1	-0.049923602
88	0xbd414d7a	-0.047193028
89	0x3d197238	0.037462443
90	0x3ddf91f3	0.109165095
91	0xbda4825d	-0.08032677
92	0x3c8825f0	0.016619653
93	0xbaefc2cd	-0.0018292308
94	0x3d9618f9	0.07328982
95	0x3d3c1864	0.0459217
96	0x3d8d1ae9	0.06889898
97	0x3db4d87c	0.088303536
98	0x3d5bc403	0.05365373
99	0x3d0c878c	0.034308955
100	0xbd817661	-0.06321407
101	0xbd024622	-0.031805165
102	0x3c3ca8d0	0.011514857
103	0xbd9848ad	-0.07435737
104	0xbde9b0f7	-0.114107065
105	0x3bf40caa	0.0074477987
106	0xbe17367e	-0.14766881
107	0xbdcfde0e	-0.101497754
108	0x3d4b48a4	0.049629822
109	0x3d85266e	0.065014705
110	0x3d18066a	0.037115492
111	0xbd8d9e83	-0.06914999
112	0xbc2aafc3	-0.010417881
113	0xbc3a5819	-0.011373543
114	0x3d9747a3	0.073867105
115	0xbe355eec	-0.17711991
116	0xbd88bb35	-0.06676332
117	0x3d830258	0.063969314
118	0x3d84536f	0.06461226
119	0x3cbae863	0.022815889
120	0x3da070f5	0.07834045
121	0xbc07546d	-0.008259875
122	0xbc7a9cad	-0.0152961435
123	0x3d790baf	0.060802158
124	0x3db87353	0.09006371
125	0xbdaacb8f	-0.08339607
126	0xbcc96c24	-0.024587698
127	0xbd1bbb4d	-0.03802042
128	0x3d39ecea	0.045391954
129	0x3d811c35	0.06304208
130	0x3cb0df04	0.021590717
131	0x3d49cf8a	0.04927019
132	0xbcff54a4	-0.03116829
133	0x3c857edf	0.016295848
134	0x3aa187b6	0.001232377
135	0xbd9d193b	-0.07670828
136	0xbc96969a	-0.01838236
137	0xbda9e6ae	-0.08295952
138	0xbc756f91	-0.014980213
139	0xbdd02dc9	-0.10164983
140	0xbddbf66a	-0.10740359
141	0xbd072928	-0.032998234
142	0x3d13c545	0.036076803
143	0xbc7745f1	-0.015092359
144	0xbd5896a1	-0.052878026
145	0xbd619945	-0.05507781
146	0xbc11a45a	-0.008889282
147	0xbd8956f5	-0.06706039
148	0x3d242ce4	0.040081874
149	0x3dbe3f8e	0.09289466
150	0xbdcc9b72	-0.09990586
151	0xbe087e81	-0.13329507
152	0xbd217ee6	-0.03942766
153	0xbd8c398e	-0.06846915
154	0x3d57076b	0.05249731
155	0x3cbc395b	0.022976568
156	0x3dc6466c	0.09681401
157	0x3bf97200	0.007612467
158	0xbd8c7095	-0.06857411
159	0xbde289bb	-0.11061426
160	0xbc9c0d14	-0.019049205
161	0xbdd42ed1	-0.10360492
162	0xbd9c45c3	-0.076304935
163	0x3d606c20	0.054790616
164	0xbca033b5	-0.019555906
165	0xbda51a0c	-0.08061609
166	0x3dcb10c2	0.09915306
167	0xbd397518	-0.045277685
168	0xbcc70484	-0.024294145
169	0x3d484126	0.048890255
170	0x3d83db42	0.064383045
171	0xbcda5f89	-0.026656883
172	0xbe1e4b5b	-0.15458433
173	0xbc81a05d	-0.015823537
174	0x3d7fd753	0.06246121
175	0x3c55d2d5	0.013050755
176	0xbdfeb224	-0.124363214
177	0xbd94e8c0	-0.07270956
178	0x3d8d6878	0.069046915
179	0x3bfdb9e8	0.007743109
180	0xbd969e9d	-0.07354472
181	0x3c8f23cb	0.017473122
182	0x3d8a1fe4	0.06744364
183	0x3d9198f3	0.07109251
184	0x3d77a313	0.060458254
185	0xbc680b13	-0.014162797
186	0xbda15d14	-0.07879081
187	0x3d0f2668	0.034948736
188	0xbc40e638	-0.011773638
189	0xba8c32f0	-0.0010696333
190	0xbe0a3013	-0.13494901
191	0x3c44eea9	0.012019792
192	0x3d826b79	0.06368155
193	0xbdbad0fc	-0.09121892
194	0x3c4e5281	0.012592913
195	0xbdee3a78	-0.11632246
196	0xbd75c7a3	-0.06000484
197	0x3cd60c12	0.026128802
198	0x3c79f6b3	0.015256572
199	0xbd83a4af	-0.06427895
200	0xbd9230a6	-0.07138185
201	0x3d1dca29	0.038522873
202	0x3ce12279	0.027482258
203	0xbc34f7ce	-0.011045409
204	0x3dfda193	0.123843335
205	0x3d874c4f	0.066063516
206	0x3c0f0481	0.008729101
207	0x3d6564ad	0.056004215
208	0xbda7259b	-0.081614695
209	0x3d90b440	0.0706563
210	0xbc9bc4a9	-0.019014673
211	0xbceee586	-0.02916218
212	0x3d6a409f	0.057190534
213	0xbcbd1b86	-0.023084413
214	0xbd752f57	-0.0598596
215	0x3dd60cfe	0.10451697
216	0x3d7993e1	0.060932044
217	0x3dea4fe9	0.11441023
218	0x3d5ec578	0.05438754
219	0xbd032dad	-0.03202598
220	0xbc8b85fe	-0.017031666
221	0x3c78bb97	0.015181444
222	0xbd0a4863	-0.03376044
223	0xbd894d0c	-0.06704149
224	0xbdf23d66	-0.11828117
225	0x3d1c34e2	0.03813637
226	0xbd537d8b	-0.0516334
227	0x3cc9fe30	0.024657339
228	0xbd59de28	-0.05319038
229	0x3e1d4ca7	0.15361272
230	0x3d638064	0.055542365
231	0xbcd63f1b	-0.026153138
232	0x3dbe5e8f	0.09295379
233	0xbd27b72e	-0.04094618
234	0x3d5f31bb	0.054490786
235	0x3be75a5a	0.0070603313
236	0x3da6ad28	0.08138496
237	0x3d2262d5	0.039645035
238	0xbd9a6cea	-0.07540305
239	0xbd97e718	-0.074171245
240	0xbdac0455	-0.08399264
241	0xbd5e4a16	-0.054269873
242	0x3d8b3270	0.067967296
243	0xbcf53db2	-0.029936645
244	0x3d501c9f	0.050808545
245	0x3d7e251d	0.062047113
246	0xbcde6633	-0.027148342
247	0x3d98ce59	0.07461233
248	0x3dbac273	0.091191195
249	0x3dc3c96f	0.09559905
250	0xbc77e394	-0.015129942
251	0xbdad92a3	-0.08475234
252	0xbcfada83	-0.030621773
253	0x3d38bfe5	0.04510488
254	0xbd396a18	-0.045267195
255	0x3ca916b9	0.020640718

chr_rnn.weight_ih_l0_reverse f4 [300, 100]
0	0x3d82f2ef	0.06393992
1	0x3da553cc	0.080726236
2	0xbcbab1aa	-0.022789795
3	0xbd81435e	-0.063116774
4	0x3da2b521	0.07944704
5	0xbdc10751	-0.094252236
6	0x3da93700	0.082624435
7	0xbd726834	-0.059181407
8	0x3d727141	0.05919004
9	0xbdb55c2c	-0.08855471
10	0x3dafbc1e	0.085808024
11	0x3d1b8d8a	0.03797678
12	0x3da858fe	0.08220099
13	0x3db030b2	0.08603038
14	0xbd3ae6ca	-0.045630254
15	0xb908a2cb	-0.00013030616
16	0x3d8d732c	0.06906733
17	0xbc8ce342	-0.017198209
18	0x3d25f0eb	0.04051296
19	0xbd398ebf	-0.04530215
20	0x3d9d44fe	0.07679175
21	0xbc8437ba	-0.016139854
22	0x3db33530	0.08750379
23	0xbd9bd6b0	-0.07609308
24	0xbd69b86a	-0.057060637
25	0x3c37a329	0.011208334
26	0xbcdc1aa8	-0.02686818
27	0xbdc6d257	-0.09708088
28	0xbd115f0d	-0.035491038
29	0x3d3ba6b2	0.04581327
30	0x3d9fbc09	0.07799537
31	0xbdc077ab	-0.09397825
32	0x3c6e50d0	0.014545634
33	0xbc143771	-0.009046421
34	0x3d9209d1	0.071307786
35	0xbcda56c6	-0.026652705
36	0xbcaafa6e	-0.020871367
37	0xbbb7eaf0	-0.0056127235
38	0x3db477cd	0.08811913
39	0xbd37c7da	-0.044868328
40	0xbce67760	-0.028133094
41	0x3d4b28d6	0.04959949
42	0xbc90852c	-0.017641626
43	0x3c5a8ec7	0.013339705
44	0xbd5a8f0c	-0.053359076
45	0x3be66fa8	0.0070323534
46	0x3dbf410a	0.09338577
47	0xbd1e849b	-0.03870068
48	0x3d9ea864	0.07746962
49	0x3cd0b181	0.025475265
50	0xbd98aa9d	-0.07454417
51	0xbd57a97b	-0.052651864
52	0x3d0d041b	0.034427743
53	0x3bf240bd	0.0073929713
54	0x3dc91b7d	0.09819696
55	0x3d8552c7	0.06509929
56	0x3da5da4d	0.08098278
57	0x3dba5edb	0.091001235
58	0xbd52bbcd	-0.051448632
59	0xbd9a0bef	-0.075218074
60	0x3be6f060	0.007047698
61	0x3d88c7f9	0.06678767
62	0xbd610b97	-0.054942694
63	0xbd098628	-0.033575207
64	0x3c374d25	0.011187826
65	0x3cce1af8	0.025159344
66	0x3dc4fdc9	0.09618718
67	0xbdc3016f	-0.09521758
68	0xbcbd3696	-0.023097318
69	0x3c8d4bf3	0.01724813
70	0xbd8a34a5	-0.067483224
71	0x3d9c425e	0.07629846
72	0xbdb038d1	-0.08604587
73	0xbdadf2cb	-0.08493575
74	0x3dccfd5b	0.10009261
75	0x3d6533ad	0.055957485
76	0x3cfb727d	0.03069424
77	0x3cd9127a	0.026498068
78	0x3c2a0382	0.010376813
79	0x3c8f61e4	0.017502733
80	0x3b31b509	0.0027115962
81	0xbdb32874	-0.0874795
82	0x3cccc706	0.024997246
83	0xbd812130	-0.06305158
84	0xbd906668	-0.070507824
85	0x3d72660d	0.059179354
86	0xbb9033b9	-0.004400697
87	0x3d55a0f5	0.052155454
88	0xbcfd9f81	-0.030959846
89	0xbd7e67e9	-0.062110815
90	0x3db338fa	0.08751102
91	0x3d9b64c1	0.07587577
92	0xbdaa854a	-0.08326204
93	0x3d2c3472	0.042042203
94	0x3bb1f960	0.005431339
95	0xbb397f60	-0.0028304681
96	0xbc7a1c00	-0.015265465
97	0xbd0c8638	-0.03430769
98	0xbba83587	-0.005133334
99	0x3d5a7f13	0.053343844
100	0x3d11330a	0.035449065
101	0x3dba6606	0.09101491
102	0xbd518b5f	-0.051158305
103	0x3cdacfed	0.026710475
104	0x3d7e0a3a	0.06202147
105	0x3da98418	0.08277148
106	0xbda51a87	-0.080617
107	0xbbdfd8bc	-0.0068312567
108	0xbd295663	-0.04134215
109	0xbd3e10f7	-0.046402898
110	0x3d35b52c	0.044362232
111	0xbcdf0551	-0.027224215
112	0x3d0aca30	0.033884227
113	0x3dbdd080	0.09268284
114	0x3d3cf4d2	0.046131916
115	0xbd29a4bd	-0.041416872
116	0x3db01fed	0.08599839
117	0x3befb04a	0.0073147165
118	0xbcc20e63	-0.0236885
119	0x3c82aac1	0.015950562
120	0x3dc549e3	0.096332334
121	0xbd3a0b78	-0.045421094
122	0xba42a800	-0.00074255466
123	0xbc612960	-0.013742775
124	0x3daf434f	0.0855776
125	0xbd92c857	-0.07167118
126	0xbd1e579a	-0.038657762
127	0xbb953930	-0.0045539364
128	0xbccb899c	-0.02484589
129	0x3d55be8a	0.052183665
130	0x3d1fdf12	0.039031096
131	0xbd812804	-0.063064605
132	0xbdb84e7a	-0.08999343
133	0x3b99314e	0.004675067
134	0x3db12dc1	0.08651305
135	0xbd8d1c60	-0.06890178
136	0xbd56fdb5	-0.052488048
137	0xbd439216	-0.04774674
138	0xbc79b769	-0.015241482
139	0x3b9c1730	0.0047635064
140	0xbd8906b6	-0.06690733
141	0xbd791d75	-0.060819108
142	0xbd9e3a0d	-0.07725916
143	0xba85d664	-0.0010210988
144	0xbd5fcc83	-0.054638397
145	0x3d6703e6	0.056400202
146	0xbd040b35	-0.03223725
147	0x3d9495ba	0.072551206
148	0xbdbc3c3a	-0.09191175
149	0x3dcef005	0.10104374
150	0x3daacc6b	0.08339771
151	0xbce472de	-0.027886804
152	0x3ce2048a	0.027590055
153	0x3cbd445c	0.023103885
154	0xbc87c1f3	-0.016571974
155	0x3db85f9e	0.090026125
156	0x3d80a9cf	0.062823884
157	0xbb9f2b4f	-0.0048574577
158	0x3da599e0	0.0808599
159	0x3aff0e57	0.001945923
160	0xbd8ced46	-0.06881194
161	0x3d86a8e1	0.0657518
162	0x3d4c1dd6	0.04983314
163	0x3d13a829	0.036049042
164	0xbdaa1b84	-0.083060294
165	0xbc87a198	-0.016556546
166	0xbb9fce21	-0.0048768674
167	0xbd4e9955	-0.050439198
168	0xbdc6307c	-0.096772164
169	0xbdce0393	-0.100592755
170	0xbd866ea3	-0.06564071
171	0x3d395732	0.04524917
172	0xbd878c15	-0.066185154
173	0xbc2358dc	-0.009969916
174	0xbd32f04a	-0.04368619
175	0xbd03b4dc	-0.032154903
176	0x3d1a984b	0.037742894
177	0xbd7afed6	-0.061278187
178	0x3dc2ac05	0.09505466
179	0x3c291b47	0.010321445
180	0x3c51000b	0.012756358
181	0xbd68607c	-0.05673264
182	0xbcf8ed59	-0.030386614
183	0x3c4b9642	0.012425961
184	0x3d011385	0.031512756
185	0x3d3fd5d8	0.046834797
186	0x3ce7a5f7	0.02827738
187	0xbc000630	-0.007813975
188	0x3dc8c174	0.09802523
189	0xbdcb53bd	-0.09928081
190	0xbdc9715f	-0.09836077
191	0xbda0df10	-0.07855046
192	0xbd99c815	-0.07508866
193	0x3d6125be	0.054967634
194	0xbd233fca	-0.039855756
195	0xbd2ed6f0	-0.04268545
196	0x3ca14f58	0.019691154
197	0x3d8f5ebc	0.07000491
198	0xbc73b6b0	-0.014875099
199	0xbd09942e	-0.03358858
200	0xba1fb7a7	-0.0006092735
201	0x3db5d50d	0.08878527
202	0xbd12f339	-0.035876486
203	0xbd8a96c8	-0.067670405
204	0xbd80eebe	-0.062955365
205	0xbd6aad3f	-0.057294127
206	0xbd9d7be9	-0.076896496
207	0x3db497ae	0.08817993
208	0x3d32d84c	0.043663308
209	0x3c56c907	0.013109452
210	0xbcc712cb	-0.024300953
211	0x3d6cb5ff	0.057790753
212	0xbd0f4285	-0.034975547
213	0xbd9ff8a4	-0.07811096
214	0xbd5e0018	-0.05419931
215	0x3ca90868	0.020633891
216	0xbd1f5794	-0.03890188
217	0xbd114207	-0.03546336
218	0x39f18fc4	0.00046074216
219	0xbda52313	-0.080633305
220	0x3ca6cf8a	0.020362634
221	0xbce5cee3	-0.028052753
222	0x3d0c18e3	0.03420342
223	0x3b25b0f1	0.0025282467
224	0xbd8d1afd	-0.06889913
225	0x3d0780fe	0.033082
226	0x3bfc7f00	0.0077055693
227	0xbc38bfb0	-0.011276171
228	0xbd699b24	-0.05703272
229	0x3daaa271	0.083317645
230	0x3d5043ae	0.050845794
231	0x3d672c49	0.056438718
232	0xbcdc5438	-0.026895627
233	0x3cf75d1a	0.030195761
234	0xbd8eec02	-0.06978609
235	0x3d000da7	0.03126302
236	0x3c1904f8	0.009339564
237	0xbc577a46	-0.013151711
238	0x3d9665fb	0.0734367
239	0xbcf8d040	-0.030372739
240	0xbd8e9296	-0.06961553
241	0xbd9cb385	-0.07651428
242	0xbc3c4d18	-0.01149299
243	0xbdb2c956	-0.08729808
244	0xbcc8f5aa	-0.024531204
245	0x3dad8f26	0.08474569
246	0x3bc6d22d	0.0060675354
247	0x3d95a348	0.07306534
248	0x3c41bb31	0.011824415
249	0x3c7de5c9	0.01549668
250	0xbdc3cfa2	-0.09561087
251	0x3d87e031	0.06634558
252	0x3d843ba0	0.06456685
253	0x3d77f4fc	0.06053637
254	0x3c965f06	0.018355858
255	0xbdb5d76d	-0.0887898

chr_rnn.weight_hh_l0_reverse f4 [300, 100]
0	0xbdb2b6d0	-0.08726275
1	0x3d1e52df	0.03865325
2	0xbcd63c8f	-0.026151923
3	0x3d900016	0.070312664
4	0xbcd4eb28	-0.025991037
5	0xbbdc1d81	-0.0067173843
6	0x3daa31e2	0.08310296
7	0xbc9c20cc	-0.019058608
8	0x3c0bb10d	0.008526099
9	0x3cc6c737	0.024264915
10	0xbd2bcf80	-0.041945934
11	0x3dae0aa0	0.0849812
12	0x3db9dd9e	0.09075473
13	0xbbb07a17	-0.005385648
14	0xbd837446	-0.06418662
15	0xbd239760	-0.039939284
16	0x3dc3b76d	0.0955647
17	0xbdc39df0	-0.095516086
18	0x3c8c53f3	0.017129874
19	0x3d070a21	0.032968644
20	0x3c8a8424	0.016908713
21	0x3db38038	0.0876469
22	0x3d86bff8	0.06579584
23	0x3da7cac5	0.08192972
24	0x3d6ced07	0.057843234
25	0xbda6a0d1	-0.08136142
26	0xbd717d78	-0.058957547
27	0x3db7c6e7	0.089734845
28	0xbbee3974	-0.0072700325
29	0x3d868210	0.06567776
30	0x3bb19526	0.005419391
31	0xbd52668c	-0.051367328
32	0x3d82a6a0	0.063794374
33	0x3a9c87b8	0.0011942303
34	0x3d91af31	0.07113493
35	0xbd2d9f26	-0.042388104
36	0x3bfbefc5	0.007688495
37	0xbcf45be2	-0.02982897
38	0xbcb40981	-0.021977188
39	0x3d8580a4	0.06518677
40	0x3dc7f4a5	0.09763459
41	0x3db7e2ca	0.089788035
42	0xbd1400f6	-0.03613373
43	0xbc8ab599	-0.016932296
44	0x3d9a4321	0.07532335
45	0xbd94d4bb	-0.072671376
46	0x3d751d91	0.05984265
47	0xbdb51695	-0.08842198
48	0x3d11810d	0.035523463
49	0x3b9bd18c	0.0047552045
50	0x3dc606ab	0.096692406
51	0x3c868db0	0.016424984
52	0xbdb5735f	-0.08859896
53	0xbdabcd68	-0.083887875
54	0x3dac8126	0.084230706
55	0xbcf81ec7	-0.030288113
56	0x3db61a21	0.088917024
57	0xbc0b094b	-0.008486102
58	0x3dc0567a	0.09391494
59	0xbd267c53	-0.04064591
60	0xbda74330	-0.08167112
61	0xbcc37cd5	-0.023863235
62	0xbd6f8aec	-0.058482096
63	0xbd48104c	-0.048843667
64	0xbd28445c	-0.041080818
65	0x3d92f5b5	0.07175771
66	0x3da9f6c4	0.0829902
67	0x3c3076c1	0.010770501
68	0xbd5ca104	-0.053864494
69	0xbcf3dde0	-0.029768884
70	0xbcd03170	-0.025414199
71	0x3dbb50d3	0.09146275
72	0xbd08e7af	-0.033424076
73	0x3d98e005	0.07464603
74	0xbd90176d	-0.07035718
75	0xbd05b1c6	-0.03264024
76	0x3d25a2aa	0.04043833
77	0x3d5fdb2a	0.05465237
78	0x3d6afc2e	0.057369404
79	0x3d3b6d40	0.045758486
80	0x3cfe2f41	0.031028392
81	0x3bba41e2	0.0056841234
82	0x3c2fc801	0.010728837
83	0x3dbc147d	0.09183595
84	0x3d2e84ff	0.042607304
85	0xbce7938e	-0.028268602
86	0x3d727f7a	0.059203602
87	0x3c416288	0.011803277
88	0xbd1c46c3	-0.03815342
89	0x3d525195	0.051347334
90	0xbd29f712	-0.04149539
91	0x3dbee836	0.093216345
92	0x3d37aa24	0.044839993
93	0x3d6d5b16	0.057948194
94	0xbd58f982	-0.052972324
95	0xbd3430b3	-0.043991756
96	0x3d9f733a	0.077856496
97	0xbdc3e34e	-0.09564839
98	0x3938dc10	0.00017629587
99	0x3db4f8e5	0.08836535
100	0x3dd3a819	0.103347965
101	0x3dbd2272	0.092350855
102	0x3d747f08	0.05969146
103	0xbdab46c1	-0.083631046
104	0x3cc65cac	0.024214111
105	0x3d590f5d	0.052993167
106	0xbd1e5cea	-0.03866283
107	0xbd83ddb6	-0.064387724
108	0x3ca75385	0.020425567
109	0xbd2a77e7	-0.041618254
110	0x3cc843b0	0.024446338
111	0x3c962802	0.018329624
112	0x3c8678f3	0.016415095
113	0xbda81a74	-0.082081705
114	0xbdbcc385	-0.0921698
115	0x3ced2a93	0.028950965
116	0xbc842084	-0.016128786
117	0x3cabcee8	0.020972684
118	0xbd6787fc	-0.05652617
119	0xbdb6e685	-0.08930687
120	0xbb0a0c2a	-0.002106438
121	0x3b3cd4ff	0.002881348
122	0x3d2a934f	0.04164439
123	0xbd00abcd	-0.031413842
124	0x3d0b0089	0.033936057
125	0x3cd3108e	0.02576473
126	0x3b96ea39	0.0046055582
127	0xbd47463f	-0.048650976
128	0x3cc70ce4	0.024298139
129	0x3bbdb662	0.005789564
130	0x3d057292	0.032579966
131	0xbd3b1474	-0.045673802
132	0xbcb5a5e4	-0.02217383
133	0x3cc6af67	0.02425356
134	0xbda4893b	-0.08033987
135	0xbdae7c6d	-0.08519826
136	0xbdbf3061	-0.093353994
137	0xbd0116e6	-0.03151598
138	0xbca78a89	-0.0204518
139	0x3db7d0a7	0.08975344
140	0x3d4394a2	0.04774917
141	0x3d810a5b	0.06300803
142	0xbd7e08e3	-0.062020194
143	0xbdc87800	-0.09788513
144	0xbd4df81c	-0.050285444
145	0x3d1d0ebd	0.038344134
146	0xbc7ce60f	-0.01543571
147	0x3dd78c9f	0.10524868
148	0x3dcd8978	0.10035986
149	0xbd9e54bc	-0.077310055
150	0xbdc9993a	-0.09843679
151	0xbdaf62a2	-0.085637346
152	0xbd7d5a07	-0.061853435
153	0xbd5829a0	-0.05277407
154	0x3cbf351b	0.023340752
155	0xbbe1fe90	-0.0068968013
156	0x3c051a44	0.008123938
157	0xbdd4a60e	-0.10383235
158	0x3d111f96	0.035430513
159	0x3bb2d6a3	0.0054577156
160	0x3d88a9a4	0.066729814
161	0xbd346d8d	-0.04404979
162	0x3b4b8bcd	0.003105867
163	0x3da361e3	0.07977655
164	0xbd63e67b	-0.055639725
165	0xbd3eb907	-0.046563175
166	0xbdb86cfb	-0.090051614
167	0x3cf0a2a4	0.029374428
168	0x3cd7d82d	0.026348198
169	0x3cdbeaff	0.026845453
170	0xbc310772	-0.010804998
171	0x3db76b91	0.089560635
172	0x3daa5cf8	0.08318514
173	0x3d93c004	0.072143584
174	0x3da1558e	0.078776464
175	0xbd4310b4	-0.04762335
176	0xbd4af91c	-0.049553975
177	0xbdaf86e6	-0.08570652
178	0xbda6bc5a	-0.08141394
179	0xbdd81e02	-0.105525985
180	0xbce9339c	-0.028466992
181	0x3db45394	0.08805004
182	0xbd240ae0	-0.040049434
183	0xbc23d572	-0.00999962
184	0x3cc62de4	0.024191804
185	0xbd950ba5	-0.07277612
186	0x3b97b8a1	0.004630164
187	0x3dd6ccdb	0.10488292
188	0x3dbccf7a	0.092192605
189	0x3dc43b51	0.09581626
190	0xbda3d11f	-0.07998871
191	0x3da6766f	0.08128058
192	0x3cbcb656	0.023036163
193	0xbb6df69a	-0.0036310316
194	0xbdb7b74e	-0.089705095
195	0xbc59691f	-0.013269692
196	0xbbbecae7	-0.0058225277
197	0xbdbd6498	-0.09247702
198	0xbd86998a	-0.06572254
199	0x3be6c1b2	0.0070421332
200	0xbd3eaacf	-0.046549615
201	0xb9f7df00	-0.0004727766
202	0xbd0497d6	-0.032371365
203	0x3cb3b78d	0.02193811
204	0xbd283e78	-0.0410752
205	0xbd4ede7d	-0.05050515
206	0x3dcf086f	0.101090305
207	0x3cca25a6	0.024676155
208	0x3cf5d834	0.03001032
209	0x3db22605	0.08698658
210	0x3d5e0606	0.054204963
211	0xb9fb96e2	-0.00047986867
212	0x3d9bed17	0.07613581
213	0x3d76a9b6	0.060220443
214	0x3d92af29	0.071623154
215	0xbd8c54ef	-0.06852137
216	0xbd840b43	-0.064474605
217	0x3cd4a9c2	0.025959853
218	0x3c176ee5	0.009242748
219	0x3da14e1f	0.078762285
220	0x3c50339d	0.012707618
221	0xbd86a40a	-0.06574257
222	0x3d957c57	0.072991066
223	0x3d05abbd	0.032634486
224	0xbdac8b35	-0.08424989
225	0xbd3fed4d	-0.046857167
226	0x3da9db65	0.08293799
227	0x3d706706	0.058692
228	0xbc5c83dd	-0.013459173
229	0xbb3b0223	-0.002853521
230	0x3db65325	0.08902577
231	0xbce9b568	-0.028528884
232	0xbc271aa5	-0.010199224
233	0xbd929931	-0.07158125
234	0x3d00db52	0.03145916
235	0xbb55c3a2	-0.0032617827
236	0x3cdb235c	0.02675026
237	0x3db431f3	0.087985896
238	0xbd37ce7e	-0.04487466
239	0x3d468ea1	0.048475865
240	0xbd7bae40	-0.061445475
241	0x3cbb996c	0.022900306
242	0x3d2be9f6	0.04197117
243	0xbdc535b6	-0.09629385
244	0x3d402105	0.04690649
245	0xbda0c8a7	-0.078507714
246	0xbd4e1cba	-0.050320365
247	0xbd7f36db	-0.062308174
248	0xbdb64f09	-0.089017935
249	0xbcacc90d	-0.021091962
250	0x3c83ef12	0.016105209
251	0xbd7e531f	-0.06209099
252	0x3dca5b2e	0.098806724
253	0xbc4ef9d4	-0.012632806
254	0x3db32a7a	0.08748336
255	0x3c9b49fc	0.018956177

chr_rnn.bias_ih_l0_reverse f4 [300]
0	0xbd2cc951	-0.042184178
1	0x3d9abd64	0.07555655
2	0x3dcb1339	0.09915776
3	0x3da8b502	0.082376495
4	0x3d9aae43	0.07552769
5	0x3d90e12c	0.07074198
6	0xbd9268df	-0.07148909
7	0xbd0db505	-0.03459646
8	0xbd3df86d	-0.046379495
9	0xbd673a1c	-0.0564519
10	0x3d3602b6	0.04443618
11	0x3df7a0cc	0.120912164
12	0xbd42d689	-0.047567878
13	0x3d5d0370	0.053958356
14	0xbdcab96d	-0.098986484
15	0xbcfc97e1	-0.03083414
16	0x3d7ba70a	0.061438598
17	0x3d919923	0.07109287
18	0xbd289874	-0.041161016
19	0x3bdbc1f5	0.006706471
20	0x3b8db849	0.004324947
21	0xbcd0d1c8	-0.025490656
22	0xbcb149bf	-0.02164161
23	0xbdb42b93	-0.087973736
24	0x3e509338	0.2036866
25	0x3b82fe02	0.0039975652
26	0xbd86008e	-0.065430745
27	0xbb1beda1	-0.002379276
28	0x3d7ef5a8	0.062245995
29	0x3c404b32	0.011736678
30	0xbcccf134	-0.025017358
31	0xbd4116f5	-0.047141034
32	0xbd36cd55	-0.044629414
33	0xbcc16807	-0.023609174
34	0xbae0a3ba	-0.0017138638
35	0xbd945acf	-0.07243883
36	0xbc8a5c37	-0.016889675
37	0x3c8a57a4	0.016887493
38	0xbd88ceef	-0.066800945
39	0xbd48f31c	-0.049059972
40	0x3d7750a4	0.06037964
41	0xbd675311	-0.056475703
42	0x3d7f3d6d	0.06231444
43	0xbc1603c2	-0.009156169
44	0xbda2d483	-0.0795069
45	0x3da9928d	0.082799055
46	0x3deeb76c	0.11656079
47	0x3d75845e	0.05994069
48	0x3c6d33db	0.014477695
49	0x3d22305c	0.0395969
50	0x3d80e8d7	0.06294411
51	0x3dcd62d2	0.10028614
52	0xbdcb13f8	-0.09915918
53	0x3cabe21b	0.020981839
54	0xbc4df58d	-0.012570751
55	0x3dc91bdf	0.09819769
56	0xbdc02fcf	-0.09384119
57	0xbd23821b	-0.039919
58	0xbd4dc5d3	-0.050237488
59	0xbd3c8a53	-0.046030354
60	0xbd8e5b9a	-0.06951065
61	0x3d855914	0.06511131
62	0xbd81b814	-0.06333938
63	0x3da3ea82	0.08003713
64	0x3bcdf9c3	0.0062858774
65	0x3db5f0a3	0.088837884
66	0x3d0dd638	0.034628123
67	0xbdd6ddfb	-0.10491558
68	0x3d837dd6	0.06420486
69	0x3db9a8b4	0.09065381
70	0x3dc91e09	0.09820182
71	0xbdb2794c	-0.08714542
72	0xbc0660f2	-0.0082018245
73	0x3c8144dc	0.015779905
74	0xbdce9fb0	-0.10089052
75	0xbdbe568f	-0.092938535
76	0x3d028613	0.031866144
77	0x3d39d805	0.045372028
78	0x3da4b1a4	0.08041695
79	0xbdc13e62	-0.09435727
80	0x3c82e77a	0.015979517
81	0x3d196a64	0.037454978
82	0x3df1f270	0.118138194
83	0xbcaf6c7d	-0.021414036
84	0xbd8cc5bc	-0.06873652
85	0x3dc08442	0.09400226
86	0xbd4c421f	-0.049867745
87	0x3dca0208	0.09863669
88	0xbb65f8c3	-0.00350909
89	0xbd415b86	-0.047206424
90	0xbda5e0e0	-0.08099532
91	0x3d83e281	0.064396866
92	0x3e02a05e	0.12756488
93	0x3d78fd78	0.0607886
94	0x3d4f0d4d	0.050549794
95	0x3bffc277	0.0078051644
96	0x3bf189bc	0.0073711555
97	0x3c688bcc	0.014193486
98	0x3cbc6ec9	0.023002045
99	0xbbd185ca	-0.0063941227
100	0x3c94e681	0.01817632
101	0x3d2a04cb	0.041508477
102	0x3dcbc784	0.09950164
103	0xbd30f401	-0.04320145
104	0xbd634f1b	-0.055495363
105	0xbd8d96ff	-0.06913566
106	0xbdb9e0b1	-0.090760596
107	0xbd643e81	-0.05572367
108	0xbca584c7	-0.020204915
109	0x3d3b292c	0.04569356
110	0x3c179af2	0.00925325
111	0x3bf1fdb8	0.007384982
112	0x3cfaa366	0.030595493
113	0xbd666ae3	-0.05625428
114	0xbdc3d11d	-0.095613696
115	0xbd0c6626	-0.034277104
116	0x3d908b22	0.070577875
117	0x3d01ecdd	0.03172003
118	0xbdccc8a7	-0.09999209
119	0xbced8b73	-0.028997159
120	0xbd24838b	-0.04016451
121	0xbdd278ec	-0.1027697
122	0x3bcfcb58	0.006341379
123	0x3bc76d45	0.006086024
124	0x3cf40a90	0.029790193
125	0xbdb1455b	-0.08655807
126	0x3c80821b	0.01568704
127	0xbddba165	-0.10724143
128	0x3cb13c99	0.02163534
129	0xbe17ecb5	-0.1483639
130	0x3c8ede37	0.017439945
131	0xbdb2cafa	-0.08730121
132	0xbd2aa65c	-0.04166256
133	0xbd431b7c	-0.047633633
134	0xbd921927	-0.07133704
135	0x3c76c8f4	0.015062559
136	0x3cc718b8	0.024303779
137	0xbd2dd159	-0.042435978
138	0x3d17741e	0.036975972
139	0xbcd9ee49	-0.026602881
140	0xbd367b2d	-0.044551063
141	0xbe020c8b	-0.12700097
142	0x3dbf7be5	0.09349803
143	0xbcf3c816	-0.029758494
144	0x3d9d6a40	0.07686281
145	0xbd359a24	-0.044336453
146	0xbdcffe54	-0.10155931
147	0xbdc2a1ae	-0.09503494
148	0xbde1ca4a	-0.11024912
149	0xbc5a7e52	-0.013335781
150	0xbdf3d144	-0.119051486
151	0xbe177969	-0.14792408
152	0x3d9e62e4	0.07733706
153	0x3bc6e253	0.0060694604
154	0x3abd2951	0.0014431869
155	0xbbebbb94	-0.007193992
156	0xbdc14d0a	-0.09438522
157	0x3dadf82e	0.08494602
158	0xbd9ce4aa	-0.07660802
159	0xbd9942a1	-0.074834116
160	0xbc01d75f	-0.007924884
161	0x3db95e4c	0.09051189
162	0x3d931785	0.0718222
163	0x3d4ef689	0.050528083
164	0xbd0bd57b	-0.034139138
165	0xbdbcb0e1	-0.092134245
166	0x3cde90a9	0.027168589
167	0x3de31ce5	0.110894956
168	0xbc625183	-0.013813379
169	0x3cd1f7bf	0.02563083
170	0x3b640df1	0.0034798349
171	0xbd94b40f	-0.07260906
172	0x3d4cf493	0.05003793
173	0x3c1f098e	0.009706868
174	0x3def82ad	0.11694846
175	0xbdf1b884	-0.11802772
176	0x3de94c79	0.11391539
177	0x3db7b711	0.08970464
178	0xbd83b2aa	-0.06430562
179	0xbda241a8	-0.07922679
180	0x3d473fc0	0.04864478
181	0x3d4de94a	0.05027131
182	0x3d4ae3a1	0.04953349
183	0x3d32e749	0.043677602
184	0x3d866543	0.06562283
185	0xbdd510c3	-0.10403588
186	0xbdd66236	-0.10467951
187	0xbcb60098	-0.02221708
188	0xbd8491a6	-0.06473093
189	0xbc9cb239	-0.019127952
190	0x3d82fd40	0.0639596
191	0x3d80afe1	0.06283546
192	0xbac54961	-0.0015051776
193	0x3c19e6f9	0.009393447
194	0x3d00db6d	0.03145926
195	0xbd2d2fe6	-0.042282008
196	0x3da7e7b0	0.08198488
197	0xbdec817c	-0.11548135
198	0xbd666732	-0.05625076
199	0x3cb256ac	0.021769844
200	0xbd55fdae	-0.05224388
201	0x3beb80e4	0.007186996
202	0x3d8def24	0.06930378
203	0xbd88a562	-0.06672169
204	0x3cecb12b	0.028893074
205	0xbe114a6b	-0.14188544
206	0xbc834f6a	-0.016029079
207	0x3d5736a8	0.05254236
208	0xbda2de84	-0.07952598
209	0xbdcab704	-0.09898189
210	0xbd7774cc	-0.06041412
211	0xbdc47395	-0.09592358
212	0x3d961c21	0.07329584
213	0x3deeb3ec	0.11655411
214	0xbd860ea2	-0.0654576
215	0xbc8732c3	-0.016503697
216	0x3dc5793e	0.09642266
217	0x3d1ff8c9	0.03905562
218	0xbe345a88	-0.1761266
219	0xbc9d397a	-0.019192446
220	0xbdeb7177	-0.11496251
221	0xbd73faec	-0.05956547
222	0xbc4b4542	-0.012406649
223	0x3ca44dbd	0.0200566
224	0xbe556e50	-0.20842862
225	0x3dd7e3af	0.10541474
226	0x3c794eaa	0.015216509
227	0x3ce42356	0.02784888
228	0x3d2e8581	0.042607788
229	0x3d5de91a	0.05417738
230	0xbd3dd002	-0.04634095
231	0xbd601597	-0.05470809
232	0x3d85b7bb	0.065291844
233	0xbd83fc29	-0.0644458
234	0xbd1b9069	-0.037979517
235	0x3c013a27	0.0078874
236	0x3d134c8c	0.035961673
237	0xbd57acc3	-0.052654993
238	0x3dbb4040	0.09143114
239	0x39a1d5c9	0.00030867595
240	0x3c00015f	0.007812827
241	0x3dca0f40	0.0986619
242	0x3d736954	0.05942662
243	0xbc767d92	-0.015044587
244	0xbe0c99eb	-0.1373059
245	0x3d1a0d7c	0.037610516
246	0xbd928621	-0.07154489
247	0x3d40e6fd	0.047095288
248	0xbdb13a07	-0.08653646
249	0xbd775508	-0.060383826
250	0x3ce12b63	0.027486509
251	0x3dfd8a2f	0.12379872
252	0xbe0c0b6d	-0.13676234
253	0xbdbcacfb	-0.09212681
254	0x3c7ed140	0.015552819
255	0xbd5474cc	-0.0518692
