parameter/chr_parameter/my_character_linear_526.ckpt (torch_old, 80941 bytes, 2 tensors)

lastnet.weight f4 [100, 200]
0	0x3c0151ca	0.007893035
1	0xbd4e456c	-0.050359175
2	0x3d825eb2	0.06365718
3	0xbbe864c0	-0.0070920885
4	0x3d0676cb	0.032828134
5	0x3d29bb67	0.041438486
6	0xbd1e525b	-0.03865276
7	0x3b1302fa	0.0022432194
8	0x3d81d95c	0.06340286
9	0xbb78c710	-0.0037960447
10	0x3d3353f7	0.043781247
11	0x3cda5046	0.026649605
12	0x3d76942d	0.060199905
13	0x3c53486a	0.012895683
14	0xbb012ed5	-0.0019711752
15	0x3d28d651	0.041220013
16	0xbd5206d6	-0.05127605
17	0xbca55aa8	-0.02018483
18	0x3c3c48fe	0.011492012
19	0x3c0008aa	0.007814566
20	0x3cfaef69	0.030631738
21	0xbc5c013c	-0.013428029
22	0xbd6efdae	-0.058347397
23	0x3d0d0af0	0.03443426
24	0x3d660a37	0.056162085
25	0x3d380a40	0.04493165
26	0xbd8a5f4d	-0.067564584
27	0x3d7e1501	0.06203175
28	0x3d331562	0.043721564
29	0xbcb4f678	-0.022090182
30	0x3d2f4e93	0.042799544
31	0x3d1d06f0	0.038336694
32	0xbcbf2ee5	-0.02333779
33	0xbd4a716e	-0.04942458
34	0xbd19370f	-0.037406024
35	0xbd04b79e	-0.032401673
36	0xbd5a091e	-0.05323135
37	0xbd0808e7	-0.033211615
38	0x3c1db57e	0.009625791
39	0xbd3e26de	-0.046423785
40	0xbc0de1e3	-0.008659813
41	0x3d7dbf71	0.06195015
42	0x3c9ab835	0.018886665
43	0x3d63488b	0.055489104
44	0x3d4a6796	0.049415193
45	0x3ce55911	0.027996572
46	0xbd25e0c3	-0.040497553
47	0x3d538483	0.051640045
48	0xbc26d702	-0.010183098
49	0x3d08154f	0.033223446
50	0x3d11fd09	0.035641704
51	0x3cf7b869	0.0302393
52	0xbcf4022f	-0.029786197
53	0x3d3fa42b	0.046787422
54	0xbcbdec1e	-0.023183879
55	0xbcc868db	-0.024464061
56	0x3d5938a9	0.05303255
57	0x3d132320	0.03592217
58	0xbc8745fe	-0.016512867
59	0xbd56b8e0	-0.052422404
60	0x3d8125fe	0.063060746
61	0x3c5a82d4	0.013336856
62	0xbd70ebe1	-0.0588187
63	0xbd8870ea	-0.06662162
64	0xbc12c988	-0.008959182
65	0xbc9d92fc	-0.019235127
66	0x3c9410f4	0.01807449
67	0x3d5c60ab	0.053803127
68	0xbd546485	-0.051853675
69	0x3c3233af	0.01087658
70	0x3d4866d1	0.04892618
71	0x3d3bddc0	0.045865774
72	0xbd3d0e1a	-0.046156026
73	0xbd34ca4b	-0.044138234
74	0xbcc504fe	-0.024050232
75	0xbcbfbe42	-0.023406152
76	0x3cf582a6	0.029969525
77	0x3d02dd6e	0.031949453
78	0xbccff6f7	-0.025386317
79	0x3d352930	0.044228733
80	0x3c9bd367	0.019021703
81	0x3c53acdf	0.012919634
82	0x3cde5117	0.027138276
83	0x3d72f3d3	0.05931456
84	0xbd6f370d	-0.05840211
85	0x3d831792	0.0640098
86	0xbc869d2f	-0.016432373
87	0x3d814775	0.063124575
88	0x3d8e74df	0.06955885
89	0xbcffc27c	-0.031220667
90	0xbc1d580e	-0.009603513
91	0x3d6600f4	0.056153253
92	0xbd54f3df	-0.051990386
93	0x3c5c88e7	0.013460374
94	0x3c8a3bd7	0.016874237
95	0xba10fd3f	-0.00055309007
96	0x3d383419	0.04497156
97	0xbcc00f02	-0.023444656
98	0x3d739f6a	0.0594782
99	0xbb5f8a96	-0.0034109703
100	0x3cbd57f6	0.023113232
101	0x3d3601a1	0.044435147
102	0x3d712187	0.058869865
103	0xbd2870d4	-0.041123226
104	0xbd37d27e	-0.044878475
105	0xbd8ecbb7	-0.06972449
106	0x3d0ba64a	0.034094132
107	0xbcfaae88	-0.030600801
108	0xbcceb11d	-0.025230939
109	0x3bb9d78c	0.005671447
110	0xbd8d5cb9	-0.06902451
111	0xbd78b2f7	-0.06071755
112	0xbc7b819c	-0.0153507255
113	0xbc151bfb	-0.009100909
114	0x3d4e2e53	0.050337147
115	0xbd024605	-0.031805057
116	0xbd44b1c1	-0.04802108
117	0xbd8ae626	-0.067821786
118	0x3d1348c0	0.03595805
119	0x3c83bb80	0.016080618
120	0xbd83eb65	-0.06441382
121	0x3d7962fc	0.060885414
122	0xbd57dcaa	-0.052700676
123	0xbbbf2bc1	-0.0058340733
124	0xbd28d6ec	-0.04122059
125	0xbd6e5290	-0.058184206
126	0xbc2fce17	-0.010730288
127	0xbbe5400e	-0.0069961613
128	0x3cc70d38	0.024298295
129	0x3cf1c3a5	0.029512236
130	0x3d08d70a	0.033408202
131	0xb98b88f9	-0.000266142
132	0xbd88977a	-0.06669517
133	0xbc164b54	-0.009173233
134	0xbd690bbb	-0.056895953
135	0xbd293921	-0.041314248
136	0xbd1078a8	-0.035271317
137	0x3d1a2917	0.037636843
138	0x3c3c2f37	0.011485866
139	0xbc8b1882	-0.01697946
140	0x3c10ac2e	0.008830113
141	0xbc87a0bd	-0.016556138
142	0xbcadf70b	-0.021235963
143	0xbd768868	-0.06018868
144	0x3d552c08	0.052043945
145	0x3d32753c	0.043568835
146	0xbcefe691	-0.029284747
147	0xbb3a35b8	-0.0028413367
148	0xbd6525f3	-0.055944394
149	0xbcce1d33	-0.025160408
150	0x3ce89a60	0.028393924
151	0x3d9254a2	0.07145049
152	0xbd8e405b	-0.069458686
153	0x3d5fe562	0.054662116
154	0x3c6569c1	0.0140022645
155	0xbd5e21b7	-0.05423137
156	0x3d454e8f	0.048170622
157	0xbd55fb54	-0.05224164
158	0x3d05a02b	0.03262345
159	0xbd850bd0	-0.06496394
160	0x3d6af6f8	0.057364434
161	0xbc3dbfcf	-0.011581375
162	0x3d8727ff	0.065994255
163	0x3d73c2d5	0.05951198
164	0x3be246fd	0.006905435
165	0xbd240dff	-0.04005241
166	0x3c92adc8	0.017905131
167	0xbd8d6081	-0.06903172
168	0xbb276281	-0.002554089
169	0x3d44713c	0.04795955
170	0xbc57e909	-0.0131781185
171	0xbd607891	-0.05480248
172	0xbd6c6d24	-0.057721272
173	0xbbdd533f	-0.0067543085
174	0xbbf8f347	-0.0075973603
175	0x3ce09955	0.027416864
176	0x3d759610	0.059957564
177	0x3d651c88	0.055935413
178	0x3bc67483	0.0060563697
179	0x3d40cd24	0.047070637
180	0x3d03804a	0.032104768
181	0x3d2344fa	0.039860703
182	0xbc9a27af	-0.01881775
183	0x3d06469d	0.032782186
184	0xbbb1cfd1	-0.005426385
185	0xbd1869fb	-0.037210446
186	0xbd9974e6	-0.07493
187	0xbc6a5a96	-0.014303824
188	0xbd8ab517	-0.067728214
189	0x3d4163a6	0.047214173
190	0xbd33bb05	-0.043879528
191	0xbbb467b3	-0.005505526
192	0x3d859880	0.06523228
193	0x3d613f24	0.054991856
194	0x3c4988be	0.012300668
195	0xbd253204	-0.0403309
196	0x3ccce62d	0.0250121
197	0xbcc4f63d	-0.024043197
198	0xbd12e46a	-0.035862364
199	0xbd0f5fd6	-0.035003506
200	0xbb4a1709	-0.0030836484
201	0xbac8981d	-0.0015304122
202	0xbd2c1437	-0.042011466
203	0xbb05c05a	-0.002040884
204	0xbcc46267	-0.023972703
205	0xbd52f462	-0.051502593
206	0x3b30f749	0.0027002862
207	0x3d3bfa63	0.045893084
208	0xbd87ec24	-0.06636837
209	0xbd6933eb	-0.05693428
210	0x3d16a4fb	0.03677843
211	0xbd2afb09	-0.041743312
212	0x3cad44ed	0.02115103
213	0xbd271f0b	-0.04080109
214	0x3ba594e9	0.005053152
215	0x3d8107de	0.06300329
216	0xbce8194f	-0.02833238
217	0xbd295a71	-0.041346017
218	0xbd2036d3	-0.039114784
219	0xbd520963	-0.051278483
220	0x3d96b941	0.07359553
221	0x3d537694	0.051626757
222	0x3c1d0f91	0.009586231
223	0x3d2ba2ac	0.041903183
224	0xbcf5eded	-0.030020678
225	0xbd57f188	-0.052720577
226	0x3d883cea	0.066522434
227	0xbd70ae3e	-0.05875992
228	0xbc1589bd	-0.009127078
229	0x3d4eddab	0.050504368
230	0xbc769568	-0.01505027
231	0xbd282593	-0.04105146
232	0xbbb7e798	-0.005612325
233	0x3d491e0d	0.049100924
234	0x3d579935	0.052636344
235	0x3c3a7093	0.011379379
236	0xbd52d0d6	-0.051468693
237	0xbc40c5f3	-0.011765945
238	0x3d49aaf6	0.049235307
239	0x3d68745c	0.056751594
240	0xbda04155	-0.07824961
241	0xbd183062	-0.037155516
242	0x3d28eb11	0.0412398
243	0x3d8543fe	0.06507109
244	0x3d852820	0.06501794
245	0x3d72b4c9	0.05925444
246	0xbd3001eb	-0.04297058
247	0xbcbdf21a	-0.023186732
248	0x3d192473	0.037388276
249	0x3cbc5d2b	0.022993645
250	0xbcc59857	-0.024120493
251	0x3d2ecc80	0.042675495
252	0x3d0bdcd1	0.034146134
253	0xbb4483c4	-0.0029985765
254	0xbcd294ac	-0.025705658
255	0x3d6a59a4	0.057214394

lastnet.bias f4 [100]
0	0xbd8d8a75	-0.06911174
1	0xbde7286b	-0.11287006
2	0xbe0e5c17	-0.13902317
3	0x3e5b18bc	0.21396154
4	0xbd886e91	-0.06661714
5	0xbdd499d9	-0.103809066
6	0x3da3b4a8	0.07993442
7	0xbdf76cc8	-0.12081295
8	0x3c8c0a8d	0.017094875
9	0x3d44a263	0.048006427
10	0x3dcfdb98	0.10149306
11	0xbe19df80	-0.15026665
12	0x3e561137	0.20905004
13	0xbd0a217a	-0.033723332
14	0x3d96bb2e	0.073599204
15	0xbdfd7357	-0.12375515
16	0x3dbf9bb0	0.09355867
17	0x3d2dfc70	0.04247707
18	0xbc80e7ea	-0.015735585
19	0xbc674131	-0.014114664
20	0xbe69b989	-0.22824682
21	0x3e0b80e1	0.13623382
22	0x3dff56cd	0.12467728
23	0x3d043f77	0.032287087
24	0x3e559921	0.20859195
25	0xbc16105f	-0.009159177
26	0x3d751c4d	0.059841443
27	0xbda2e73e	-0.07954262
28	0xbd98c6bf	-0.07459783
29	0xbe200860	-0.15628195
30	0xbc150f28	-0.009097852
31	0x3d89e930	0.0673393
32	0xbd9084c6	-0.070565745
33	0xbdead0f6	-0.114656374
34	0xbc32dbe1	-0.010916681
35	0x3d94afff	0.07260131
36	0x3cb8f557	0.022577925
37	0x3d1bed17	0.038067903
38	0x3e7e48f9	0.24832524
39	0xbd811e8a	-0.06304653
40	0xbc98b943	-0.018643027
41	0x3d7444dd	0.059635986
42	0x3d3ff072	0.046860166
43	0xbd022d4b	-0.031781476
44	0xbe16efb9	-0.14739884
45	0x3e022468	0.127092
46	0xbe21983a	-0.15780726
47	0x3e88b5f4	0.2670132
48	0x3d806000	0.062683105
49	0xbe246555	-0.1605428
50	0xbddc21c7	-0.1074863
51	0xbdd1df91	-0.1024772
52	0x3dff0f9b	0.124541484
53	0xbd5e8548	-0.054326326
54	0xbe0f6eb3	-0.14007072
55	0xbcda2ac5	-0.026631722
56	0x3e3cdeb4	0.1844433
57	0x3dea0d6e	0.11428343
58	0x3e02d59e	0.12776801
59	0xbded213e	-0.11578606
60	0xbda425c9	-0.080150194
61	0xbe3972a3	-0.18110137
62	0xbe6c4704	-0.23073965
63	0x3e1edaf3	0.1551321
64	0xbd8dd5bf	-0.069255345
65	0xbc789425	-0.015172039
66	0xbe0e9456	-0.13923773
67	0x3e6d421f	0.23169754
68	0x3ded7404	0.11594394
69	0x3dc2a8ac	0.09504828
70	0x3da7f20f	0.08200466
71	0x3d0a8c7d	0.033825386
72	0x3d5f693b	0.054543715
73	0xbe0903b5	-0.1338032
74	0xbdbebcc2	-0.093133464
75	0x3c969424	0.018381186
76	0xbe091481	-0.13386728
77	0xbd246d19	-0.040143106
78	0x3d03201b	0.03201304
79	0x3e2d7e65	0.16942747
80	0x3d2b4df0	0.041822374
81	0xbe3644d6	-0.17799696
82	0x3db0d85f	0.086350195
83	0xbdf963c4	-0.12177232
84	0xbcd237c0	-0.02566135
85	0x3d9842cd	0.07434616
86	0x3d1f7586	0.03893044
87	0x3dc98b80	0.09841061
88	0xbdaa413b	-0.08313223
89	0xbcddca2c	-0.027073942
90	0x3c4e1184	0.012577418
91	0xbd7df82e	-0.06200426
92	0x3e21acc1	0.15788557
93	0x3cdecd04	0.027197368
94	0x3b04a7ed	0.0020241693
95	0xba7194a2	-0.00092155684
96	0x3d638a36	0.05555173
97	0x3d782846	0.060585283
98	0xbc7e4f4a	-0.015521834
99	0x3e03b23d	0.12860961
