parameter/crf_lstm_parameter/6_Bigru_crf.pth (torch_old, 582775 bytes, 13 tensors)

transitions f4 [30, 30]
0	0xc61c4000	-10000.0
1	0xc61c4000	-10000.0
2	0xc61c4000	-10000.0
3	0xc61c4000	-10000.0
4	0xc61c4000	-10000.0
5	0xc61c4000	-10000.0
6	0xc61c4000	-10000.0
7	0xc61c4000	-10000.0
8	0xc61c4000	-10000.0
9	0xc61c4000	-10000.0
10	0xc61c4000	-10000.0
11	0xc61c4000	-10000.0
12	0xc61c4000	-10000.0
13	0xc61c4000	-10000.0
14	0xc61c4000	-10000.0
15	0xc61c4000	-10000.0
16	0xc61c4000	-10000.0
17	0xc61c4000	-10000.0
18	0xc61c4000	-10000.0
19	0xc61c4000	-10000.0
20	0xc61c4000	-10000.0
21	0xc61c4000	-10000.0
22	0xc61c4000	-10000.0
23	0xc61c4000	-10000.0
24	0xc61c4000	-10000.0
25	0xc61c4000	-10000.0
26	0xc61c4000	-10000.0
27	0xc61c4000	-10000.0
28	0xc61c4000	-10000.0
29	0xc61c4000	-10000.0
30	0xbea04152	-0.31299835
31	0xbebcac85	-0.36850372
32	0x3f25eb75	0.64812404
33	0xc01a4416	-2.4104056
34	0xbe87023c	-0.26368892
35	0x3ebb3e93	0.36571178
36	0xbe554511	-0.20827128
37	0xbf24433c	-0.6416509
38	0x3fd50c01	1.6644288
39	0x3e8e2c9c	0.2776841
40	0x3e3f80ee	0.18701527
41	0x3e7702e4	0.24122196
42	0xbe539169	-0.20660938
43	0xbf0bcbc7	-0.54607815
44	0xbfa18419	-1.2618438
45	0xbeb5d8b4	-0.35516894
46	0x3e86ca16	0.26326054
47	0xbf8c902b	-1.0981497
48	0xbf893aff	-1.0721129
49	0xbfa8ae4d	-1.3178192
50	0xbf9a5389	-1.2056743
51	0xbf8984ce	-1.0743654
52	0x3f4393e3	0.7639753
53	0xc002179c	-2.032691
54	0xbf2efb6e	-0.683524
55	0x3f083cf4	0.5321801
56	0x3f640f2c	0.8908565
57	0xbf019c43	-0.5062906
58	0x3e811ba8	0.25216413
59	0xc61c4000	-10000.0
60	0x3f2967ae	0.6617383
61	0x3e368965	0.1782585
62	0x3ef23219	0.47303846
63	0x3e5e9ea4	0.21740204
64	0x3f187d93	0.5956661
65	0x3f1c0485	0.60944396
66	0xbe58ba6a	-0.21164861
67	0xbde0291e	-0.109453425
68	0x3f0396fd	0.51402265
69	0x3f62c1e9	0.88577133
70	0x3e226aa4	0.15860993
71	0x3f93a6d8	1.1535292
72	0x3f74355d	0.95393926
73	0x3f376bb2	0.71648705
74	0x3f3eb656	0.7449697
75	0x3f0833b0	0.5320387
76	0xbf0c25ec	-0.54745364
77	0xbe9f44f8	-0.31107306
78	0xbe52fc7b	-0.20604126
79	0x3efad7c8	0.48992753
80	0xbefb53ed	-0.49087468
81	0xbfbb787a	-1.4646142
82	0xbdf6c2da	-0.12048884
83	0x3f9cefc2	1.2260668
84	0xbe76a634	-0.24086839
85	0xbea09b39	-0.31368425
86	0xbe480d71	-0.19536377
87	0x3fc4516d	1.5337349
88	0xbe4df030	-0.20111156
89	0xc61c4000	-10000.0
90	0x3f300a48	0.6876569
91	0x3e8dfb16	0.27730626
92	0x3f8e61e5	1.1123625
93	0x3e3af618	0.1825794
94	0x3fd6ecf8	1.6791067
95	0xbeca3151	-0.3949075
96	0x3f469d5d	0.7758387
97	0xbf82471a	-1.0177948
98	0xbf4a4a77	-0.79019874
99	0xbefbc073	-0.49170265
100	0xbf7bc9fe	-0.9835509
101	0xbec23023	-0.3792735
102	0xbc793f13	-0.015212792
103	0x3fb151fa	1.3853142
104	0xbe0b941a	-0.13630715
105	0x3e54fbaf	0.20799135
106	0x3e7d55d6	0.24739775
107	0xbe344bb0	-0.17606997
108	0x3ebb66b9	0.3660181
109	0x3e1d7029	0.15374817
110	0x3efa60b0	0.48901892
111	0xbea102d5	-0.31447473
112	0x3f4503c3	0.76958865
113	0xbe97f62c	-0.29680002
114	0x3ecfc874	0.4058262
115	0xbfd5cee7	-1.6703767
116	0x3fc80281	1.5625764
117	0x3d6fc568	0.05853787
118	0xbf36bb5c	-0.7137964
119	0xc61c4000	-10000.0
120	0x3f55ecf7	0.83564705
121	0xbf904549	-1.1271144
122	0xbf0b17b8	-0.54333067
123	0x402f4ef8	2.7391949
124	0xbfa188a5	-1.2619826
125	0xbf2f3740	-0.6844368
126	0xbf1383a9	-0.5762277
127	0xbffc8051	-1.9726659
128	0xbf555333	-0.83330077
129	0xbf4c3d66	-0.79781187
130	0x3e6b5adc	0.22983879
131	0xbdd65ccf	-0.104669206
132	0x3fd789ef	1.6838969
133	0x3f02430c	0.50883555
134	0x3e433619	0.19063605
135	0x3e5ff820	0.21871996
136	0x3f0fdfd2	0.562009
137	0xbf4c4acd	-0.79801637
138	0xbfe99530	-1.8248653
139	0x3f8e4695	1.111529
140	0x3f18d0df	0.5969371
141	0xc010f1fc	-2.2647696
142	0x3f2e84e7	0.6817154
143	0x3fc18b6e	1.5120676
144	0x3f2a1987	0.664452
145	0x3fa598b1	1.2937223
146	0xbf5be48b	-0.85895604
147	0xbe034780	-0.12820244
148	0x4004d0b3	2.075238
149	0xc61c4000	-10000.0
150	0xbf36320b	-0.7117011
151	0x3f850a16	1.0393703
152	0x3f160c0b	0.58612126
153	0x3fada50e	1.3565996
154	0xbe8bc16e	-0.27296013
155	0x3f4e10f8	0.8049464
156	0xbf13fc3f	-0.5780677
157	0x3f584219	0.84475857
158	0xbf01420b	-0.504914
159	0x3f85fd7c	1.0467982
160	0x3f0a13d4	0.53936505
161	0x3f740694	0.9532254
162	0x3f056e79	0.5212169
163	0x3eb0416a	0.34424907
164	0xbe7675dc	-0.24068397
165	0x3ea8a0cd	0.3293518
166	0xbe4b6e7e	-0.19866368
167	0x3e8d7e29	0.27635315
168	0x3fd7b0d0	1.6850834
169	0xbf0fcc8c	-0.5617149
170	0xbed2a329	-0.41140106
171	0x3edcfc24	0.43161118
172	0x3f850e37	1.0394963
173	0x3ff0bbb0	1.8807278
174	0x3fdbbab7	1.7166356
175	0xbee8cfca	-0.4547103
176	0xbf7e54f5	-0.99348384
177	0xbf507983	-0.8143541
178	0x3f2af545	0.667805
179	0xc61c4000	-10000.0
180	0x3f6b3522	0.9187795
181	0xbe643913	-0.22287397
182	0x3ffbf822	1.9685099
183	0x3f36756f	0.7127294
184	0x3eaa80d9	0.33301428
185	0x3fbbe3cb	1.4678892
186	0xbf8063aa	-1.0030415
187	0x3de3cc05	0.11122898
188	0x3f84ea09	1.0383922
189	0x3f6418b9	0.89100224
190	0xbf4de03c	-0.8042028
191	0x3f1912ca	0.59794295
192	0xbd234925	-0.039864678
193	0xbebfceec	-0.37462556
194	0xc01e36e7	-2.472101
195	0x3e016782	0.12637141
196	0xbf95253a	-1.1651986
197	0x3ef436d0	0.4769807
198	0x3fb2fdb7	1.3983678
199	0xbccf5037	-0.025306804
200	0x3e76b669	0.24093021
201	0x3dea25c5	0.11432985
202	0xbf3115a5	-0.6917365
203	0x3ee6ee18	0.45103526
204	0xbf3c15d9	-0.73470837
205	0x3e81d75e	0.25359625
206	0x3dcb32bd	0.09921787
207	0xbf6a4ec7	-0.91526455
208	0x3f9773be	1.1832197
209	0xc61c4000	-10000.0
210	0x3fcb720d	1.589418
211	0xbf4e4b23	-0.805834
212	0x3e3e6fc1	0.18597318
213	0x4021db42	2.5290074
214	0xbf5241ca	-0.82131636
215	0xbf3db9e0	-0.7411175
216	0x3eb871e5	0.36024395
217	0x3e9abb7b	0.3022116
218	0x3ff595e1	1.9186364
219	0x3f3341d7	0.7002234
220	0x3f7654d2	0.96223176
221	0x3cb05f20	0.021529734
222	0x3edd4878	0.43219352
223	0x3fa46b76	1.2845294
224	0xbf554545	-0.8330882
225	0x3fa84600	1.3146362
226	0x3fa7a396	1.3096797
227	0x3e8e97ed	0.27850285
228	0xc01c1b2e	-2.439159
229	0x3e7021a8	0.23450339
230	0x3f335000	0.70043945
231	0x3ef28ace	0.47371525
232	0x3db6088a	0.088883474
233	0x3e8b7d56	0.2724406
234	0x3d7ddf8a	0.06198076
235	0xbe0ad2cf	-0.1355698
236	0xc00e9b9d	-2.228248
237	0x3e769135	0.2407883
238	0x3f07dfa7	0.5307564
239	0xc61c4000	-10000.0
240	0x3fc44b3e	1.5335462
241	0xbf2b6701	-0.66954046
242	0xbf79f6a1	-0.9764195
243	0xbfd4cc56	-1.6624858
244	0xbeda59c5	-0.42646614
245	0x3fb4fb3a	1.4139168
246	0xbdb4eb65	-0.088339604
247	0x3e6eec41	0.23332311
248	0xbf896fa8	-1.07372
249	0x3f9d0abc	1.2268901
250	0xbf1bf096	-0.6091398
251	0x3f5a3e4a	0.85251296
252	0xbf072e15	-0.5280469
253	0x3ec8893b	0.391672
254	0xbfc9152c	-1.5709586
255	0x3eb955da	0.36198312

gru.weight_ih_l0 f4 [300, 100]
0	0x3bda1c9d	0.006656243
1	0x3db5dc99	0.08879966
2	0xbaef2832	-0.0018246232
3	0x3db84b98	0.08998793
4	0x3dc913e0	0.09818244
5	0xbc2810ff	-0.010257958
6	0xbda2a1e4	-0.079410344
7	0x3d422898	0.047401994
8	0xbdad3a6b	-0.08458408
9	0x3cd8ac52	0.026449356
10	0xbda43508	-0.080179274
11	0x3d952c73	0.07283869
12	0x3ccbba8f	0.024869232
13	0x3cf61393	0.03003863
14	0x3da1bd51	0.07897437
15	0xbd3f111f	-0.046647187
16	0xbd916103	-0.07098582
17	0xbd9aab73	-0.075522326
18	0xbc57662c	-0.013146918
19	0x3dc3b62f	0.09556233
20	0xbcd1837c	-0.025575392
21	0xbdc8a5ef	-0.09797274
22	0x3d774810	0.06037146
23	0x3c930db4	0.01795087
24	0x3dc1ed11	0.09469045
25	0x3d82ddc0	0.06389952
26	0x3d8d2792	0.06892313
27	0xbdb8f6b4	-0.0903143
28	0x3c511ad1	0.012762741
29	0xbd8d2d10	-0.068933606
30	0x3be6bc8f	0.007041521
31	0xbc22002f	-0.009887739
32	0xbc3110a5	-0.010807191
33	0x3d295a9a	0.04134617
34	0xbc62136c	-0.013798576
35	0x3d04d5a8	0.03243032
36	0xbda047b9	-0.0782618
37	0x3d402bfd	0.04691695
38	0xbb5db1df	-0.0033827943
39	0xbc85c208	-0.016327873
40	0x3d23a2b2	0.03995008
41	0x3d79a6b1	0.060949985
42	0xbc1681f1	-0.009186254
43	0x3d1776c0	0.036978483
44	0x3db324bb	0.0874724
45	0x3dc1ec24	0.094688684
46	0xbcf637ff	-0.030055998
47	0xbd69e6d0	-0.057104886
48	0xbd9a513a	-0.07535024
49	0x3d70c1d0	0.058778584
50	0xbdcb077b	-0.09913536
51	0xbd456e9b	-0.048201185
52	0xbdae2b90	-0.08504403
53	0xbd1842c4	-0.037173048
54	0x3d9db2ff	0.077001564
55	0xbd8058e3	-0.06266954
56	0xbd611452	-0.05495102
57	0x3cba04f6	0.022707444
58	0xbdb7f445	-0.089821376
59	0x3ca80180	0.020508528
60	0xbdc6bedc	-0.09704372
61	0xbcd53ed3	-0.026030933
62	0xbdbdcfc5	-0.092681445
63	0xbd0c744f	-0.034290608
64	0x3d90e62e	0.07075153
65	0xbd1af7cc	-0.037833974
66	0xbcea4f16	-0.028602164
67	0x3db27bc1	0.087150104
68	0x3d15a71d	0.036536325
69	0x3d463a06	0.04839518
70	0xbd088dc1	-0.033338312
71	0xbd240482	-0.04004336
72	0xbdcbf222	-0.099582925
73	0xbd4a2370	-0.049350202
74	0x3dc94c7e	0.09829043
75	0x3d99619b	0.0748932
76	0x3d990abf	0.07472753
77	0x3cf68c10	0.030096084
78	0x3d53033a	0.05151675
79	0xbd5dc5a4	-0.054143563
80	0x3d900027	0.07031279
81	0xbd95239e	-0.07282184
82	0x3c4654b8	0.012105159
83	0x3cd9a066	0.026565742
84	0x3caa3aab	0.020779928
85	0x3c91b428	0.0177861
86	0x3cdfac27	0.027303768
87	0xbdba4348	-0.09094864
88	0xbd51caa5	-0.051218648
89	0x3d5e0a74	0.054209188
90	0x3d50c70b	0.050971072
91	0xbdb06297	-0.086125545
92	0xbd88b02d	-0.06674228
93	0xbd757fb8	-0.059936255
94	0xbdb19f56	-0.08672969
95	0xbcde05ae	-0.027102318
96	0x3d74b736	0.059745036
97	0xbd7707e5	-0.060310263
98	0x3c1cbc68	0.009566404
99	0xbd9fac5f	-0.07796549
100	0xbd6ab009	-0.057296786
101	0x3d3feb27	0.046855118
102	0x3d411a7b	0.047144394
103	0x3d9b8325	0.07593373
104	0xbb4d19c0	-0.0031295866
105	0xbdaa6835	-0.08320657
106	0xbdab9c69	-0.08379442
107	0xbda301c9	-0.07959325
108	0x3d3c9e94	0.04604967
109	0xbd12c437	-0.035831656
110	0x3dabd0dd	0.08389447
111	0xbdb9fbcd	-0.0908123
112	0xbb0c8c63	-0.0021445982
113	0xbdb2a933	-0.087236784
114	0x3d105388	0.03523591
115	0xbda48346	-0.08032851
116	0x3ce9038e	0.028444078
117	0xbcf3a346	-0.02974094
118	0xbda32ebe	-0.079679
119	0x3d5d1778	0.05397746
120	0xbd94acdb	-0.07259532
121	0x3c686e1d	0.014186409
122	0xbcc2e5dd	-0.023791248
123	0xbd5ee8cc	-0.05442123
124	0x3db4097d	0.08790872
125	0xbd7555cb	-0.05989627
126	0xbda5e2a0	-0.08099866
127	0x3d1d3603	0.038381588
128	0xbd043d7a	-0.03228519
129	0xbd423be6	-0.047420405
130	0xbdaca3b9	-0.08429665
131	0x3dc86cf3	0.097864054
132	0x3ca6fa39	0.020382987
133	0x3baceb29	0.0052770567
134	0xbdb18e72	-0.086697474
135	0x3d96b95e	0.07359575
136	0x3d5ee0ba	0.054413535
137	0xbd3d8625	-0.04627051
138	0x3bbdd19d	0.00579281
139	0x3dacc73c	0.084364384
140	0xbd14fd40	-0.03637433
141	0xbd9d80d1	-0.076905854
142	0x3d4d209b	0.050079923
143	0xbd648dd0	-0.055799305
144	0x3c8ebf42	0.017425183
145	0xbd079a54	-0.033106163
146	0x3dc14aac	0.09438071
147	0x3c4d81b7	0.012543133
148	0xbd465fca	-0.048431195
149	0x3d6d03d1	0.057864968
150	0xbdb0e432	-0.08637275
151	0x3d94759c	0.07248995
152	0x3cc73b18	0.02432017
153	0x3d527d5b	0.05138908
154	0x3dae27c2	0.08503677
155	0xbd5cbbf9	-0.053890202
156	0xbdbe510b	-0.092928015
157	0x3d8ec38a	0.0697089
158	0xbd86aa69	-0.06575472
159	0xbd53109b	-0.051529508
160	0x3d411174	0.047135785
161	0xbd03f599	-0.032216642
162	0x3d95eb98	0.073203266
163	0x3c31b3f9	0.0108461315
164	0xbd5b86b8	-0.053595275
165	0xbd0f5d49	-0.035001073
166	0x3d61d0b9	0.055130694
167	0xbd9e89f2	-0.07741155
168	0xbd861a0f	-0.06547939
169	0xbd7589a0	-0.059945703
170	0xbd5084e5	-0.050907988
171	0xbd49d4a0	-0.04927504
172	0xbb87c02f	-0.004142783
173	0xbd547f07	-0.051878955
174	0xbdad2f55	-0.084562935
175	0xbd261096	-0.04054316
176	0x3d9f333d	0.07773445
177	0x3d9e96b9	0.07743592
178	0xbb942a36	-0.0045216335
179	0xbc512a98	-0.012766503
180	0xbd41c878	-0.047310323
181	0xbca90cca	-0.020635981
182	0x3c06b52c	0.008221906
183	0x3d8eae5f	0.069668524
184	0x3dc57159	0.0964076
185	0xbc8ef3d2	-0.017450247
186	0xbdaf8a37	-0.08571284
187	0xbd98d92b	-0.074632965
188	0xbda3b47c	-0.07993409
189	0x3d7ceb09	0.061747584
190	0x3ce39b07	0.027783884
191	0xbbd1717f	-0.0063917036
192	0x3d1ff20b	0.03904919
193	0xbd75755b	-0.059926372
194	0xbdcda95b	-0.100420676
195	0xbd881b0f	-0.06645786
196	0x3cc7ffed	0.024414027
197	0x3cd48f11	0.025947126
198	0xbd292c58	-0.041302055
199	0xbd5cc085	-0.05389454
200	0x3d0fa721	0.035071496
201	0x3cba3c2b	0.022733768
202	0x3d5d2b7b	0.053996544
203	0xbd16890d	-0.036751796
204	0x3ca62037	0.020279033
205	0x3d1c7b6c	0.03820364
206	0xbd5f30b2	-0.0544898
207	0x3d16dda5	0.03683247
208	0x3dbd47d7	0.09242218
209	0x3d25d915	0.04049023
210	0xbc65f35f	-0.014035075
211	0xbd6535b3	-0.055959415
212	0x3da90c99	0.08254356
213	0x3d4d354b	0.050099652
214	0x3db6a20d	0.089176275
215	0xbd59cf2d	-0.053176094
216	0xbce6234b	-0.028093
217	0xbd25a634	-0.040441707
218	0x3d40e652	0.04709465
219	0x3d2446f9	0.040106747
220	0xbdb26adb	-0.08711787
221	0xbca5dbfc	-0.020246498
222	0x3bd0a2b1	0.0063670506
223	0xbca41744	-0.020030625
224	0xbcf9f878	-0.030513987
225	0xbd97900c	-0.07400522
226	0xbd8b15e9	-0.067912884
227	0x3d9d7ab4	0.076894194
228	0x3d63dc8d	0.055630255
229	0xbbcc7c89	-0.0062404317
230	0xbdb28019	-0.08715839
231	0x3d62a343	0.05533148
232	0xbda98dff	-0.08279037
233	0xbd995995	-0.074877895
234	0x3dcbc52d	0.09949718
235	0x3ce99508	0.028513446
236	0x3d289269	0.041155253
237	0x3c55dda2	0.01305333
238	0xbc0b30e8	-0.008495547
239	0x3bcef6d6	0.006316046
240	0x3d9a3777	0.0753011
241	0xbd26f6d8	-0.040762752
242	0x3dc906d8	0.098157585
243	0xbcaa1ffc	-0.020767204
244	0xbd0bf0b2	-0.03416509
245	0x3d2f69f1	0.042825643
246	0x3d3455ba	0.044027068
247	0xbda07365	-0.0783451
248	0x3dcb1a2c	0.09917101
249	0xbdcba816	-0.09944169
250	0x3d619128	0.055070072
251	0xbce4487d	-0.027866596
252	0xbc96a0d9	-0.018387245
253	0xbcbc72c3	-0.023003941
254	0xbd264047	-0.040588643
255	0x3cc52759	0.024066614

gru.weight_hh_l0 f4 [300, 100]
0	0xbd15ae40	-0.03654313
1	0x3d85e7a2	0.06538321
2	0x3d7d3d5c	0.061826095
3	0xbc45d2d7	-0.012074194
4	0xbda7c481	-0.08191777
5	0x3d81cb00	0.06337547
6	0x3d67746b	0.05650751
7	0x3c23251f	0.009957581
8	0xbd629979	-0.055322144
9	0x3d5d14ee	0.05397504
10	0x3d8aba7f	0.067738526
11	0x3dbfabe5	0.09358958
12	0x3d3a50fd	0.045487393
13	0x3d98d97d	0.074633576
14	0xbd99df51	-0.07513297
15	0xbdca6dde	-0.09884237
16	0x3ce861e0	0.028366983
17	0xbd954b17	-0.07289713
18	0x3d3874fa	0.045033433
19	0xbd2b3442	-0.041797884
20	0x3c946a18	0.018116996
21	0x3dbadf33	0.09124603
22	0x3ae793f6	0.0017667997
23	0xbd9c43de	-0.07630132
24	0xbdc9ac38	-0.09847301
25	0x3d3cdc99	0.046108816
26	0x3ca27613	0.019831693
27	0xbc0f3629	-0.00874094
28	0xbd866e27	-0.06563979
29	0x3dbd5871	0.092453845
30	0x3d1fcf39	0.039015982
31	0x3cf68027	0.030090405
32	0xbc9727ac	-0.018451534
33	0xbcbb670b	-0.022876283
34	0x3daba9e5	0.08382014
35	0x3dbbbcee	0.09166895
36	0x3dadc73f	0.08485269
37	0xbdcda33c	-0.100409
38	0xbd4783e4	-0.048709765
39	0x3c2b30f3	0.010448682
40	0x3c5e9724	0.013585839
41	0xbcbe4b65	-0.02322931
42	0x3bcb8f88	0.0062121786
43	0x3d1e5e6a	0.03866426
44	0x3d9c80c8	0.076417506
45	0xbd889b6c	-0.06670269
46	0xbdb732c7	-0.08945232
47	0x3bbc08ff	0.005738377
48	0x3d2ce015	0.04220589
49	0xbd741f33	-0.059600066
50	0x3db7a31a	0.08966656
51	0xbd524739	-0.051337454
52	0x3d792ef9	0.060835812
53	0x3d1a82c6	0.03772237
54	0xbcd6c033	-0.026214695
55	0x3b7af822	0.0038294871
56	0xbd2d568d	-0.04231887
57	0x3dc24a3f	0.094868176
58	0x3db38960	0.087664366
59	0xbd98d19e	-0.07461856
60	0x3d1a2d2b	0.03764073
61	0xbcebe8a7	-0.02879746
62	0xbd3315e4	-0.04372205
63	0x3d4c5d3a	0.049893595
64	0xbd994c24	-0.07485226
65	0xbd7480d1	-0.05969316
66	0xbdc368c4	-0.09541467
67	0x3cf3dea5	0.029769251
68	0xbd850b6f	-0.064963214
69	0x3c39b652	0.011334972
70	0xbcc9d6d1	-0.024638565
71	0x3ce09eec	0.02741953
72	0xbcf6fe4a	-0.030150551
73	0xbcaca46a	-0.021074492
74	0xbb11da5b	-0.0022255394
75	0xbbc09fdc	-0.0058784317
76	0xbd579b5d	-0.0526384
77	0x3dbc0a29	0.091816254
78	0xbc9e4fbd	-0.019325132
79	0x3d2d1ad8	0.04226193
80	0x3ca5f592	0.020258699
81	0xbc0d9089	-0.008640417
82	0x3d2825cb	0.041051667
83	0xbdc062af	-0.093938224
84	0xbc9fe7d0	-0.019519717
85	0xbd2ddf95	-0.042449553
86	0xbda01425	-0.07816342
87	0x3dc0e40d	0.09418497
88	0xbcf5f1e3	-0.030022567
89	0xbdaeb584	-0.08530715
90	0x3d9cf168	0.07663232
91	0x3cf1477f	0.029453037
92	0xbd63ca67	-0.055612948
93	0x3d96cda8	0.073634446
94	0x3d4f3711	0.050589625
95	0x3ae2ac17	0.0017293718
96	0x3c5f9a56	0.013647636
97	0x3bb9ca1c	0.0056698453
98	0xbdb85fc5	-0.090026416
99	0xbd80eaf8	-0.06294817
100	0xbcccaf59	-0.024985956
101	0x3d9ee5cb	0.07758673
102	0x3d7e7d1c	0.062131032
103	0x3dca6d1f	0.098840944
104	0x3d027695	0.03185137
105	0xbdb27df2	-0.087154284
106	0x3bbec1a5	0.005821424
107	0xbdb5ea23	-0.08882549
108	0xbdc90c7b	-0.098168336
109	0x3d1b57c7	0.037925508
110	0xbc2201a0	-0.009888083
111	0x3daba14b	0.083803736
112	0x3d9a8490	0.075448155
113	0x3d1710f8	0.036881417
114	0xbb3d7329	-0.0028907752
115	0xbdc71522	-0.09720828
116	0x3c8ad331	0.016946407
117	0xbd22200f	-0.039581355
118	0x3da999b3	0.08281269
119	0xbca34863	-0.019931978
120	0xbdcd2d08	-0.10018355
121	0x3be521aa	0.0069925385
122	0x3dafb14a	0.08578737
123	0x3db7fe95	0.089841045
124	0xbc7d17b9	-0.01544755
125	0x3c0b98cd	0.008520317
126	0xbd72845b	-0.059208255
127	0xbd77e1c7	-0.060518052
128	0x3d265bf6	0.040615045
129	0x3d4f9eeb	0.050688665
130	0xbd30b81a	-0.043144323
131	0x3da7ef09	0.08199889
132	0x3d3a2f73	0.045455407
133	0x3d8577d3	0.06516995
134	0xbce41738	-0.027843103
135	0x3d038fec	0.032119676
136	0x3d1bac66	0.03800621
137	0x3c108587	0.008820898
138	0xbc83a42b	-0.016069492
139	0xbd9b26b8	-0.075757444
140	0xbdc8c5c5	-0.098033465
141	0xbd987c3b	-0.0744557
142	0x3d283bf4	0.0410728
143	0xbc42ce0d	-0.011889947
144	0x3b998e0f	0.004686124
145	0xbd3ff4a5	-0.04686417
146	0x3d8c79a1	0.068591364
147	0xbd556a04	-0.052103058
148	0x3d46c8a6	0.048531197
149	0x3a1a27c4	0.00058805593
150	0x3da5f775	0.08103839
151	0xbd5930e0	-0.053025126
152	0x3da2cc90	0.079491735
153	0xbc579fea	-0.013160685
154	0x3da92e9b	0.082608424
155	0xbbf3ceec	-0.0074404385
156	0xbd47bd14	-0.048764303
157	0xbce3781a	-0.02776723
158	0x3da2e738	0.07954258
159	0x3c4566c4	0.012048427
160	0xbd70ad78	-0.058759183
161	0x3d7c448d	0.061588813
162	0x3d817e6a	0.0632294
163	0xbd453dc7	-0.04815462
164	0xbd55a402	-0.052158363
165	0xbd7d8292	-0.0618921
166	0x3dc45734	0.09586945
167	0x3aa4c6dc	0.0012571472
168	0x3d1c66ce	0.03818398
169	0x39fb7f77	0.0004796942
170	0x3d2511d0	0.04030019
171	0xbd8a18aa	-0.067429855
172	0xbda04086	-0.07824807
173	0xbc8b65be	-0.017016288
174	0x3d154c00	0.036449432
175	0x3dafa30e	0.08576022
176	0x3d98fc36	0.074699804
177	0xbc3479be	-0.011015354
178	0xbd801743	-0.06254437
179	0x3dbd5351	0.09244407
180	0xbd031c74	-0.032009557
181	0xbd80a093	-0.06280627
182	0xbc0d5a01	-0.008627416
183	0x3d4905a9	0.049077664
184	0x3b551823	0.0032515607
185	0xbc53ca32	-0.012926625
186	0x3b3e55d0	0.0029042847
187	0xbdcaf79c	-0.09910509
188	0xbd01dbef	-0.031703886
189	0x3cd1abc2	0.025594596
190	0x3d6d271a	0.05789862
191	0xb998ea7d	-0.00029166407
192	0xbd6cda7a	-0.057825543
193	0x3d89c9b4	0.06727925
194	0x3c3a9e26	0.011390245
195	0x3c51d131	0.012806223
196	0x3db8953b	0.090128385
197	0xbd3eb69d	-0.046560872
198	0x3c9367b4	0.017993785
199	0xbcb61165	-0.022225091
200	0x3d98b8a4	0.074570924
201	0xbcc5e764	-0.024158187
202	0xbd49c4f8	-0.04926011
203	0x3d9ff042	0.078094974
204	0x3dab0806	0.0835114
205	0xbda72100	-0.08160591
206	0x3c21f01e	0.009883909
207	0x3d467338	0.048449725
208	0x3c12b9a4	0.008955393
209	0x3ce546bc	0.02798783
210	0xbd6dc51f	-0.058049317
211	0x3dbd0971	0.092303164
212	0xbd4841f6	-0.04889103
213	0xbd2d5a06	-0.04232218
214	0xbdb76ee9	-0.08956701
215	0x3c0daf95	0.008647819
216	0x3d0dac0b	0.0345879
217	0xbd92dc79	-0.07170958
218	0xbce8d235	-0.028420547
219	0xbd5e9b1a	-0.054347135
220	0xbd080672	-0.03320927
221	0x3d9ee1e9	0.07757933
222	0xbdb19870	-0.08671653
223	0xbd840cf8	-0.06447786
224	0xbb07c0e7	-0.0020714344
225	0xbdb8efca	-0.09030111
226	0x3d4d4cba	0.050122
227	0x3d71139f	0.058856603
228	0xbcd33020	-0.025779784
229	0xbbb1a1f6	-0.0054209186
230	0x3cb68398	0.022279546
231	0xbc6408e9	-0.01391814
232	0x3d4928b3	0.04911108
233	0x3da402db	0.08008357
234	0x3ce12743	0.027484542
235	0x3ce200c9	0.027588265
236	0x3d0ca0ef	0.034333166
237	0xbaca93c0	-0.001545541
238	0x3d883acd	0.0665184
239	0x3d8cdcdc	0.06878063
240	0x3d2c37b3	0.042045306
241	0x3d734ca9	0.05939928
242	0x3d3b4dbd	0.045728434
243	0x3d689a0d	0.05678754
244	0x3c99bd4c	0.018767022
245	0x3ca79c2f	0.020460216
246	0x3d7cad23	0.061688554
247	0x3d8351dc	0.06412098
248	0xbd8cdf20	-0.06878495
249	0xbdb25bfa	-0.087089494
250	0x3c45df61	0.012077183
251	0xbda55562	-0.08072926
252	0x3c368937	0.011141113
253	0xbda00574	-0.0781354
254	0x3bda1591	0.006655403
255	0xbd611938	-0.05495569

gru.bias_ih_l0 f4 [300]
0	0x3d2463f2	0.040134378
1	0x3d1ac189	0.037782226
2	0x3dc85545	0.09781889
3	0x3d59894d	0.053109456
4	0x3db7c80e	0.08973704
5	0xbd576e7a	-0.052595593
6	0xbc1ccc57	-0.009570203
7	0xbd8a70e7	-0.06759816
8	0xbd08351f	-0.033253785
9	0xbd473695	-0.048636038
10	0x3d72068e	0.059088282
11	0xbdc9ee42	-0.09859897
12	0xbc8f1e53	-0.017470514
13	0xbd0940c5	-0.033509035
14	0xbc6d6404	-0.014489178
15	0x3dc78378	0.097418725
16	0x3c37cb2b	0.011217873
17	0xbd92d518	-0.07169551
18	0xbc9d5cbf	-0.019209264
19	0xbd1608dc	-0.036629543
20	0x3d0fb74f	0.035086926
21	0xbd099811	-0.033592287
22	0xbcb727b3	-0.022357797
23	0xbd03ad08	-0.032147437
24	0x3d97cf85	0.07412628
25	0x3dbaafdb	0.09115573
26	0x3d5a27e2	0.05326069
27	0xbdc6ecca	-0.09713133
28	0xbda6298c	-0.08113393
29	0x3d7bc8ba	0.061470725
30	0x3d742d81	0.05961371
31	0x3cb851ef	0.022500006
32	0xbd80ad4a	-0.06283052
33	0x3da1f2f9	0.079076715
34	0xbd1f21d2	-0.038850613
35	0x3dc292e3	0.09500673
36	0x3d1fdeaa	0.03903071
37	0xbd795340	-0.06087041
38	0x3c5e2c7c	0.013560411
39	0x3db283af	0.08716523
40	0xbdbef34d	-0.0932375
41	0x3cc7cfa6	0.024391007
42	0x3dbaab90	0.09114754
43	0x3d9c0c26	0.07619505
44	0xbaf0c4fe	-0.0018369255
45	0x3dbe8617	0.09302919
46	0x3db604ef	0.0888766
47	0xbda71567	-0.08158379
48	0x3d23720e	0.039903693
49	0x3be407e3	0.006958948
50	0x3d8daad4	0.069173485
51	0x3db0aff4	0.086273104
52	0x3d80ca18	0.06288546
53	0x3c8e6b10	0.017385036
54	0xbc2a592f	-0.01039724
55	0xbcc2447a	-0.023714293
56	0xbd9aad90	-0.07552636
57	0x3b46896e	0.0030294317
58	0x3d96a65d	0.0735595
59	0xbca63d66	-0.020292949
60	0xbcf054da	-0.029337335
61	0xbcf9e468	-0.03050442
62	0x3d323612	0.043508597
63	0x3bc03646	0.005865845
64	0xbdca10a8	-0.09866458
65	0x3daa87f9	0.08326716
66	0x3cb7a2de	0.022416528
67	0x3d98b6d8	0.0745675
68	0xbc6a5e98	-0.0143047795
69	0xbd945135	-0.072420515
70	0xbbab6150	-0.0052301064
71	0x3dac076d	0.08399854
72	0x3d175765	0.03694858
73	0x3d87d66c	0.066326946
74	0xbd95eeae	-0.07320915
75	0x3bce74f6	0.006300564
76	0xbd20855d	-0.039189685
77	0xbdb62410	-0.08893597
78	0xbd533c56	-0.051571213
79	0xbda48deb	-0.08034881
80	0x3d272ceb	0.04081432
81	0xbd7ca274	-0.061678365
82	0x3d674f6b	0.056472223
83	0x3d8855d0	0.066569924
84	0xbd8fe181	-0.07025433
85	0xbd8190c1	-0.06326438
86	0x3dcbdb7b	0.09953972
87	0xbdcec545	-0.1009622
88	0x3d2b3011	0.041793887
89	0x3cf6cf75	0.03012822
90	0xbd786b0f	-0.060648974
91	0x3d7400ed	0.059571195
92	0x3d30c883	0.043159973
93	0x3d5cd122	0.053910382
94	0x3dc6ee9d	0.097134806
95	0xbc428a71	-0.011873827
96	0xbd629052	-0.055313416
97	0xbd1504a7	-0.03638139
98	0x3d8e97de	0.0696256
99	0xbd63760e	-0.055532508
100	0xbc944224	-0.018097945
101	0x3d4bc796	0.049750887
102	0x3d879772	0.06620683
103	0xbd3f1104	-0.046647087
104	0x3c102b1b	0.00879934
105	0xbdae7300	-0.08518028
106	0x3db39227	0.08768111
107	0x3d0e347b	0.034718018
108	0xbccec9db	-0.025242737
109	0xbc9c035a	-0.019044567
110	0xbd3aff7a	-0.045653798
111	0xbd61b420	-0.05510342
112	0x3d652bc9	0.05594996
113	0xbd4b5aca	-0.04964713
114	0x3d670081	0.056396965
115	0xbc4c9089	-0.012485632
116	0x3bb6cf16	0.005578886
117	0x3d4c38a6	0.04985871
118	0xbbd6a64f	-0.0065505872
119	0xbd0f3167	-0.034959223
120	0xbd8b3eaa	-0.067990616
121	0xbd7c59bf	-0.061609026
122	0x3cd3cef6	0.025855523
123	0x3d394e18	0.04524049
124	0x3bde92ab	0.0067923865
125	0xbd9760e9	-0.07391531
126	0x3cff119b	0.031136325
127	0xbd86e5bf	-0.06586789
128	0x3d64c7c3	0.05585457
129	0x3d8144d0	0.06311953
130	0xbd5b9de8	-0.053617388
131	0xbd9e7100	-0.07736397
132	0x3d445f49	0.047942434
133	0x3d336b55	0.04380353
134	0x3c0bc474	0.008530725
135	0x3d10a387	0.0353122
136	0xbdd2dbd7	-0.102958374
137	0xbdc438c9	-0.095811434
138	0xbd84b072	-0.06478967
139	0xbde1f6cb	-0.110334
140	0x3bb614f6	0.005556698
141	0x3d0a2d85	0.033734817
142	0x3d8caed9	0.06869287
143	0x3bd8db7a	0.0066179605
144	0xbd1d46cf	-0.038397606
145	0xbc831b4d	-0.016004229
146	0xbc878b10	-0.016545802
147	0xbdcfbe95	-0.101437725
148	0xbd896c63	-0.06710126
149	0x3d33ef4c	0.043929383
150	0xbd096e54	-0.033552483
151	0xbda7ee92	-0.081998006
152	0xbdb3fc69	-0.08788378
153	0x3d94ec4f	0.07271635
154	0xbd72fe58	-0.059324592
155	0x3cc16a28	0.02361019
156	0x3d6433ad	0.055713344
157	0xbdf73063	-0.12069776
158	0x3d8ada26	0.0677989
159	0xbde87bb6	-0.11351721
160	0x3d1671b9	0.036729548
161	0x3db53ddc	0.08849689
162	0xbdfc4095	-0.123170055
163	0x3cbffa87	0.02343489
164	0xbb6da8e2	-0.0036263992
165	0xbcdead8f	-0.027182369
166	0xbd48b1b9	-0.048997615
167	0xbd86dc5f	-0.06585001
168	0x3d74738e	0.059680514
169	0x3c9b6193	0.018967425
170	0xbdbd20f1	-0.09234799
171	0xbd806e9e	-0.062710986
172	0x3990cd09	0.00027618583
173	0xbd15dcbf	-0.036587473
174	0xbe00abb1	-0.12565495
175	0xbdd8f2e3	-0.10593202
176	0xbd159107	-0.036515262
177	0xbca4e303	-0.020127779
178	0xbc8d3fa9	-0.01724227
179	0xbc80af55	-0.015708605
180	0xbc0644f7	-0.008195153
181	0xbcf6d583	-0.030131107
182	0x3cde377d	0.027126068
183	0xbcf71c17	-0.030164761
184	0xbcd73422	-0.026269976
185	0x3d17c555	0.037053425
186	0xbd4d7e5f	-0.050169345
187	0xbd0d584e	-0.034508042
188	0xbd356619	-0.04428682
189	0xbd383e82	-0.044981487
190	0x3dbc4595	0.09192959
191	0xbd073052	-0.033005066
192	0x3cb91a33	0.0225955
193	0xbd9ade25	-0.07561902
194	0xbae20584	-0.0017244075
195	0x3c2150f3	0.00984596
196	0xbdadf06f	-0.08493125
197	0xbdcfb6c9	-0.101422854
198	0x3d3f1df3	0.04665942
199	0xbcdb5b89	-0.026777046
200	0xbc8e26ce	-0.017352488
201	0x3b442351	0.0029928277
202	0xbc08051e	-0.008302001
203	0xbd2d6ed5	-0.042342026
204	0xbe0a7e4c	-0.13524741
205	0x3cbbeb0d	0.02293923
206	0xbdd99c97	-0.1062557
207	0x3d41e48a	0.047337092
208	0xbc65f4ca	-0.014035413
209	0x3d8f4706	0.069959685
210	0xbdb7678d	-0.089552976
211	0xbcc1b354	-0.02364508
212	0xbd3792b9	-0.04481766
213	0x3db27449	0.08713586
214	0x3d993c3a	0.074821904
215	0x3dd6d009	0.10488898
216	0x3d94a8e3	0.07258775
217	0x3e04bda4	0.12962967
218	0xbda6704a	-0.08126886
219	0x3ba465e8	0.005017031
220	0xbdb8fc0a	-0.09032448
221	0xbdd5b179	-0.10434241
222	0xbd3277a3	-0.043571126
223	0x3d6cc581	0.057805542
224	0xbdac1564	-0.084025174
225	0xbd01d4c6	-0.031697057
226	0xbd8004a7	-0.06250887
227	0xbd923235	-0.071384825
228	0x3dc48a5f	0.09596705
229	0x3d45d354	0.04829724
230	0x3d8b3a53	0.06798234
231	0x3d961740	0.07328653
232	0x3d992df6	0.074794695
233	0xbdb8fb31	-0.09032286
234	0x3d2948f8	0.041329354
235	0x3ccfbd9b	0.025358966
236	0xbdc210fd	-0.094758965
237	0x3e15e1c9	0.14636911
238	0xbd575087	-0.05256703
239	0x3b5e4c4e	0.0033919993
240	0xba245e84	-0.00062701874
241	0x3ca03b6c	0.019559585
242	0x3d1bef07	0.03806975
243	0xbd53d33c	-0.05171512
244	0xbce077bd	-0.027400846
245	0x3e091284	0.1338597
246	0x3c934999	0.01797943
247	0xbccb38ab	-0.024807295
248	0xbd310dc1	-0.043226007
249	0xbcd19cd7	-0.025587482
250	0xbdea5d91	-0.114436276
251	0x3d3c5c39	0.045986388
252	0x3c468bdf	0.012118309
253	0xbdae44c5	-0.085092105
254	0x3cda79e3	0.026669448
255	0x3dc232cd	0.09482346

gru.bias_hh_l0 f4 [300]
0	0xbdc1ffa5	-0.094725884
1	0x3c50ada5	0.012736713
2	0x3dae0c18	0.084984004
3	0x3c4407ef	0.011964782
4	0xbc1c8e05	-0.0095553445
5	0xbd46e190	-0.048554957
6	0x3d2a2bbd	0.04154562
7	0xbd88fff3	-0.066894434
8	0xbdc6aa41	-0.09700442
9	0x3db6d7ed	0.08927903
10	0xbdbf4910	-0.093401074
11	0x3dbfd5dd	0.09366963
12	0x3d7296d4	0.059225872
13	0xbd0b01d1	-0.03393728
14	0x3baad516	0.00521339
15	0x3d74c58b	0.059758704
16	0xbda1104a	-0.07864435
17	0xbd476de6	-0.04868879
18	0x3c7c0d04	0.015383963
19	0x3d89e330	0.06732786
20	0xbc048d28	-0.008090295
21	0x3d164203	0.036684047
22	0xbda4ab17	-0.08040445
23	0xbdbc6b1a	-0.092001155
24	0xbc496002	-0.012290956
25	0xbd0b7476	-0.034046613
26	0xbd785538	-0.060628146
27	0xbc503df6	-0.012710085
28	0xbd506809	-0.050880466
29	0x3cdc1201	0.026864054
30	0x3d2cf6ca	0.042227544
31	0x3d3dacc8	0.046307355
32	0xbbaa4af0	-0.0051969215
33	0x3d9641b6	0.07336752
34	0x3d70897a	0.058724858
35	0xbd9ddb83	-0.07707884
36	0x3cc00623	0.023440426
37	0xbd02691a	-0.031838514
38	0xbb964c19	-0.0045867083
39	0xbd27bef9	-0.04095361
40	0x3d8f8a14	0.07008758
41	0x3db2d1f0	0.08731449
42	0xbd100c6c	-0.035168096
43	0xbdb44ff2	-0.08804311
44	0xbcf9614c	-0.030441903
45	0x3d1da273	0.038485
46	0xbd9c164f	-0.076214425
47	0x3b85c4a5	0.0040822797
48	0x3c911675	0.017710904
49	0xbd5c1658	-0.053732246
50	0xbd05f148	-0.032700807
51	0x3da1d782	0.07902433
52	0x3d642660	0.05570066
53	0x3d452782	0.04813338
54	0x3c479c47	0.0121832555
55	0xbd544e0b	-0.05183224
56	0xbdac03ff	-0.083992
57	0x3d0213ba	0.031757094
58	0x3dc997ed	0.09843431
59	0xbae8c009	-0.0017757426
60	0xbd90de55	-0.070736565
61	0xbd82e3f0	-0.06391132
62	0xbda44446	-0.080208346
63	0x3dc9cebf	0.09853887
64	0xbcc4d55a	-0.024027515
65	0x3d0c95e2	0.034322627
66	0xbc511715	-0.012761851
67	0x3d99ce7a	0.075100854
68	0x3c2e4cf8	0.010638468
69	0xbb0f0443	-0.0021822609
70	0xbd40ec2b	-0.047100227
71	0xbdca7a81	-0.09886647
72	0x3bf2ab85	0.0074057006
73	0x3b4e86b2	0.003151339
74	0xbd8fc111	-0.07019246
75	0xbd8f27f9	-0.06990046
76	0x3da3a1c6	0.0798984
77	0x3dc8e267	0.09808808
78	0xbd1a258c	-0.037633464
79	0xbd73a50b	-0.05948357
80	0xbd179678	-0.037008733
81	0xbce62438	-0.028093442
82	0xbc80e37c	-0.015733473
83	0x3dae2516	0.08503167
84	0x3cd1a773	0.025592541
85	0xbd34f980	-0.044183254
86	0x3cb7face	0.02245846
87	0xbd53bc75	-0.0516934
88	0xbdabec82	-0.0839472
89	0x3c42893e	0.011873541
90	0xbd257c9a	-0.040402032
91	0x3ab99847	0.0014159762
92	0x3d73f3cf	0.059558686
93	0xbc964a3b	-0.018345943
94	0x3cc09cd2	0.023512278
95	0x3c19451f	0.009354859
96	0xbd1d5b0a	-0.0384169
97	0xbd13cced	-0.036084104
98	0x3db4f715	0.0883619
99	0x3dc1455c	0.094370574
100	0xbd732188	-0.05935815
101	0xbdb5c63e	-0.08875702
102	0xbdb36971	-0.08760346
103	0x3cbfaf7c	0.023399107
104	0xbceebfb1	-0.02914414
105	0xbcccb958	-0.024990723
106	0x3bffd2e8	0.0078071244
107	0xbda315ef	-0.07963168
108	0xbd3dce8c	-0.046339557
109	0xbdb3b18f	-0.08774101
110	0xbd46e7e0	-0.048560977
111	0xbd2ec413	-0.04266746
112	0xbdd709f9	-0.10499949
113	0x3d8a5057	0.06753605
114	0x3d1abfeb	0.037780683
115	0xbc136755	-0.008996804
116	0xbc5d8360	-0.013520092
117	0x3c16776d	0.009183747
118	0x3d21bdd8	0.03948769
119	0x3cc0bb33	0.023526764
120	0xbddb1ad6	-0.10698478
121	0xbdd54381	-0.10413266
122	0xbdccf383	-0.10007384
123	0x3d9a31a6	0.07529001
124	0xbc3bdab0	-0.011465713
125	0x3da26c14	0.079307705
126	0x3d70f315	0.05882557
127	0xbc054093	-0.0081330715
128	0xbd9258e7	-0.07145863
129	0xbd70c2a8	-0.05877939
130	0xbda2f4d6	-0.07956855
131	0x3d76cf72	0.06025643
132	0x3d42f60a	0.047597922
133	0xbc446858	-0.011987768
134	0x3c9288af	0.017887441
135	0x3b64d343	0.003491596
136	0xbd9c46b7	-0.07630675
137	0x3d84a95b	0.064776145
138	0xbcb5e7b6	-0.022205215
139	0xbd0b2b49	-0.033976827
140	0xbd9b3517	-0.075784855
141	0xbd96f856	-0.07371585
142	0xbbabfa83	-0.005248369
143	0x3d9cfe54	0.07665697
144	0x3d10671d	0.035254586
145	0x3cfae9ce	0.030629065
146	0xbd29abaf	-0.041423496
147	0xbda361de	-0.07977651
148	0x3d74c8e3	0.059761893
149	0x3bd9014e	0.00662247
150	0xbd054c1b	-0.032543283
151	0x3c02babc	0.007979091
152	0xbc20c034	-0.00981145
153	0xbcfbdadb	-0.030744007
154	0x3d728632	0.05921001
155	0xbdbecec8	-0.09316784
156	0xbd82ff7c	-0.06396386
157	0x3d3eedb2	0.046613403
158	0xbd4f5a0e	-0.050622992
159	0x3da4ba35	0.08043329
160	0xbbb94a17	-0.005654584
161	0xbd5ffa35	-0.054681975
162	0xbdfbcb6f	-0.12294661
163	0x3c8e39e1	0.017361583
164	0xbdb65dde	-0.089046225
165	0xbde501bd	-0.11181972
166	0xbddad322	-0.10684802
167	0x3cc6d935	0.024273494
168	0xbd44baf8	-0.04802987
169	0xbd14d3f3	-0.036334943
170	0xbd1fad78	-0.038983792
171	0xbd260b63	-0.040538203
172	0x3d2eab85	0.042644043
173	0xbd868775	-0.06568805
174	0xbdea13c2	-0.1142955
175	0xbdafb645	-0.08579687
176	0x3d9e8a16	0.077411816
177	0xbd47cdeb	-0.048780363
178	0xbd45c787	-0.048285987
179	0xbd4e5458	-0.050373405
180	0xbcda043f	-0.026613353
181	0x3d9acce7	0.07558613
182	0x3c847b9d	0.016172225
183	0x3dc3db0a	0.09563263
184	0xbd69481a	-0.056953527
185	0x3d2457a7	0.040122654
186	0x3c4f9be7	0.012671447
187	0x3c8775bb	0.01653563
188	0xbddea67c	-0.10871598
189	0xbcecdcf7	-0.028913958
190	0xbd92cdfd	-0.071681954
191	0x3d0d7224	0.03453268
192	0x3caa6782	0.02080131
193	0xbdadbb45	-0.084829845
194	0xbcc2911a	-0.02375083
195	0x3d8bcc0a	0.06826027
196	0x3d64ffd8	0.055908054
197	0xbda26062	-0.0792854
198	0x3da034bc	0.07822558
199	0x3d97d5cc	0.074138254
200	0x3d8795e5	0.06620387
201	0x3d8c4b67	0.06850319
202	0x3c0aa9e6	0.0084633585
203	0xbdb7540c	-0.089515775
204	0xbd418494	-0.047245577
205	0xbcb64ec7	-0.02225436
206	0xbd43f2a5	-0.047838826
207	0xbb89ab9e	-0.0042013666
208	0x3dc2cbd8	0.09511536
209	0xbd20a8d8	-0.039223522
210	0xbd90a711	-0.070631154
211	0xbc0ac782	-0.008470418
212	0x3b42ca4d	0.0029722631
213	0xbd05d8ce	-0.032677464
214	0x3c4634aa	0.012097517
215	0x3dcd4248	0.10022408
216	0x3d891b9b	0.066947185
217	0xbd936952	-0.07197823
218	0xbd67e638	-0.056616038
219	0xbd7b1e48	-0.061308175
220	0x3d21ff46	0.03955009
221	0x3d8e321f	0.069431536
222	0xbdd5713a	-0.10421987
223	0x3d30bc23	0.04314817
224	0x3d826827	0.06367522
225	0x3dc2a007	0.09503179
226	0xbb9b8b91	-0.004746862
227	0xba7943a3	-0.0009508675
228	0xbdb94fdb	-0.09048434
229	0x3cb7eb7a	0.022451151
230	0xbd20748c	-0.039173648
231	0x3d952223	0.07281902
232	0x3db1bc3d	0.08678482
233	0xbda76953	-0.08174386
234	0xbd1f5643	-0.038900625
235	0x3de49501	0.11161233
236	0xbd875c45	-0.06609396
237	0x3d729003	0.05921937
238	0xbdc8ea3e	-0.09810303
239	0xbd39534f	-0.045245465
240	0xbcac9349	-0.021066325
241	0x3d98de05	0.07464222
242	0xbd1f1aab	-0.038843792
243	0x3d9627da	0.0733182
244	0x3bfeb12b	0.007772585
245	0x3e1b1624	0.15145165
246	0x3c7d2cec	0.015452605
247	0xbd33f6e8	-0.04393664
248	0x3ba8d0e9	0.005151857
249	0xb9f1adcb	-0.00046096588
250	0xbde297a0	-0.110640764
251	0x3c0ed2b0	0.008717224
252	0xbd30aa9b	-0.043131452
253	0xbdcdbaef	-0.100454204
254	0xbd9646d3	-0.073377274
255	0x3dae427d	0.085087754

gru.weight_ih_l0_reverse f4 [300, 100]
0	0x3d68d1cd	0.056840707
1	0x3d88860d	0.06666193
2	0x3c8512c1	0.016244294
3	0xbdc005c0	-0.09376097
4	0x3d2310ef	0.03981107
5	0x3ca840a7	0.020538641
6	0xbc0c2f0a	-0.008556137
7	0x3db55f02	0.08856012
8	0x3da8fa15	0.08250824
9	0x3da9977e	0.08280848
10	0x3d276a13	0.040872645
11	0x3d201247	0.03907993
12	0xbc72752a	-0.014798442
13	0xbd46bad1	-0.048518006
14	0xb9c1322b	-0.00036849207
15	0x3b0e5b36	0.0021721846
16	0xbd9fdcd0	-0.078057885
17	0x3cc097bf	0.023509858
18	0xbd830c7a	-0.06398864
19	0xbd4259e6	-0.047449015
20	0xbdc81f91	-0.09771646
21	0x3d336cb3	0.043804836
22	0xbdb1c47b	-0.08680054
23	0xbd9c0280	-0.07617664
24	0xbd15347f	-0.036427017
25	0xbd84a327	-0.06476431
26	0xbd17fa4a	-0.03710393
27	0xbd80fdfa	-0.06298442
28	0xbc2c6459	-0.010521972
29	0x3c2a38a0	0.010389477
30	0xbb6521f7	-0.0034962872
31	0xbcc5a9ea	-0.024128873
32	0xbba61f01	-0.005069614
33	0xbd838659	-0.06422109
34	0xbdb8e67d	-0.09028337
35	0xbcd3afeb	-0.02584072
36	0xbda34f8d	-0.079741575
37	0xbd7b68b2	-0.061379142
38	0xbd9c6356	-0.07636134
39	0x3dcaa1c6	0.09894137
40	0xbd80fc2d	-0.06298099
41	0x3d9b628d	0.075871564
42	0xbcd2e97f	-0.025746105
43	0xbb3a884e	-0.0028462592
44	0x3d00f319	0.031481836
45	0x3c1c4957	0.00953897
46	0x3ca4cc70	0.020117015
47	0x3d4d1f75	0.050078828
48	0xbda599e6	-0.080859944
49	0xbc8cfd5c	-0.017210655
50	0x3d85ff01	0.06542779
51	0x3dcaaf84	0.09896758
52	0x3dab39e0	0.08360648
53	0x3dbd6159	0.09247083
54	0xbdb58f2c	-0.088651985
55	0x3d91f647	0.07127052
56	0x3cab3ed2	0.020903978
57	0x3d7061d1	0.058687035
58	0xbd2f8479	-0.042850945
59	0xbd8ba970	-0.06819427
60	0x3da9700f	0.082733266
61	0x3d06db0c	0.032923743
62	0x3d5c432b	0.053774994
63	0x3cc8dc7f	0.024519203
64	0x3a91cca8	0.0011123614
65	0xbd9cd946	-0.07658629
66	0x3d9db423	0.07700374
67	0xbd2e66bb	-0.04257844
68	0xbce4af70	-0.027915686
69	0xbd45f3fd	-0.04832839
70	0x3da533c4	0.08066514
71	0x3da240a0	0.079224825
72	0xbc1ec1ed	-0.00968979
73	0xbcf57cfa	-0.02996682
74	0xbdaa7251	-0.083225854
75	0x3d227b37	0.039668288
76	0xbdbd9128	-0.09256202
77	0xbdb0f777	-0.0864095
78	0xbbdb5f4c	-0.00669471
79	0x3d0808c7	0.033211496
80	0xbc823ca5	-0.015898058
81	0xbcbfbc5d	-0.023405248
82	0x3c1c6630	0.009545848
83	0x3dbba6f0	0.091627
84	0x3dad8c5e	0.084740385
85	0x3c09dda1	0.008414657
86	0x3d7e34ae	0.062061958
87	0x3c96d63b	0.0184127
88	0xbdc7eecd	-0.097623445
89	0x3dbbfc54	0.09178987
90	0xbdc14933	-0.0943779
91	0x3d9a2bf5	0.075279154
92	0x3cdc27ae	0.02687439
93	0xbc96b545	-0.018396983
94	0x3cacddcf	0.02110186
95	0x3cc64601	0.024203302
96	0x3db11024	0.08645657
97	0x3dc1b563	0.09458425
98	0xbd82d56b	-0.063883625
99	0x3ca59279	0.020211445
100	0x3d594d71	0.05305237
101	0x3d10c9db	0.035348754
102	0x3d1d3e9b	0.038389783
103	0xbd0f1fa8	-0.0349423
104	0xbd642e9c	-0.055708513
105	0x3d147094	0.036240175
106	0x3db1f22a	0.08688767
107	0x3d7b8785	0.06140854
108	0xbd9187d3	-0.071059845
109	0xbd58108b	-0.05275015
110	0xbcefcc4e	-0.029272225
111	0x3d40a9ba	0.047036864
112	0x3d77efaa	0.060531296
113	0xbd944387	-0.07239442
114	0xbdaca2a1	-0.084294565
115	0xbd4e7352	-0.050402947
116	0xbd2a71f9	-0.0416126
117	0xbdbf4d45	-0.0934091
118	0xbd580435	-0.052738387
119	0x3d969093	0.07351794
120	0xbdc240fe	-0.094850525
121	0x3d43614f	0.047700223
122	0x3c36fbd0	0.011168435
123	0xbd84966c	-0.06474003
124	0xbd31d172	-0.043412633
125	0x3bb98728	0.005661864
126	0x3d00a973	0.0314116
127	0x3d0398f3	0.032128286
128	0x3c1e953f	0.009679138
129	0x3dad2cb4	0.08455792
130	0xba9c20bc	-0.0011911611
131	0x3cf4ba77	0.02987407
132	0x3c01e54a	0.007928202
133	0x3d3e4484	0.04645206
134	0x3d81686b	0.06318744
135	0xbce35106	-0.027748596
136	0x3d80cb29	0.0628875
137	0x3d726528	0.0591785
138	0x3db18bd0	0.08669245
139	0xbd970dfd	-0.07375715
140	0xbca7ed1b	-0.020498803
141	0xba978788	-0.0011560777
142	0xbb86948d	-0.004107064
143	0x3c44a783	0.0120028285
144	0xbc61b9c2	-0.013777198
145	0x3c530ff9	0.012882226
146	0xbd2f76a5	-0.042837758
147	0x3d915d30	0.07097852
148	0x3d55d4be	0.05220484
149	0xbd0a424e	-0.03375464
150	0x3d3fe3ac	0.046847984
151	0x3d54c551	0.051945988
152	0x3d9ace17	0.0755884
153	0xbc6d4a9a	-0.014483118
154	0x3d4ee734	0.05051346
155	0x3cbbbfdc	0.022918634
156	0xbd66a9a1	-0.056314114
157	0x3d7bfd75	0.061521012
158	0x3ba4fbb4	0.005034888
159	0xbdb1e7e1	-0.086868055
160	0x3cb1db32	0.021710966
161	0x3d657066	0.056015395
162	0x3d9f2eb3	0.07772579
163	0x3d1e5a2f	0.038660225
164	0x3da12b82	0.078696266
165	0xbd49fad4	-0.049311474
166	0xbc818b47	-0.015813483
167	0xbc4e9c52	-0.012610512
168	0xbd3fa8e0	-0.04679191
169	0x3bb5d61d	0.005549206
170	0xbc46ad27	-0.012126244
171	0x3da49c27	0.08037596
172	0x3dbb5713	0.091474675
173	0x3ce7477e	0.028232332
174	0xbdbc6fe6	-0.092010304
175	0x3d326614	0.04355438
176	0x3daf1fd1	0.085509904
177	0xbd5ff6b2	-0.054678626
178	0x3d8cd571	0.06876648
179	0xbd11afe1	-0.03556812
180	0xbd3df249	-0.04637364
181	0x3d2ed39e	0.042682283
182	0x3d9221fc	0.07135388
183	0x3d8049c8	0.06264073
184	0xbd9bd7e1	-0.07609535
185	0xbd10c800	-0.035346985
186	0xbd841346	-0.064489886
187	0xbd7bf359	-0.06151137
188	0x3cff4f28	0.031165674
189	0x3d0791c0	0.033097982
190	0xbbc1f878	-0.0059195124
191	0x3da886bc	0.082288235
192	0x3dc0ba09	0.094104834
193	0xbc677db5	-0.014129092
194	0x3d34b5fe	0.044118874
195	0xbd10668c	-0.035254046
196	0xbd8f3b4f	-0.06993734
197	0xbcabec55	-0.020986715
198	0x3d9863fa	0.07440944
199	0x3b08c037	0.0020866522
200	0xbd186c53	-0.03721268
201	0xbcc025e7	-0.023455573
202	0xbbf2a38b	-0.0074047497
203	0xbda1a11b	-0.078920566
204	0xba4e99fe	-0.0007881223
205	0xbc7954dd	-0.015217987
206	0x3d3ac10c	0.04559426
207	0xbc92e416	-0.017931025
208	0x3c524ba2	0.012835415
209	0x3dbd4c03	0.09243014
210	0x3cfdd72e	0.030986395
211	0xbd285cad	-0.041104008
212	0xbdad56cf	-0.08463823
213	0x3d109b7a	0.035304524
214	0x3d188747	0.037238386
215	0xba274fea	-0.00063824526
216	0xbd54bcb1	-0.051937763
217	0xbcfac3b9	-0.030610906
218	0xbccca860	-0.024982631
219	0xbd3254f8	-0.043538064
220	0x3d4fa973	0.05069871
221	0xbcbe041b	-0.023195317
222	0x3c9ec1f3	0.019379592
223	0x3dc43938	0.09581226
224	0x3d8ed7f3	0.06974783
225	0xbcfc328d	-0.030785823
226	0x3bcf3599	0.006323528
227	0xbda6c51f	-0.081430666
228	0x3d4d4df4	0.05012317
229	0x3c1724d0	0.009225085
230	0xbd6a0eab	-0.057142895
231	0x3dc33b16	0.09532754
232	0x3c7e30fb	0.015514608
233	0xbdae17c7	-0.08500629
234	0xbd7015e2	-0.05861462
235	0x3d1f460f	0.038885172
236	0xbdad8be8	-0.084739506
237	0xbd4bc960	-0.049752593
238	0x3ca40fa2	0.020026986
239	0x3b8c559e	0.0042826673
240	0x3d00582f	0.0313341
241	0x3d9f6889	0.077836104
242	0xbd4a4c02	-0.049388893
243	0xbcf4e03a	-0.029892076
244	0x3d576bb8	0.052592963
245	0x3dcbc75f	0.099501364
246	0x3d950da7	0.072779946
247	0x3d83fff4	0.064453036
248	0xbdb26a9d	-0.08711741
249	0xbdac7672	-0.08421029
250	0xbd950805	-0.0727692
251	0x3d7d0aae	0.061777763
252	0xbd8002c3	-0.06250527
253	0x3dccce62	0.10000302
254	0xbce0f9a8	-0.027462795
255	0x3b77a431	0.0037787075

gru.weight_hh_l0_reverse f4 [300, 100]
0	0x3d5f1804	0.054466262
1	0x3d11d68f	0.03560501
2	0xbc27af3a	-0.010234648
3	0x3d5411b5	0.0517747
4	0x3cf11b95	0.029432097
5	0xbbc0937d	-0.005876957
6	0x3d8af38d	0.06784735
7	0xbd7feb99	-0.062480543
8	0x3ab39c76	0.0013703245
9	0xbc8feb39	-0.017568218
10	0x3d320553	0.04346211
11	0xb9beaec2	-0.0003636983
12	0xbd4f3940	-0.050591707
13	0xbda82eb1	-0.08212031
14	0xbc5d4da7	-0.013507283
15	0x3dc398ca	0.095506266
16	0x3cc589d4	0.024113573
17	0x3d979f6d	0.07403455
18	0x3cfd96bd	0.030955667
19	0x3d2e78dc	0.04259573
20	0xbc16d2b7	-0.009205512
21	0x3d988949	0.0744806
22	0x3ba353e1	0.0049843644
23	0xbdb8b34d	-0.09018574
24	0xbdcbe02a	-0.09954865
25	0x3d379cae	0.044827156
26	0xbcbe32b0	-0.023217529
27	0x3dcaa1e2	0.09894158
28	0xbd97cb7b	-0.07411858
29	0xbda30445	-0.07959799
30	0x3dca5f59	0.09881467
31	0xbd734f3d	-0.05940174
32	0xbd524bdb	-0.051341873
33	0x3da2b180	0.07944012
34	0xbc0088a6	-0.0078450795
35	0x3d709278	0.058733433
36	0x3ca9f221	0.020745339
37	0x3d4f0410	0.050540984
38	0x3d6fa49a	0.058506586
39	0x3d9020c4	0.070374995
40	0xbd89025f	-0.066899054
41	0x3d4165f6	0.04721638
42	0xbd79142e	-0.06081026
43	0x3d3ababa	0.045588233
44	0x3d5a369b	0.053274732
45	0x3d3698d7	0.044579353
46	0xbbcd1085	-0.006258073
47	0x3d5c7246	0.053819917
48	0x3dadb589	0.08481891
49	0xbd8dd44a	-0.069252566
50	0xbd08a106	-0.03335669
51	0x3a931980	0.001122281
52	0x3cdb1129	0.026741581
53	0x3b789655	0.0037931402
54	0x3d859c2b	0.06523927
55	0xbd335061	-0.043777827
56	0x3b745f95	0.0037288417
57	0x3d6dc45e	0.0580486
58	0xbcae2a3d	-0.021260375
59	0xbd1dc23c	-0.038515314
60	0x3d846c68	0.06465989
61	0xbb5304b3	-0.0032198846
62	0xbcfdb235	-0.030968765
63	0xbc19e831	-0.009393738
64	0xbac1635a	-0.001475434
65	0xbcc95e0b	-0.024580976
66	0xbda174eb	-0.078836285
67	0xbd4a957e	-0.049458973
68	0x3ced55b7	0.028971536
69	0x3dcabf7c	0.09899804
70	0xbdaef062	-0.08541943
71	0x3d1faf7e	0.03898572
72	0xbd63a73b	-0.055579405
73	0xbd14be34	-0.036314204
74	0x3d8563fd	0.06513212
75	0xbdc7e4c3	-0.0976043
76	0x3db0d4f3	0.08634367
77	0xbd92c47f	-0.07166385
78	0x3d40eb46	0.047099374
79	0x3d25fb9b	0.040523153
80	0x3ce7bdb0	0.028288692
81	0x3d87eff1	0.06637562
82	0x3d1b90ea	0.037979998
83	0xbd43eee6	-0.047835253
84	0x3d527ac3	0.051386606
85	0x3c2c78d5	0.0105268555
86	0x3d3bb801	0.045829777
87	0xbd48f182	-0.049058445
88	0xbda41bf4	-0.08013144
89	0xbc1fb177	-0.009746901
90	0xbbbb98ad	-0.0057249875
91	0x3d0ba776	0.03409525
92	0x3dc4d2b4	0.09610501
93	0xbd114b3c	-0.03547214
94	0xbd87fe0d	-0.06640253
95	0xbdaa2614	-0.08308044
96	0xbd99522f	-0.074863784
97	0x3cbab072	0.022789214
98	0xbbb64c0e	-0.0055632656
99	0x3d5a6dcc	0.053327367
100	0x3c5066ab	0.01271979
101	0xbd6cb64a	-0.057791032
102	0xbda0bedb	-0.07848903
103	0x3d9dceae	0.07705437
104	0xbdaee7d2	-0.0854031
105	0xbc4e6c08	-0.012598999
106	0x3d972463	0.07379987
107	0xbcdc7cb7	-0.026914937
108	0x3da98617	0.08277529
109	0x3d10fbf6	0.03539654
110	0x3c8a62ec	0.016892873
111	0xbdb8da98	-0.090260684
112	0xbdb8fa38	-0.090321004
113	0xbd27bc0d	-0.040950824
114	0xbd8a2d43	-0.06746914
115	0xbcbe6ad1	-0.023244293
116	0x3cb312fc	0.021859638
117	0x3d2f6806	0.042823814
118	0xbda6de7a	-0.08147903
119	0x3da67f6d	0.08129773
120	0xbd8400ed	-0.06445489
121	0x3d2682df	0.040652152
122	0xbc8d0cad	-0.017217958
123	0x3db16c40	0.08663225
124	0x3cf19a82	0.02949262
125	0xbd5e1513	-0.054219317
126	0xbd2ffd69	-0.04296628
127	0x3d85874e	0.06519948
128	0xb8ee7380	-0.00011370238
129	0x3b7674c9	0.003760623
130	0xbd26a625	-0.04068579
131	0xbd8fc780	-0.070204735
132	0x3d8e0d22	0.06936099
133	0xbd4b9782	-0.049705036
134	0xbdb382a6	-0.087651536
135	0xbcea759c	-0.028620534
136	0x3d2c7b13	0.04210956
137	0x3a8a441d	0.0010548864
138	0xbc28ed14	-0.01031043
139	0x3db04103	0.0860615
140	0xbd13711d	-0.035996545
141	0x3cb391fd	0.021920199
142	0x3dcb5980	0.0992918
143	0x3ccd5939	0.025066959
144	0xb9c07bcb	-0.00036713327
145	0x3d5cd65f	0.053915378
146	0x3c35136e	0.011051996
147	0xbd3595c7	-0.044332292
148	0x3d53db0a	0.051722564
149	0xbd090016	-0.033447348
150	0xbdb287f6	-0.08717339
151	0xbdc70616	-0.09717958
152	0xbcbb84cf	-0.022890477
153	0x3dc28419	0.09497852
154	0xbc4e5884	-0.012594346
155	0xbc7ceb2f	-0.0154369315
156	0x3c01d163	0.007923457
157	0xbcd22fe8	-0.02565761
158	0xbd94caa3	-0.072652124
159	0xbdc245c6	-0.094859645
160	0xbd8e0efa	-0.0693645
161	0x3d8f1848	0.06987053
162	0xbcb08746	-0.021548878
163	0xbd6e0bac	-0.0581166
164	0xbcbdb44a	-0.023157258
165	0x3daa3777	0.0831136
166	0x3c347ab0	0.011015579
167	0xbd64c315	-0.055850107
168	0x3947b01c	0.00019043725
169	0x3d9c96e5	0.07645968
170	0xbc8faf45	-0.01753963
171	0xbd01f316	-0.031725965
172	0xbd31a3df	-0.04336917
173	0xbbde9fd8	-0.006793957
174	0x3dc58316	0.09644143
175	0xbdb2fc85	-0.087395705
176	0xbd4f9857	-0.050682392
177	0xbd98d240	-0.07461977
178	0x3da53646	0.080669925
179	0x3d9ab5a0	0.075541735
180	0xbd2a24ab	-0.041538876
181	0xbda34ca0	-0.079735994
182	0xbda39e34	-0.07989159
183	0xbd741f50	-0.059600174
184	0xbd993e32	-0.07482566
185	0x3d1ff3b7	0.039050784
186	0xbc2d3fcb	-0.010574291
187	0x3d9ec993	0.07753291
188	0xbd8067a8	-0.06269771
189	0xbdc52a36	-0.09627192
190	0x3d831192	0.06399836
191	0xbd63e170	-0.055634916
192	0x3d9df509	0.07712752
193	0x3d3b4cf4	0.045727685
194	0xbca40638	-0.020022497
195	0xbd40f32e	-0.047106914
196	0xbd015916	-0.0315791
197	0xbda72963	-0.08162191
198	0xbcc63529	-0.02419527
199	0xbcee0413	-0.029054677
200	0x3b93ea69	0.004514028
201	0x3d6cc9f2	0.057809778
202	0xbd32c78c	-0.043647334
203	0xbcfd892b	-0.030949196
204	0x3c98cf33	0.018653488
205	0x3d9d712b	0.07687601
206	0xbd9ec320	-0.07752061
207	0xbc91a71d	-0.017779881
208	0xbdbf8d14	-0.093530804
209	0xbc98f9db	-0.018673828
210	0xbd51af8b	-0.0511928
211	0x3ccba35d	0.024858171
212	0x3b682b12	0.0035426063
213	0xbd994d41	-0.07485438
214	0xbd9a2cd7	-0.07528084
215	0xbd65171e	-0.05593025
216	0xbbd2116a	-0.0064107673
217	0x3c9e8356	0.019349735
218	0x3da99a66	0.08281402
219	0xbba9f34e	-0.005186475
220	0x3cd48c02	0.025945667
221	0xbc80bdd2	-0.015715513
222	0x3d5f85e2	0.05457104
223	0xbd9c16d9	-0.07621545
224	0x3d140076	0.036133252
225	0x3d997073	0.07492151
226	0xbd46c7bb	-0.04853032
227	0x3db8dfa4	0.09027031
228	0xbd9e0a38	-0.07716793
229	0x3d651372	0.055926748
230	0x3dcbe8d8	0.09956521
231	0xbd0fd4c0	-0.035115004
232	0xbda8c0e6	-0.082399175
233	0xbcab4575	-0.020907143
234	0xbdaf2268	-0.08551484
235	0x3a985d74	0.0011624531
236	0xbd4bac6b	-0.049724977
237	0x3c9186d6	0.01776449
238	0x3c5193d8	0.012791596
239	0xbc818df9	-0.015814768
240	0xbda1d789	-0.07902438
241	0xbd6ebc6c	-0.05828516
242	0xbd1a9cba	-0.037747122
243	0xbd34c41f	-0.04413235
244	0xbdb8254c	-0.08991489
245	0x3d8668a5	0.06562928
246	0xbcb0f4ca	-0.0216011
247	0x3dba8043	0.09106495
248	0x3d35a6f4	0.044348672
249	0xbd8d8fe9	-0.06912214
250	0x3d902e62	0.07040097
251	0x3a8dcebb	0.0010819057
252	0x3cd21f4f	0.025649695
253	0x3da840de	0.082154974
254	0x3d90b310	0.070654035
255	0xbd90594a	-0.070482805
