parameter/crf_lstm_parameter/6_last_sent_net.pth (torch_old, 80969 bytes, 2 tensors)

lastnet.weight f4 [100, 200]
00000000: 95f9 98bd f732 10bd 63e8 bfbc 1eda eebc
00000010: 9f40 4e3b 04fc 62bd b93f 1ebd ad00 a43d
00000020: 0578 a43c bf16 3d3d 8cda 103d 4681 11bd
00000030: 0c6f 453d 5ddd 6c3d d3a4 a1bd 64c8 7abd
00000040: b832 aabc cebe fd3c eb03 96bc eb6a 653d
00000050: de3a d93c 247e 99bd daba a43d 3ee0 95bd
00000060: 35c0 0dbd 101f 5b3d 5f52 ec3b b1a4 80bd
00000070: 88d8 d3bc 3455 7d3d 1752 47bd 5106 b4bc
00000080: befd ffbc df71 9c3c 4f55 49bd 38c3 593d
00000090: 1e74 983b 3412 993d 6fe4 143d ac2c 8dbd
000000a0: 230c 8bbc 9bb7 623d 21cf d03c 61af 99bd
000000b0: 6962 2cbc c9aa 14bd 337b 52bd fb1e 3b3d
000000c0: fbb5 f1bc 19ff 1b3d 2a95 c8bc f73b 09bd
000000d0: dfd0 b63d 9e65 faba 2d2e 073d eca4 8bbd
000000e0: d9db 663d 7440 52bd bbe1 9fbd bef5 c53c
000000f0: 584e 1abd af89 9cbc d841 3d3d 849f 663d
00000100: 60c2 c0bc 20b7 aabd 56ac 343b a957 823c
00000110: 00ea b73c b833 18bb 20e0 9dbb b64b 783c
00000120: dc9b 753d 41a3 703c b477 5bbd c4f5 68bc
00000130: 6d81 7cbd ee99 d43c 985f 18bd 5f3c 963d
00000140: 4cfc 16bd d653 403d a46c 1dbd 6de8 003d
00000150: 9ae8 8ebd 6a62 67bd e7a4 82bd e2c8 d53c
00000160: 3b33 aa39 ad34 583c c14d 203c 8cb7 35bd
00000170: 681b 2639 5f72 893d c139 16bd 6648 363d
00000180: 03eb 123d 2238 583d a305 10bd ad9c 713d
00000190: a7f7 9a3c fbb2 4b3d f497 6a3d 5dab 62bd
000001a0: b62d c93c e4b7 d0bc d662 2d3d 08e1 22bd
000001b0: 9560 adbc 08b8 b03c 254a 823d 2131 0fbd
000001c0: 0c31 71bd a3e9 b63b a47c 8fbd 2025 0dbd
000001d0: 39ae 01bc 2ba1 26bd 4cde 95bd bdf2 233d
000001e0: d5b6 b23c 4476 353d 046f 683d 6ed2 883c
000001f0: bc98 25bd f9e9 54bd 428a 87bd db04 8d3d
00000200: 0967 d83c b04c bbbc e5e6 3fbd 5a22 6bbd
00000210: 2374 d1bc 1e3f 1cbd a3bb 033d 18db 84bc
00000220: f913 9cbd b576 6e3d c324 31bd 5c78 a33d
00000230: c357 c33d 061d 1fbd 4895 4abd 247d 86bd
00000240: f274 55bd 20fd 65bd ca29 003c 75eb a3bd
00000250: b4b7 45bd 8424 46bd 1196 3c3d 6a5c 043c
00000260: 5ff0 90bd d71e 673d 7b6b 8a3d 9e38 8f3d
00000270: 300a d2bc 9ac1 883c 1770 99bc 85a3 64bd
00000280: c029 2c3b 3b8d 48bd 4fd1 26bc cb9f 96bd
00000290: 8289 fb3c 02e2 1cbc d658 ab3c 5e2e 0fbd
000002a0: c6e5 ac3c f5ac abbc abb9 9c3d a6d9 52ba
000002b0: 9109 91bd 3263 133d 9573 8ebd b2ee 51bd
000002c0: 5fe6 063b 8fab 663d ae00 f23b 7036 93bd
000002d0: 17a7 203d ae8b 183d e0e0 31bd 9232 613d
000002e0: b05d 2abd 582c 913d ca9f 87bc 8754 cbbc
000002f0: 4908 463d d08f ecbb aa9b e1bc 2dca 60bd
00000300: c3f7 8b3d 53df 2d3d 4d89 62bd a476 403d
00000310: 8ed9 2d3d 7cc7 763d 3009 673d 7f8a 813d
00000320: 492b 703c adef 01bd e9db bbbc 4aea 64bd
00000330: e551 4bbd a6b2 db3c 5c4b 943b ec97 07bd
00000340: 6b62 9dbd d7ec c03b 45c9 663d f967 783d
00000350: 04ba c93b a570 03bd 7f6e 2a3d ece8 bc3d
00000360: 0bc2 913c 5956 b73c 3689 8fbd 457d 74bd
00000370: f20a d2bc 76b7 1cbd 9c6f bf3c 3aef 4bbd
00000380: 157b a93c 4987 1a3c f6fb 943d 4524 583d
00000390: 5821 7abd aca4 203d 4aa5 253d b8c7 d4bc
000003a0: 3924 69bd 09bc 283c 10d7 6e3d 98ca 90bd
000003b0: a04f ebbc 26aa 99bd e441 8f3c 8459 3c3d
000003c0: 035a b7bc b0d8 b63c f843 13bd 90a5 e9bc
000003d0: 3044 5f3c 1966 4dbd 0b3d 3c3d 66df a63c
000003e0: d330 7ebd f7bc 123d 7fc1 8dbc 0a0b d73c
000003f0: e659 50bd a5ff 0c3c 5184 a2bd 51ef 6abd
-0.07469479 -0.035204854 -0.02342624 -0.02915674 0.0031471623 -0.055416122 -0.03863499 0.080079414
0.020076761 0.04616427 0.035364673 -0.035523675 0.048201606 0.057828296 -0.07892766 -0.061226264
-0.020776138 0.030974772 -0.018312415 0.056010168 0.026517328 -0.074947625 0.080434516 -0.073181614
-0.03460713 0.05349642 0.007211968 -0.062814124 -0.025860086 0.061848834 -0.04866227 -0.021975668
-0.031248923 0.019097267 -0.049153622 0.05316469 0.004652514 0.07474175 0.036350664 -0.06893286
-0.01697356 0.05535088 0.025489392 -0.07504154 -0.01052151 -0.036295686 -0.051387023 0.045683842
-0.02950572 0.038085077 -0.02448519 -0.033504453 0.08926558 -0.0019103771 0.03300302 -0.06818566
0.056362007 -0.051331 -0.078067265 0.02416503 -0.03767237 -0.019108621 0.04620537 0.05630447
-0.023530185 -0.083357096 0.002756854 0.01591094 0.022450447 -0.0023224186 -0.0048179775 0.01515477
0.059963092 0.01468736 -0.053580955 -0.014218751 -0.061646868 0.025952306 -0.03720054 0.073357336
-0.036861703 0.046954952 -0.038433686 0.03147166 -0.06977959 -0.05649034 -0.06379109 0.026096765
0.00032463096 0.013196153 0.009784163 -0.044364497 0.00015841203 0.06711268 -0.036676172 0.04450264
0.035868656 0.052787907 -0.035161626 0.05898731 0.018916918 0.049731236 0.05727382 -0.055339206
0.02455793 -0.02547831 0.042330585 -0.039765388 -0.021164218 0.021572128 0.06361798 -0.034958962
-0.058884665 0.005582051 -0.07006195 -0.034459233 -0.007915073 -0.040681046 -0.073177904 0.040026415
0.021815697 0.04430224 0.056746498 0.016701903 -0.040428862 -0.051980946 -0.066181675 0.06885692
0.026416318 -0.022863716 -0.046851058 -0.057405807 -0.025568074 -0.03814613 0.032161366 -0.016217753
-0.07620997 0.058218677 -0.04324795 0.07981941 0.095382236 -0.03884604 -0.049458772 -0.065668374
-0.05211348 -0.056149602 0.007822463 -0.08003894 -0.048270896 -0.048374668 0.046041552 0.008078674
-0.07077097 0.056425896 0.067587815 0.06993221 -0.025639623 0.016693879 -0.018730206 -0.055820007
0.0026270002 -0.048962813 -0.010181739 -0.07354697 0.030705217 -0.009575369 0.020916384 -0.03495633
0.021105658 -0.020956496 0.07652601 -0.00080432964 -0.07081903 0.035983272 -0.06955639 -0.05125303
0.002058409 0.056315955 0.007385335 -0.071881175 0.03922185 0.037242584 -0.043427348 0.05497987
-0.041593254 0.07088536 -0.016555686 -0.02482058 0.048347745 -0.007219292 -0.027540047 -0.05488031
0.06834366 0.042449307 -0.05530672 0.046988145 0.042443804 0.060248837 0.056405246 0.06325244
0.0146587575 -0.031722713 -0.02293201 -0.055887498 -0.049638648 0.026818585 0.004525585 -0.03310387
-0.07684787 0.0058876085 0.05634429 0.06064603 0.006156208 -0.032089848 0.041609284 0.09224114
0.017792722 0.022380041 -0.07008593 -0.05968978 -0.025639985 -0.0382609 0.02336865 -0.04978869
0.020688573 0.009431669 0.0727462 0.052768964 -0.061066955 0.039219543 0.040440835 -0.02597414
-0.05691931 0.010298737 0.05831057 -0.07069892 -0.028724492 -0.07503156 0.017487474 0.045983806
-0.022381788 0.022320122 -0.035953492 -0.02852133 0.013627097 -0.050146196 0.045956653 0.020370197
-0.06205828 0.035824742 -0.01730418 0.026250381 -0.050866984 0.008605872 -0.079353936 -0.057357136

lastnet.bias f4 [100]
00000000: 6a44 ccbb a7c3 833d 4763 e4bc a958 3abc
00000010: 278b d4bd 3f41 f6bd ff44 4a3e 5939 af3b
00000020: 95cb a63d 9bf5 02bd 51d2 aa3d d900 05bd
00000030: 9932 423d 212f 80bd 9a78 e53d 4d60 b63d
00000040: 0c08 9bbd 80b2 f1bc 8952 bc3d 9249 3fbd
00000050: b7e9 3f3d fbf5 efbc c892 f3bd 4178 48bd
00000060: 7d84 f33d eaff 28bd 14da 303d 39ae 6fbd
00000070: 3eff 663d 812c a43d 920a ee3d 82cd 2e3d
00000080: 5df3 b23d 2f80 823c 2441 0ebc 9af5 893d
00000090: 174c da3d 0e92 c0bd 5a06 35bd e0a5 b0bd
000000a0: d0e6 64bc aef5 7c3d 98f4 1bbd b08b 47bb
000000b0: 0835 7e3d b8ce efbd 1015 683c 1e75 9e3c
000000c0: 787c 053d 57a2 e03c 9f54 84bd dde2 00bc
000000d0: 4b8c c83d 1c33 85bd 0692 453d d547 bf3d
000000e0: 4b49 35bb 66dd af3d adc8 3ebd 7590 2bbb
000000f0: 8711 a23c ecde c2bd cfbe 6d3d d377 6b3c
00000100: d97b d83d 8274 1e3e 4658 233d 5c24 043e
00000110: c159 b63c b101 50bd 512f d43d 9b93 fc3c
00000120: 1474 3e3d 9ec5 a2bd 080c de3d d3d4 7ebd
00000130: a085 c0bd df78 04bd 623f bf3d eba7 1a3e
00000140: 3dd0 e23d 8692 293e 8475 c0bb a5d1 35bd
00000150: 5cd2 85bd ed34 eebd 64e7 753c 3d33 b63d
00000160: 16e1 09be ece4 023d c6d9 95bd 1e8a cfbd
00000170: 4e4e 18bd 8690 b23d 5737 84bd decc 333d
00000180: beab 85bd 2572 ebbc 6c8d 033e 17ea 6c3d
-0.0062337415 0.06433802 -0.02787937 -0.011373677 -0.10378104 -0.120241635 0.19752882 0.0053474125
0.08144299 -0.03197251 0.08340896 -0.03247151 0.047411535 -0.06258989 0.112046435 0.08905087
-0.07569894 -0.02950406 0.0919543 -0.04670102 0.046853747 -0.029292097 -0.11893231 -0.048942808
0.118905045 -0.041259684 0.043176726 -0.05851576 0.05639576 0.08016301 0.1162311 0.042676456
0.08737824 0.015930263 -0.008682523 0.06736298 0.10659044 -0.09402858 -0.04419551 -0.08625388
-0.013971046 0.061757736 -0.03807506 -0.003044825 0.062062293 -0.1170935 0.014165178 0.019342955
0.032589406 0.02742116 -0.06461453 -0.007866588 0.09792384 -0.06503889 0.048234962 0.09339873
-0.0027662094 0.0858715 -0.046578098 -0.0026178632 0.019783748 -0.09515175 0.058043297 0.01437183
0.10570497 0.15474132 0.039879106 0.12904495 0.022259595 -0.050782863 0.103605874 0.030832103
0.04649742 -0.07947849 0.108421385 -0.062214684 -0.09400487 -0.032341834 0.09338261 0.15103118
0.110748746 0.165598 -0.005873384 -0.044389386 -0.065342635 -0.116311885 0.015008781 0.08896492
-0.1346477 0.0319566 -0.073169276 -0.10133766 -0.037184052 0.08718972 -0.06455868 0.04389655
-0.06526898 -0.028740952 0.12846917 0.057840433
