parameter/crf_lstm_parameter/6_sentence_1.pth (torch_old, 485982 bytes, 8 tensors)

gru.weight_ih_l0 f4 [300, 100]
00000000: de00 50bb 3089 87bd e66a 243c 192a 95bd
00000010: 648a 00bd 8cb2 5f3d 9875 54bd c824 a73d
00000020: 80a2 f43b 3d5d b3bd 2609 4d3d 670e 983b
00000030: 3a27 9e3d 3e83 08bd 130c e93c 77db 8a3a
00000040: f2b2 d13d b0c0 813d 403d 72bd 5d12 91bd
00000050: 51b0 5c3d 6e2a 93bd c90d 50bd 5ef4 c83d
00000060: ac8f a6bd b3d6 bc3c b99c 76bd db30 1c3c
00000070: 5891 5d3d d9e7 9d3c 20d0 803d 63a2 b43c
00000080: 0506 84bd 4c89 b63d 9d2e e7ba 1947 6ebd
00000090: 1b69 c03d 7759 bb3d 0a58 c3bc 5e00 44bd
000000a0: 85c6 c7bd 31cc d1bb 6192 d03d c7e2 c0bd
000000b0: 0112 babc 9ca4 453d 3155 01bd eb38 15bd
000000c0: 22e1 cd3d 7b18 6e3d 51bb 93bd 59ed 6e3b
000000d0: a126 b73d 58fe d23c f9de ba3d 89e3 543c
000000e0: d617 e43c 2b5c 6dbd a50d 4abd 4d21 1a3d
000000f0: 4b0e 863d 6b58 cabc 73ee d4bd 47e2 e03c
00000100: e1b6 81bb e3e7 4b3c 4f39 a4bd 0410 f33c
00000110: 48ee 363d 3b97 0abd 0d06 913d 2fe7 26bd
00000120: 0c7e b53c 7dab a1bd c883 073d 6b33 b3bd
00000130: 08e1 39bd d605 00bd fd5e bdbc cb8e 96bd
00000140: 1477 813d 15e8 bebd df6f 8f3d afb7 94bd
00000150: 1164 453d 5f12 97bd f511 2a3c 282c f0ba
00000160: b2cb 873d eea9 c3bd 085a 593d bbc3 8c3d
00000170: 8478 913d a693 473b d7d6 7bbd 208a ddbc
00000180: 5020 abbd 5166 d3bc feef 9c3d b7e7 5e3b
00000190: 3b31 843d 8f45 b6bd 2992 77bd 713e b53d
000001a0: 5298 b2bd 2ba1 eebc 0ca2 bc3d ace4 f4bc
000001b0: b98d 373d 170c af3c 8968 42bd f4b2 3cbd
000001c0: 80e1 8cbc a300 403d 818d a6bd f95c 1bbd
000001d0: 2c10 093d 5e7b e53c 745b dd3c 69ea 38bd
000001e0: b12a 4bbc 34e4 ec3c b913 14bd b130 af3d
000001f0: 181c 69bd 36e3 19bd e346 77bd 56c2 d4bc
00000200: 53e3 31bd fcc1 bfbd e3b5 a23d 264f 99bd
00000210: 7679 853d 1ac1 b1bd 6001 cf3c b472 b1bc
00000220: b837 13bd 9cf0 81bd 1fb7 8cbd bd04 963d
00000230: 793a 403d 67c6 94bd 21fe a73d 7301 78bd
00000240: 6e6f 8cbc 1ca8 af3d d569 00bd 778b babd
00000250: 0868 fbbc 180b 59bd 7ca5 8d3d 3190 95bc
00000260: ba25 bebd 32e9 a03d 3faf 5fbd 8603 993c
00000270: 904e 0bbd 2349 9f3c 012d 3fbd be1f 95bd
00000280: 1079 9abc a2e3 b2bd f937 30bc 1f23 23bb
00000290: b0a0 f0bc 79e3 bd3c 5001 4e3d d483 dfbc
000002a0: a9e4 5f3c 3f59 95bc ee3d ce3d dec3 203d
000002b0: 8029 adbd db32 aa3d fa47 873d 85dc b13d
000002c0: a41e 303d e234 9b3c 9a22 bc3c 2df0 843d
000002d0: 3109 373c 5ac9 2a3d c11f 80bd 2a09 22bd
000002e0: 23f8 16bd 7da4 5fbc ac26 5c3c d0c2 a23d
000002f0: 86c9 943b d4a9 993d e315 ca3b 3e00 e8bc
00000300: c8ba 1f3d 81e7 153c ae07 26bc f0d0 8b3d
00000310: ae04 b8bd 6411 94bd 02be 143d 53d9 8cbd
00000320: b277 b5bd 7974 d4bb 45db 973c 27ab 7cbd
00000330: 3f77 4dbd 42fd 9fbd eafb 6fbd d72d c3bd
00000340: d11b c5bc 203d ae3d 1621 7eb8 66d0 8fbc
00000350: df49 003d 6b64 b13c dc82 9fbd d1c4 b7bd
00000360: 35e2 cb3d 43a0 bf3d 6d58 cb3d 2b02 9b3c
00000370: 4ff7 cfbd c414 69bc af4e 6b3d c218 433d
00000380: fa22 c5bc 4a83 bf3c 74af 7fbc 3dfe a9bd
00000390: 6866 a63c 3d87 94bd a537 b1bc 3238 833d
000003a0: 1092 293d 8766 a33a 9286 863d bbe7 ec3c
000003b0: 5da2 58bd f139 b4bd 89b8 d13d 200c 3d3d
000003c0: f6f2 e23c 52ea 3e3d f6ab 3a3d 4689 59bc
000003d0: ba53 37bc 79af 0239 6a2c f4bb 1b53 cf3d
000003e0: 8533 bfbd cb01 2b3c cae9 213d bb86 ad3d
000003f0: ffaf be3d e7b3 af3d 193b a7bc 8b12 4b3d
-0.0031738798 -0.06617963 0.010035252 -0.0728342 -0.03138198 0.054613635 -0.05186996 0.08161312
0.0074656606 -0.08758018 0.050057553 0.004640389 0.077223256 -0.033328287 0.02844814 0.001059397
0.10239209 0.0633558 -0.059140444 -0.07083581 0.053879086 -0.07185827 -0.050794397 0.09812234
-0.08132872 0.023051595 -0.060208056 0.009533132 0.05409369 0.019275593 0.06289697 0.022050088
-0.06446461 0.08912906 -0.0017637793 -0.058173273 0.09395047 0.091479234 -0.023845691 -0.047851913
-0.097546615 -0.0064025153 0.101841696 -0.09418254 -0.022713663 0.048252687 -0.031575385 -0.036431234
0.10052706 0.058128815 -0.07213462 0.0036457388 0.08942915 0.025756046 0.0912456 0.012993702
0.027843397 -0.057949226 -0.04932942 0.037629414 0.06545695 -0.024700364 -0.10397043 0.027451647
-0.0039585684 0.012445423 -0.08018743 0.029670723 0.044660836 -0.03383563 0.07081232 -0.040747818
0.02215483 -0.07894037 0.03308466 -0.087500416 -0.045380622 -0.031255566 -0.023116583 -0.07351454
0.063215405 -0.0932161 0.070037596 -0.07261597 0.048191134 -0.07376551 0.010380258 -0.0018323706
0.06630649 -0.09553896 0.053064376 0.0687327 0.07103065 0.0030452996 -0.061484184 -0.027043402
-0.083557725 -0.025805624 0.076629624 0.0034012625 0.064547025 -0.08899986 -0.060442124 0.088498004
-0.08720459 -0.029129585 0.092105955 -0.029894195 0.04481289 0.02136807 -0.047462974 -0.0460691
-0.01719737 0.046875607 -0.081324585 -0.037930463 0.03346269 0.028012928 0.027021147 -0.045145426
-0.012400315 0.02891741 -0.03615162 0.08554209 -0.056911558 -0.0375702 -0.060370337 -0.025971573
-0.043429684 -0.093631715 0.079448484 -0.074857995 0.065173075 -0.08679409 0.02526921 -0.02166114
-0.03594181 -0.06344721 -0.06870865 0.073251225 0.046930764 -0.07264405 0.08202768 -0.060548257
-0.017142978 0.08576986 -0.03135093 -0.09108632 -0.030689254 -0.052989095 0.06916329 -0.018257232
-0.092845395 0.078569785 -0.054610487 0.018678438 -0.03401047 0.019444054 -0.04667378 -0.07281445
-0.018856555 -0.08734824 -0.010755532 -0.002489276 -0.029373497 0.023179756 0.05029422 -0.02728454
0.013665357 -0.018231032 0.10070406 0.039249294 -0.08455181 0.08310481 0.06605525 0.08684639
0.04299797 0.018946115 0.022965718 0.064911224 0.011171625 0.04169593 -0.062560566 -0.03955952
-0.036857735 -0.013650057 0.0134369545 0.07947314 0.004540625 0.07503095 0.00616716 -0.028320428
0.038996488 0.009149433 -0.010133667 0.06826961 -0.089852676 -0.072298795 0.036314018 -0.06877389
-0.08860721 -0.006483611 0.018537173 -0.06168666 -0.05016255 -0.07811977 -0.058589853 -0.09530228
-0.024061115 0.085077524 -6.0589133e-05 -0.017555427 0.03132045 0.021654328 -0.07788631 -0.089730866
0.09955255 0.09356739 0.09928975 0.018921932 -0.10154592 -0.014226142 0.057448085 0.047631033
-0.02406453 0.023378033 -0.015605796 -0.08300445 0.020312503 -0.07252357 -0.021632979 0.06407203
0.04139906 0.0012466469 0.06568636 0.028919091 -0.052889217 -0.08800114 0.102402754 0.04615414
0.027703743 0.046610184 0.04557415 -0.013277357 -0.011189396 0.00012463135 -0.0074515836 0.10123273
-0.093359984 0.010437439 0.0395296 0.084729634 0.09310912 0.085792355 -0.020413922 0.04957823

gru.weight_hh_l0 f4 [300, 100]
00000000: 7394 e0bc b3d2 b1bd c17d 85bc 0cb1 4b3d
00000010: 4a1f 4bbd deb5 b6bc 0a9d c2bd 30d3 b1bd
00000020: ab4d adbd ca5b a4bd 0bdf bcbd 749d 403d
00000030: c2c3 81bd dfb3 843d 30e7 6a3d bf62 f2bc
00000040: 53da 07bd 6991 4a3d 2551 0ebd 6438 a9bd
00000050: 30ab ba3c 165d bf3d e438 23bd 493e d13d
00000060: 49bc 733d 591c 1ebd e1ca 92bd b154 5fbd
00000070: 8f37 dabd 3f7e d4bc 51aa a33d d2c7 903d
00000080: 612d 223d f4c4 b93d a6ab 0dbd d47d 35bd
00000090: a428 0a3c b638 b93d 819e 3dbd 29cb ed3d
000000a0: 9965 c8bd 6278 35bc d8f9 bc3d 3ba7 5bbd
000000b0: 204e c03b 0ba2 75bd 16d7 763d 1c10 cd3d
000000c0: 4fdb 86bd bcb5 8a3c a0ad ce3d 47f0 003d
000000d0: 19a0 32bd 9c01 61bd 6e7d 0dbd 0670 d0bc
000000e0: 1570 6e3d 542b a83b bc31 85bd 023b 49bc
000000f0: 8293 5b3d 9e74 82bd 4249 33ba c9a0 98bc
00000100: 66f9 ba3c 1be4 4fbd 84d8 19bd 43f6 8c3d
00000110: 3cff c63c a07d de3b 690a 973d 98bc 843d
00000120: 2073 80bd ccd6 79bd 2ca7 7dbd 09fc ce3d
00000130: d8d3 9abc b668 b6bd 526d 063a 2bef 8bba
00000140: d4d3 573d 6249 093d 1b7f 9c3c b10b 113d
00000150: 9e6c 063d 7e59 20bd 5e0a c23c 1823 7f3d
00000160: 6dac 9e3d ddde 7e3d b365 c2bd b60e 863d
00000170: 8864 b0bd be15 bfbc bf25 c9bd d06e a9bc
00000180: e6f3 45bc 5ce5 9d3d 4080 bfbc a22b cdbd
00000190: 2cae a43d 6181 6d3c ee4f a03d 033d a3bc
000001a0: 8b62 4cbd 20f7 94bd ed7b 23bd f2ed eebc
000001b0: d55d 9abd 40f9 83bd 1633 093c 36e9 8b3d
000001c0: 786b 4f3d 0f90 56bd f7f1 07bd 7d43 62bd
000001d0: efc2 823d f638 123c 1ead bbbd 6264 933d
000001e0: e559 0dbd 3960 073d 94a5 8f3d fb25 903d
000001f0: 849b fdbc 088b fbbc d6bb 013d 81c8 16bd
00000200: 0d07 ccbd de61 9dbd a806 113c 88c8 b63d
00000210: f608 64bd ba31 abbd a0f3 283c 3d0d a3bd
00000220: 41f9 713d 39b3 7bbd 277e c63c a7a0 8abd
00000230: 37a4 8f3d 4dc9 b4bc 2628 9a3d 9acd 47bd
00000240: 23c1 a13c 9008 4abd 9af7 8f3c 149e a9bc
00000250: 9de8 503d fa39 bdba ea25 8e3d 0de8 c03d
00000260: b785 b83d a9ab b6bd ae73 673d d2cc aabd
00000270: 94d4 feba b07f 85bd b055 263d ae86 14bb
00000280: ef83 eb3b 250c 4ebc acc8 d1bc d749 64bd
00000290: e19f 4ebd b4a9 20bc 1b92 583d 520d 1ebd
000002a0: e927 e0bc 774d 76bd d5fb 3b3d a1f3 87bd
000002b0: 4ba2 81bd b71f ee3c dc2f f9bc 31b9 5b3b
000002c0: fe3a 13bd a51c bf3d 850c 213d 5158 23bc
000002d0: db9b 86bd c760 07bd e7e7 c3bd b808 d3bc
000002e0: 0bff 423d 3fde 6bbd 46e5 403d eea6 9bbc
000002f0: ecea ae3d c37d c13d f3ab 833d a63b 683d
00000300: 59a3 bdbd 3d61 0c3d 4efb b53c 9127 2c3d
00000310: 0a68 2fbd e9d3 d03d 59fa e33c 7486 9ebd
00000320: f214 afbd 190a c9bd faa0 f63c 376b 3dbd
00000330: 03b2 a63a 66b7 8c3d 0c8a 6cbd a4e6 91bd
00000340: 4ff7 85bd a51b 2a3b 4327 cb3b 7666 d2bb
00000350: 2f0c d0bc a51f 973d 4014 ccbd ffa2 793d
00000360: 2f1d 9f3d 569e ccbc 47df c63c 78d5 743c
00000370: 49a1 d9bd 1aa2 1a3d a519 933d a862 943d
00000380: df5c c9bd 19bc 583d f86f cbbb a1ab abbd
00000390: f4bf a5bd a0bc 05bd 89ce b73d c12f 9e3d
000003a0: e298 9f3d 26a9 113c 16a4 41bd f3b2 373d
000003b0: 71f5 ba3d 76d4 583d 63cd 32bd cfb3 aa3d
000003c0: d765 9fbb 565b 55bd 7766 1a3d cf41 75bd
000003d0: a54e 27bd 9cf2 2cbd 98de b1bd 9745 6c3d
000003e0: 9080 9b3d c33b bf3c 0bb9 4bbd 2aec 8d3d
000003f0: 38dc a0bd 1320 32bd 944f 46bd 5291 5cbc
-0.027414536 -0.08682766 -0.016295316 0.049729392 -0.049590386 -0.022303518 -0.09502609 -0.08682859
-0.084620796 -0.0802532 -0.092222296 0.04702516 -0.06336166 0.0647962 0.057349384 -0.029588101
-0.033167195 0.04945508 -0.034745354 -0.08262709 0.022786707 0.093439266 -0.039849177 0.10216958
0.059505735 -0.038601253 -0.07167602 -0.054524127 -0.10655128 -0.025939105 0.0799147 0.07069363
0.039594058 0.09070769 -0.034587525 -0.044309452 0.008432541 0.0904402 -0.04629374 0.11611015
-0.09785003 -0.011076065 0.092273414 -0.05362628 0.005868688 -0.05996899 0.060263716 0.10012838
-0.065847985 0.01693236 0.1009171 0.031479146 -0.043609712 -0.054933175 -0.034543447 -0.025444042
0.05821236 0.0051321182 -0.06503627 -0.012282135 0.05360747 -0.06369899 -0.00068392244 -0.018631356
0.022824 -0.050754648 -0.03756 0.06882908 0.024291627 0.006789878 0.073750325 0.06481284
-0.06271958 -0.060995862 -0.061927006 0.10106666 -0.018899843 -0.08906691 0.00051279843 -0.0010676136
0.05269225 0.03351725 0.019103577 0.03541154 0.03281843 -0.039147846 0.023686584 0.062289327
0.07747731 0.062224258 -0.09492054 0.06545775 -0.08612925 -0.023325797 -0.098216526 -0.020682722
-0.012082076 0.077097625 -0.023376584 -0.10018088 0.08041033 0.014496178 0.078277454 -0.019926554
-0.049898665 -0.07273698 -0.039913107 -0.029166196 -0.07537428 -0.06444025 0.008373996 0.06831591
0.0506396 -0.05238348 -0.03318974 -0.055240143 0.06384837 0.008924713 -0.09163879 0.07196881
-0.03450956 0.03305075 0.070140034 0.07038494 -0.030957945 -0.030705944 0.031673275 -0.03681231
-0.09962282 -0.07684682 0.008851685 0.08924967 -0.05567261 -0.08359094 0.010311991 -0.079615094
0.059075598 -0.061450217 0.024230076 -0.06768923 0.07013743 -0.022068644 0.07527189 -0.04878006
0.019745415 -0.049324572 0.01757412 -0.02070526 0.051003087 -0.0014436834 0.06940825 0.0941926
0.09009879 -0.0891946 0.056506805 -0.083398476 -0.0019442015 -0.06518495 0.04060906 -0.0022663283
0.0071873586 -0.012576138 -0.025608383 -0.05573448 -0.05044544 -0.009806085 0.052873712 -0.038586922
-0.02736278 -0.06013247 0.045894463 -0.066382654 -0.06329783 0.029067857 -0.030418329 0.003352713
-0.03594493 0.093316354 0.03931858 -0.009969787 -0.06572696 -0.03305128 -0.09565716 -0.025760993
0.04760651 -0.057584997 0.047093652 -0.019000497 0.085409015 0.09447815 0.06429281 0.05669751
-0.09259672 0.03427242 0.022214558 0.04202992 -0.04282383 0.10196669 0.027829336 -0.07740489
-0.08548917 -0.09816379 0.030106056 -0.046244826 0.0012717847 0.06870918 -0.05774884 -0.07124069
-0.06541311 0.0025956419 0.0061997487 -0.0064209057 -0.025396435 0.073790826 -0.099648 0.06094646
0.07769238 -0.024977844 0.024276389 0.014943473 -0.10626466 0.03775225 0.07182626 0.0724538
-0.09832167 0.05291376 -0.006208416 -0.08382345 -0.08093253 -0.03265059 0.0897494 0.07723952
0.07792832 0.008890426 -0.047275625 0.044848394 0.091288455 0.052936994 -0.043652903 0.08335077
-0.004864435 -0.052089058 0.037695374 -0.059877213 -0.040846486 -0.042223558 -0.086850345 0.057683554
0.07592881 0.023343926 -0.049737018 0.0692981 -0.078545034 -0.04348762 -0.048415735 -0.013462381

gru.bias_ih_l0 f4 [300]
00000000: f064 c63d ccaa 523d e6c5 b3bc d48a a83b
00000010: 49d6 e03d b8b3 7d3b 8d15 ce3d 1a0f db3c
00000020: 9db1 4bbc ac00 86bd 9e9b 8d3d 0a57 35bd
00000030: 5726 7fbd c6cf b2bc 7478 5e3d 6564 493c
00000040: a085 b03d 131c 433d 72c8 a73d 7030 8cbd
00000050: 9baf 47bd 8631 99bc 9d5f 0d3e ed14 83bc
00000060: 7406 3f3d 1bdf 953d 5187 cb3d 7f17 a53c
00000070: 4925 573d cd09 5e3d ba2e b03d b980 aabd
00000080: d25c 14bd c73b c8bd 3c35 98bc 03fc 43bd
00000090: dd2e 8b3c bf6e 4fbb 91a3 c13d 7b4e c1bd
000000a0: df56 d03d 28f0 b3bd 184d 9cbd e365 803d
000000b0: 44ec 1f3d 44b6 b7bd 2c6f bebd 23b9 b0bb
000000c0: 0821 473d 4089 2dbc 6482 16bc 253f 9a3d
000000d0: b83f 9fbd ad6e bebd 1428 ad3c ec24 893d
000000e0: 8d5a aebd 137c 3f3d 4a3e 993c 7acc 07bd
000000f0: e4c1 1bbd c929 75bd 6cc9 b73c d707 d83d
00000100: f482 88bc 9000 cbbd 0201 22bc 596c 4b3d
00000110: 67ec 743c 12bb b9b9 2cf7 87bd 5293 9ebd
00000120: 100e d23d 077a b33b 8c69 af3d e510 933d
00000130: 65e9 86bd ac7e 2dbc 195b 85bd f2ed 3a3d
00000140: eea3 453d 64d3 09bd 116b bf3d 3f9f 12bd
00000150: 3540 9a3b 30ba a03c 5c19 c0bd 0b13 f03a
00000160: 04cd adbd cef8 b83c 772e 87bd d966 653d
00000170: c6e0 89bd 2d7d b03d 4ba5 38bc 2157 653d
00000180: a03e 48bd bbdc bebd 8e27 de3c 5937 8dbd
00000190: 0a1d 043e 103a 04bc 9e80 c43c 2911 543d
000001a0: bf77 34bc 8426 bc3c 8791 8d3d 4784 3ebd
000001b0: f7b8 10bd 532c 98bc 0e20 813d 70e7 52bd
000001c0: 7153 8bbd 2102 33bc 14b2 303d 237d 753c
000001d0: 0937 a2bd 1011 4dbc 9f0a 6b3b c6b7 b73d
000001e0: 080b 993d 55bd 653d 1d80 8e3d 5a58 61bd
000001f0: 7a0f 5cbd 848f 25bb e174 ad3d 7681 623c
00000200: b0d4 ffbc c31b 7f3d 81e1 a83d 211b 46bc
00000210: 4012 e7bb 5504 363c adf7 123d 350f cbbc
00000220: b2e6 b3bd db2a a3bd b9c0 ad3d 1af1 7fbd
00000230: 39c1 af3d 4410 843d f15e 97bd 3c55 3f3c
00000240: 7877 a9bd 8a0f aabd e745 f23b bf41 de3d
00000250: b15d 58bd 530e e43c 2be4 05bd 6c24 913c
00000260: a467 8b3d 6d3d 73bd 2044 cd3d 7362 acbd
00000270: d76b 3cbd 0df9 5b3d 6e16 21bd 29db 4bbd
00000280: 5185 bc3d f82f 9e3d acad babd 31b1 9d3d
00000290: f31c bebd 3c27 ddbb 986a b53c 694e 963d
000002a0: 04e0 dcbc 7b9f 16bb 7f13 83bd 71fe 0cbd
000002b0: 998a b63d 5c12 92bd 6c22 cfbd 05da 8f3b
000002c0: 6b7d 47bd cb87 c73d 2f04 48bd 4d00 25bc
000002d0: 8cc3 843d 0a40 b13c daaf 99bd 7e11 92bd
000002e0: 3baf 1c3c 8866 b5bd ad4c 7a3d 8524 28bd
000002f0: 64bf a63d 8279 433c d2f6 553d 26b1 b8bd
00000300: 14c7 933b 0416 9f3d 7e0d 393d 9a3c b83d
00000310: 84a4 2bbd f595 a13d 1963 0abb f354 a83c
00000320: 39f6 c7bc 4d66 beb9 0e2e 6d3d b77d 5b3d
00000330: 2d14 993c 957e 413d 8c8e 3b3d 01b9 653d
00000340: 7405 d3bd 53cb bbbc 7d48 db3d d289 98bd
00000350: b201 45bb 0189 40bd dae7 2f3e 93fe 703d
00000360: 9dd6 0d3e f699 cebd 307d 89bd c695 6cbc
00000370: c7e7 4a3d fc84 443d c4c6 cbbd bf00 a6bd
00000380: fd2c 68bc cb9b c83d 2609 a7b8 702a 0b3e
00000390: 4f74 c5bd 7f36 f23d 9b3e 633d 0f32 f0bd
000003a0: 79c4 8eba 28c7 1dbb 456c b4bd 5b3a 0ebd
000003b0: a18a d23d f074 583d 2120 6cbd f6ff 5d3d
000003c0: aeb4 843d 8ed0 33bd af74 bc3d 8a86 74bc
000003d0: d042 203e 7a40 613d 2fee 4ebc c094 db3d
000003e0: 3462 39bd d9ce 883d cf14 033e 1fd0 ed3c
000003f0: 734f f2bc 78d1 02be 0377 f5bd 341a cf3d
0.09687221 0.051432416 -0.021944951 0.0051435027 0.10978372 0.0038711857 0.10062704 0.0267406
-0.012432483 -0.06543097 0.06914447 -0.04427246 -0.062292423 -0.02182759 0.05431409 0.012292002
0.08619237 0.047634196 0.08192529 -0.06845176 -0.048751455 -0.018700372 0.13806005 -0.01600119
0.046637014 0.073179446 0.09937919 0.020152805 0.052525792 0.054208566 0.086026624 -0.08325333
-0.036221333 -0.097770266 -0.018580072 -0.04784776 0.01699012 -0.0031651703 0.09455026 -0.09438797
0.10172819 -0.087860405 -0.07631892 0.06269433 0.03904368 -0.08970311 -0.09298548 -0.0053931638
0.048615485 -0.010591805 -0.009186361 0.07531575 -0.07775825 -0.092984535 0.021137275 0.066964954
-0.08513365 0.046749186 0.01870646 -0.03315399 -0.038026705 -0.059854303 0.022434913 0.1054837
-0.016664006 -0.09912217 -0.009887936 0.049663875 0.014948941 -0.00035425328 -0.06638941 -0.07742943
0.102565885 0.0054771933 0.08565053 0.07180957 -0.06587485 -0.010589283 -0.06511516 0.04563708
0.04825204 -0.033648863 0.09346593 -0.0357964 0.004707361 0.019620031 -0.09379837 0.0018316222
-0.08486369 0.022579577 -0.06600659 0.056006286 -0.06732325 0.086176254 -0.011269878 0.055991296
-0.04888785 -0.09319445 0.02711847 -0.06895322 0.12901703 -0.008070484 0.02398711 0.051774178
-0.011014878 0.022967584 0.06912523 -0.04651287 -0.035332646 -0.018575823 0.06304942 -0.051490247
-0.068030246 -0.010925801 0.04313858 0.014983448 -0.079206534 -0.012516275 0.0035864485 0.08970599
0.07472807 0.056088764 0.069580294 -0.0550159 -0.053725697 -0.0025262544 0.084695585 0.013824811
-0.031229347 0.062282335 0.082461365 -0.012091429 -0.007051736 0.011109431 0.035880733 -0.024787525
-0.08784236 -0.079671584 0.084840246 -0.06248579 0.08581776 0.06448415 -0.073911555 0.011678036
-0.0827474 -0.08303745 0.007393587 0.10852384 -0.052823726 0.027838862 -0.0326883 0.017717563
0.06806877 -0.059384752 0.100227594 -0.08417215 -0.04600128 0.05370431 -0.03932803 -0.049769554
0.092051156 0.07723993 -0.091151565 0.07699812 -0.092828654 -0.006749062 0.022145554 0.07339174
-0.026962288 -0.0022983241 -0.06400203 -0.03442234 0.08913154 -0.07132408 -0.10113987 0.0043900036
-0.048703592 0.09742697 -0.048832115 -0.0100708725 0.0648261 0.021636982 -0.07504244 -0.071322426
0.009563263 -0.08857447 0.06110828 -0.041050453 0.081419736 0.011930825 0.05223734 -0.090181634
0.004509816 0.07767871 0.045178883 0.08995934 -0.04190494 0.0788993 -0.0021116196 0.02054832
-0.0244094 -0.00036315844 0.05790525 0.053586688 0.018686378 0.04723986 0.04579024 0.056084637
-0.103037745 -0.022924101 0.107071854 -0.07448162 -0.0030060825 -0.047005657 0.17178288 0.05883653
0.138514 -0.100879595 -0.06713331 -0.014440006 0.049537446 0.047978386 -0.09950021 -0.08105611
-0.014170882 0.0979534 -7.9648846e-05 0.13590407 -0.09641325 0.118268006 0.055479627 -0.11728298
-0.0010892294 -0.0024075005 -0.08809713 -0.03472362 0.102803476 0.052845895 -0.057647828 0.05419918
0.064797744 -0.043900065 0.09201943 -0.014924655 0.15650487 0.05499313 -0.01263003 0.10721731
-0.04525967 0.06680078 0.12800907 0.029029904 -0.0295789 -0.12775218 -0.1198559 0.1011242

gru.bias_hh_l0 f4 [300]
00000000: a053 433d 4e5e 513d bec3 b03d d5bb 35bc
00000010: d0b8 abbc 9273 803d 4457 0cbd b5fa d2bc
00000020: 2c62 bb3d c3a9 2ebd df58 27bd 07c4 5ebb
00000030: b114 99bd c834 c9bd 63bd 8abc 0d69 93ba
00000040: b484 45bd 82bf 9e3d cb5d 523d 0b1f c63d
00000050: dca8 603d 7d9f 4a3d 4e29 113e a197 863d
00000060: cf5e 853c c632 a33d 0163 c3bb f5de 27bd
00000070: fa96 2e3b 83a7 303b 1fde 75bd 6f68 c33d
00000080: b569 7cbd 3a78 32bd 1f39 883d 56bc 51bd
00000090: 2d56 ab3d 2d84 c1bd 5d30 3f3b b631 bc3d
000000a0: f367 69bd 68c3 12bd fca8 1fbd d249 b4bc
000000b0: 0829 063d c499 7d3d 65be cebd d71f 463d
000000c0: 0231 81bc 892c 113d 8e4e 97ba b959 7b3d
000000d0: 23ae 363d 5c19 e43c 5981 78bd 0f9b 65bd
000000e0: 5eb4 603b e5e6 32bd 5712 3abc 84a5 433d
000000f0: 1d97 8e3d 141b cc3d 91eb c0bd a908 27bd
00000100: fd26 1fbd f549 c7bd c075 a4bd 011d ca3d
00000110: 12fd 833c 6ea7 12bd 4d86 a0bd 3d75 94bd
00000120: 7628 5a3c 1216 9d3d a471 7fb9 8133 41bd
00000130: 5fbd 03bd 5ff7 033e fe9b ac3d bfcc bfbc
00000140: afa0 963d 1b40 583d 3bcb 893d 26df 693c
00000150: 2f7e 9a3d 97f2 293d 79e1 39bd 80ab a83d
00000160: ffb0 d2bc 4cbd 63bd a718 6dbd e3f8 42bd
00000170: f7cf afbd 8aef b13d bb03 98bc d71b cebd
00000180: d5fe bdbd 688b a93d a8b7 dcbc 09d2 833d
00000190: 0ed1 063d bc14 bcbd 2fa9 ca3c b248 6abc
000001a0: 9c61 083d 2a87 51bc 27d7 e2bb 8161 d43d
000001b0: 8cbd 86bc 1f35 b73d 0711 a0bd 3e04 b73d
000001c0: 5486 8c3d b80f 813d 2fea eebc 4d0a 833d
000001d0: 154f debd 38e5 cf3d 8f8b 503c 0a47 83bd
000001e0: ac7a 43bd 3bd9 fc3b 589b 513d 8535 16bd
000001f0: a627 6cbd 7d29 5bbd 472a 7e3d 40cb 89bd
00000200: b9e4 c2bd 32ca d23b 73da 87bd bf74 69bd
00000210: da0e 003d de6e 963d dd8d c73d 31d4 cabb
00000220: 6f94 863c 1022 a3ba 88da 433d f08a 323d
00000230: 3df1 653d d71d b93d f5d9 81bd ff6e 593d
00000240: 22ca 703d 2b87 b2bc cf23 bebd 743f 8bbd
00000250: b873 96bd 0c3f a2ba a054 813d 0542 c03c
00000260: ba68 e3bd 3600 79bd 2196 96bd d95e 89bd
00000270: 74ac 443d 9f94 efbb 96d7 d33c c16d a03d
00000280: f130 b4bc 5863 6d3d b415 18bb 01ea 683d
00000290: d4f6 a83c fc39 a0bd 2d40 95bd f159 9e3d
000002a0: a0e9 673b 1654 e73c 2365 a33d 0343 83bd
000002b0: 8d6b 453d f972 013b 16c9 57bd 0136 ee3d
000002c0: 6135 92bd 98db 4cbd 3c26 36bd bb13 e13c
000002d0: 14b9 913d 4ce9 523c 5ba3 4e3d fe5a 6dbd
000002e0: 5a04 afbd 1c2a 62bd bb0a 6b3c aef9 b33d
000002f0: f9c5 a03d 057d a7bd afaf 3fbd 6beb a3bd
00000300: c764 203d 59b5 aebd 7e59 bc3b 0601 d13d
00000310: 337d 51bd f5c6 0c3d aea7 9cbd e29e 3cbd
00000320: b0d4 033e 377a 513c c084 ca3d 910a b63c
00000330: 3f07 3abd 9cb9 243c 737c 4b3d 7676 d9bd
00000340: b098 02be d5a2 693c 46ca e03c 48ab 5ebc
00000350: 45b1 a7bd e694 aa3d 561c 8a3d 790d aa3d
00000360: 05e3 e83c 0afa 9abd 0395 f1bd 9f5a c73d
00000370: ef8d 56bc ba9b ec3d 63c4 413d 23af 393d
00000380: 403b dd3c c125 d03d f20c 563c 055a 92bc
00000390: 99de 5dbd b55f 60bc 7d16 a43d c83d 863d
000003a0: e526 4cbd a5b2 69bd 9339 59bd ee70 c7bd
000003b0: f73d b43d bae5 ffbc 10d3 163d 0828 f73c
000003c0: d11f 003d 2408 db3c a1fa 92bd e19a b5bd
000003d0: bb68 08bd 08a9 663d ddf9 333d c377 b53d
000003e0: c64e 8439 e873 033d 1780 4b3d 69e8 063e
000003f0: f674 85bc 688f 533d cb79 b53c 580d f43d
0.047687173 0.051115327 0.08631085 -0.011092146 -0.020962149 0.06272043 -0.03426291 -0.025754312
0.09149584 -0.042642366 -0.04085624 -0.0033991353 -0.0747465 -0.0982452 -0.01693601 -0.0011246518
-0.04822226 0.07751371 0.05135898 0.0967389 0.054848537 0.049468506 0.14175913 0.0657189
0.01628056 0.07968669 -0.00596273 -0.040984113 0.0026640282 0.0026955314 -0.060026284 0.095414035
-0.061624248 -0.04357169 0.0665152 -0.051205 0.08366046 -0.09449039 0.0029173114 0.09189169
-0.0569839 -0.035830885 -0.038979515 -0.022007857 0.032753974 0.06191422 -0.100949086 0.04837021
-0.015770439 0.035442863 -0.0011543797 0.061364863 0.044599663 0.027844124 -0.06067023 -0.05605608
0.0034287195 -0.04367723 -0.011356912 0.04776527 0.06962416 0.09966102 -0.09419931 -0.040779743
-0.03885554 -0.09730903 -0.080302715 0.09868813 0.016111884 -0.035804205 -0.07838116 -0.07248924
0.013315311 0.07670225 -0.0002436103 -0.04716826 -0.03216302 0.12887333 0.08428191 -0.02341306
0.07354867 0.05279551 0.06728216 0.014274394 0.07543599 0.041491117 -0.045381043 0.08235836
-0.025719164 -0.05560045 -0.05788484 -0.047600638 -0.08584588 0.086882666 -0.018556466 -0.10063904
-0.09277121 0.08278543 -0.026943043 0.064365454 0.032914214 -0.09183642 0.024738876 -0.0142995585
0.033296213 -0.012788573 -0.006922621 0.1037016 -0.016447805 0.08945679 -0.07815748 0.08936356
0.068615586 0.06301826 -0.029164402 0.06398449 -0.108549275 0.10151142 0.012728586 -0.06410034
-0.04772441 0.0077163256 0.051173538 -0.036672134 -0.057655 -0.053506363 0.062052038 -0.0672822
-0.09516282 0.006432795 -0.06633463 -0.056996103 0.031264164 0.07345365 0.09743855 -0.006189846
0.0164282 -0.0012446065 0.04781583 0.043589532 0.056138266 0.090388946 -0.063404 0.05308437
0.05878652 -0.021792969 -0.09284174 -0.06799212 -0.0734629 -0.0012378409 0.06314969 0.02346898
-0.111039594 -0.060791217 -0.073528536 -0.06707544 0.048016027 -0.007311418 0.025859635 0.07833434
-0.021995993 0.05795607 -0.0023206295 0.05686379 0.02062551 -0.0782356 -0.07287631 0.07731999
0.0035387054 0.028238337 0.07978275 -0.06409266 0.04819827 0.0019752367 -0.052682005 0.11631394
-0.071390875 -0.05001411 -0.044470057 0.027475229 0.07115379 0.012873005 0.050448757 -0.057948105
-0.08545752 -0.05521594 0.01434582 0.08787857 0.0785026 -0.081781425 -0.046798404 -0.08003887
0.03915861 -0.08530683 0.005747973 0.10205273 -0.05114479 0.034369428 -0.0764917 -0.04604996
0.12874103 0.012785486 0.09888601 0.022221835 -0.045417067 0.010054018 0.04967923 -0.10618298
-0.12753558 0.014260014 0.027440201 -0.013590641 -0.08188108 0.083291814 0.06743686 0.08303351
0.028428564 -0.075672224 -0.11796 0.097340815 -0.013095363 0.1155314 0.04730643 0.04533304
0.027005792 0.10163451 0.01306461 -0.01786519 -0.054167364 -0.013694693 0.08012102 0.065547526
-0.04984178 -0.057055134 -0.053033423 -0.097383365 0.08800881 -0.031237472 0.03682238 0.030170456
0.031280342 0.02673728 -0.0717671 -0.088674314 -0.033303004 0.056313545 0.04393946 0.08860733
0.00025235693 0.03209296 0.049682703 0.13174595 -0.016291123 0.051650435 0.022152802 0.119166076

gru.weight_ih_l0_reverse f4 [300, 100]
00000000: 1acf b5bd 81e7 c03c 7abc af3d 0e25 c33d
00000010: fa80 33bd 5de9 42bb fd8e c13d fa83 36bd
00000020: 33e7 c7bd 3e73 acbd 1379 983d 7dd7 0dbc
00000030: 2006 3e3d 074e 793d 58fa 88bd 59f4 02bd
00000040: 388a d0bc 766f 3b3d 329f c53d e2b5 22bb
00000050: 92fc cd3c 435d 503d c74e 823d 4ebc 4ebd
00000060: 9aac 9c3d 6e97 6f3b dda0 a23d 6ef4 0d3d
00000070: be35 de3c 88ed 013d d7fc a23d b61b adbd
00000080: 6344 b9bb 2617 64bd 21e0 61bd 0487 89bd
00000090: dcda 6cbd 9ee9 e03b ba79 923c 7717 703b
000000a0: d04c debc 270f 393d f116 9d3d d029 8cbd
000000b0: b154 7e3d 29ef 48bd f942 d1bd d348 bf3d
000000c0: c867 aebc 85d9 243c 9863 da3c 9e8b a6bd
000000d0: 3bbf 903d c505 7abd 4944 b6bd 6f2f c63d
000000e0: 39d5 a0bd ceed 943c e24b c93d 8a85 e1bb
000000f0: aedd 89bd d676 113d 3d46 86bd 3135 b73d
00000100: d375 a43d 0a8e bd3d eac5 a4bd 47f1 183c
00000110: 5314 373c 5551 063d 0334 793b c0fd 843c
00000120: 4d6d 5d3d 0f3d bd3c 2fb9 77bd 2da8 bb3c
00000130: a48d 25bc 50a8 65bd cd88 883d ab66 b5bd
00000140: e000 f83c 7798 393d d040 2d3d 5f7d dcbc
00000150: 32ad 233d 3ca6 89bd ef7f 38bd 973f 2b3a
00000160: af3e 8f3c 4cc8 a43d e0a0 95bc ea63 643d
00000170: ea4a 883d d678 3e3d c5f3 013d 0ac3 7dbd
00000180: 4545 c7bd cabe b6bd 2fb2 afbd a850 b03d
00000190: 0d93 ab3d f952 2c3d 7983 8c3d 5cfa 10bd
000001a0: 01ec a9bc a07f 5fbd b77d 98bd 3fa9 2dbd
000001b0: 3245 a8bd fa6d 3dbd 17b8 7fbd d1c6 ad3d
000001c0: d9ec bebc ffad ecbc 1fab 563d 0b76 28bd
000001d0: 4f04 c43d 1555 9a3c fc9b babd 5b88 bf3d
000001e0: f820 1d3d 9aaf ca3d cfd7 c7bd c11b b33d
000001f0: 3703 ce3d 208c 2ebd bfc3 a43d e81e 783d
00000200: fd21 84bc f250 a4bd 53f9 f93a 9162 3a3c
00000210: 49a9 b93c 5a65 a13d 33db 93bd 7ac2 183b
00000220: dd34 b33d 4cc0 cc3d e53c b2bd d48c dabc
00000230: a512 b93c 5cda bc3d 797d 853d 6f08 0b3d
00000240: fafe c03d fdd4 9cbd fe71 75bd 30b1 5b3d
00000250: 56d9 38bc 789f 483d 0261 da3c 5671 6ebc
00000260: d743 b6bd 427c 5d3d 326f b93d 8acb 25bc
00000270: 2b3d 9dbd e9c3 2bbd 40fe a7bd 3c9f 13bc
00000280: fd72 9f3d 54a6 17bb 7fdf 17bd 1a14 aabb
00000290: cf26 86bd 9449 9fbd 1bc2 9cbd e18d 31bc
000002a0: 0dab b4bd f7cd 843d 8e2e 6fbd 043a 05bd
000002b0: 1ff5 843d ce2d 3dbd b07b 4cbd fe50 33ba
000002c0: 42a2 ad3c e965 aa3d 745d a83d 10cc 823d
000002d0: 1d45 4abd 2638 483d aa08 6a3d 9fba 9fbd
000002e0: bdff ecbc 25e6 ec3c fc8f 6a3d 74b4 2bbd
000002f0: fd78 26bd c756 c1bd 42b8 68bc 0e7c 77bb
00000300: a4f1 033d fedd 833c dc64 523c 30ef f1bb
00000310: d922 793d b8c9 b03d 01b4 9dbd f21a ddbc
00000320: 2a25 9f3c f325 beba 5ea5 863d ff81 8bbd
00000330: 770e 70bd 7358 9dbd 2d4a b4bc b04f 123d
00000340: b09b ba3c d807 b23d b449 50bd 01c6 1e3d
00000350: e83f 1dbd db4d 813d 5c0c 653d a7ee 423d
00000360: a1e8 903d f985 743d 61b9 8abc 7e96 473d
00000370: 38f6 c0bd 281d b13c 0d33 7abd 0bc6 94bd
00000380: 7b63 ca3d bf51 69bd 028f c1bd 1b06 1e3b
00000390: 497a 853d 4031 9c3d b6b6 2d3d 1541 94bc
000003a0: a1a4 713d 69b0 40bb 74ce 4f3d 1358 203d
000003b0: a1cd 343b c4a3 993c 28d5 953d 278b e33c
000003c0: 0fa5 393c e15b 8b3d bc5a 073d ef94 04bd
000003d0: 9ed8 afbd 81de ce3c 4d0c 8e3d 8cdc 823d
000003e0: 51b7 6d3d 0195 25bd efa1 3e3c 6134 0dbb
000003f0: 7041 bc3d 4756 77bd ab5c fb3c d439 59bd
-0.08877392 0.02354789 0.08580871 0.09528552 -0.043824174 -0.0029741146 0.09451101 -0.044559456
-0.097608946 -0.08420418 0.07444968 -0.008657333 0.04639256 0.06086543 -0.06688374 -0.03197131
-0.025456533 0.045760594 0.09649505 -0.002482765 0.025144849 0.05087019 0.06362682 -0.05047255
0.07650109 0.0036558765 0.079408385 0.034656934 0.027125236 0.031720668 0.079583816 -0.08452551
-0.0056539043 -0.05568614 -0.055145387 -0.06715205 -0.057825908 0.006863787 0.01788031 0.003663508
-0.027136236 0.045180466 0.07670391 -0.068439126 0.062092487 -0.049056206 -0.10217852 0.09340062
-0.021289721 0.010061626 0.026658818 -0.081320986 0.07067724 -0.06104066 -0.08899743 0.09677016
-0.07853169 0.0181798 0.098289266 -0.006882374 -0.06731735 0.03551372 -0.06556366 0.08945692
0.08030286 0.092556074 -0.080455616 0.009334869 0.011174279 0.032792408 0.0038025386 0.016234279
0.054059315 0.023100404 -0.06047934 0.02290734 -0.010104571 -0.05606872 0.06666718 -0.08857473
0.030273855 0.045311417 0.04229814 -0.02691525 0.039960094 -0.0672116 -0.045043882 0.0006532608
0.017485945 0.08046016 -0.018265188 0.055759348 0.06654914 0.046501957 0.031726617 -0.061953582
-0.09730009 -0.08923109 -0.08578908 0.08609134 0.08377657 0.042071316 0.06861014 -0.03539501
-0.020742418 -0.054565072 -0.07445853 -0.042397734 -0.08216323 -0.04624746 -0.06243142 0.08485187
-0.023306297 -0.028891562 0.052409288 -0.0411282 0.09571134 0.018839398 -0.09111783 0.093521796
0.03836152 0.098967746 -0.09757959 0.08745528 0.10059207 -0.042614102 0.08045148 0.06057635
-0.016129488 -0.080232516 0.0019071497 0.011376039 0.02266373 0.078806594 -0.07219543 0.0023309276
0.08750317 0.09997615 -0.08703021 -0.02667848 0.022591898 0.09221336 0.06518073 0.03394359
0.09423633 -0.07657812 -0.059923165 0.053635776 -0.011282286 0.048980206 0.026657585 -0.014553389
-0.08899658 0.05407358 0.09054412 -0.010119328 -0.076776825 -0.04193488 -0.08202791 -0.009010132
0.07785604 -0.002313991 -0.037078377 -0.0051903846 -0.06550371 -0.07777706 -0.0765421 -0.010837049
-0.08821688 0.06484597 -0.058394007 -0.03252603 0.06492066 -0.04618626 -0.049922645 -0.0006840377
0.021195535 0.08320219 0.0822095 0.06386578 -0.049382318 0.048881672 0.05713717 -0.07799267
-0.02893054 0.028918335 0.05726622 -0.04192014 -0.040642727 -0.094403796 -0.014204087 -0.0037763151
0.03221287 0.016097065 0.01284143 -0.0073832497 0.06082425 0.08632225 -0.07700349 -0.026990388
0.0194269 -0.0014507159 0.0657451 -0.06811904 -0.058607545 -0.07682886 -0.022008026 0.035720527
0.022779316 0.08692902 -0.05085154 0.03876305 -0.038391024 0.06313678 0.05591999 0.047590878
0.070756204 0.05969808 -0.016934099 0.048727505 -0.094219625 0.021620348 -0.061083842 -0.07264336
0.09882256 -0.056962725 -0.09451105 0.0024112526 0.06517465 0.07626581 0.042410575 -0.01809744
0.058994893 -0.0029402024 0.050734 0.039146494 0.0027588385 0.018754847 0.07316047 0.027776314
0.011330857 0.06804634 0.033045515 -0.032368597 -0.08586238 0.025252583 0.0693594 0.06389722
0.058036152 -0.040425304 0.011635288 -0.0021546113 0.09192169 -0.060385015 0.030683836 -0.053033665

gru.weight_hh_l0_reverse f4 [300, 100]
00000000: 6766 3fbd 9333 70bd 4bd6 203d 4a94 6a3d
00000010: 42e1 f33c b75a 373d 114a e63b 57cc e6bb
00000020: 1880 9b3d 5e5d 913d dc19 b7bd ce00 8fbd
00000030: cfb1 28bd 4963 96bd 3726 b43d b404 493c
00000040: 019e aabd 8a66 9d3d 13e4 10bd 47c5 2a3d
00000050: b268 23bd 7084 813d 0437 c6bd e134 443d
00000060: 6147 5c3d 8ae7 b13d e8d5 553d 5bb6 cbbd
00000070: 529e dc3c b8e0 ad3c 03a4 56bd 2a1b a13d
00000080: 0416 5abd ff1a 8a3d 3fb1 993d a7f2 c23d
00000090: e803 433d 1749 3fbd f9e7 15bd 54f8 b53d
000000a0: d9ba 753d ae54 91bc e396 febb c4dc bc3c
000000b0: c3da 38bd f29a 8bbd 6106 b9bd 873f a23d
000000c0: e385 6c3d 9920 1e3d b628 4f3d 169e 48bd
000000d0: 86b7 a23d 1fe5 793d 9a5c cf3c 68e4 933d
000000e0: 2250 b8bc c724 6b3d be25 4abd 1661 233c
000000f0: 0b7e 993d 26f4 a4bd dbf8 a33d 2e1c a83d
00000100: f212 b2bd 52cd 9d39 653c 373d 7230 be3c
00000110: ad26 adbd 3242 5a3d 44cf b13d de04 ca3d
00000120: 6acc 83bc abae 513d 1133 9f3d dcd7 1cbd
00000130: ea1d bf3c 6819 2d3c a728 0d39 8889 16bd
00000140: dd1f eb3c 5198 cbbd 075e 4abd a860 af3d
00000150: bbb7 5fbd 202c 75bc c6e2 96bd 4264 b6bd
00000160: 47fc d73c fd4d babd 2f1c c73d 6379 af3d
00000170: 169c 9dbd f03c 703c dc9d 273d 9f1e 43bb
00000180: 0e91 aebd 28bd c23d da7b 86bd 3ffb a63d
00000190: c1f5 c93d 5052 b0bd c196 c3bc 3b7e 82bd
000001a0: eb91 f8bc 13a7 123d 9356 3dbd be56 083d
000001b0: 912f 293c 7d3d c5bd 989a 393d 6955 46bc
000001c0: 6c10 0e3d 2e65 87bd 3899 563c 22ce 92bd
000001d0: d419 05bc fac4 a03d 741e 233c d4f7 9eba
000001e0: 0d99 b33d 3654 9ebd 8c3c 343d 8a2b 2f3d
000001f0: 5119 1c3d 961b 4fbd 9cc4 433d 29ed 543d
00000200: c992 15bd 88b0 b93c 97e9 533d ac2a 88bd
00000210: 552b a53d c684 223d d3a0 febc 0a0b bc3d
00000220: 4645 713d 2df7 62bd c42b 463d 696e 2ebd
00000230: 81a6 673d ba50 45bd 93e6 a7bd 28fa 81bc
00000240: 27a2 c5bd a50b 193d b27d c03d 9071 993c
00000250: 17fa 5e3d 9f0d 323d b167 423c 9398 58bd
00000260: 7bb5 cf3c d36c cc3d f942 9f3d 8c84 3a3d
00000270: 0e82 a5bd adad c2bd 1c01 82bc 9b85 b9bc
00000280: 6011 663d 271b 96bd d58a ce3c 1b5c bcbd
00000290: f061 ba3d de46 7cbd 68a6 c7bd 3023 62bd
000002a0: ad3c 6ebd c1dc b2bd 1390 c53d adef 6dbd
000002b0: c6e7 fb3c 3780 51bc 60ae c83d 4572 e5bc
000002c0: 875c 6a3b d322 aebc d262 603c bafe 873d
000002d0: 0aa0 3e3c 901d e7ba 56a5 143d e035 0a3d
000002e0: 8d84 a8bd f8b6 ad3d f135 22bd b9d0 56bd
000002f0: 1df6 a5bd 7543 193d 610e 4e3d a58c a13c
00000300: d1df 3f3d 9b16 8d3d dd2a c13d e3e4 c7bd
00000310: 9a40 d43b 2ad8 95bd 8327 4a3d d7a9 4e3d
00000320: e89e 0c3d 541f cb3d f597 b7bd 605b adbd
00000330: 29b4 83bd bfa9 113d 3941 543d 7684 b73d
00000340: f1ba 89bb 0844 72bd c199 c83d a92b c43d
00000350: 9cbd c93b bb68 9abd 598f bdbd 460e 26bb
00000360: 01f5 bcbd 5ac3 0fbd e854 3abd 7520 b73d
00000370: d8a4 a93d ddbc 853d 22bf 4f3d be16 973d
00000380: 5bc2 34bd 6fb3 9dbb fa43 0ebd 22e6 b93d
00000390: caf0 993d 6bc4 223d 9a50 5a3d cc7e 3b3d
000003a0: 910c 893c 7a39 833c c6df 85bc ba89 9abd
000003b0: 43b0 563a 1326 9c3d 2fcd 243b ba31 793d
000003c0: 04a4 6fbd 7d53 a63c f452 29bc 1a49 ac3d
000003d0: 1bde c83d 79a3 f63b c021 a43d 5372 fa3b
000003e0: d107 7b3d d3bb 003c 57d2 94bc f021 c93d
000003f0: b830 67bd 8673 54bd b91f c3bc 7feb 833c
-0.046728518 -0.058642935 0.039266866 0.057270326 0.029770497 0.044764247 0.0070278724 -0.007043402
0.07592791 0.070978865 -0.08940479 -0.06982575 -0.041185196 -0.07343156 0.087963514 0.012269188
-0.08330918 0.076855734 -0.03537376 0.041692045 -0.039894767 0.063240886 -0.09678462 0.04790199
0.05377901 0.08686741 0.05220595 -0.09946891 0.026930962 0.021225318 -0.052402508 0.07866509
-0.053243652 0.0674343 0.0750451 0.095189385 0.047611147 -0.046700563 -0.03659818 0.088852555
0.059992645 -0.017740574 -0.007769452 0.023054488 -0.045130502 -0.06816663 -0.0903442 0.07922273
0.05774487 0.038605306 0.050575934 -0.048978887 0.079451606 0.061009523 0.02531271 0.072212994
-0.022499148 0.05740812 -0.0493524 0.009971878 0.07494744 -0.0805438 0.0800645 0.082085
-0.0869502 0.0003009835 0.04473533 0.02321646 -0.084546424 0.053285785 0.08682111 0.098642096
-0.016088683 0.051191967 0.07773412 -0.038291797 0.023329694 0.010565139 0.00013461952 -0.036752254
0.028701717 -0.099411614 -0.049406078 0.085633576 -0.05461858 -0.0149641335 -0.07367472 -0.089058414
0.026365412 -0.09096906 0.097221725 0.085680746 -0.07695787 0.014662966 0.04092203 -0.002977289
-0.08523761 0.09508735 -0.065665916 0.0815339 0.09861327 -0.0860945 -0.023875596 -0.06371733
-0.030343017 0.035803866 -0.04622514 0.03328585 0.010326282 -0.096308686 0.045313448 -0.012105324
0.03468363 -0.06611095 0.013098054 -0.07168223 -0.008123834 0.0785007 0.009955991 -0.0012128302
0.087694265 -0.07730906 0.044003054 0.04276613 0.03811008 -0.050563417 0.047794923 0.051983986
-0.03651694 0.022667184 0.05173644 -0.06648764 0.080649056 0.039677404 -0.031082546 0.09181793
0.058903955 -0.055411506 0.048381582 -0.042585764 0.056555275 -0.04817269 -0.081982754 -0.015866354
-0.09650069 0.03736462 0.093989745 0.018730909 0.054437723 0.04347002 0.011865542 -0.05287988
0.025355091 0.09981694 0.07776446 0.045536563 -0.080814466 -0.09505782 -0.01586967 -0.022646716
0.056168914 -0.07329398 0.025212685 -0.09197255 0.09100711 -0.06159102 -0.09748536 -0.05520934
-0.058163334 -0.08733512 0.096466206 -0.0580899 0.030750167 -0.012786916 0.097988844 -0.02800859
0.0035760717 -0.02125684 0.013695436 0.06640382 0.011634836 -0.0017632712 0.03629049 0.033742785
-0.08228407 0.08482164 -0.039602224 -0.052445147 -0.08103583 0.037417848 0.05030668 0.019720385
0.046844307 0.06889077 0.09432004 -0.097604536 0.0064774277 -0.07316621 0.049354088 0.05045494
0.034331232 0.09918085 -0.089645304 -0.08464694 -0.06430847 0.035562273 0.051820014 0.08960812
-0.0042031934 -0.05914691 0.09794951 0.0957864 0.0061566364 -0.07539507 -0.09255857 -0.0025338097
-0.09226418 -0.03509841 -0.04549113 0.089417376 0.082833946 0.065301634 0.050719388 0.073773846
-0.044130664 -0.00481265 -0.034732796 0.090770975 0.0751663 0.0397381 0.053299524 0.04577522
0.016729625 0.016018618 -0.016342055 -0.075458005 0.0008189717 0.076244496 0.0025146713 0.06083844
-0.058506027 0.020303482 -0.010334719 0.084123805 0.09807988 0.0075268117 0.0801425 0.007643023
0.06128675 0.007857281 -0.018166704 0.09820926 -0.056442946 -0.051867984 -0.023818837 0.016103504

gru.bias_ih_l0_reverse f4 [300]
00000000: 22ce ca3d f44f 88bc eced 3fbd b251 093d
00000010: 5fca f23c d397 993d 688b 903c df5a 973d
00000020: a065 353d bbf8 6fbd ce59 35bb f8cb 69bd
00000030: 3cd2 9fbd af76 8c3c c4bf 463d d32a 7c3d
00000040: 31cb 4a3d 1b7b fb3d 8e10 673d 367e b43d
00000050: 7f76 64bc bce6 a83c 8735 7ebb 217f 293d
00000060: fbef 703d 623e 163d 51b6 0e3d b203 8cbd
00000070: 4001 563c c776 943c ec37 b53d afb3 283d
00000080: 95ce 63bd d62e fa3c e071 9abd afb9 94bd
00000090: 0201 49b9 355a 42bc 7175 733d 5f6d 903d
000000a0: a050 fd3a 7b4a a3bd a783 a1bc 0c88 873c
000000b0: f492 60bc 388b 423d b44e 53bd 6557 5dbd
000000c0: c78d b83d 1359 34bc a457 6abd e1c0 bc3d
000000d0: 24a4 24bc 3bc0 e33d b971 30bc 878e ca3d
000000e0: 1542 fe3c af0d ea3d f545 a9bd 7dda 633c
000000f0: dd9e 0bbd a501 50bd 6400 a3bd 2a08 6dbd
00000100: 2921 b73d e27e 983c 1ce3 26bc efc2 74bd
00000110: 40b7 84bd 11ee 693d 5a39 85bd 0347 4f3d
00000120: 7ce7 48bd 96b8 5ebc 144f bfbd 9acb 2c3d
00000130: 02b0 bebb fd90 8dbd a526 bc3b c8b6 c13c
00000140: 348e 38bc 4d7b 71bd 1639 46bd 7d45 ad3d
00000150: 1709 a23c 217a 30bd e1fb b43b 380b ec3d
00000160: 8b1b 833d 7bae 413d 8b32 5d3d 4f32 45bc
00000170: 765f a53d 5060 ad3c 67fe c6bd 21bf 0e3d
00000180: 517a aa3d 3fe0 023d 458e c13d 476c bfbd
00000190: 30bb f73c 964c aa3d 28d0 563d 47ad 30bd
000001a0: 8ac5 ecbc 53f2 cebd 9e62 96bd c8f6 d03b
000001b0: 8391 bebd 7e31 fe3c b971 073d 98e1 76bd
000001c0: 40a5 39bc c7b6 54bd 40e7 713d bca7 ebbc
000001d0: e604 01bd 1f8a 3e3d 01c1 86bd e992 9cbb
000001e0: 1891 63bd 60d9 393d a81f 9a3c 77e3 993d
000001f0: 1158 04be 84a0 ca3d f36f c23d 1ad7 923d
00000200: bc0a 8f3d b96a 843d 4dae 8f3d 39f3 773d
00000210: 70ae e73c 9bf3 19bd 18bf a4bd 7776 b9bc
00000220: d30b c4bb be2f dabc 47e9 cf3c 9b8b 68bd
00000230: 3525 9fbd f6db e73c 5d50 ccbb 859a 6dbc
00000240: eb7c 373d 68e1 6d3d 15e2 97bd e6a4 45bd
00000250: 1b07 c8bd f8fb 8b3d e761 93bd 2edf 873d
00000260: d736 a5bd 1214 44bd 6af9 9a3d a07d a8bb
00000270: 4646 bbbd c2b0 f03d 0d57 80bd 19c4 9abd
00000280: d72b ca3c a7dd 213d 2a9c 7dbc cde0 86bc
00000290: f412 c63d c2b4 bcbd 6c40 dabc d102 7dbd
000002a0: 7d20 023c 664b d63c fc73 16bd aeb9 173d
000002b0: 8360 81bd 0590 cd3d 87f2 a83d 161f b33d
000002c0: 1348 333d 9f7f b43d 734f 1abc 92c3 8bbd
000002d0: 82f2 283d 643c 9f3d f14d a33c 2c94 753d
000002e0: a3f9 3fbd 6e07 aebd 3661 b6bd a8fd b4bc
000002f0: 8b5e a7bc adb2 6d3d 09c1 b43d 498f ae3c
00000300: c59c bebd d61c cc3c 571e 4e3d 0a2c bbbd
00000310: d0ca 863d 4780 23bd 0dcb ac3d ffdc a1bd
00000320: ca0b 57bc ed02 143d dcc2 ff3c 68f9 27bd
00000330: 74e3 d13d 82da 30bc 93e8 09bd 52d0 b5bd
00000340: d1c9 b1bd 1b9d cc3d 5139 e63c 5be9 acbd
00000350: c3e5 843d f5ac cabc 199d a43d 0b95 183e
00000360: 1a42 d9bd 2837 3bbd 7e4f 053e 0510 973c
00000370: 2080 883d c182 083e 271d e6bb efba 9cbb
00000380: c4d2 1d3c f246 e3bd 37b0 4e3d 03cf 44bd
00000390: 29e7 59bc 70dd ec3d 35f5 0dbd a87b dd3d
000003a0: 04bb c3bd 879a abba 43e4 e73b 3d55 063d
000003b0: 950a 6ebd 1a75 cf3d b1ad 653d fd36 12bd
000003c0: ada4 9cbc c77d 143e 2cba a4ba 0757 d53d
000003d0: 43a5 323e 4d51 01be 9281 82bd 96e5 ccbc
000003e0: b511 f63d 9737 a63c 2e29 b8bd c3ff 2c3d
000003f0: 9899 a83d 264f aa3d 4e5a 57bc a5d3 95bd
0.09902598 -0.016639687 -0.04685776 0.033525176 0.029637514 0.07499661 0.0176446 0.07390379
0.04428637 -0.058586817 -0.0027671936 -0.057079285 -0.07803771 0.017146436 0.048522726 0.061564278
0.049510185 0.1227934 0.056412272 0.08813135 -0.013944267 0.020617835 -0.003878923 0.041381005
0.058822613 0.036680587 0.03484184 -0.06836642 0.013061821 0.018123044 0.08848557 0.041186985
-0.055616934 0.030539911 -0.07541251 -0.07261979 -0.00019169229 -0.011862327 0.059438173 0.07052111
0.0019326396 -0.079731904 -0.019716097 0.016544364 -0.013706911 0.04749605 -0.05158873 -0.054038424
0.09011417 -0.011007565 -0.057212487 0.09216476 -0.0100489 0.111206494 -0.010769301 0.09890466
0.03103737 0.11428391 -0.08265296 0.013907072 -0.03408705 -0.05078282 -0.07959059 -0.057869114
0.08941872 0.01861519 -0.010185983 -0.059756216 -0.06480265 0.057111803 -0.065050796 0.05060483
-0.049048886 -0.013593813 -0.09341255 0.042186357 -0.0058193216 -0.0691242 0.0057419115 0.023646727
-0.011264373 -0.05895548 -0.048394285 0.084605195 0.019779725 -0.04308522 0.0055231904 0.11525577
0.06401738 0.04728554 0.05400328 -0.01203592 0.08074848 0.02116409 -0.09716492 0.034850243
0.08324111 0.03195214 0.09450964 -0.09346824 0.030240625 0.08315389 0.052444607 -0.043134
-0.028902788 -0.101048134 -0.073430285 0.006377075 -0.09305098 0.03102946 0.03306744 -0.060273737
-0.011330903 -0.051932123 0.059058428 -0.028766505 -0.031498812 0.04651844 -0.06579781 -0.0047782552
-0.055558294 0.04537332 0.018813923 0.075140886 -0.1292422 0.09893897 0.09494009 0.071699336
0.06984469 0.06465668 0.07015667 0.06053469 0.02828142 -0.037585836 -0.08044261 -0.022639496
-0.005982855 -0.026634093 0.02537979 -0.056773763 -0.077707686 0.028303128 -0.006235166 -0.014502172
0.044796865 0.058076292 -0.074161686 -0.048252963 -0.0976698 0.068351686 -0.07196408 0.06634365
-0.080671005 -0.047870703 0.07567103 -0.005141929 -0.09144263 0.11752464 -0.062666036 -0.07556934
0.024679108 0.039518025 -0.015479127 -0.016464615 0.09671584 -0.09214164 -0.026642047 -0.061770264
0.007942316 0.026159 -0.036731705 0.037042312 -0.06317236 0.10037235 0.082493834 0.087461635
0.043769907 0.08813404 -0.009418356 -0.068244115 0.0412469 0.077751905 0.019934626 0.05995576
-0.04686893 -0.08497511 -0.0890526 -0.022093609 -0.020430824 0.058031727 0.08825881 0.021308558
-0.09307245 0.024916094 0.050321903 -0.09139259 0.06581652 -0.039917257 0.08437166 -0.0790348
-0.013125369 0.036135603 0.031220846 -0.041009337 0.10248461 -0.010794284 -0.033669066 -0.088776246
-0.086810715 0.09990903 0.028103502 -0.084429465 0.06489136 -0.024740675 0.080377765 0.14900605
-0.10608311 -0.045706898 0.13018605 0.018440256 0.06665063 0.13331129 -0.007022518 -0.0047830264
0.00963277 -0.11097516 0.05046102 -0.048048984 -0.013299742 0.11565673 -0.034657676 0.10814601
-0.09557155 -0.0013092317 0.0070767715 0.032796133 -0.05811556 0.10129757 0.05607385 -0.035696972
-0.019121492 0.14501105 -0.001256769 0.1041699 0.17445855 -0.1262867 -0.0637237 -0.025011819
0.12015096 0.02029018 -0.089922294 0.0422361 0.08232421 0.083158776 -0.013144089 -0.073157586
