parameter/crf_lstm_parameter/7_Bigru_crf.ckpt (torch_old, 582775 bytes, 13 tensors)

transitions f4 [30, 30]
00000000: 0040 1cc6 0040 1cc6 0040 1cc6 0040 1cc6
00000010: 0040 1cc6 0040 1cc6 0040 1cc6 0040 1cc6
00000020: 0040 1cc6 0040 1cc6 0040 1cc6 0040 1cc6
00000030: 0040 1cc6 0040 1cc6 0040 1cc6 0040 1cc6
00000040: 0040 1cc6 0040 1cc6 0040 1cc6 0040 1cc6
00000050: 0040 1cc6 0040 1cc6 0040 1cc6 0040 1cc6
00000060: 0040 1cc6 0040 1cc6 0040 1cc6 0040 1cc6
00000070: 0040 1cc6 0040 1cc6 e590 9bbe a2b9 b1be
00000080: 4a5d 2c3f 9ad4 11c0 8f4c 33be c001 bf3e
00000090: f102 46be a35f 28bf d5d9 d03f 4ea2 923e
000000a0: 100d 403e 6275 6f3e 35b1 52be 8919 09bf
000000b0: c37e a0bf 871c b8be f621 833e fb44 85bf
000000c0: 0cbf 89bf d160 c0bf 8e60 9cbf a496 82bf
000000d0: 4b68 423f c43f 02c0 b113 31bf c778 013f
000000e0: c4a9 5f3f 548b 04bf 1ce1 773e 0040 1cc6
000000f0: 78d2 2e3f b754 173e 5d66 033f 537c 7c3e
00000100: 960a 2a3f 687e 1c3f 6138 5cbe 50c7 d5bd
00000110: 1fbd 033f 87e5 5f3f c0cf 1f3e 8c2f 933f
00000120: 201a 733f d73c 373f 15be 3c3f 0c08 093f
00000130: 400f 0cbf 7c7d a8be c18b 7dbe da83 be3e
00000140: 73a2 02bf 6fd4 b3bf 7c6d f7bd ff3d 9b3f
00000150: 80ec 72be 03bc 96be 6ecd 20be cc77 c23f
00000160: 08f0 4abe 0040 1cc6 0619 313f e19c 543e
00000170: 802c 953f 9582 893e 1f9c d83f 7331 b9be
00000180: aa17 443f fa2b 81bf 9a97 44bf 55cb f6be
00000190: 95f4 7bbf 45ad c1be e3cf 7ebc 679c b13f
000001a0: a528 09be 1a11 543e 53be 803e 5cd4 40be
000001b0: 31fe 963e c418 d53d 7a23 e33e 58d6 91be
000001c0: 7ef2 453f fed2 95be 958c db3e 0e7b d2bf
000001d0: 1dfd bf3f b856 703d db64 35bf 0040 1cc6
000001e0: ce22 513f 4dc7 89bf cd74 2bbf 8419 3540
000001f0: 5fe9 9dbf 50cc 2fbf 5203 14bf 46b5 f8bf
00000200: c729 55bf f587 4cbf c57b 6a3e 0680 cebd
00000210: 9f45 d73f fc02 023f f530 423e 2389 633e
00000220: 84ae 0f3f a4e7 51bf 0552 eabf 1d7c 903f
00000230: 3356 0c3f eee9 10c0 1b27 2e3f 1278 c33f
00000240: f3c6 283f 3f38 a33f bfc1 5cbf 66ee dbbd
00000250: bf54 0440 0040 1cc6 01a1 35bf 1f9a 833f
00000260: e582 213f 8ae2 a53f 14e1 83be 13d8 573f
00000270: b058 11bf 8321 583f c908 01bf a229 863f
00000280: ac06 0a3f 19ff 733f 3568 053f cb1d b03e
00000290: 8b8d 76be 4394 a83e c37a 4bbe 2b71 873e
000002a0: 56e4 d23f 3678 10bf f398 d3be a1d7 e03e
000002b0: 7d3b 853f 8095 f03f 919b db3f 81df e6be
000002c0: 8aa6 7cbf 5b7e 50bf 7817 2b3f 0040 1cc6
000002d0: 0702 6d3f 602b 4ebe e6c1 f83f 9818 353f
000002e0: 7b12 ab3e 0074 bc3f eae8 7fbf f199 e33d
000002f0: 0620 853f 63f2 633f 47e0 4dbf 474c 193f
00000300: 455a 23bd 7ed5 bfbe e736 1ec0 c560 013e
00000310: 3a25 95bf 02c1 ee3e fa9c b23f 87c1 d5bc
00000320: b8a8 743e 94b7 ed3d a815 31bf 6de2 e63e
00000330: 571b 3cbf 648a 813e 1023 ce3d 004f 6abf
00000340: e76e 973f 0040 1cc6 f2f8 cb3f 2492 49bf
00000350: bf87 453e 7ebe 1e40 9107 4fbf ad83 3dbf
00000360: d136 b93e 7e28 9b3e e8ac f53f e034 333f
00000370: 6f51 763f 614d b03c abae dd3e cc66 a43f
00000380: 4d45 55bf b444 a83f 43a2 a73f 3a7f 8d3e
00000390: 8f1b 1cc0 2f34 6f3e 3bef 323f c374 f23e
000003a0: 82ff b53d 9476 8b3e 343e 823d 3515 0abe
000003b0: 9a65 0ec0 e986 763e e010 083f 0040 1cc6
000003c0: 372c c33f 6148 32bf 30ff 7abf 6b2c cfbf
000003d0: 5e13 dcbe d1ed b43f 704e b5bd 2133 773e
000003e0: a86f 89bf 34e9 9c3f 83f1 1bbf 6f39 5a3f
000003f0: 992e 07bf 0673 c83e 2c15 c9bf e44d b93e
-10000.0 -10000.0 -10000.0 -10000.0 -10000.0 -10000.0 -10000.0 -10000.0
-10000.0 -10000.0 -10000.0 -10000.0 -10000.0 -10000.0 -10000.0 -10000.0
-10000.0 -10000.0 -10000.0 -10000.0 -10000.0 -10000.0 -10000.0 -10000.0
-10000.0 -10000.0 -10000.0 -10000.0 -10000.0 -10000.0 -0.30383983 -0.3471194
0.6732985 -2.2786012 -0.17509674 0.37306023 -0.1933706 -0.6577093 1.6316477 0.28639454
0.18754983 0.23384622 -0.20575412 -0.5355459 -1.2538685 -0.35959265 0.25611848 -1.0411676
-1.0761428 -1.5029546 -1.2216966 -1.0202222 0.7594039 -2.035142 -0.6917067 0.50574917
0.87368417 -0.517751 0.24206966 -10000.0 0.682899 0.1477841 0.5132807 0.24656801
0.664224 0.6113038 -0.21505882 -0.104384065 0.5146045 0.87459606 0.15606594 1.1498885
0.9496174 0.7157721 0.7372754 0.53527904 -0.5471077 -0.32908237 -0.24760343 0.3720997
-0.5102913 -1.4049205 -0.12081429 1.2128295 -0.2372303 -0.29440317 -0.15703365 1.5192809
-0.19818127 -10000.0 0.6917881 0.2076297 1.1654205 0.2685744 1.6922644 -0.3617054
0.7659861 -1.0091546 -0.76793826 -0.48202005 -0.9842008 -0.37827507 -0.015552494 1.3875855
-0.13394411 0.20709649 0.25145206 -0.18831009 0.29490808 0.10405114 0.44363004 -0.28483844
0.7732314 -0.29262537 0.42880693 -1.6443803 1.4999119 0.05867645 -0.7085702 -10000.0
0.8169373 -1.0763947 -0.669751 2.8296824 -1.2336844 -0.6867113 -0.57817566 -1.943032
-0.8326687 -0.79894954 0.22898777 -0.10083012 1.6818122 0.50785804 0.18963988 0.22220282
0.56125665 -0.8199408 -1.830628 1.1287876 0.5481903 -2.264278 0.6802842 1.5271018
0.6592857 1.275154 -0.86233133 -0.1073883 2.0676725 -10000.0 -0.709488 1.0281409
0.63090354 1.2959759 -0.25757658 0.8431408 -0.5677595 0.84426135 -0.5040403 1.0481455
0.5391643 0.95311123 0.5211213 0.3439773 -0.24077432 0.32925615 -0.19871049 0.26453528
1.6475933 -0.5643343 -0.41327628 0.43914512 1.0408779 1.8795624 1.715685 -0.45092395
-0.9869162 -0.81442803 0.66832685 -10000.0 0.9258122 -0.20133734 1.9434173 0.7074065
0.33412537 1.47229 -0.99964774 0.11113346 1.0400398 0.8904173 -0.80420345 0.59882015
-0.03988101 -0.3746757 -2.472101 0.12634571 -1.1651986 0.46631628 1.3954155 -0.026093258
0.23892486 0.116072804 -0.6917367 0.45094624 -0.7347922 0.25300896 0.100652814 -0.91526794
1.183072 -10000.0 1.5935347 -0.7873862 0.19290064 2.4803767 -0.8087092 -0.74029046
0.36174634 0.3030433 1.9193392 0.70002556 0.9621801 0.021521272 0.43297324 1.2843871
-0.8330887 1.3145967 1.3096393 0.2763613 -2.439182 0.2335975 0.69896287 0.47354707
0.08886625 0.27238905 0.063595206 -0.13484652 -2.2249513 0.24074902 0.5315075 -10000.0
1.5247868 -0.6964169 -0.98045635 -1.618543 -0.42983526 1.4135076 -0.088528514 0.24140598
-1.07372 1.2258668 -0.6091539 0.85243887 -0.5280548 0.39150256 -1.5709586 0.36192238

gru.weight_ih_l0 f4 [300, 100]
00000000: 7f1b db3b 18b9 b53d 47a1 f1ba 7639 b83d
00000010: 49f9 c83d 38a6 28bc d28d a2bd 93f4 413d
00000020: 8935 adbd b7c2 d93c abe7 a3bd 5a23 953d
00000030: 19b1 ca3c ecb1 f63c 0493 a13d aa50 3fbd
00000040: 7622 91bd 43d1 9abd d3b7 58bc 467a c33d
00000050: ace8 d1bc 96ee c8bd b02e 773d edd9 923c
00000060: 9528 c23d 85af 823d 1945 8d3d 32da b8bd
00000070: f4e3 513c 6bf8 8cbd 8630 e83b 4ffb 20bc
00000080: bfc5 30bc 6959 293d 6475 62bc 7d32 053d
00000090: d66e a0bd bb5d 403d 3a54 52bb 0373 86bc
000000a0: e5a3 233d aeca 793d 5955 16bc 8c2e 173d
000000b0: 9f59 b33d dea0 c13d 91c9 f5bc 2cef 69bd
000000c0: 4a50 9abd e89a 703d 7012 cbbd 6232 45bd
000000d0: c052 aebd 5ee0 17bd 2c8e 9d3d 6a79 80bd
000000e0: 4143 60bd e2b3 ba3c 7d3d b8bd cf16 a83c
000000f0: 728a c6bd bfd9 d3bc f2e3 bdbd 24b8 0cbd
00000100: 7913 913d f201 1bbd 97fc eabc 438f b23d
00000110: 6ab1 153d 5d1c 463d 9ff5 07bd 57e0 24bd
00000120: ecb0 cbbd 6fca 4abd 041d c93d 7b73 993d
00000130: 3f69 993d a671 f63c c2ad 533d 814a 5dbd
00000140: 4d64 903d 5c30 95bd c519 463c b427 d93c
00000150: 35eb a93c 744d 923c 9c9e de3c 1460 babd
00000160: f610 52bd b4d3 5d3d 52b1 503d 922b b0bd
00000170: d8b4 88bd e235 75bd 2d95 b1bd 32a1 ddbc
00000180: d08f 753d b01e 77bd ba62 1c3c 2d9c 9fbd
00000190: 41e0 6fbd ec97 453d 2cf9 3d3d fe11 9c3d
000001a0: aec9 8fbb d815 aebd d62a a5bd 31cf a1bd
000001b0: d42d 403d 8245 15bd 0216 ad3d 4875 b9bd
000001c0: f0bc d1ba ed2a b4bd 7ab2 183d d59d a1bd
000001d0: 36d3 e03c 034a fabc 387b 9fbd 6308 5c3d
000001e0: b946 92bd 1294 713c 9239 cebc 4e34 62bd
000001f0: 3267 b63d 3afe 77bd 5bfa a5bd 1490 163d
00000200: 668a 01bd c4b6 3bbd f3fd aabd fb8f c93d
00000210: eec9 ac3c f9dd c63b 67a3 b0bd b578 993d
00000220: cdb2 643d 3aa8 41bd 3f9d b93b 49bc a73d
00000230: d97b 19bd bbdd 9abd 3bdb 483d e415 6cbd
00000240: d54a 993c 8634 0dbd 20eb c33d 63a5 533c
00000250: f8d1 47bd 2171 713d f7ed b2bd ca57 973d
00000260: e526 d23c e97c 4c3d 4d6f b03d 6ccf 54bd
00000270: 7a29 bdbd b721 913d 99ec 89bd 59d7 58bd
00000280: 2b22 443d b31a 0fbd 6bae 953d 7e81 583c
00000290: b073 56bd c195 06bd 1548 6c3d ceb2 97bd
000002a0: 6a3b 89bd e678 78bd bcaa 43bd 884b 42bd
000002b0: fdaa 61bb 10d3 54bd 2d1c aabd 5716 28bd
000002c0: d4f3 9b3d 4cb4 a03d e31b 35bb 027f 30bc
000002d0: 9b31 3abd ce65 92bc 150f 193c b72b 8e3d
000002e0: 78bb c33d bddc 9ebc 03fc adbd 89a9 98bd
000002f0: 703e a6bd bfc5 813d 868a de3c 7fcd e5bb
00000300: 06d1 223d 7a8a 75bd 19d1 d1bd 7989 85bd
00000310: 4b0d be3c b9d0 dc3c 61e0 1fbd a305 5dbd
00000320: bbc0 0f3d 5d04 ba3c 853a 5d3d 3a92 16bd
00000330: 6831 a63c 6a99 1c3d 5c64 5fbd 3cd5 163d
00000340: 953d bd3d 28e1 253d 7430 66bc 3d30 65bd
00000350: 530b a93d 5034 4d3d 728e b63d 31e6 59bd
00000360: c500 e6bc 329b 25bd 41c1 403d 8b4d 243d
00000370: 566c b2bd 6bef a5bc eb69 d13b a9f5 a3bc
00000380: 3128 fabc b586 97bd 1a1b 8bbd 4686 9d3d
00000390: fed2 633d 8f64 cdbb 2389 b2bd 8495 623d
000003a0: 5d95 a9bd 2f5c 99bd c7c5 cb3d ff6e e93c
000003b0: f172 283d 98fa 553c df10 0bbc a967 d03b
000003c0: b144 9a3d 1009 27bd ba10 c93d 4af4 a9bc
000003d0: c708 0cbd 5a86 2f3d 3d3f 343d 9279 a0bd
000003e0: 181b cb3d 5daf cbbd 3a99 613d fc67 e4bc
000003f0: fdaf 96bc 924d bcbc e34d 26bd 7eef c43c
0.0066866274 0.088731945 -0.0018434905 0.08995335 0.09813172 -0.010293536 -0.07937206 0.047352385
-0.08457477 0.026582105 -0.080031715 0.072821334 0.02474265 0.030114137 0.07889369 -0.046707787
-0.07086651 -0.07559445 -0.013227421 0.09544806 -0.025623642 -0.09811132 0.06034726 0.01792618
0.09480397 0.06381134 0.06897945 -0.090259925 0.012810696 -0.068833195 0.0070858626 -0.009825542
-0.010789334 0.041345034 -0.013821933 0.032518853 -0.0783364 0.04696439 -0.003209366 -0.016412264
0.039951224 0.060984306 -0.009175622 0.036909625 0.08757328 0.09454511 -0.03000334 -0.057112858
-0.07534845 0.05874148 -0.09915626 -0.048143752 -0.08511877 -0.037079208 0.07693133 -0.06273158
-0.05475164 0.022790853 -0.08996103 0.020518688 -0.09694375 -0.025860665 -0.09271993 -0.034355298
0.07083792 -0.037843652 -0.028684897 0.08718731 0.03654615 0.048366893 -0.033193227 -0.04025301
-0.099458545 -0.049509462 0.098199874 0.07492729 0.07490777 0.030083489 0.05167938 -0.05402613
0.07050381 -0.072846144 0.012091105 0.02650819 0.020742038 0.017859198 0.02717524 -0.09100357
-0.051285706 0.054156974 0.050950356 -0.086020604 -0.06675118 -0.05986584 -0.08671031 -0.027054403
0.059951603 -0.060332 0.009545023 -0.0779346 -0.058563475 0.048240587 0.046380207 0.07620619
-0.0043880558 -0.0850026 -0.08064811 -0.07900847 0.046918705 -0.03644324 0.08451463 -0.09055573
-0.0016001742 -0.0879725 0.037279584 -0.07891432 0.027444463 -0.03055287 -0.07787174 0.053718936
-0.071423955 0.014744775 -0.025173936 -0.055225663 0.08906402 -0.060545184 -0.08104392 0.036758497
-0.031626128 -0.045828596 -0.08349218 0.09841915 0.021092381 0.0060689417 -0.086249165 0.07493726
0.05583458 -0.047279574 0.005664497 0.081902094 -0.037471626 -0.07561823 0.0490372 -0.057638064
0.01871244 -0.03447392 0.09566331 0.012917849 -0.048784226 0.05894578 -0.087367944 0.07389791
0.025653312 0.04992381 0.08614979 -0.051955625 -0.09236427 0.07086509 -0.067345805 -0.052939747
0.047884148 -0.03493757 0.07308658 0.013214467 -0.052356422 -0.03285766 0.05768593 -0.07407151
-0.067007855 -0.060662173 -0.047770247 -0.047435313 -0.0034434192 -0.051959097 -0.08306155 -0.04103693
0.07614866 0.07846889 -0.002763503 -0.0107724685 -0.045457464 -0.01787081 0.009341975 0.06941932
0.09557241 -0.019392366 -0.08495333 -0.07454211 -0.08117378 0.06336545 0.027165662 -0.0070130224
0.03975012 -0.059946515 -0.1024496 -0.065203615 0.023199698 0.026954995 -0.039032344 -0.053960454
0.03509591 0.022707159 0.054010887 -0.036760546 0.02028723 0.038232245 -0.05453907 0.03682445
0.092402615 0.04049793 -0.014049638 -0.055954207 0.08254113 0.050098717 0.08913888 -0.053198043
-0.028076539 -0.04043121 0.0470593 0.040113013 -0.0871207 -0.020255765 0.0063908002 -0.0200146
-0.030536743 -0.0739874 -0.067922786 0.07691626 0.05562114 -0.006268091 -0.08717563 0.05531837
-0.08280442 -0.07488286 0.099498324 0.02849531 0.04112524 0.0130602345 -0.008487909 0.0063600135
0.07532633 -0.040780127 0.098176435 -0.020746369 -0.03418806 0.042852737 0.04400562 -0.07835688
0.09917277 -0.09945557 0.05507777 -0.027881615 -0.018394465 -0.022986207 -0.040601622 0.02403998

gru.weight_hh_l0 f4 [300, 100]
00000000: a905 16bd 2126 863d 4c43 7d3d d13d 45bc
00000010: 29df a7bd 37f8 813d 6d50 673d e688 223c
00000020: 1240 62bd 0535 5d3d b880 8a3d 11b2 bf3d
00000030: ed44 3a3d b2cc 983d 1b98 99bd ef94 cabd
00000040: 1899 e73c cd10 95bd 8a80 383d aa2c 2bbd
00000050: 4633 953c d20c bb3d 0842 e43a 197f 9cbd
00000060: 9817 cabd cc08 3d3d 0ba9 a23c 39ed 0ebc
00000070: 5e8c 86bd 9629 bd3d d647 203d 59d5 f53c
00000080: ab77 97bc 3521 bbbc 2c95 ab3d bfa8 bb3d
00000090: 7476 ad3d b9d4 cdbd 8549 47bd bd40 2a3c
000000a0: c344 5e3c 18ba bdbc ccf4 cc3b 638c 1e3d
000000b0: a046 9c3d d9c4 88bd 8d59 b7bd c6c8 be3b
000000c0: d227 2d3d f93b 74bd d0d5 b73d eb70 52bd
000000d0: ddee 793d 4e0e 1a3d da2c d6bc 55aa 743b
000000e0: b526 2dbd b427 c23d cf55 b33d b2cf 98bd
000000f0: 791d 1a3d 99eb ebbc aa72 33bd 28ec 4c3d
00000100: 0e01 99bd 0ef8 74bd 8b3d c3bd 8250 f33c
00000110: dfe8 84bd 2fb6 393c 39f1 c9bc 600a e23c
00000120: aeaa f6bc 1762 acbc 7061 13bb 2d3b bdbb
00000130: 6982 57bd 3f1b bc3d 4810 9ebc 3c53 2d3d
00000140: 4ee7 a53c 9f7a 0dbc b60a 283d 4c58 c0bd
00000150: b493 a0bc 58af 2dbd c314 a0bd 9cfd c03d
00000160: ca1c f4bc 34b8 aebd 24db 9c3d 2c59 f23c
00000170: d103 64bd 44da 963d 7822 4f3d cbcd e13a
00000180: a0bd 5e3c 140d bc3b d181 b8bd e3f7 80bd
00000190: 274b d0bc 489a 9e3d 072a 7c3d 19ae ca3d
000001a0: 1c05 033d 00a4 b4bd a7ac c23b 0cd9 b5bd
000001b0: 2332 c9bd dce2 193d db39 1bbc a9c3 ac3d
000001c0: cb97 9b3d 8399 163d 0511 57bb 0801 c5bd
000001d0: dd47 8d3c bb3b 25bd da52 aa3d 964a a7bc
000001e0: 88b0 cdbd faec d83b 0525 b03d 6e60 b83d
000001f0: 08fd 70bc c831 083c 1ffe 74bd b238 7abd
00000200: 24d5 263d efd3 533d 8045 33bd 37e4 a93d
00000210: 5fd5 3a3d 05b7 853d 37f2 e4bc 20f2 063d
00000220: 0cfe 1c3d 489d 223c f730 8abc 1dc6 9abd
00000230: 55f9 c8bd 216d 9abd fac2 243d 3784 45bc
00000240: 9736 a83b 8ba1 40bd d0ed 8c3d 8117 56bd
00000250: e719 433d 0054 8b3a 03a6 a33d 46d4 57bd
00000260: ad2e a23d b5c2 4fbc 8de4 a83d 9ffb cfbb
00000270: c1b4 49bd 836d dbbc 0c5e a33d 65fe 473c
00000280: 7aa6 71bd 707f 7b3d 31a8 833d 48c6 44bd
00000290: 4253 54bd 7e24 7cbd ab44 c23d 8896 b03a
000002a0: 4d2f 1b3d 74b2 2c3a 7005 253d c90e 8bbd
000002b0: 7555 a0bd 8637 8bbc ec18 153d 21e0 ae3d
000002c0: 4ad1 983d 8f96 33bc 25c8 80bd 6f7f bb3d
000002d0: 5c4c 05bd 8860 80bd 919c 06bc 92a5 493d
000002e0: f677 5c3b 9076 55bc 5f8c 1e3b 7f42 cbbd
000002f0: 73fc 03bd 2276 d03c 9a0d 6e3d 1e1c 12b9
00000300: c352 69bd 7565 8a3d 02ea 3a3c ea0d 553c
00000310: a43c ba3d 4a18 42bd 6d60 943c 0503 b4bc
00000320: 1ab9 983d 1ae7 c5bc 06b0 49bd 42ef 9f3d
00000330: f40a ab3d 2f14 a7bd 1d00 223c 2377 463d
00000340: 33b2 123c 936a e53c 85c6 6dbd 5f05 bd3d
00000350: df45 48bd a552 2dbd d56b b7bd be49 0d3c
00000360: deaa 0d3d ebd3 92bd 86e9 e8bc 868a 5ebd
00000370: d009 08bd 3ae4 9e3d 9199 b1bd 230b 84bd
00000380: 4a5c 08bb a1ef b8bd e45e 4d3d 5b26 713d
00000390: 5a2e d3bc 966a b2bb baba b63c cd68 64bc
000003a0: 9826 493d e1fa a33d a938 e13c 07d0 e13c
000003b0: 7a8d 0c3d 4adf cdba 7444 883d 7ad5 8c3d
000003c0: 093d 2c3d 6a64 733d a465 3b3d 9494 683d
000003d0: 91bb 993c cbc9 a73c 50a4 7c3d 7057 833d
000003e0: 69d3 8cbd 7360 b2bd 2f4a 463c 4d5b a5bd
000003f0: 6366 363c c804 a0bd 1de2 d93b 9d32 61bd
-0.03662649 0.06550241 0.061831757 -0.012038664 -0.08196861 0.06346171 0.056473184 0.009920334
-0.055236883 0.05400564 0.067628324 0.09360135 0.04547589 0.074609175 -0.07499715 -0.09891688
0.028271243 -0.07278595 0.04504446 -0.04179064 0.018212926 0.09133305 0.0017414698 -0.076414295
-0.098677814 0.046150967 0.019855997 -0.0087235505 -0.06569742 0.092364475 0.039131008 0.030008959
-0.01848968 -0.022842983 0.08378062 0.09163045 0.08469859 -0.10050339 -0.048654098 0.010391411
0.013566199 -0.023160025 0.006254768 0.038708102 0.07630658 -0.06678171 -0.08952627 0.005822274
0.042274304 -0.059627507 0.089763284 -0.05137722 0.061018813 0.0376113 -0.026144434 0.003733297
-0.042273242 0.09480229 0.08756601 -0.0746149 0.037625764 -0.028798865 -0.043810524 0.050029904
-0.07470904 -0.059806876 -0.09533223 0.029701475 -0.06489729 0.01133494 -0.024651157 0.027592838
-0.030110683 -0.021042867 -0.0022488497 -0.0057748766 -0.052614603 0.09184884 -0.019294873 0.042315707
0.020251896 -0.008635192 0.04102584 -0.09391841 -0.01960168 -0.04240355 -0.0781646 0.09423372
-0.029798884 -0.08531228 0.07658985 0.029583536 -0.055667702 0.073658496 0.05056998 0.0017227469
0.013595015 0.0057388637 -0.090091355 -0.06297281 -0.02542646 0.077442706 0.061563518 0.09896488
0.031987295 -0.08820343 0.005940992 -0.08879289 -0.09824016 0.037569866 -0.009474243 0.08435757
0.075973116 0.036767494 -0.003281654 -0.09619337 0.017246181 -0.040340167 0.08316584 -0.020421308
-0.10043436 0.0066200467 0.08600811 0.090027675 -0.014708765 0.00831265 -0.05981266 -0.061089225
0.04073061 0.051715788 -0.043767452 0.08295482 0.045613643 0.06529049 -0.027947528 0.032945752
0.038328215 0.009925194 -0.016869051 -0.07557318 -0.09813181 -0.07540346 0.040225007 -0.012055448
0.0051334607 -0.04702906 0.06881297 -0.05226851 0.047632124 0.0010629892 0.079906486 -0.052692674
0.07919059 -0.012680699 0.082467176 -0.0063471342 -0.049244646 -0.026785618 0.079769224 0.0122066485
-0.058996655 0.06140083 0.06428564 -0.04804066 -0.051837213 -0.06155824 0.094857536 0.0013472596
0.037886906 0.0006587871 0.04028839 -0.067899294 -0.078288 -0.01699425 0.03640072 0.08538843
0.07461794 -0.010961189 -0.062881745 0.091551654 -0.032543525 -0.06268412 -0.008216039 0.049230166
0.0033640838 -0.013028756 0.0024192554 -0.099247925 -0.032223176 0.025446955 0.05811844 -0.0001393412
-0.056963693 0.06757633 0.011408331 0.013003806 0.090935975 -0.047386445 0.018112386 -0.021974096
0.0745718 -0.02415805 -0.049240135 0.07809307 0.083516985 -0.081581466 0.009887722 0.04845346
0.008953619 0.02800492 -0.05805065 0.0922954 -0.04889476 -0.042315144 -0.08956114 0.008623539
0.03458678 -0.071693264 -0.028431665 -0.054331325 -0.033212483 0.077583745 -0.086718686 -0.06447437
-0.0020806962 -0.090300806 0.050139323 0.05887447 -0.025778938 -0.005444835 0.022305835 -0.013941002
0.04910907 0.08006836 0.027492838 0.027565015 0.03431461 -0.0015706804 0.066536814 0.06876655
0.042050395 0.059421934 0.04575123 0.05678232 0.018766196 0.020481965 0.061680138 0.06413162
-0.06876261 -0.087098025 0.012102648 -0.08074055 0.011132809 -0.07813412 0.0066492693 -0.05497991

gru.bias_ih_l0 f4 [300]
00000000: f519 243d 1430 1f3d a446 c83d db5a 5c3d
00000010: ac35 b93d 196a 56bd 908f 19bc f281 8abd
00000020: abe1 07bd bc26 3dbd c75c 763d a741 c8bd
00000030: bb7c 8cbc 331b 09bd 34cd 50bc a1be c73d
00000040: 4d47 4b3c d6b2 90bd 03f0 9bbc 8057 15bd
00000050: a812 113d 83df 08bd dbab b4bc e3c5 03bd
00000060: 539b 993d ec3c bb3d 79b2 5b3d d8ae c6bd
00000070: b711 a6bd f838 7c3d 8005 773d e881 b93c
00000080: 4d9e 80bd e30f a63d 0c7e 1ebd ad9b c23d
00000090: 1273 273d 47c1 78bd bdcd 5e3c f6cc b13d
000000a0: 6889 bebd f158 c83c f2c4 ba3d 159b 9d3d
000000b0: 7458 9fba 292d c13d 2b2b b63d f065 a4bd
000000c0: 69c3 243d b7ed e23b d0c3 8d3d 83a4 b33d
000000d0: ca87 833d e66c 8e3c 3270 1bbc e757 c1bc
000000e0: 9ce8 99bd 17ad 483b 227b 9a3d a4f0 9abc
000000f0: 00eb efbc f2b5 fbbc ebc2 323d 4269 b93b
00000100: 6e30 cabd e8dd ac3d 140e b83c 7f3d 993d
00000110: 8be3 6bbc feda 94bd 1558 a0bb d6cb ad3d
00000120: dc7b 173d b9ed 873d f082 94bd 90b0 073c
00000130: b98d 20bd c761 b2bd 94c7 4dbd ec91 a4bd
00000140: b99c 273d e42a 7bbd adfc 6d3d 59b3 883d
00000150: 7d89 8dbd fdb0 80bd fb5d cc3d 6abb cebd
00000160: 6956 343d 7f0b ff3c b352 76bd e219 763d
00000170: d203 313d fe09 5d3d e57f c63d b2c0 43bc
00000180: 7f41 62bd 8b6b 12bd 5003 913d f987 63bd
00000190: 0c68 93bc 2cb2 473d a9e1 883d 4223 3fbd
000001a0: 149d 093c 70dd b0bd 654d b23d d137 093d
000001b0: fa43 dbbc ce85 bbbc 1d2b 45bd 7d8f 61bd
000001c0: 01f5 5e3d 8bfb 48bd 3b77 5e3d 21ee 67bc
000001d0: 6ec7 0f3b ef21 483d 44d1 e1bb 9047 0fbd
000001e0: 6e5d 8bbd bb9f 80bd 93f4 c63c bc25 353d
000001f0: a872 933b 3d57 98bd 5d3c f83c eb16 85bd
00000200: e4e5 5a3d f15b 7d3d 6c99 63bd 381e a1bd
00000210: d6eb 3f3d cd02 2b3d a608 153c 773f 083d
00000220: a494 d5bd 010d c8bd 0446 84bd ec80 e4bd
00000230: 9a42 c13b c2b6 043d 1aa3 893d 23b3 cd3b
00000240: 6344 25bd 6df0 8bbc 4e45 91bc 68c8 d5bd
00000250: f071 8abd 7070 383d 215c 0fbd 5d40 adbd
00000260: 1756 b8bd 9691 953d 8552 70bd e8b4 b53c
00000270: 96de 693d 18b2 fcbd ce74 873d 3ee9 e9bd
00000280: d438 183d 3e57 b43d 7d97 febd a6b0 b23c
00000290: 8a26 5fbb bba4 eabc bf77 4cbd f320 87bd
000002a0: 70f1 6f3d 664c 9d3c 3339 bfbd 71a5 84bd
000002b0: cee7 4a3a 885c 13bd 977b 02be 325f ddbd
000002c0: 4d0c 1bbd 05a8 b2bc 6f70 8abc 2b11 8ebc
000002d0: d20f 0abc 1ec8 fbbc f6f4 c53c da99 f4bc
000002e0: 54c1 dfbc a723 153d ea11 50bd 1788 11bd
000002f0: 1a21 41bd 6625 39bd 99de ba3d 198e 01bd
00000300: f57f a73c c87c 9abd d36e d9ba efe9 393c
00000310: df00 afbd e673 d0bd e316 3d3d 8c63 ebbc
00000320: 4940 a4bc c712 ff3a 672c 25bc 6b15 3bbd
00000330: c984 0dbe 09dc ab3c 265f d9bd 9d97 4a3d
00000340: 4d3a 5dbc b581 8c3d c939 bfbd 9149 f4bc
00000350: ea0c 40bd a67d b43d d003 993d 6a8a d93d
00000360: 1bf2 9a3d 8b72 073e e4da a9bd 31d9 e23b
00000370: 3cf9 b5bd 1e30 d7bd c58f 37bd f3bf 6f3d
00000380: 5b9d a2bd 0985 f9bc a871 77bd a943 92bd
00000390: a84b c33d d8e7 4e3d 0fa3 a63d a43a 993d
000003a0: a191 953d 3b8d bfbd 88a1 2c3d 186c d43c
000003b0: 36bf b7bd e438 173e 6d39 5bbd ab2a b63b
000003c0: 6552 593a 9fdc 913c d8df 143d b8a5 59bd
000003d0: 6447 d5bc 0d64 093e 17fa 653c 8292 d6bc
000003e0: e082 38bd 1b71 e0bc d3f3 ecbd 633a 353d
000003f0: e54a 093c abde a1bd babf c83c 98fb c53d
0.040063817 0.03886421 0.09779099 0.053797584 0.0904344 -0.052347276 -0.009372607 -0.06763066
-0.033174198 -0.046179518 0.060147073 -0.09778147 -0.01714932 -0.033473205 -0.012744237 0.097531565
0.012407136 -0.0706536 -0.019035345 -0.0364604 0.035418183 -0.033416282 -0.022054603 -0.03217114
0.07500329 0.09142479 0.053637 -0.097013175 -0.081088476 0.061577767 0.06030798 0.022644952
-0.062801935 0.08108499 -0.038694426 0.09502349 0.040881224 -0.0607312 0.0135988565 0.08681671
-0.09303552 0.024456473 0.091195956 0.07695595 -0.0012157098 0.09432442 0.088949524 -0.080272555
0.04022542 0.0069253105 0.06922114 0.087716125 0.06422384 0.017385911 -0.009487199 -0.023601485
-0.0751507 0.0030620748 0.07543017 -0.018913575 -0.029286861 -0.030726407 0.04364292 0.0056582997
-0.098725185 0.08440763 0.02246765 0.074824326 -0.014397512 -0.07268332 -0.0048933127 0.08486144
0.036983356 0.06637139 -0.07251537 0.008281842 -0.039197657 -0.08710056 -0.05023916 -0.08035645
0.040920947 -0.0613202 0.0581023 0.06674833 -0.069109894 -0.06283758 0.09978863 -0.1009434
0.04402772 0.031133411 -0.060137462 0.060083278 0.043216534 0.053964607 0.09692363 -0.011947798
-0.055238243 -0.035747092 0.0708071 -0.055549596 -0.01799395 0.048753902 0.06683666 -0.046664484
0.008399267 -0.08635986 0.08706168 0.033500496 -0.026765812 -0.022890951 -0.04813682 -0.05506848
0.054432873 -0.049068015 0.054312926 -0.014155895 0.0021938938 0.048860487 -0.0068914015 -0.034980357
-0.0680493 -0.06280466 0.024286544 0.04422544 0.004499752 -0.074385144 0.030302221 -0.06498512
0.053441897 0.06185526 -0.055566236 -0.07867092 0.04685577 0.041750718 0.0090963 0.03326365
-0.104287416 -0.09768105 -0.06458667 -0.111574024 0.005897832 0.032400854 0.06720562 0.0062774583
-0.04034842 -0.017082417 -0.017733242 -0.10438615 -0.06760013 0.045029104 -0.03499997 -0.08459542
-0.09000795 0.07303159 -0.058672447 0.02218099 0.05709704 -0.12338656 0.066140756 -0.114214405
0.03716357 0.088057026 -0.12431238 0.021812748 -0.003405007 -0.028643003 -0.049918886 -0.065980814
0.058579862 0.019201469 -0.09337082 -0.06476868 0.000774023 -0.035976917 -0.12742458 -0.10809173
-0.037853528 -0.021808634 -0.016899316 -0.01734217 -0.008426623 -0.030735072 0.024164658 -0.029858518
-0.027313866 0.036410954 -0.050798334 -0.035530176 -0.04715071 -0.04520168 0.091244884 -0.031629656
0.020446757 -0.075433314 -0.0016588814 0.011347278 -0.08545088 -0.10178356 0.046164405 -0.028733991
-0.020050185 0.0019460552 -0.010081387 -0.045674723 -0.13820185 0.020978944 -0.10613851 0.049460996
-0.0135026695 0.06860677 -0.093371935 -0.029820235 -0.046887316 0.08813028 0.0747143 0.106221035
0.07565709 0.13227288 -0.08293703 0.006922864 -0.08885428 -0.105072245 -0.044814844 0.058532666
-0.079401694 -0.030458944 -0.060411125 -0.071418114 0.09535915 0.050514072 0.0813657 0.07481888
0.07303167 -0.093531094 0.042146236 0.02593045 -0.089720175 0.14767796 -0.053521562 0.0055592856
0.0008290171 0.017805396 0.036346287 -0.053136557 -0.026035018 0.13417073 0.014036677 -0.026192907
-0.045046687 -0.027397683 -0.11569943 0.044245135 0.008379673 -0.07903799 0.024505485 0.09667128

gru.bias_hh_l0 f4 [300]
00000000: ed23 c2bd b368 623c 8afd ad3d d24f 4f3c
00000010: e81c 11bc 41dd 45bd 69fa 2a3d fe10 89bd
00000020: 3680 c6bd 27df bb3d 231d bdbd 7481 c13d
00000030: cde6 733d 3edc 0abd 0901 e43b 423c 753d
00000040: 46a0 9ebd 8629 43bd 18e5 7e3c 603b 8a3d
00000050: 2c3c febb cdf9 163d cd0b a4bd 3f77 bcbd
00000060: 30fe 3abc e858 0abd 87c9 76bd e251 4ebc
00000070: 9f38 50bd 01f3 dc3c f4ce 2f3d 8e44 3e3d
00000080: 7360 a9bb a65e 9a3d 422c 713d cfd1 9dbd
00000090: 4b2f cf3c 66d7 01bd 0b08 95bb 132b 29bd
000000a0: 14f3 8f3d fff3 b23d 8cd8 0fbd 02c0 b2bd
000000b0: e549 f4bc 44f1 223d 2bef 9bbd f3b4 b03b
000000c0: 8db9 933c f838 5cbd 4dbe 05bd 19cc a43d
000000d0: dea1 693d 1828 453d 4984 563c 8ad7 53bd
000000e0: 083f abbd a535 023d 916c cd3d cee8 cfb9
000000f0: 8cc3 90bd 1558 83bd 33fd a3bd 7e61 c93d
00000100: eb55 c5bc 4942 113d 293f 50bc 2155 9a3d
00000110: 04c7 2c3c 8349 20bb 8a8a 3fbd 38b5 c8bd
00000120: b3d1 f33b c27b 513b 5755 8ebd d718 8bbd
00000130: fc9c a33d bda3 cc3d f5b0 14bd 2bad 73bd
00000140: df25 17bd b535 e3bc 250f 67bc 8c82 ae3d
00000150: 7b05 db3c 233a 33bd 8806 ba3c 51a9 53bd
00000160: a458 a7bd 0b02 533c 6964 23bd 18c8 fc3a
00000170: eb2e 743d ecd6 95bc 7ce3 be3c f60d 183c
00000180: 5d0c 1dbd d533 11bd 7562 b73d aa3b c13d
00000190: 0eb4 72bd 31d0 b7bd 761e b2bd 8f89 bf3c
000001a0: ed05 f2bc 6264 d6bc 0a8d eb3b a693 a5bd
000001b0: 5e0b 44bd cd91 bbbd 7c13 51bd 959f 2ebd
000001c0: 7c24 dabd 5d7f 8b3d da36 123d 15c5 2ebc
000001d0: 297c 8abc 451e 063c fb57 203d 908d c03c
000001e0: 6039 dbbd 33b6 d7bd 7029 d0bd 6b1d 983d
000001f0: f969 61bc ef74 a13d 3b88 6d3d fa98 edbb
00000200: 2649 97bd 05ef 75bd 6ef2 a6bd a773 713d
00000210: 9982 3e3d 5f08 66bc 832a 973c 992f bd3a
00000220: adff 9ebd 47d4 803d e33e b4bc 4640 10bd
00000230: d881 9abd 21b3 99bd f1af dcbb 714b 9c3d
00000240: c568 083d ac13 f23c 7d88 2ebd cf6b a9bd
00000250: 8fbc 723d 9b0d fd3b ee39 0bbd 3252 b03b
00000260: fb90 43bc a843 f9bc d030 753d 77bb c1bd
00000270: 6e29 80bd 6be8 333d 8423 56bd b04b a33d
00000280: ee0d abbb fec5 61bd 5722 febd 20f0 803c
00000290: 5fe9 b5bd 1cff e7bd e5b5 dcbd 08c5 c53c
000002a0: 0e3c 49bd f4dd 13bd b4de 23bd 2d79 2ebd
000002b0: 1bb5 303d 3747 85bd c0b3 edbd b322 b4bd
000002c0: e2cb 9b3d 1fb0 4ebd 9c5f 44bd f804 55bd
000002d0: 49e9 dbbc b28f 993d b672 583c ef7a c43d
000002e0: 5f8e 6dbd f4b5 213d 0e4b 453c 582a 7e3c
000002f0: a383 e4bd 1bab eebc 1034 94bd b413 133d
00000300: 49cd 983c dd59 adbd 3b07 c2bc e3de 8e3d
00000310: 80dd 623d 9b1d a3bd f430 9f3d 4ad3 933d
00000320: 28d7 843d e473 8b3d 2a8b 003c 4b5c bcbd
00000330: 2d37 46bd e688 babc 8988 44bd ff06 1dbb
00000340: 7b2e c33d e894 22bd 201b 95bd e465 32bc
00000350: f464 023b 9d2a 03bd 467c 0c3c e586 ce3d
00000360: 1684 8c3d 0fdc 91bd c10b 69bd 46d8 75bd
00000370: 741c 223d a3d7 8a3d e9ff d6bd 98e9 323d
00000380: 4cda 863d a918 c43d 2d6f 91bb 7a59 80ba
00000390: e4d6 babd 9215 c33c 2bcd f7bc 05d4 963d
000003a0: b98c b03d 1e5c aabd f5b4 1cbd d713 e53d
000003b0: 788f 84bd c888 743d 9b63 cabd d3c0 38bd
000003c0: a5f9 a3bc 180e 973d adfc 22bd 78cd 943d
000003d0: 155f 073c 67c5 1b3e f942 5c3c c4fb 37bd
000003e0: 94ec 883b 0b1f b8ba 7333 e4bd e378 fd3b
000003f0: eefb 3abd 95e3 c7bd b30e 98bd 85d4 b03d
-0.094795085 0.013818908 0.08495624 0.012653308 -0.008856989 -0.048306707 0.041742716 -0.06692694
-0.09692423 0.09173422 -0.09234073 0.09448519 0.05954628 -0.033901446 0.006958131 0.05987192
-0.077454135 -0.04764702 0.01555755 0.06749606 -0.007758638 0.036859322 -0.08010063 -0.09202432
-0.011413142 -0.033776194 -0.060250785 -0.012592765 -0.050835248 0.026971342 0.042921975 0.046452098
-0.0051689683 0.07537584 0.0588801 -0.077060334 0.025291106 -0.03169956 -0.004548078 -0.041300844
0.07028785 0.08737945 -0.035118625 -0.08728029 -0.029820392 0.03978087 -0.07613977 0.0053926646
0.018032813 -0.053765267 -0.032652188 0.08046741 0.057039134 0.04813394 0.013093063 -0.051719226
-0.08361632 0.03178944 0.10030473 -0.0003965557 -0.070685476 -0.06413285 -0.08007278 0.09833048
-0.02408882 0.035463605 -0.012710371 0.07535768 0.010545496 -0.002445788 -0.04676298 -0.0980019
0.0074407696 0.0031964635 -0.06949871 -0.06791847 0.07988927 0.09992168 -0.036301572 -0.059491318
-0.03690135 -0.02773557 -0.014102732 0.085209936 0.026736012 -0.043756615 0.022708192 -0.051675145
-0.08171204 0.012878905 -0.03989068 0.0019285707 0.059615057 -0.01829096 0.023301832 0.009280672
-0.03834187 -0.03544982 0.08954326 0.09435208 -0.059253745 -0.08975256 -0.08697216 0.023381023
-0.029543841 -0.026170913 0.007188444 -0.08084802 -0.047862403 -0.09158669 -0.051043972 -0.042632658
-0.1065149 0.06811402 0.03569684 -0.010667105 -0.016904907 0.008185928 0.039146405 0.023505002
-0.10704303 -0.105327986 -0.101641536 0.07427486 -0.013758176 0.078836314 0.057991248 -0.0072509022
-0.07386999 -0.0600424 -0.081517085 0.058948185 0.046511266 -0.014040082 0.018452888 0.0014433741
-0.0776361 0.06290489 -0.022002643 -0.035217546 -0.07544297 -0.07504869 -0.006734841 0.07631577
0.03330304 0.029550396 -0.042610634 -0.08272516 0.059261855 0.007722569 -0.033990793 0.005380892
-0.0119364215 -0.030427769 0.059861004 -0.09459584 -0.06257902 0.043922823 -0.052279964 0.079734206
-0.0052201664 -0.05512046 -0.124088936 0.0157395 -0.08882403 -0.11327955 -0.10776881 0.024141803
-0.04912954 -0.036100343 -0.040007308 -0.04259603 0.043141466 -0.06507724 -0.1160655 -0.08795681
0.07607247 -0.05046093 -0.047942743 -0.05200669 -0.026844637 0.07498111 0.013210943 0.0959376
-0.057997104 0.039480165 0.01204182 0.015513025 -0.1115792 -0.029134324 -0.07236493 0.035907462
0.018652575 -0.08464406 -0.023685088 0.06976106 0.05538702 -0.07964631 0.07773009 0.072180346
0.0648635 0.06809214 0.007845679 -0.09197291 -0.048392463 -0.022770356 -0.047981773 -0.0023960469
0.0953035 -0.03969279 -0.07280564 -0.01088855 0.0019896599 -0.03202306 0.008574551 0.10084323
0.06861131 -0.07122051 -0.056895975 -0.060020708 0.039577916 0.06779411 -0.1049803 0.043679804
0.065846056 0.09575016 -0.004438302 -0.0009792291 -0.091230184 0.023813996 -0.030249199 0.07364658
0.08620591 -0.08318351 -0.03825851 0.11185425 -0.06472677 0.059700757 -0.098822795 -0.045105767
-0.0200165 0.07375735 -0.03979175 0.072657526 0.008262415 0.15212022 0.013443702 -0.044917837
0.004178593 -0.0014047337 -0.11142626 0.007735358 -0.045650415 -0.09760205 -0.07424679 0.08634285

gru.weight_ih_l0_reverse f4 [300, 100]
00000000: c3b4 683d 6b6f 883d 60ce 843c 6257 c0bd
00000010: cbac 223d 5aa1 a73c f5c8 0abc 3d5a b53d
00000020: 28f4 a83d f7ba a93d df7f 273d 561e 203d
00000030: 89fb 72bc 54c4 46bd b27d e0b9 639e 0c3b
00000040: 56ac 9fbd 4ff5 c03c fc1e 83bd 35ab 42bd
00000050: a5fb c7bd f9ce 323d b8cc b1bd eeff 9bbd
00000060: db07 15bd ee9b 84bd 81d3 17bd 26dd 80bd
00000070: d374 2dbc 80cd 293c 88c3 67bb 3874 c5bc
00000080: d585 a9bb 9ca8 83bd 8716 b9bd f173 d3bc
00000090: 5d6a a3bd 0f34 7cbd b3e8 9bbd 57b2 ca3d
000000a0: 2db9 80bd 326f 9b3d 8226 d2bc d761 39bb
000000b0: 4604 013d 6e35 1e3c 7907 a53c 06a4 4c3d
000000c0: 6a8b a5bd f253 8dbc f510 863d 82be ca3d
000000d0: 3f47 ab3d 1b93 bd3d dbb3 b5bd 47df 913d
000000e0: 7836 aa3c 98da 6f3d 851f 30bd 4ca3 8bbd
000000f0: cdaa a93d ca1d 073d 4ba2 5c3d 79ae c83c
00000100: e523 8a3a faf0 9cbd 18d1 9d3d 2ea6 2ebd
00000110: aa37 e4bc 652a 46bd 7b12 a53d bc0a a23d
00000120: dc56 1ebc 0f15 f6bc ff62 aabd ab08 223d
00000130: 9846 bdbd 4655 b1bd 602d d4bb f806 083d
00000140: 2668 81bc a206 c0bc 9de7 1b3c 305b bb3d
00000150: 5cae ad3d 2f67 0a3c ee31 7e3d bede 973c
00000160: dbf8 c7bd bd11 bc3d 0bf9 c0bd 3b1d 9a3d
00000170: de03 dc3c 8dd3 96bc 55c0 ac3c 1c3d c63c
00000180: 4e5a b13d 96b4 c13d 60a9 82bd e6bc a63c
00000190: 6c58 593d a1c0 103d 4d46 1d3d 162c 0fbd
000001a0: 1757 64bd 576a 143d 0bf6 b13d c494 7b3d
000001b0: f78f 91bd b823 58bd 32f4 efbc 25c8 403d
000001c0: f912 783d 495a 94bd b6a1 acbd f671 4ebd
000001d0: e67b 2abd 2850 bfbd 970d 58bd 5797 963d
000001e0: c224 c2bd 716c 433d 940a 373c 378d 84bd
000001f0: b7e6 31bd 7396 ba3b 9181 003d 9f96 033d
00000200: b58a 1e3c 7222 ad3d 561f 9dba d79d f43c
00000210: 85af 013c fb55 3e3d 3974 813d 034d e3bc
00000220: 60c8 803d 5c31 723d 7893 b13d c103 97bd
00000230: c0aa a7bc a4ad 96ba f63c 86bb 096c 443c
00000240: 4ef1 61bc eab1 533c cc79 2fbd 1151 913d
00000250: 37d3 553d 2b34 0abd 44d5 3f3d 1ed3 543d
00000260: e6e7 9a3d 56cd 6dbc 24f3 4e3d d9f1 bb3c
00000270: fbef 66bd 4cd1 7b3d 0acf a43b 19ef b1bd
00000280: 0de4 b13c 685c 653d 353f 9f3d 7b70 1e3d
00000290: 161f a13d 2518 4abd a45e 81bc 9174 4ebc
000002a0: 5aa5 3fbd 18ed b53b a906 47bc e2b8 a43d
000002b0: b54b bb3d 4f97 e73c d763 bcbd c746 323d
000002c0: b311 af3d 291b 60bd 02d6 8c3d 34be 11bd
000002d0: 7bf5 3dbd f4d7 2e3d a225 923d b243 803d
000002e0: b8ce 9bbd 10e9 10bd 9c07 84bd acee 7bbd
000002f0: 5cac ff3c a8a5 073d 1b7f c1bb 1181 a83d
00000300: 7ec7 c03d 42f1 67bc eb98 343d 6c70 10bd
00000310: fd3b 8fbd a3b6 abbc b173 983d 0238 0a3b
00000320: dc71 18bd 5f18 c0bc 73ea f2bb 1ca9 a1bd
00000330: 1b76 59ba 91cb 79bc 54f0 3a3d a4ca 92bc
00000340: af63 523c b545 bd3d 92e2 fd3c 5b4c 28bd
00000350: ff49 adbd e080 103d f69a 183d 72eb 24ba
00000360: 8cc9 54bd add8 fabc 6184 ccbc 165b 32bd
00000370: 41d7 4f3d 8504 bebc bd8f 9e3c 0937 c43d
00000380: 25de 8e3d bd28 fcbc ac9d ce3b e3cc a6bd
00000390: 094f 4d3d b84a 173c a905 6abd f33d c33d
000003a0: d915 7e3c 430e aebd c60c 70bd 5d60 1f3d
000003b0: 5887 adbd 7efb 4bbd 584f a43c af91 8b3b
000003c0: de60 003d 9d71 9f3d 904a 4abd 6e14 f5bc
000003d0: c17b 573d 66cc cb3d 4b12 953d caf9 833d
000003e0: d569 b2bd ed6d acbd 330f 95bd b524 7d3d
000003f0: cfd6 7fbd 20c2 cc3d 04e7 e0bc b2ca 793b
0.056813013 0.06661876 0.016211689 -0.09391667 0.03971557 0.02046268 -0.008470763 0.08855102
0.08249694 0.08287614 0.04089343 0.03909143 -0.0148304785 -0.048527077 -0.0004281826 0.002145671
-0.07796542 0.023554472 -0.06402394 -0.047526557 -0.09764794 0.043654416 -0.08681625 -0.07617174
-0.036384445 -0.06475054 -0.03706694 -0.06292181 -0.010586935 0.010363936 -0.0035364348 -0.024103269
-0.0051734247 -0.06428644 -0.090375 -0.025812121 -0.079792716 -0.061573084 -0.07612743 0.09897297
-0.062853195 0.07589568 -0.025653128 -0.0028287077 0.031498216 0.009656293 0.020145165 0.049961112
-0.08083232 -0.017251942 0.06546203 0.09899618 0.083631985 0.09256574 -0.08872195 0.07122665
0.020777926 0.058558077 -0.04299881 -0.06818256 0.08284531 0.032987393 0.053865712 0.024497258
0.0010539262 -0.0766315 0.07705897 -0.04263895 -0.027858574 -0.048380274 0.080601655 0.07912204
-0.009664264 -0.030039338 -0.08319663 0.039559048 -0.0924198 -0.08658843 -0.0064751357 0.03320977
-0.015796732 -0.023440663 0.00951567 0.09148252 0.08480522 0.008447452 0.062059335 0.018538829
-0.09764262 0.09183071 -0.09422501 0.075251065 0.026857313 -0.018411422 0.021087805 0.024199061
0.086598024 0.09458272 -0.06379962 0.020353746 0.05306284 0.035339955 0.038397122 -0.034954153
-0.055747118 0.036234226 0.08689507 0.06142117 -0.07107537 -0.05276844 -0.029291246 0.047065873
0.06056497 -0.07243783 -0.084292814 -0.05040165 -0.041622065 -0.093414605 -0.052747335 0.073530845
-0.09479667 0.04771084 0.011171956 -0.06472247 -0.043432917 0.0056942045 0.031373564 0.032126065
0.009676625 0.084538355 -0.0011987488 0.02986042 0.007915382 0.046468716 0.06320996 -0.027746683
0.062882185 0.059129104 0.086707056 -0.07373763 -0.020467162 -0.0011495841 -0.0040966226 0.011988648
-0.013790442 0.012920836 -0.042840764 0.0709554 0.052203383 -0.033741158 0.046834245 0.05195915
0.07563762 -0.014514288 0.050524846 0.02294247 -0.056381207 0.061478898 0.005029564 -0.086881824
0.021715188 0.05599633 0.07775728 0.03868149 0.07867257 -0.049339432 -0.015792198 -0.012601034
-0.04678855 0.0055519454 -0.012147584 0.08043076 0.09145299 0.028270392 -0.091987304 0.04352453
0.08548298 -0.054713402 0.06876756 -0.035581782 -0.046376687 0.042686418 0.07136084 0.06262912
-0.07607788 -0.035378516 -0.06446764 -0.061506912 0.031210117 0.033116966 -0.0059050447 0.082277425
0.0941305 -0.014156641 0.044091146 -0.035263464 -0.06993864 -0.020961111 0.074439414 0.0021090512
-0.03721796 -0.023449121 -0.0074132024 -0.07893583 -0.0008295492 -0.015246288 0.04563935 -0.017918892
0.012841149 0.09241811 0.030991826 -0.041088443 -0.08461379 0.035279155 0.037257157 -0.00062911876
-0.051950023 -0.030620897 -0.024965467 -0.043543898 0.05074239 -0.023195514 0.01935565 0.095808096
0.069759645 -0.030781144 0.006305417 -0.08144548 0.050124202 0.009234123 -0.057134304 0.095333
0.015508139 -0.08498814 -0.05860593 0.03891026 -0.084730804 -0.04980039 0.020057365 0.00425931
0.03134238 0.07785342 -0.049387515 -0.029916968 0.052608255 0.09951095 0.0727888 0.06444128
-0.08711592 -0.08419404 -0.0727829 0.061802585 -0.062460717 0.09997964 -0.027453907 0.00381152

gru.weight_hh_l0_reverse f4 [300, 100]
00000000: 20d7 5f3d 9f49 113d 32db 29bc 0444 543d
00000010: eab2 f13c cf1e bebb aab1 8a3d e63b 80bd
00000020: 7925 ce3a 35f0 90bc b469 313d 053c 05ba
00000030: a6b6 4ebd 2fb1 a7bd 50bf 5fbc 3255 c33d
00000040: 26a0 c63c fcfa 973d b71d fd3c 4fed 2d3d
00000050: 390b 19bc 3dca 983d c0e6 9e3b f265 b8bd
00000060: 9eff cbbd a6d6 373d 1c28 bdbc 59e1 ca3d
00000070: 0ce7 97bd 2d42 a3bd 6313 ca3d 8978 72bd
00000080: d2d6 52bd ad08 a23d 268d 02bc 0b38 713d
00000090: 69b8 a83c b963 4f3d 0932 703d 07d9 8f3d
000000a0: 121a 89bd 22ba 413d e0a2 79bd e56e 393d
000000b0: f305 5b3d c104 363d 88a8 c7bb 74e6 5b3d
000000c0: 4170 ad3d aa1b 8ebd 2faa 08bd 598b 8f3a
000000d0: 5ad8 da3c 9a25 7f3b e37d 853d 8db3 33bd
000000e0: e124 693b 7e30 6d3d d4a5 adbc 15e7 1cbd
000000f0: fcb2 843d 0f2b 4bbb 4a60 febc aa00 1cbc
00000100: 5429 dbba 78e9 cabc a9e2 a1bd bb0a 4abd
00000110: 1d98 ee3c 5b0f cb3d d0b9 aebd cf39 203d
00000120: 3f8b 64bd 4e27 14bd e4a9 853d 7ea7 c7bd
00000130: 49f6 b03d 9ef6 92bd 1521 403d 93a3 253d
00000140: 5a8a e53c df19 883d fd1a 1c3d 0a86 44bd
00000150: d712 543d dc5d 2a3c 4c42 3a3d 5c98 49bd
00000160: 95e5 a3bd 6f4b 1ebc 61b0 bfbb 9e46 0b3d
00000170: b3fd c43d ca1b 12bd c63c 88bd 53f3 a9bd
00000180: 145d 99bd 3d62 ba3c da0e bcbb 487c 5a3d
00000190: 5353 503c b1b3 6cbd 8cbd a0bd cec8 9d3d
000001a0: 5ae8 aebd e75f 4ebc 5a26 973d 016d dcbc
000001b0: bb83 a93d 8805 113d c678 8a3c 78d6 b8bd
000001c0: 9afe b8bd 19c0 27bd d42a 8abd 5461 bebc
000001d0: 1d0d b33c 3363 2f3d 8bcf a6bd dc7f a63d
000001e0: 9aff 83bd db79 263d 3bfe 8cbc 146e b13d
000001f0: cd9f f13c 3331 5ebd 24ff 2fbd 7d82 853d
00000200: fb0a eeb8 d896 763b f1a3 26bd 03cd 8fbd
00000210: b50d 8e3d 7c8e 4bbd 817e b3bd 037b eabc
00000220: 5782 2c3d 3e5e 893a e5f4 28bc c044 b03d
00000230: 2966 13bd fc81 b33c 235d cb3d 6b70 cd3c
00000240: 53f7 c1b9 02d8 5c3d d3ea 343c 9392 35bd
00000250: 78dd 533d 64fa 08bd aa88 b2bd d40b c7bd
00000260: f277 bbbc 2c87 c23d 2a58 4ebc 29ba 7cbc
00000270: c2e7 013c 1845 d2bc d7cb 94bd 7b39 c2bd
00000280: 0411 8ebd 3314 8f3d eb86 b0bc 0804 6ebd
00000290: 8fb1 bdbc 973d aa3d 96a1 343c 64c4 64bd
000002a0: d17c 3c39 728f 9c3d 50b6 8fbc 77f5 01bd
000002b0: 3398 31bd 5ecb debb e980 c53d 8d0d b3bd
000002c0: afa1 4fbd 85c2 98bd d634 a53d 29ba 9a3d
000002d0: d01f 2abd d04d a3bd e1a3 a3bd a61d 74bd
000002e0: f83e 99bd 45fa 1f3d 89fd 2cbc 13cb 9e3d
000002f0: 9f6a 80bd 6737 c5bd 1016 833d 66dd 63bd
00000300: 3af3 9d3d f752 3b3d d6f9 a3bc b00a 41bd
00000310: 1d59 01bd c930 a7bd c43c c6bc 0209 eebc
00000320: 878a 943b 15af 6c3d 99e0 32bd 3c76 fdbc
00000330: f2d7 983c a873 9d3d 12cf 9ebd cad7 91bc
00000340: 6982 bfbd 632b 99bc 19be 51bd bd7e cb3c
00000350: 3598 693b 9b45 99bd 2d37 9abd 1130 65bd
00000360: 6a68 d1bb 0489 9e3c e690 a93d bec1 aabb
00000370: 3a58 d43c a98a 80bc 6e6d 5f3d 840a 9cbd
00000380: 38ee 133d 0779 993d e4ae 46bd 75e9 b83d
00000390: 2808 9ebd 55fa 643d eadd cb3d bfc5 0fbd
000003a0: 5ccd a8bd ad61 abbc 632e afbd a74d 993a
000003b0: 77c2 4bbd 8fa1 913c 1ef6 513c b6a5 81bc
000003c0: d2e1 a1bd 85b5 6ebd 82a9 1abd 8bd7 34bd
000003d0: fd1c b8bd 2863 863d 63dd b0bc ff72 ba3d
000003e0: 3b8d 353d 5a9b 8dbd 9629 903d 10d0 8f3a
000003f0: 7a12 d23c a840 a83d 92b0 903d 2363 90bd
0.05464852 0.0354706 -0.010367202 0.051822677 0.029504258 -0.0058020125 0.06772168 -0.06261425
0.001572772 -0.017692665 0.043313697 -0.0005082491 -0.050467156 -0.08188092 -0.013656452 0.09537734
0.024246287 0.07420918 0.030897958 0.042462643 -0.009341055 0.07460449 0.004849285 -0.090038195
-0.099608645 0.04488244 -0.023090415 0.09906263 -0.074171156 -0.079716064 0.09866979 -0.059196983
-0.0514744 0.07911811 -0.007968223 0.058891337 0.020595746 0.050632212 0.058641467 0.070238166
-0.06694426 0.04729665 -0.060946345 0.045271773 0.05347247 0.044438127 -0.0060930885 0.053686574
0.08468676 -0.0693887 -0.033365425 0.0010951563 0.026714493 0.0038932324 0.065181516 -0.043872405
0.003557496 0.057907574 -0.021197237 -0.038306314 0.06479451 -0.0031001007 -0.031051774 -0.009521643
-0.0016720691 -0.02476953 -0.0790456 -0.04932664 0.029125268 0.09915038 -0.08531535 0.03911763
-0.055796858 -0.036170296 0.06526545 -0.097487435 0.08640725 -0.07175945 0.04690655 0.0404392
0.028020073 0.066455595 0.038111676 -0.047979392 0.05177578 0.010398354 0.045473382 -0.049217567
-0.08002774 -0.009661539 -0.0058498834 0.034002893 0.09618702 -0.035671033 -0.066522166 -0.082983635
-0.07488456 0.022751922 -0.005739075 0.05334118 0.012715179 -0.057788555 -0.07848653 0.07704316
-0.08540411 -0.012596107 0.07380362 -0.026907446 0.08277079 0.035405666 0.016903292 -0.09025282
-0.090329364 -0.040954683 -0.0674645 -0.023239769 0.021856839 0.042819213 -0.081450544 0.08129856
-0.064452365 0.040643554 -0.01721107 0.08663574 0.029495144 -0.05424614 -0.04296793 0.06519029
-0.0001135077 0.003762653 -0.04068369 -0.07021525 0.06936208 -0.04969643 -0.08764363 -0.02862311
0.04211649 0.0010480357 -0.010312294 0.08606863 -0.0359861 0.021912567 0.09929874 0.02507802
-0.000369961 0.05391694 0.011042315 -0.044329237 0.05172488 -0.033441916 -0.08717473 -0.09719053
-0.022884343 0.09498438 -0.012594262 -0.015425243 0.0079287905 -0.025667712 -0.07265442 -0.0948362
-0.06936839 0.069862746 -0.021548709 -0.058109313 -0.023155956 0.083125286 0.011024853 -0.055851355
0.00017975575 0.076445475 -0.017542988 -0.031728234 -0.04335804 -0.0067991456 0.09643728 -0.08742819
-0.050691303 -0.07458977 0.08066718 0.075550385 -0.041534245 -0.07973826 -0.07990242 -0.059598587
-0.074827135 0.039057035 -0.010558494 0.07753577 -0.06270336 -0.09629708 0.064006925 -0.055631064
0.077124074 0.04573342 -0.020016592 -0.047129333 -0.031579126 -0.08163602 -0.024198897 -0.02905703
0.0045331153 0.05778416 -0.043671224 -0.030940168 0.018657658 0.07688075 -0.07754339 -0.017803092
-0.09351046 -0.018697446 -0.051206682 0.024840707 0.00356437 -0.07483979 -0.07530055 -0.055954043
-0.006390621 0.019352444 0.0827959 -0.005211084 0.025920976 -0.015691118 0.05454772 -0.07619193
0.036115855 0.07493787 -0.048506632 0.090289034 -0.077163994 0.055902798 0.09954436 -0.035100695
-0.08242294 -0.020920599 -0.085537694 0.0011696116 -0.049746003 0.017777232 0.012815027 -0.015826087
-0.079044 -0.05827858 -0.03775931 -0.04415087 -0.08989904 0.06561881 -0.02158994 0.09103965
0.04432414 -0.069143966 0.07039182 0.0010972042 0.025643576 0.08215457 0.07064928 -0.07050159

gru.bias_ih_l0_reverse f4 [300]
00000000: db29 07bc df65 bd3d b981 03bb 6adb 873c
00000010: 9a2b 623d 63ed a63d 46ea 283d a999 6a3d
00000020: 32e5 a4bc 1cff a5bd 7e0e 653d 9a3c c7bd
00000030: 9a1c 9cbd 9c2c 6e3c 0be8 1fbd c3a6 073a
00000040: 6e56 b43c 908b b6bb 3edb 143d d460 b63d
00000050: ed33 283d 4ff3 953d 4195 203c 03a3 22bd
00000060: 6a23 45bd 2336 0e3d 8a0b 3fbc b42e b4bd
00000070: 2bcb 99bc 19ad ad3d 0057 94bd ce7f d63c
00000080: e3f0 263c b195 b43a 8116 9dbd 399c 65bd
00000090: 68c5 f53c a6c0 9e3d 56bf bc3d aac0 9d3c
000000a0: d721 87bd e3d7 843d 2603 07bd 2a8b c93d
000000b0: 39de 35bc de2b 973a c7f6 0cbd e4bd 57bc
000000c0: 195e 74bd c003 2e3d 89bb 8dbc dbdb a8bd
000000d0: b55e 85bc ad0f b33c fdb8 16bd 6d75 273d
000000e0: a8f8 873c 5b88 9ebd 7ca0 8d3c 0df6 b6bd
000000f0: ceda 4fbd 32a3 2c3d e837 60bd 7843 f6bc
00000100: 4baa 143d c150 2cbc 2429 c33c 02a4 703c
00000110: f517 93bd 2cb8 9abd 7a87 32bd e9e5 533d
00000120: 07d5 163c ddc7 bebd 8a93 67bd 3b10 6cbd
00000130: 0ad1 b6bc 0c6d 223d 3a57 2bbd 075b ca3d
00000140: c4da 5a3c 1371 9f3d 01f1 703d 7a08 33bd
00000150: 463a b3bc 1aba 7bbd c5d1 a23d 2045 4dbc
00000160: cc40 aebc c8d9 fbbb 1eff 6dbd d805 24bd
00000170: f5d3 31bc 127d ff3b b020 823d 71cc b63d
00000180: 9061 c3bc 0745 0bbd dc29 3dbd 8d60 0bbd
00000190: e536 a0bd 35da d0bc 49a5 903c 6c3a 15bd
000001a0: cfd0 c03c 60f1 173d b967 b33b 216d 3abd
000001b0: 5a97 0c3d 6049 253c 9954 503d f872 af3d
000001c0: eda8 363d a399 bbbd 8875 c5bd 64a3 0a3d
000001d0: bf0a ebbd f83f 0abd 989b 08be 7779 e9bd
000001e0: 707f 98bd 0505 1239 3416 bc3d 11b7 443b
000001f0: 008d babc d289 12be f844 c0bd bff4 bebd
00000200: ee7b c6bd 02f3 5d3d dae1 36bd bebc 5d3d
00000210: 1582 123d 4b1e 413d b8a8 cdbd 8c06 a33d
00000220: 6820 bcbd 873a c13d 5cc5 c2bc 8b55 333d
00000230: 5705 593c 449a 40bd ad7f 4b3b 7070 afbc
00000240: 2e71 a23c 45c4 84bd ca5b b33c de0f 533d
00000250: 35ac 1a3d 503c bb3d 904c bcbd 79b0 b23c
00000260: c3bc fc3c b901 96bd ec4a 56bd 1dae c63d
00000270: 5a1c 97bd 88ed 35bd a946 debb fe4d 7a3b
00000280: 620f 913d 1259 5c3c 0c7f 53bd 019a 2c3d
00000290: 192c 10bd 5f02 5d3d 79a6 ee3c 8afe b5bd
000002a0: 44aa aa3d 43f0 a4bd e087 243c 6aa7 f93c
000002b0: 46ca 28bd 1872 dfbd 29ab 6a3d 33fa 98bd
000002c0: ac08 d13c a35e 74bd 4113 513d 283f a8bd
000002d0: c67a a83d f54a 9abd f21f 633d 59d7 e03c
000002e0: 22e0 173d cc57 6abc abea 3a3c c0e1 503d
000002f0: 1a42 cb3c 197e 0ebd 427d ba3d 518c 943d
00000300: 6680 393d 80e3 7dbc 01bf 463d 392e 163d
00000310: 7c31 95bc 1d3f 1abc dbae 52bd 6cdf 8d3d
00000320: d9aa 09bd d658 8a3c 8af2 38bd afad 24bd
00000330: e318 cc3d d0be 813d af73 c4bc 31cb 95bd
00000340: 542b 9f3d f064 c03c 6d7a 42bd 1b21 eabd
00000350: 1898 683d 5ef9 a03d ad26 07bd f6a5 d7bd
00000360: 2620 79bd 4b8c b13c d6f5 de3d db81 c1bd
00000370: c855 d4bd fa84 8e3d e526 10bd 6bef 1b3d
00000380: 5e89 803b 80c4 a5bd 2424 bf3d 277e db3d
00000390: 4acf acbd e993 6fbc 6bc5 18bd aabd 413d
000003a0: 567e 14bb 66b3 8f3d c0cc f3bd 90f3 933c
000003b0: 9f05 5fbd fc6e d73c 1903 a73d 4e36 163c
000003c0: da5f d43d 9169 9c3d 381d 8fbd ead4 90bd
000003d0: 4bb5 c1bd f0d0 aebd e642 91bd d94b 32bd
000003e0: 15f6 1d3d b3a5 2ebc e1bc 943b 86c8 40bd
000003f0: cb0c 1f3c 335c cfbb 49d8 083e 6e5b 6e3c
-0.008249725 0.09247946 -0.0020066334 0.016584117 0.055217363 0.08150747 0.041239046 0.057275448
-0.02012882 -0.08105299 0.055922024 -0.09728356 -0.07622643 0.014537003 -0.039039653 0.0005174691
0.02201387 -0.0055708364 0.0363419 0.08905187 0.041065145 0.07321798 0.00980121 -0.03970624
-0.048129477 0.034719598 -0.011660466 -0.087979704 -0.018773636 0.084802814 -0.072431564 0.026183989
0.010189268 0.0013777522 -0.07670308 -0.05605719 0.030001357 0.077515885 0.09216182 0.019256908
-0.06598251 0.064864896 -0.032961987 0.098409966 -0.011100345 0.0011533459 -0.034415033 -0.013167832
-0.05966005 0.042484045 -0.017301338 -0.08245059 -0.016280511 0.02185806 -0.036797512 0.04088347
0.01659806 -0.077408515 0.017288439 -0.08933649 -0.050745778 0.042147823 -0.054740816 -0.030061468
0.036295217 -0.0105173 0.023823328 0.01468754 -0.07182304 -0.07554659 -0.04358623 0.05173293
0.009206063 -0.09315465 -0.05653719 -0.057632666 -0.022316474 0.039654776 -0.041831233 0.09880643
0.013357822 0.07785239 0.05882359 -0.043709256 -0.021878373 -0.061456777 0.079501666 -0.012528688
-0.021271132 -0.0076858737 -0.058104627 -0.040044636 -0.010853757 0.007796892 0.06353891 0.08925713
-0.023850232 -0.034001376 -0.0461825 -0.034027625 -0.0782297 -0.025494674 0.01765694 -0.03643267
0.023537068 0.037095428 0.005475011 -0.04551423 0.034324028 0.010088295 0.05086193 0.085668504
0.044594694 -0.09160163 -0.09641558 0.033847228 -0.11476659 -0.03375241 -0.13340604 -0.11400121
-0.07446182 0.00013925515 0.091839224 0.0030016343 -0.022772312 -0.14310387 -0.09388155 -0.09324025
-0.096916065 0.05418683 -0.044648983 0.054135077 0.035768587 0.04714803 -0.10041946 0.07960233
-0.091858685 0.09434991 -0.023775749 0.043782752 0.013245902 -0.04702212 0.0031051442 -0.021415919
0.019829359 -0.06482748 0.021894354 0.051528804 0.037761886 0.09142363 -0.09194291 0.021812664
0.030851727 -0.07324547 -0.052317545 0.09701178 -0.073784545 -0.04441598 -0.0067833257 0.003819346
0.07083012 0.01344897 -0.051634833 0.042139057 -0.035198305 0.05395734 0.029132115 -0.0888644
0.08333257 -0.08053639 0.010042161 0.030475337 -0.041208528 -0.109104335 0.057292137 -0.07469597
0.02551683 -0.059660565 0.051043753 -0.08215171 0.08226542 -0.07533828 0.055450387 0.027446436
0.037078984 -0.014303159 0.011408488 0.050996542 0.024811793 -0.034788225 0.09105922 0.07253326
0.045288466 -0.015496135 0.048522 0.036665175 -0.018212073 -0.009414461 -0.051436286 0.0692738
-0.0336102 0.016888063 -0.04515318 -0.0402047 0.09965684 0.06335223 -0.023980943 -0.07314146
0.07771936 0.02348563 -0.047480036 -0.114320956 0.056785673 0.07860063 -0.03299587 -0.105297014
-0.060821675 0.021673342 0.10886733 -0.09448596 -0.10367924 0.06958957 -0.035193343 0.038070124
0.0039226254 -0.0809412 0.09333065 0.10717421 -0.08437975 -0.014622667 -0.037297647 0.04730002
-0.002265831 0.070166394 -0.11904287 0.018060476 -0.05444872 0.026298039 0.08154888 0.009168221
0.10369845 0.07637323 -0.06987995 -0.0707186 -0.09458407 -0.085359454 -0.07092838 -0.043529365
0.03856476 -0.010659623 0.0045391177 -0.047066234 0.00970764 -0.0063281297 0.13363756 0.014548166
