parameter/crf_lstm_parameter/7_sentence_.ckpt (torch_old, 485982 bytes, 8 tensors)

gru.weight_ih_l0 f4 [300, 100]
0.0071877805 -0.07384942 0.014813165 -0.07059067 -0.036180474 0.051379982 -0.054737628 0.087317444
-0.0017018627 -0.07850175 0.047542926 0.0068803937 0.07279804 -0.031570103 0.037002403 -0.0023529506
0.109034024 0.047039393 -0.056207743 -0.07255414 0.051430553 -0.0705778 -0.0396089 0.092464454
-0.074471034 0.02550416 -0.064496234 0.0111832665 0.050297294 0.025711905 0.06346616 0.02368992
-0.06455555 0.093992315 -0.0007816782 -0.06349691 0.10191353 0.09055207 -0.024985172 -0.03366168
-0.08670838 -0.0040948926 0.09968885 -0.08551183 -0.026488647 0.044782862 -0.030058261 -0.036752596
0.10041707 0.06476166 -0.074330695 0.005083632 0.08529154 0.02410494 0.094743475 0.009020471
0.024456123 -0.06366201 -0.05135165 0.045649774 0.06416353 -0.018482937 -0.10411169 0.032677125
-0.0065916847 0.009210306 -0.084451064 0.03134438 0.044386256 -0.03635163 0.067301065 -0.043923225
0.026672708 -0.071174055 0.026350971 -0.088648215 -0.0497711 -0.027840234 -0.026164718 -0.07035915
0.07427207 -0.094032794 0.075782076 -0.070962645 0.037002817 -0.074762225 0.013125904 -0.010082862
0.055314757 -0.106825724 0.045957956 0.06204899 0.06680806 0.009598721 -0.057168297 -0.027120143
-0.07763278 -0.015368764 0.07776162 -0.0012255041 0.0641528 -0.08975461 -0.060510594 0.08885143
-0.087361746 -0.02935687 0.09158485 -0.030356167 0.043884683 0.0219992 -0.04671333 -0.046397526
-0.016901098 0.046766676 -0.081411086 -0.037834972 0.03395691 0.027670126 0.02668961 -0.045566533
-0.012739758 0.02890417 -0.0364071 0.08526781 -0.055978604 -0.0374263 -0.060754657 -0.026096134
-0.043593355 -0.09309246 0.07924765 -0.07489635 0.06481963 -0.087333806 0.02483259 -0.02221019
-0.03586121 -0.06292781 -0.06886506 0.07348209 0.047391918 -0.07250894 0.08202382 -0.06091276
-0.016749006 0.08604063 -0.032335415 -0.09071058 -0.030493105 -0.05375325 0.068323225 -0.019381778
-0.09256196 0.0784825 -0.05488514 0.018740427 -0.03336909 0.019123197 -0.046587482 -0.07241414
-0.019222833 -0.08714224 -0.01183131 -0.0014225267 -0.029708583 0.023158796 0.049963053 -0.026906755
0.014258913 -0.01795461 0.10064095 0.039112218 -0.083705224 0.082517356 0.06567859 0.0869374
0.042603005 0.018939884 0.023661865 0.06596099 0.011583577 0.041242283 -0.062302347 -0.03969932
-0.036734182 -0.013134856 0.013885507 0.07949762 0.0033239936 0.07413101 0.005291058 -0.028903749
0.039441552 0.010153638 -0.010510033 0.06799091 -0.08947621 -0.07217521 0.03652668 -0.06833305
-0.08624338 -0.007465537 0.01692463 -0.059702404 -0.05244895 -0.07884471 -0.057315513 -0.09528917
-0.027167954 0.08371167 -0.0004495825 -0.018802624 0.033089146 0.019330595 -0.07539476 -0.094004355
0.10166831 0.09171189 0.0999683 0.017453128 -0.103638165 -0.013960503 0.060707297 0.04865891
-0.019091636 0.02444456 -0.016641896 -0.08172237 0.01855413 -0.07426632 -0.02118413 0.06573861
0.041041054 -0.00086258416 0.063968815 0.030404102 -0.052306604 -0.086341776 0.1060023 0.045366127
0.030240877 0.04694909 0.04621933 -0.011737857 -0.015359457 0.0020246638 -0.0094258385 0.105097525
-0.09144813 0.0094762985 0.037256 0.08331926 0.09712011 0.08456162 -0.02067427 0.049379397
00000000: 7987 eb3b 5d3e 97bd ebb2 723c d791 90bd
00000010: fa31 14bd d173 523d 9034 60bd 7dd3 b23d
00000020: 0911 dfba 87c5 a0bd 5fbc 423d ed74 e13b
00000030: 2417 953d a74f 01bd d58f 173d f633 1abb
00000040: 3b4d df3d 61ac 403d 173a 66bd 4497 94bd
00000050: d8a8 523d 188b 90bd f13c 22bd 015e bd3d
00000060: 4584 98bd 1aee d03c 9a16 84bd 053a 373c
00000070: 8904 4e3d c6a1 d23c 8cfa 813d 5d11 c23c
00000080: b335 84bd 0b7f c03d 89e9 4cba ab0a 82bd
00000090: 0ab8 d03d 5d73 b93d b4ad ccbc d4e0 09bd
000000a0: 2a94 b1bd 732e 86bb ab29 cc3d d420 afbd
000000b0: b8fe d8bc 3c6e 373d be3c f6bc e489 16bd
000000c0: 77a7 cd3d c3a1 843d b13a 98bd 9994 a63b
000000d0: 55ad ae3d b977 c53c de08 c23d 99ca 133c
000000e0: 3558 c83c 3a61 82bd 1c56 52bd 42fb 3a3d
000000f0: 2b68 833d 8769 97bc 8238 d5bd 73d8 053d
00000100: 0fff d7bb d3e6 163c aef4 acbd f762 003d
00000110: 5dce 353d 72e5 14bd 24d5 893d d7e8 33bd
00000120: b980 da3c b4c3 91bd fedd d73c 328d b5bd
00000130: c8dc 4bbd 3411 e4bc 6457 d6bc 7518 90bd
00000140: f41b 983d 4494 c0bd a233 9b3d dd54 91bd
00000150: 4490 173d f01c 99bd 080e 573c 9732 25bc
00000160: ba91 623d 72c7 dabd 693e 3c3d 1527 7e3d
00000170: aad2 883d f443 1d3c 4e29 6abd 102b debc
00000180: effd 9ebd 45cd 7bbc 7c41 9f3d 18a1 a0ba
00000190: 8b62 833d 44d1 b7bd f5d9 77bd bdf7 b53d
000001a0: b7ea b2bd d27d f0bc d690 bb3d 7fad f8bc
000001b0: 6dc0 333d ab37 b43c 7a56 3fbd 550b 3ebd
000001c0: 2c74 8abc 6a8e 3f3d dbba a6bd d8f8 1abd
000001d0: 6716 0b3d 76ac e23c 2ba4 da3c f9a3 3abd
000001e0: 6bba 50bc 70c8 ec3c 9c1f 15bd e4a0 ae3d
000001f0: d249 65bd 524c 19bd e0d9 78bd 8fc7 d5bc
00000200: f28e 32bd 42a7 bebd 984c a23d 4263 99bd
00000210: 27c0 843d 11dc b2bd b76d cb3c 25f2 b5bc
00000220: 34e3 12bd 4ce0 80bd 2009 8dbd c77d 963d
00000230: 071e 423d 917f 94bd 1bfc a73d a97f 79bd
00000240: 3635 89bc 1236 b03d 2472 04bd 78c6 b9bd
00000250: adcc f9bc 5e2c 5cbd 0ced 8b3d 89c6 9ebc
00000260: 2091 bdbd 6fbb a03d 3ecf 60bd 8685 993c
00000270: 07ae 08bd 40a8 9c3c 84d2 3ebd dd4d 94bd
00000280: 3479 9dbc a177 b2bd 1cd8 41bc 1374 baba
00000290: 6a5f f3bc 84b7 bd3c 0fa6 4c3d 8e6b dcbc
000002a0: 379e 693c 8c15 93bc d81c ce3d 2234 203d
000002b0: a56d abbd dcfe a83d 7f82 863d 3c0c b23d
000002c0: 7d80 2e3d d127 9b3c 87d6 c13c 8e16 873d
000002d0: 0bc9 3d3c abed 283d bf30 7fbd c19b 22bd
000002e0: 9576 16bd 9433 57bc 0a80 633c a6cf a23d
000002f0: 5cd7 593b 00d2 973d 9d60 ad3b 8ec7 ecbc
00000300: 778d 213d 725b 263c 4632 2cbc d13e 8b3d
00000310: 4e3f b7bd 99d0 93bd 009d 153d 33f2 8bbd
00000320: 5fa0 b0bd 77a1 f4bb 86a5 8a3c 828a 74bd
00000330: b6d4 56bd 5679 a1bd acc3 6abd f826 c3bd
00000340: 548f debc 0671 ab3d f1b5 ebb9 f607 9abc
00000350: 7c88 073d 325b 9e3c 9168 9abd 5b85 c0bd
00000360: 7a37 d03d 72d3 bb3d 2ebc cc3d ddf9 8e3c
00000370: 3f40 d4bd 98ba 64bc 37a8 783d 914e 473d
00000380: 1066 9cbc f53f c83c 9654 88bc 0f5e a7bd
00000390: d5fe 973c f118 98bd 578a adbc f7a1 863d
000003a0: aa1a 283d 0b1f 62ba 1502 833d 0612 f93c
000003b0: 733f 56bd f5d3 b0bd bc17 d93d d5d1 393d
000003c0: b7bb f73c b04d 403d 7b50 3d3d 2450 40bc
000003d0: 3ba6 7bbc 39b0 043b d56e 1abc 5f3d d73d
000003e0: 2849 bbbd 7a42 1b3c bf99 183d 4aa3 aa3d
000003f0: e9e6 c63d a52e ad3d 165d a9bc 0d42 4a3d

gru.weight_hh_l0 f4 [300, 100]
-0.025458459 -0.08721251 -0.021270458 0.05040261 -0.04634744 -0.020123145 -0.0965407 -0.08674611
-0.08189883 -0.076977536 -0.091065556 0.047167726 -0.06512677 0.066457935 0.052996024 -0.031290315
-0.03114899 0.04984563 -0.03242635 -0.08365534 0.021817086 0.093508914 -0.03714724 0.10138941
0.062148266 -0.04455267 -0.07293197 -0.055838566 -0.10671526 -0.024675155 0.07684215 0.073402606
0.040075995 0.089887805 -0.0341045 -0.045264795 0.00957328 0.09021919 -0.04353554 0.11749004
-0.09725467 -0.01022359 0.09580919 -0.055022467 0.0038515395 -0.06238346 0.06283007 0.09810102
-0.06678383 0.01875319 0.100127995 0.031268366 -0.042137004 -0.055391096 -0.030292638 -0.027591001
0.05981051 0.0053416993 -0.06573958 -0.011433161 0.05365875 -0.06395595 -0.0009285224 -0.021923551
0.019436104 -0.050954454 -0.035296515 0.06601451 0.024980685 0.0070842877 0.07319209 0.06046961
-0.06342033 -0.061900217 -0.061559808 0.103245646 -0.018880159 -0.08644016 0.00069399894 -0.00016290123
0.053026196 0.034021948 0.019624146 0.03540934 0.033324413 -0.038067985 0.021953957 0.060499553
0.07655201 0.06203257 -0.09735334 0.06502244 -0.085930206 -0.023423918 -0.09959958 -0.019629462
-0.01168926 0.07628217 -0.023624653 -0.10206553 0.0808002 0.013102155 0.07918733 -0.019789668
-0.048112564 -0.07095199 -0.040924646 -0.027286708 -0.07630465 -0.06507844 0.009266059 0.06822082
0.04991347 -0.052125603 -0.032188274 -0.054660194 0.064734414 0.0077497303 -0.09104786 0.07199555
-0.036707297 0.032631956 0.070481054 0.07081621 -0.030318616 -0.032365043 0.030544044 -0.036739513
-0.10047144 -0.07601826 0.007120384 0.088676155 -0.055911325 -0.083142325 0.009689246 -0.080250025
0.059465215 -0.061622176 0.023392623 -0.06782816 0.06933306 -0.01992172 0.07643856 -0.04945185
0.018987734 -0.049015637 0.017454464 -0.020232413 0.050423156 0.0002676156 0.07018629 0.09430656
0.08931918 -0.089601405 0.0583829 -0.083917364 -0.001333198 -0.065815486 0.041263025 -0.0001229874
0.007095605 -0.012587984 -0.025982607 -0.057409965 -0.05114184 -0.009819739 0.053736094 -0.037443608
-0.027289538 -0.060883027 0.046629127 -0.067687355 -0.06458762 0.027089123 -0.030075045 0.0046386686
-0.036818825 0.094114624 0.04013455 -0.010409033 -0.06651806 -0.03405304 -0.09579343 -0.025386224
0.04828307 -0.05756306 0.047356892 -0.019914059 0.08567981 0.09428603 0.06390197 0.057716463
-0.09297522 0.033114098 0.020392757 0.042169683 -0.04325377 0.1015567 0.028787758 -0.07962107
-0.078810684 -0.10250012 0.033514947 -0.04421441 0.004237233 0.07185809 -0.06091918 -0.06716656
-0.067647815 0.0018460074 0.008917291 -0.007778301 -0.027406435 0.07636357 -0.09953692 0.06291229
0.082521364 -0.028696064 0.028074061 0.015824018 -0.11114677 0.03763234 0.07044536 0.07352367
-0.09957877 0.05305198 -0.006623034 -0.082362846 -0.084391 -0.029443156 0.088397995 0.07678758
0.075758696 0.009986724 -0.05109295 0.042104326 0.09320299 0.054295894 -0.044822473 0.08598397
-0.0066545834 -0.04638337 0.042116415 -0.062076475 -0.04178973 -0.044424824 -0.08524049 0.060274098
0.07363429 0.026156444 -0.046463493 0.072479926 -0.0772531 -0.046061892 -0.04618185 -0.014085588
00000000: 428e d0bc 799c b2bd 623f aebc f872 4e3d
00000010: d0d6 3dbd 4bd9 a4bc 21b7 c5bd f2a7 b1bd
00000020: 93ba a7bd 66a6 9dbd 9480 babd f232 413d
00000030: 2f61 85bd 191b 883d 5c12 593d 462a 00bd
00000040: 2b2c ffbc ee2a 4c3d 7ed1 04bd 7e53 abbd
00000050: bfb9 b23c 9a81 bf3d b427 18bd 40a5 cf3d
00000060: 2e8f 7e3d dc7c 36bd 5b5d 95bd fbb6 64bd
00000070: 888d dabd 8d23 cabc 6b5f 9d3d 1b54 963d
00000080: ba26 243d 1917 b83d 29b1 0bbd 9467 39bd
00000090: 3fd9 1c3c d7c4 b83d 5352 32bd 9e9e f03d
000000a0: 752d c7bd d880 27bc 9c37 c43d 3d5f 61bd
000000b0: 1c6a 7c3b cd85 7fbd 0dad 803d 30e9 c83d
000000c0: f6c5 88bd 4aa0 993c e80f cd3d 4213 003d
000000d0: da97 2cbd c6e1 62bd 4428 f8bc 8606 e2bc
000000e0: defb 743d 6c09 af3b 79a2 86bd 2752 3bbc
000000f0: 47c9 5b3d 56fb 82bd 1568 73ba 0599 b3bc
00000100: 7738 9f3c 9eb5 50bd 1493 10bd 9e32 873d
00000110: 4ba4 cc3c 5023 e83b bce5 953d fbae 773d
00000120: 85e2 81bd 158b 7dbd 2326 7cbd 7472 d33d
00000130: 90aa 9abc 8a07 b1bd 7bed 353a 77d0 2ab9
00000140: ff31 593d 995a 0b3d d1c2 a03c 6209 113d
00000150: 2e7f 083d 2ded 1bbd c9d8 b33c 61ce 773d
00000160: 4dc7 9c3d dd15 7e3d 3061 c7bd 7c2a 853d
00000170: 2dfc afbd 84e3 bfbc ddfa cbbd f7cd a0bc
00000180: 4f84 3fbc d439 9c3d 7d88 c1bc bc07 d1bd
00000190: 937a a53d 6caa 563c f82c a23d f11d a2bc
000001a0: ae11 45bd 474f 91bd 9aa0 27bd 6088 dfbc
000001b0: 9d45 9cbd d847 85bd abd0 173c 5bb7 8b3d
000001c0: 1172 4c3d a881 55bd dad7 03bd 5ee3 5fbd
000001d0: 7a93 843d 73f1 fd3b 4d77 babd 6772 933d
000001e0: 645a 16bd 16a9 053d 5f58 903d 1708 913d
000001f0: bf5e f8bc 3591 04bd 8137 fa3c 2c7c 16bd
00000200: f8c3 cdbd 76af 9bbd 1c52 e93b d89b b53d
00000210: 4603 65bd 8646 aabd a5bf 1e3c 205a a4bd
00000220: cc91 733d 8967 7cbd e3a1 bf3c 7ee9 8abd
00000230: 7efe 8d3d e032 a3bc d28b 9c3d 068e 4abd
00000240: 2a8c 9b3c 9fc4 48bd aafc 8e3c 72be a5bc
00000250: 8388 4e3d c24e 8c39 d4bd 8f3d cc23 c13d
00000260: f9ec b63d f180 b7bd e822 6f3d dedc abbd
00000270: b4be aeba 45ca 86bd 6b03 293d 2ef6 00b9
00000280: 4082 e83b d53d 4ebc 7ad9 d4bc b626 6bbd
00000290: 1b7a 51bd f8e2 20bc 611a 5c3d 785e 19bd
000002a0: 4f8e dfbc 7b60 79bd 2ffe 3e3d ab9f 8abd
000002b0: 8446 84bd 02ea dd3c f15f f6bc f9ff 973b
000002c0: 56cf 16bd 2bbf c03d 2064 243d a68a 2abc
000002d0: 9f3a 88bd 337b 0bbd 592f c4bd c5f6 cfbc
000002e0: 78c4 453d 3ec7 6bbd 4df9 413d cf22 a3bc
000002f0: e578 af3d 0919 c13d 09df 823d 1968 6c3d
00000300: cb69 bebd a6a2 073d b60e a73c 1eba 2c3d
00000310: dd2a 31bd f6fc cf3d 4ed4 eb3c 5f10 a3bd
00000320: 7f67 a1bd 95eb d1bd f846 093d 2b1a 35bd
00000330: 7dd8 8a3b 562a 933d 6486 79bd 9f8e 89bd
00000340: f08a 8abd bbf5 f13a d419 123c 1ee1 febb
00000350: 7683 e0bc 8164 9c3d 03da cbbd 29d8 803d
00000360: f600 a93d 0214 ebbc 93fb e53c 5fa1 813c
00000370: eba0 e3bd 5e24 1a3d a845 903d 9493 963d
00000380: f4ef cbbd 084d 593d 0906 d9bb daad a8bd
00000390: 30d5 acbd c632 f1bc 020a b53d cf42 9d3d
000003a0: 6027 9b3d 5b9f 233c d746 51bd 9675 2c3d
000003b0: 36e1 be3d 5f65 5e3d c597 37bd 5d18 b03d
000003c0: b10e dabb 7dfc 3dbd 4382 2c3d e743 7ebd
000003d0: b52b 2bbd cef6 35bd 9192 aebd f9e1 763d
000003e0: 93cd 963d 0a46 d63c 8150 3ebd 5b70 943d
000003f0: e036 9ebd 65ab 3cbd 2e29 3dbd 3dc7 66bc

gru.bias_ih_l0 f4 [300]
0.09795918 0.052772205 -0.01791217 0.0075589884 0.11442652 0.0054933014 0.10279103 0.03075841
-0.0060300473 -0.061678227 0.069348715 -0.044193108 -0.06084806 -0.021722157 0.05610176 0.012780224
0.08509845 0.04909829 0.08547863 -0.06797082 -0.045308735 -0.01832251 0.14226529 -0.015695436
0.04670103 0.069826126 0.099877976 0.020249533 0.05266098 0.055514198 0.08742483 -0.08372142
-0.03592723 -0.09699127 -0.016236173 -0.04686876 0.017973678 -0.0023014743 0.098252624 -0.095243864
0.10313805 -0.08578996 -0.07518518 0.06487211 0.042326357 -0.08848729 -0.09293681 -0.0042327903
0.04960493 -0.007892314 -0.009344306 0.07446361 -0.076627895 -0.09269173 0.023531588 0.06793439
-0.08330837 0.047942497 0.019274715 -0.029002147 -0.038923472 -0.059615742 0.02240914 0.11031197
-0.014588965 -0.099182874 -0.0069927317 0.054102242 0.014069557 -0.00025689256 -0.06741891 -0.0731604
0.10555941 0.011492887 0.08631332 0.07238426 -0.064676404 -0.0066664102 -0.06408994 0.045415435
0.050365973 -0.031618513 0.09355768 -0.035069715 0.0055104904 0.020329865 -0.094592325 0.0024442156
-0.08468843 0.02306862 -0.06180872 0.056842227 -0.067298815 0.08790921 -0.006976289 0.056354705
-0.04872755 -0.09113204 0.027233766 -0.06480942 0.12466594 -0.004783863 0.027126031 0.052646663
-0.008380664 0.029065775 0.06754825 -0.038072016 -0.03569503 -0.017605431 0.0636777 -0.0525798
-0.06914162 -0.008626767 0.039614227 0.017965138 -0.081431426 -0.010647349 0.0020953668 0.090656385
0.08058933 0.052288264 0.06817911 -0.05560435 -0.06303075 -0.010554211 0.08677973 0.014883612
-0.02983784 0.0651152 0.07931966 -0.017943975 -0.006726344 0.010691783 0.039968908 -0.02642349
-0.08864743 -0.0835402 0.088731565 -0.06306609 0.084656805 0.069671385 -0.07425103 0.0140831005
-0.08204353 -0.083369486 0.006589913 0.111694984 -0.053142436 0.02764329 -0.032966726 0.0123131415
0.06869663 -0.061301317 0.09982181 -0.08639739 -0.045593545 0.05637958 -0.040052902 -0.039805923
0.08928414 0.07522487 -0.09071304 0.07799066 -0.09113848 -0.006065194 0.022653779 0.07396256
-0.02648194 -0.00017836735 -0.065327525 -0.036726758 0.08855907 -0.06294461 -0.10350757 0.008600004
-0.049521826 0.09408135 -0.047280923 -0.009653697 0.065572284 0.024168931 -0.0751823 -0.066857144
0.01090138 -0.090804376 0.060713142 -0.041499358 0.080399275 0.016018242 0.054173674 -0.0907489
0.0037816858 0.07919908 0.051861696 0.09144515 -0.040669724 0.08037263 -0.00065423554 0.024615098
0.0141287455 0.0030874233 0.061020795 0.03280967 0.0352583 0.055041093 0.03929352 0.0575889
-0.11177388 -0.02839522 0.10501008 -0.073626556 -0.0049550687 -0.04906824 0.1785806 0.055837493
0.13251686 -0.10501211 -0.07183794 -0.013679235 0.05180014 0.040803615 -0.115022086 -0.07953473
-0.00825958 0.07822615 -0.012489456 0.1363336 -0.09876873 0.11068897 0.051995505 -0.123214796
0.0018405844 0.0003588822 -0.06807668 -0.023428595 0.10639075 0.046602823 -0.06376564 0.045968756
0.064310074 -0.05825571 0.08363403 -0.0073076137 0.15892348 0.06551405 -0.018837739 0.10626402
-0.04749152 0.071006194 0.13344459 0.017023465 -0.035358123 -0.12571308 -0.114959255 0.10811462
00000000: d39e c83d ab27 583d 8bbc 92bc 64b1 f73b
00000010: 7458 ea3d 2701 b43b 1b84 d23d 10f9 fb3c
00000020: b497 c5bb 4fa2 7cbd b306 8e3d d503 35bd
00000030: d13b 79bd aaf2 b1bc f6ca 653d 2564 513c
00000040: 1948 ae3d 4a1b 493d 6c0f af3d 4934 8bbd
00000050: a795 39bd 1719 96bc fead 113e b793 80bc
00000060: 9449 3f3d 0001 8f3d d38c cc3d 59e2 a53c
00000070: 0ab3 573d db62 633d ca0b b33d 2376 abbd
00000080: 6e28 13bd 5ca3 c6bd b901 85bc 75f9 3fbd
00000090: 893d 933c 55d4 16bb ac38 c93d 370f c3bd
000000a0: 0b3a d33d a6b2 afbd b0fa 99bd abdb 843d
000000b0: 675e 2d3d d338 b5bd a755 bebd 38b3 8abb
000000c0: 8a2e 4b3d c44e 01bc dc18 19bc 6180 983d
000000d0: 16ef 9cbd 29d5 bdbd 51c5 c03c 2f21 8b3d
000000e0: 949d aabd 5a5f 443d 02e6 9d3c e995 edbc
000000f0: 386e 1fbd a32f 74bd 5f93 b73c 3eeb e13d
00000100: 8e06 6fbc 6420 cbbd 4923 e5bb 509a 5d3d
00000110: 0084 663c 89af 86b9 ed12 8abd 1fd5 95bd
00000120: 882f d83d a94c 3c3c 0ac5 b03d 333e 943d
00000130: 1075 84bd e771 dabb 9641 83bd 8905 3a3d
00000140: 8d4c 4e3d 6a82 01bd 2b9b bf3d 43a5 0fbd
00000150: 5891 b43b d18a a63c 9fb9 c1bd 222f 203b
00000160: 2171 adbd 67fa bc3c 242b 7dbd 65d3 683d
00000170: f6d3 89bd be09 b43d 5b99 e4bb 31d4 663d
00000180: 8a96 47bd 6fa3 babd 5919 df3c cdba 84bd
00000190: db50 ff3d f4c1 9cbb 6937 de3c 07a4 573d
000001a0: 0d4f 09bc 591b ee3c bd56 8a3d 67f1 1bbd
000001b0: f434 12bd 4439 90bc 7469 823d eb5d 57bd
000001c0: 1f9a 8dbd 4957 0dbc 8742 223d a02b 933c
000001d0: 85c5 a6bd 3872 2ebc 6c52 093b 0eaa b93d
000001e0: 050c a53d 382c 563d 7da1 8b3d 63c1 63bd
000001f0: 4416 81bd 92eb 2cbc 92b9 b13d 65da 733c
00000200: 7c6e f4bc 1e5b 853d 5972 a23d 3eff 92bc
00000210: aa68 dcbb 972c 2f3c 70b6 233d 1376 d8bc
00000220: c98c b5bd 2017 abbd e5b8 b53d cb28 81bd
00000230: 8c60 ad3d dfaf 8e3d ed10 98bd cebc 663c
00000240: 7006 a8bd 9fbd aabd 32f0 d73b 57c0 e43d
00000250: e2ab 59bd 2e74 e23c 1e08 07bd 0fbd 493c
00000260: d2b0 8c3d 1717 7bbd 616f cc3d 1df1 b0bd
00000270: 4cc0 3abd 46ee 663d 830e 24bd 890b 23bd
00000280: 9ada b63d 7f0f 9a3d c2c7 b9bd 91b9 9f3d
00000290: d0a6 babd 89be c6bb 6b94 b93c af79 973d
000002a0: a7f0 d8bc 1f08 3bb9 70ca 85bd cc6e 16bd
000002b0: 755e b53d 1be9 80bd c7fb d3bd 08e7 0c3c
000002c0: 66d7 4abd b9ad c03d a4a9 41bd 8a2a 1ebc
000002d0: c34a 863d ecfd c53c 2df9 99bd 66ec 88bd
000002e0: b49b 323c a5f7 b9bd 58ae 783d 3bfb 29bd
000002f0: 60a8 a43d b038 833c 37e5 5d3d 8fda b9bd
00000300: 29d6 773b 2133 a23d ee6c 543d 9847 bb3d
00000310: 4c95 26bd 689a a43d 0181 2bba 9aa5 c93c
00000320: 417c 673c 5e56 4a3b f1f0 793d 6f63 063d
00000330: 026b 103d c572 613d 3ef2 203d 57e2 6b3d
00000340: b4e9 e4bd 189d e8bc 860f d73d 85c9 96bd
00000350: 215e a2bb c7fb 48bd d5dd 363e dbb5 643d
00000360: 80b2 073e 9710 d7bd c51f 93bd df1e 60bc
00000370: 622c 543d b121 273d b390 ebbd 1be3 a2bd
00000380: 3053 07bc 0835 a03d 93a0 4cbc 099b 0b3e
00000390: 4347 cabd e6b0 e23d 3df9 543d 0a58 fcbd
000003a0: c43f f13a 5a28 bc39 c96b 8bbd 53ed bfbc
000003b0: 65e3 d93d 9ae2 3e3d 8f97 82bd bc49 3c3d
000003c0: 00b5 833d 8a9d 6ebd 5148 ab3d b574 efbb
000003d0: d6bc 223e 3b2c 863d 9a51 9abc f3a0 d93d
000003e0: 7886 42bd b26b 913d b3a5 083e cb74 8b3c
000003f0: aed3 10bd eeba 00be c26f ebbd 336b dd3d

gru.bias_hh_l0 f4 [300]
0.048774738 0.052455116 0.09034203 -0.008676423 -0.016317368 0.06434173 -0.032097045 -0.021735778
0.09789663 -0.038889803 -0.040650494 -0.0033203943 -0.07330191 -0.09813847 -0.01514735 -0.0006362351
-0.04931416 0.07897734 0.054912798 0.097217605 0.058289748 0.049845394 0.14596431 0.06602352
0.016345011 0.07633325 -0.005462396 -0.040886495 0.0027998704 0.004001894 -0.058625888 0.09494354
-0.06132979 -0.042793367 0.06885776 -0.05022596 0.084642924 -0.09362541 0.0066210344 0.09103276
-0.055571783 -0.033761185 -0.03784637 -0.019828724 0.036036722 0.06312792 -0.10090032 0.04952982
-0.014780002 0.038141683 -0.0013124433 0.06051301 0.045728277 0.028135106 -0.058274765 -0.055084903
0.00525277 -0.042482655 -0.010788217 0.051915858 0.068725735 0.09989719 -0.094223365 -0.03594942
-0.03678014 -0.097369745 -0.07740649 0.103125736 0.01523248 -0.035706267 -0.079410456 -0.068220295
0.016310252 0.08271698 0.00042040736 -0.046591826 -0.03096523 0.1327942 0.085305005 -0.023633743
0.07566221 0.054824665 0.06737428 0.015000338 0.076238126 0.042200714 -0.046175797 0.08296966
-0.025544824 -0.055110313 -0.053687137 -0.04676303 -0.0858212 0.08861562 -0.014262777 -0.10027333
-0.092610344 0.084845506 -0.02682695 0.068507224 0.028564474 -0.08854847 0.027877787 -0.013426157
0.035929903 -0.0066898908 -0.008498533 0.112140305 -0.016810423 0.09042554 -0.077527165 0.08827196
0.06750235 0.06531623 -0.032687705 0.0669654 -0.11077369 0.1033788 0.011237382 -0.063147806
-0.041861348 0.0039165164 0.04977264 -0.037260834 -0.066959806 -0.061533656 0.06413659 -0.06622222
-0.09377043 0.009266411 -0.06947405 -0.062848054 0.03158898 0.07303505 0.10152592 -0.007826121
0.0156216705 -0.0051144934 0.051707745 0.04300761 0.054977566 0.095575854 -0.06374362 0.055488877
0.05948836 -0.02212584 -0.0936441 -0.06481849 -0.073781215 -0.0014329533 0.06286991 0.018064477
-0.11040914 -0.062707804 -0.07393165 -0.06930094 0.048422273 -0.0046352125 0.025133846 0.088296086
-0.02476134 0.05594145 -0.0018833723 0.05785678 0.02231403 -0.07755079 -0.07236673 0.07789075
0.004018584 0.030357827 0.078455254 -0.06639663 0.0476264 0.010353811 -0.05505049 0.120522395
-0.072208844 -0.053357612 -0.042918906 0.02789182 0.07189985 0.015405058 0.050307028 -0.053483076
-0.08411807 -0.057446394 0.013951405 0.087427884 0.07748221 -0.07769272 -0.044860642 -0.080606304
0.038430005 -0.08378415 0.01243134 0.103538334 -0.049909458 0.035843514 -0.075033374 -0.041982252
0.14732417 0.014527946 0.09944441 0.013091762 -0.030747175 0.017369874 0.045216784 -0.10522177
-0.13250585 0.013968511 0.027571283 -0.013221437 -0.083102465 0.08226762 0.0726434 0.08273169
0.024872709 -0.078758925 -0.11984252 0.09670968 -0.012519596 0.11121749 0.0340074 0.046785463
0.027571755 0.088551976 0.006712825 -0.016956182 -0.055580724 -0.016848002 0.07790008 0.064287364
-0.04795085 -0.05559799 -0.0441229 -0.09243465 0.08897525 -0.03481887 0.03110569 0.02532037
0.030623946 0.019156303 -0.076645434 -0.08468925 -0.03137323 0.060856257 0.04227951 0.09245766
-0.0021919396 0.036559243 0.05202334 0.12656334 -0.018853942 0.052257705 0.027126743 0.12461735
00000000: 05c8 473d 2ddb 563d 3e05 b93d 8e27 0ebc
00000010: 00ac 85bc 99c5 833d 3178 03bd 3b0f b2bc
00000020: 077e c83d ea4a 1fbd 2281 26bd f99a 59bb
00000030: 501f 96bd d2fc c8bd 972c 78bc 04c9 26ba
00000040: a5fd 49bd dfbe a13d 3eec 603d 061a c73d
00000050: 3bc1 6e3d af2a 4c3d ab77 153e 5737 873d
00000060: f9e5 853c 9b54 9c3d e6fd b2bb 9978 27bd
00000070: 087e 373b 5222 833b b321 70bd c271 c23d
00000080: f234 7bbd 1948 2fbd 4c05 8d3d bcb9 4dbd
00000090: 4559 ad3d aebe bfbd 43f5 d83b 626f ba3d
000000a0: 3d9f 63bd 2b49 0abd cc04 1bbd d96f a2bc
000000b0: 3e9b 133d 3649 813d d4a4 cebd c8df 4a3d
000000c0: d227 72bc 743a 1c3d 4a06 acba 7ddc 773d
000000d0: 934d 3b3d 987b e63c 85b1 6ebd b5a0 61bd
000000e0: 6e1f ac3b 4b02 2ebd 10c1 30bc b9a5 543d
000000f0: 14c0 8c3d e696 cc3d 2ef8 c0bd b33f 13bd
00000100: c6a6 16bd ca69 c7bd 4b87 9ebd 9633 d33d
00000110: a791 793c bc40 12bd f3a1 a2bd 15b7 8bbd
00000120: 149d 853c 8567 a93d 1f6a dc39 12d7 3ebd
00000130: cbaa fdbc 34fb 073e 64b4 ae3d 8d9b c1bc
00000140: caf4 9a3d d48f 603d 87fb 893d fac3 753c
00000150: bc22 9c3d a8da 2c3d d522 3dbd ffeb a93d
00000160: 6143 d1bc 5abb 61bd 0be7 5bbd 978a 3fbd
00000170: 06c3 afbd 1b7c b53d 6cae 69bc 1b5c cdbd
00000180: 7eaa bdbd 7bc3 ad3d 31c4 dbbc 844d 8c3d
00000190: 0b00 ea3c e658 b5bd f55f e43c 62f9 5bbc
000001a0: 3c2b 133d df36 dbbb 6e3d 0bbc d1a9 e53d
000001b0: 03b6 89bc 0731 b93d 90c6 9ebd eec7 b43d
000001c0: ac3e 8a3d 84c4 853d 8be3 05bd 2825 893d
000001d0: 51dd e2bd 44b8 d33d ff1c 383c a353 81bd
000001e0: ce76 2bbd 1f56 803b 65de 4b3d d19e 18bd
000001f0: 3922 89bd b70a 7cbd 0b5a 833d 849f 87bd
00000200: b60a c0bd 25d2 173c 6948 8ebd 7bb6 80bd
00000210: 7263 013d 6693 953d d2ec cf3d 2139 00bc
00000220: 09f2 7f3c 7b97 a7bb 80cb 533d bf28 303d
00000230: 2830 613d 46bd c33d 048c 82bd 4e48 633d
00000240: 11aa 733d 4041 b5bc 7ac8 bfbd 8ebf 84bd
00000250: 9b1a 97bd efd1 bbba f0c1 803d f4fb 933c
00000260: 301e e2bd f36c 80bd 7a69 97bd a7ed 8dbd
00000270: 6f56 463d fbe2 97bb 7fe5 cd3c 94d4 b43d
00000280: 4bd8 cabc dd22 653d 7ddb f6ba 3bfb 6c3d
00000290: eacb b63c f3d2 9ebd 0235 94bd 2f85 9f3d
000002a0: 53ae 833b fab0 f83c 26ad a03d f5fa 87bd
000002b0: e613 433d 08a3 293c 9f7c 61bd 72d4 f63d
000002c0: 3be2 93bd 838d 5abd bccb 2fbd 637d e43c
000002d0: 3b40 933d 7f65 7c3c be0e 4e3d 1211 5bbd
000002e0: 1846 acbd e94c 6bbd 6f94 643c 640d b33d
000002f0: feae 9e3d 5c1d 9fbd cbbf 37bd eb14 a5bd
00000300: c868 1d3d 0697 abbd d2ac 4b3c e80b d43d
00000310: dc6d 4cbd a6d0 123d 19ab 99bd 95f5 2bbd
00000320: 26dc 163e 9f06 6e3c 83a9 cb3d d47e 563c
00000330: 80e1 fbbc 444b 8e3c 3c35 393d 837e d7bd
00000340: 9daf 07be 2edc 643c 2cdd e13c ba9e 58bc
00000350: a031 aabd ed7b a83d 10c6 943d 3b6f a93d
00000360: dac1 cb3c 5c4c a1bd ff6f f5bd ba0f c63d
00000370: fe1e 4dbc ffc5 e33d 584b 0b3d 1da2 3f3d
00000380: 29de e13c bd5a b53d 42f7 db3b b1e7 8abc
00000390: 9da8 63bd d204 8abc 148a 9f3d 18a9 833d
000003a0: 1c68 44bd b8ba 63bd 37ba 34bd 614e bdbd
000003b0: a838 b63d 3b9e 0ebd 5cd1 fe3c aa6c cf3c
000003c0: 12df fa3c aeed 9c3c 48f8 9cbd 8f71 adbd
000003d0: 3781 00bd 6944 793d 482d 2d3d 715a bd3d
000003e0: a5a6 0fbb 25bf 153d 6d16 553d d299 013e
000003f0: 9573 9abc 2d0c 563d e738 de3c 6237 ff3d

gru.weight_ih_l0_reverse f4 [300, 100]
-0.090236105 0.022568885 0.08302967 0.09947775 -0.045252543 -0.0053055347 0.09653205 -0.047451448
-0.09620631 -0.08653776 0.075526096 -0.011594951 0.049865738 0.059724364 -0.064780496 -0.035699435
-0.02356282 0.04781044 0.096886456 -0.0027554526 0.020123977 0.054179903 0.06529167 -0.048947744
0.08153724 0.002624963 0.08170584 0.033155095 0.025389524 0.027438335 0.07868254 -0.083188914
-0.0070646494 -0.059142906 -0.05520596 -0.065275244 -0.058327198 0.009041665 0.023855776 0.00041228108
-0.02914761 0.047494862 0.07865704 -0.06974052 0.058720548 -0.046963036 -0.10651737 0.09921454
-0.017623961 0.006238617 0.0238924 -0.085176975 0.07383953 -0.06139595 -0.092446335 0.09579618
-0.07357102 0.021366272 0.09998164 -0.00985757 -0.0699733 0.030630425 -0.070417486 0.09248718
0.07900421 0.09290524 -0.08196322 0.014829559 0.014413114 0.035687268 0.0066635376 0.017290073
0.055110212 0.019400261 -0.06293288 0.024246763 -0.013069201 -0.057909127 0.068455264 -0.08382491
0.02963117 0.040436603 0.044082098 -0.029947003 0.040617086 -0.06514599 -0.043444403 0.0036881387
0.016866097 0.08106904 -0.018131299 0.055516474 0.070624836 0.04764401 0.03317495 -0.062627085
-0.09568012 -0.08927949 -0.08735138 0.0888884 0.08308387 0.041924678 0.06787248 -0.035345033
-0.021077305 -0.054804377 -0.073910326 -0.04252391 -0.0828133 -0.04667199 -0.061940275 0.08420349
-0.022626815 -0.028995086 0.052551538 -0.041306354 0.09600663 0.018893817 -0.091570385 0.09311843
0.038324744 0.09893512 -0.097877555 0.08779753 0.10109116 -0.042624835 0.08032519 0.060131278
-0.016187737 -0.08033943 0.0018020337 0.011596948 0.022239491 0.07823287 -0.07272548 0.002346294
0.087541796 0.10011212 -0.0865979 -0.026979351 0.022730997 0.09218747 0.06497737 0.03374305
0.093808554 -0.076428115 -0.060449205 0.053927522 -0.011152409 0.048688523 0.026766375 -0.01444342
-0.08861809 0.054051463 0.09051032 -0.00989301 -0.07633936 -0.0416691 -0.0818496 -0.009189511
0.07773867 -0.0029361332 -0.0377849 -0.0053731836 -0.06554768 -0.07806548 -0.077049546 -0.010445945
-0.08790322 0.064702325 -0.057883337 -0.032513365 0.06536577 -0.046833396 -0.05033658 -0.00054728804
0.020579733 0.08304191 0.08247024 0.064442694 -0.04937449 0.04873661 0.056821164 -0.07853933
-0.028740587 0.028686365 0.057202514 -0.041359857 -0.040391024 -0.09446293 -0.014409046 -0.0037262253
0.03291953 0.01619885 0.01248188 -0.007734374 0.06146227 0.08654969 -0.07651333 -0.02687304
0.0183676 -0.0024940586 0.0651209 -0.06662912 -0.05882866 -0.077453785 -0.022794228 0.034692295
0.022570806 0.08784983 -0.04907102 0.037880413 -0.035747707 0.06281143 0.054927345 0.047266975
0.071907915 0.061092295 -0.0172237 0.048275806 -0.09614954 0.02170283 -0.061551347 -0.072498545
0.101846285 -0.056850057 -0.094151005 0.0010115565 0.064854056 0.07511842 0.041362107 -0.01829538
0.059245937 -0.0041958406 0.050500803 0.039060846 0.0017956509 0.020438341 0.07426969 0.027340133
0.010884107 0.06817441 0.034113776 -0.03244382 -0.08630402 0.026509607 0.06748211 0.06580957
0.058691792 -0.043065462 0.010504729 -0.004120137 0.093571424 -0.059996996 0.028253375 -0.053135585
00000000: b5cd b8bd 62e2 b83c 760b aa3d feba cb3d
00000010: bb5a 39bd 0dda adbb 98b2 c53d 735c 42bd
00000020: d007 c5bd b63a b1bd 6dad 9a3d c0f8 3dbc
00000030: 0440 4c3d 89a1 743d a3ab 84bd 9239 12bd
00000040: d106 c1bc e1d4 433d 686c c63d d394 34bb
00000050: 0adb a43c bfeb 5d3d a4b7 853d 6e7d 48bd
00000060: fffc a63d 9207 2c3b 6455 a73d a3cd 073d
00000070: b1fd cf3c 5cc6 e03c 5024 a13d f35e aabd
00000080: 937e e7bb d53f 72bd a51f 62bd 07af 85bd
00000090: 80e8 6ebd 7e23 143c 306d c33c 6e27 d839
000000a0: f8c6 eebc f989 423d f116 a13d 1ed4 8ebd
000000b0: f584 703d 505c 40bd c725 dabd fe30 cb3d
000000c0: 2060 90bc 506d cc3b ffb9 c33c 4471 aebd
000000d0: 2e39 973d 527a 7bbd 8154 bdbd ca30 c43d
000000e0: 67ac 96bd 5208 af3c 2dc3 cc3d a581 21bc
000000f0: 294e 8fbd a8ec fa3c 0b37 90bd eb69 bd3d
00000100: f6cc a13d 1a45 be3d 55dc a7bd aef7 723c
00000110: fb24 6c3c d02c 123d ce59 da3b e9a3 8d3c
00000120: 3fbb 613d 4ced 9e3c f4e2 80bd 26a1 c63c
00000130: 3420 56bc 1f32 6dbd 4632 8c3d 65ac abbd
00000140: 11bd f23c daa0 253d 6e8f 343d 6b53 f5bc
00000150: 1a5e 263d 436b 85bd c2f2 31bd b3b4 713b
00000160: c52a 8a3c 8607 a63d 1788 94bc 3e65 633d
00000170: c1a3 903d 5e26 433d 75e2 073d a142 80bd
00000180: f0f3 c3bd 2ad8 b6bd 48e5 b2bd 1f0b b63d
00000190: e027 aa3d 36b9 2b3d ba00 8b3d f4c5 10bd
000001a0: 50aa acbc 8e7a 60bd 4c5e 97bd 8d2d 2ebd
000001b0: 059a a9bd 212b 3fbd 16b5 7dbd e172 ac3d
000001c0: df5b b9bc 1a87 edbc 4840 573d da30 29bd
000001d0: 209f c43d 35c7 9a3c 4189 bbbd e0b4 be3d
000001e0: 68fa 1c3d 7f9e ca3d 0774 c8bd 31cf b33d
000001f0: e208 cf3d 6197 2ebd 8981 a43d 374c 763d
00000200: 259c 84bc 0089 a4bd 3832 ec3a 2001 3e3c
00000210: 982f b63c 8e38 a03d 19f1 94bd 48c4 193b
00000220: 1d49 b33d 9507 cd3d 3d5a b1bd cd03 ddbc
00000230: 5b36 ba3c c9cc bc3d db12 853d 2736 0a3d
00000240: b31e c03d 5886 9cbd 9699 77bd 1be3 5c3d
00000250: 98b8 36bc 9e6d 473d 2845 db3c 18a4 6cbc
00000260: 677d b5bd 1165 5d3d 7a5d b93d 4b16 22bc
00000270: cf57 9cbd 38ad 2abd c3a0 a7bd 9a8f 16bc
00000280: 7435 9f3d 246c 40bb 57c4 1abd 8811 b0bb
00000290: dd3d 86bd cbe0 9fbd 27cc 9dbd 7825 2bbc
000002a0: 9a06 b4bd a782 843d 1417 6dbd bc2c 05bd
000002b0: 7dde 853d 60d4 3fbd bb2d 4ebd e177 0fba
000002c0: d496 a83c e011 aa3d 28e6 a83d 88fa 833d
000002d0: e83c 4abd 0aa0 473d 4fbd 683d 3ad9 a0bd
000002e0: 6171 ebbc abff ea3c 2f4d 6a3d f468 29bd
000002f0: 0f71 25bd c875 c1bd eb13 6cbc b033 74bb
00000300: a1d6 063d 73b3 843c cd80 4c3c a270 fdbb
00000310: dcbf 7b3d f740 b13d 05b3 9cbd d924 dcbc
00000320: a677 963c 5c73 23bb 1b5e 853d d974 88bd
00000330: 52f6 70bd 17a0 9ebd f6ba babc 8219 0e3d
00000340: 69e6 b83c 9dea b33d b2fe 48bd 7e28 1b3d
00000350: 306c 12bd 47a3 803d 7ffb 603d 049b 413d
00000360: 7544 933d ea3b 7a3d b818 8dbc dabc 453d
00000370: 0dea c4bd 22ca b13c 441d 7cbd 1e7a 94bd
00000380: c994 d03d 9bdb 68bd 3ed2 c0bd 3496 843a
00000390: 34d2 843d b0d7 993d 506b 293d 31e0 95bc
000003a0: deab 723d 437d 89bb eed9 4e3d 44fe 1f3d
000003b0: 0c5c eb3a 4f6e a73c b51a 983d 6af8 df3c
000003c0: 4153 323c 069f 8b3d e3ba 0b3d d0e3 04bd
000003d0: 29c0 b0bd ad2a d93c 0f34 8a3d 2bc7 863d
000003e0: ce66 703d 6965 30bd 071c 2c3c 3702 87bb
000003f0: 60a2 bf3d 69bf 75bd 9f73 e73c b3a4 59bd

gru.weight_hh_l0_reverse f4 [300, 100]
-0.047182485 -0.057103556 0.039359547 0.058855053 0.029732661 0.046961937 0.0067955484 -0.006488523
0.076659925 0.07227835 -0.085499465 -0.07068395 -0.04139132 -0.075556256 0.08696435 0.014439581
-0.08680569 0.07458313 -0.03060015 0.0423699 -0.03730136 0.06618692 -0.09436677 0.048127327
0.054579075 0.08767999 0.053243022 -0.1015158 0.025755294 0.024356818 -0.05160914 0.07739766
-0.053670447 0.062935695 0.07695793 0.09341418 0.04492849 -0.04635421 -0.039349895 0.08864886
0.05847471 -0.01547602 -0.00890721 0.026141373 -0.040787924 -0.07119377 -0.089743614 0.07987525
0.061490364 0.035273522 0.04981239 -0.048341997 0.08268198 0.061377604 0.026090126 0.07280306
-0.021058343 0.056423526 -0.051489905 0.010150647 0.07463797 -0.078609206 0.07712637 0.08181732
-0.087507844 0.002275406 0.048272517 0.027576346 -0.08194574 0.051544536 0.08265933 0.10170143
-0.01516022 0.05111564 0.07711482 -0.03958125 0.02627769 0.014057895 0.0007705331 -0.035427395
0.025095344 -0.102870256 -0.04709235 0.0841859 -0.05514898 -0.01860155 -0.07173054 -0.086159855
0.028905444 -0.0912252 0.09708014 0.08967732 -0.07580587 0.012257406 0.042017575 -0.005840697
-0.08729034 0.093198664 -0.06682561 0.08386218 0.09868394 -0.0861399 -0.02394842 -0.06363441
-0.030508434 0.035958134 -0.046627954 0.03341391 0.010405869 -0.09621031 0.045734607 -0.0122886645
0.034659326 -0.066064894 0.012896472 -0.0714887 -0.008484307 0.078363165 0.010342847 -0.0014706126
0.08796651 -0.07692694 0.04427183 0.04304591 0.038180504 -0.050408974 0.04758507 0.051976558
-0.03656749 0.023037761 0.05174639 -0.06670203 0.08070236 0.03922619 -0.030759407 0.09174798
0.058411323 -0.055291075 0.047888614 -0.042719707 0.056638982 -0.048022937 -0.08202525 -0.015493804
-0.0962474 0.037079956 0.09380911 0.01862826 0.054754935 0.04337795 0.0122596305 -0.05264296
0.025616273 0.099778526 0.078053 0.04555008 -0.08067639 -0.0950095 -0.015992437 -0.022634258
0.05650668 -0.07328332 0.024935633 -0.09222322 0.090992674 -0.06176228 -0.09709983 -0.05483641
-0.057775766 -0.08742078 0.0961202 -0.057970803 0.030834941 -0.0126864975 0.097715884 -0.028007492
0.0038769871 -0.02105125 0.0137715535 0.06638895 0.011352307 -0.0022701952 0.036407772 0.033750337
-0.08220398 0.084661774 -0.03931589 -0.05213016 -0.08060735 0.037750356 0.050450984 0.020055754
0.0472541 0.068684034 0.09438143 -0.097786196 0.0064695757 -0.07303679 0.049270112 0.050723184
0.0362654 0.099185415 -0.090742774 -0.085180014 -0.06451945 0.036329605 0.050019424 0.08951551
-0.0028540257 -0.058350906 0.10045329 0.095202446 0.0068520606 -0.0754113 -0.094822295 -0.0011931909
-0.094457015 -0.035797805 -0.042906895 0.089550845 0.083982736 0.06719252 0.051894758 0.07424872
-0.04326651 -0.0044451123 -0.034540035 0.09132224 0.07528704 0.042336743 0.054283913 0.04410541
0.01721718 0.013296946 -0.01434157 -0.07602367 -0.0017179485 0.07708584 0.00022326923 0.06087694
-0.05829813 0.019003712 -0.010462611 0.08640775 0.09973424 0.005521991 0.08287997 0.007019712
0.06277881 0.006606073 -0.016874712 0.10008688 -0.055078525 -0.053441655 -0.02258967 0.017506268
00000000: 6c42 41bd 6be5 69bd 7a37 213d ff11 713d
00000010: e991 f33c 295b 403d 31ad de3b ad9d d4bb
00000020: e1ff 9c3d ac06 943d 581a afbd bfc2 90bd
00000030: f289 29bd 3dbd 9abd 5d1a b23d fe93 6c3c
00000040: 2ec7 b1bd 0abf 983d 2aad fabc 0f8c 2d3d
00000050: 50c9 18bd 028d 873d 5d43 c1bd 2921 453d
00000060: 4f8e 5f3d 9191 b33d 5b15 5a3d 84e7 cfbd
00000070: c4fc d23c f387 c73c 1b64 53bd aa82 9e3d
00000080: 8bd5 5bbd 6ee4 803d 1f9c 9d3d ef4f bf3d
00000090: f006 383d e9dd 3dbd 5b2d 21bd 898d b53d
000000a0: 2d83 6f3d 228f 7dbc 8cef 11bc 6f26 d63c
000000b0: 3d11 27bd 0ace 91bd 80cb b7bd a395 a33d
000000c0: 52dd 7b3d f87a 103d 1408 4c3d 4202 46bd
000000d0: 2c55 a93d 1567 7b3d f6ba d53c c519 953d
000000e0: 8c82 acbc 5b1c 673d 14e7 52bd e64e 263c
000000f0: cbdb 983d ddfd a0bd 6ef4 9d3d d78f a73d
00000100: 5037 b3bd fa1e 153b 67b9 453d cae7 e13c
00000110: 2bd3 a7bd 5d20 533d 4b49 a93d d748 d03d
00000120: 9262 78bc a25e 513d 60ee 9d3d f31f 22bd
00000130: 4f44 d73c 1653 663c 9afd 493a 511c 11bd
00000140: c094 cd3c a4ad d2bd e8e3 40bd a869 ac3d
00000150: e6e3 61bd 4762 98bc 76e7 92bd 9474 b0bd
00000160: 1ccb ec3c 47d4 babd f4d1 c63d bea8 b73d
00000170: 1c40 9bbd 49d3 483c 9f1a 2c3d 5163 bfbb
00000180: 47c5 b2bd f1de be3d dedb 88bd efbf ab3d
00000190: ce1a ca3d 1e6a b0bd 7a2f c4bc c252 82bd
000001a0: d3ec f9bc d648 133d f4fc 3ebd 06dd 083d
000001b0: 617d 2a3c e909 c5bd 3654 3b3d 6556 49bc
000001c0: f0f6 0d3d 084d 87bd b94b 533c ab68 92bd
000001d0: c301 0bbc de7c a03d 0b75 293c 92c1 c0ba
000001e0: c927 b43d df8b 9dbd 6156 353d e850 303d
000001f0: 2963 1c3d a479 4ebd 90e8 423d 5fe5 543d
00000200: cbc7 15bd b0b9 bc3c 06f4 533d 139b 88bd
00000210: 4747 a53d a4ab 203d 27fb fbbc 5de6 bb3d
00000220: b640 6f3d e578 62bd da26 443d dcfa 2ebd
00000230: 47fe 673d b3b3 44bd dbfc a7bd b9d9 7dbc
00000240: 5b1d c5bd 27e1 173d fe1e c03d 4b9a 983c
00000250: b646 603d 14ad 313d 9edc 483c 25a0 57bd
00000260: 38d9 d13c af58 cc3d 40da 9f3d b892 3a3d
00000270: aa39 a5bd 5794 c2bd 9202 83bc 7b6b b9bc
00000280: 8c73 673d 9115 96bd d045 cc3c 87df bcbd
00000290: 5e5a ba3d 72fa 7cbd 47dc c6bd 259c 60bd
000002a0: 48a6 6cbd aa09 b3bd abda c43d cb72 6dbd
000002b0: 8f99 fc3c 07db 4fbc 441f c83d f86f e5bc
000002c0: 0d15 7e3b ac73 acbc 15a2 613c eef6 873d
000002d0: 07ff 393c 8ec7 14bb 5120 153d cb3d 0a3d
000002e0: 8f5a a8bd 2763 ad3d b309 21bd 6f86 55bd
000002f0: 7715 a5bd 1ea0 1a3d b1a5 4e3d f74b a43c
00000300: 848d 413d 37aa 8c3d 0d4b c13d 2144 c8bd
00000310: bcfe d33b 5094 95bd 75cf 493d 1dc3 4f3d
00000320: 078b 143d b921 cb3d 59d7 b9bd dc72 aebd
00000330: c622 84bd 5ace 143d 2be1 4c3d e853 b73d
00000340: 9b0a 3bbb 5c01 6fbd 74ba cd3d 80f9 c23d
00000350: 4087 e03b 3d71 9abd 3132 c2bd d864 9cba
00000360: ae72 c1bd b8a0 12bd 24bf 2fbd 6f66 b73d
00000370: 24ff ab3d 3b9c 893d 998f 543d b70f 983d
00000380: 3938 31bd 4ea8 91bb da79 0dbd 2807 bb3d
00000390: 1730 9a3d 4b69 2d3d cf58 5e3d e0a7 343d
000003a0: 0b0b 8d3c 6fdb 593c e8f8 6abc 4cb2 9bbd
000003b0: c92c e1ba 2edf 9d3d 611d 6a39 195a 793d
000003c0: 05ca 6ebd acad 9b3c 5f6b 2bbc 8cf6 b03d
000003d0: 7741 cc3d d1f1 b43b f9bc a93d 9d05 e63b
000003e0: 2d92 803d c277 d83b d63c 8abc 5afa cc3d
000003f0: 059a 61bd a3e5 5abd f90d b9bc 4e69 8f3c

gru.bias_ih_l0_reverse f4 [300]
0.10640658 -0.015891412 -0.04352489 0.034929927 0.033738088 0.075741574 0.018002588 0.082553454
0.045528106 -0.057522688 -0.0026370375 -0.055681307 -0.07660626 0.022633659 0.050275635 0.06394703
0.052539587 0.13116701 0.057144564 0.087417446 -0.01292703 0.023440184 -0.0030773082 0.044936657
0.062363096 0.036868222 0.038909726 -0.06529211 0.01558973 0.019591732 0.09323995 0.042438146
-0.05330438 0.031561412 -0.072327435 -0.07110905 -0.00036288533 -0.011886128 0.060428347 0.07065446
0.0032660603 -0.07985623 -0.015184477 0.017189993 -0.010491089 0.04846766 -0.04453918 -0.05319993
0.09075368 -0.007827041 -0.05449492 0.09227235 -0.008364773 0.11506223 -0.013266286 0.101342745
0.035865564 0.12274346 -0.08164811 0.017473267 -0.032866158 -0.051308867 -0.078534454 -0.056953136
0.0877926 0.01922186 -0.008847861 -0.059453536 -0.063966185 0.059891853 -0.06338508 0.05130247
-0.04766927 -0.01168385 -0.0911041 0.05224102 -0.0021269138 -0.067661785 0.0068833586 0.024558116
-0.0087646 -0.058210894 -0.046184424 0.084711805 0.020552792 -0.039400637 0.005578532 0.11612257
0.06542143 0.052017752 0.057529557 -0.009709851 0.081086785 0.023217557 -0.09636651 0.035502147
0.0857513 0.03539178 0.097183175 -0.08971998 0.02821161 0.08476727 0.03854455 -0.043030657
-0.029457042 -0.09990628 -0.07434086 0.014210145 -0.0943436 0.031836674 0.033269938 -0.061741434
-0.010707473 -0.04871089 0.05979315 -0.031187117 -0.031674962 0.04893741 -0.063499376 -0.007886161
-0.055007778 0.046891194 0.019415308 0.064371124 -0.13086899 0.09698027 0.09832099 0.07205712
0.07117018 0.061873473 0.07080521 0.060267683 0.026689867 -0.0379058 -0.07644604 -0.022898218
-0.007816548 -0.025760692 0.029087462 -0.05783171 -0.078303695 0.023276916 -0.0005706705 -0.010903438
0.044514205 0.05679615 -0.07947246 -0.05070419 -0.097960144 0.072428726 -0.07202675 0.06514227
-0.079750806 -0.050852086 0.06922053 -0.0017933097 -0.09215307 0.12549813 -0.062538326 -0.08183194
0.025690297 0.036006708 -0.017899245 -0.016845861 0.09819148 -0.09290209 -0.025111174 -0.061056968
0.011820666 0.033455234 -0.035231274 0.037706494 -0.06879827 0.102156736 0.08262428 0.09089445
0.040900912 0.09464241 -0.017728666 -0.06933731 0.041104067 0.08008725 0.022370243 0.058301758
-0.046848036 -0.08083956 -0.08760259 -0.022829749 -0.022825463 0.04527819 0.09158424 0.02553943
-0.09209133 0.023245584 0.048658747 -0.092317335 0.061825663 -0.04015527 0.08621012 -0.0828993
-0.027892042 0.03367484 0.038463473 -0.033070553 0.09911716 -0.0045419396 -0.037881076 -0.07202313
-0.07617825 0.10430426 0.023315143 -0.074141346 0.07766542 -0.028506557 0.07929472 0.16289856
-0.11752182 -0.055473715 0.13011661 0.029931976 0.0685692 0.14586735 -0.0049451594 -0.0048971064
0.005332695 -0.11383571 0.05526078 -0.05263196 -0.024196086 0.122322276 -0.0425813 0.11174756
-0.10154956 -0.0016277466 0.0006036491 0.03185751 -0.053281453 0.10327099 0.05769111 -0.03414585
-0.019548776 0.14335452 -0.019730642 0.100183815 0.18474047 -0.12512967 -0.058520626 -0.0295201
0.12547813 0.0141134 -0.10424111 0.035833605 0.081105486 0.09217441 -0.026320884 -0.06980984
00000000: b1eb d93d b52e 82bc 2847 32bd af12 0f3d
00000010: f330 0a3d 661e 9b3d 2a7a 933c c911 a93d
00000020: ae7b 3a3d e99c 6bbd 26d2 2cbb 1512 64bd
00000030: bee3 9cbd 396a b93c d3ed 4d3d a9f6 823d
00000040: c033 573d a550 063e 6b10 6a3d eb07 b33d
00000050: e5cb 53bc a105 c03c aaac 49bb 800f 383d
00000060: 7270 7f3d 2203 173d ce5f 1f3d dfb7 85bd
00000070: 116c 7f3c d77e a03c 96f4 be3d 9fd3 2d3d
00000080: b255 5abd 8a46 013d 6820 94bd 9fa1 91bd
00000090: a541 beb9 09be 42bc b783 773d 49b3 903d
000000a0: 660b 563b aa8b a3bd 50c8 78bc 07d2 8c3c
000000b0: d1e2 2bbc 0686 463d b76e 36bd 2be8 59bd
000000c0: 11dd b93d fd3c 00bc 1136 5fbd 49f9 bc3d
000000d0: 670c 09bc bfa5 eb3d d65a 59bc c98c cf3d
000000e0: c5e7 123d ec60 fb3d 2037 a7bd 1924 8f3c
000000f0: aa9e 06bd 3f29 52bd acd6 a0bd b147 69bd
00000100: 9bcc b33d 2a77 9d3c 9ef6 10bc 8d85 73bd
00000110: b400 83bd 2951 753d 09d0 81bd 8a22 523d
00000120: da40 43bd 9e6d 3fbc c994 babd aefa 553d
00000130: b163 0bbb 4392 8abd cc8d e13b 1a2e c93c
00000140: 6699 0fbc 8c6e 6ebd e12b 3dbd 627d ad3d
00000150: 545e a83c 9062 21bd 1ecc b63b acd1 ed3d
00000160: acfb 853d 9110 553d 1da4 6b3d 1116 1fbc
00000170: d410 a63d bf32 be3c ce5b c5bd b36a 113d
00000180: 619e af3d f9f6 103d f907 c73d 1cbf b7bd
00000190: 091c e73c 769a ad3d e4e0 1d3d ea40 30bd
000001a0: e54f f1bc aa9b ccbd 0540 98bd abd1 683c
000001b0: 3837 c1bd 2c67 023d 0f46 083d 96e4 7cbd
000001c0: 666e 2fbc 1285 47bd a9e9 743d 207c ffbc
000001d0: 9bbd 01bd 9872 483d f60b 82bd f534 01bc
000001e0: d64f 61bd fb10 403d da0c 9f3c 02d5 833d
000001f0: 8502 06be 989d c63d 845c c93d af92 933d
00000200: acc1 913d 0a6f 7d3d 5202 913d 3fdb 763d
00000210: b5a4 da3c 1d43 1bbd be8f 9cbd 0b95 bbbc
00000220: fb10 00bc 1608 d3bc d448 ee3c f1e0 6cbd
00000230: b05d a0bd 3baf be3c 0d99 15ba 55a4 32bc
00000240: 8754 363d 14a3 683d 75c2 a2bd 32af 4fbd
00000250: 549f c8bd 8355 943d c382 93bd 4f69 853d
00000260: 6454 a3bd 474a 50bd 7ec3 8d3d 7d0d ebba
00000270: c0ba bcbd 9582 003e 1814 80bd 8197 a7bd
00000280: 7574 d23c c57b 133d 70a1 92bc 5500 8abc
00000290: 9d18 c93d 7343 bebd f3b5 cdbc df16 7abd
000002a0: 77ab 413c 5b08 093d ab4e 10bd 2072 1a3d
000002b0: 1be6 8cbd 8d37 d13d eb36 a93d df26 ba3d
000002c0: b787 273d e1d3 c13d b53b 91bc b800 8ebd
000002d0: bd5c 283d c904 a43d cd41 b73c d3cd 6e3d
000002e0: bae3 3fbd 368f a5bd fd68 b3bd 7405 bbbc
000002f0: 77fc babc a075 393d 8590 bb3d 1138 d13c
00000300: 619a bcbd 866d be3c 654e 473d df10 bdbd
00000310: e83c 7d3d da79 24bd ee8e b03d 1cc7 a9bd
00000320: da7d e4bc a1ee 093d e08b 1d3d fd74 07bd
00000330: f0fd ca3d 8dd4 94bb 3029 1bbd dd80 93bd
00000340: 5803 9cbd 799d d53d 66ff be3c 6bd7 97bd
00000350: 0c0f 9f3d 9586 e9bc 4565 a23d e1ce 263e
00000360: 48af f0bd 6838 63bd 4a3d 053e e733 f53c
00000370: 026e 8c3d 405e 153e 010b a2bb e877 a0bb
00000380: e3bd ae3b b222 e9bd 2159 623d 9c94 57bd
00000390: df36 c6bc 1a84 fa3d bb69 2ebd e8db e43d
000003a0: 37f9 cfbd 1d5a d5ba 353e 1e3a 057d 023d
000003b0: a73d 5abd be7f d33d 834d 6c3d 85dc 0bbd
000003c0: c124 a0bc 87cb 123e 28a2 a1bc 2c2d cd3d
000003d0: 9b2c 3d3e fe21 00be 53b3 6fbd 23d4 f1bc
000003e0: 577d 003e e43b 673c 5d7c d5bd 42c6 123d
000003f0: a21a a63d f0c5 bc3d e59e d7bc 76f8 8ebd
