parameter/crf_lstm_parameter/90_Bigru_crf.ckpt (torch_old, 582775 bytes, 13 tensors)

transitions f4 [30, 30]
000000 e3 3f 1c c6 e3 3f 1c c6 e3 3f 1c c6 e3 3f 1c c6
       -9999.972 -9999.972 -9999.972 -9999.972
000010 e3 3f 1c c6 e3 3f 1c c6 e3 3f 1c c6 e3 3f 1c c6
       -9999.972 -9999.972 -9999.972 -9999.972
000020 e3 3f 1c c6 e3 3f 1c c6 e3 3f 1c c6 e3 3f 1c c6
       -9999.972 -9999.972 -9999.972 -9999.972
000030 e3 3f 1c c6 e3 3f 1c c6 e3 3f 1c c6 e3 3f 1c c6
       -9999.972 -9999.972 -9999.972 -9999.972
000040 e3 3f 1c c6 e3 3f 1c c6 e3 3f 1c c6 e3 3f 1c c6
       -9999.972 -9999.972 -9999.972 -9999.972
000050 e3 3f 1c c6 e3 3f 1c c6 e3 3f 1c c6 e3 3f 1c c6
       -9999.972 -9999.972 -9999.972 -9999.972
000060 e3 3f 1c c6 e3 3f 1c c6 e3 3f 1c c6 e3 3f 1c c6
       -9999.972 -9999.972 -9999.972 -9999.972
000070 e3 3f 1c c6 e3 3f 1c c6 3a 77 9d be bd b3 a9 be
       -9999.972 -9999.972 -0.30755025 -0.33144942
000080 82 34 2a 3f 56 a4 10 c0 3d 71 30 be 65 25 bf 3e
       0.6648637 -2.2600303 -0.17230697 0.37333217
000090 00 45 43 be da 06 29 bf 06 3a d0 3f 23 ea 92 3e
       -0.1906929 -0.6602608 1.6267707 0.28694257
0000a0 72 14 40 3e ef 3d 6e 3e 6c 99 52 be 01 9b 08 bf
       0.187578 0.23265813 -0.20566338 -0.5336152
0000b0 6c 5b a0 bf 86 7e b8 be 68 96 82 3e b5 ad 84 bf
       -1.25279 -0.3603403 0.25505376 -1.0365511
0000c0 7b f2 89 bf da 2f c4 bf d3 fe 9c bf 5e 9f 81 bf
       -1.0777124 -1.5327103 -1.2265266 -1.012676
0000d0 b7 4a 42 3f ef 45 02 c0 32 5f 31 bf 48 f9 ff 3e
       0.75895256 -2.0355184 -0.6928588 0.49994874
0000e0 59 a9 5e 3f 03 0a 05 bf e1 0b 76 3e e3 3f 1c c6
       0.86977154 -0.519684 0.24027969 -9999.972
0000f0 05 e1 2b 3f e5 66 0f 3e d2 68 0c 3f b9 32 7a 3e
       0.6714023 0.14004095 0.54847443 0.24433412
000100 12 39 31 3f bd 7c 1c 3f 4f eb 5c be 1d af d3 bd
       0.6922771 0.61127836 -0.21574138 -0.103361346
000110 d0 cd 03 3f a8 72 5f 3f 5a 66 1f 3e bd 1c 93 3f
       0.5148592 0.87284327 0.15566388 1.1493145
000120 be f0 72 3f 7a 34 37 3f 3c 67 3c 3f 8c 32 09 3f
       0.94898593 0.7156445 0.73595023 0.53592753
000130 f0 06 0c bf da 9b ab be 19 cf 82 be f6 d0 b3 3e
       -0.54698086 -0.33517343 -0.25548628 0.35120362
000140 05 93 04 bf 6d a0 b2 bf 58 87 f7 bd e9 f6 9a 3f
       -0.51786834 -1.3955208 -0.12086362 1.2106601
000150 ca 97 72 be 7b fe 94 be fb 78 1b be 05 2f c2 3f
       -0.23690715 -0.29100403 -0.15182869 1.5170599
000160 aa 5c 4a be e3 3f 1c c6 78 36 36 3f 81 e3 37 3e
       -0.19761911 -9999.972 0.7117686 0.1795788
000170 d7 1f 97 3f 2b f4 8f 3e 36 c4 d8 3f 95 64 b6 be
       1.1806592 0.28115973 1.6934879 -0.35623613
000180 93 94 43 3f 01 f8 80 bf 1a af 43 bf 1b f6 f5 be
       0.7639858 -1.0075685 -0.7643906 -0.48039326
000190 bc fb 7b bf e5 92 c1 be 03 75 7f bc 34 a5 b1 3f
       -0.9843099 -0.37807384 -0.015591863 1.3878541
0001a0 ea ba 08 be b1 ea 53 3e 32 1c 81 3e 6c 15 47 be
       -0.13352552 0.20694996 0.25216824 -0.19441766
0001b0 ae 3f 90 3e 8c 86 be 3d c6 b6 dc 3e a5 f8 8e be
       0.28173584 0.093030065 0.43108195 -0.27924076
0001c0 0b 27 46 3f 4e 65 95 be ff 9f dd 3e 12 ee d1 bf
       0.77403325 -0.29178852 0.4328613 -1.6400778
0001d0 c4 aa be 3f 28 34 70 3d c3 26 35 bf e3 3f 1c c6
       1.4895864 0.05864349 -0.7076227 -9999.972
0001e0 82 86 50 3f bb d0 88 bf 7f c0 30 bf 4b e4 35 40
       0.8145524 -1.06887 -0.69043726 2.842059
0001f0 af 45 9d bf 32 e5 2f bf 57 18 14 bf 8d 1a f8 bf
       -1.2286891 -0.687091 -0.5784964 -1.9383103
000200 43 22 55 bf 21 94 4c bf dc 57 6a 3e 9d 00 cd bd
       -0.83255404 -0.79913527 0.22885078 -0.100098826
000210 64 3b d7 3f a2 f5 01 3f ea 05 42 3e f7 20 64 3e
       1.6815 0.5076543 0.18947569 0.222782
000220 10 a7 0f 3f 1a d9 52 bf 9b 71 ea bf 13 d2 90 3f
       0.5611429 -0.8236252 -1.831592 1.131411
000230 b6 c9 09 3f 36 e9 10 c0 08 18 2e 3f 82 d4 c3 3f
       0.5382341 -2.264234 0.6800542 1.5299227
000240 1a 91 28 3f de d6 a2 3f f8 e4 5c bf ea 81 d4 bd
       0.6584641 1.2721822 -0.8628688 -0.10376342
000250 40 42 04 40 e3 3f 1c c6 4c bd 35 bf 6e 3c 83 3f
       2.0665436 -9999.972 -0.7099197 1.0252817
000260 9b 5c 23 3f 1e 9d a4 3f 99 75 82 be f3 89 59 3f
       0.6381318 1.2860448 -0.25480345 0.8497612
000270 81 e3 10 bf d7 1b 58 3f 9a fd 00 bf cf 31 86 3f
       -0.56597143 0.8441748 -0.50386965 1.048395
000280 91 04 0a 3f c2 fd 73 3f 51 67 05 3f a4 17 b0 3e
       0.5391322 0.9530908 0.52110773 0.34393036
000290 74 91 76 be 36 92 a8 3e 80 7c 4b be eb 61 86 3e
       -0.24078923 0.3292405 -0.19871712 0.2624658
0002a0 04 1e d2 3f ff 95 10 bf 02 c6 d3 be ec 82 e1 3e
       1.641541 -0.56478876 -0.41362005 0.44045198
0002b0 6b 42 85 3f fe 8e f0 3f 9e 94 db 3f 03 9a e6 be
       1.0410894 1.8793638 1.7154729 -0.45039377
0002c0 17 68 7c bf f0 7e 50 bf 3d 1d 2b 3f e3 3f 1c c6
       -0.9859633 -0.8144369 0.6684149 -9999.972
0002d0 d7 69 6d 3f 70 8a 4a be 26 2e f8 3f 13 d6 34 3f
       0.92739624 -0.19779372 1.9389083 0.7063915
0002e0 30 3b ab 3e da 8f bc 3f 4c c9 7f bf f6 91 e3 3d
       0.33443594 1.47314 -0.9991653 0.11111824
0002f0 76 25 85 3f 5d eb 63 3f 2a e0 4d bf 4c 57 19 3f
       1.0402057 0.8903101 -0.8042017 0.5989883
000300 b9 5c 23 bd 57 d6 bf be ca 36 1e c0 b2 5f 01 3e
       -0.03988335 -0.37468216 -2.472094 0.12634161
000310 1d 25 95 bf 8f c9 ed 3e 47 8c b2 3f d4 e0 d6 bc
       -1.1651951 0.4644284 1.3949059 -0.026230253
000320 bb 45 74 3e 7f 69 ee 3d 8b 15 31 bf 25 e0 e6 3e
       0.23854725 0.116412155 -0.69173497 0.45092884
000330 01 1c 3c bf 09 7d 81 3e c5 bb ce 3d d0 4e 6a bf
       -0.7348023 0.25290707 0.10094408 -0.9152651
000340 63 6e 97 3f e3 3f 1c c6 2a 13 cc 3f b3 b3 48 bf
       1.1830562 -9999.972 1.5943348 -0.783992
000350 26 71 46 3e 13 40 1e 40 8c 78 4e bf f0 78 3d bf
       0.193791 2.4726608 -0.8065269 -0.7401266
000360 f9 60 b9 3e 0a 3d 9b 3e 31 b2 f5 3f 80 32 33 3f
       0.36206797 0.30320007 1.9195005 0.6999893
000370 20 51 76 3f 8d 4a b0 3c 38 ba dd 3e 54 66 a4 3f
       0.96217537 0.021519924 0.43306136 1.2843728
000380 30 45 55 bf 96 44 a8 3f 25 a2 a7 3f d7 55 8d 3e
       -0.83308697 1.3145931 1.3096358 0.27604553
000390 72 1b 1c c0 ed 09 6f 3e db dc 32 3f a8 73 f2 3e
       -2.4391751 0.2334363 0.6986825 0.47353864
0003a0 df fd b5 3d 91 75 8b 3e 54 bf 82 3d 0b f0 09 be
       0.08886313 0.27238134 0.06384149 -0.13470475
0003b0 23 5c 0e c0 36 85 76 3e d0 1b 08 3f e3 3f 1c c6
       -2.2243736 0.24074253 0.5316744 -9999.972
0003c0 d7 06 c3 3f 0c 65 33 bf 2a 2b 7b bf c6 3e ce bf
       1.5236462 -0.7007606 -0.9811274 -1.6112907
0003d0 7d 5c dc be bd e7 b4 3f 87 5e b5 bd fb d2 78 3e
       -0.43039313 1.4133221 -0.0885592 0.24299233
0003e0 8b 6f 89 bf 7d e3 9c 3f 67 f1 1b bf e9 38 5a 3f
       -1.0737165 1.2256924 -0.60915226 0.8524309
0003f0 7c 2e 07 bf 40 6f c8 3e 0f 15 c9 bf b0 4c b9 3e
       -0.52805305 0.39147377 -1.5709552 0.3619132

gru.weight_ih_l0 f4 [300, 100]
000000 ea 73 da 3b 45 be b5 3d a5 41 f3 ba ca 40 b8 3d
       0.00666665 0.08874182 -0.0018558992 0.089967325
000010 8e e1 c8 3d 10 4f 29 bc 1f 71 a2 bd f4 f3 41 3d
       0.09808646 -0.010333791 -0.079317324 0.047351792
000020 b0 2f ad bd b8 eb d9 3c d2 d5 a3 bd 39 26 95 3d
       -0.08456361 0.026601657 -0.07999767 0.07282681
000030 bf a6 ca 3c c5 b2 f6 3c 2f 99 a1 3d 30 41 3f bd
       0.024737714 0.03011454 0.078905456 -0.046693027
000040 76 25 91 bd 02 df 9a bd 6d 8f 58 bc 01 70 c3 3d
       -0.07087223 -0.075620666 -0.013217789 0.095428474
000050 b7 c9 d1 bc 90 fc c8 bd 1a 07 77 3d 97 ac 92 3c
       -0.02560888 -0.098137975 0.060309507 0.017904563
000060 4b 3b c2 3d d7 a4 82 3d 95 43 8d 3d f6 e0 b8 bd
       0.094839655 0.06379097 0.06897656 -0.09027283
000070 49 4c 52 3c fa e0 8c bd 18 e7 e8 3b b6 ac 20 bc
       0.012835571 -0.068788484 0.0071076266 -0.0098068025
000080 80 80 30 bc 94 63 29 3d 64 36 62 bc 36 5b 05 3d
       -0.010772824 0.04135473 -0.013806913 0.03255769
000090 71 68 a0 bd af 56 40 3d 27 cc 4f bb 37 dd 86 bc
       -0.078324206 0.046957668 -0.0031707378 -0.016462905
0000a0 1d 94 23 3d 24 e8 79 3d 62 83 16 bc 8c f6 16 3d
       0.039936174 0.061012402 -0.009186598 0.03685622
0000b0 92 6a b3 3d 47 89 c1 3d 3a 87 f5 bc a7 e2 69 bd
       0.08760561 0.09450012 -0.029971708 -0.05710092
0000c0 39 55 9a bd 51 9d 70 3d af 1c cb bd 31 11 45 bd
       -0.07535786 0.05874378 -0.0991758 -0.048112098
0000d0 8d 4e ae bd 29 f0 17 bd 7d 94 9d 3d 48 6d 80 bd
       -0.08511076 -0.03709427 0.076943375 -0.06270844
0000e0 0c 1e 60 bd a6 f4 ba 3c d7 56 b8 bd 74 ef a7 3c
       -0.054716155 0.022821736 -0.090009384 0.020499922
0000f0 56 77 c6 bd 42 fd d3 bc 98 e8 bd bd 71 a0 0c bd
       -0.0969073 -0.025877599 -0.09272879 -0.034332696
000100 48 28 91 3d 4c ec 1a bd 40 ce ea bc a6 af b2 3d
       0.07087761 -0.037823007 -0.0286628 0.087249085
000110 c4 97 15 3d e3 05 46 3d 6b a1 07 bd 36 db 24 bd
       0.036521688 0.048345458 -0.033112925 -0.04024812
000120 b5 a0 cb bd a4 ea 4a bd 48 28 c9 3d b8 72 99 3d
       -0.09942762 -0.049540177 0.09822136 0.07492584
000130 d2 68 99 3d 5c 7b f6 3c a1 e3 53 3d 6c 1b 5d bd
       0.07490696 0.03008812 0.051730756 -0.05398123
000140 d4 85 90 3d b8 21 95 bd de 6b 46 3c b1 19 d9 3c
       0.07056776 -0.07281822 0.0121106785 0.026501508
000150 d6 ae a9 3c df 1d 92 3c e5 8b de 3c 1a 66 ba bd
       0.020713251 0.01783651 0.027166316 -0.091015056
000160 5f 2c 52 bd d4 e0 5d 3d 17 a7 50 3d 10 25 b0 bd
       -0.051311847 0.05416949 0.0509406 -0.08600819
000170 fe ab 88 bd 29 2e 75 bd d4 a5 b1 bd b3 5f dd bc
       -0.0667343 -0.059858475 -0.08674207 -0.027023172
000180 3b a9 75 3d 6e 15 77 bd 8a cb 1c 3c 57 96 9f bd
       0.059975844 -0.06032317 0.009570012 -0.07792347
000190 11 b9 70 bd 37 74 46 3d 98 88 3d 3d c2 20 9c 3d
       -0.058770243 0.048450675 0.046272844 0.076234356
0001a0 e3 d2 95 bb 51 ae ae bd b6 26 a4 bd a8 a1 a1 bd
       -0.004572259 -0.08529342 -0.08015196 -0.078921616
0001b0 2b c8 40 3d c4 9e 15 bd 83 49 ad 3d b7 60 b9 bd
       0.047065895 -0.036528364 0.08461287 -0.0905165
0001c0 5b 74 ca ba 61 63 b4 bd b5 ff 19 3d d1 2c a1 bd
       -0.0015446054 -0.088080175 0.037597377 -0.07869876
0001d0 99 ae df 3c a9 4a fb bc 13 ea 9e bd a6 d8 5b 3d
       0.027304934 -0.03067525 -0.0775949 0.05367341
0001e0 e9 f1 91 bd f5 d3 72 3c 8f e1 cf bc c5 b3 62 bd
       -0.07126219 0.014821042 -0.02537611 -0.055347223
0001f0 d9 c5 b6 3d ab 61 78 bd 66 ef a5 bd 57 7a 15 3d
       0.08924455 -0.06064002 -0.08102302 0.036493625
000200 51 07 01 bd f5 b0 3a bd 91 b9 aa bd 14 c4 c9 3d
       -0.031501118 -0.045578916 -0.08336175 0.09851852
000210 93 b3 ad 3c 0c 6b cb 3b 8d 8b b0 bd 06 e7 99 3d
       0.021203792 0.0062078293 -0.08620367 0.07514767
000220 b9 a6 65 3d db 48 42 bd 94 85 b8 3b 50 ed a6 3d
       0.056067202 -0.04743276 0.005631158 0.081507325
000230 13 2f 1a bd 9e 71 9a bd 95 25 48 3d 90 4d 6d bd
       -0.03764255 -0.07541202 0.048863966 -0.057935297
000240 8f 01 9b 3c da 1a 0e bd 3d 54 c4 3d f0 95 54 3c
       0.018921642 -0.034693576 0.0958638 0.012975201
000250 63 f3 47 bd 04 2c 72 3d f8 36 b3 bd f5 c7 97 3d
       -0.048816096 0.059124008 -0.08750719 0.07411186
000260 2a b9 d3 3c 3e 98 4b 3d 5c c7 b0 3d 2e a7 53 bd
       0.025845129 0.049705736 0.08631775 -0.051673107
000270 5e ed bc bd 1d 8c 91 3d 17 67 8a bd 38 b6 59 bd
       -0.09224962 0.071068026 -0.06757944 -0.053152293
000280 3c 8c 44 3d d4 c9 10 bd f1 a4 95 3d be b2 5e 3c
       0.0479853 -0.03534873 0.07306851 0.01359242
000290 17 aa 55 bd 5b 2b 05 bd 2f d6 6d 3d ef a6 96 bd
       -0.052164163 -0.03251205 0.05806559 -0.07356059
0002a0 3d bb 89 bd 5b d9 78 bd 4f a5 41 bd 9b 54 41 bd
       -0.06725166 -0.06075416 -0.04727679 -0.047199827
0002b0 4f 7c 59 bb cc df 54 bd 27 aa a9 bd 9c 4c 28 bd
       -0.0033185666 -0.05197124 -0.08284407 -0.041088685
0002c0 51 79 9b 3d 4b 0b a1 3d 85 b6 22 bb 1c 1c 2b bc
       0.07591499 0.07863482 -0.0024828028 -0.0104437135
0002d0 da 05 39 bd 55 df 8e bc ac 2c 1c 3c bc 10 8e 3d
       -0.045171596 -0.017440477 0.009532135 0.069367856
0002e0 07 73 c3 3d 97 34 a1 bc fd c4 ad bd c9 a6 98 bd
       0.09543424 -0.019678397 -0.08484838 -0.07453687
0002f0 9d b1 a6 bd b0 4d 82 3d dd d1 dd 3c 45 02 e9 bb
       -0.08139346 0.06362474 0.02707761 -0.0071108663
000300 ef 2b 23 3d e3 7f 75 bd 2d 82 d2 bd 75 26 85 bd
       0.03983682 -0.059936415 -0.10278735 -0.06501476
000310 9a 9b bc 3c 23 1c de 3c c2 5f 1e bd 9d 0e 5d bd
       0.023023415 0.027113026 -0.03866554 -0.053969014
000320 59 c7 0f 3d 22 f5 b9 3c 49 3e 5d 3d 5c 95 16 bd
       0.035102222 0.022699896 0.054014478 -0.036763534
000330 47 3c a6 3c 5a a2 1c 3d e8 72 5f bd aa d1 16 3d
       0.020292414 0.038240768 -0.054552943 0.036821045
000340 e2 3a bd 3d 4e e4 25 3d 7e 3e 66 bc 38 30 65 bd
       0.09239747 0.04050093 -0.014052985 -0.055954188
000350 b4 09 a9 3d 9d 36 4d 3d c6 88 b6 3d f5 ec 59 bd
       0.08253804 0.05010091 0.08912806 -0.053204495
000360 41 f4 e5 bc a3 97 25 bd fa b6 40 3d f8 4d 24 3d
       -0.02807057 -0.040427815 0.0470495 0.04011342
000370 28 6e b2 bd 40 f6 a5 bc 13 a2 d1 3b 9a ec a3 bc
       -0.08712417 -0.020259023 0.0063974946 -0.020010281
000380 1d 33 fa bc f0 84 97 bd fb 1a 8b bd f4 89 9d 3d
       -0.03054195 -0.07398403 -0.067922555 0.07692328
000390 6c cf 63 3d ca a2 cd bb 87 8b b2 bd 22 92 62 3d
       0.055617735 -0.0062755095 -0.08718019 0.055315144
0003a0 17 97 a9 bd a7 5d 99 bd c9 c4 cb 3d 7d 62 e9 3c
       -0.08280771 -0.07488566 0.09949643 0.028489346
0003b0 07 6a 28 3d 2c 0a 56 3c cc 09 0b bc 54 cb d0 3b
       0.04111674 0.013063949 -0.0084862225 0.006371895
0003c0 a1 47 9a 3d 6c 0e 27 bd 5d 13 c9 3d 7e e4 a9 bc
       0.075331934 -0.04078524 0.098181464 -0.020738836
0003d0 91 0e 0c bd d4 8c 2f 3d c1 38 34 3d 03 7b a0 bd
       -0.03419358 0.042858914 0.043999437 -0.078359626
0003e0 79 1b cb 3d a7 b1 cb bd b2 9c 61 3d 31 73 e4 bc
       0.09917349 -0.09945994 0.055081077 -0.027886959
0003f0 7b b9 96 bc bc 3d bc bc 0e 53 26 bd 17 dc c4 3c
       -0.01839899 -0.022978656 -0.04060655 0.024030728

gru.weight_hh_l0 f4 [300, 100]
000000 16 23 16 bd 71 32 86 3d 31 3c 7d 3d 6a 27 45 bc
       -0.036654554 0.0655259 0.06182498 -0.012033323
000010 f5 e3 a7 bd 1a fd 81 3d 2d 4a 67 3d 57 7b 22 3c
       -0.08197776 0.063471034 0.056467224 0.009917102
000020 f2 2d 62 bd 74 2b 5d 3d 48 71 8a 3d 50 b7 bf 3d
       -0.055219598 0.05399652 0.06759888 0.09361136
000030 6a 42 3a 3d c0 c8 98 3d db 8a 99 bd be 98 ca bd
       0.045473494 0.07460165 -0.07497188 -0.098924145
000040 2c 7e e7 3c 04 08 95 bd 5a 85 38 3d df 31 2b bd
       0.028258406 -0.072769195 0.04504905 -0.041795608
000050 55 5d 95 3c df 15 bb 3d 64 ed e2 3a 0f 8c 9c bd
       0.01823298 0.09135031 0.001731318 -0.076439016
000060 89 36 ca bd 6c 10 3d 3d 49 a4 a2 3c 29 01 0f bc
       -0.09873683 0.04615824 0.019853728 -0.008728304
000070 e9 90 86 bd 45 24 bd 3d 6e 64 20 3d a7 c3 f5 3c
       -0.06570608 0.092354335 0.039158277 0.03000052
000080 da 8e 97 bc 55 2a bb bc 53 90 ab 3d a8 a7 bb 3d
       -0.018500734 -0.022847334 0.08377137 0.09162837
000090 af 66 ad 3d 11 da cd bd ae 44 47 bd 7f 31 2a 3c
       0.08466851 -0.100513585 -0.048649482 0.010387777
0000a0 d8 2d 5e 3c b8 ac bd bc 40 06 cd 3b 76 93 1e 3d
       0.013560735 -0.023153648 0.0062568486 0.03871485
0000b0 1a 38 9c 3d 89 c8 88 bd ea 5a b7 bd 20 cf bf 3b
       0.07627888 -0.06678874 -0.08952887 0.0058535486
0000c0 fc 2e 2d 3d e1 39 74 bd 5c db b7 3d cb 76 52 bd
       0.042281136 -0.05962551 0.08977386 -0.05138282
0000d0 6e 0f 7a 3d ec fa 19 3d 12 15 d6 bc 9e f4 73 3b
       0.06104987 0.037592813 -0.026133094 0.003722466
0000e0 17 23 2d bd 4a 24 c2 3d f3 45 b3 3d 48 d3 98 bd
       -0.042269792 0.09479578 0.08753576 -0.07462174
0000f0 8d 18 1a 3d 50 eb eb bc 9d 7c 33 bd d5 09 4d 3d
       0.03762107 -0.02879873 -0.043820012 0.050058205
000100 ce ed 98 bd f9 1a 75 bd dd 38 c3 bd b9 33 f3 3c
       -0.07467233 -0.059840176 -0.0953233 0.02968775
000110 ad e0 84 bd 92 da 39 3c af f4 c9 bc a3 5f e2 3c
       -0.06488166 0.011343615 -0.024652807 0.027633494
000120 cd 9f f6 bc b0 5f ac bc 15 08 13 bb d5 32 bc bb
       -0.030105496 -0.021041721 -0.0022435237 -0.0057433643
000130 7b 7e 57 bd d0 1e bc 3d fa 03 9e bc 96 57 2d 3d
       -0.052610856 0.091855645 -0.019289006 0.042319857
000140 c6 d4 a5 3c d6 6e 0d bc 76 fb 27 3d bc 57 c0 bd
       0.02024306 -0.008632382 0.041011296 -0.09391734
000150 2e b7 a0 bc 89 a2 2d bd dd 17 a0 bd be 03 c1 3d
       -0.019618597 -0.042391334 -0.078170516 0.09424542
000160 6f d0 f3 bc 37 b9 ae bd 40 d6 9c 3d fd a0 f2 3c
       -0.029762475 -0.08531421 0.076580524 0.02961778
000170 a1 07 64 bd 7c e1 96 3d 18 23 4f 3d ed 0f e2 3a
       -0.055671338 0.073672265 0.050570577 0.0017247178
000180 d2 ae 5e 3c 03 46 bc 3b b8 8a b8 bd 26 fd 80 bd
       0.013591485 0.0057456507 -0.090108335 -0.06298284
000190 67 2a d0 bc f0 7d 9e 3d 95 fe 7b 3d 42 c6 ca 3d
       -0.025410844 0.077388644 0.061522085 0.09901096
0001a0 7c 6d 03 3d d3 f7 b4 bd 30 44 c4 3b fd e4 b5 bd
       0.032086834 -0.08836331 0.005989574 -0.08881567
0001b0 49 5a c9 bd d2 4e 19 3d 9c 88 1a bc d2 d4 ac 3d
       -0.09831674 0.037428685 -0.009431984 0.0843903
0001c0 74 cd 9b 3d aa a9 16 3d 6b 57 57 bb dd b1 c4 bd
       0.076075464 0.036782898 -0.0032858502 -0.09604237
0001d0 93 c3 8d 3c cf b7 25 bd f4 6b aa 3d 88 89 a7 bc
       0.017305171 -0.040458497 0.08321372 -0.020451322
0001e0 c8 e7 cd bd eb 3d d5 3b ed 50 b0 3d 96 7c b8 3d
       -0.100539744 0.0065076253 0.08609185 0.09008138
0001f0 5a e0 6e bc a5 02 07 3c 76 32 75 bd 53 6a 7a bd
       -0.014579857 0.008240377 -0.059862576 -0.061136555
000200 38 ca 26 3d a0 75 54 3d 5d 72 33 bd c1 2b aa 3d
       0.040720195 0.05186999 -0.043810237 0.08309127
000210 19 06 3b 3d 7b c7 85 3d 9c f7 e4 bc 5d 6c 07 3d
       0.045660112 0.065321885 -0.0279501 0.033062328
000220 36 7d 1d 3d a7 65 25 3c 79 1e 8b bc 04 9b 9a bd
       0.03844949 0.010095037 -0.016982304 -0.07549098
000230 18 ff c8 bd e1 b3 9a bd a2 45 24 3d f2 48 45 bc
       -0.0981428 -0.075538404 0.04010547 -0.012041317
000240 ed a9 ab 3b 50 d3 40 bd 2c 2f 8d 3d 11 37 56 bd
       0.0052387626 -0.047076523 0.06893763 -0.05229861
000250 76 91 42 3d c1 99 93 3a 55 4a a3 3d 08 ca 57 bd
       0.047502004 0.0011261032 0.07973162 -0.052682906
000260 87 f1 a1 3d f6 ef 4e bc e2 cf a8 3d c8 80 ca bb
       0.07907396 -0.012630453 0.082427755 -0.0061799027
000270 cb e7 49 bd 9f 3a da bc b9 8f a3 3d bd 3a 48 3c
       -0.04929332 -0.02663928 0.07986397 0.012221036
000280 3c cf 71 bd 51 57 7b 3d 79 fb 83 3d 32 d5 44 bd
       -0.059035525 0.06136257 0.06444449 -0.04805488
000290 2f 8f 54 bd d4 d1 7b bd 10 f5 c1 3d 5b c5 af 3a
       -0.051894363 -0.061479405 0.0947057 0.0013410257
0002a0 cf bd 1a 3d 31 5e 2f 3a e0 f4 24 3d a5 46 8b bd
       0.03777867 0.0006689756 0.040272593 -0.06800584
0002b0 b6 66 a0 bd 63 1c 8b bc 0b f3 14 3d f8 db ae 3d
       -0.078320906 -0.01698131 0.036364596 0.085380495
0002c0 75 db 98 3d a6 3c 34 bc 61 ca 80 bd d7 3c bb 3d
       0.07463733 -0.011000788 -0.06288601 0.09142464
0002d0 1e 72 05 bd 80 53 80 bd a1 0c 05 bc 0d c4 49 3d
       -0.032579534 -0.06265926 -0.008120687 0.049259234
0002e0 e1 f7 60 3b 31 30 56 bc 42 dd 1b 3b e9 58 cb bd
       0.0034327435 -0.013073013 0.0023783003 -0.09929068
0002f0 58 b1 04 bd 84 af d0 3c f1 00 6e 3d 1a a7 50 b9
       -0.03239569 0.025474317 0.058106367 -0.00019898676
000300 a3 d6 68 bd 15 6b 8a 3d f0 ac 3a 3c 9b b2 55 3c
       -0.05684532 0.067587055 0.011393771 0.013043071
000310 a7 72 ba 3d a9 88 42 bd 2b c1 94 3c de 5d b3 bc
       0.091038994 -0.04749361 0.018158516 -0.021895345
000320 41 ba 98 3d fb e4 c5 bc 2b aa 49 bd f3 ee 9f 3d
       0.074574 -0.024157038 -0.04923455 0.07809248
000330 6f 0b ab 3d 8a 10 a7 bd 21 02 22 3c f5 77 46 3d
       0.0835179 -0.081574515 0.009888203 0.048454244
000340 1f b5 12 3c 06 73 e5 3c 33 c6 6d bd 99 03 bd 3d
       0.008954315 0.028008949 -0.058050346 0.09229202
000350 49 47 48 bd 84 4f 2d bd b4 6b b7 bd 02 2e 0d 3c
       -0.048896108 -0.04231216 -0.089560896 0.008616926
000360 d1 a9 0d 3d ff d0 92 bd 69 ef e8 bc e5 85 5e bd
       0.034585778 -0.07168769 -0.028434472 -0.05432691
000370 de 0a 08 bd 8c e5 9e 3d f3 99 b1 bd c5 0a 84 bd
       -0.03321349 0.07758626 -0.086719416 -0.064473666
000380 74 75 08 bb ad ef b8 bd 76 63 4d 3d 62 2b 71 3d
       -0.002082196 -0.090300895 0.05014368 0.058879264
000390 e0 2e d3 bc 3e a2 b2 bb 80 c7 b6 3c 9c 83 64 bc
       -0.025779188 -0.0054514697 0.022311926 -0.013947394
0003a0 6b 25 49 3d 64 f8 a3 3d 05 3e e1 3c cf c2 e1 3c
       0.04910795 0.08006361 0.027495394 0.027558712
0003b0 81 89 0c 3d 4d c4 ce ba 3c 47 88 3d 6b d3 8c 3d
       0.03431082 -0.0015775055 0.06654212 0.06876262
0003c0 7a 3e 2c 3d da 6a 73 3d 06 6c 3b 3d 16 93 68 3d
       0.04205177 0.059428073 0.045757316 0.056780897
0003d0 99 bc 99 3c 56 ce a7 3c 0f a3 7c 3d 2e 58 83 3d
       0.018766688 0.02048413 0.061678942 0.06413303
0003e0 02 d0 8c bd 7f 61 b2 bd d8 66 46 3c 2d 5c a5 bd
       -0.06875612 -0.08710002 0.012109481 -0.08074222
0003f0 5b 60 36 3c d7 04 a0 bd 87 d4 d9 3b 77 39 61 bd
       0.011131371 -0.07813423 0.0066476497 -0.054986443

gru.bias_ih_l0 f4 [300]
000000 bc 1e 24 3d 5c e4 1f 3d b1 42 c8 3d 80 8f 5d 3d
       0.040068373 0.03903614 0.097783454 0.05409193
000010 33 46 b9 3d a9 37 56 bd b6 06 1b bc 8f c9 89 bd
       0.090465926 -0.052299175 -0.009462049 -0.067278974
000020 3a 38 08 bd 53 8a 3a bd bd 93 78 3d ce d5 c7 bd
       -0.033256747 -0.045542073 0.06068777 -0.09757577
000030 3a f8 89 bc 4b 28 09 bd 36 1b 4c bc bb c7 c7 3d
       -0.016841996 -0.033485692 -0.0124576595 0.097548924
000040 d6 60 4f 3c 0c 44 90 bd 1e 2e 9b bc 54 7c 15 bd
       0.012657365 -0.07044229 -0.018942889 -0.03649552
000050 c2 dd 10 3d be 6d 08 bd 1e b5 b4 bc 8b 53 03 bd
       0.035367735 -0.033307783 -0.02205902 -0.032062095
000060 29 38 9b 3d 3b 53 bb 3d 1b 19 5c 3d 73 a1 c6 bd
       0.07579071 0.09146734 0.05373488 -0.09698763
000070 f9 0b a6 bd d0 4a 7c 3d 7e af 78 3d 43 a3 b9 3c
       -0.08107752 0.061594784 0.060714237 0.022660857
000080 5b 22 80 bd 96 e6 a6 3d 2d 29 1e bd ec 9c c2 3d
       -0.06256553 0.081494495 -0.038613487 0.09502587
000090 a9 c5 29 3d 4d a9 78 bd f4 10 5f 3c 7b d9 b1 3d
       0.04144827 -0.060708333 0.013614882 0.08684059
0000a0 73 6d be bd 16 6b c8 3c d1 c9 ba 3d 58 ee 9d 3d
       -0.092982195 0.024465125 0.09120525 0.07711476
0000b0 75 dd 86 ba 0c 9d c1 3d 85 10 b6 3d fc 1e a3 bd
       -0.0010289388 0.094537824 0.088898696 -0.07964894
0000c0 6b ef 24 3d de 67 e7 3b 90 c8 8d 3d 5e 49 b4 3d
       0.04026739 0.0070619425 0.0692302 0.08803056
0000d0 f2 4d 84 3d cc 3d 8e 3c 24 90 15 bc bc 30 c1 bc
       0.064601794 0.017363451 -0.009128604 -0.023582809
0000e0 38 bd 99 bd e2 f0 48 3b 6c 79 9b 3d 3b b0 98 bc
       -0.07506794 0.0030661155 0.07591519 -0.01863872
0000f0 ce 2c ef bc 63 4d fc bc 08 d8 32 3d e0 14 b8 3b
       -0.02919617 -0.03079862 0.043663055 0.005617723
000100 6c 83 ca bd f9 4a ad 3d 7a 20 b8 3c 3e ec 99 3d
       -0.09888348 0.084615655 0.022476424 0.07515763
000110 76 1a 6b bc b8 fe 94 bd 71 9c 98 bb eb 6d ae 3d
       -0.0143495705 -0.07275146 -0.004657321 0.08517059
000120 f8 4e 17 3d 86 f5 87 3d ed f8 94 bd ad d0 0e 3c
       0.036940545 0.06638627 -0.07274041 0.008716744
000130 c6 11 20 bd 90 fb b1 bd af dc 4b bd 30 92 a4 bd
       -0.03907945 -0.0869056 -0.049771007 -0.080356956
000140 e2 aa 27 3d ae 37 7b bd 77 11 70 3d de c6 88 3d
       0.04093445 -0.061332397 0.058610406 0.06678556
000150 19 1d 8d bd 9d b9 80 bd 9d 69 cc 3d e3 ae ce bd
       -0.068903156 -0.06285403 0.09981082 -0.10091951
000160 e4 d5 36 3d 35 80 00 3d a0 67 76 bd 27 a5 75 3d
       0.044637576 0.031372268 -0.06015742 0.059971955
000170 34 0b 31 3d 40 1e 5d 3d 2d aa c6 3d 4f 03 45 bc
       0.043223575 0.053983927 0.09700427 -0.012024715
000180 47 35 62 bd f8 fa 11 bd 7e 73 91 3d 89 c5 62 bd
       -0.05522659 -0.035639733 0.071021065 -0.055364165
000190 ed 1d 95 bc 41 c1 46 3d be b5 88 3d 2a d3 3e bd
       -0.018202746 0.048524145 0.066752896 -0.0465881
0001a0 5a ce 07 3c a6 58 b1 bd 25 71 b1 3d 56 b8 08 3d
       0.008288944 -0.086594865 0.08664159 0.03337892
0001b0 40 0c db bc 7d c5 c3 bc 51 99 46 bd 26 9e 61 bd
       -0.02673924 -0.02389788 -0.048486058 -0.055082463
0001c0 ee a5 5c 3d b6 52 4a bd f7 d4 5c 3d ec 06 6d bc
       0.05386918 -0.049395286 0.053914037 -0.014466982
0001d0 42 57 d4 3a cb 5a 48 3d 0c 94 f0 bb 3c 7b 10 bd
       0.0016200321 0.048914712 -0.0073418673 -0.035273775
0001e0 0f f7 8c bd 7b 35 81 bd 45 b1 c6 3c cb 5f 35 3d
       -0.0688306 -0.06309029 0.02425445 0.04428081
0001f0 37 ba 88 3b fb 7f 98 bd 5c 76 f4 3c eb 10 85 bd
       0.004172589 -0.07446285 0.029841594 -0.064973675
000200 28 30 59 3d ce 12 7c 3d 8b 89 64 bd d9 bf a1 bd
       0.05302444 0.06154137 -0.055795234 -0.0789792
000210 c8 98 3f 3d 49 65 2a 3d 00 0c 16 3c 0b 0e 06 3d
       0.046776563 0.0416005 0.009158134 0.032728236
000220 33 7a d6 bd 3b b4 c8 bd 2b ca 84 bd 73 18 e5 bd
       -0.104725264 -0.09800001 -0.06483873 -0.11186304
000230 1a ed bb 3b 11 05 03 3d 8c 88 88 3d c3 7f c6 3b
       0.005735052 0.031987254 0.06666669 0.006057711
000240 c2 70 25 bd a7 46 8d bc ff 62 92 bc 21 b5 d6 bd
       -0.040390737 -0.017245604 -0.01786947 -0.10483766
000250 34 ef 8a bd 48 f2 38 3d 88 69 10 bd 18 25 af bd
       -0.067839056 0.045152932 -0.035256892 -0.08551997
000260 9c ab b9 bd 16 f0 95 3d 9a 25 72 bd 7d e7 b2 3c
       -0.09065935 0.073211834 -0.05911789 0.021838898
000270 b6 79 69 3d 12 e8 fd bd 31 54 86 3d de 65 ea bd
       0.05700084 -0.123977795 0.06559027 -0.11445211
000280 aa ae 18 3d d7 01 b4 3d ed 0d ff bd bb ce b0 3c
       0.037275948 0.087894134 -0.12453828 0.021582952
000290 da aa 53 bb c2 5d ed bc 26 3b 4d bd 55 49 87 bd
       -0.003229788 -0.028975371 -0.050105236 -0.06605784
0002a0 6c 41 6f 3d da a7 96 3c f8 65 bf bd 60 18 86 bd
       0.058412 0.018390585 -0.09345621 -0.06547618
0002b0 7d d8 78 3a a6 fd 13 bd 99 ab 02 be c2 26 de bd
       0.00094927085 -0.03613057 -0.12760772 -0.10847236
0002c0 47 4c 1c bd 27 a3 b6 bc 69 7a 8a bc 4d ca 91 bc
       -0.03815868 -0.022294594 -0.016904073 -0.01779666
0002d0 2c 48 09 bc 2d c3 ff bc ad 62 c2 3c 12 ba f6 bc
       -0.0083790235 -0.031220997 0.023728693 -0.030118022
0002e0 84 a4 e2 bc b2 2a 15 3d 6e bb 51 bd 4f 74 12 bd
       -0.027666338 0.03641767 -0.051204138 -0.03575545
0002f0 62 df 43 bd 5b 7d 39 bd f2 98 ba 3d 98 99 fe bc
       -0.047820456 -0.045285564 0.09111203 -0.031079099
000300 74 61 a3 3c ad e2 9c bd 95 e2 cc ba 3d aa 38 3c
       0.01994393 -0.076604225 -0.0015631492 0.011271057
000310 b8 62 af bd 20 c9 d0 bd 20 73 3b 3d a7 a5 ec bc
       -0.08563751 -0.101946115 0.04576409 -0.028887583
000320 ec 39 9d bc 5b 15 c2 39 ab bc 2a bc fb 7e 36 bd
       -0.019192658 0.00037018475 -0.0104209585 -0.04455469
000330 6e 07 0c be d8 48 aa 3c 75 a6 d6 bd 60 fb 45 3d
       -0.13674709 0.020786688 -0.10480968 0.048335433
000340 58 02 73 bc 1a 4e 8a 3d 0f 38 c0 bd b1 c2 f9 bc
       -0.014832102 0.06753178 -0.09385692 -0.030488344
000350 eb cf 39 bd a0 f9 b2 3d cb 10 9d 3d 39 f5 d9 3d
       -0.0453643 0.087390184 0.07669219 0.10642476
000360 be 0f 9a 3d b6 f9 06 3e f1 8e a8 bd 8c 89 e4 3b
       0.07522534 0.13181195 -0.08230389 0.0069744047
000370 3c 04 b8 bd 4a bf d8 bd 73 64 35 bd 47 04 74 3d
       -0.08985183 -0.105833605 -0.04428525 0.05957439
000380 d3 cd 9f bd e8 7a fe bc b0 c9 78 bd 95 5c 92 bd
       -0.0780293 -0.031064466 -0.06073922 -0.07146565
000390 af 1d c3 3d 47 ee 4f 3d 0e 76 ac 3d dc aa 99 3d
       0.09527146 0.05076435 0.08420955 0.07503292
0003a0 f0 b2 98 3d 7d 0a ba bd 10 d9 31 3d d4 4f d5 3c
       0.074560046 -0.09084032 0.043419898 0.026039042
0003b0 94 01 b8 bd f5 67 17 3e 3f 3c 5c bd c1 a4 e3 3b
       -0.08984676 0.1478575 -0.053768393 0.0069471304
0003c0 70 3e 41 ba 80 da 8f 3c 92 b0 13 3d b3 ac 59 bd
       -0.00073716696 0.017560244 0.036057062 -0.053143214
0003d0 fa 59 ca bc e7 dc 09 3e ad e5 64 3c 97 3f e0 bc
       -0.024701107 0.13463174 0.013970775 -0.027374072
0003e0 5a 54 39 bd a0 25 d8 bc 9b 5a ed bd d1 ad 34 3d
       -0.04524646 -0.026385128 -0.11589547 0.044111077
0003f0 76 89 1b 3c d9 50 a2 bd c6 81 d2 3c d4 76 c6 3d
       0.009493222 -0.07925577 0.025696646 0.096906334

gru.bias_hh_l0 f4 [300]
000000 3c 21 c2 bd 6a 3a 65 3c 9b f9 ad 3d 39 23 54 3c
       -0.09478995 0.013990978 0.08494874 0.012947851
000010 a6 96 10 bc d3 aa 45 bd 62 9c 2a 3d 9b 58 88 bd
       -0.00882498 -0.048258614 0.041653045 -0.06657525
000020 58 ab c6 bd 0b 2d bd 3d 3d 01 bc bd d6 ec c1 3d
       -0.0970065 0.09237107 -0.09179924 0.09469001
000030 af 28 75 3d 56 e9 0a bd 3e 64 ed 3b bb 4e 75 3d
       0.059853252 -0.033913933 0.007244616 0.059889536
000040 db 1c 9e bd 08 4c 42 bd 27 34 80 3c b3 28 8a 3d
       -0.077203475 -0.04743579 0.015649868 0.06746044
000050 0b e2 ff bb 3a 6b 17 3d 05 0e a4 bd f2 3d bc bd
       -0.007808929 0.036967494 -0.080104865 -0.09191503
000060 db 15 2e bc a4 2b 0a bd 5a 62 76 bd 92 e8 4d bc
       -0.010625328 -0.033733025 -0.06015239 -0.012567656
000070 5e 2d 50 bd 19 17 dd 3c 03 79 31 3d 25 55 3e 3d
       -0.050824516 0.026988553 0.043328296 0.04646792
000080 5c a3 a1 bb 5c 35 9b 3d ae 80 71 3d 1a d0 9d bd
       -0.004932804 0.07578537 0.05896061 -0.07705708
000090 88 d4 d3 3c 9a bf 01 bd e9 80 94 bb 6a 11 29 bd
       0.025858179 -0.031676866 -0.004531969 -0.041276373
0000a0 a4 0e 90 3d 62 f8 b2 3d 2e ce 0f bd 57 6c b2 bd
       0.070340425 0.087387815 -0.035108738 -0.087120704
0000b0 f4 c1 f2 bc 42 d1 23 3d 68 09 9c bd 66 21 c5 3b
       -0.0296335 0.039994486 -0.076189816 0.0060159443
0000c0 c9 11 94 3c 6f a9 5b bd 69 b4 05 bd f9 70 a5 3d
       0.018074887 -0.05362838 -0.032642756 0.080781884
0000d0 2c 2e 6b 3d 68 10 45 3d e4 63 5c 3c d4 c3 53 bd
       0.05741708 0.04811135 0.01345155 -0.051700428
0000e0 a1 13 ab bd b8 39 02 3d cd 6a ce 3d ed 69 ff b8
       -0.08353353 0.031793326 0.100789644 -0.00012179078
0000f0 ef 93 90 bd d5 7d 83 bd 59 f2 a3 bd 01 4c c9 3d
       -0.07059466 -0.06420485 -0.080052085 0.0982895
000100 90 a2 c6 bc 8a 1c 12 3d af 19 50 bc e0 03 9b 3d
       -0.024247438 0.03567175 -0.012701436 0.075690985
000110 9b 8f 2d 3c 81 c5 24 bb dc 92 3e bd b4 12 c8 bd
       0.01059332 -0.0025142136 -0.046526775 -0.09769192
000120 a2 6b f2 3b 16 7b 52 3b 57 cb 8e bd a6 34 8a bd
       0.0073980847 0.0032116822 -0.06972378 -0.06748323
000130 a3 da a3 3d 80 09 cd 3d 26 c6 12 bd e0 ad 73 bd
       0.08000686 0.100115776 -0.0358335 -0.059491992
000140 5e 17 17 bd 9a 4f e3 bc a4 ba 5e bc 05 96 ae 3d
       -0.03688752 -0.027747918 -0.013594303 0.08524708
000150 29 b6 dc 3c 59 4b 33 bd e7 35 ba 3c 74 90 53 bd
       0.02694233 -0.04377303 0.02273078 -0.051651433
000160 97 18 a6 bd 49 ec 56 3c 74 79 23 bd ad 38 ee 3a
       -0.08110159 0.013117858 -0.03991075 0.001817485
000170 36 36 74 3d 99 ad 95 bc 4c 8d bf 3c f6 ca 16 3c
       0.059622012 -0.018271254 0.023382805 0.009203663
000180 3b 00 1d bd 42 c3 10 bd 9c d2 b7 3d 8c 9c c1 3d
       -0.038330298 -0.035342462 0.089757174 0.09453687
000190 d5 8e 73 bd 5f 48 b8 bd ff 49 b2 bd 16 29 c0 3c
       -0.059462387 -0.08998179 -0.0870552 0.023457091
0001a0 ec ec f2 bc fc 51 d8 bc 1a cc dd 3b 13 d3 a5 bd
       -0.029653989 -0.02640628 0.0067687156 -0.080969
0001b0 6a ef 43 bd 8f a1 bd bd af 81 52 bd 4d ae 2e bd
       -0.047835745 -0.092593305 -0.051393207 -0.042646695
0001c0 9e 4b db bd 74 d3 8a 3d ad 94 10 3d f5 dd 33 bc
       -0.10707782 0.06778613 0.03529804 -0.010978212
0001d0 6c 2f 8f bc ac 02 07 3c 77 7f 1e 3d 93 25 be 3c
       -0.017478667 0.008240383 0.03869578 0.023211276
0001e0 e5 d2 dc bd dc 4b d8 bd f9 39 d0 bd 61 3a 98 3d
       -0.107824124 -0.10561344 -0.101673074 0.0743301
0001f0 d4 c5 66 bc d7 4b a1 3d 1a a5 6b 3d a5 3b ed bb
       -0.014085252 0.078757934 0.0575305 -0.007239776
000200 b0 23 98 bd 97 37 77 bd 7a 6a a7 bd a8 2f 70 3d
       -0.07428682 -0.06035575 -0.08174606 0.0586392
000210 8b 2f 3e 3d 4b 7d 68 bc 0d ac 97 3c 96 0e 6e 3a
       0.04643206 -0.014190028 0.018514657 0.0009081153
000220 49 e5 9f bd a0 2c 80 3d e4 4f b6 bc b6 6f 11 bd
       -0.078074045 0.062585115 -0.022254892 -0.035506926
000230 ff d6 9a bd a6 8b 9a bd 9b 56 ee bb 05 d8 9b 3d
       -0.075605385 -0.07546167 -0.007273508 0.07609562
000240 10 3c 08 3d 02 bd f0 3c 38 17 2f bd 99 58 aa bd
       0.033260405 0.029387001 -0.042746753 -0.0831768
000250 61 c1 71 3d d2 8e 00 3c 55 47 0c bd 9c 02 92 3b
       0.05902231 0.007846551 -0.034247715 0.0044558775
000260 41 3e 4e bc b1 c8 f7 bc 25 5d 73 3d 8a 6e c2 bd
       -0.012588085 -0.030247064 0.059415 -0.0949374
000270 94 5b 80 bd 9b 7b 31 3d 2f 64 58 bd 93 ce a2 3d
       -0.06267467 0.04333077 -0.052829918 0.07949557
000280 9e 5d a7 bb 16 70 62 bd c7 98 fe bd 9f 1c 7e 3c
       -0.0051075956 -0.055282675 -0.12431484 0.0155097535
000290 50 8d b5 bd 2d ad e8 bd 7a 17 dd bd 68 22 c5 3c
       -0.08864844 -0.11361156 -0.107954934 0.024064258
0002a0 90 eb 49 bd f9 2f 17 bd 80 38 24 bd 1c 5f 31 bd
       -0.049296916 -0.036910985 -0.040092945 -0.043303594
0002b0 ad 6c 31 3d b0 97 85 bd c3 13 ee bd 50 ea b4 bd
       0.043316532 -0.06523073 -0.11624863 -0.08833754
0002c0 a8 2b 9b 3d 85 ad 50 bd 6e 64 44 bd 50 e1 56 bd
       0.07576686 -0.05094673 -0.04794734 -0.05246097
0002d0 52 85 db bc a8 90 98 3d 5b 4e 51 3c 96 f2 c3 3d
       -0.02679697 0.07449466 0.012775029 0.09567754
0002e0 d7 ff 6e bd fc bc 21 3d d2 a3 3e 3c 86 78 7a 3c
       -0.058349457 0.03948687 0.0116357375 0.015287524
0002f0 9c e2 e5 bd 43 5b ef bc 58 79 94 bd a6 54 15 3d
       -0.11224863 -0.029218322 -0.07249707 0.03645768
000300 ca ae 94 3c bc bf af bd 3a 3e c1 bc c4 b6 8e 3d
       0.018149752 -0.08581492 -0.023589242 0.069684535
000310 22 19 62 3d e1 72 a3 bd 01 5f 9e 3d 8d 82 93 3d
       0.05519975 -0.07980896 0.07732964 0.07202635
000320 cf 4b 85 3d e2 1d 89 3d 7b 42 fd 3b be 4e ba bd
       0.065086 0.06695153 0.0077288724 -0.0909705
000330 8e 41 45 bd cd f8 ba bc 39 b4 41 bd c5 bc 26 bb
       -0.04815822 -0.022823716 -0.047291014 -0.0025442105
000340 86 7b c2 3d e2 7e 26 bd 2f 2d 95 bd 7f fd 36 bc
       0.094962165 -0.04064835 -0.07284009 -0.011168837
000350 44 6a 58 3b b0 ff 04 bd f6 b4 12 3c c4 ba ce 3d
       0.0033022324 -0.032470405 0.008954277 0.100942165
000360 26 8e 8b 3d ed b8 92 bd 26 51 67 bd 2e 81 75 bd
       0.06814222 -0.07164178 -0.056473874 -0.05993765
000370 80 c6 1e 3d bf 3e 89 3d 56 37 d6 bd 35 10 35 3d
       0.038763523 0.06701421 -0.10459773 0.04420491
000380 17 cb 86 3d 23 5c c3 3d 23 9d 93 bb bb 79 7d ba
       0.06581705 0.09539058 -0.004504816 -0.00096693233
000390 f3 f0 ba bd 8d 67 c4 3c ee 4e eb bc 3e 10 97 3d
       -0.09127989 0.023975158 -0.02872416 0.07376145
0003a0 b2 cf b2 3d b7 d5 a4 bd a1 f7 19 bd 11 2c e5 3d
       0.08731021 -0.08048575 -0.037589673 0.111900456
0003b0 1f 1d 86 bd cb d0 74 3d b6 c2 ca bd a2 c7 36 bd
       -0.06548523 0.059769433 -0.099004194 -0.04462398
0003c0 42 81 a9 bc 5e ce 96 3d 7f a4 23 bd 7c 2a 95 3d
       -0.020691518 0.0736358 -0.039951798 0.07283494
0003d0 01 3c 1b 3c 50 66 1c 3e b8 c0 5b 3c 78 e7 3d bd
       0.009474755 0.15273404 0.013412647 -0.046363324
0003e0 d5 cd 85 3b d3 57 2c ba 20 72 e4 bd e7 32 fb 3b
       0.004083375 -0.0006574366 -0.1115458 0.00766598
0003f0 db 79 36 bd 5f 74 c8 bd ae 52 96 bd 61 27 b1 3d
       -0.044549804 -0.09787821 -0.07339989 0.08650089

gru.weight_ih_l0_reverse f4 [300, 100]
000000 64 97 68 3d e1 7a 88 3d 53 c9 84 3c 29 63 c0 bd
       0.056785002 0.06664062 0.01620928 -0.09393913
000010 af ba 22 3d fe bd a7 3c cf f9 0a bc 4c 56 b5 3d
       0.039728817 0.020476338 -0.008482411 0.088543504
000020 e0 f2 a8 3d 03 b4 a9 3d 84 59 27 3d 8f 17 20 3d
       0.0824945 0.08286288 0.040856853 0.039084967
000030 45 6e 72 bc 29 d6 46 bd 06 70 e5 b9 3f e2 0d 3b
       -0.014796798 -0.048544083 -0.00043761748 0.0021649746
000040 94 af 9f bd bf 64 c1 3c 47 1b 83 bd 6e a5 42 bd
       -0.07797161 0.02360761 -0.06401687 -0.047521047
000050 89 eb c7 bd 60 c1 32 3d 17 cd b1 bd 34 fd 9b bd
       -0.09761722 0.043641448 -0.08681696 -0.07616654
000060 b5 1e 15 bd 42 94 84 bd 3b d2 17 bd db db 80 bd
       -0.036406238 -0.064735904 -0.037065726 -0.06291934
000070 d6 41 2e bc 69 5f 29 3c c7 c1 6a bb de ac c5 bc
       -0.010635814 0.010337689 -0.0035821067 -0.024130281
000080 6b 6e aa bb 38 be 83 bd aa 1d b9 bd d0 a7 d3 bc
       -0.005201151 -0.06432766 -0.09038861 -0.025836855
000090 ba 76 a3 bd cb 55 7c bd 07 eb 9b bd e1 c4 ca 3d
       -0.0798163 -0.061605256 -0.07613187 0.09900833
0000a0 25 ab 80 bd 9d 62 9b 3d b3 f0 d1 bc d4 e6 35 bb
       -0.06282643 0.07587168 -0.02562747 -0.0027755992
0000b0 d7 e8 00 3d d7 33 1f 3c c3 f9 a4 3c c3 91 4c 3d
       0.031472053 0.009716949 0.020138627 0.049943697
0000c0 b8 92 a5 bd 13 8a 8d bc bc 1d 86 3d ee b8 ca 3d
       -0.08084625 -0.017277753 0.0654864 0.09898554
0000d0 a4 4a ab 3d a1 a0 bd 3d d6 b6 b5 bd 23 d9 91 3d
       0.08363846 0.09259153 -0.08872764 0.07121494
0000e0 78 93 a9 3c e3 ad 6f 3d cd 13 30 bd f3 9b 8b bd
       0.020700201 0.05851544 -0.042987633 -0.06816854
0000f0 85 a9 a9 3d 76 ff 06 3d 88 a3 5c 3d 50 b9 c8 3c
       0.082842864 0.03295847 0.053866893 0.024502426
000100 64 15 85 3a ba f7 9c bd 6d e0 9d 3d c1 d5 2e bd
       0.001015347 -0.076644376 0.077088214 -0.04268432
000110 c3 13 e4 bc 6e 36 46 bd 1f f3 a4 3d 75 1e a2 3d
       -0.027841454 -0.048391752 0.08054184 0.079159655
000120 1d e5 1e bc 0f fc f5 bc 82 55 aa bd 1c ec 21 3d
       -0.00969818 -0.030027417 -0.083170906 0.039531812
000130 6b 45 bd bd 0b 60 b1 bd c3 af d4 bb cc d0 07 3d
       -0.09241756 -0.08660897 -0.006490679 0.03315811
000140 85 b9 81 bc 5c 30 c0 bc 0a f4 1b 3c 9d 56 bb 3d
       -0.015835533 -0.02346056 0.009518633 0.091473795
000150 e5 b7 ad 3d 3f 84 0a 3c a5 54 7e 3d be 38 98 3c
       0.08482341 0.0084543815 0.062092442 0.018581744
000160 5b ed c7 bd 37 17 bc 3d 2e e4 c0 bd e1 0d 9a 3d
       -0.09762069 0.091841154 -0.09418522 0.075221784
000170 6e e5 db 3c d6 10 97 bc ee c7 ac 3c 95 0f c6 3c
       0.026842799 -0.018440645 0.021091428 0.024177352
000180 49 4b b1 3d d4 ab c1 3d d1 ad 82 bd 62 d1 a6 3c
       0.08656938 0.09456602 -0.06380809 0.020363513
000190 9b 5a 59 3d 0c c0 10 3d f9 47 1d 3d 86 31 0f bd
       0.053064924 0.0353394 0.038398717 -0.03495934
0001a0 92 67 64 bd b2 65 14 3d 65 f9 b1 3d 31 9b 7b 3d
       -0.055762835 0.036229797 0.08690146 0.0614273
0001b0 24 92 91 bd b1 2c 58 bd 8e 02 f0 bc 5e d3 40 3d
       -0.07107952 -0.052776996 -0.029298093 0.047076575
0001c0 ad 23 78 3d d8 63 94 bd b5 9f ac bd ce 6e 4e bd
       0.060580898 -0.07245606 -0.08428899 -0.05039864
0001d0 7a 82 2a bd 13 51 bf bd 92 0c 58 bd 23 9a 96 3d
       -0.04162834 -0.093416356 -0.052746363 0.07353618
0001e0 5e 18 c2 bd 00 73 43 3d f2 07 37 3c f4 89 84 bd
       -0.09477304 0.047717094 0.011171328 -0.06471625
0001f0 e9 ed 31 bd 0e f6 ba 3b 05 71 00 3d cf 92 03 3d
       -0.04343978 0.0057056015 0.031357784 0.03212243
000200 af 84 1e 3c 40 1f ad 3d 64 69 9d ba ae 91 f4 3c
       0.009675189 0.08453226 -0.0012009558 0.029854622
000210 61 9c 01 3c 91 5d 3e 3d 1b 79 81 3d 06 48 e3 bc
       0.007910819 0.04647595 0.06321927 -0.027744304
000220 d8 c7 80 3d 10 1b 72 3d eb 95 b1 3d a4 01 97 bd
       0.06288117 0.05910784 0.08671173 -0.0737336
000230 c4 93 a7 bc 14 40 96 ba d3 22 86 bb 02 55 44 3c
       -0.020456202 -0.0011463189 -0.004093507 0.011983158
000240 03 04 62 bc e2 f0 53 3c 09 7b 2f bd 9c 4c 91 3d
       -0.013794902 0.012935849 -0.042841945 0.0709469
000250 71 d1 55 3d cf 2d 0a bd 2b cf 3f 3d 53 da 54 3d
       0.052201692 -0.033735093 0.04682843 0.051966023
000260 31 f3 9a 3d e5 0a 6e bc c4 f9 4e 3d f8 0b bc 3c
       0.07565916 -0.014528965 0.050531164 0.022954926
000270 c3 0d 67 bd ff bf 7b 3d 01 ab a4 3b 96 f2 b1 bd
       -0.05640961 0.0614624 0.005025268 -0.08688848
000280 14 e9 b1 3c ef 4e 65 3d 48 45 9f 3d 07 7d 1e 3d
       0.021717586 0.05598348 0.07776886 0.038693454
000290 ab 1a a1 3d c6 1f 4a bd c7 41 81 bc 84 53 4e bc
       0.07866415 -0.049346708 -0.015778435 -0.012593154
0002a0 28 a5 3f bd c9 e7 b5 3b 2e 1c 47 bc 98 c6 a4 3d
       -0.046788365 0.0055513126 -0.012152715 0.08045691
0002b0 0f 47 bb 3d 7c b8 e7 3c fd 5c bc bd 2c 38 32 3d
       0.09144413 0.028286211 -0.091974236 0.0435106
0002c0 4a 0a af 3d 4d 28 60 bd 8c d6 8c 3d c4 c2 11 bd
       0.08546884 -0.054725934 0.06876859 -0.035586134
0002d0 5f f4 3d bd 2c de 2e 3d b2 27 92 3d 27 41 80 3d
       -0.04637563 0.04269235 0.071364775 0.06262427
0002e0 3e cb 9b bd 8e f9 10 bd 15 02 84 bd 59 eb 7b bd
       -0.07607125 -0.035394244 -0.064457096 -0.061503742
0002f0 ef cf ff 3c 35 b1 07 3d 6b 59 c1 bb c1 7d a8 3d
       0.03122708 0.033127982 -0.005900552 0.08227111
000300 09 cd c0 3d 7f 25 68 bc 32 8b 34 3d 26 73 10 bd
       0.09414107 -0.014169096 0.04407806 -0.035266064
000310 45 3e 8f bd c2 9d ab bc 2b 7b 98 3d c4 bb 0a 3b
       -0.06994299 -0.020949248 0.074453674 0.0021169046
000320 66 72 18 bd 38 19 c0 bc 7a f4 f2 bb 48 a9 a1 bd
       -0.037218474 -0.023449525 -0.007414398 -0.07893616
000330 02 09 5a ba 59 d5 79 bc 72 f3 3a 3d 6b cb 92 bc
       -0.00083173823 -0.01524862 0.045642324 -0.017919263
000340 e6 68 52 3c 68 46 bd 3d 3f e9 fd 3c d0 4c 28 bd
       0.012842393 0.092419446 0.03099501 -0.04108888
000350 ce 4a ad bd b2 82 10 3d db 9a 18 3d ba 1b 25 ba
       -0.084615335 0.03528089 0.037257057 -0.0006298382
000360 62 c8 54 bd 45 da fa bc 23 83 cc bc a5 5d 32 bd
       -0.051948912 -0.030621657 -0.024964875 -0.043546338
000370 77 d6 4f 3d 3b 0b be bc 1b 8a 9e 3c ce 35 c4 3d
       0.05074164 -0.023198714 0.019352963 0.09580575
000380 c5 df 8e 3d 44 2c fc bc b4 ac ce 3b d4 cc a6 bd
       0.069762744 -0.030782826 0.006307209 -0.081445366
000390 a9 4f 4d 3d f2 53 17 3c c3 03 6a bd 29 3f c3 3d
       0.050124798 0.009236323 -0.057132494 0.09533531
0003a0 a7 15 7e 3c ee 0d ae bd 3d 0e 70 bd 44 63 1f 3d
       0.015508092 -0.084987506 -0.05860733 0.038913026
0003b0 c9 86 ad bd d8 fb 4b bd 7a 58 a4 3c c8 74 8b 3b
       -0.08472974 -0.049800724 0.02006172 0.004255865
0003c0 d0 5f 00 3d 2c 72 9f 3d 51 4a 4a bd a4 18 f5 bc
       0.031341374 0.077854484 -0.04938728 -0.029918976
0003d0 c3 7e 57 3d e6 ca cb 3d 02 13 95 3d d9 f9 83 3d
       0.052611124 0.09950809 0.07279016 0.06444139
0003e0 20 69 b2 bd cd 6d ac bd 2c 0f 95 bd ca 25 7d 3d
       -0.08711457 -0.0841938 -0.072782844 0.061803617
0003f0 ff d6 7f bd ec c2 cc 3d b6 e9 e0 bc 98 cb 79 3b
       -0.062460896 0.09998116 -0.027455192 0.0038115736

gru.weight_hh_l0_reverse f4 [300, 100]
000000 dd e8 5f 3d b2 31 11 3d c5 38 2a bc 92 34 54 3d
       0.054665435 0.035447784 -0.0103895115 0.051807947
000010 fe e2 f1 3c f7 4d bd bb b7 a7 8a 3d 83 44 80 bd
       0.029527184 -0.0057771164 0.0677027 -0.062630676
000020 e9 9c d1 3a 44 0a 91 bc c0 5b 31 3d 2a 43 0a ba
       0.0015992197 -0.01770509 0.04330039 -0.00052742905
000030 3c ab 4e bd d0 9e a7 bd 34 ed 5f bc 63 4a c3 3d
       -0.05045627 -0.08184588 -0.0136673935 0.095356725
000040 67 c2 c6 3c 8e 04 98 3d 1b 1e fd 3c a7 d5 2d 3d
       0.02426262 0.07422744 0.030898144 0.042440083
000050 9c 6b 19 bc 0c d2 98 3d 95 57 9e 3b fe 4c b8 bd
       -0.009364035 0.07461938 0.004832218 -0.0899906
000060 f2 08 cc bd 2a d6 37 3d 90 fd bc bc 74 e2 ca 3d
       -0.09962644 0.044881977 -0.023070127 0.09906474
000070 ba f3 97 bd ad 4c a3 bd 3e 08 ca 3d 3f 79 72 bd
       -0.07419534 -0.07973609 0.09864853 -0.05919766
000080 26 ee 52 bd 32 ea a1 3d 42 ca 02 bc 4b 3a 71 3d
       -0.051496647 0.07905997 -0.007982792 0.058893483
000090 3d 93 a8 3c fa 5d 4f 3d d7 48 70 3d 54 dc 8f 3d
       0.020578021 0.050626732 0.058663215 0.07024446
0000a0 96 1f 89 bd c8 c5 41 3d 9a ac 79 bd 35 47 39 3d
       -0.06695478 0.04730776 -0.06095562 0.045233924
0000b0 c1 2c 5b 3d 09 ed 35 3d c9 60 c7 bb e0 ce 5b 3d
       0.053509478 0.044415507 -0.0060845357 0.05366409
0000c0 8d 64 ad 3d 01 27 8e bd a0 bf 08 bd c8 89 8f 3a
       0.08466444 -0.06941033 -0.033385873 0.0010951096
0000d0 08 a3 da 3c 10 1a 80 3b 6f 7a 85 3d af bc 33 bd
       0.026689067 0.003909357 0.06517493 -0.043881115
0000e0 39 d5 67 3b 64 07 6d 3d 7f a7 ad bc 3c ba 1c bd
       0.0035374893 0.057868376 -0.021198032 -0.038263544
0000f0 21 bf 84 3d 30 47 4a bb d1 78 fe bc bc 45 1c bc
       0.064817674 -0.0030865185 -0.03106347 -0.00953811
000100 5b df e0 ba 1b c8 ca bc 28 f5 a1 bd 1f f3 49 bd
       -0.0017156409 -0.02475362 -0.07908088 -0.049304124
000110 ea b7 ee 3c 78 0d cb 3d 5b b1 ae bd e9 50 20 3d
       0.029140431 0.09914678 -0.085299216 0.039139662
000120 64 b7 64 bd 9f 18 14 bd 2a b5 85 3d aa a1 c7 bd
       -0.055838957 -0.036156293 0.06528695 -0.09747632
000130 de f0 b0 3d af f7 92 bd 64 e9 3f 3d bd 9a 25 3d
       0.08639692 -0.07176148 0.046853438 0.040430773
000140 76 1d e5 3c 7f 1e 88 3d 54 21 1c 3d 22 9b 44 bd
       0.02796815 0.06646442 0.03811772 -0.04799951
000150 40 42 54 3d b6 16 2a 3c 6b 1b 3a 3d a2 a7 49 bd
       0.051820993 0.010381391 0.045436304 -0.049232133
000160 f6 df a3 bd 61 39 1e bc 54 61 bf bb 9b 36 0b 3d
       -0.080017015 -0.009657235 -0.00584046 0.033987623
000170 3e 08 c5 3d 1d 42 12 bd d7 44 88 bd 80 ef a9 bd
       0.09620713 -0.03570758 -0.06653755 -0.08297634
000180 25 64 99 bd fa 39 ba 3c 7e 6d bd bb 97 82 5a 3d
       -0.07489804 0.022732724 -0.0057808748 0.053347196
000190 cc 5f 50 3c 87 b8 6c bd fb bf a0 bd d3 c6 9d 3d
       0.012718152 -0.057793166 -0.07849117 0.07703938
0001a0 95 e8 ae bd 85 5a 4e bc 24 24 97 3d 79 73 dc bc
       -0.08540455 -0.012594824 0.0737994 -0.02691053
0001b0 b3 84 a9 3d b0 02 11 3d d8 78 8a 3c 26 d7 b8 bd
       0.082772635 0.035402954 0.016903326 -0.09025411
0001c0 4f fd b8 bd df be 27 bd 6a 2c 8a bd e8 69 be bc
       -0.0903269 -0.040953513 -0.067467526 -0.02324386
0001d0 ee 13 b3 3c f9 61 2f 3d 64 cd a6 bd 09 7d a6 3d
       0.02186009 0.042818043 -0.08144644 0.08129317
0001e0 11 02 84 bd d7 7c 26 3d 56 04 8d bc ba 70 b1 3d
       -0.06445707 0.0406464 -0.017213982 0.08664079
0001f0 c8 98 f1 3c cb 34 5e bd 25 fa 2f bd 18 83 85 3d
       0.029491797 -0.054249566 -0.042963166 0.06519145
000200 3c 06 eb b8 db 49 76 3b 8b a7 26 bd 95 cd 8f bd
       -0.000112068345 0.0037580642 -0.040687125 -0.070216335
000210 f3 0a 8e 3d ce 8e 4b bd f4 7f b3 bd 15 7d ea bc
       0.06935682 -0.049696736 -0.087646395 -0.028624097
000220 6f 7f 2c 3d 57 7b 89 3a 0c e1 28 bc c7 44 b0 3d
       0.042113718 0.0010489029 -0.010307562 0.08606868
000230 18 66 13 bd 51 7e b3 3c d8 5c cb 3d 90 6e cd 3c
       -0.035986036 0.021910818 0.09929818 0.025077134
000240 3b d8 c0 b9 ab d6 5c 3d 48 e7 34 3c 49 97 35 bd
       -0.00036782198 0.05391566 0.01104147 -0.04433373
000250 5a d8 53 3d cd fd 08 bd 3b 8a b2 bd 98 0c c7 bd
       0.05172 -0.03344517 -0.087177716 -0.09719199
000260 0e 77 bb bc 30 88 c2 3d c0 5f 4e bc b7 bb 7c bc
       -0.022883918 0.09498632 -0.012596071 -0.015425614
000270 72 e0 01 3c e7 4c d2 bc 67 cb 94 bd 7d 35 c2 bd
       0.007927047 -0.025671436 -0.072653584 -0.09482858
000280 18 0f 8e bd 4e 15 8f 3d f6 8a b0 bc 3e 07 6e bd
       -0.06936473 0.069864854 -0.021550637 -0.058112375
000290 d8 b8 bd bc d7 3e aa 3d bf 9a 34 3c ef be 64 bd
       -0.02315943 0.08312767 0.0110232225 -0.05584615
0002a0 3d 3b 3f 39 25 8e 9c 3d f8 af 8f bc 46 f0 01 bd
       0.00018237247 0.076442994 -0.017539963 -0.031723283
0002b0 b0 9a 31 bd f1 cc de bb 12 83 c5 3d ae 0e b3 bd
       -0.043360412 -0.0067993333 0.0964414 -0.08743034
0002c0 91 a4 4f bd cf c0 98 bd 91 32 a5 3d c9 b9 9a 3d
       -0.050694052 -0.0745865 0.080662854 0.07554967
0002d0 5c 22 2a bd 4d 4c a3 bd 87 a3 a3 bd 48 1e 74 bd
       -0.041536674 -0.079735376 -0.07990175 -0.05959919
0002e0 fc 3d 99 bd b2 f6 1f 3d 32 00 2d bc 84 ca 9e 3d
       -0.07482526 0.039053626 -0.010559129 0.077534705
0002f0 04 69 80 bd 6c 38 c5 bd f3 15 83 3d d0 e0 63 bd
       -0.0627003 -0.09629902 0.06400671 -0.05563432
000300 f2 f3 9d 3d dd 4f 3b 3d 20 00 a4 bc ea 0b 41 bd
       0.077125445 0.04573046 -0.02001959 -0.047130503
000310 7b 59 01 bd d1 32 a7 bd c5 3e c6 bc 6c 09 ee bc
       -0.031579476 -0.08163989 -0.024199853 -0.029057227
000320 c3 8e 94 3b 48 ad 6c 3d c5 e1 32 bd 0e 73 fd bc
       0.00453362 0.05778244 -0.04367234 -0.030938651
000330 94 dc 98 3c 20 74 9d 3d 8a cf 9e bd fe d9 91 bc
       0.018659867 0.07688165 -0.07754429 -0.017804142
000340 af 81 bf bd 00 2e 99 bc 4a c0 51 bd 36 7c cb 3c
       -0.09350907 -0.018698692 -0.05120877 0.024839502
000350 b9 af 69 3b ee 43 99 bd 55 37 9a bd 15 31 65 bd
       0.0035657717 -0.0748366 -0.07530085 -0.05595501
000360 ec 62 d1 bb 30 8b 9e 3c 9b 90 a9 3d 9e cc aa bb
       -0.0063899662 0.01935348 0.082795344 -0.0052123806
000370 5b 55 d4 3c b0 87 80 bc a4 6b 5f 3d d7 08 9c bd
       0.025919607 -0.0156897 0.054546013 -0.076188736
000380 51 ed 13 3d e5 78 99 3d 72 ad 46 bd d5 e9 b8 3d
       0.036114994 0.07493762 -0.048505254 0.09028975
000390 3b 08 9e bd ea f8 64 3d 20 dd cb 3d b7 c4 0f bd
       -0.077164136 0.055901445 0.099542856 -0.03509971
0003a0 d7 cd a8 bd 98 66 ab bc d7 2e af bd bc 82 99 3a
       -0.08242386 -0.020922944 -0.08553856 0.0011711936
0003b0 5c c3 4b bd 3b a2 91 3c 98 fa 51 3c ec a5 81 bc
       -0.049746856 0.017777553 0.012816094 -0.015826188
0003c0 2c e2 a1 bd e8 b4 6e bd 58 aa 1a bd c1 d9 34 bd
       -0.07904467 -0.058277994 -0.03776011 -0.04415298
0003d0 f2 1b b8 bd 00 63 86 3d d0 db b0 bc 2b 72 ba 3d
       -0.08989705 0.065618515 -0.02158919 0.09103807
0003e0 be 8b 35 3d 00 9c 8d bd 3d 29 90 3d 2d f3 8f 3a
       0.04432272 -0.0691452 0.070391156 0.0010982506
0003f0 b0 10 d2 3c 74 40 a8 3d f4 b0 90 3d cc 63 90 bd
       0.025642723 0.082154185 0.07065001 -0.07050285
