parameter/crf_lstm_parameter/90_last_sent_net.pth (torch_old, 80969 bytes, 2 tensors)

lastnet.weight f4 [100, 200]
00000000: 9e43 92bd b79b 1abd 5712 92bc 6e78 cdbc
00000010: 7072 2e3a 1a5a 64bd 8e7c 12bd 4035 af3d
00000020: 5bd2 b23c 4ad1 403d 78cb 183d 1f4e 1ebd
00000030: dbaf 3d3d 8ffa 7e3d 2e9a 9dbd ab77 6ebd
00000040: ee97 a5bc 9e32 ec3c fd33 9ebc a02f 753d
00000050: 535d e53c 65ec 9cbd 4632 a33d 9982 8fbd
00000060: 82b9 17bd fa0e 863d 5af9 343c 6592 76bd
00000070: cb25 ecbc 86b0 773d c848 49bd 86c0 babc
00000080: 9d3c 12bd 5b4d a43c e0a1 5ebd e262 533d
00000090: e714 163b 3db8 9e3d 2aa8 2a3d 3b5a 86bd
000000a0: 6713 87bc 25cc 6d3d c5e7 dd3c b129 9bbd
000000b0: 1d87 44bc 708d 25bd 7131 48bd 324f 4e3d
000000c0: b600 f5bc 1540 093d 1b41 b8bc bb2e ecbc
000000d0: 5e67 bd3d 693a 99bb 3a49 cf3c 3b44 8fbd
000000e0: 1307 733d 0525 67bd 363c a1bd 4ee9 ac3c
000000f0: cc0b 27bd 63a5 87bc be5a 3c3d 283e 823d
00000100: a0a5 5ebc f0e1 a5bd b65d 553b 8e98 463c
00000110: ab2e a63c 1d4f bbbb b70f cbba d627 8d3c
00000120: 5e34 7a3d 1066 733c 9b97 48bd e6a4 8dbc
00000130: 0fb5 83bd 7757 cb3c afa8 10bd f67c 933d
00000140: da20 28bd 1422 3c3d 2073 33bd 8e5c d53c
00000150: ab03 89bd b8f3 6cbd b1c9 6ebd 0869 ce3c
00000160: 5914 2bbb 2df6 f83b 65e1 573c da6b 30bd
00000170: 0d72 9eba 7a4a 833d 7629 0bbd 6fa6 3c3d
00000180: e865 0b3d c2c6 763d d90f 03bd c8eb 733d
00000190: 75d7 cf3c 088a 3c3d abb9 693d ebe8 7abd
000001a0: ece2 d43c 998e c1bc f71f 1d3d a94f 49bd
000001b0: bef2 90bc 49b1 b63c 219f 8f3d 76a8 31bd
000001c0: 013c 75bd e346 0f3c 36ce 97bd 42e2 fbbc
000001d0: 0647 37bc 0558 18bd 9387 93bd 1fcd 023d
000001e0: 10d2 ab3c e616 463d bfe2 6e3d 6646 8f3c
000001f0: a2fe 32bd b880 55bd 137c 8dbd 79c5 943d
00000200: 41a2 d13c 010a a8bc 545f 41bd bcb1 79bd
00000210: 7991 bbbc 9050 2abd 71f5 103d 0639 afbc
00000220: 717f a2bd 6d14 773d 34e4 4abd e933 a93d
00000230: 4bd4 c63d d906 2cbd 1457 43bd 041e 6ebd
00000240: e68a 5abd c992 76bd ab10 9d3b 8cc7 a6bd
00000250: 4f1f 37bd 1f03 3dbd 728e 593d ed6a 1e3c
00000260: 1f14 8fbd 6f27 643d 6922 983d 758d 8a3d
00000270: 1be2 cebc 0b15 b93c 4868 9ebc b729 5abd
00000280: 879e f43b 2a58 57bd 5fe7 55bc 58ed 9ebd
00000290: b6e8 023d 7eed 57bc ae70 c53c 81d0 01bd
000002a0: 37f9 ce3c 31a8 a1bc 5614 993d 2d18 2c3a
000002b0: 6b93 90bd ba73 243d 19b9 95bd 4d11 37bd
000002c0: 20e1 0f3c 41a3 713d 4248 423c d726 8ebd
000002d0: 02f0 133d c119 f53c ca64 28bd 24ea 623d
000002e0: 9e8c 27bd eb16 973d 9c74 2fbc 70f8 aebc
000002f0: dbf7 633d eb46 813b 8f02 d5bc 3c16 55bd
00000300: df8a 9b3d 85f4 2d3d 076d 63bd 3920 303d
00000310: e9a2 313d 288b 853d f2d3 6e3d af7b 873d
00000320: 33a6 433c 5836 02bd 565c cfbc 709b 72bd
00000330: be11 31bd 394a 163d 6e1a edb9 d24d 00bd
00000340: 3514 a5bd da82 833b 1524 663d f20a 833d
00000350: ae18 ed3b 8709 0bbd c2a5 353d 4551 bf3d
00000360: cd04 803c 6bd7 b93c 3530 94bd 685b 79bd
00000370: 3c13 07bd 8dc1 19bd 1a53 073d 06e3 57bd
00000380: 647d c63c 2c4c a7bb 2f02 893d c55a 573d
00000390: fba4 71bd fce0 303d 6660 1a3d 4a9d dcbc
000003a0: d9cc 5ebd 20bb 4d3c 8126 903d c1a4 8ebd
000003b0: 5d03 cdbc d5f2 9fbd 3eb9 6e3c 5f09 203d
000003c0: 175c dabc bee3 d23c 72bf 23bd b031 f3bc
000003d0: 5fcf 2d3c 1874 3bbd e0b2 2a3d 7237 873c
000003e0: ec64 80bd 9d9d 1f3d b32b 9dbc 4989 b23c
000003f0: eed7 6cbd 15d4 423c 5354 89bd 2cd3 6dbd
-0.07141803 -0.037746157 -0.01783101 -0.02508184 0.0006654626 -0.05574999 -0.035763316 0.085550785
0.02182882 0.047074594 0.037303418 -0.03864872 0.046310287 0.06225067 -0.07695423 -0.058219593
-0.020214047 0.02883273 -0.0193119 0.059859872 0.027998602 -0.07662276 0.07968573 -0.070073314
-0.03704215 0.06545825 0.011045778 -0.060198206 -0.028826615 0.06047108 -0.049141675 -0.02279688
-0.035702337 0.020056417 -0.054353595 0.051607974 0.0022900642 0.077499844 0.04166428 -0.06560179
-0.016488744 0.058056016 0.027088055 -0.075763114 -0.011995104 -0.04041809 -0.048875276 0.050368495
-0.029907566 0.03350838 -0.022491982 -0.028830877 0.09248231 -0.0046761525 0.025303472 -0.06995436
0.05933292 -0.05643179 -0.078728124 0.021107342 -0.040782735 -0.016558355 0.045984976 0.063595116
-0.013589293 -0.08099735 0.0032557077 0.012121333 0.020285925 -0.005716218 -0.0015492354 0.01723091
0.061085097 0.014855877 -0.048972707 -0.017290544 -0.064310186 0.02482198 -0.03531712 0.07201569
-0.041046955 0.045930937 -0.043810964 0.02604511 -0.06690153 -0.057849616 -0.058297817 0.025196567
-0.0026104657 0.007597706 0.013176297 -0.043071605 -0.0012088433 0.0641069 -0.033975087 0.04605716
0.034032732 0.060248144 -0.031997535 0.05955103 0.025371293 0.046030074 0.057061832 -0.061257284
0.025987111 -0.023627566 0.038360562 -0.049148235 -0.017693873 0.022301333 0.07012773 -0.043373547
-0.059871677 0.008744928 -0.074123785 -0.030747537 -0.011186367 -0.037193317 -0.07203593 0.0319339
0.020974189 0.04836168 0.05832171 0.017489623 -0.043699868 -0.05212471 -0.06908431 0.072642274
0.025590064 -0.020512583 -0.047210053 -0.060960516 -0.022896515 -0.041580737 0.03539032 -0.021389496
-0.07934464 0.060322214 -0.049534038 0.08261854 0.097084604 -0.041998718 -0.047690466 -0.058134094
-0.05335512 -0.06019858 0.0047932467 -0.08143529 -0.044707593 -0.046145555 0.053114362 0.009669048
-0.0698626 0.05570167 0.07428438 0.06765262 -0.0252543 0.022593042 -0.019336835 -0.05326244
0.007465187 -0.052574314 -0.013055651 -0.077601135 0.03196021 -0.013179181 0.024101581 -0.031692985
0.02526532 -0.01973352 0.07474582 0.0006564882 -0.07059368 0.040149428 -0.07310695 -0.044694234
0.008781701 0.05899358 0.011858048 -0.06941002 0.03611756 0.029919507 -0.041111745 0.055399075
-0.040905587 0.07377418 -0.010708954 -0.021358699 0.055656295 0.0039452217 -0.026002197 -0.052023157
0.07594847 0.04246952 -0.0555239 0.04299948 0.043368254 0.065206826 0.058307596 0.06615388
0.01194148 -0.031790107 -0.025312584 -0.059230268 -0.04322981 0.036691878 -0.00045223854 -0.031324215
-0.08060495 0.0040134015 0.056186754 0.06398572 0.007235608 -0.033944633 0.044347532 0.09341673
0.01562729 0.022685727 -0.07235757 -0.060878187 -0.032977328 -0.0375381 0.033038236 -0.05270674
0.024229713 -0.005105516 0.066898696 0.0525768 -0.05899523 0.04318331 0.03768959 -0.02693047
-0.054394577 0.012556821 0.07038594 -0.06965018 -0.025026018 -0.078099884 0.014570532 0.039071437
-0.02665524 0.025743362 -0.0399775 -0.029686779 0.010608523 -0.045765013 0.041674495 0.01650593
-0.06269249 0.03896867 -0.019185876 0.021793978 -0.057823114 0.011891385 -0.06705537 -0.058062717

lastnet.bias f4 [100]
00000000: ebe0 27bc 172c 873d eb14 f1bc a6e9 0cbc
00000010: b9a1 d5bd ba7f 00be 822f 4d3e a82e c63b
00000020: 65b5 a53d 712e 05bd 3019 ae3d f71d 04bd
00000030: 70ac 533d 562a 81bd 323d eb3d ecf5 b43d
00000040: 9999 a7bd b15f b9bc 468a c63d 453a 2abd
00000050: 1e49 4a3d c2c5 f3bc 95e6 fdbd 0f64 47bd
00000060: 91a0 f33d 3278 28bd 9c1d 433d 2058 6ebd
00000070: 386e 543d 36b1 9f3d 1f67 f23d 9cd3 373d
00000080: fc3c b63d 2799 6b3c a8b0 3dbc 5c26 893d
00000090: 2103 e93d 1a1e c3bd 2793 3bbd ba64 b6bd
000000a0: 20f9 5bbc d0fc 7b3d 67b8 20bd 4b06 1bba
000000b0: 8e23 853d d40a e1bd d616 553c d73c b13c
000000c0: 11d8 163d 3686 ea3c 9cf2 65bd 4d13 33bc
000000d0: 46ce d03d 4e0e 87bd 8edf 333d 541d c43d
000000e0: 1996 f7bb 7b1b b43d 5201 32bd 6e27 84bb
000000f0: 758e a63c d6ac cebd c3f8 653d e43f 8d3c
00000100: 22c0 d73d 848d 223e 1656 413d 6d01 043e
00000110: c95f dd3c 66e4 5abd a450 d43d 484c fd3c
00000120: e7a1 343d 2519 9fbd 27f2 e93d d06e 80bd
00000130: d0ac c2bd ea1f 0fbd 939d be3d 5595 1d3e
00000140: aeb0 dc3d ab7e 283e d344 b1bb 4f0e 39bd
00000150: 8876 84bd 60e4 f1bd 1f0b b43c e5a9 bf3d
00000160: 02ac 0abe 148b 123d 448a 90bd 27c2 dbbd
00000170: 4bae 26bd 76d0 b53d 8d4b 89bd 4525 363d
00000180: 541d 8dbd 129a e6bc 9796 073e 49a4 723d
-0.010246496 0.06600206 -0.02942892 -0.008600628 -0.10431237 -0.12548724 0.20037654 0.0060480423
0.08091239 -0.032514993 0.08500898 -0.03225514 0.05167812 -0.06306903 0.114862815 0.088359684
-0.08183593 -0.022628637 0.09694342 -0.041559476 0.049386136 -0.029757384 -0.12397496 -0.048679408
0.1189586 -0.041130252 0.04763566 -0.05818951 0.051862925 0.07797472 0.11836075 0.04487954
0.088983506 0.014379776 -0.011577763 0.066967696 0.1137755 -0.09527226 -0.045794632 -0.08905931
-0.013426095 0.061520398 -0.03923836 -0.00059137185 0.06500922 -0.109883934 0.013005933 0.021635456
0.03682715 0.02862845 -0.056139573 -0.010929895 0.101955935 -0.06594525 0.04391437 0.095759064
-0.007555735 0.08794304 -0.04345829 -0.0040330207 0.0203316 -0.100915596 0.05614544 0.01724238
0.10534693 0.15874296 0.04720124 0.12891169 0.027023213 -0.053440474 0.103669435 0.030920163
0.044099715 -0.07768468 0.1142314 -0.06271136 -0.095056176 -0.034942545 0.09307399 0.15388997
0.107758865 0.1645457 -0.005409816 -0.04517966 -0.064679205 -0.11811137 0.02197796 0.09358577
-0.13542178 0.035777166 -0.07057622 -0.10730391 -0.040693562 0.088776514 -0.06703863 0.044469137
-0.068903595 -0.028149638 0.13241039 0.059238706
