parameter/crf_lstm_parameter/Bigru_crf1.ckpt (torch_old, 582775 bytes, 13 tensors)

transitions f4 [30, 30]
00000000: 0040 1cc6 0040 1cc6 0040 1cc6 0040 1cc6
00000010: 0040 1cc6 0040 1cc6 0040 1cc6 0040 1cc6
00000020: 0040 1cc6 0040 1cc6 0040 1cc6 0040 1cc6
00000030: 0040 1cc6 0040 1cc6 0040 1cc6 0040 1cc6
00000040: 0040 1cc6 0040 1cc6 0040 1cc6 0040 1cc6
00000050: 0040 1cc6 0040 1cc6 0040 1cc6 0040 1cc6
00000060: 0040 1cc6 0040 1cc6 0040 1cc6 0040 1cc6
00000070: 0040 1cc6 0040 1cc6 ff99 85be 41c9 edbe
00000080: d8cd 223f c528 1ac0 c179 7cbe bc09 be3e
00000090: ec65 56be 78e5 23bf 6da8 d53f c2f2 8e3e
000000a0: 9d4e 3e3e 221d 763e 1836 54be 14ea 0bbf
000000b0: f4ad a1bf ebdd b5be d35e 863e 1f3e 8cbf
000000c0: d234 87bf b106 a4bf 117d 98bf 5833 89bf
000000d0: 723e 433f ae17 02c0 1e68 2ebf edbb 0a3f
000000e0: ac49 663f 6971 01bf 1888 813e 0040 1cc6
000000f0: e2a2 2a3f 8376 1e3e 1d3a f03e 7c33 613e
00000100: a466 183f e66b 1c3f f757 59be d436 e1bd
00000110: 5797 033f 811f 633f d320 223e be76 933f
00000120: ff0f 743f 725e 373f bc77 3e3f 43fd 073f
00000130: 7942 0cbf a16a 9cbe 11b2 4ebe 7cfa 013f
00000140: 1377 f7be d920 bcbf 827f f7bd cdaa 9c3f
00000150: 1203 76be 127d a1be 2678 4cbe ae1f c43f
00000160: 273c 4ebe 0040 1cc6 38a2 2a3f 6c82 a33e
00000170: 843a 8e3f 6692 3a3e 5574 d53f 0d97 cbbe
00000180: f118 463f 5a65 82bf 9c9f 4abf 803f fcbe
00000190: 06cf 7bbf 335b c2be 9e7a 7cbc b21c b13f
000001a0: 263c 0cbe a5b9 543e ea8f 7c3e 2af0 2ebe
000001b0: 7d30 bc3e 6a9a 203e 2b67 fb3e 4bad a2be
000001c0: 00b4 443f 1979 98be 11f8 ce3e c30a d6bf
000001d0: 490d c83f 6a12 6e3d ceca 36bf 0040 1cc6
000001e0: bc5f 553f 0c0a 91bf c28a 09bf 5d9c 2f40
000001f0: 98c8 a1bf 6a2e 2fbf 1788 13bf 91ae fcbf
00000200: 0453 55bf 5a3a 4cbf db46 6b3e c325 d7bd
00000210: 5c7e d73f 5241 023f 8e10 433e 3fc9 5f3e
00000220: b8d2 0f3f a9d4 4bbf 8d8d e9bf 073e 8e3f
00000230: 2ad4 193f bcef 10c0 6d78 2e3f 3742 c13f
00000240: 6d2b 2a3f 2396 a53f 2fdf 5bbf 9502 05be
00000250: eccd 0440 0040 1cc6 3e93 36bf 0211 853f
00000260: 362c 153f d974 ae3f c34f 8cbe bf31 4d3f
00000270: 2c44 14bf 8d40 583f 7348 01bf 61f8 853f
00000280: 1213 0a3f 7f04 743f 8c6d 053f 3841 b03e
00000290: 9278 76be 4e9f a83e b171 4bbe 2ff9 8d3e
000002a0: 2c0f d83f fbbf 0fbf 0a95 d2be e4a4 dc3e
000002b0: 120a 853f d4b7 f03f e5bc db3f 841d e9be
000002c0: 4679 7ebf 2e7a 50bf 08f5 2a3f 0040 1cc6
000002d0: acd9 6a3f 25d0 65be 5e00 fc3f 3c40 363f
000002e0: 0663 aa3e 68cf bb3f c36d 80bf 54c7 e33d
000002f0: 79e3 843f ed19 643f 67e0 4dbf 640b 193f
00000300: 1f4d 23bd 1ecf bfbe e736 1ec0 5166 013e
00000310: 4825 95bf 4598 f43e 79fc b23f 5242 cfbc
00000320: cfcf 763e 67ba e93d e115 31bf a5eb e63e
00000330: bb15 3cbf 2cd5 813e 4dfa ca3d 084f 6abf
00000340: 8873 973f 0040 1cc6 044a cb3f 8ba7 4ebf
00000350: f1df 3d3e 51de 2140 3c5d 52bf 99c0 3dbf
00000360: fa6f b83e 00ad 9a3e 8d95 f53f 8041 333f
00000370: fe53 763f ac56 b03c aa47 dd3e 116b a43f
00000380: 7445 55bf a845 a83f e7a2 a73f 528e 8e3e
00000390: 581b 1cc0 651c 703e 684d 333f 5c7d f23e
000003a0: ff05 b63d e77b 8b3e 6173 7d3d 56f2 0abe
000003b0: 4c9d 0ec0 e18e 763e 40df 073f 0040 1cc6
000003c0: aa4b c43f 5c89 2bbf def1 79bf 0129 d5bf
000003d0: 9065 dabe 87f6 b43f 64f4 b4bd 4a99 6e3e
000003e0: c16f 89bf 110b 9d3f f0f0 1bbf db3c 5a3f
000003f0: 7a2e 07bf 4c88 c83e 3b15 c9bf 8c54 b93e
-10000.0 -10000.0 -10000.0 -10000.0 -10000.0 -10000.0 -10000.0 -10000.0
-10000.0 -10000.0 -10000.0 -10000.0 -10000.0 -10000.0 -10000.0 -10000.0
-10000.0 -10000.0 -10000.0 -10000.0 -10000.0 -10000.0 -10000.0 -10000.0
-10000.0 -10000.0 -10000.0 -10000.0 -10000.0 -10000.0 -0.26094052 -0.46442607
0.6359534 -2.4087384 -0.2465582 0.37116802 -0.20937318 -0.64022017 1.6692024 0.27919585
0.18584676 0.24034551 -0.2072376 -0.5465405 -1.2631211 -0.35520872 0.2624422 -1.0956458
-1.0562994 -1.2814542 -1.1913167 -1.0718794 0.7626716 -2.0326953 -0.6812762 0.54193
0.89956164 -0.50563675 0.25299144 -10000.0 0.6665479 0.15474896 0.46919337 0.21992296
0.5953162 0.6110214 -0.21224962 -0.10996786 0.514028 0.88719946 0.15832834 1.1520612
0.9533691 0.7162849 0.7440145 0.5312082 -0.5478893 -0.305501 -0.20185114 0.50772834
-0.48333034 -1.4697524 -0.12084867 1.2239624 -0.24024609 -0.31540734 -0.19967708 1.5322168
-0.20140134 -10000.0 0.66653776 0.31935441 1.1111608 0.18219909 1.6676127 -0.3976368
0.7738181 -1.018718 -0.79149795 -0.49267197 -0.9836277 -0.37960204 -0.015410094 1.3836882
-0.1369482 0.20773943 0.24664274 -0.17083803 0.36755744 0.15683904 0.49102148 -0.31772837
0.7683716 -0.2977989 0.40423635 -1.6722034 1.5629054 0.05812303 -0.71403205 -10000.0
0.83349204 -1.1331191 -0.5372735 2.7439187 -1.2639341 -0.684302 -0.5762953 -1.9740773
-0.83329797 -0.7977654 0.22976248 -0.10505249 1.6835437 0.5088092 0.19049284 0.21854113
0.56180906 -0.7962137 -1.8246323 1.1112679 0.6008936 -2.2646322 0.68152505 1.5098332
0.6647251 1.2936443 -0.85887426 -0.12989266 2.0750685 -10000.0 -0.71318424 1.0395815
0.58270586 1.3629409 -0.27404603 0.8015403 -0.5791652 0.84473497 -0.50501174 1.0466424
0.5393535 0.9531936 0.5212028 0.34424758 -0.24069431 0.3293404 -0.19867589 0.27729174
1.687963 -0.56152314 -0.41129333 0.43094552 1.0393698 1.88061 1.7167021 -0.4553033
-0.994038 -0.8143643 0.6678014 -10000.0 0.9173839 -0.22442682 1.9687612 0.71191764
0.33278674 1.467267 -1.0033497 0.11122003 1.0381919 0.8910206 -0.80420536 0.59783006
-0.03986847 -0.37462705 -2.472101 0.12636687 -1.1652002 0.47772422 1.3983299 -0.025300179
0.2410271 0.114125066 -0.6917401 0.45101658 -0.7347066 0.2535795 0.09911022 -0.9152684
1.1832132 -10000.0 1.5881963 -0.807244 0.18542458 2.529194 -0.82173514 -0.74122006
0.3602293 0.30210114 1.9186264 0.7002182 0.9622191 0.021525703 0.43218738 1.2845174
-0.833091 1.3146257 1.3096589 0.27842957 -2.439169 0.23448332 0.7003999 0.47361267
0.088878624 0.27242967 0.061877612 -0.13569006 -2.2283506 0.24077941 0.5307503 -10000.0
1.5335591 -0.6700647 -0.97634685 -1.6653138 -0.4265561 1.4137734 -0.08835676 0.23300663
-1.073723 1.2269002 -0.60914516 0.8524911 -0.5280529 0.39166486 -1.5709604 0.36197317

gru.weight_ih_l0 f4 [300, 100]
00000000: 10a3 da3b 60d4 b53d 370c ebba 3042 b83d
00000010: ad59 c93d cda8 26bc 95e3 a2bd c308 423d
00000020: 6f3a adbd c3cd d83c 5f49 a4bd a417 953d
00000030: 013a cb3c 5b95 f63c d89d a13d 4f3f 3fbd
00000040: ec49 91bd f990 9abd 8314 58bc 9abb c33d
00000050: ee69 d2bc cfa8 c8bd b385 773d 4d3b 933c
00000060: aad7 c13d a0d9 823d 3548 8d3d d5e1 b8bd
00000070: 7a90 503c 424d 8dbd 5edb e53b 551a 22bc
00000080: 1143 31bc 6631 293d 0314 63bc 7177 043d
00000090: 0f5b a0bd e994 403d 3799 63bb 0911 85bc
000000a0: e59a 233d a46a 793d 3455 16bc f6dc 173d
000000b0: 2811 b33d 7df7 c13d efa6 f6bc 83df 69bd
000000c0: 1347 9abd 71a4 703d 1fe7 cabd 3dc5 45bd
000000d0: 355d aebd d0e0 17bd e59a 9d3d 348e 80bd
000000e0: c1df 60bd 1b19 ba3c e7bd b7bd 6984 a83c
000000f0: 88e3 c6bd ce80 d4bc 17de bdbd 10cd 0cbd
00000100: 02d6 903d 5117 1bbd ba41 ebbc 222f b23d
00000110: 2ee2 153d 9f5a 463d 43ff 08bd 6f7d 24bd
00000120: 90f8 cbbd f426 4abd 821b c93d cc84 993d
00000130: ab28 993d 0bda f63c 339b 523d cd0f 5ebd
00000140: 01cc 8f3d 7f52 95bd d3fc 453c c1eb d93c
00000150: 7b63 aa3c 0c98 923c 1065 df3c 2745 babd
00000160: a1d2 51bd b6c2 5d3d 40d3 503d 065a b0bd
00000170: dccf 88bd 605c 75bd 5d73 b1bd 1370 debc
00000180: f8ca 743d 724f 77bd 5e07 1b3c 04be 9fbd
00000190: 1dfa 69bd 0c43 3f3d 666c 413d 0089 9b3d
000001a0: 42c9 40bb aefa a9bd 3236 acbd f32e a3bd
000001b0: ed74 3c3d 619e 12bd 87c5 ab3d b413 babd
000001c0: ee31 0dbb 187c b2bd acb2 0f3d 1ebd a4bd
000001d0: b295 e93c 7819 f3bc 1b79 a3bd 0724 5d3d
000001e0: f8e4 94bd 9528 683c bc05 c2bc 92c9 5ebd
000001f0: 14de b33d 9e3b 75bd 3edd a5bd 97d4 1d3d
00000200: f4a0 04bd e5b0 42bd 05cd acbd 0d55 c83d
00000210: 9ad2 a63c 3a88 ac3b d2a2 b1bd 3e8c 963d
00000220: 4774 5e3d 2602 3dbd 6586 bc3b ed06 ad3d
00000230: 34fe 14bd bdcf 9dbd ac69 4d3d e49e 63bd
00000240: d7f6 8d3c 1043 07bd 7817 c13d d818 4d3c
00000250: a24d 46bd 0c88 6c3d 63a4 b0bd 932c 943d
00000260: bcfe c53c 5e22 533d 1eea ad3d 0935 5dbd
00000270: 5b60 bebd 5ec6 8e3d 4360 86bd d288 52bd
00000280: f6b6 403d 4c27 03bd e7c2 953d 203c 2e3c
00000290: b943 5cbd 8dd8 0fbd 6309 613d f31b 9fbd
000002a0: fff1 85bd cb16 75bd a877 51bd b16c 4abd
000002b0: 58c2 89bb 0da8 54bd b859 adbd 1601 26bd
000002c0: 6a91 9f3d 5986 9e3d dee0 99bb 585c 54bc
000002d0: 0374 42bd 1fe0 aabc edbd 043c 3db3 8e3d
000002e0: 8580 c53d 10b2 8dbc e1aa afbd bfd0 98bd
000002f0: f276 a3bd 4468 7c3d 3255 e33c 4831 cfbb
00000300: 03b1 1f3d 8547 75bd 1620 cdbd 4453 88bd
00000310: 4a44 c83c 95b0 d33c 7809 2abd 7500 5dbd
00000320: 4ea1 0f3d 2557 ba3c 841c 5d3d d58e 16bd
00000330: 2585 a53c 024a 1c3d a1e2 5ebd 17fc 163d
00000340: 0447 bd3d c5b6 253d 14f8 65bc 3f0f 65bd
00000350: 6524 a93d 9cfd 4c3d a3ba b63d ecb5 59bd
00000360: 6b66 e6bc d6c2 25bd 7203 413d 4b4f 243d
00000370: bc42 b2bd 66af a5bc 7abf cf3b aa11 a4bc
00000380: 4ee8 f9bc 2e86 97bd f22c 8bbd 5f6b 9d3d
00000390: 74e7 633d ea1a ccbb b179 b2bd 14a8 623d
000003a0: 3791 a9bd 0c47 99bd b1d4 cb3d e7de e93c
000003b0: 38b3 283d fc82 543c 4eaa 0abc 17d8 cd3b
000003c0: da3f 9a3d 37d4 26bd 2704 c93d 0198 aabc
000003d0: d1de 0bbd 2f7d 2f3d 896d 343d c47b a0bd
000003e0: fb1a cb3d f893 cbbd 206d 613d 65f0 e3bc
000003f0: 4bf7 95bc 32fc bcbc ef21 26bd 11b5 c53c
0.0066722706 0.08878398 -0.0017932717 0.08996999 0.098315574 -0.010172081 -0.07953564 0.047371637
-0.08458411 0.026465302 -0.08021807 0.072799 0.024807932 0.030100515 0.078914344 -0.046691235
-0.070941776 -0.075471826 -0.013188484 0.095572665 -0.025685277 -0.09797823 0.06043024 0.017972613
0.09464963 0.06389165 0.06898538 -0.09027449 0.012729758 -0.068995014 0.007014676 -0.009893973
-0.0108192125 0.041306876 -0.013859752 0.03234047 -0.07829868 0.04701701 -0.0034728774 -0.016243475
0.03994264 0.060892716 -0.009175587 0.03707596 0.08743507 0.09471033 -0.030108897 -0.057097923
-0.075330876 0.058750574 -0.09907364 -0.048283804 -0.085138716 -0.037079632 0.076955594 -0.06277123
-0.05490089 0.02271705 -0.08971768 0.02057095 -0.09711367 -0.025940325 -0.09270876 -0.03437525
0.07072069 -0.037864033 -0.028717864 0.08700396 0.036592655 0.048426267 -0.03344656 -0.040158685
-0.09959519 -0.049353555 0.098197 0.07496032 0.0747846 0.030133268 0.05141754 -0.054214288
0.070213325 -0.072911255 0.012084204 0.026601674 0.02079939 0.017894767 0.02726987 -0.09095221
-0.051226262 0.05414077 0.050982714 -0.086109206 -0.06680271 -0.05990255 -0.08664582 -0.02715305
0.05976388 -0.0603785 0.009462206 -0.077999145 -0.057123292 0.0466948 0.047222517 0.0759449
-0.0029416834 -0.082997665 -0.084087744 -0.07967939 0.046009947 -0.035795573 0.08387285 -0.09085789
-0.0021544653 -0.08715075 0.035082504 -0.08043884 0.028513763 -0.02967523 -0.079820834 0.053989436
-0.07270235 0.014169832 -0.023684375 -0.05439145 0.087825924 -0.05987131 -0.08098839 0.03853282
-0.03238006 -0.04753198 -0.08437542 0.09781847 0.020364095 0.005265263 -0.08673634 0.07350968
0.05431011 -0.046144627 0.0057533258 0.084485866 -0.03637524 -0.077056386 0.050149605 -0.05557145
0.017329616 -0.03302294 0.094283044 0.01251813 -0.04841388 0.057746932 -0.08625104 0.07235064
0.024169318 0.051546447 0.0849192 -0.054005656 -0.09295722 0.06971429 -0.06561329 -0.051400013
0.047049485 -0.0320199 0.07312565 0.010634452 -0.053775523 -0.03511863 0.054940592 -0.07769003
-0.06540298 -0.05983619 -0.051139504 -0.049420062 -0.004204076 -0.05191808 -0.08464378 -0.04052838
0.077914074 0.077404685 -0.0046959957 -0.01296147 -0.04747392 -0.020858822 0.008101922 0.06967781
0.09643654 -0.01729682 -0.085775144 -0.0746169 -0.079816714 0.061622873 0.027750585 -0.0063230135
0.03898717 -0.05988266 -0.100158855 -0.06656507 0.024446625 0.025841037 -0.041512936 -0.053955514
0.03506594 0.022746632 0.053982273 -0.03675731 0.02020509 0.038156517 -0.05441535 0.036861505
0.09242061 0.040457506 -0.014036197 -0.055922743 0.08258895 0.05004655 0.08922317 -0.05315201
-0.028125009 -0.040469013 0.047122426 0.040114682 -0.08704135 -0.020225238 0.0063399645 -0.020027954
-0.03050628 -0.073986396 -0.06795682 0.07686495 0.055640653 -0.0062287943 -0.08714617 0.055336073
-0.08279651 -0.07484254 0.09952677 0.028548671 0.04118654 0.012970682 -0.008463455 0.0062818634
0.0753171 -0.040729728 0.09815245 -0.020824434 -0.03414804 0.042843994 0.044049773 -0.078361064
0.099172555 -0.09940332 0.05503571 -0.02782459 -0.018306395 -0.023069475 -0.040559705 0.02413419

gru.weight_hh_l0 f4 [300, 100]
00000000: 3f60 15bd d8dc 853d 5d78 7d3d 94a6 46bc
00000010: e0bb a7bd 10e5 813d ab74 673d 17b1 233c
00000020: 968d 62bd b323 5d3d 6bd0 8a3d 9aa4 bf3d
00000030: 8d35 3a3d 24e4 983d 0408 9abd 058a cabd
00000040: afae e83c 1456 95bd 9549 383d 7908 2bbd
00000050: 99f6 933c 12ea ba3d b6a9 e63a 1728 9cbd
00000060: cb89 c9bd e6de 3c3d 37de a23c aa61 0ebc
00000070: 1962 86bd 663e bd3d 3390 1f3d e10f f63c
00000080: 9a32 97bc 26a0 bbbc cfb9 ab3d 509f bb3d
00000090: e3d4 ad3d 01bd cdbd 265d 47bd 8d5f 2a3c
000000a0: b0e8 5e3c 8ad9 bdbc 8063 cd3b 2037 1e3d
000000b0: bf99 9c3d 2da3 88bd 5d43 b7bd 255f ba3b
000000c0: d315 2d3d fe2a 74bd 82bc b73d a132 52bd
000000d0: 80e8 783d 29c7 1a3d af19 d7bc f8c2 773b
000000e0: 3b3e 2dbd 022d c23d 7c8a b33d 1cd4 98bd
000000f0: ab46 1a3d 99c1 ebbc 574a 33bd 352d 4c3d
00000100: cf81 99bd 8645 74bd 464e c3bd 9535 f43c
00000110: ed07 85bd 2090 393c 70ae c9bc 4c54 e03c
00000120: a118 f7bc 4add acbc a6ca 11bb 36b5 c2bb
00000130: ebd1 57bd 77f5 bb3d bfd8 9ebc c451 2d3d
00000140: e474 a63c 19e1 0dbc d521 283d 4f76 c0bd
00000150: efdf 9fbc 6cf9 2dbd abf8 9fbd 3ce1 c03d
00000160: 759a f6bc 1fbe aebd 040b 9d3d cd7f f03c
00000170: 670a 64bd d9b9 963d 6759 4f3d cf0b e13a
00000180: 9eb6 5e3c f8e7 bb3b 2356 b8bd 2af5 80bd
00000190: bf61 cbbc 78c9 9e3d 2700 7f3d 8242 ca3d
000001a0: b0d6 023d 5142 b2bd d014 bf3b 476a b5bd
000001b0: 0127 c9bd 3367 1b3d dd51 20bc 8252 ab3d
000001c0: eb5d 9a3d 288e 173d a3d6 4abb f850 c7bd
000001d0: 3432 8c3c a391 21bd 4339 a93d a464 a2bc
000001e0: 1f5d cdbd 5fd7 e43b f99e af3d 0d4c b83d
000001f0: b9ce 7bbc 6dd1 0b3c 0133 72bd b461 77bd
00000200: 2363 263d 4024 4f3d 298d 30bd c2b5 a73d
00000210: 0823 3a3d 0867 853d 52f1 e1bc 8d36 033d
00000220: 18f0 1b3d ef5e 0e3c 7b9f 82bc 5a38 9bbd
00000230: e7a9 c8bd 3d45 98bd aeaf 283d 4e0f 43bc
00000240: 947a 9e3b 768f 3fbd d96c 8c3d 7a28 56bd
00000250: 8022 473d 953c 013a 733e a63d 2d66 59bd
00000260: 0475 a23d 96c8 55bc 2f04 a93d 87fa f7bb
00000270: 394d 47bd 045f e4bc cb09 a33d 3e9f 443c
00000280: 7845 70bd 818b 7c3d 5b3d 813d 4dd5 45bd
00000290: 8274 56bd dce4 7cbd e290 c43d 4cc7 ba3a
000002a0: 0f88 1c3d 4754 fa39 e467 253d cc31 8abd
000002b0: f955 a0bd afa9 8cbc ec2e 153d 4073 af3d
000002c0: 08b5 983d e3b7 35bc 3818 80bd fa8b bd3d
000002d0: 41b4 02bd 92bc 80bd 6f12 0fbc 19b1 483d
000002e0: b7e8 5b3b dc8b 55bc 2518 493b ce0c cbbd
000002f0: 004f 02bd 4e37 d23c bc59 6d3d f8bb dfb9
00000300: 8631 6dbd 5f85 893d 8f19 3c3c c222 513c
00000310: d063 b83d c283 3ebd f51f 943c f2bc b6bc
00000320: 91ad 983d 97ec c5bc 45e9 49bd eff7 9f3d
00000330: 8205 ab3d 5534 a7bd 2ce7 213c e35f 463d
00000340: 6da0 123c 5542 e53c 19d5 6dbd 9a11 bd3d
00000350: 8b2f 48bd 2d6e 2dbd dc61 b7bd 834c 0e3c
00000360: 2f99 0d3d 39e4 92bd 3e99 e8bc 0dbe 5ebd
00000370: affe 07bd 42dc 9e3d ec96 b1bd 7813 84bd
00000380: 536e 09bb 40f2 b8bd 5929 4d3d 6df0 703d
00000390: 8234 d3bc 4e68 b0bb 9f79 b63c 106c 63bc
000003a0: 8e30 493d 3a0d a43d f0fb e03c f44b e23c
000003b0: b99b 0c3d db97 c5ba a228 883d b4e5 8c3d
000003c0: 9d2b 2c3d a925 733d 1027 3b3d bba6 683d
000003d0: 81a5 993c fec0 a73c 76b1 7c3d 445b 833d
000003e0: caf1 8cbd 5a52 b2bd 9f3f 453c 5850 a5bd
000003f0: 5ae4 363c 4010 a0bd f8a0 da3b b2f1 60bd
-0.03646874 0.06536263 0.061882365 -0.012124676 -0.08190131 0.06342518 0.056507748 0.009990952
-0.055310808 0.053989124 0.06778034 0.09357567 0.045461226 0.07465389 -0.0752106 -0.098896064
0.028403608 -0.07291809 0.04499205 -0.041756127 0.018061923 0.091266766 0.0017598185 -0.07624834
-0.09840735 0.04611101 0.01988135 -0.008690277 -0.065616794 0.09240417 0.03895588 0.030036869
-0.018456746 -0.022903513 0.083850496 0.09161246 0.084878705 -0.10045815 -0.048672818 0.010398758
0.013605282 -0.02317502 0.006267965 0.03862679 0.07646512 -0.06671748 -0.089483954 0.0056876116
0.04225714 -0.059611313 0.08971502 -0.051317815 0.060768604 0.03778759 -0.026257364 0.003780542
-0.042295676 0.09481241 0.08766648 -0.07462332 0.03766505 -0.028778838 -0.043772068 0.0498478
-0.07495462 -0.059636615 -0.09536414 0.029810706 -0.06495652 0.011325866 -0.024619311 0.027383946
-0.030163111 -0.021101613 -0.0022246032 -0.005942012 -0.052690428 0.09177678 -0.019390462 0.042314306
0.02031941 -0.0086596245 0.04104789 -0.093975656 -0.01951596 -0.042474195 -0.078111015 0.0941796
-0.030102948 -0.085323565 0.07668117 0.029357815 -0.055673983 0.073596664 0.05062237 0.0017169657
0.013593344 0.00573444 -0.09000804 -0.06296761 -0.024826882 0.07753271 0.062256005 0.098759666
0.031943023 -0.08704055 0.0058313385 -0.088581614 -0.098218925 0.037940215 -0.009785143 0.083653465
0.07537445 0.037000805 -0.0030950687 -0.097322404 0.017113782 -0.03944553 0.08262875 -0.01982338
-0.10027527 0.006983682 0.085752435 0.089988805 -0.015369111 0.008533818 -0.059130672 -0.06039591
0.040621888 0.05057168 -0.04310337 0.081889644 0.045443565 0.06513792 -0.02758089 0.032034446
0.038070768 0.008689626 -0.015945187 -0.075791076 -0.09798031 -0.07435081 0.041183166 -0.011905504
0.00483639 -0.046767674 0.068566985 -0.052284695 0.048616886 0.0004929987 0.0811738 -0.053075958
0.07932475 -0.013048312 0.08252751 -0.007567707 -0.04865763 -0.027877338 0.07960852 0.012000857
-0.05866 0.06165648 0.06310531 -0.048299123 -0.052357204 -0.061741695 0.09597947 0.0014250069
0.038215693 0.00047746507 0.04038228 -0.06747779 -0.07828898 -0.017170755 0.0364217 0.08566904
0.07456404 -0.011091205 -0.06254619 0.09255214 -0.031910185 -0.06285967 -0.008732422 0.04899702
0.0033555457 -0.013033833 0.0030684557 -0.09914552 -0.03181362 0.025661137 0.057946905 -0.00042673922
-0.057908557 0.06714892 0.011480703 0.012764635 0.09003413 -0.046512373 0.018081645 -0.022306893
0.0745498 -0.024160666 -0.04929473 0.078109615 0.0835066 -0.081642784 0.009881776 0.04843129
0.008949381 0.027985731 -0.058064554 0.09231873 -0.048873466 -0.0423414 -0.08954212 0.008685234
0.034569915 -0.07172436 -0.028393384 -0.054380465 -0.03320187 0.077568546 -0.08671364 -0.06449026
-0.00209703 -0.090305805 0.05008826 0.058823038 -0.025781874 -0.005383528 0.02227479 -0.013880745
0.04911857 0.08010335 0.027463883 0.027624108 0.034328196 -0.0015075164 0.06648375 0.0687975
0.04203378 0.059362087 0.04569155 0.05679963 0.018755676 0.020477768 0.061692677 0.06413892
-0.06882055 -0.087071136 0.012039094 -0.08071965 0.011162842 -0.078155994 0.006672021 -0.054918

gru.bias_ih_l0 f4 [300]
00000000: 3526 243d 0330 1a3d 1a69 c83d ef9f 593d
00000010: f587 b73d b46c 58bd ebf4 1cbc 0112 8bbd
00000020: c27b 08bd 1e2b 47bd 79a9 713d 65be c9bd
00000030: e41a 91bc 5859 09bd b2c1 6dbc 39b5 c73d
00000040: 0a99 333c c661 94bd 08c4 9dbc 9f21 16bd
00000050: f821 103d 0306 0abd 9292 b6bc 01ed 03bd
00000060: a1ff 973d 194e ba3d 580e 5a3d c017 c7bd
00000070: 2149 a6bd 2fc7 7b3d 28f0 723d a1d5 b83c
00000080: 90b9 80bd 4185 a13d b6a6 1ebd cdab c23d
00000090: 0355 1e3d 9f3d 79bd 219f 5d3c 9362 b23d
000000a0: fafc bebd ded2 c73c 90be ba3d 88d9 9b3d
000000b0: 078a f4ba 2a98 bd3d 2fa9 b53d cf9a a7bd
000000c0: 8418 233d 1413 df3b 3cb7 8d3d 1273 b03d
000000d0: 875c 803d 4461 8d3c f2c6 2cbc b411 c2bc
000000e0: 58b1 9abd 1071 483b 760b 963d b048 a8bc
000000f0: d9fd f0bc 5857 f9bc f47a 323d 064a be3b
00000100: 283d cabd 633a aa3d 3e30 b83c 7235 983d
00000110: 7466 68bc 2f4b 94bd 41aa b0bb d58f ab3d
00000120: 1684 163d 56f1 873d 80ae 95bd c82f ca3b
00000130: fd6e 21bd 0382 b6bd 163e 53bd 329d a4bd
00000140: fc53 273d 1262 7cbd c472 653d fb4e 883d
00000150: 6b01 90bd 79d1 81bd abcd cb3d 7aaa cebd
00000160: fcef 2a3d 60dc f63c 6d5e 78bd 201f 743d
00000170: aac9 303d 32c3 5c3d 9918 c73d 5f45 42bc
00000180: f196 62bd 7daa 15bd d9c0 8e3d bc6c 63bd
00000190: 4463 87bc a9e7 4c3d 5f67 863d 3e96 3dbd
000001a0: f5be 193c 2234 b0bd 9554 b43d b48a 0f3d
000001b0: 3be2 ccbc f4bb 98bc 72f1 39bd c738 61bd
000001c0: d389 693d 752c 45bd 5056 673d 6f81 6dbc
000001d0: bcf4 b53b 918b 4c3d a602 b2bb 268f 0fbd
000001e0: ddf3 88bd 3c55 7bbd 1b95 d53c 34b9 393d
000001f0: c45a df3b 0e58 96bd ecb3 f73c 2ef0 86bd
00000200: b23a 653d 61bc 7e3d 3577 5bbd 475a a1bd
00000210: 782c 443d 372a 353d c949 0a3c 996b 0a3d
00000220: 9cf1 d1bd a00d c6bd 8ac8 84bd c183 e1bd
00000230: 61d5 b83b 842c 033d 902f 8a3d 5c11 d33b
00000240: b2ba 1cbd 4e0a 82bc 7c4e 84bc c9c6 cfbd
00000250: d070 8cbd 040a 333d d4e5 0dbd 59b5 a7bd
00000260: 1495 b3bd 0ae1 943d 689e 71bd 0752 bb3c
00000270: ea4e 653d 60c1 fabd 6d77 8b3d 22f1 e7bd
00000280: bb96 163d 91be b53d 82e4 febd da5c bd3c
00000290: 8064 6ebb 5f48 ddbc 8bc5 4cbd 6b58 86bd
000002a0: 2311 753d a30b 9d3c 8b4a bdbd b210 7fbd
000002b0: 3241 153a 871e 16bd d5bf 00be 4092 d8bd
000002c0: 7687 13bd f78c a6bc 28e5 8bbc c99a 8bbc
000002d0: 1196 1dbc 0312 f4bc 6227 de3c 52b1 f5bc
000002e0: 3c2c d5bc 8227 183d 6f92 4bbd ec8b 0cbd
000002f0: 3d86 33bd 44b3 36bd f05b bc3d 0bcb febc
00000300: 32fb a23c fcd8 97bd 9fed ddba 47a6 203c
00000310: 959f b1bd 578d d1bd e7e0 3f3d 1e9d dabc
00000320: 09c5 87bc 64bd 273b 7193 0dbc 1c75 2cbd
00000330: b262 09be c02c b03c 177d d7bd 89ae 473d
00000340: 4ea1 7cbc ca3c 903d 18fb b5bd 0561 dcbc
00000350: 30ff 37bd 8daa b83d 4011 973d 69b9 d83d
00000360: 3ba2 953d 1849 063e f98c acbd 9439 a03b
00000370: 85ee b8bd c38e d6bd 948e 31bd 7390 733d
00000380: 444a abbd c7fe 04bd ccd8 81bd 6f41 94bd
00000390: e9e6 c53d 0376 483d 5dc7 8e3d 73fc 973d
000003a0: 8785 993d ba52 bbbd 5d34 353d c383 d43c
000003b0: 046d c1bd 5bda 163e 0c83 58bd 856f 6d3b
000003c0: ec60 1a39 5c72 9b3c 6961 183d 0184 50bd
000003d0: c608 d3bc 5996 093e 4a77 9d3c 40c8 cebc
000003e0: a402 35bd b2b2 dfbc 2c2e ecbd 7f52 383d
000003f0: 50c9 263c 3f30 aebd 3e81 d73c df7e c33d
0.0400755 0.037643444 0.097856715 0.05313104 0.089614786 -0.052838042 -0.009579877 -0.06790543
-0.03332115 -0.048625104 0.058999512 -0.09850768 -0.017713018 -0.03353247 -0.014511513 0.09751362
0.01096178 -0.07245211 -0.019258514 -0.036653157 0.035188645 -0.03369714 -0.022286687 -0.032208446
0.07421804 0.09096927 0.053236336 -0.09721327 -0.08119417 0.061469253 0.059311062 0.022562804
-0.06285393 0.07886744 -0.038733207 0.09505425 0.038655292 -0.060849782 0.013526709 0.08710208
-0.09325595 0.024392541 0.09118378 0.0760985 -0.0018656858 0.092575386 0.0887016 -0.08183824
0.0398183 0.006807694 0.06919715 0.08615698 0.06267648 0.017258294 -0.010545479 -0.023690082
-0.07553357 0.0030584969 0.07326405 -0.020542473 -0.029417919 -0.030437157 0.04357429 0.005807164
-0.09874946 0.08311918 0.022483941 0.07432069 -0.014184583 -0.07240903 -0.0053913896 0.08377043
0.03674706 0.06637828 -0.07308674 0.0061702468 -0.039412487 -0.089115165 -0.05157288 -0.08037795
0.040851578 -0.061616965 0.056017652 0.06655689 -0.070315205 -0.06338782 0.099513374 -0.100911096
0.041732773 0.03013438 -0.060636926 0.059599996 0.04316107 0.05389709 0.097214885 -0.01185736
-0.05531973 -0.036539543 0.069703765 -0.05552362 -0.016526826 0.050025616 0.06562685 -0.04628586
0.009383907 -0.086036935 0.08805195 0.035044387 -0.025010219 -0.01864431 -0.045396276 -0.054985788
0.057016205 -0.0481381 0.0564788 -0.014496191 0.0055528563 0.04993779 -0.0054324446 -0.035048626
-0.06687138 -0.061360583 0.026072076 0.04534264 0.00681624 -0.07341014 0.03023716 -0.065887794
0.05596418 0.06219137 -0.05358048 -0.07878547 0.04789397 0.044229712 0.008440443 0.03379402
-0.102511615 -0.096705675 -0.06483562 -0.11011458 0.005640671 0.032024875 0.06747353 0.0064412784
-0.038263984 -0.015874054 -0.016150706 -0.10145337 -0.06857455 0.043710724 -0.03464301 -0.08188886
-0.08768669 0.07269485 -0.05898896 0.022866262 0.05598346 -0.122439146 0.06809888 -0.11325289
0.03676484 0.08874238 -0.12445928 0.023115564 -0.003637582 -0.027012048 -0.04999308 -0.06559833
0.059830796 0.019170588 -0.092427336 -0.06227178 0.0005693614 -0.036650207 -0.12573178 -0.1057477
-0.036017857 -0.02033089 -0.017077044 -0.01704158 -0.009618298 -0.029793745 0.027118389 -0.02999178
-0.02602207 0.037147053 -0.049700197 -0.034313127 -0.04382919 -0.044604555 0.09197223 -0.031102678
0.01989517 -0.07414433 -0.0016931779 0.009805269 -0.08673016 -0.102320366 0.046845343 -0.026686247
-0.016573446 0.0025595063 -0.00864111 -0.04210387 -0.13416556 0.021505713 -0.10521906 0.048750434
-0.015419317 0.070428446 -0.08885783 -0.026901731 -0.0449211 0.09016905 0.07376337 0.10582239
0.07306334 0.1311382 -0.08425326 0.0048896763 -0.09029869 -0.104764484 -0.043348864 0.05946393
-0.083637744 -0.032469537 -0.06340179 -0.07239043 0.09663183 0.04894067 0.06971619 0.07421198
0.074961714 -0.09146638 0.04423939 0.025941735 -0.09444621 0.14731734 -0.05285935 0.00362298
0.0001472269 0.01897543 0.037202273 -0.05090714 -0.02576102 0.1343626 0.01922192 -0.025241971
-0.04419197 -0.027306888 -0.11532244 0.04500055 0.010179833 -0.08505296 0.026306745 0.09545683

gru.bias_hh_l0 f4 [300]
00000000: 9d1e c2bd 7d67 4e3c ee1f ae3d 8662 443c
00000010: 938d 1ebc cbdf 47bd b521 2a3d 0ba1 89bd
00000020: a2cd c6bd b1dd b63d ad77 bfbd e205 c03d
00000030: ae98 713d 641a 0bbd df19 aa3b d828 753d
00000040: 8196 a1bd 4087 4abd b73e 7b3c c6d6 893d
00000050: 89e2 02bc 45d4 153d b385 a4bd 218b bcbd
00000060: 5ede 47bc 1438 0cbd fa6e 78bd b095 51bc
00000070: fca6 50bd b70e dc3c 58b9 2b3d 9eee 3d3d
00000080: e810 abbb fdd3 953d a804 713d b2c2 9dbd
00000090: 0ef3 bc3c 8253 02bd 8d66 97bb 2e01 28bd
000000a0: 8380 8f3d afd2 b23d 6fe6 0fbd 9a82 b4bd
000000b0: a99d f9bc ddc6 1b3d 3572 9cbd 4cd9 7a3b
000000c0: 5863 903c 00b5 5cbd 68d8 05bd 969a a13d
000000d0: 3a4b 633d 96a2 443d a12e 453c a734 54bd
000000e0: c707 acbd 3232 023d fcfc c83d 86ba 04bb
000000f0: 9808 91bd cbc0 82bd dd21 a4bd feaf c93d
00000100: 4387 c5bc 6dfa 0b3d 80fc 4fbc 154d 993d
00000110: 0145 303c 7442 0ebb 7895 41bd 2df2 cabd
00000120: 6d10 ec3b 4ae5 513b e580 8fbd 5a6c 8fbd
00000130: 0a2d a33d 7584 c83d 4c27 1abd 7dc3 73bd
00000140: 666f 17bd 62a3 e5bc fb9c 84bc 4f1e ae3d
00000150: 9727 d13c fe7a 35bd 4cc3 b73c 0f87 53bd
00000160: 8c0c acbd b2a2 423c ff6f 25bd 0f5e bd3a
00000170: eef4 733d 2766 96bc c844 c13c 4e8a 193c
00000180: a061 1dbd c672 14bd 0e20 b53d 1a4a c13d
00000190: 43b2 6cbd 3936 b5bd a499 b4bd 3ca5 c23c
000001a0: acf5 e9bc bebd d3bc 44fc 053c d96a a2bd
000001b0: 98da 3cbd cbdf b2bd ded9 45bd ac48 2ebd
000001c0: 10db d4bd 9567 8d3d c815 1b3d 3a58 34bc
000001d0: aef0 5dbc c0c2 173c 6052 263d cdff bf3c
000001e0: 2ad0 d8bd 28c1 d4bd 1a82 ccbd 4e67 9a3d
000001f0: a576 3bbc fd74 a33d 5844 6d3d d793 05bc
00000200: 871f 92bd 2390 74bd 84e1 a2bd 24fd 703d
00000210: 39c3 423d 0d6d 3dbc 64cb 913c bd52 013b
00000220: 7c5c 9bbd 9cd4 823d 8c48 b6bc 2045 0abd
00000230: 1409 9bbd e678 9abd c6ef d3bb dda1 9c3d
00000240: 1ef3 103d e1fa fb3c 770d 28bd 136a a3bd
00000250: 55c0 6e3d c9d5 d13b 9cc3 09bd 6984 043c
00000260: a584 1dbc 7908 fcbc 28e6 733d e854 c0bd
00000270: d571 82bd cdcb 373d 9b1f 4ebd cc44 a53d
00000280: 4922 b8bb 06f9 5ebd 5b6f febd 3d9c 8b3c
00000290: c963 b6bd 72a8 e4bd 23dd dcbd a4e9 c83c
000002a0: 831d 44bd f8fe 13bd ce00 20bd cc3e 24bd
000002b0: f5de 2f3d 59a8 86bd 0a3c eabd b655 afbd
000002c0: dd8e 9f3d 04a3 48bd 501a 45bd 2cca 53bd
000002d0: a9ac e5bc d77d 9b3d 606b 843c bb35 c43d
000002e0: 3d44 68bd d9b9 243d 044c 573c 6d0e 893c
000002f0: 84b6 ddbd 4bc6 e9bc 96b7 92bd 003d 153d
00000300: 7f48 943c 1ab6 aabd a34f c2bc beb6 8b3d
00000310: cea1 5d3d f436 a4bd 6b96 a03d 7705 983d
00000320: b15a 883d 60b8 8b3d 604f 083c 3381 b7bd
00000330: e62d 41bd f95d bbbc f36b 42bd d974 75bb
00000340: 9d44 c23d 33d0 1fbd 90a9 8fbd 2c4f 1bbc
00000350: d6b2 363b 4787 fcbc c91e 423c 2c72 ce3d
00000360: a419 8a3d b844 92bd 471d 6ebd 4be6 7abd
00000370: b7af 213d 3194 8d3d a906 d5bd 33c5 333d
00000380: 5cc8 823d d0cf c13d 0424 a6bb f2fb bbba
00000390: 2abf b8bd cc78 ba3c 3e12 1cbd dced 953d
000003a0: 4e21 b23d 206d a9bd 4dcf 1bbd c619 e53d
000003b0: bc66 86bd 912e 743d de32 c9bd 6395 38bd
000003c0: 6f48 aabc f093 983d 4cd7 20bd 1c01 973d
000003d0: efaa 103c 5135 1b3e 2ad3 873c 53d1 35bd
000003e0: be8c 943b 2efe d5ba e08f e3bd fabc 053c
000003f0: be8b 37bd 1f3c cdbd 9186 96bd 12d7 ae3d
-0.09478495 0.012597916 0.08502184 0.01198638 -0.009677309 -0.04879741 0.04153605 -0.0672017
-0.0970719 0.08929003 -0.09348998 0.09376122 0.058983497 -0.033960715 0.0051910724 0.059853405
-0.078900345 -0.04944539 0.015334777 0.06730418 -0.0079885805 0.03657939 -0.080333136 -0.09206224
-0.012199013 -0.034233168 -0.06065271 -0.012792036 -0.0509405 0.026862485 0.041924804 0.04637014
-0.0052205212 0.07315824 0.05884233 -0.07703151 0.023065116 -0.03181792 -0.0046203793 -0.04101675
0.070069335 0.08731591 -0.035131868 -0.08813973 -0.030470686 0.038031448 -0.07638971 0.0038276492
0.017625496 -0.053883553 -0.032677084 0.07890813 0.055491664 0.048006617 0.012035043 -0.051808026
-0.08399921 0.03178615 0.09813878 -0.0020252778 -0.07081717 -0.063844286 -0.080142714 0.09848021
-0.02411235 0.03417437 -0.012694478 0.07485405 0.010758639 -0.002170709 -0.047261685 -0.099094726
0.0072041065 0.0032027536 -0.070070066 -0.07003088 0.07967575 0.09790889 -0.037635133 -0.059512604
-0.036971472 -0.028032009 -0.016188135 0.08501875 0.025531573 -0.044306748 0.022431992 -0.051642474
-0.084008306 0.01187961 -0.04039001 0.0014447587 0.059559755 -0.018359257 0.023592368 0.009371353
-0.03842318 -0.03624227 0.088440046 0.09437962 -0.05778719 -0.08848233 -0.08818367 0.02376043
-0.028559528 -0.025847312 0.008177821 -0.07930536 -0.046106905 -0.08734091 -0.048303477 -0.042549774
-0.10393345 0.06904522 0.03786257 -0.011007363 -0.013546152 0.009262741 0.040605903 0.023437405
-0.10586579 -0.10388404 -0.099857524 0.07539235 -0.011441861 0.07981298 0.057926506 -0.008152924
-0.071349196 -0.059707772 -0.0795317 0.058835164 0.04754946 -0.011561644 0.01779718 0.0019733154
-0.07585999 0.06388208 -0.02225139 -0.03375733 -0.07570091 -0.07542591 -0.006467792 0.076480605
0.035388105 0.030759277 -0.041028466 -0.079792164 0.05828889 0.006403659 -0.033633813 0.00808821
-0.009614144 -0.030765759 0.059545666 -0.093911946 -0.06369368 0.044872094 -0.05032311 0.080697626
-0.0056193215 -0.054436706 -0.12423583 0.017042274 -0.08905751 -0.11164941 -0.10784366 0.024525471
-0.047879707 -0.03613183 -0.039063267 -0.04009895 0.042937238 -0.065750785 -0.11437233 -0.0856127
0.07790921 -0.04898359 -0.048120797 -0.051706478 -0.028036432 0.075923614 0.016164482 0.09580561
-0.056705702 0.0402163 0.013140682 0.016730512 -0.10825828 -0.028536936 -0.071639225 0.036435127
0.018100975 -0.08335514 -0.023719614 0.06821965 0.054109387 -0.08018294 0.0784119 0.07422917
0.06657923 0.06822276 0.008319706 -0.0896019 -0.047162913 -0.022871958 -0.04746623 -0.003745368
0.09485743 -0.039016914 -0.07014763 -0.009479325 0.002787759 -0.030826224 0.01184816 0.1008037
0.06743172 -0.07142013 -0.05813339 -0.06125478 0.039474215 0.06913031 -0.10401661 0.043889236
0.06385872 0.09463465 -0.0050702114 -0.0014342053 -0.09020837 0.022762679 -0.038103335 0.07320759
0.086977586 -0.08272767 -0.038039494 0.111865565 -0.06562564 0.05961472 -0.09824155 -0.04506434
-0.020786492 0.07450092 -0.039267823 0.073732585 0.008829816 0.15157057 0.016580183 -0.04438908
0.0045333793 -0.0016326362 -0.11111426 0.008162731 -0.044811003 -0.10021233 -0.07349885 0.08537115

gru.weight_ih_l0_reverse f4 [300, 100]
00000000: 69dc 683d 587d 883d d241 853c 52f7 bfbd
00000010: d863 233d beb1 a83c 0aa4 0dbc 194a b53d
00000020: 0df4 a83d 6aa4 a93d 525b 273d 96f2 1f3d
00000030: 2101 73bc ea88 46bd ae5e dbb9 43da 0c3b
00000040: 3fd4 9fbd 36e6 c03c 991e 83bd 3853 42bd
00000050: 1341 c8bd 065c 333d c5b5 b1bd 9b00 9cbd
00000060: 8750 15bd 7ca4 84bd edd9 17bd e4ec 80bd
00000070: 5975 2cbc d0cf 293c a6cb 66bb 48d4 c5bc
00000080: 9f96 a5bb 9399 83bd 5cea b8bd b405 d4bc
00000090: 3e5f a3bd 6f0c 7bbd 2a7d 9cbd 71b9 ca3d
000000a0: 2c03 81bd 4151 9b3d 00cb d2bc 5d9f 36bb
000000b0: 68d4 003d 9e37 1c3c 0e96 a43c e937 4d3d
000000c0: 9a9b a5bd c55d 8dbc 5e0f 863d e696 ca3d
000000d0: ae12 ab3d 7e7b bd3d 1496 b5bd 5dd5 913d
000000e0: 129b ab3c bc7c 703d cc35 2fbd 488f 8bbd
000000f0: 3361 a93d c01c 073d c20d 5c3d 2446 c83c
00000100: ba1e 8f3a 41e9 9cbd c087 9d3d 7ac0 2ebd
00000110: e68d e4bc bad8 45bd ce17 a53d a121 a23d
00000120: 3ec4 1ebc 47b7 f5bc 4887 aabd e7ae 223d
00000130: 0f7d bdbd d3ed b0bd 700b debb cdd4 073d
00000140: ebb9 82bc 3d6a c0bc a412 1c3c fbb8 bb3d
00000150: cd86 ad3d b1e2 0a3c 490d 7e3d e7a5 963c
00000160: 2cf1 c7bd 97df bb3d 054e c1bd 8c3a 9a3d
00000170: e3d0 db3c ff97 96bc c77b ad3c 7916 c63c
00000180: 6e15 b13d 7d9b c13d e009 83bd b83e a53c
00000190: b12c 593d 91f6 103d 8926 1d3d f40f 0fbd
000001a0: 2547 64bd 9d48 143d f418 b23d 569e 7b3d
000001b0: eb7b 91bd 612f 58bd 3fbd efbc 91ad 403d
000001c0: 830b 783d a34c 94bd 4c81 acbd a346 4ebd
000001d0: 1f9c 2abd 2755 bfbd c2c6 57bd c492 963d
000001e0: 5233 c2bd 6d83 433d 8674 363c 999f 84bd
000001f0: 10bb 31bd ecff b83b 6fa0 003d 696b 033d
00000200: 27bf 1e3c 003f ad3d ae9c 99ba 2acf f43c
00000210: 112a 023c dc55 3e3d 8d6f 813d aa1d e3bc
00000220: 0be3 803d 8148 723d 4f83 b13d a62c 97bd
00000230: 6b2c a8bc 4331 94ba c27c 87bb fb0b 443c
00000240: ad56 61bc 53b5 523c b359 2fbd 7764 913d
00000250: 7dcc 553d be24 0abd 69cd 3f3d 94e2 543d
00000260: 63e1 9a3d 3814 6ebc 5e09 4f3d 9734 bc3c
00000270: 85aa 66bd a312 7c3d 5203 a43b f2fa b1bd
00000280: 70f7 b13c 7418 653d 8d2d 9f3d b297 1e3d
00000290: a538 a13d e8bb 49bd a2f1 80bc ec44 4dbc
000002a0: 64d0 3fbd 9c30 b53b e391 45bc c1bf a43d
000002b0: 3358 bb3d d65f e73c a557 bcbd 0955 323d
000002c0: 8501 af3d edd8 5fbd 07e4 8c3d 2c86 11bd
000002d0: 0ed4 3dbd 5320 2f3d fd2c 923d d64a 803d
000002e0: cbdf 9bbd faff 10bd 9002 84bd 2ee7 7bbd
000002f0: d615 ff3c abbc 073d 8191 c2bb 8b78 a83d
00000300: abc3 c03d 7590 67bc df85 343d 4f47 10bd
00000310: cd57 8fbd b3b5 abbc 1481 983d f62d 083b
00000320: f570 18bd 9111 c0bc 8df1 f2bb 44a0 a1bd
00000330: 42be 57ba 8fce 79bc 63f2 3a3d 87c7 92bc
00000340: ff5a 523c 1941 bd3d 4cdc fd3c 494b 28bd
00000350: 174a adbd 6d80 103d 56a9 183d dece 22ba
00000360: dad2 54bd 96e3 fabc 707c ccbc 7751 32bd
00000370: 9ed1 4f3d dce8 bdbc 359c 9e3c a737 c43d
00000380: 1cdc 8e3d 5325 fcbc ac90 ce3b 51cf a6bd
00000390: a856 4d3d 2f51 173c c404 6abd 013e c33d
000003a0: b738 7e3c ad0d aebd 3c05 70bd fc5c 1f3d
000003b0: 1e7e adbd 30f6 4bbd cf25 a43c 8173 8b3b
000003c0: 4458 003d 5073 9f3d b852 4abd 191f f5bc
000003d0: cc78 573d 41c9 cb3d 5916 953d 1efd 833d
000003e0: 7d69 b2bd 2c6b acbd 1512 95bd 9020 7d3d
000003f0: 6eda 7fbd 28bb cc3d d5d2 e0bc b380 7a3b
0.056850825 0.066645324 0.016266737 -0.093733445 0.03989014 0.020592567 -0.008645067 0.08852024
0.08249674 0.082833126 0.040858574 0.039049707 -0.014831812 -0.048470415 -0.00041841477 0.0021492399
-0.078041546 0.023547273 -0.064023204 -0.047442645 -0.09778037 0.043788932 -0.08677248 -0.07617303
-0.03645375 -0.064766854 -0.037073065 -0.06295183 -0.010526025 0.010364488 -0.0035216599 -0.024149075
-0.005053356 -0.06425776 -0.090290755 -0.025881626 -0.079771504 -0.061291154 -0.07641061 0.098986514
-0.06299433 0.07583857 -0.025731564 -0.0027865984 0.031452566 0.009534745 0.020091083 0.05010215
-0.08086319 -0.017256627 0.065459 0.09892063 0.08353172 0.0925207 -0.08866516 0.07120774
0.020947967 0.058712706 -0.042775914 -0.06814438 0.082704924 0.032986403 0.053724058 0.024447508
0.0010919191 -0.07661677 0.07691908 -0.04266403 -0.027899694 -0.04830239 0.08061181 0.079165705
-0.0096903425 -0.02999462 -0.08326584 0.03971758 -0.09252369 -0.08639111 -0.006776266 0.033161927
-0.015957793 -0.023488158 0.009525929 0.091661416 0.08472977 0.008476899 0.06202439 0.018389655
-0.09762797 0.09173506 -0.09438709 0.07530698 0.026833003 -0.018383024 0.021177186 0.024180638
0.086466655 0.09453485 -0.06398368 0.020171508 0.053021137 0.035391394 0.038366828 -0.034927323
-0.05573191 0.036202062 0.08696166 0.061430298 -0.071037136 -0.05277956 -0.029265044 0.047040526
0.060557853 -0.0724118 -0.08423099 -0.050360333 -0.041652795 -0.093424134 -0.052679785 0.07352212
-0.09482445 0.04773276 0.01113618 -0.06475753 -0.043391287 0.0056457426 0.031403 0.032084856
0.009689129 0.08459282 -0.0011719668 0.02988394 0.0079446 0.0464686 0.06320105 -0.027724106
0.06293305 0.059151176 0.08667623 -0.07381563 -0.020528993 -0.0011306185 -0.0041347453 0.011965747
-0.013753575 0.012860614 -0.042810153 0.0709924 0.05219697 -0.033726446 0.046826754 0.051973894
0.0756252 -0.014531188 0.050546043 0.022974296 -0.056314964 0.06154121 0.0050052786 -0.08690442
0.021724433 0.055931523 0.0777236 0.038718887 0.07872132 -0.049251467 -0.01574022 -0.012528639
-0.046829596 0.0055294763 -0.012058708 0.08044387 0.09147682 0.02824394 -0.09196404 0.043538127
0.08545212 -0.054650236 0.0687943 -0.035528347 -0.04634481 0.042755436 0.07137487 0.06264274
-0.076110445 -0.03540037 -0.06445801 -0.061499767 0.031138342 0.033138912 -0.0059377556 0.08226117
0.09412321 -0.014133562 0.044072982 -0.035224255 -0.069991685 -0.020960664 0.07446495 0.0020779348
-0.0372171 -0.023445876 -0.007414049 -0.07891896 -0.000822995 -0.015247001 0.045641314 -0.017917408
0.012839078 0.09240932 0.030988835 -0.041087423 -0.08461397 0.035278726 0.037270866 -0.0006210635
-0.051958896 -0.0306261 -0.02496168 -0.043534722 0.050737016 -0.023182325 0.019361595 0.09580927
0.06975576 -0.030779516 0.0063038673 -0.08145011 0.05013147 0.009235664 -0.05713345 0.09533311
0.015516452 -0.08498702 -0.058598742 0.038907036 -0.084713206 -0.04979533 0.02003756 0.0042557125
0.031334177 0.07785666 -0.049395293 -0.029922055 0.052605435 0.099504955 0.07279653 0.06444763
-0.087115265 -0.08418879 -0.072788395 0.061798632 -0.06246417 0.09996635 -0.027444283 0.0038223683

gru.weight_hh_l0_reverse f4 [300, 100]
00000000: f10d 5f3d 60f0 113d 0446 27bc 4139 543d
00000010: 1f2d f13c 7b94 c1bb 7000 8b3d 35d7 7fbd
00000020: bd70 b33a edc4 8fbc cc05 323d 5a52 b4b9
00000030: 3f47 4fbd 5b34 a8bd 5f39 5dbc 04a6 c33d
00000040: bea1 c53c fb9e 973d a2f5 fd3c 2093 2e3d
00000050: 7f65 16bc bc7d 983d 4dfc a33b a2ca b8bd
00000060: bfd0 cbbd 156d 373d d664 bebc dc9d ca3d
00000070: 82d9 97bd 8ef7 a2bd a469 ca3d ad37 73bd
00000080: 8631 52bd 2ca9 a23d 4e2e 00bc 5495 703d
00000090: 7614 aa3c 28ed 4e3d 7f8b 6f3d b424 903d
000000a0: 1935 89bd 1873 413d 960f 79bd 6eb4 3a3d
000000b0: 0c10 5a3d a978 363d 36e6 ccbb b48c 5c3d
000000c0: 0fc3 ad3d 39c9 8dbd 1e81 08bd 9de2 963a
000000d0: f11b db3c 21a8 763b c8a6 853d 8238 33bd
000000e0: c1bf 723b a5e4 6d3d 6d48 aebc 28d8 1dbd
000000f0: 9d61 843d c2b5 53bb c45f fdbc db86 19bc
00000100: 2c0c c0ba 8ea2 c9bc 8373 a1bd 2aaf 4abd
00000110: 8842 ed3c 82d0 ca3d bcfa aebd 4695 1f3d
00000120: e7cc 63bd 12cd 14bd 9e57 853d 6efe c7bd
00000130: 31de b03d 39aa 92bd 4104 413d 8d09 263d
00000140: 94bc e73c 92e8 873d e38f 1b3d 04c8 43bd
00000150: 8976 523d 98ca 2c3c 556c 3b3d 3ff2 48bd
00000160: f927 a4bd 6e6f 20bc 61ff bbbb e6ae 0b3d
00000170: c9c9 c43d 7859 11bd eff2 87bd 3f3c aabd
00000180: 304e 99bd 4066 bb3c e41d b5bb 6863 5a3d
00000190: 2f9d 503c 6fd1 6cbd 93cc a0bd 8dcb 9d3d
000001a0: 9ae9 aebd cf3f 4ebc 1f19 973d 44a3 dcbc
000001b0: ac8d a93d 12e9 103d 7c53 8a3c 84e2 b8bd
000001c0: b0f2 b8bd 7eb6 27bd 2534 8abd 539a bebc
000001d0: 322c b33c 2668 2f3d a2d5 a6bd 5771 a63d
000001e0: c80e 84bd ff96 263d 532d 8dbc 8778 b13d
000001f0: 5173 f13c a726 5ebd 0fe5 2fbd 628d 853d
00000200: 3586 dbb8 20f0 743b caba 26bd d4c5 8fbd
00000210: 53ff 8d3d ef91 4bbd 978c b3bd c66f eabc
00000220: ca68 2c3d c3d6 8b3a e58a 28bc b63c b03d
00000230: b474 13bd 2299 b33c 0856 cb3d e94e cd3c
00000240: ba3c bab9 8ecd 5c3d 122b 353c f9af 35bd
00000250: 7fc1 533d 9312 09bd 508e b2bd dc04 c7bd
00000260: 6d7b bbbc 6488 c23d de6e 4ebc 3128 7dbc
00000270: 34a0 013c fe4c d2bc 53c6 94bd a03b c2bd
00000280: 2004 8ebd 511f 8f3d cf96 b0bc d120 6ebd
00000290: 35d3 bdbc 7e39 aa3d c055 343c aca7 64bd
000002a0: e9b1 5539 ea96 9c3d 3f8f 8fbc b4d7 01bd
000002b0: 4eaf 31bd 7466 debb cf8f c53d 5f00 b3bd
000002c0: b2a0 4fbd 71ce 98bd 8c2d a53d 24b0 9a3d
000002d0: 9f2c 2abd 9346 a3bd c099 a3bd e327 74bd
000002e0: 0e38 99bd d4e1 1f3d 244e 2dbc d7c7 9e3d
000002f0: c35e 80bd 3c2f c5bd 8a0d 833d b2f2 63bd
00000300: bbfa 9d3d 4e44 3b3d 6e2d a4bc caff 40bd
00000310: 9e5b 01bd bf2c a7bd 2751 c6bc d5fd edbc
00000320: 42f8 943b 63aa 6c3d 72e7 32bd 5383 fdbc
00000330: e3d2 983c 5478 9d3d bdd3 9ebd d4e9 91bc
00000340: 7b7f bfbd 523e 99bc b0bf 51bd 946b cb3c
00000350: 9529 6a3b 814a 99bd e03c 9abd 6a38 65bd
00000360: fb56 d1bb bf86 9e3c 287f a93d 9eed aabb
00000370: 4c4c d43c 4079 80bc 1764 5f3d 3911 9cbd
00000380: 5fe6 133d cb8b 993d e9a7 46bd 55ef b83d
00000390: cd06 9ebd 56f3 643d ddd9 cb3d 75b2 0fbd
000003a0: d0d0 a8bd bc58 abbc 2333 afbd c1ba 983a
000003b0: 1ecc 4bbd 72a0 913c 1015 523c 65ae 81bc
000003c0: 9be1 a1bd bdaf 6ebd 22ad 1abd ded3 34bd
000003d0: 7e21 b8bd 7d5e 863d 0bcd b0bc 3270 ba3d
000003e0: 6786 353d 47a0 8dbd 1f28 903d 9955 8f3a
000003f0: b229 d23c c542 a83d 2fb2 903d be66 90bd
0.054456655 0.03562963 -0.010209564 0.051812414 0.02944046 -0.005907593 0.06787193 -0.062461097
0.0013690215 -0.017549956 0.04346256 -0.00034393632 -0.050605055 -0.08213111 -0.013502448 0.09553149
0.024124976 0.0740337 0.031000916 0.042620778 -0.009179472 0.07445857 0.005004442 -0.09023024
-0.099519245 0.044781763 -0.023241442 0.098933905 -0.07414533 -0.079573736 0.098834306 -0.05937927
-0.05131676 0.07942423 -0.00782354 0.05873616 0.02076171 0.05051914 0.058482643 0.070382506
-0.06699581 0.047228903 -0.06080588 0.045582227 0.05323796 0.044548664 -0.006253029 0.053845122
0.0848447 -0.06923146 -0.03332626 0.0011511628 0.026746722 0.0037636834 0.065259516 -0.043755062
0.0037040564 0.05807938 -0.02127477 -0.03853622 0.06463931 -0.003230438 -0.030929454 -0.009370531
-0.0014652065 -0.024613645 -0.0788336 -0.049483456 0.028962389 0.09903051 -0.085439175 0.038960718
-0.055615332 -0.036328383 0.06510852 -0.097653255 0.0863613 -0.07161374 0.047123197 0.040536452
0.028288163 0.06636156 0.037979018 -0.04779817 0.051382575 0.010546349 0.04575761 -0.04905915
-0.08015437 -0.009792192 -0.0057372306 0.034102343 0.096088 -0.035485715 -0.06638133 -0.08312272
-0.07485616 0.022875905 -0.005527245 0.053317457 0.012732788 -0.05781692 -0.078515194 0.0770484
-0.0854065 -0.012588455 0.07377838 -0.02693332 0.08278975 0.035378523 0.016885512 -0.090275794
-0.09030664 -0.040945522 -0.06748227 -0.023266947 0.02187166 0.042823933 -0.08146216 0.081270866
-0.06448132 0.040671345 -0.017233526 0.08665567 0.029473932 -0.05423608 -0.042943057 0.06521107
-0.00010467732 0.003737457 -0.04070548 -0.070201546 0.06933465 -0.04969972 -0.0876705 -0.02861775
0.042092122 0.0010668862 -0.010287021 0.0860533 -0.03599997 0.021923605 0.099285185 0.025062041
-0.0003552193 0.05390697 0.011057632 -0.044357274 0.051698204 -0.03346498 -0.0871855 -0.09717724
-0.022886002 0.09498671 -0.012599675 -0.015451477 0.007911731 -0.025671478 -0.0726439 -0.09484029
-0.069343805 0.06988395 -0.021556286 -0.058136765 -0.023172 0.08311747 0.0110067725 -0.055823967
0.0002037954 0.07645972 -0.01752436 -0.03169985 -0.043380074 -0.0067871157 0.0964657 -0.08740305
-0.05069036 -0.074612506 0.08065328 0.075531274 -0.04154646 -0.07972445 -0.0798831 -0.05960835
-0.07481395 0.039033726 -0.010577712 0.0775296 -0.06268074 -0.0962815 0.06399067 -0.055651374
0.07713839 0.045719437 -0.020041194 -0.04711894 -0.031581514 -0.081628315 -0.024208618 -0.0290517
0.004546196 0.05777968 -0.043677755 -0.03094641 0.018655246 0.076889664 -0.077552296 -0.017811693
-0.09350487 -0.018706474 -0.051208198 0.02483157 0.0035730351 -0.074849136 -0.07531142 -0.055962004
-0.0063885427 0.019351361 0.08276206 -0.0052163145 0.025915287 -0.015682817 0.054538812 -0.076204725
0.03610837 0.074973665 -0.048499975 0.09030024 -0.07716141 0.055896126 0.099536635 -0.0350823
-0.08242953 -0.020916335 -0.085546754 0.0011652337 -0.04975521 0.017776702 0.0128224045 -0.015830228
-0.07904359 -0.058273066 -0.03776277 -0.044147365 -0.08990763 0.06560991 -0.021582147 0.09103431
0.04431763 -0.06915336 0.070389025 0.0010935544 0.025654647 0.0821586 0.07065236 -0.070508465

gru.bias_ih_l0_reverse f4 [300]
00000000: fda2 09bc f477 bd3d 0605 03bb b334 813c
00000010: cc83 613d 7bba a63d ce08 293d 5af5 6a3d
00000020: 4ca0 a7bc 3213 a6bd 67c4 653d 2750 c7bd
00000030: 7b28 9cbd 2f9a 643c 16c1 1fbd 3e5c 063a
00000040: 5563 b63c 31bb d1bb eab0 153d 7556 b63d
00000050: ae3a 283d 0814 963d f5e2 213c edde 21bd
00000060: 7bd2 44bd c597 0f3d ff6d 3fbc 512a b4bd
00000070: afba 9ebc bbad ad3d a519 95bd 445f d63c
00000080: 8edd 263c 047f 823a d522 9dbd 55a4 64bd
00000090: bff5 f53c 2b6d 9e3d 0778 bc3d 653b 9c3c
000000a0: d10b 88bd f747 823d f18b 07bd ccdb c83d
000000b0: a0af 2fbc 45db 243a 36fb 0dbd 50b1 57bc
000000c0: ab22 74bd 2bdf 2d3d 2e03 8fbc be25 aabd
000000d0: 4228 86bc 4340 b13c 6298 13bd 0b58 273d
000000e0: 0b79 893c 6af0 a0bd dd96 8f3c 81ff b9bd
000000f0: 740b 53bd a03f 2d3d 04ad 61bd 43f7 f5bc
00000100: 9601 133d 7255 36bc 68b7 c43c 501b 713c
00000110: 9e49 90bd fa69 9cbd 640e 32bd c3d2 533d
00000120: 98ac 143c e061 bfbd d787 67bd 79dc 61bd
00000130: 7203 b4bc f97f 293d 30de 29bd 7990 ca3d
00000140: 70f6 543c 701b a03d 46a6 703d bedd 33bd
00000150: 5ff5 babc cc52 7bbd 0025 a43d a2eb 4fbc
00000160: 29e5 adbc ca4e bcbb 9f40 6dbd 0fdd 21bd
00000170: 06fd 32bc 1d12 fb3b dc5c 823d ab2e bc3d
00000180: d53e c8bc f95d ffbc 94ec 41bd 635d 0dbd
00000190: a24a 9cbd ad4b d8bc 4950 863c af1b 16bd
000001a0: e993 c33c 344e 193d 6e1a 883b af9d 39bd
000001b0: 28ab 113d 0dfb 173c e1da 533d 483e ae3d
000001c0: c9bc 323d 7bc7 b8bd f060 c1bd bb3b 063d
000001d0: d591 eabd 6560 0bbd 30ff 09be 2640 ebbd
000001e0: d0f7 9abd 5213 ee39 277b be3d 2280 8c3b
000001f0: 7932 bcbc 905c 14be b43f c2bd a88f bfbd
00000200: 203d c7bd b38c 5b3d 33cd 34bd 6ebc 5e3d
00000210: 0f8f 0e3d 9f9e 443d dd45 cdbd e158 a23d
00000220: efb6 b9bd 81f6 c03d 19e9 c9bc 4356 333d
00000230: 8745 843c 7f36 3ebd ba4d 0a3b c8d7 a5bc
00000240: 93e9 b43c 7d2d 82bd b8c4 b23c 8eaf 503d
00000250: 8991 163d 6b61 bb3d d526 bcbd 04ad c13c
00000260: 5274 fe3c 6816 92bd 9068 4ebd 837e c53d
00000270: 4e1c 95bd 609f 30bd 18a6 e7bb da46 763b
00000280: ef11 8f3d b8ae 6c3c a578 50bd e28d 283d
00000290: 10cc 0cbd e445 663d 789a fe3c ad09 b8bd
000002a0: 274e ac3d 2b99 a3bd 22f2 1f3c b2db ef3c
000002b0: 189b 1dbd bfcb dcbd b148 673d a930 a0bd
000002c0: 29b3 d63c 55b8 81bd 0182 593d 99bd a8bd
000002d0: acb0 ab3d 43bd 9abd dd8e 5d3d e9ec e53c
000002e0: 0f22 1c3d 8a28 74bc 1319 603c 8371 543d
000002f0: 3e7c c63c cfad 1cbd 9c4e b93d 7378 963d
00000300: f27c 3b3d 04fe 5fbc b6b9 483d b3e0 083d
00000310: f122 94bc fc86 09bc e485 4abd fb48 8d3d
00000320: aeb7 eabc 24f5 833c 0f2f 3abd d84a 31bd
00000330: 77d4 c83d 6ea6 833d a3f9 c4bc a462 95bd
00000340: 5d40 a43d 1cc9 b73c 255a 4bbd a4cc e9bd
00000350: 65b4 693d 0629 a53d 7578 10bd e468 d8bd
00000360: a440 73bd eaec a43c 7086 dd3d 2bab c1bd
00000370: 9ec9 d4bd e0ea 8f3d ad58 19bd 0f91 273d
00000380: ad63 293b 7f02 a2bd 8642 c13d 3dfa dd3d
00000390: c188 a6bd 20a7 78bc 46c8 26bd 230d 443d
000003a0: ec94 0fbb 007e 943d 5234 f2bd 48ee 853c
000003b0: b364 6bbd 558c d93c 62f7 a83d d81b 0d3c
000003c0: b243 cb3d 67a0 9a3d f062 8cbd 4efa 94bd
000003d0: 9a81 bcbd 762e b5bd d78d 8ebd c545 33bd
000003e0: a80d 1b3d be87 4ebc 9308 853b 31bc 51bd
000003f0: 01c0 3a3c bd35 a5bb 5897 053e b6ba 743c
-0.008400676 0.09251395 -0.0019992008 0.0157722 0.055057332 0.08141037 0.041268162 0.05736289
-0.020462178 -0.0810913 0.056095507 -0.09732085 -0.076249085 0.013952776 -0.0390025 0.00051254395
0.022264162 -0.006400489 0.03654567 0.08903209 0.041071586 0.073280394 0.009880771 -0.03951924
-0.048052292 0.035056848 -0.01168394 -0.08797134 -0.019376127 0.08480402 -0.07280282 0.026168473
0.010184659 0.0009956066 -0.07672659 -0.05582078 0.030024407 0.07735666 0.09202581 0.01907129
-0.06642879 0.063613825 -0.033092443 0.09807548 -0.010723025 0.0006288777 -0.0346634 -0.013164833
-0.059603374 0.042449158 -0.01745757 -0.0830798 -0.016376618 0.021637088 -0.036033995 0.04085545
0.01678135 -0.07858355 0.017527992 -0.09081937 -0.051524594 0.042297006 -0.05509664 -0.03002513
0.035890184 -0.01112877 0.024013236 0.014715984 -0.07045291 -0.07637401 -0.043470755 0.05171467
0.009074353 -0.0934484 -0.05652603 -0.0551419 -0.0219743 0.04138181 -0.04147166 0.09890837
0.012998208 0.07817733 0.05875232 -0.04391264 -0.02282208 -0.061358258 0.0801487 -0.012690457
-0.021227436 -0.005746697 -0.057922956 -0.03951746 -0.010924583 0.0076620714 0.06365368 0.09188589
-0.024444023 -0.03117274 -0.04734476 -0.03451289 -0.076314226 -0.026403273 0.016395705 -0.036647495
0.02387424 0.037428096 0.0041535413 -0.045316394 0.035563618 0.009276164 0.05172241 0.08507973
0.04363707 -0.09022423 -0.094423175 0.032771807 -0.114535965 -0.034027476 -0.13476253 -0.11486845
-0.07566798 0.00045409292 0.09300833 0.0042877356 -0.022973286 -0.14488435 -0.09484807 -0.09353572
-0.097284555 0.053600978 -0.044141006 0.05437892 0.0348044 0.048002835 -0.10023091 0.079271086
-0.09068095 0.09422017 -0.024647282 0.043783437 0.016146434 -0.04643869 0.0021103458 -0.020244494
0.022084033 -0.063563325 0.021822318 0.050948672 0.036759887 0.091494404 -0.09187094 0.02364207
0.031061325 -0.0713318 -0.050392687 0.09643271 -0.07280789 -0.04312074 -0.0070693605 0.0037578852
0.069858424 0.014445953 -0.050896306 0.041150935 -0.034374297 0.056218997 0.031079516 -0.089862205
0.08413344 -0.07988199 0.009762319 0.029279564 -0.038477987 -0.10781049 0.05646581 -0.07821781
0.026208477 -0.06333987 0.053102497 -0.08239288 0.08383307 -0.0755563 0.054091323 0.02806707
0.03811842 -0.014902243 0.013677853 0.051866066 0.024229165 -0.038251694 0.09048197 0.073471926
0.045773454 -0.013671402 0.049005233 0.033417415 -0.018083068 -0.008393999 -0.049444094 0.068986855
-0.028652038 0.016108103 -0.045455035 -0.043284267 0.098061495 0.06428228 -0.024044817 -0.07294205
0.08020089 0.022434764 -0.049646515 -0.11415985 0.057056803 0.08064465 -0.035271127 -0.10566881
-0.059387818 0.0201325 0.108166575 -0.09456476 -0.10390018 0.07027221 -0.037438083 0.040909823
0.0025846765 -0.07910632 0.094365165 0.10838745 -0.081315525 -0.015176564 -0.04071834 0.04786409
-0.0021908833 0.07250595 -0.118263856 0.016348973 -0.05746908 0.026556173 0.082503095 0.0086125955
0.09925021 0.075501256 -0.06854808 -0.07274304 -0.09204407 -0.08846752 -0.069606476 -0.04376771
0.03785482 -0.012605606 0.00405986 -0.051204864 0.011398316 -0.0050418065 0.13046014 0.0149370935
