parameter/crf_lstm_parameter/Bigru_1.ckpt (torch_old, 578202 bytes, 12 tensors)

gru.weight_ih_l0 f4 [300, 100]
00000000: ac12 46bd 1722 983d 267f 4a3d 5db6 0e3d
00000010: d7e7 723c 8d12 4abd a9fc b43d 0e77 9c3c
00000020: b72e 173d 0269 47bd 10bf 5a3d eb1f debc
00000030: eed7 9dbd 9c5d fabc 88cc 883d 477d 2dbd
00000040: 69ff 71bc b901 71bd 3eaa 69bd 6c78 643d
00000050: f451 bfbd 9c97 abbd db92 ae3d 12a1 4cbd
00000060: f968 a53d 4f17 cabd 5cb8 f63b 7be7 bebd
00000070: 6664 a1bd d947 ab3d 2e6b 033d 8af0 9cbd
00000080: c7d6 05bd 837c 55bd fe05 e7bb 1be8 cabd
00000090: 1908 80bd ceff f93a 0df4 8d3d 4a81 0f3c
000000a0: 9786 49bd 370c d0bc 2c86 6abc 6e0d c23c
000000b0: c539 72bb 93a0 4dbd 325b 0b3d 6778 2b3d
000000c0: a7cf a3bd 077e 47bd 70d7 f5bc ec3d 97bd
000000d0: 008a abbc 000f 783d f919 bebd e830 5b3d
000000e0: 3474 bc3c dcf6 873d 9523 aa3d 4e2a b1bc
000000f0: d965 813b 8f91 42bd 11e4 c2bd cde2 81bd
00000100: b918 b43d 3de4 7d3d a8cb ba3d b432 27bd
00000110: 76d1 1ebd 3c4a ab3d 3a1c b1bd 1252 b23c
00000120: 6844 3dbd 8750 5d3d d0ef b33d 6061 c2bd
00000130: d48c a43d d2d7 97bd a71f 5b3b 4075 8e3d
00000140: 6138 8a3c f6fe 41bd 3f70 59bd e4d0 57bc
00000150: 34fd aaba f81a ae3c a1ee a9bb f128 b13c
00000160: cc68 0b3d e0e6 a5bd c140 7dbd eaa6 0e3d
00000170: 414b 2c3b e6f2 e0bc b8a0 b03d bdf7 36bd
00000180: 2c02 5abd 5f66 92bd be66 b8bd b7b2 b7bb
00000190: e6af bf3d 4c5d 123d 611d b33d f116 c63b
000001a0: 0fad 173c a7d5 61bd 93ea 813d f438 3f3c
000001b0: c227 a63d 2c0f e7bb 16ed 193d 30f1 c5bd
000001c0: 0e19 94bd 29b0 1cbd c541 403d 5bc1 97bd
000001d0: 6ab8 b3bc f4ba c83c c0cc 82bc 0956 68bd
000001e0: afe0 91bd 2115 3fbd dca5 42bd 128e c23d
000001f0: 420b 84bd 20a8 64bd f8be 90bd c3ed 863c
00000200: 956d 03bd 56c4 813d 0e8f 083c 01da 89bd
00000210: ecec 5a3d 8178 e1bc 710c c7bd 9117 9fbd
00000220: 8f83 88bd 570a c5bd 3212 3c3d 1b81 533d
00000230: eadc 0fbd 6536 b83d f32d dc3c 7c8b 743d
00000240: 58a9 4a3d 94df 0ebd cd1f 373d cc83 4b3c
00000250: 45ea 8f3d 9eec 28bd 12ab 013d e4c8 ac3c
00000260: 0b3c a53c 0fca 50bd 850a 16bd 1126 9b3d
00000270: b2e1 683d 1905 16bd fd54 c73d 3ad2 b63d
00000280: 4d28 9e3d 7223 973d 1d09 a4bb fbc9 703d
00000290: 6f62 48bd d57f 5ebd ce2d 13bd 76de 963c
000002a0: 749c 633d ed5f b7bc 8faf c7bc 53eb 9f3d
000002b0: b62b 98bd fb77 72bb 5510 ba3d 40f7 8fbc
000002c0: 1928 ba3d 5f98 e63c 9a49 fcbb 0676 ac3d
000002d0: aee4 81bd ee80 84bd b9d0 74bd 01a3 8cbd
000002e0: 7de9 563c 2f80 85bc 5bb2 8e3d 560e 223d
000002f0: 2be6 a33d bd4e c33d be0c 2dbd c047 5cbc
00000300: 080d 26bd 7321 aabd ee07 b6bd 0928 a03d
00000310: 71e0 383d 4051 93bd e6e2 9c3d 489d 64bc
00000320: 59f1 183c 826b 1b3d 63f4 bfbc d052 c03d
00000330: 6737 123d 280c 1d3d e8cc 2d3c 8fad c83b
00000340: 24e0 edbc 8000 87bd a839 84bd 16de 7bbd
00000350: 0a60 99bc 939c 21bc 5f40 5bbd f673 c53c
00000360: a9c7 733d 4170 aabd 3be8 d13c e201 9d3b
00000370: 9ef0 a5bd c6bf 47bd cc38 4f3c 1532 2b3d
00000380: e64c 1cbc 64a1 a3bd c457 3cbd c58b 5d3a
00000390: 4e5f 75bd 2b97 923c c471 443d 13f1 b53d
000003a0: d686 523d acf4 19bd fa5d 163c a822 55bd
000003b0: f661 9e3d ca1b 83bd 3fcd 643c c2a5 8bbd
000003c0: b3ef c1bb 4087 ccbd 11bc 293c d518 303d
000003d0: 70d7 34bd 8c7c c73d 31ee 39bd 5367 4e3d
000003e0: 21d4 3a3c 34de bfbd a1ef ee3c 75ab cb3d
000003f0: adf0 b3bd c57c 8b3d 90e9 933d e3c0 74bc
-0.04835765 0.07428377 0.049437664 0.034841884 0.014825783 -0.049334098 0.088372536 0.019099738
0.036909785 -0.048684128 0.053404868 -0.027114829 -0.07707201 -0.030562215 0.06679636 -0.042355802
-0.014770367 -0.058839533 -0.05704712 0.055778906 -0.09341803 -0.083785266 0.08524104 -0.049958296
0.080766626 -0.09867727 0.0075293016 -0.09321495 -0.078804776 0.08363313 0.032084636 -0.07663067
-0.03267553 -0.052120697 -0.007050275 -0.09907552 -0.062515445 0.0019073428 0.069313146 0.008758852
-0.04920062 -0.02539645 -0.014314216 0.023688044 -0.0036960703 -0.050201964 0.034022518 0.04186287
-0.07998591 -0.048704173 -0.030009955 -0.073848575 -0.020939827 0.06056118 -0.09282298 0.053513438
0.023004629 0.066388816 0.08307568 -0.021626618 0.0039489088 -0.047502097 -0.095161565 -0.06342087
0.08793778 0.061985243 0.091208756 -0.04081984 -0.038773976 0.083637685 -0.08647962 0.02176765
-0.046207815 0.054031875 0.08785975 -0.09491229 0.08034673 -0.07414211 0.0033435614 0.069559574
0.016872587 -0.04736229 -0.05308556 -0.013172362 -0.0013045431 0.021253094 -0.0051859175 0.021625968
0.03403549 -0.081006765 -0.061829332 0.03482715 0.0026289972 -0.027459573 0.08624405 -0.044669855
-0.053224728 -0.07148432 -0.090039715 -0.0056060213 0.09359722 0.035733506 0.08745838 0.0060452153
0.009257569 -0.055135395 0.063435696 0.0116712935 0.08113052 -0.007051369 0.03757962 -0.096651435
-0.07231341 -0.038253937 0.046937723 -0.074099265 -0.021938521 0.024503209 -0.015966773 -0.056722675
-0.07122933 -0.04665101 -0.047521457 0.09499754 -0.0644746 -0.0558244 -0.070676744 0.016470795
-0.032086927 0.06336276 0.008334888 -0.06731034 0.053448603 -0.027523281 -0.0971917 -0.07768167
-0.06665718 -0.09621113 0.04591579 0.051636796 -0.03512279 0.0899475 0.026877379 0.059703335
0.049477905 -0.03488119 0.044708062 0.01242156 0.07027105 -0.04124128 0.031657286 0.021091886
0.020170232 -0.050973948 -0.036631126 0.0757562 0.056855865 -0.036625955 0.09733007 0.08926816
0.077225305 0.073798075 -0.005005969 0.058786374 -0.048922 -0.05432113 -0.035932355 0.018416625
0.055569127 -0.022384608 -0.024375705 0.078085564 -0.07430212 -0.0036997783 0.09085146 -0.017573953
0.09089679 0.028148828 -0.0076992037 0.08420949 -0.06342445 -0.06469904 -0.059769366 -0.06867028
0.013117191 -0.016296474 0.06967612 0.039564453 0.080028854 0.095365025 -0.04224848 -0.013444841
-0.04053977 -0.08307161 -0.08888231 0.07820136 0.04513592 -0.071932316 0.07660465 -0.013953514
0.0093348855 0.037944324 -0.023431962 0.09390795 0.035697367 0.03834167 0.0106079355 0.0061242054
-0.029037543 -0.06591892 -0.064563096 -0.061491095 -0.018722553 -0.00986399 -0.053528186 0.024103146
0.059516583 -0.08322192 0.025623431 0.004791484 -0.08102535 -0.048766874 0.012647819 0.04179581
-0.009539818 -0.07989767 -0.045982137 0.0008451308 -0.059905343 0.017894348 0.047960058 0.08883872
0.05139812 -0.037586853 0.009177679 -0.052035004 0.07733528 -0.06401785 0.01396495 -0.06818725
-0.005918467 -0.099867344 0.01035978 0.04299243 -0.04415077 0.09740552 -0.045393173 0.050391506
0.011403115 -0.09368554 0.029166998 0.09944812 -0.0878614 0.06810907 0.07222283 -0.014938566

gru.weight_hh_l0 f4 [300, 100]
00000000: b206 0a3d 1aa7 be3d 9cfa e9bc 5caf bdbd
00000010: c71d b83d c546 1c3c 9dc8 a93d d725 283a
00000020: 0c9e 8e3d 1133 993d dc23 f83c 8f14 c73d
00000030: 946e b43d a3b0 8bbd 4254 5cbd 3fc9 203d
00000040: a7c5 1ebd 8af6 8abd 44fd 44bc aef6 a73d
00000050: 5ccb 333d c4fc 67bd 62ef 7f3d 52d7 94bc
00000060: 2986 bcbd 0a0a 93bd cfbe b1bd 8740 36bd
00000070: bb6f a13d 85b4 633d 8106 9a3d 0530 adbd
00000080: 49cb 653b a126 2c3b b2fe adbc 7698 93bd
00000090: 94dc 3bbd 73f1 393d 3a17 c13d 2763 383d
000000a0: 5802 bcbc 87b0 653d 1aad 063d e60d c43d
000000b0: 1c3a c33b 4fc0 ff3c a9fe 67bb f85c 3a3d
000000c0: 22f2 ccbd 81bd 14bd bbaf 433d 7cbb 993d
000000d0: 6b8a 443d ce7e d8bc f455 98bb 50be e9bc
000000e0: 8c19 433d 4997 bc3d 7c35 293d 5c4e c9bd
000000f0: c974 a43c b575 b53c 9825 9a3d afac 6ebd
00000100: ff87 c23d d137 a73d 91f9 93bd c22e eebc
00000110: fd67 29bd b315 9f3d c7f4 0a3d 01be 1fbd
00000120: 8111 bfbd c069 f33c 24b2 d2ba 567e b23d
00000130: 88f1 6d3d 6a25 e0bc a2e5 acbd f3bf 803d
00000140: 0d8a 0b3b 0051 d93c a506 463d 8aa7 313d
00000150: 9916 94bd 2a0a 03bd 4f65 8f3d 5a7b 3f3b
00000160: 2e6f 4ebd 488c f33a 6b62 073d f6db 1b3b
00000170: 8ea4 bb3d 2be6 fe3c 399d bcbd 1469 ba3d
00000180: 4e5e 8abd b023 d93c 1250 b93d 4feb fcbc
00000190: 7e1f 0e3d a0ab 313c 0686 debc fc92 633d
000001a0: 1e9e a9bb df8f 833d 7e5b 73bb c5e9 b03d
000001b0: be4d 263d 519f 4fbd 1db4 99bd 7191 ebbc
000001c0: 7630 c13c 25c4 c63d d41b d6bc fd0f 1ebd
000001d0: c9f1 c8bd 4f3a 493d 14b8 94bd bcea c33d
000001e0: 4ccd 03bd 834a 3a3d 5fc2 b53c 01fb 41bd
000001f0: 5bd8 8bbc d55b 143d 12d3 2dbd bc76 1e3d
00000200: 4ae2 54bc c99e a7bd 6bf5 4a3d f7de 66bd
00000210: b2ad 283d d12f 1b3d 1213 803d e434 033d
00000220: 42bd 4cbc 0fe3 32bd 349b c0bd 4015 a3bd
00000230: 347d 36bd b41d aabd b561 983d 4d55 07bd
00000240: 8c9a e9bc 10ed a4bd 2dbb 843c 046d 6ebd
00000250: 9ee8 333d d26f d1bc 9be0 903d f49c 7d3d
00000260: 729a 7b3d 4ad9 433c 1963 2c3b 859b 20bd
00000270: 771b af3d 98dc 763d ec55 783c dd71 01bd
00000280: 54f5 b13d 726c 603c e3ff a6bc 1d3e 2b3d
00000290: 218e 323d 6d63 853c 2994 bd3d 17a5 76bc
000002a0: a131 923d 3255 133d d5af 4cbd e115 223d
000002b0: a370 46bd fe4e 77bd b92b 9bbb 98b5 b2bd
000002c0: f22c c4bd 1e6d a9bd 8d13 e7bb 0086 7ebd
000002d0: 9ab0 223d 7d2a a2bd e635 8b3d f352 33bd
000002e0: 3f5f d13b 25cf ab3c 973e 13bd f226 d0bc
000002f0: a9b0 babc 8b6d 233c 3223 9fbd 1f5d cb3d
00000300: 1ac4 9a3d d7e0 c23d 72ba c73d f816 aabc
00000310: f18c c2bd 41a0 9ebd 9a34 90bb 9e0c aebd
00000320: ff9f 8abd 9159 36bd e8f7 843d e401 293d
00000330: a0a4 6d3d a2d9 b23d c4cb 9f3d 4d80 ef3c
00000340: c43d 87bd 7de7 16bb 7988 a8bd 5d4b 973c
00000350: ed0e b73d 4b06 3d3d d53f 44bd 914d f23c
00000360: 1d2a 073d 53c5 d03c 12bb b43d ba77 65bd
00000370: ec7d aa3d 8cef 3ebd bd62 0e3c a756 50bd
00000380: fb63 a2bc a93e 4f3d fa9b b1bd 2214 433c
00000390: 479b 86bd a016 94bc 06bd bdbd b5de 7cbd
000003a0: 2ac9 f13b c7ff 48bb 2c67 b33d f75c 663d
000003b0: f992 323d 2f24 bb3d 6f71 95bd b138 bdbb
000003c0: 38f8 a3ba e13a 84bd 7e0e a3bd db0d ae3c
000003d0: 19cb 843c ff80 24bd b504 4bbd 8eac a7bd
000003e0: 6b52 3fbc 66b7 2a3c 1419 5f3d 4d06 e23c
000003f0: 6f9d a3bd e87b 453d adeb 87bc 1525 3dbd
0.03369779 0.09309216 -0.028561883 -0.09261963 0.089900546 0.009538357 0.08290217 0.000641433
0.06963739 0.07480443 0.030290537 0.09720718 0.088101536 -0.068208 -0.053791292 0.039254423
-0.038762715 -0.06785305 -0.012023274 0.08201347 0.04389511 -0.05663754 0.062484153 -0.018169079
-0.092052765 -0.07179649 -0.08678972 -0.04449513 0.07882639 0.05559208 0.07520772 -0.084564246
0.0035063794 0.0026268142 -0.021239612 -0.07206814 -0.045864657 0.04539628 0.09428258 0.045016434
-0.022950336 0.056076553 0.032879926 0.095729634 0.005957855 0.03121963 -0.0035399592 0.04549882
-0.10007121 -0.036313538 0.04777501 0.07506463 0.04798357 -0.026427653 -0.0046489183 -0.02853313
0.047631785 0.09208543 0.041310772 -0.09829399 0.020075219 0.022150854 0.07526702 -0.058270153
0.094985954 0.08164943 -0.072253354 -0.02907503 -0.041358937 0.07767811 0.033924844 -0.03899956
-0.093295105 0.029713511 -0.0016074819 0.08715503 0.05809167 -0.02736159 -0.084422365 0.062866114
0.0021292001 0.026527882 0.04834618 0.04337267 -0.07230873 -0.031992115 0.07001745 0.002921781
-0.050398998 0.0018581236 0.033052843 0.002378223 0.09162246 0.031115612 -0.09209675 0.09102073
-0.067562684 0.026506275 0.09048475 -0.030873923 0.034698002 0.010844141 -0.027163517 0.055560097
-0.0051763197 0.064239256 -0.003713339 0.08638338 0.040601484 -0.050689045 -0.07505057 -0.028755875
0.023582678 0.0970538 -0.026136316 -0.038589466 -0.09811742 0.049127873 -0.072616726 0.095662564
-0.03217821 0.045481216 0.02218741 -0.047358517 -0.01707094 0.03622039 -0.04243762 0.038687453
-0.012993405 -0.08184583 0.049550455 -0.05636498 0.041181274 0.0378874 0.062536374 0.032032862
-0.012496294 -0.04367357 -0.09404603 -0.079630375 -0.044552997 -0.08306447 0.07440511 -0.033040334
-0.028516077 -0.080530286 0.016202534 -0.058209434 0.043923013 -0.025566015 0.0707409 0.06191726
0.061426587 0.011953661 0.0026304184 -0.039210815 0.085501604 0.06026897 0.015157204 -0.03160273
0.08689371 0.01369773 -0.020385688 0.041807283 0.043592576 0.016282761 0.09256775 -0.015054009
0.07138372 0.03596992 -0.049972374 0.039571647 -0.048447262 -0.060378067 -0.0047354368 -0.087260425
-0.09578885 -0.082727656 -0.007051891 -0.06213951 0.0397192 -0.0791826 0.0679739 -0.04378028
0.006389528 0.020972798 -0.035948362 -0.025409196 -0.022789316 0.009974848 -0.07770385 0.09929871
0.07556935 0.09515541 0.097523585 -0.020762905 -0.09499539 -0.0774541 -0.004400802 -0.084985
-0.06768798 -0.04451901 0.06492597 0.04126157 0.058018327 0.087329164 0.07802537 0.029235983
-0.06603578 -0.0023026161 -0.08229155 0.018468553 0.08938394 0.04614858 -0.047912437 0.029578002
0.032999147 0.025484717 0.08824743 -0.056022383 0.08324799 -0.04661517 0.008690533 -0.050863888
-0.019823065 0.050596867 -0.08672328 0.0119066555 -0.065725856 -0.018077195 -0.09264569 -0.061735827
0.007378717 -0.0030670033 0.08759913 0.056241002 0.043597195 0.09137761 -0.07297026 -0.0057745804
-0.0012509888 -0.06456543 -0.079617485 0.021246841 0.016210126 -0.040162083 -0.049565036 -0.08187209
-0.011677365 0.010419702 0.054467276 0.027590895 -0.079890124 0.04821387 -0.016591871 -0.046177942

gru.bias_ih_l0 f4 [300]
00000000: c53c 1bbd 22a9 b53c 7ef6 d73b 8bdd 85bd
00000010: 3ec9 92bd 16c3 a03c 6ebf f53c 4acd a5bd
00000020: 28d4 89bd f90b 8dbd 5b89 c3bb 6fe3 5b3c
00000030: a3d0 b23d 5f3f 40bd bda9 2fbd ef72 3abd
00000040: b501 8a3d 1978 67bd 8d20 53bd 591d b63c
00000050: 9be0 ca3d 98ee e1bc c1a2 c93d 4f1a c53d
00000060: 4466 893d ff25 e4bc 94ea c6bd 11aa cfbb
00000070: 0dd2 c1bd 84df a3bc 1eb2 333d a5df c9bd
00000080: f010 a03d 0fdb b13d 8d54 913d 6263 c5bd
00000090: cd0d be3d 1765 0bbd a728 bfbc 90f4 583d
000000a0: 59ae 433d e696 d3bb 3484 20bd f103 3fbd
000000b0: acb4 fe3c 20ec 9ebd 1c94 8abd 4d66 723b
000000c0: 0026 363d 59d1 9c3d 9a9e 983d de76 4f3d
000000d0: be54 d93d dca0 58bd 62a1 c9bd d985 dcbc
000000e0: c534 953d b9c5 4fbc aac0 9b3d 64e4 4bbd
000000f0: ca2a eabc 8642 783d 70a3 87bd b270 473d
00000100: aead b73d aadb 073d 8f08 463d de98 703d
00000110: 8e8a 043d 8e48 a63d a127 4fbd 4f38 083d
00000120: f661 9dbd 0d69 bd3c b363 a73d 9cc4 823d
00000130: 2457 d03b 34d1 0c3d a003 47bd 8c14 2fbb
00000140: e82b e03c 078c c1bd 2b55 b03d 4c61 ac3d
00000150: 09d0 783d 11aa 5dbd 994b b13d dfcf fcbc
00000160: 3e46 813c 2bd8 2cbd ff4c 953d dc19 15bd
00000170: a392 18bc 22bc 9439 8c8f 99bd 49b5 0fbd
00000180: 637c c93c 5f8f 2b3c 6fdc 99bc 19fb fa3b
00000190: 34ff e93c 83e2 ccbb d6ef a1bd a293 a6ba
000001a0: 801e 0d3d 1a14 873d 61f3 b63d 823d 853d
000001b0: 66e1 f3bb 69a7 7cbd e3f8 8bbd 304f c83d
000001c0: 2fe9 473c b33d 9abd 35cc 3ebd 0712 aabd
000001d0: 3bb9 643d 33f1 653d 7450 56bc 32c9 3b3c
000001e0: efea f5ba 583c 8cbd 1571 47bd 1f09 4c3d
000001f0: 85a1 133d d4d3 a3bd 4ee9 4c3d 5fdf 8ebb
00000200: a8aa eb3b ed7a 93bb 8691 d1bb 2e7d 33bd
00000210: 82a7 473d 1415 bdbc 3a82 05bc 9ab7 153d
00000220: 7463 3cbd d9f7 923d 5e68 ed3c e202 b0bd
00000230: 4e8b 8fbd be2a 1e3d d5e8 40bd 9798 f13b
00000240: 3090 a8bd ff9f 6c3d a556 f4bc 2eba 4bbd
00000250: da23 4dbc 0906 cabd 590c ab3d 52db 973d
00000260: f14b 3c3d a0ee 16bd 6d99 733d 60c6 563c
00000270: b367 0f3b 95d5 aabc 1a90 8e3d 0ead 21bc
00000280: 3b5e 823d bd23 3bbd 1fff 66bd 41a7 863c
00000290: a832 4bbc ece5 1c3c 05ba e53c fefe 163d
000002a0: 09ba 57bd dd9a 8abc 837e 4a3d ee17 ac3d
000002b0: a8f3 ad3c a50c 88bd 7eab 51bd 2382 39bd
000002c0: 8d59 ae3c 37da a73c 60e0 bbbd 0c86 95bd
000002d0: e276 8fbd 3407 ad3b bd61 a63d 5518 1c3c
000002e0: 734d 5dbd 09b6 a3bd 1d25 0e3d 6da7 953d
000002f0: 1811 843d abf7 c53c f497 e7bd 0067 04bd
00000300: 7c54 a23c 6aed c9bd bdf9 d2bc d272 96bd
00000310: 7d8d 233d 24c4 0abd fc28 a23d 435d 0dbd
00000320: 8f81 ed3c 1b57 0d3c 7a47 d83b 5425 cbbb
00000330: 5c42 9abd e521 9bbd 7d89 c2bd 7f91 18bd
00000340: 83f7 67bd 141a bf3d 8c0f efbb 1324 6c3d
00000350: 6656 6e3a f849 bcbd d361 973d b77e 77bd
00000360: fc45 2bbd 4222 893c ee87 a13d 4103 ba3d
00000370: ccae aa3d 37b7 a7bd e3de 643c 9992 52bc
00000380: 617d 8d3d 11af ccbd 9db9 7cbd 303e c8bc
00000390: d668 42bc 10b2 8f3d 733c 10bd 9d38 9dbd
000003a0: 4ecc 3f3d 9771 563d 2aac bc3d 49cb f03d
000003b0: 4209 323d 2487 50bd 4d0c 3c3b 7a75 c33d
000003c0: a563 dd3d c620 49bd 7ed6 c03c c55b 33bb
000003d0: 8726 8bbd 68b4 933d 4b03 8bbd 080f ef3d
000003e0: a6c6 a6bd ec8a 82bd 3fb8 053c c5f4 c73d
000003f0: 997b d8ba b023 e63b 4779 8abd 2d51 80bd
-0.03789975 0.022175375 0.0065906635 -0.065363966 -0.0716729 0.019624274 0.029998507 -0.080957964
-0.06729919 -0.06887049 -0.005967302 0.013420924 0.087312005 -0.046935435 -0.042886484 -0.045519765
0.06738607 -0.05651102 -0.051544715 0.02223079 0.09906121 -0.02757959 0.09845496 0.096241586
0.06708959 -0.02785015 -0.09712711 -0.006337412 -0.09463892 -0.020004041 0.043871038 -0.0985711
0.078157306 0.0868436 0.07096205 -0.096380964 0.09279976 -0.034031954 -0.023334814 0.052967608
0.047773693 -0.0064571975 -0.03918858 -0.04663462 0.03109201 -0.07759881 -0.06766531 0.0036987246
0.044469833 0.076571174 0.07452126 0.05065047 0.106118664 -0.052887782 -0.098452345 -0.026919292
0.072854556 -0.012681418 0.07605107 -0.049778357 -0.028584857 0.060610317 -0.0662297 0.04869146
0.08968674 0.033168472 0.048348006 0.058739536 0.0323587 0.081193075 -0.050574902 0.033256825
-0.076847 0.023121381 0.08173313 0.063851565 0.006358044 0.0343792 -0.04858744 -0.0026715128
0.027364686 -0.09450536 0.086099945 0.084169954 0.060745273 -0.054117266 0.08656997 -0.03086084
0.015780564 -0.04219834 0.072900765 -0.036401615 -0.009312305 0.0002836893 -0.074980825 -0.035084996
0.024595445 0.010471194 -0.018781869 0.0076593277 0.028564073 -0.0062525882 -0.07907073 -0.0012708793
0.034452915 0.06595631 0.089331396 0.06505872 -0.007442641 -0.061683092 -0.06834581 0.09780729
0.012201591 -0.075312994 -0.046581466 -0.0830422 0.055840712 0.05613823 -0.013080705 0.011461543
-0.0018762032 -0.06847447 -0.048691828 0.049813386 0.03604271 -0.079993874 0.050027184 -0.004360124
0.0071919747 -0.004500738 -0.0063955216 -0.043820553 0.048743732 -0.02308134 -0.008148724 0.03655205
-0.045993283 0.071761794 0.02898043 -0.085943 -0.07008992 0.03861498 -0.047097046 0.0073729265
-0.082306266 0.05776977 -0.029826472 -0.0497381 -0.012520755 -0.09864432 0.083519645 0.07414879
0.04597086 -0.036848664 0.05947249 0.01310882 0.0021881878 -0.020853797 0.06961079 -0.00986792
0.06365629 -0.04568838 -0.056395646 0.016437175 -0.012402214 0.009576302 0.028042803 0.036864273
-0.05266765 -0.016919548 0.049437057 0.08403002 0.021234348 -0.06643037 -0.05118894 -0.045290124
0.021282936 0.020489795 -0.091736555 -0.07300958 -0.07005097 0.0052803997 0.08124111 0.009527286
-0.05402894 -0.07993705 0.034703363 0.073073246 0.06448573 0.024165949 -0.1130828 -0.03232479
0.019815676 -0.09859736 -0.02575385 -0.07346119 0.039929856 -0.03387846 0.079179734 -0.03451277
0.028992442 0.008626725 0.0066003175 -0.006199518 -0.07532188 -0.07574824 -0.0949888 -0.03724813
-0.05663253 0.09331146 -0.0072955545 0.05765159 0.0009091854 -0.09193796 0.07391705 -0.06042358
-0.04181479 0.016739968 0.07887255 0.09082652 0.08334121 -0.08189242 0.013969156 -0.012852334
0.0690868 -0.09994329 -0.061700452 -0.024443716 -0.011865815 0.070163846 -0.0352139 -0.07676814
0.0468257 0.05235442 0.09212525 0.117575236 0.04346586 -0.05091013 0.0028693855 0.09543891
0.10810021 -0.04910352 0.023539778 -0.0027367931 -0.06794458 0.07212144 -0.067877375 0.11672789
-0.08143358 -0.063741535 0.0081616035 0.09763483 -0.0016516327 0.0070232973 -0.06761413 -0.06265483

gru.bias_hh_l0 f4 [300]
00000000: a582 3ebd 63e1 173c 55ab c4bc 8954 7dbd
00000010: abde ba3c 7e17 00bd bff5 28bd 2026 9dbd
00000020: 4bce 78bc 2857 243c f10f 8a3d 7e91 2ebd
00000030: 77c2 b13d ed19 653d 21c7 79bc 6167 47bd
00000040: e610 963d a8ce 12bd b3ff b3bd 4d22 05bd
00000050: 83fb a83d 8ab3 2b3d 7b98 0abd 8398 a1bd
00000060: 071a b33d fe22 59bd 97fc 9d3d 8693 b8bd
00000070: ca87 8d3d 5840 a8bd 32cc 823d 7360 75bd
00000080: a2bb 4bbd 73ca 8b3d ebb5 063c 2dcf aebd
00000090: 533c 79bd 7668 99bd ca1d d9bb 1e32 273d
000000a0: cb4f 6d3c 1bb1 b6bd 4c25 2a3d 9ad7 cabd
000000b0: 240b 683b f035 9d3d 41a0 8bbd cccf c3bc
000000c0: 800c 9d3d f951 04bd 1949 a63d 396e cb3d
000000d0: 4b45 ba3d 18ea 803d afa2 a73c 1ab6 18bd
000000e0: a4df 3d3d 64e3 143d 9d3d 8cbd 33e2 8cbd
000000f0: 00c8 09bd 0510 943d b8cf 7bbd 65b1 b3bc
00000100: 1b99 983d 40c8 bf3c ddee 8d3c 0524 563d
00000110: b632 67bd ce2d 16bd 92f8 c13d a9fd 0dbd
00000120: 5014 863d c2e4 67bc e211 63bc 47e5 a4bd
00000130: 9544 9dbc 93b3 373c 0ec0 c93c aec3 acbc
00000140: 0f74 af3c 4bb2 9a3d 8fd3 223d d872 98bd
00000150: be72 aebd 46a1 c9bd 1404 4bbd 5d8d 423d
00000160: 0650 ee3b bb1f 88bc 581c 8c3c 0820 bdbc
00000170: c9c9 1ebc f6dd 16bd 9124 d63d af10 f03c
00000180: 9492 ffbc c32a b4bd cdab a33b 4f16 00bb
00000190: 4b26 8b3d 6439 b53d 8310 adbd 499e 4abd
000001a0: 1d97 873d 4e3b b93d 162e a53d 965a 633d
000001b0: 9803 91bd 4342 453d bc58 b5bc d3d1 5f3c
000001c0: 4878 c73b bd4c a03c 9f50 9d3d 7d5e 99bd
000001d0: a6da 2b3d 2ee2 72bd 810d 9e3d 0f60 65bd
000001e0: e409 6a3d 8ba1 ba3d 312a 89bd c14c 1e3d
000001f0: 7aa7 b2bd b8cd 6ebd e3f2 71bd 670b c2bd
00000200: ed88 acbb 7a2b bc3c 65fe 4a3d dc5a 85bd
00000210: 98de c6bd be8d a43d e055 15bd d5ce 87bd
00000220: ce3d 933d fea7 72bd 4b56 483d db1f 06bd
00000230: 7293 963d c7a2 76bc f3de e73c 6ca7 71bd
00000240: d26b dcbd 8dd3 d6bd cb53 643d 66d8 a83d
00000250: 1210 35bd d10b 9cbd 5add 183c 3246 143c
00000260: f375 f4bd e1b9 5cbd 85ba efbc 3a5d a8bd
00000270: f245 17bd e877 81bd 4cab 78bd 6787 943d
00000280: 7ecb 2c3d 2186 3f3d d0aa 46bd 3c45 89bd
00000290: 6935 4d3d 7530 60bd 150b 9c3d b027 d1bd
000002a0: feab 2c3d dee1 a9bd d70e d0bd ae8c 45bc
000002b0: c10a 76bc f958 d1bb 0226 9f3b eff1 9dbd
000002c0: f0a6 8b3c 66dc 09bd b528 ff3c c689 403d
000002d0: 4bf5 f1bc 73ed a73d b7e7 7c3d 7173 2ebd
000002e0: e3ad 11bb 323d b1bd be26 bbbd fb7b d23b
000002f0: c39b 81bd 6086 d2bd 0424 51bd f833 bcbd
00000300: f0d1 4e3b 7ffe a13d 9a4a 20bc 762b 08bc
00000310: f523 953d 4897 4fbc 5678 56bd 92df ebbc
00000320: acaa 923d 2f50 2fbd 529a 53bd 4adc 503c
00000330: 56c8 98bd 0010 123d c84d a9bd 1180 2b3d
00000340: 05b0 e7bc d255 533d e601 adbc 8429 fa3c
00000350: d171 b1bc ac57 053d fd0e 82bc 90d9 213d
00000360: 74da 73bd 07f9 be3d a2df dd3a 7747 933d
00000370: 145f bb3d f845 23bc d60c 7c3d e0c8 9c3c
00000380: d24e 83bd 7529 fe3c 67a1 4a3d daf8 a73c
00000390: 2d25 cb3c 70ba 35bd 2e45 f83c de17 e0bb
000003a0: 63cc 6f3d 2dd6 043d caf2 d53b 53ef a3bd
000003b0: 6876 ebbb a79e c53c 8afc 733d 2be2 18bc
000003c0: 2a21 fcbc b763 d13c 91cd 0f3d 128e 3dbd
000003d0: dff1 c3bd b2af fbbc 72e1 5ebd e917 3ebd
000003e0: 0c82 eb3c 6bf0 9bbd 4753 c9bc 797c e2bc
000003f0: 1863 16bd 5513 b5bc 6ecf b4bd 738f b1bd
-0.04651131 0.009270045 -0.024007479 -0.061848197 0.022811254 -0.031272404 -0.041249987 -0.076732874
-0.015185903 0.010030545 0.06741322 -0.04261922 0.08679669 0.055932928 -0.01524523 -0.048682574
0.07327442 -0.035841614 -0.08789005 -0.032503415 0.08251097 0.04191927 -0.033836823 -0.078904174
0.08745199 -0.053011887 0.07714193 -0.09012513 0.06910665 -0.082153976 0.063866034 -0.059906434
-0.049739487 0.068257235 0.008222084 -0.085356094 -0.060848545 -0.074906275 -0.0066258656 0.04081928
0.014484356 -0.08920499 0.041539475 -0.09904404 0.003540703 0.076763034 -0.068176754 -0.023902796
0.076684 -0.032304738 0.08119411 0.09933133 0.09095248 0.0629465 0.020463316 -0.03728304
0.04635586 0.03634967 -0.06847689 -0.068790816 -0.033638 0.07229618 -0.061477393 -0.021935174
0.074510776 0.023410916 0.017325813 0.052280445 -0.056444846 -0.036664777 0.09471239 -0.034665737
0.06546843 -0.014153661 -0.013859244 -0.08051544 -0.019197742 0.011212247 0.024627712 -0.021089401
0.021417646 0.07553538 0.03975254 -0.0744378 -0.08517979 -0.098452136 -0.049564436 0.047498096
0.007272723 -0.016616693 0.01710336 -0.023086563 -0.009691664 -0.036832772 0.10456193 0.02930483
-0.031197824 -0.08797219 0.0049948455 -0.0019544547 0.06794413 0.08848837 -0.08450415 -0.04946736
0.066206194 0.090445146 0.08065431 0.05550631 -0.070807636 0.048158895 -0.022137038 0.013660866
0.0060873367 0.019567842 0.07681393 -0.07488725 0.041956566 -0.059297733 0.077174194 -0.05599981
0.05713834 0.09112843 -0.066975005 0.038647417 -0.0872335 -0.058301657 -0.059069525 -0.09474831
-0.0052653463 0.02296995 0.049559016 -0.06511471 -0.09710425 0.08034848 -0.03645885 -0.06631247
0.07189523 -0.05924224 0.04891042 -0.032745223 0.07352342 -0.015053458 0.028304553 -0.058997557
-0.107627526 -0.10489569 0.055743974 0.082444 -0.04420478 -0.07619441 0.009330118 0.009049939
-0.119365595 -0.053888205 -0.029263744 -0.082209066 -0.03693194 -0.063216984 -0.060710236 0.072523884
0.042186253 0.046758775 -0.048502743 -0.067026585 0.050099764 -0.054733712 0.07619301 -0.10212648
0.042156212 -0.08295034 -0.101590805 -0.012057466 -0.015017212 -0.00638878 0.004856826 -0.07712161
0.017047375 -0.033657454 0.03114734 0.04700639 -0.02953591 0.08199587 0.061744418 -0.042590562
-0.0022228889 -0.0865425 -0.09138249 0.006423471 -0.06328537 -0.10279536 -0.051059738 -0.091896
0.0031558238 0.079098694 -0.009783411 -0.008311143 0.07282249 -0.012670346 -0.052360855 -0.02879313
0.07161459 -0.04280108 -0.051660843 0.0127478335 -0.07460086 0.03565979 -0.08266789 0.04187018
-0.028282175 0.051595517 -0.02111907 0.030537374 -0.021660717 0.032554314 -0.015876288 0.039514124
-0.059534505 0.09324842 0.001692761 0.07191365 0.09148994 -0.009965412 0.06153568 0.019138753
-0.06411518 0.031025628 0.04947033 0.020504404 0.024798 -0.044367254 0.030306425 -0.0068387827
0.058544528 0.032430816 0.006529187 -0.08004632 -0.007185746 0.024123503 0.059567012 -0.009331266
-0.030777533 0.025560243 0.035108153 -0.046278067 -0.095676176 -0.030723426 -0.05441422 -0.04640952
0.028748535 -0.076142155 -0.024575843 -0.027647244 -0.036715597 -0.022103945 -0.088286266 -0.08669939

gru.weight_ih_l0_reverse f4 [300, 100]
00000000: d8f0 af3d c651 33bd 4f78 a93c d7ed a2bc
00000010: 56d3 b43d 5f3f 80bc 6e34 7b3d fc88 093d
00000020: 4bae a03c 0836 e43c 59d1 1f3b f382 9cbc
00000030: f940 8d3d 67b5 053d 01c1 853a 94a4 67bb
00000040: 83b9 2d3d 8365 9f3c 57f3 bc3d bb91 9cbd
00000050: 5c44 793d 517c 71bc c834 143c 75b5 143d
00000060: 2040 febc b599 43bb bd49 cc3c c286 16bd
00000070: e4df edbc 5187 943d 1faa 773d 9144 b33c
00000080: ceb6 06bd 35dc 18bc 6719 b53d 146f c5bd
00000090: 3ace a6bd 256d b03d 46e8 253d 306c cb3d
000000a0: c1b3 bcbd ac24 a63d 59a9 a33d eee7 b1bd
000000b0: 6d9a a7bd d287 293c 6807 aebd 9a16 09bd
000000c0: 65ac 8ebd 79cd af3d 4bcd ba3c d462 70bd
000000d0: bdf5 9fbc 05f6 0dbd 68e4 03bd 7384 a73d
000000e0: 402e c8bc 841f 423c 2627 c53d 9107 0f3d
000000f0: d95a 78bd 87b4 b83d 1e90 dabc 7e62 a83d
00000100: a797 643d 626f be3d 163e 263d 4547 c73c
00000110: d207 fabc a671 c03d 6462 b1bd 668f a7bd
00000120: 2911 853d 29a5 863d ea42 913a d297 d2bc
00000130: 231e 0fbd 7ed2 ccbc 0464 e7bc 6d95 52bd
00000140: 951a c63d 93c4 0b3c 9eea aa3d 4a54 1abd
00000150: 9c0b d9bb f8b9 37bb d718 933d 8da5 7cbc
00000160: 0798 903d f7c1 3ebd 2309 dfbc 42f5 a5bd
00000170: da3c c3bd 4449 9abd c388 fabc d438 953d
00000180: 9859 b23d 2152 293d c23c 92bd c058 acbd
00000190: e071 293d a41e b9bb e167 ac3d 217b a3bd
000001a0: 225a bfbd c7c9 02bd e19c 5bbd 4bec 74bd
000001b0: 3155 7fbd b2f3 913d b67a 943d 4099 66bc
000001c0: ebe4 c9bd 8c37 7d3a 1525 86bd a23d 9fbd
000001d0: 4d79 ba3d a57c cabd 8a26 f03c 7197 71bc
000001e0: d192 573d 9298 353d 661d 74bd c1bf 58bd
000001f0: 154e a1bd 23a1 a3bd 099f 4abd ddc1 29bd
00000200: dadd 98bd a83f b43d 88df c7bd 74ee ed3c
00000210: c7e2 913c 5be2 4a3c 46cf e0bc 2edb eb3c
00000220: 4d9d 873c 8b59 b1bd 04eb ae3d 5359 973d
00000230: f1e3 3e3d 63a3 97bd c384 c7bd 9904 83bd
00000240: 8f98 34bd f6d5 55bd 7638 6cbd 2f90 953d
00000250: f33d 8a3b 2bdc 9cbd 2c61 25bd 0621 8a3d
00000260: fa6c 913d 5c7c 0e3d 57e9 93bd 8858 c33d
00000270: cf03 993d 08d3 923d b138 19bc bdec b5bc
00000280: 8bbc 153c ffd7 0e3d cc7c bb3d 30bd a23c
00000290: a316 13bd 09f1 203d b35f 93bd cd91 8ab9
000002a0: cc6f 5d3d b0f8 27ba 8bd5 cdbc 79d4 543d
000002b0: 6c9b a73d ec96 b03d 539a 88bd faa6 b53d
000002c0: c65b ae3c 43a9 29bc 3c47 29bd 44c8 803d
000002d0: c79d b13c 7f34 9c3d 89c3 3f3d 25d6 633d
000002e0: c47d c33d 5a81 95bd f478 afbc 34a4 ac3d
000002f0: a4f6 a5bd b067 243d e25e 9d3d fcfe 4bbd
00000300: ab3c 36bc 34b3 803d f797 5a3d 7e2a b83d
00000310: f389 033d 7dd7 5dbd 2cf7 c93d cd85 663d
00000320: 3c69 15bd 7a1e 83bd 1d60 48bc fd23 0dbc
00000330: a31f b03d aa93 c3bd 9ce4 c73d 0f9c 2bbb
00000340: 04b1 68bd 74b3 1bbd a582 3d3c f158 c53d
00000350: db85 9fbd c34c 473c 16a9 a9bd 4edf 31bb
00000360: cd14 8f3d bbd9 fb3c b957 713d 1ded a53d
00000370: f283 4d3d c39d 373d f25f a13d c954 c23d
00000380: eb3a 753d 882e a4bd 1e58 343c e260 243d
00000390: 463b ad3a 1df6 403d ebac 5a3d 9325 b73d
000003a0: 0cb6 63bd 4f28 81bb 6b9e 443d 254c ba3d
000003b0: f0c0 733d 2978 39bd 5511 0e3d b82b 87bd
000003c0: f024 8b3c 1a04 84bd 5e41 a33d 6217 68bd
000003d0: 01e1 c43d 61f2 2fbc 8b85 edbc 9024 d0bc
000003e0: 3492 86bd b0fa 4d3d ae78 3cbd 3897 263d
000003f0: 3246 bcbc 6d27 76bd c0f2 c1bd 1a5f 37bb
0.08590859 -0.043779157 0.02068725 -0.019888802 0.08829372 -0.015655218 0.061329298 0.033577904
0.01961436 0.027857795 0.0024386256 -0.01910541 0.06897158 0.032643702 0.0010204614 -0.00353459
0.042413246 0.019457584 0.09226101 -0.076449834 0.06085621 -0.014739112 0.009045787 0.036305863
-0.031036437 -0.0029846255 0.024937505 -0.03674961 -0.029037423 0.07252372 0.060464974 0.021883281
-0.03288918 -0.009329845 0.08842736 -0.09640327 -0.08144803 0.08614568 0.040504716 0.099327445
-0.09213973 0.08112463 0.07991285 -0.08686815 -0.08183751 0.0103473235 -0.084975064 -0.03346882
-0.069664754 0.08584113 0.02280297 -0.058688 -0.019526357 -0.03465845 -0.032200247 0.081795596
-0.024436116 0.011848334 0.096266076 0.034919325 -0.060633514 0.09018808 -0.026680049 0.08221911
0.05580869 0.09298588 0.040586554 0.024325976 -0.030521307 0.09396677 -0.08661345 -0.08181648
0.06497414 0.065744705 0.0011082564 -0.02570716 -0.03494085 -0.025002714 -0.028245933 -0.051412035
0.09673039 0.008530754 0.08345531 -0.03767804 -0.0066236984 -0.002803443 0.07182472 -0.01542033
0.07060247 -0.046571698 -0.027226036 -0.0810342 -0.09533091 -0.075335056 -0.030582791 0.0728623
0.08708495 0.04133809 -0.07140495 -0.08415365 0.041368365 -0.0056494046 0.08418251 -0.07982469
-0.09343363 -0.03193071 -0.05361641 -0.05979566 -0.062337104 0.07126559 0.07249968 -0.014074624
-0.09858116 0.0009659461 -0.065500416 -0.077754274 0.091051675 -0.09887055 0.029315252 -0.014745579
0.05263025 0.044334956 -0.05959835 -0.052917246 -0.07876221 -0.07989719 -0.049468074 -0.041444648
-0.0746419 0.08801204 -0.09759432 0.029044367 0.017808331 0.012383069 -0.027442586 0.028791036
0.016554499 -0.08659657 0.085409194 0.07390084 0.0466041 -0.074042104 -0.09742119 -0.06397361
-0.044090804 -0.052206002 -0.057671033 0.073028915 0.0042188107 -0.07659181 -0.040375873 0.0674458
0.07100864 0.034786567 -0.072222404 0.0953837 0.074714296 0.07169157 -0.009351895 -0.022207612
0.00913919 0.03487396 0.091546625 0.019865602 -0.03591026 0.03929237 -0.071959876 -0.0002643004
0.054061696 -0.0006407602 -0.02512624 0.051960442 0.08183941 0.08622536 -0.0667006 0.08869739
0.021283995 -0.010355297 -0.0413277 0.06288198 0.02168168 0.076272 0.046817336 0.055624146
0.09545472 -0.073000625 -0.02141998 0.08429757 -0.081036836 0.040137947 0.07684113 -0.04980372
-0.011122863 0.0628418 0.05336758 0.0899248 0.03211398 -0.054160584 0.098615974 0.056279946
-0.036477312 -0.06402297 -0.012229946 -0.008614537 0.08599784 -0.09549649 0.09760401 -0.0026185547
-0.05680944 -0.038012937 0.011566793 0.09636105 -0.07789203 0.0121642975 -0.08284204 -0.0027141157
0.06986389 0.03074347 0.05892155 0.081018664 0.05017466 0.044828188 0.07879628 0.09488828
0.05987064 -0.08016688 0.011007337 0.040131457 0.0013216517 0.047109712 0.053387564 0.089427136
-0.055593535 -0.0039415727 0.04800264 0.09096555 0.05951017 -0.04528061 0.034684498 -0.066001356
0.016985387 -0.06446095 0.07971452 -0.056662925 0.096132286 -0.01073894 -0.028994342 -0.02540806
-0.06570855 0.050287902 -0.046013527 0.040671557 -0.02298269 -0.060096193 -0.09470129 -0.002798027

gru.weight_hh_l0_reverse f4 [300, 100]
00000000: 6415 c93d 38fb 6b3d b07f 123d ef22 a53d
00000010: 7d30 b03c c460 7e3d e2c9 a73d 8e23 60bc
00000020: 7860 923c 42e6 243d 5736 483d bc9e ef3c
00000030: be03 bd3d 42d0 3dbd 9bca 86bd 7444 bd3c
00000040: dd37 b93d e6ef b1bd a110 823d b106 873d
00000050: b98d 5abd 8cd2 2abb 8f9f 843d beb6 553d
00000060: 380f 5f3d d2ea cfbb 53da b83d 1ceb 5d3d
00000070: fa5d 633b 7877 b23d 31a9 0fbd 962b 76bd
00000080: bb2b 1bbd 7542 84bd 10fc 383d 2259 1dbb
00000090: d76e 123c afb5 063d a9cd 8fbd b18d 673a
000000a0: c0d8 523d 9d20 9cbd ad88 2dbd 719e 763d
000000b0: eb7c 823d cb0e 103c e177 c6bd 5728 28bd
000000c0: 750d dabc 21cf 9cbc 5555 073b 37fb 19bd
000000d0: 2336 cbbd e7ee 843d 2190 76bd 78a4 2d3d
000000e0: 23bc e7bc 04d7 99bd 697d 333c f8a6 483d
000000f0: 504d aabd a278 57bd 660a 13bd 321b 01bd
00000100: 8bfe 27bd dc8a 773d f562 2a3d f351 8bbc
00000110: f84a 6b3d 08a4 e3bb a63a 87bd 5b6c 4c3d
00000120: a6e1 bebd efb5 ab3d b74e 983c e5e3 a93d
00000130: f81f c1bb 8565 dfba efc6 b1bd c5f5 91bd
00000140: e3a9 1e3c 21c1 b53d 0a45 da3b 7090 c73d
00000150: 3272 afbd a606 83bd bd49 2c3d b869 47bd
00000160: c642 0cbc e776 3f3d a025 8fbc 9830 aebb
00000170: 2066 ba3c de11 f83c d25c c03d 1b1d abbb
00000180: e112 1fbc 28c1 783d 28a0 a33c be26 2dbd
00000190: 9f9e ac3d 9a91 84bd 431e c03d ec40 8ebd
000001a0: ecb8 98bd b9dd a53d ce6d 583d cb52 1dbd
000001b0: e40d 953d 562d 183d 65e6 463c ede9 8d3d
000001c0: d79e 243d 65a3 adbb 9d2c ba3c 62cb 74bc
000001d0: b0ef 0c3d f7fb b9bd 3aa6 d3bc 5877 85b8
000001e0: 13e4 a5bd 553b b13d b828 b23d 16a3 4fbd
000001f0: 82c0 bfbd c960 9f3d 35bb 963d 16a5 9a3d
00000200: 05df 293d 149e 8c3c 9f20 9c3d c462 853d
00000210: cb0a 673c 0631 043d 7a6d 853d 488a 923d
00000220: ed40 003d 4bc3 823d 5b5a 4d3c a7e6 61bd
00000230: 38e6 24bc 043e 253d 821c 96bb 0a5a 36bd
00000240: 95e8 0e3d fd91 be3c b505 b63d ee9e 9c3c
00000250: a3bc 78bc a37a 713d 2ef6 a3bc e42e d5bc
00000260: 98d6 9d3d 659f ca3d d415 5bbb 8153 94bd
00000270: 2791 5d3d 4f17 653d 2c51 29bb 1f44 973d
00000280: cace a23d d609 e6bc 79a4 b13d 7467 043c
00000290: 12c4 68bd ac4d 3e3d 9e30 273b 2e91 8a3d
000002a0: 73b4 bdbd 9648 f33c c78d 9f3d ce2e a2bd
000002b0: 44fb 09bd ed13 cdbc a394 1bbc af0e 3bbd
000002c0: 5be4 07bb fee1 abbd a7f2 be3c e666 8b3c
000002d0: 9ca5 9f3c 99ff c7bc b1e3 b8bc d44c 01bd
000002e0: f887 a53d 94e7 b3bd edd5 f83c b603 90bd
000002f0: 314f 913d 5443 6f3d 0509 e03c 53fc 77bd
00000300: 389d b1bc be53 ccbd d143 273c 94dd 6f3d
00000310: 8386 d83c acfe 4b3d 5ef2 443c 73e5 97ba
00000320: 14fb ebbc 324d adbd 71bd 34bd 8851 5f3d
00000330: a53a 38bd f516 e1bc 7976 373d 8ecb fcbc
00000340: b532 91bd dea4 b6bb b591 1d3b 1a56 063d
00000350: 15cb e038 ff42 603d f4d9 61bc 21ec d7bc
00000360: 347d 58bd 6cba 1f3b 130d b5bc bd35 263c
00000370: d085 033d fa6e cabd fe74 4fbd 482a a1bd
00000380: bd87 92bd 4d3e cdbb c8cf 4abd 5381 a2bd
00000390: 5ac6 a3bd a4c4 8ebd 0749 2f3c 0aa9 00ba
000003a0: 92eb 68bd c5dd 3bbd cd4b 5a3d 123e 64bd
000003b0: 647b a43d 53e3 8cbd 4796 edbc 4289 dcbc
000003c0: e527 123d 357e 96bd cf26 7ebd 0f45 673d
000003d0: 8e3c 64bd d973 b4bd 418f 0a3c d88d 8ebc
000003e0: 5a67 b33c bb07 90bd 1ee7 1c3d c8f2 21bd
000003f0: 337c 453d 97cb 2b3c 3420 d03c f1b2 ae3d
0.09818533 0.057612628 0.035766304 0.08063304 0.021507496 0.062104 0.08192803 -0.013680352
0.017868266 0.040258653 0.048879948 0.029250495 0.092292294 -0.04634119 -0.06581613 0.02310393
0.09043858 -0.08688335 0.06350828 0.06593073 -0.053357814 -0.0026065437 0.06475746 0.05217623
0.054457873 -0.0063451314 0.09026017 0.054179296 0.0034693466 0.08714193 -0.035073463 -0.06010016
-0.0378835 -0.06457988 0.04516226 -0.0024009426 0.008937559 0.03288811 -0.070216484 0.00088330643
0.05147624 -0.07623408 -0.042366672 0.060209695 0.063714825 0.008792589 -0.09690834 -0.041054096
-0.026617745 -0.019141736 0.0020650227 -0.037593093 -0.09922435 0.064908795 -0.060196046 0.042393178
-0.028287953 -0.07511714 0.010955193 0.04898736 -0.083155274 -0.05260528 -0.03589859 -0.031520076
-0.041014235 0.06043516 0.04159828 -0.01700685 0.057444543 -0.0069470443 -0.06602983 0.049908023
-0.09320383 0.083843105 0.018592222 0.082954206 -0.0058937036 -0.0017043805 -0.08680522 -0.07126955
0.009684059 0.08874727 0.006661062 0.09744346 -0.08566703 -0.063977525 0.04206251 -0.048684806
-0.008560842 0.046744253 -0.017473996 -0.0053158514 0.022753775 0.030281957 0.09392704 -0.0052219755
-0.009709091 0.060731083 0.01997383 -0.042273276 0.08428692 -0.06473084 0.09380772 -0.069459766
-0.07457146 0.08098931 0.052839093 -0.038409036 0.0727804 0.03715261 0.012139891 0.069293834
0.040190544 -0.005299019 0.022726351 -0.014941068 0.03440827 -0.090812616 -0.025836099 -6.364164e-05
-0.08100142 0.08653895 0.08699173 -0.05069264 -0.0936289 0.07782132 0.07359926 0.07551019
0.041472454 0.017165221 0.076234095 0.06512979 0.014101694 0.032273315 0.065150216 0.07155281
0.031311918 0.063849054 0.012533749 -0.055151608 -0.010064654 0.040342346 -0.004581035 -0.04451946
0.034889776 0.023262972 0.08887807 0.019118752 -0.015181693 0.058954846 -0.020014849 -0.026023336
0.07706946 0.09893683 -0.0033429759 -0.072424896 0.054093506 0.055930432 -0.0025835736 0.0738604
0.07949598 -0.028080862 0.08673949 0.008081306 -0.056827612 0.046460792 0.0025511156 0.06765972
-0.092629336 0.029697698 0.07790714 -0.079190835 -0.03368689 -0.025033915 -0.009495887 -0.0456683
-0.0020735476 -0.08392714 0.023309065 0.01701684 0.019488148 -0.02441387 -0.02256951 -0.03156741
0.080825746 -0.087844044 0.030375445 -0.07031958 0.07095183 0.05841382 0.02734805 -0.06054337
-0.021681413 -0.0997691 0.01020904 0.058560923 0.026431328 0.04980342 0.012020675 -0.0011588767
-0.028806247 -0.084619895 -0.044125978 0.054521114 -0.044977803 -0.027476767 0.04479072 -0.030858781
-0.0708975 -0.005573853 0.0024043147 0.032796957 0.00010718979 0.054751392 -0.013784874 -0.026357712
-0.052853778 0.002437259 -0.02210096 0.010144648 0.032110035 -0.09884448 -0.05064868 -0.07869393
-0.07154796 -0.0062635303 -0.049514562 -0.07934823 -0.07996817 -0.069711 0.010698563 -0.0004908001
-0.056865282 -0.045865793 0.053294946 -0.055723257 0.080313474 -0.06879296 -0.029002322 -0.026920918
0.035682578 -0.07348291 -0.06204873 0.056462344 -0.055721812 -0.08811159 0.008457006 -0.01740162
0.021899868 -0.070327245 0.038306348 -0.039538175 0.04821415 0.010485551 0.02540598 0.08530224

gru.bias_ih_l0_reverse f4 [300]
00000000: ca2a 2abd 8ad8 f7bb 03d6 38bd a437 a13d
00000010: 3df0 943d c66d 60bc 66ca a23c c9d8 adbd
00000020: ca32 873c 6c44 c3bd dcf4 b13a d5c5 1abc
00000030: dfc7 80bd e99c 973d 0118 bdbd 2f27 453d
00000040: 05d7 2dbd ac80 243d 4fc2 56bd 0374 89bc
00000050: a4bf 05bd 6fd5 c63d 7b77 3d3c da61 a43c
00000060: 9353 973d 18b6 9a3b 7808 b83d 0042 a0bd
00000070: db18 bdbd b17e 433b fe0d c53d aaa9 9f3d
00000080: cdea af3d bebf 263d ef95 a2bc 14cc 73bd
00000090: ef32 bbbd 4acc a1bd a217 603d 1c97 793d
000000a0: 4549 5dbd 2057 50bd 1174 80ba 68a8 a33c
000000b0: 80e6 323d 584e c7bc c9e1 8dbd 8cfd 093d
000000c0: 8014 343d 0f60 a53d 197b 743d 5975 8bbd
000000d0: 9839 a6bd 7495 463d 7a8d 3c3c 7b02 c3bd
000000e0: 0767 bd3d 2a71 98bd b3e8 b63d 7b7c ca3d
000000f0: 3377 89bb 32e7 c83d b556 e7bb 58e0 16bd
00000100: c20b 8dbd d401 b33d fcde 8c3d 61bf 62bc
00000110: f2ca 633d 286f b0bc 02ba e3bc 4921 8b3d
00000120: b618 44bd a40d 7abc b943 2ebd cc27 513d
00000130: f402 b9bd 2108 8e3d 2f9c 7a3d 41ed 0c3d
00000140: 0f43 ae3d 0ccf 0dbd cb3c 9f3d 5580 b53c
00000150: fa48 03bd f4bd 99bc cd8b ac3c b4ad c5bd
00000160: 55b9 7f3d 1580 57bc 490b a7bc 4728 cb3c
00000170: 7a38 a63c c948 81bd 720c 27bd 8c20 9ebd
00000180: fa19 c43d e229 8b3c 935c c43d e7a4 333d
00000190: 405f e53c 1d73 033d f65b 863b 9b0b 2c3c
000001a0: b650 633c 85fa 8f3c 8d57 a33b 32e6 ccbd
000001b0: 75f8 983d ed5d e2bc ca0a 5f3d 44b1 11bd
000001c0: 9ba4 72bd 9108 cc3c 04d4 92bd cd8b a93d
000001d0: 6e81 cabc 8a6f 813d 15a4 b5bc bf4e 8cbd
000001e0: b679 a23d d7a7 a0bd aec5 12bb 7784 903d
000001f0: d29b 29bd 4f3d 1ebe c96e 2a3d 221c 193d
00000200: 2460 2d3d e744 9bbc 27cb 19bd 4f06 95bd
00000210: cab0 2cbd db4d e6bd 38bc 7d3d 624f 68bb
00000220: 9645 9cbd c4d1 44bd f61b ecbb 2bc8 bcbd
00000230: af81 143d 7b85 acbd 250f d63b 4591 aa3d
00000240: 95be c3bd 2d68 4bbd 2ce8 3b3d e22d abbd
00000250: 0b50 8a3d dcc9 bc3d 2d6a 89bd 4cf4 723d
00000260: 36c2 c23d d1f7 243c 0b3b c63d eec6 a63d
00000270: 4c6a b93c 88e7 02bd b5eb 63bd 8946 26bd
00000280: cc11 583d 7a54 2abc 3367 8a3d 8365 c1bd
00000290: f810 643d 542b 5a3d 7706 78bc 83b3 16bd
000002a0: 8c4a f3bc 4877 5fbc adfc 243d 26d8 80ba
000002b0: c8d3 283c 2ac9 ed3c 3ce9 c1bd a78a 5cbd
000002c0: 74ab 943d 88f4 a53d 83c3 4ebc 9949 9cbd
000002d0: 7aed 82bd bf14 b2bd c84e 5dbd 8808 593d
000002e0: dc67 873d 93f0 ff3c 2673 be3b 14d6 dbbc
000002f0: 5cac b7bd b694 b03c c647 68bd 9947 85bd
00000300: d2c9 a83b f29f 26bd 83ba 573b eccc 34bd
00000310: 69f0 743d 564f c2bd 8f0c c8bd 713c 773d
00000320: 2bd6 35bd b3d5 e13c 744d b5bd 9449 7e3d
00000330: d0f9 b93d b411 a9bd 59d9 cdbc e58b 803b
00000340: 6812 1abd 00aa cd3d a77d 673d 0ce3 0cbd
00000350: 34bb 9c3d 13e8 51bd b6a7 10bc feb2 66bd
00000360: 5f9e db3c b5a1 aa3c c5c7 6ebd 1a8e 983d
00000370: 14cc 963d 5c3f 2dbd e954 0e3d f58d 7a3c
00000380: 6c83 633c 061d da3b ce45 2c3c ccfb b8bc
00000390: 8d38 30bd 9525 8fbd 4957 223d c01c 243d
000003a0: b745 bc3d 1a63 66bc 347c 89bd 3f2d 1fbd
000003b0: 70d4 0a3c 999d 9abb 3a91 73bc e2a0 89bb
000003c0: 1163 793d a120 443d aac0 523d 393f e33c
000003d0: c815 27bd 053f a63d ff2a 27bd e737 663c
000003e0: 1948 dcbd 20bd 11bd 6fc1 943d 50ce 7dbb
000003f0: ff26 60bd ab31 243d 1721 b0bd 4a36 843d
-0.041544713 -0.0075636553 -0.045125972 0.07871941 0.07272384 -0.013698047 0.019871902 -0.08488614
0.01650371 -0.09534535 0.0013577002 -0.009446581 -0.062881224 0.07402975 -0.09233094 0.04813307
-0.042441387 0.040161774 -0.0524314 -0.016778952 -0.032653466 0.09708678 0.011564131 0.02006619
0.073889874 0.0047214143 0.0898599 -0.078250885 -0.092332564 0.0029830153 0.096218094 0.07796033
0.085897066 0.040710203 -0.019846885 -0.059520796 -0.09140574 -0.07900293 0.054710038 0.060935125
-0.054024953 -0.05086434 -0.0009800215 0.019977763 0.043676853 -0.02432935 -0.06927831 0.033689067
0.043964863 0.08074962 0.059687708 -0.06809492 -0.08116454 0.048482373 0.01150834 -0.095219575
0.092481665 -0.07443459 0.089311026 0.09887024 -0.004195118 0.09809722 -0.007059897 -0.036835045
-0.06887008 0.08740583 0.068784684 -0.013839574 0.055613466 -0.021537378 -0.027798656 0.06793458
-0.04787513 -0.015262041 -0.042545054 0.051063344 -0.090337664 0.06935144 0.061184105 0.03440595
0.08508884 -0.034621283 0.07775267 0.02215592 -0.032052018 -0.018767335 0.021062756 -0.09652272
0.062432606 -0.013153096 -0.020391123 0.02479948 0.020290602 -0.06312711 -0.040783353 -0.077210516
0.09575267 0.016987745 0.0958797 0.043858435 0.02799952 0.032092202 0.004100318 0.010500814
0.013874223 0.017575512 0.004984802 -0.10004844 0.074692644 -0.027632678 0.05445365 -0.035569444
-0.05923901 0.024906429 -0.07169345 0.08278618 -0.02471992 0.063201025 -0.022172967 -0.06850957
0.07933371 -0.07844513 -0.0022395658 0.07056516 -0.041408367 -0.15453075 0.04160956 0.037380345
0.042328015 -0.018953754 -0.037547257 -0.07276594 -0.042160787 -0.112453185 0.061947078 -0.0035447706
-0.0763046 -0.04805161 -0.0072054816 -0.092178665 0.03625649 -0.08423897 0.006532567 0.08328489
-0.09557835 -0.049659897 0.045875713 -0.08358361 0.06753548 0.09218189 -0.067097045 0.05931501
0.09509699 0.01006885 0.0967923 0.081434116 0.022633694 -0.031959087 -0.05564471 -0.04059461
0.052751347 -0.010396117 0.06757965 -0.0944319 0.055680245 0.053263977 -0.01513826 -0.03679229
-0.029698633 -0.013639279 0.040280033 -0.0009830042 0.010304399 0.029026587 -0.09468314 -0.053843167
0.072592646 0.08103281 -0.012619856 -0.07631225 -0.06392951 -0.08695363 -0.05403021 0.05298665
0.066116065 0.031242644 0.0058120666 -0.026835479 -0.08968422 0.021555286 -0.056709073 -0.06507797
0.005151012 -0.04067988 0.0032917566 -0.04414074 0.059799585 -0.094877884 -0.0976802 0.060360376
-0.0443937 0.02756772 -0.08852664 0.06208189 0.09080851 -0.0825533 -0.025128054 0.0039229267
-0.03761521 0.100421906 0.056516316 -0.034396216 0.07652894 -0.051246714 -0.008829048 -0.056323044
0.026808916 0.020829061 -0.058295984 0.07448979 0.073631436 -0.042296752 0.034748945 0.015292634
0.013886314 0.006656292 0.01051469 -0.022581004 -0.04302268 -0.0698959 0.039634023 0.04006648
0.091929846 -0.014061714 -0.06713143 -0.03886151 0.008473501 -0.004718494 -0.014866168 -0.004200087
0.060885493 0.04788268 0.05145327 0.027740108 -0.040792257 0.08117489 -0.04081249 0.014051414
-0.10755939 -0.035580754 0.07263457 -0.0038727708 -0.05472469 0.04008643 -0.086000614 0.06455667
