parameter/crf_lstm_parameter/Bigru_crf3.ckpt (torch_old, 582775 bytes, 13 tensors)

transitions f4 [30, 30]
0	0xc61c4000	-10000.0
1	0xc61c4000	-10000.0
2	0xc61c4000	-10000.0
3	0xc61c4000	-10000.0
4	0xc61c4000	-10000.0
5	0xc61c4000	-10000.0
6	0xc61c4000	-10000.0
7	0xc61c4000	-10000.0
8	0xc61c4000	-10000.0
9	0xc61c4000	-10000.0
10	0xc61c4000	-10000.0
11	0xc61c4000	-10000.0
12	0xc61c4000	-10000.0
13	0xc61c4000	-10000.0
14	0xc61c4000	-10000.0
15	0xc61c4000	-10000.0
16	0xc61c4000	-10000.0
17	0xc61c4000	-10000.0
18	0xc61c4000	-10000.0
19	0xc61c4000	-10000.0
20	0xc61c4000	-10000.0
21	0xc61c4000	-10000.0
22	0xc61c4000	-10000.0
23	0xc61c4000	-10000.0
24	0xc61c4000	-10000.0
25	0xc61c4000	-10000.0
26	0xc61c4000	-10000.0
27	0xc61c4000	-10000.0
28	0xc61c4000	-10000.0
29	0xc61c4000	-10000.0
30	0xbec62072	-0.3869663
31	0xbeeca94a	-0.46222907
32	0x3f162bc2	0.5866052
33	0xc02c1d92	-2.6893048
34	0xbf0a52d8	-0.5403266
35	0x3eb3b42c	0.35098398
36	0xbe7eeabb	-0.2489423
37	0xbf1b614c	-0.6069534
38	0x3fe06c3e	1.7533033
39	0x3e83a3fc	0.25711048
40	0x3e3e9952	0.18613175
41	0x3e8511e6	0.25990218
42	0xbe517397	-0.2045425
43	0xbf112211	-0.56692606
44	0xbfa3151b	-1.2740816
45	0xbeb07ee2	-0.34471804
46	0x3e90ed76	0.28306168
47	0xbf95fb1a	-1.1717255
48	0xbf851d89	-1.0399638
49	0xbf58bfc9	-0.8466764
50	0xbf923ee3	-1.1425442
51	0xbf978f7d	-1.1840664
52	0x3f4737fd	0.77819806
53	0xc001c6f6	-2.0277686
54	0xbf295137	-0.6613955
55	0x3f123ac9	0.5712095
56	0x3f6419d5	0.89101917
57	0xbef7d41e	-0.4840402
58	0x3e902ac8	0.2815764
59	0xc61c4000	-10000.0
60	0x3f217954	0.6307576
61	0x3eb0f58e	0.34562343
62	0x3ead8e24	0.33897507
63	0x3d627df1	0.05529589
64	0x3eab4bea	0.33456355
65	0x3f1a25b4	0.6021378
66	0xbe4c703d	-0.1996469
67	0xbdf153cf	-0.11783563
68	0x3f03f213	0.5154125
69	0x3f671183	0.90261096
70	0x3e2889ff	0.16458891
71	0x3f951b38	1.1648932
72	0x3f770774	0.9649575
73	0x3f380322	0.7187978
74	0x3f43803f	0.76367563
75	0x3f06ec71	0.5270453
76	0xbf0c1da5	-0.54732734
77	0xbe823617	-0.25431892
78	0xbdad0510	-0.08448231
79	0x3f506818	0.81408834
80	0xbee05f09	-0.43822506
81	0xbfcea21b	-1.6143221
82	0xbdf2b031	-0.11850012
83	0x3fa0d418	1.2564726
84	0xbe80aeac	-0.25133264
85	0xbeb58201	-0.35450748
86	0xbe8bceb9	-0.27306154
87	0x3fc95413	1.5728782
88	0xbe521320	-0.20515108
89	0xc61c4000	-10000.0
90	0x3f3ea598	0.74471426
91	0x3f08dcee	0.5346211
92	0x3f5c4a28	0.86050653
93	0xbce7ac52	-0.02828041
94	0x3fd76ca5	1.6830031
95	0xbeeca4c5	-0.4621946
96	0x3f4c1190	0.797143
97	0xbf847a0e	-1.0349748
98	0xbf55491b	-0.83314675
99	0xbf02aa80	-0.5104141
100	0xbf7b7613	-0.9822704
101	0xbec317a7	-0.38103983
102	0xbc6c7dc5	-0.014434283
103	0x3fb05d6c	1.377851
104	0xbe108d9d	-0.14116521
105	0x3e56fb74	0.20994359
106	0x3e7557f1	0.23959328
107	0xbe32a5c0	-0.17446041
108	0x3f0fc77f	0.5616378
109	0x3e8c315d	0.2738141
110	0x3f10dee1	0.56590086
111	0xbecdd302	-0.4020005
112	0x3f4342d6	0.7627386
113	0xbe9c8b87	-0.305752
114	0x3eb5bad9	0.35494116
115	0xbfdc3205	-1.7202765
116	0x3fd9b6f7	1.7008961
117	0x3d6e6913	0.058205675
118	0xbf396156	-0.7241415
119	0xc61c4000	-10000.0
120	0x3f6e2213	0.93020743
121	0xbf9b275d	-1.2121388
122	0xbe421e05	-0.18956764
123	0x401817dd	2.3764565
124	0xbfa85cc1	-1.3153306
125	0xbf2dd428	-0.6790185
126	0xbf12836c	-0.57231784
127	0xc001e566	-2.0296264
128	0xbf55a0d2	-0.8344852
129	0xbf4b8e34	-0.7951386
130	0x3e6d1e91	0.23156191
131	0xbde5e973	-0.112261675
132	0x3fd82cb2	1.688864
133	0x3f02d2ff	0.51103204
134	0x3e456e9d	0.19280477
135	0x3e58fd34	0.2119034
136	0x3f106650	0.56406116
137	0xbf3d2965	-0.7389129
138	0xbfe7f9b9	-1.8123084
139	0x3f8756ca	1.0573361
140	0x3f361901	0.711319
141	0xc010fdb9	-2.265486
142	0x3f2f5321	0.6848622
143	0x3fbd92f0	1.4810467
144	0x3f2d1abe	0.6761893
145	0x3fab39f8	1.3377066
146	0xbf59e163	-0.8510954
147	0xbe2b6635	-0.16738208
148	0x40060b75	2.0944493
149	0xc61c4000	-10000.0
150	0xbf4adf99	-0.7924743
151	0x3f8c0510	1.0939045
152	0x3efaf1f2	0.49012715
153	0x3fc4879c	1.5353885
154	0xbe9afc77	-0.3027074
155	0x3f3aae30	0.7292204
156	0xbf18fb45	-0.59758407
157	0x3f5887a5	0.8458198
158	0xbf01b3d0	-0.50665
159	0x3f858ef8	1.0434256
160	0x3f0a2a52	0.53970826
161	0x3f741766	0.95348203
162	0x3f057baf	0.5214185
163	0x3eb083de	0.34475607
164	0xbe7649fc	-0.2405166
165	0x3ea8ba1d	0.32954493
166	0xbe4b524a	-0.1985561
167	0x3e9a0cf1	0.30087999
168	0x3fe0b513	1.755526
169	0xbf0e9af5	-0.55705196
170	0xbed09549	-0.40738896
171	0x3ed56478	0.41678214
172	0x3f84b480	1.0367584
173	0x3ff10b79	1.8831626
174	0x3fdc01dc	1.7188067
175	0xbeec13eb	-0.46108946
176	0xbf809fe4	-1.0048795
177	0xbf507175	-0.8142312
178	0x3f2ab009	0.6667486
179	0xc61c4000	-10000.0
180	0x3f679bbd	0.9047201
181	0xbe8f9851	-0.28045896
182	0x400202ff	2.0314329
183	0x3f39c6cc	0.72568965
184	0x3ea93d22	0.33054453
185	0x3fba8bb1	1.457388
186	0xbf811740	-1.008522
187	0x3de43081	0.11142064
188	0x3f84ac81	1.0365144
189	0x3f644d6c	0.89180636
190	0xbf4de000	-0.8041992
191	0x3f189a4d	0.59610444
192	0xbd23252e	-0.03983038
193	0xbebfc44a	-0.37454444
194	0xc01e36e7	-2.472101
195	0x3e01756a	0.12642446
196	0xbf952539	-1.1651984
197	0x3efcf5c7	0.49406263
198	0x3fb3d078	1.4047995
199	0xbcc27f14	-0.023742236
200	0x3e7a5f57	0.24450432
201	0x3ddf65f0	0.10908115
202	0xbf31155a	-0.69173205
203	0x3ee704a8	0.4512074
204	0xbf3c0d29	-0.7345758
205	0x3e8253f6	0.25454682
206	0x3dc51325	0.09622792
207	0xbf6a4e0a	-0.9152533
208	0x3f977e13	1.183535
209	0xc61c4000	-10000.0
210	0x3fca85d5	1.5822092
211	0xbf57f4d3	-0.8435795
212	0x3e330c4f	0.17485164
213	0x4028b112	2.6358075
214	0xbf58c793	-0.84679526
215	0xbf3e2096	-0.7426847
216	0x3eb6e799	0.3572357
217	0x3e99ee5c	0.30064666
218	0x3ff568fe	1.9172666
219	0x3f335821	0.7005635
220	0x3f765b18	0.9623275
221	0x3cb088a0	0.021549523
222	0x3edc7b96	0.4306304
223	0x3fa474bf	1.2848128
224	0xbf554515	-0.83308536
225	0x3fa848f6	1.3147266
226	0x3fa7a6be	1.3097761
227	0x3e90f446	0.28311366
228	0xc01c1a42	-2.4391026
229	0x3e71ce02	0.23613742
230	0x3f34112e	0.70338714
231	0x3ef296ac	0.4738058
232	0x3db61ce0	0.08892226
233	0x3e8b89c5	0.27253547
234	0x3d709f3c	0.058745608
235	0xbe0c5299	-0.13703384
236	0xc00f079e	-2.23484
237	0x3e76a646	0.24086866
238	0x3f077d74	0.529258
239	0xc61c4000	-10000.0
240	0x3fc8c752	1.5685828
241	0xbf1ecdca	-0.6203276
242	0xbf77f88c	-0.9686363
243	0xbfdfe93c	-1.7493052
244	0xbed760d1	-0.42066053
245	0x3fb5370d	1.4157425
246	0xbdb43c74	-0.08800593
247	0x3e5e6abc	0.21720403
248	0xbf896f91	-1.0737172
249	0x3f9d4235	1.228583
250	0xbf1beed0	-0.60911274
251	0x3f5a487f	0.8526687
252	0xbf072ccc	-0.5280273
253	0x3ec8b0af	0.391973
254	0xbfc9152b	-1.5709585
255	0x3eb965bd	0.36210433

gru.weight_ih_l0 f4 [300, 100]
0	0x3bd5a101	0.0065194373
1	0x3db63dc6	0.08898501
2	0xbaec3d9f	-0.0018023736
3	0x3db89de2	0.09014489
4	0x3dc98e60	0.09841609
5	0xbc26a500	-0.010171175
6	0xbda2e0eb	-0.07953056
7	0x3d421d4d	0.047391225
8	0xbdad198a	-0.08452137
9	0x3cd7e0a9	0.026352243
10	0xbda4864f	-0.0803343
11	0x3d94ee42	0.072720066
12	0x3ccc3ec1	0.024932267
13	0x3cf6ae84	0.030112512
14	0x3da1f524	0.07908085
15	0xbd3e7f8a	-0.04650835
16	0xbd91b628	-0.07114822
17	0xbd9a6092	-0.075379506
18	0xbc54b3e3	-0.012982341
19	0x3dc3f0c0	0.09567404
20	0xbcd2f84d	-0.025753165
21	0xbdc854bc	-0.09781787
22	0x3d775810	0.060386717
23	0x3c9282cc	0.017884634
24	0x3dc1c856	0.09462039
25	0x3d82d14e	0.06387578
26	0x3d8d406e	0.068970546
27	0xbdb92e74	-0.09042063
28	0x3c50e456	0.012749752
29	0xbd8d35a9	-0.068950005
30	0x3be4f547	0.006987247
31	0xbc2394e5	-0.00998423
32	0xbc2ffc37	-0.010741285
33	0x3d28eb3d	0.041239966
34	0xbc61a7ee	-0.013772948
35	0x3d042e42	0.032270677
36	0xbda00d48	-0.07815033
37	0x3d41124c	0.04713659
38	0xbb74e816	-0.003736978
39	0xbc8525df	-0.01625341
40	0x3d22fa41	0.039789442
41	0x3d7953ed	0.060871053
42	0xbc17d4e5	-0.009267067
43	0x3d180d28	0.03712192
44	0x3db2d917	0.08732813
45	0x3dc1e448	0.09467369
46	0xbcf697fc	-0.030101769
47	0xbd6951de	-0.05696284
48	0xbd9a7634	-0.07542077
49	0x3d707cec	0.058712885
50	0xbdcae71d	-0.099073626
51	0xbd45edc0	-0.04832244
52	0xbdae6fd1	-0.08517421
53	0xbd186511	-0.03720576
54	0x3d9df3c9	0.07712514
55	0xbd805db2	-0.06267871
56	0xbd60f112	-0.054917403
57	0x3cbac3b0	0.02279839
58	0xbdb77782	-0.08958341
59	0x3ca89b90	0.02058199
60	0xbdc7108b	-0.09719952
61	0xbcd6eaac	-0.026234947
62	0xbdbe2eda	-0.0928628
63	0xbd0c7632	-0.034292407
64	0x3d90d642	0.070721164
65	0xbd1a5f42	-0.0376885
66	0xbce9ee01	-0.028555872
67	0x3db24cb5	0.08706037
68	0x3d157d12	0.03649623
69	0x3d46326b	0.048387926
70	0xbd08c6f1	-0.03339285
71	0xbd238a42	-0.039926775
72	0xbdcc2729	-0.09968407
73	0xbd49e87c	-0.04929398
74	0x3dc96179	0.098330446
75	0x3d999bfb	0.07500454
76	0x3d989298	0.074498355
77	0x3cf84eb9	0.030310975
78	0x3d51c190	0.051209986
79	0xbd5e5457	-0.05427965
80	0x3d8f78f2	0.0700549
81	0xbd952964	-0.07283285
82	0x3c468f8d	0.012119186
83	0x3cdb124a	0.02674212
84	0x3ca99b7d	0.020704025
85	0x3c91f64f	0.017817644
86	0x3ce019ff	0.027356146
87	0xbdba324c	-0.090916246
88	0xbd523085	-0.051315803
89	0x3d5de163	0.054170024
90	0x3d50986f	0.050926622
91	0xbdb08746	-0.08619551
92	0xbd88d201	-0.0668068
93	0xbd758a7c	-0.059946522
94	0xbdb17553	-0.08664956
95	0xbcde0779	-0.027103173
96	0x3d736251	0.059419934
97	0xbd776fb7	-0.060409274
98	0x3c19b9ac	0.0093826465
99	0xbda0167d	-0.07816789
100	0xbd618227	-0.055055764
101	0x3d34d749	0.044150624
102	0x3d483d29	0.048886452
103	0x3d9a052a	0.07520516
104	0xbabb6e17	-0.0014299777
105	0xbda47c01	-0.08031464
106	0xbdb7139e	-0.089392886
107	0xbda56124	-0.08075169
108	0x3d35f010	0.044418395
109	0xbd0d89ad	-0.034555126
110	0x3da961c1	0.08270598
111	0xbdba4e48	-0.09096962
112	0xbb499c8d	-0.0030763478
113	0xbdb0f002	-0.08639528
114	0x3cffb327	0.031213356
115	0xbdaa31fe	-0.083103165
116	0x3cf946cc	0.030429266
117	0xbce77633	-0.028254604
118	0xbdaab061	-0.08334423
119	0x3d5eae93	0.054365706
120	0xbd97b3f5	-0.07407371
121	0x3c51c2d7	0.012802801
122	0xbcaf5708	-0.021403804
123	0xbd58a77c	-0.0528941
124	0x3dafd41d	0.08585379
125	0xbd6e9336	-0.05824586
126	0xbda607b1	-0.08106936
127	0x3d28a8e0	0.041176677
128	0xbd083c84	-0.033260837
129	0xbd4e6d0f	-0.050396975
130	0xbdafb56f	-0.085795276
131	0x3dc620d1	0.09674228
132	0x3c9b4f32	0.018958662
133	0x3b895e1f	0.0041921283
134	0xbdb2eda1	-0.0873673
135	0x3d9235fb	0.07139202
136	0x3d535da6	0.051602982
137	0xbd37a62b	-0.044836204
138	0x3bd295b4	0.0064265374
139	0x3db61da3	0.088923715
140	0xbd0b8b23	-0.034068238
141	0xbda1cdc5	-0.079005755
142	0x3d550f38	0.052016467
143	0xbd58cf3d	-0.052932013
144	0x3c77b492	0.015118735
145	0xbcfa87b9	-0.030582296
146	0x3dbc997f	0.092089646
147	0x3c3e81fa	0.0116276685
148	0xbd442046	-0.04788234
149	0x3d657e96	0.056028925
150	0xbdad8d81	-0.08474255
151	0x3d9006b3	0.07032528
152	0x3cb65216	0.022255939
153	0x3d5d2e35	0.053999145
154	0x3daa27dd	0.083083846
155	0xbd6af3b6	-0.057361327
156	0xbdc1456d	-0.0943707
157	0x3d8a2411	0.0674516
158	0xbd812c9d	-0.063073374
159	0xbd48a606	-0.048986457
160	0x3d3bb1d6	0.045823894
161	0xbce003aa	-0.027345497
162	0x3d971822	0.0737765
163	0x3be29d3a	0.0069157155
164	0xbd64ca51	-0.055857006
165	0xbd20bed0	-0.039244473
166	0x3d4ebbfe	0.050472252
167	0xbdaaabc3	-0.08333542
168	0xbd8086b7	-0.06275695
169	0xbd6fa6ee	-0.058508806
170	0xbd67a8f3	-0.056557607
171	0xbd574747	-0.05255821
172	0xbbaa385c	-0.005194707
173	0xbd5411ea	-0.051774897
174	0xbdb24355	-0.08704249
175	0xbd22cad9	-0.03974423
176	0x3da5656f	0.080759875
177	0x3d99d3be	0.0751109
178	0xbbf23a63	-0.007392214
179	0xbc85d305	-0.016335974
180	0xbd4db182	-0.050218113
181	0xbcd2bfec	-0.025726281
182	0x3bd9cf02	0.0066469917
183	0x3d8ee7dc	0.069778174
184	0x3dc85f73	0.097838305
185	0xbc683707	-0.014173276
186	0xbdb28392	-0.08716501
187	0xbd999970	-0.07499969
188	0xbd9e9695	-0.07743565
189	0x3d7276b2	0.059195228
190	0x3cef2425	0.02919204
191	0xbba8e197	-0.0051538455
192	0x3d1b64da	0.037937976
193	0xbd764e5b	-0.06013332
194	0xbdc72baf	-0.09725129
195	0xbd8d0c8a	-0.06887157
196	0x3cdebe23	0.027190274
197	0x3cc75869	0.02433415
198	0xbd38c779	-0.045112107
199	0xbd5a1fc4	-0.05325295
200	0x3d0f8754	0.03504117
201	0x3cba8c8e	0.0227721
202	0x3d5cf3f3	0.053943586
203	0xbd1690dc	-0.036759242
204	0x3ca4d200	0.020119667
205	0x3d1bedd0	0.038068593
206	0xbd5e5516	-0.054280363
207	0x3d171ec1	0.036894564
208	0x3dbd4f8f	0.0924369
209	0x3d25a3e2	0.040439494
210	0xbc655323	-0.013996872
211	0xbd64f5e4	-0.055898562
212	0x3da93417	0.082618885
213	0x3d4cd953	0.050011944
214	0x3db6e4f0	0.08930385
215	0xbd598ed6	-0.053114735
216	0xbce6abd3	-0.028158104
217	0xbd25faa8	-0.040522248
218	0x3d413cf4	0.04717727
219	0x3d243e6f	0.040098604
220	0xbdb21eb2	-0.08697261
221	0xbca5a4a3	-0.020220106
222	0x3bcdf3e5	0.006285178
223	0xbca42db3	-0.020041322
224	0xbcf98fee	-0.030464139
225	0xbd978c97	-0.07399862
226	0xbd8b38b2	-0.06797923
227	0x3d9d5ba3	0.07683494
228	0x3d6401af	0.055665668
229	0xbbca9a9d	-0.006182982
230	0xbdb265e3	-0.087108396
231	0x3d62c65c	0.05536495
232	0xbda98c5b	-0.08278724
233	0xbd9938c8	-0.07481533
234	0x3dcbdcd1	0.09954227
235	0x3cea70d2	0.02861825
236	0x3d28ebd8	0.041240543
237	0x3c5310c5	0.012882416
238	0xbc09b483	-0.008404854
239	0x3bcac5f3	0.006188148
240	0x3d9a3a4b	0.0753065
241	0xbd269afa	-0.04067514
242	0x3dc8fc6b	0.0981377
243	0xbcab3f6c	-0.020904265
244	0xbd0b9e1e	-0.03408634
245	0x3d2f658f	0.042821463
246	0x3d34a6c7	0.044104364
247	0xbda07de4	-0.07836512
248	0x3dcb218a	0.099185064
249	0xbdcb7b13	-0.09935584
250	0x3d614311	0.0549956
251	0xbce3860d	-0.027773881
252	0xbc955b82	-0.01823211
253	0xbcbd8891	-0.023136409
254	0xbd260b2e	-0.040538006
255	0x3cc66281	0.024216892

gru.weight_hh_l0 f4 [300, 100]
0	0xbd153dee	-0.036436014
1	0x3d8595a1	0.0652268
2	0x3d7d3414	0.061817244
3	0xbc471911	-0.012151972
4	0xbda7a8eb	-0.081865154
5	0x3d818a07	0.06325155
6	0x3d67b411	0.05656821
7	0x3c249ffa	0.010047907
8	0xbd632853	-0.055458378
9	0x3d5ccf0d	0.053908397
10	0x3d8acc6e	0.06777273
11	0x3dbf9449	0.09354455
12	0x3d3a3d99	0.0454689
13	0x3d990bc7	0.074729495
14	0xbd9a0d02	-0.07522012
15	0xbdca3487	-0.098733
16	0x3ce97c94	0.028501786
17	0xbd957a59	-0.072987266
18	0x3d384881	0.04499102
19	0xbd2b25c0	-0.041784048
20	0x3c9371cd	0.0179986
21	0x3dbaa6bd	0.09113834
22	0x3ae7b3bb	0.0017677465
23	0xbd9c0bbc	-0.07619426
24	0xbdc95636	-0.098308966
25	0x3d3c9d3c	0.046048388
26	0x3ca23fd0	0.019805819
27	0xbc0fc2e0	-0.008774489
28	0xbd865111	-0.06558431
29	0x3dbd9d45	0.092585124
30	0x3d1fe53a	0.039036967
31	0x3cf788ba	0.030216563
32	0xbc970382	-0.01843429
33	0xbcbd3d6e	-0.023100581
34	0x3dabcbff	0.083885185
35	0x3dbbd115	0.091707386
36	0x3dae43f8	0.08509058
37	0xbdcd52d9	-0.100255676
38	0xbd47c79d	-0.04877435
39	0x3c2e0f91	0.0106238285
40	0x3c5f0fa2	0.013614567
41	0xbcbf216c	-0.023331366
42	0x3bc9d150	0.006158985
43	0x3d1e9481	0.038715843
44	0x3d9cc37d	0.07654474
45	0xbd881059	-0.06643743
46	0xbdb6fea7	-0.0893529
47	0x3bbb4e7b	0.0057161427
48	0x3d2c8f31	0.042128745
49	0xbd741b2f	-0.059596237
50	0x3db74fee	0.08950792
51	0xbd5269ab	-0.051370304
52	0x3d77fb64	0.06054248
53	0x3d1af863	0.037834536
54	0xbcd7a4e4	-0.026323743
55	0x3b8286d6	0.003983359
56	0xbd2d7da5	-0.042356152
57	0x3dc27c65	0.094963826
58	0x3db3c731	0.08778227
59	0xbd98cc4e	-0.07460843
60	0x3d1a52ce	0.037676625
61	0xbcebb9a0	-0.028775036
62	0xbd328b93	-0.04359014
63	0x3d4b855d	0.049687732
64	0xbd99b0cf	-0.07504427
65	0xbd740ad7	-0.05958065
66	0xbdc3aa4e	-0.095539674
67	0x3cf45683	0.029826408
68	0xbd854470	-0.06507194
69	0x3c39bbd0	0.011336282
70	0xbcc9bb01	-0.024625303
71	0x3cdedfc3	0.027206307
72	0xbcf790f5	-0.030220488
73	0xbcad2c1d	-0.021139199
74	0xbb0c1d03	-0.0021379597
75	0xbbc2a41c	-0.0059399735
76	0xbd57a255	-0.052645046
77	0x3dbbdfd9	0.09173555
78	0xbc9e7546	-0.01934303
79	0x3d2cdb44	0.042201295
80	0x3ca5ff9c	0.020263486
81	0xbc0db26e	-0.008648498
82	0x3d2793b2	0.040912338
83	0xbdc0780c	-0.09397897
84	0xbc9ee493	-0.019396102
85	0xbd2e28a1	-0.042519215
86	0xbda007d1	-0.07813991
87	0x3dc0c92c	0.094133705
88	0xbcf940c6	-0.030426394
89	0xbdae9415	-0.08524338
90	0x3d9ce90e	0.07661639
91	0x3cefd149	0.0292746
92	0xbd63710a	-0.055527724
93	0x3d96b366	0.07358436
94	0x3d4f6c16	0.05064019
95	0x3ae4b182	0.0017447921
96	0x3c60be90	0.013717309
97	0x3bb7ed7a	0.005613026
98	0xbdb82752	-0.08991875
99	0xbd80f5dc	-0.06296894
100	0xbcc71955	-0.024304071
101	0x3d9f5aac	0.07780966
102	0x3d81a50e	0.0633031
103	0x3dca9eee	0.09893595
104	0x3d0299ce	0.03188496
105	0xbdae593f	-0.08513116
106	0x3bbd6fa3	0.0057811304
107	0xbdb60bbf	-0.08888959
108	0xbdc98ab1	-0.098409064
109	0x3d1c1ca1	0.03811324
110	0xbc285081	-0.0102731
111	0x3da9b1df	0.08285879
112	0x3d992c97	0.07479208
113	0x3d175520	0.036946416
114	0xbb253f98	-0.0025214907
115	0xbdcb2051	-0.09918273
116	0x3c8836ce	0.016627695
117	0xbd1c73a3	-0.038196217
118	0x3da872f3	0.0822505
119	0xbc9a3ab3	-0.018826818
120	0xbdcca956	-0.09993236
121	0x3be266ae	0.006909213
122	0x3dafb247	0.085789256
123	0x3db7a0da	0.08966227
124	0xbc83da2b	-0.016095242
125	0x3c0fbd3a	0.0087731425
126	0xbd6cce5e	-0.057813995
127	0xbd73171d	-0.059348214
128	0x3d24b0fd	0.04020785
129	0x3d479d2f	0.048733886
130	0xbd2c7ef7	-0.04211327
131	0x3da41619	0.08012027
132	0x3d397521	0.04527772
133	0x3d85cefd	0.065336205
134	0xbce2ef27	-0.027701927
135	0x3cfa7689	0.0305741
136	0x3d1abdcb	0.037778657
137	0x3bd9cf36	0.006647016
138	0xbc6e130b	-0.014530907
139	0xbd9ab73d	-0.07554481
140	0xbdc8733e	-0.09787606
141	0xbd94a536	-0.07258074
142	0x3d2f1df3	0.04275317
143	0xbc43cd9e	-0.011950878
144	0x3b82b51f	0.0039888765
145	0xbd41a5ec	-0.047277376
146	0x3d8c058d	0.06836996
147	0xbd562368	-0.05227986
148	0x3d4dade8	0.050214678
149	0xb91b0eb6	-0.00014787432
150	0x3daa839e	0.08325885
151	0xbd5ac62a	-0.05341164
152	0x3da3dd9e	0.080012545
153	0xbc61f1d8	-0.01379057
154	0x3da9e472	0.082955256
155	0xbc1ce2c7	-0.009575552
156	0xbd445f12	-0.04794223
157	0xbcf3184e	-0.029674675
158	0x3da3135c	0.07962677
159	0x3c3cb0a3	0.011516723
160	0xbd6fd53a	-0.058552958
161	0x3d7d540d	0.061847735
162	0x3d7aad5c	0.061200485
163	0xbd47f439	-0.048816893
164	0xbd57421d	-0.052553285
165	0xbd7de7a7	-0.0619885
166	0x3dc85e2e	0.09783588
167	0x3ab8677e	0.0014068929
168	0x3d1d062c	0.038335964
169	0x39bba311	0.00035788913
170	0x3d24e60e	0.04025846
171	0xbd889520	-0.06669068
172	0xbda027c7	-0.07820087
173	0xbc8c06bb	-0.017093053
174	0x3d12d28e	0.03584533
175	0x3db1bf52	0.086790696
176	0x3d994c63	0.07485273
177	0xbc4225f5	-0.01184987
178	0xbd7bda4c	-0.06148748
179	0x3dc0aabc	0.09407565
180	0xbcfd28c7	-0.030903233
181	0xbd80c0a1	-0.06286741
182	0xbc130ad4	-0.00897475
183	0x3d483d14	0.048886374
184	0x3b515370	0.0031940602
185	0xbc52f9fa	-0.012876982
186	0x3b6d2e11	0.0036190788
187	0xbdcade93	-0.09905734
188	0xbcfb6789	-0.030689018
189	0x3cd66ee2	0.02617592
190	0x3d6b70fb	0.057480793
191	0xba1ad26f	-0.0005905991
192	0xbd740be0	-0.059581637
193	0x3d8972b6	0.067113325
194	0x3c38ef1f	0.01128748
195	0x3c4d75a6	0.012540257
196	0x3db55b98	0.08855361
197	0xbd38445c	-0.044987068
198	0x3c91a920	0.01778084
199	0xbcb5f98f	-0.022213725
200	0x3d98a64e	0.07453595
201	0xbcc6193e	-0.024181958
202	0xbd4a3585	-0.049367446
203	0x3da006e2	0.07813813
204	0x3dab0204	0.08349994
205	0xbda76068	-0.08172685
206	0x3c21b2cb	0.009869288
207	0x3d465264	0.048418418
208	0x3c126129	0.008934298
209	0x3ce51181	0.027962448
210	0xbd6dbb12	-0.058039732
211	0x3dbd1926	0.09233312
212	0xbd4806f3	-0.048834752
213	0xbd2d84e9	-0.04236308
214	0xbdb76abd	-0.089559056
215	0x3c0fcc6d	0.008776766
216	0x3d0d86db	0.034552436
217	0xbd93059f	-0.071788065
218	0xbce8307f	-0.028343437
219	0xbd5efda7	-0.05444112
220	0xbd07fdcb	-0.03320102
221	0x3d9ed2fc	0.07755086
222	0xbdb18f65	-0.086699285
223	0xbd841a99	-0.064503856
224	0xbb08311d	-0.0020781227
225	0xbdb8f608	-0.09031302
226	0x3d4ce03f	0.050018545
227	0x3d70aa4a	0.05875615
228	0xbcd325a9	-0.025774794
229	0xbbad9f78	-0.005298551
230	0x3cb60917	0.022221131
231	0xbc61feae	-0.0137936305
232	0x3d494968	0.04914227
233	0x3da41f02	0.08013727
234	0x3ce0e850	0.027454525
235	0x3ce2f7ba	0.027706016
236	0x3d0cd356	0.034381233
237	0xbab8e6ca	-0.0014106866
238	0x3d88091e	0.06642364
239	0x3d8cf8da	0.06883402
240	0x3d2c1348	0.042010576
241	0x3d72cb3b	0.059275847
242	0x3d3ad0e9	0.04560939
243	0x3d68b4c6	0.056813024
244	0x3c99c5cb	0.018771073
245	0x3ca74f17	0.020423455
246	0x3d7cdaea	0.06173221
247	0x3d8355d8	0.06412858
248	0xbd8d174f	-0.068892114
249	0xbdb23da9	-0.08703167
250	0x3c43a222	0.011940511
251	0xbda53e83	-0.08068564
252	0x3c37625e	0.011192886
253	0xbda01254	-0.07815996
254	0x3bdb63a4	0.0066952277
255	0xbd609013	-0.0548249

gru.bias_ih_l0 f4 [300]
0	0x3d24c71a	0.04022894
1	0x3d123317	0.035693254
2	0x3dc8a12c	0.09796366
3	0x3d54274c	0.05179529
4	0x3db5c286	0.08874993
5	0xbd578982	-0.052621372
6	0xbc2126a1	-0.00983587
7	0xbd886744	-0.06660321
8	0xbd08a9e0	-0.03336513
9	0xbd56c19d	-0.052430738
10	0x3d65e5c0	0.05612731
11	0xbdca55a8	-0.09879619
12	0xbc9a961c	-0.018870406
13	0xbd09ce7c	-0.033644184
14	0xbc83de7a	-0.016097296
15	0x3dc6a2e9	0.096990414
16	0x3c0df7d9	0.0086650485
17	0xbd93e483	-0.072213195
18	0xbca0d98b	-0.019634983
19	0xbd180ac5	-0.037119646
20	0x3d0e470e	0.03473573
21	0xbd0ecc30	-0.034862697
22	0xbcb715a6	-0.02234919
23	0xbd014bea	-0.031566538
24	0x3d9657d4	0.07340971
25	0x3dba2ad9	0.09090204
26	0x3d57a439	0.05264685
27	0xbdc72387	-0.09723573
28	0xbda6f7ea	-0.081527546
29	0x3d7be25d	0.061495174
30	0x3d6b4373	0.05743737
31	0x3cb3f9d0	0.021969706
32	0xbd818fe4	-0.06326273
33	0x3d99e444	0.07514241
34	0xbd2569d5	-0.040384132
35	0x3dc24c37	0.09487193
36	0x3d0d3a82	0.034479626
37	0xbd7a33bd	-0.061084498
38	0x3c5e56e2	0.013570519
39	0x3db23393	0.08701243
40	0xbdbf7c40	-0.09349871
41	0x3cc6b0cb	0.024254223
42	0x3dba22d1	0.09088672
43	0x3d9b5079	0.07583708
44	0xbb2bcd61	-0.0026214945
45	0x3db9cf18	0.09072703
46	0x3db1697e	0.08662699
47	0xbdad1377	-0.08450978
48	0x3d20e3e4	0.039279833
49	0x3bf39c8f	0.0074344347
50	0x3d8d4e57	0.06899708
51	0x3dae116d	0.084994175
52	0x3d799a02	0.06093789
53	0x3c79c788	0.015245326
54	0xbc4a1f20	-0.012336522
55	0xbcc4ccbd	-0.024023408
56	0xbd9c558e	-0.07633506
57	0x3b3f9d41	0.0029238018
58	0x3d915d7f	0.07097911
59	0xbcc5306b	-0.024070939
60	0xbcf30426	-0.029665064
61	0xbcf94d45	-0.030432353
62	0x3d305eed	0.04305928
63	0x3bc95d25	0.006145137
64	0xbdc96e72	-0.09835519
65	0x3da41069	0.080109425
66	0x3cb5caab	0.022191366
67	0x3d9854fd	0.07438085
68	0xbc5f2031	-0.013618515
69	0xbd9344e8	-0.07190877
70	0xbbcb7577	-0.0062090713
71	0x3da865a2	0.0822251
72	0x3d179e96	0.037016474
73	0x3d8893d7	0.06668823
74	0xbd9eaf67	-0.07748299
75	0xb9f1f98a	-0.00046153023
76	0xbd2598c7	-0.040428903
77	0xbdbaaa9a	-0.09114571
78	0xbd5c2cc0	-0.053753614
79	0xbda476ab	-0.080304466
80	0x3d25e165	0.040498156
81	0xbd7dd078	-0.06196639
82	0x3d635b89	0.055507217
83	0x3d87e2ca	0.066350535
84	0xbd949b14	-0.07256141
85	0xbd830261	-0.06396938
86	0x3dca997e	0.098925576
87	0xbdce919c	-0.100863665
88	0x3d1ce26a	0.038301863
89	0x3cef190d	0.02918675
90	0xbd7a7ddb	-0.06115518
91	0x3d7439ec	0.05962555
92	0x3d301efd	0.042998303
93	0x3d5c7b50	0.053828537
94	0x3dc6a17b	0.09698769
95	0xbc3f4e19	-0.011676335
96	0xbd630456	-0.055424057
97	0xbd176d2c	-0.03696935
98	0x3d8afc00	0.067863464
99	0xbd6490d3	-0.055802178
100	0xbca4402d	-0.020050133
101	0x3d57bb2d	0.05266874
102	0x3d858fe5	0.06521586
103	0xbd39cb47	-0.045359876
104	0x3c0538c2	0.008131208
105	0xbda7af0e	-0.08187686
106	0x3db4cc79	0.088280626
107	0x3d1d8585	0.038457412
108	0xbcb33cd5	-0.021879593
109	0xbc423191	-0.011852638
110	0xbd139377	-0.036029305
111	0xbd660256	-0.05615457
112	0x3d6ed9e2	0.058313258
113	0xbd52581c	-0.05135356
114	0x3d82796f	0.06370818
115	0xbc10a82e	-0.00882916
116	0x3c4fcded	0.012683374
117	0x3d592e72	0.05302281
118	0xbbc5f7d4	-0.0060415063
119	0xbd0ff002	-0.035141
120	0xbd8db7cf	-0.06919824
121	0xbd6b0d40	-0.057385683
122	0x3ceffb41	0.029294612
123	0x3d42da82	0.047571667
124	0x3c74d5aa	0.01494352
125	0xbd964c9d	-0.073388316
126	0x3d0194f3	0.03163619
127	0xbd87a35c	-0.06622955
128	0x3d6bccce	0.057568364
129	0x3d871f8c	0.06597814
130	0xbd3c4194	-0.045960978
131	0xbd98f493	-0.07468524
132	0x3d4bafb5	0.049728114
133	0x3d4b7efb	0.049681645
134	0x3c21fd1d	0.009887007
135	0x3d222df0	0.03959459
136	0xbdc90176	-0.09814732
137	0xbdba2b84	-0.09090331
138	0xbd84ea4e	-0.064900026
139	0xbdd89e37	-0.10577052
140	0x3b8d6b5c	0.0043157768
141	0x3d151180	0.036393642
142	0x3d933ba1	0.07189108
143	0x3bf243d1	0.0073933383
144	0xbd07961d	-0.033102144
145	0xbc461eb3	-0.01209228
146	0xbc243ac5	-0.010023777
147	0xbdbf4106	-0.09338574
148	0xbd869dcc	-0.06573066
149	0x3d28ee44	0.041242853
150	0xbcef412c	-0.029205881
151	0xbda22ccb	-0.079187
152	0xbda9eebd	-0.08297489
153	0x3d99c0ba	0.07507463
154	0xbd78f83f	-0.06078362
155	0x3cdc1bd5	0.02686874
156	0x3d6183d0	0.055057347
157	0xbdecb893	-0.11558642
158	0x3d921466	0.07132797
159	0xbddfafde	-0.10922216
160	0x3d175577	0.03694674
161	0x3db744ec	0.08948693
162	0xbdf5d08c	-0.12002668
163	0x3cea20a1	0.028580012
164	0xbb3c09ef	-0.0028692444
165	0xbcb719d3	-0.022351181
166	0xbd3f1074	-0.04664655
167	0xbd83c144	-0.06433347
168	0x3d813c18	0.0631029
169	0x3c8e64cc	0.017382048
170	0xbdba62fc	-0.09100911
171	0xbd64acf2	-0.055828996
172	0xba0346da	-0.0005007811
173	0xbd196f19	-0.037459467
174	0xbdf7017f	-0.12060832
175	0xbdc9e6db	-0.09858485
176	0xbd0e4836	-0.034736834
177	0xbc8eeab4	-0.0174459
178	0xbc813300	-0.015771389
179	0xbc42fd69	-0.011901238
180	0xbbf9143b	-0.0076012886
181	0xbcf68a84	-0.030095346
182	0x3d085f4b	0.033294003
183	0xbd00037f	-0.031253334
184	0xbcc99af6	-0.024610024
185	0x3d1ca953	0.038247418
186	0xbd46f1ab	-0.048570316
187	0xbd09209a	-0.033478357
188	0xbd10758d	-0.035268355
189	0xbd39dac0	-0.045374632
190	0x3dc20c4c	0.09475002
191	0xbd0a06a7	-0.03369775
192	0x3cdde318	0.027085826
193	0xbd9f3802	-0.077743545
194	0xb94f8583	-0.00019790795
195	0x3c04f8b9	0.008115941
196	0xbdac4a9d	-0.08412669
197	0xbdcd04be	-0.1001067
198	0x3d503cda	0.050839283
199	0xbcd065c9	-0.02543916
200	0xbc6671cc	-0.014065217
201	0x3b9507f6	0.004548068
202	0xbb4b65c6	-0.0031036003
203	0xbd04a78a	-0.03238634
204	0xbe042bb4	-0.12907296
205	0x3d052d50	0.032513916
206	0xbddbeb8b	-0.10738286
207	0x3d1d65ff	0.03842735
208	0xbc84ed88	-0.016226545
209	0x3d99393b	0.07481619
210	0xbda67667	-0.08128052
211	0xbc701ee1	-0.0146558
212	0xbd0971ec	-0.03355591
213	0x3daf7047	0.08566337
214	0x3da6092e	0.0810722
215	0x3dce521f	0.10074257
216	0x3d77dd05	0.060513515
217	0x3df3ab63	0.11897924
218	0xbd9c29bc	-0.07625148
219	0x3bbbcfb8	0.005731549
220	0xbdb39381	-0.087683685
221	0xbdc87d3e	-0.09789513
222	0xbd24b531	-0.04021186
223	0x3d621ad7	0.055201378
224	0xbdc820bb	-0.09771868
225	0xbd0a6a13	-0.033792567
226	0xbd74c75e	-0.059760444
227	0xbd8d1f5a	-0.068907455
228	0x3dc93c63	0.09825971
229	0x3d1b0931	0.037850562
230	0x3d21d53a	0.03950999
231	0x3d8775ed	0.066142894
232	0x3da7382c	0.08165011
233	0xbd9a921c	-0.075473994
234	0x3d2edacb	0.042689126
235	0x3cbe24d2	0.023210917
236	0xbddc89c5	-0.10768465
237	0x3e0fc9ff	0.14041899
238	0xbd485d2a	-0.048916973
239	0xbc233ba0	-0.009962946
240	0xbba9cbd0	-0.005181767
241	0x3ccc56cc	0.024943732
242	0x3d333a23	0.043756615
243	0xbd5f72fa	-0.05455301
244	0xbcd1a413	-0.025590932
245	0x3dfc0ce3	0.123071454
246	0x3cf0dd28	0.02940233
247	0xbc96a142	-0.01838744
248	0xbd108e17	-0.035291757
249	0xbcab2015	-0.020889321
250	0xbde1326c	-0.10995945
251	0x3d595f8a	0.05306963
252	0x3ce0d5b6	0.027445655
253	0xbdba4a3c	-0.0909619
254	0x3cfe0292	0.031007085
255	0x3db36669	0.087597676

gru.bias_hh_l0 f4 [300]
0	0xbdc1cf69	-0.094633885
1	0x3c2e7207	0.010647303
2	0x3dae57de	0.08512853
3	0x3c2e7ccb	0.01064987
4	0xbc2cc190	-0.010544196
5	0xbd46fc85	-0.048580665
6	0x3d291636	0.041280948
7	0xbd86f64c	-0.06589946
8	0xbdc6e544	-0.09711698
9	0x3daf13cb	0.08548697
10	0xbdc55b01	-0.09636498
11	0x3dbf706f	0.09347617
12	0x3d6cdc8c	0.057827517
13	0xbd0b8f8a	-0.034072436
14	0x3b6c4d70	0.0036056899
15	0x3d7303b7	0.059329715
16	0xbda64b7e	-0.08119868
17	0xbd498c54	-0.049206093
18	0x3c75163d	0.014958915
19	0x3d88e33a	0.06683965
20	0xbc0a5182	-0.008442285
21	0x3d110f5f	0.03541505
22	0xbda4a71f	-0.08039688
23	0xbdbb3b2d	-0.09142146
24	0xbc552427	-0.013009108
25	0xbd0c80ea	-0.03430263
26	0xbd7adb41	-0.061244253
27	0xbc51ecf5	-0.012812843
28	0xbd520417	-0.05127343
29	0x3cdc43e1	0.026887836
30	0x3d240c57	0.04005083
31	0x3d3b8117	0.045777407
32	0xbbb86c62	-0.0056281546
33	0x3d8e32f3	0.069433115
34	0x3d6a4368	0.05719319
35	0xbd9e23ef	-0.077216975
36	0x3c9abd2f	0.018889038
37	0xbd034912	-0.032052107
38	0xbb95fa0b	-0.0045769266
39	0xbd2861b7	-0.041108813
40	0x3d8f02cf	0.069829576
41	0x3db28ad0	0.08717883
42	0xbd112076	-0.035431348
43	0xbdb50d50	-0.0884043
44	0xbcffcfcf	-0.03122702
45	0x3d143376	0.03618189
46	0xbda0b36c	-0.07846722
47	0x3a97c6f3	0.0011579677
48	0x3c8bf944	0.017086633
49	0xbd5a24ff	-0.05325794
50	0xbd06ac16	-0.032878958
51	0x3d9f38e7	0.07774525
52	0x3d5c2c15	0.053752977
53	0x3d3c6473	0.045994233
54	0x3c27d838	0.010244422
55	0xbd5592a4	-0.0521418
56	0xbdadac0f	-0.08480083
57	0x3d01a58b	0.031652015
58	0x3dc44f50	0.0958544
59	0xbbb5f905	-0.005553367
60	0xbd918a91	-0.071065076
61	0xbd82be96	-0.06384008
62	0xbda53128	-0.080660164
63	0x3dca6206	0.09881978
64	0xbcc249a5	-0.023716757
65	0x3cff4b62	0.031163875
66	0xbc54ca63	-0.012987706
67	0x3d996ca0	0.07491422
68	0x3c398d52	0.011325197
69	0xbadac890	-0.0016691852
70	0xbd44ef9a	-0.048080064
71	0xbdce1e12	-0.10064329
72	0x3bf4e000	0.007472992
73	0x3b662118	0.003511494
74	0xbd9881c5	-0.074466266
75	0xbd9d020b	-0.07666405
76	0x3da11953	0.07866158
77	0x3dc45da8	0.09588176
78	0xbd2315b5	-0.039815623
79	0xbd73762b	-0.059438866
80	0xbd18e37d	-0.037326325
81	0xbce87eeb	-0.028380832
82	0xbc88ce40	-0.01669991
83	0x3dadb248	0.0848127
84	0x3cbec4c6	0.023287188
85	0xbd37dc7c	-0.044888005
86	0x3cb2ef9e	0.021842774
87	0xbd535425	-0.05159392
88	0xbdb31495	-0.0874416
89	0x3c331ae5	0.010931705
90	0xbd278efe	-0.040907852
91	0x3ac09274	0.0014692084
92	0x3d734a9d	0.05939733
93	0xbc96f8e7	-0.018429233
94	0x3cbf656e	0.023363795
95	0x3c1c8329	0.009552755
96	0xbd1dcebb	-0.03852723
97	0xbd163572	-0.036672063
98	0x3db15b65	0.0866001
99	0x3dc0b96f	0.09410369
100	0xbd7b2186	-0.061311267
101	0xbdafcdc8	-0.085841715
102	0xbdb57286	-0.08859734
103	0x3cca3df5	0.024687747
104	0xbcf43a4f	-0.02981296
105	0xbcb1a6ee	-0.021686044
106	0x3c09b54b	0.00840504
107	0xbd9b6e90	-0.075894475
108	0xbd30084f	-0.042976674
109	0xbda4f7a9	-0.0805505
110	0xbd1f7bef	-0.03893655
111	0xbd3311fd	-0.043718327
112	0xbdd2349d	-0.102639414
113	0x3d86d2db	0.06583186
114	0x3d38b1f7	0.045091596
115	0xbbaefd74	-0.0053402726
116	0xbbd23d36	-0.0064159883
117	0x3c4a4b4f	0.0123470565
118	0x3d23d4a0	0.039997697
119	0x3cbf4062	0.02334613
120	0xbddd9469	-0.108193226
121	0xbdcc9db5	-0.09991018
122	0xbdc5e9c6	-0.09663729
123	0x3d9ef82c	0.07762179
124	0xbb593f90	-0.0033149458
125	0x3da381f2	0.079837695
126	0x3d72ffd6	0.059326015
127	0xbc0b28c9	-0.008493611
128	0xbd8ed7a8	-0.06974727
129	0xbd650fa1	-0.055923108
130	0xbd9346fb	-0.07191273
131	0x3d80e58f	0.06293785
132	0x3d4a4675	0.0493836
133	0xbbc83c5d	-0.0061107115
134	0x3c9da55e	0.019243892
135	0x3bfeb7a8	0.0077733584
136	0xbd926c17	-0.07149523
137	0x3d8eb82f	0.06968724
138	0xbcb6cd92	-0.02231482
139	0xbcf0f138	-0.029411897
140	0xbd9dc090	-0.07702744
141	0xbd918770	-0.07105911
142	0xbb0675ee	-0.002051707
143	0x3d9e959c	0.077433795
144	0x3d26192c	0.04055135
145	0x3d0d7bd3	0.034541916
146	0xbd0ef567	-0.034902003
147	0xbd92e421	-0.071724184
148	0x3d7a68cf	0.06113511
149	0x3b80f1ff	0.003935098
150	0xbce6fcb2	-0.028196666
151	0x3c30d003	0.010791781
152	0xbba097cc	-0.004900908
153	0xbce88d97	-0.028387828
154	0x3d6c8ebb	0.057753306
155	0xbdb82395	-0.08991162
156	0xbd845892	-0.06462206
157	0x3d53e097	0.051727857
158	0xbd40e7d2	-0.04709608
159	0x3dad880e	0.08473216
160	0xbbb23348	-0.005438242
161	0xbd5bef0c	-0.05369477
162	0xbdf55b64	-0.11980322
163	0x3cb85fbe	0.022506591
164	0xbdb4d1ce	-0.088290796
165	0xbddb1d9c	-0.10699007
166	0xbdd60326	-0.10449819
167	0x3cd34985	0.025791893
168	0xbd36b8a7	-0.044609692
169	0xbd1b537d	-0.037921418
170	0xbd1a307d	-0.0376439
171	0xbd09da9c	-0.033655748
172	0x3d2b7db8	0.04186794
173	0xbd8850e5	-0.066560544
174	0xbddfbdbe	-0.10924862
175	0xbda0aa0e	-0.07844935
176	0x3da22fa3	0.07919242
177	0xbd3cd25d	-0.046099056
178	0xbd3fc1f7	-0.04681584
179	0xbd3ebcca	-0.046566762
180	0xbcd52791	-0.026019843
181	0x3d9ae0b8	0.07562393
182	0x3cb7021d	0.022339875
183	0x3dc1a18b	0.0945464
184	0xbd627c2a	-0.055294193
185	0x3d293bb5	0.041316707
186	0x3c69d3ce	0.01427169
187	0x3c8fe71b	0.017566254
188	0xbdcc2ebd	-0.09969852
189	0xbcf014b2	-0.029306743
190	0xbd8d08e8	-0.06886464
191	0x3d0a9d1b	0.033841234
192	0x3ccf3057	0.025291605
193	0xbdb21539	-0.08695454
194	0xbcb610ac	-0.022224747
195	0x3d8841a7	0.06653147
196	0x3d684e6d	0.056715418
197	0xbd9fae1d	-0.07796881
198	0x3da8c4a7	0.082406335
199	0x3d9a944a	0.07547815
200	0x3d897cf6	0.067132875
201	0x3d8e48ec	0.069475025
202	0x3c2c4a1a	0.010515714
203	0xbda9b285	-0.08286003
204	0xbd397841	-0.0452807
205	0xbc9e1370	-0.019296378
206	0xbd470321	-0.04858697
207	0xbc274834	-0.010210086
208	0x3dc13ca9	0.09435398
209	0xbd1d1acd	-0.038355637
210	0xbd82a7b8	-0.06379646
211	0xbb9b655c	-0.0047423076
212	0x3c1dd1bb	0.009632523
213	0xbd07d1f8	-0.033159226
214	0x3ca6f31a	0.020379592
215	0x3dc8ad8a	0.09798725
216	0x3d78fa9e	0.060785882
217	0xbd9a75c5	-0.07541994
218	0xbd6244ed	-0.055241514
219	0xbd79df72	-0.06100411
220	0x3d2d509b	0.0423132
221	0x3d9ae07e	0.0756235
222	0xbdd188e8	-0.10231191
223	0x3d29fe59	0.04150233
224	0x3d6ac4ce	0.057316594
225	0x3dc0b76d	0.09409986
226	0xbb72fa97	-0.0037075633
227	0x38c33915	9.308957e-05
228	0xbdb430fe	-0.08798407
229	0x3c875203	0.016518598
230	0xbd658ee3	-0.05604447
231	0x3d8e08fb	0.06935307
232	0x3db8eed2	0.09029926
233	0xbd990b9f	-0.0747292
234	0xbd17a2ee	-0.037020616
235	0x3de2ac6f	0.11068045
236	0xbd8d5365	-0.06900672
237	0x3d694ad2	0.05695612
238	0xbdc4c8c5	-0.09608606
239	0xbd4e8da1	-0.050428037
240	0xbcc2bf11	-0.023772748
241	0x3d9e4f1c	0.07729933
242	0xbd12a1bc	-0.035798773
243	0x3d91ce86	0.07119469
244	0x3c285384	0.010273818
245	0x3e129a57	0.14316688
246	0x3cb59e4a	0.022170205
247	0xbd2595e1	-0.04042614
248	0x3c1b5861	0.00948152
249	0x3adc3a57	0.0016802055
250	0xbddd1f38	-0.1079697
251	0x3c49003e	0.012268124
252	0xbd05f492	-0.032703944
253	0xbdd3d3c1	-0.10343123
254	0xbd933535	-0.07187883
255	0x3da4f130	0.08053815

gru.weight_ih_l0_reverse f4 [300, 100]
0	0x3d695e3f	0.056974646
1	0x3d884f38	0.06655735
2	0x3c86410d	0.01638844
3	0xbdbfeb8d	-0.093710996
4	0x3d247388	0.04014924
5	0x3caafe3c	0.020873182
6	0xbc14d422	-0.0090837795
7	0x3db5277b	0.08845421
8	0x3da8d1da	0.08243151
9	0x3da9a270	0.082829356
10	0x3d26bb8c	0.040706202
11	0x3d1fcad6	0.0390118
12	0xbc73b8d9	-0.014875614
13	0xbd4644be	-0.0484054
14	0xba1d910b	-0.0006010688
15	0x3b05cb67	0.0020415427
16	0xbd9fb631	-0.07798422
17	0x3cc1f1ec	0.023674928
18	0xbd837559	-0.06418867
19	0xbd41e1c3	-0.047334444
20	0xbdc8a823	-0.097976945
21	0x3d338bfa	0.043834664
22	0xbdb151f3	-0.08658209
23	0xbd9bd5d4	-0.07609144
24	0xbd160f03	-0.03663541
25	0xbd847f88	-0.06469637
26	0xbd17cf04	-0.03706266
27	0xbd80b3ea	-0.06284316
28	0xbc2d5e9e	-0.0105816405
29	0x3c2688f4	0.010164488
30	0xbb6dec2d	-0.0036304102
31	0xbcc697ca	-0.0242423
32	0xbba6faaa	-0.0050957995
33	0xbd83b690	-0.064313054
34	0xbdb8fa9c	-0.09032175
35	0xbcd5f4c4	-0.02611769
36	0xbda3a25b	-0.07989951
37	0xbd7a15bb	-0.06105588
38	0xbd9cf807	-0.07664495
39	0x3dcb60e5	0.099305905
40	0xbd80e673	-0.06293955
41	0x3d9aee08	0.07564932
42	0xbcd25c3f	-0.025678752
43	0xbb26bf40	-0.0025443584
44	0x3d000108	0.031250983
45	0x3c1dee38	0.009639315
46	0x3ca32135	0.019913295
47	0x3d4d4603	0.050115597
48	0xbda59443	-0.08084919
49	0xbc8e1a94	-0.017346658
50	0x3d864ad7	0.06557243
51	0x3dca2fff	0.09872436
52	0x3daab6d9	0.08335657
53	0x3dbdc43d	0.09265945
54	0xbdb5bbfb	-0.08873745
55	0x3d91662b	0.07099565
56	0x3cab62a5	0.02092106
57	0x3d704644	0.05866076
58	0xbd2de073	-0.04245038
59	0xbd8b3ba4	-0.06798485
60	0x3da8e6d5	0.08247153
61	0x3d08061d	0.033208955
62	0x3d5bd501	0.053669933
63	0x3cc68e19	0.02423768
64	0x3a78643f	0.0009475387
65	0xbd9d4f44	-0.07681134
66	0x3d9ceb9d	0.07662127
67	0xbd305a96	-0.04305514
68	0xbce34b2c	-0.027745806
69	0xbd455cd7	-0.048184242
70	0x3da45296	0.080235645
71	0x3da1c922	0.07899691
72	0xbc21148f	-0.009831562
73	0xbcf4dc04	-0.029890068
74	0xbdaaf4e5	-0.08347491
75	0x3d234ddc	0.039869174
76	0xbdbd654f	-0.09247839
77	0xbdb0ddaf	-0.08636033
78	0xbbea84ee	-0.0071569597
79	0x3d06c2d7	0.032900658
80	0xbc85a6e3	-0.01631493
81	0xbcc2d09d	-0.023781115
82	0x3c1aeb79	0.009455555
83	0x3dbbf6ae	0.0917791
84	0x3dada2e3	0.08478334
85	0x3c0eb529	0.008710184
86	0x3d7dc0ba	0.061951376
87	0x3c961765	0.018321702
88	0xbdc7a404	-0.097480804
89	0x3dbb78cc	0.091538996
90	0xbdc1471b	-0.094373904
91	0x3d9a5a7a	0.07536788
92	0x3cdafe9a	0.026732732
93	0xbc967a1c	-0.018368773
94	0x3caf3774	0.021388747
95	0x3cc4a66c	0.024005137
96	0x3db11232	0.086460486
97	0x3dc155ae	0.0944017
98	0xbd83acd1	-0.064294465
99	0x3ca46b6f	0.02007076
100	0x3d5922f1	0.05301184
101	0x3d1112a7	0.03541818
102	0x3d1d0198	0.038331598
103	0xbd0f0d1f	-0.034924623
104	0xbd64a97e	-0.055825703
105	0x3d14001f	0.036132928
106	0x3db25752	0.08708061
107	0x3d7bd7c5	0.06148507
108	0xbd9179e8	-0.0710333
109	0xbd5876e2	-0.05284775
110	0xbcefd78f	-0.029277591
111	0x3d40e003	0.047088634
112	0x3d78566c	0.060629293
113	0xbd9471d3	-0.07248273
114	0xbdac4b24	-0.084127694
115	0xbd4e104d	-0.050308514
116	0xbd2ae844	-0.041725412
117	0xbdbf6c1b	-0.09346791
118	0xbd57839b	-0.052615743
119	0x3d96a2bd	0.073552586
120	0xbdc2020b	-0.09473046
121	0x3d43b5e7	0.047780897
122	0x3c35d1ce	0.011097385
123	0xbd849cf8	-0.06475252
124	0xbd31b622	-0.043386586
125	0x3bb9c8fb	0.0056697107
126	0x3d0055a7	0.031331684
127	0x3d0334d9	0.03203282
128	0x3c1f2050	0.009712294
129	0x3dad43d6	0.08460204
130	0xba96e2c5	-0.0011511674
131	0x3cf4df00	0.029891491
132	0x3c01f9bf	0.007933079
133	0x3d3e8df1	0.046522085
134	0x3d818534	0.063242346
135	0xbce2c2a7	-0.027680708
136	0x3d810807	0.06300359
137	0x3d71c7e0	0.059028506
138	0x3db19088	0.08670145
139	0xbd974cf2	-0.07387723
140	0xbca81298	-0.020516679
141	0xba8e340c	-0.0010849251
142	0xbb87e3a4	-0.00414701
143	0x3c42b0ac	0.011882942
144	0xbc60eeb5	-0.013728787
145	0x3c533d2a	0.012893001
146	0xbd2f3592	-0.042775698
147	0x3d91612c	0.07098612
148	0x3d55e1a3	0.052217137
149	0xbd09d9f5	-0.033655126
150	0x3d3f9981	0.046777252
151	0x3d55134d	0.05202036
152	0x3d9b20a2	0.075745836
153	0xbc6ff30d	-0.01464535
154	0x3d4f3ce3	0.050595175
155	0x3cbd1b6a	0.023084361
156	0xbd6719f9	-0.056421254
157	0x3d7be023	0.06149305
158	0x3ba252fc	0.00495374
159	0xbdb223b5	-0.08698217
160	0x3cb228b4	0.021747924
161	0x3d64a132	0.05581779
162	0x3d9f5380	0.07779598
163	0x3d1efc43	0.038814794
164	0x3da139ed	0.078723766
165	0xbd4991f1	-0.049211446
166	0xbc800fc9	-0.015632527
167	0xbc4b385e	-0.012403576
168	0xbd4008ac	-0.04688327
169	0x3bb47dc9	0.005508159
170	0xbc44bd8d	-0.012008083
171	0x3da50d44	0.08059171
172	0x3dbb4726	0.0914443
173	0x3ce80786	0.0283239
174	0xbdbc2286	-0.09186272
175	0x3d320de3	0.043470275
176	0x3daec93e	0.08534478
177	0xbd60046f	-0.05469173
178	0x3d8d05ea	0.06885894
179	0xbd1150c7	-0.035477426
180	0xbd3db66a	-0.04631654
181	0x3d2f923a	0.042864062
182	0x3d92386f	0.0713967
183	0x3d80408d	0.06262312
184	0xbd9bd918	-0.07609767
185	0xbd1182c4	-0.0355251
186	0xbd83da28	-0.064380944
187	0xbd7bc8b1	-0.06147069
188	0x3cff2db7	0.031149728
189	0x3d080463	0.03320731
190	0xbbc28794	-0.0059365723
191	0x3da85ae6	0.082204625
192	0x3dc0df50	0.094175935
193	0xbc681d7e	-0.014167188
194	0x3d341ad0	0.043970883
195	0xbd103040	-0.035202265
196	0xbd8f7cd9	-0.07006235
197	0xbcab125d	-0.02088278
198	0x3d98c81d	0.074600436
199	0x3b0a5535	0.0021107916
200	0xbd1852c8	-0.03718832
201	0xbcc08436	-0.023500543
202	0xbbf10359	-0.0073551354
203	0xbda1990b	-0.07890519
204	0xba235aa1	-0.00062314613
205	0xbc774770	-0.015092716
206	0x3d39eb29	0.04539028
207	0xbc937be3	-0.01800341
208	0x3c52134b	0.012821983
209	0x3dbd76b0	0.092511535
210	0x3cfdc52b	0.030977806
211	0xbd28a8b5	-0.041176517
212	0xbdad8e00	-0.0847435
213	0x3d110ebc	0.035414442
214	0x3d17f859	0.037102077
215	0xba39cf78	-0.0007088105
216	0xbd5464e8	-0.051854044
217	0xbcfa371e	-0.03054386
218	0xbccd7025	-0.025077889
219	0xbd326048	-0.043548852
220	0x3d4ef5e6	0.050527476
221	0xbcbe738c	-0.023248456
222	0x3c9f6b7d	0.019460434
223	0x3dc43c51	0.09581817
224	0x3d8ec7bf	0.06971692
225	0xbcfc66d8	-0.030810758
226	0x3bd23a55	0.006415645
227	0xbda69bc4	-0.08135179
228	0x3d4d3040	0.050094843
229	0x3c16772e	0.009183688
230	0xbd6a3c26	-0.05718627
231	0x3dc33075	0.09530727
232	0x3c7e4cb1	0.015521214
233	0xbdae415d	-0.08508561
234	0xbd705291	-0.05867249
235	0x3d1ee300	0.038790703
236	0xbdadb8b8	-0.08482498
237	0xbd4b00bc	-0.049561247
238	0x3ca37af3	0.019956088
239	0x3b9002bd	0.0043948577
240	0x3d00486b	0.031319063
241	0x3d9f3d6b	0.077753864
242	0xbd4a37dc	-0.049369678
243	0xbcf3c837	-0.029758556
244	0x3d572cd5	0.05253299
245	0x3dcbba0d	0.09947596
246	0x3d94ee01	0.07271958
247	0x3d840f8a	0.06448276
248	0xbdb271d5	-0.08713118
249	0xbdacabb6	-0.08431189
250	0xbd94df4c	-0.07269153
251	0x3d7ca62b	0.061681908
252	0xbd806632	-0.06269492
253	0x3dcd2108	0.10016066
254	0xbce18ccf	-0.027532963
255	0x3b6ca579	0.0036109372

gru.weight_hh_l0_reverse f4 [300, 100]
0	0x3d5e25be	0.054235213
1	0x3d12e59b	0.0358635
2	0xbc236a9b	-0.009974147
3	0x3d53e202	0.05172921
4	0x3cf0c5a8	0.029391125
5	0xbbc5dbc8	-0.006038163
6	0x3d8b7877	0.06810086
7	0xbd7edea4	-0.062224045
8	0x3a9282d4	0.0011177906
9	0xbc8dd4e9	-0.017313438
10	0x3d32d46a	0.043659605
11	0xb905ad73	-0.00012748483
12	0xbd502c43	-0.05082346
13	0xbda899d9	-0.08232469
14	0xbc596e13	-0.013270873
15	0x3dc4204e	0.09576474
16	0x3cc3fc4e	0.02392402
17	0x3d97476d	0.0738667
18	0x3cff5376	0.031167727
19	0x3d2f8b3c	0.042857394
20	0xbc128379	-0.008942478
21	0x3d980308	0.07422453
22	0x3bab894d	0.0052348734
23	0xbdb91c56	-0.09038608
24	0xbdcb7990	-0.099352956
25	0x3d36bdc6	0.044614576
26	0xbcc03e33	-0.023467159
27	0x3dca2c92	0.09871782
28	0xbd97da0e	-0.074146375
29	0xbda283ec	-0.07935318
30	0x3dcadee3	0.099057935
31	0xbd747032	-0.05967731
32	0xbd513ade	-0.05108153
33	0x3da32451	0.07965911
34	0xbbf8ea95	-0.0075963237
35	0x3d6ffe5f	0.058592197
36	0x3cabf885	0.020992527
37	0x3d4e4fa5	0.050368924
38	0x3d6e9c4c	0.058254525
39	0x3d908e44	0.07058385
40	0xbd88bf01	-0.06677056
41	0x3d40a367	0.047030833
42	0xbd786d23	-0.060650956
43	0x3d3bb5fc	0.04582785
44	0x3d598152	0.053101845
45	0x3d37466c	0.044744894
46	0xbbd40ee0	-0.0064715
47	0x3d5d8316	0.05408009
48	0x3dae3dff	0.085079186
49	0xbd8d530f	-0.06900608
50	0xbd083547	-0.033253934
51	0x3a7a6fae	0.0009553385
52	0x3cdb40e0	0.026764333
53	0x3b71cba0	0.0036895052
54	0x3d85a9ec	0.06526551
55	0xbd327a34	-0.043573573
56	0x3b81d73a	0.0039624246
57	0x3d6e8128	0.05822864
58	0xbcaf12dd	-0.0213713
59	0xbd1eb2eb	-0.03874485
60	0x3d83eeb8	0.06442016
61	0xbb62560e	-0.0034536156
62	0xbcfd3eca	-0.03091373
63	0xbc15aec8	-0.009135909
64	0xbaa0753e	-0.0012241972
65	0xbcc7e7c4	-0.024402507
66	0xbda0e5d2	-0.07856335
67	0xbd4ba569	-0.049718294
68	0x3ceb1c3e	0.02869999
69	0x3dca7839	0.09886212
70	0xbdaf5dce	-0.08562814
71	0x3d1e9f8b	0.03872637
72	0xbd626e5a	-0.05528102
73	0xbd156ca9	-0.03648058
74	0x3d84dcc4	0.0648742
75	0xbdc8774a	-0.097883776
76	0x3db0c873	0.08631983
77	0xbd923b8e	-0.071402654
78	0x3d41daa7	0.047327664
79	0x3d26a69e	0.040686242
80	0x3ce9d48f	0.028543739
81	0x3d87bf96	0.06628339
82	0x3d1ac086	0.03778126
83	0xbd437ccd	-0.04772644
84	0x3d519893	0.051170897
85	0x3c30987c	0.010778543
86	0x3d3d385e	0.046196334
87	0xbd4850c4	-0.04890515
88	0xbda494cb	-0.080361925
89	0xbc23c71c	-0.009996202
90	0xbbb5b16e	-0.005544833
91	0x3d0c8adf	0.034312125
92	0x3dc47a6f	0.09593665
93	0xbd101ecb	-0.035185616
94	0xbd878169	-0.0661648
95	0xbdaa9d9f	-0.08330845
96	0xbd995aee	-0.074880466
97	0x3cb9ce2d	0.02268132
98	0xbbb16d59	-0.0054146466
99	0x3d5a77b9	0.053336833
100	0x3c52aef2	0.012859093
101	0xbd6d65e8	-0.057958513
102	0xbda11859	-0.07865972
103	0x3d9dd3e3	0.0770643
104	0xbdaeea1f	-0.08540749
105	0xbc4cf1d8	-0.012508832
106	0x3d96d0cb	0.07364043
107	0xbcddc7df	-0.027072845
108	0x3da9cc1d	0.08290885
109	0x3d105702	0.035239227
110	0x3c8989f9	0.016789423
111	0xbdb9276f	-0.090407245
112	0xbdb8b05f	-0.09018015
113	0xbd27901d	-0.04090892
114	0xbd8a7658	-0.067608535
115	0xbcbfc50b	-0.023409387
116	0x3cb40de3	0.021979278
117	0x3d2f8f00	0.042860985
118	0xbda71b3e	-0.08159493
119	0x3da626c9	0.081128664
120	0xbd845b1c	-0.0646269
121	0x3d272e1e	0.040815465
122	0xbc8e3d4c	-0.017363213
123	0x3db19bb4	0.08672276
124	0x3cf0735f	0.029351888
125	0xbd5d9d1a	-0.0541049
126	0xbd2f55ab	-0.04280631
127	0x3d85cf3c	0.065336674
128	0xb81d8239	-3.7552996e-05
129	0x3b6be364	0.003599369
130	0xbd274408	-0.040836364
131	0xbd8f8360	-0.0700748
132	0x3d8db438	0.069191396
133	0xbd4ba085	-0.04971363
134	0xbdb3d71f	-0.087812655
135	0xbcea1ae4	-0.028577276
136	0x3d2bd952	0.0419553
137	0x3a986305	0.001162619
138	0xbc264ff3	-0.010150897
139	0x3db0042a	0.08594544
140	0xbd13f1cd	-0.03611927
141	0x3cb47280	0.022027254
142	0x3dcb2c1e	0.09920524
143	0x3cccce42	0.025000695
144	0xb994b7e3	-0.00028365766
145	0x3d5c772b	0.053824585
146	0x3c370046	0.011169499
147	0xbd36476b	-0.044501703
148	0x3d532d58	0.051556915
149	0xbd099990	-0.033593714
150	0xbdb2a60e	-0.08723079
151	0xbdc6d4bd	-0.09708545
152	0xbcbb7f9e	-0.022888001
153	0x3dc2a42b	0.09503969
154	0xbc4edb17	-0.012625477
155	0xbc7f4e7c	-0.015582677
156	0x3bff2603	0.007786514
157	0xbcd2f1b3	-0.025750017
158	0xbd94abac	-0.07259306
159	0xbdc22c34	-0.09481087
160	0xbd8dc715	-0.069227375
161	0x3d8f62a7	0.07001238
162	0xbcb0b931	-0.021572681
163	0xbd6eb483	-0.05827762
164	0xbcbed9b8	-0.023297176
165	0x3daa16ce	0.08305131
166	0x3c32400f	0.010879531
167	0xbd64136c	-0.055682585
168	0x39b65be2	0.00034782203
169	0x3d9cacfc	0.07650182
170	0xbc8eb36c	-0.01741954
171	0xbd01410c	-0.031556174
172	0xbd324104	-0.043519035
173	0xbbdcdfd3	-0.006740549
174	0x3dc5db49	0.09660966
175	0xbdb2b34e	-0.08725606
176	0xbd4fc4f3	-0.050724935
177	0xbd991a70	-0.07475746
178	0x3da4fb99	0.08055801
179	0x3d9a77a2	0.075423494
180	0xbd2a8280	-0.04162836
181	0xbda327a8	-0.07966548
182	0xbda35d8a	-0.079768255
183	0xbd743ee2	-0.059630282
184	0xbd992366	-0.07477455
185	0x3d1f5444	0.03889872
186	0xbc2f9cfd	-0.010718581
187	0x3d9eb727	0.07749777
188	0xbd801aee	-0.062551364
189	0xbdc4e8a0	-0.09614682
190	0x3d82d65c	0.06388542
191	0xbd6477f7	-0.05577847
192	0x3d9e2f2b	0.0772384
193	0x3d3accd7	0.045605507
194	0xbca545cd	-0.020174885
195	0xbd407c9f	-0.046993848
196	0xbd0164ce	-0.031590275
197	0xbda70633	-0.08155479
198	0xbcc6c640	-0.024264455
199	0xbcede2c2	-0.02903879
200	0x3b90d449	0.0044198376
201	0x3d6d4801	0.057929996
202	0xbd324a8d	-0.04352813
203	0xbcfda22c	-0.030961119
204	0x3c98eaf0	0.018666714
205	0x3d9d55d8	0.07682389
206	0xbd9e88a8	-0.07740909
207	0xbc90c2c8	-0.017671004
208	0xbdbfbe12	-0.09362425
209	0xbc981772	-0.018565867
210	0xbd5173aa	-0.051135696
211	0x3ccc68eb	0.024952373
212	0x3b61ee74	0.0034474405
213	0xbd99590f	-0.0748769
214	0xbd99facc	-0.07518539
215	0xbd649e6a	-0.055815138
216	0xbbd50655	-0.006500999
217	0x3c9e766d	0.01934358
218	0x3da9bdfe	0.08288191
219	0xbba5f89f	-0.0050650383
220	0x3cd58b0e	0.026067283
221	0xbc81aa30	-0.015828222
222	0x3d5fef2d	0.054671455
223	0xbd9c398b	-0.07628163
224	0x3d146559	0.036229465
225	0x3d994e26	0.07485609
226	0xbd473fc5	-0.0486448
227	0x3db8b101	0.09018136
228	0xbd9e2208	-0.07721335
229	0x3d658c4c	0.056042
230	0x3dcc20f5	0.099672236
231	0xbd102dd3	-0.03519995
232	0xbda8820f	-0.08227932
233	0xbcab49a1	-0.020909132
234	0xbdaee97f	-0.085406296
235	0x3a94d360	0.0011354499
236	0xbd4b3d1f	-0.049618836
237	0x3c90f886	0.01769663
238	0x3c4fb7b4	0.012678076
239	0xbc80ee50	-0.015738636
240	0xbda1a7e4	-0.07893351
241	0xbd6efdf8	-0.058347672
242	0xbd1a6345	-0.037692327
243	0xbd349d28	-0.04409519
244	0xbdb84064	-0.089966565
245	0x3d868d21	0.06569887
246	0xbcb18e54	-0.021674313
247	0x3dbabfde	0.09118627
248	0x3d36234c	0.044467255
249	0xbd8d5bd0	-0.069022775
250	0x3d904144	0.070436984
251	0x3a8553b1	0.0010172037
252	0x3cd21e57	0.025649233
253	0x3da832d4	0.0821282
254	0x3d90c082	0.07067968
255	0xbd902875	-0.070389666
