parameter/crf_lstm_parameter/last_sent_net1.pth (torch_old, 80969 bytes, 2 tensors)

lastnet.weight f4 [100, 200]
00000000: e4a8 94bd db52 15bd be00 b6bc 31b8 eabc
00000010: ae11 5b3b 7415 62bd 28ab 1fbd 3bf1 a33d
00000020: 7ca7 9a3c a818 3d3d 2d08 133d beb4 12bd
00000030: 262c 443d 57e7 6c3d 2227 a1bd 245b 79bd
00000040: bab2 a2bc 3bf3 f63c 5cab 99bc ae23 673d
00000050: ca95 ce3c 860f 99bd 5b7b a03d bf77 96bd
00000060: a1a4 14bd b35b 623d bff8 ed3b aadd 7fbd
00000070: 3417 dabc d530 803d 185c 44bd beec b1bc
00000080: cdc8 02bd bf30 9c3c fd90 54bd 9e53 583d
00000090: d73b bb3b bb53 9a3d 1fc6 113d 8e7e 8bbd
000000a0: 6f90 8cbc 8461 673d c3c1 d23c 176c 9abd
000000b0: 7a9c 1ebc e230 17bd 7692 50bd 1793 3d3d
000000c0: 6351 f7bc 3dc5 1a3d 21f9 c1bc 37f5 04bd
000000d0: c335 b63d b386 1cbb ccfd 063d 711a 8bbd
000000e0: f7ee 683d 4f05 54bd 6f1a 9fbd 9233 cd3c
000000f0: 5bc5 1cbd d2dd 97bc 418e 3c3d f3bb 663d
00000100: ae0d bbbc 67cc a9bd f3d6 413b 2855 8c3c
00000110: c54c b23c e38b 4abb 7482 79bb 3744 7f3c
00000120: e103 723d 989d 5c3c 3982 59bd 42c4 61bc
00000130: a98a 7dbd 74fe cc3c 9782 15bd d8bc 953d
00000140: bc8f 17bd c3c8 3c3d 0d05 20bd e8a2 043d
00000150: ac44 8dbd 1cc1 69bd 487e 81bd d2e9 d33c
00000160: b755 003a 0f9b 523c 34d2 1e3c 5d9d 33bd
00000170: f1ed 61b8 0db1 883d e1af 19bd 9d84 393d
00000180: 6fc9 0e3d d14c 5a3d 5927 0dbd d5ea 6c3d
00000190: acf9 9d3c 6437 4c3d 1605 693d 2eb1 62bd
000001a0: cf5c c53c c680 ccbc 9ef3 2b3d 227a 1ebd
000001b0: 9175 aabc fbe0 b03c 8166 833d c576 0fbd
000001c0: 77fa 6fbd 95e9 b23b b102 91bd 5064 0cbd
000001d0: 8fce 0dbc 8c12 29bd cf73 94bd 8fce 253d
000001e0: b5a0 b53c 3e94 373d 2c2b 6a3d d810 883c
000001f0: bba1 26bd 989a 53bd 0010 88bd 8707 8d3d
00000200: feea d83c 25a9 b4bc 0408 3fbd a77f 6cbd
00000210: 024a d6bc 9355 1fbd 2a35 053d 8b7f 85bc
00000220: 7798 9cbd e8b9 6e3d ef41 33bd 250a a43d
00000230: 3772 c33d cf74 20bd 4bea 4cbd d8b1 85bd
00000240: ff3b 53bd 3919 69bd 2e14 133c bc19 a4bd
00000250: 417f 45bd 373f 49bd 2c94 3e3d 4fe6 0b3c
00000260: 6136 90bd 5bf1 623d 4779 8b3d f8c9 903d
00000270: d44c ccbc a237 7f3c cccf 9cbc e4e3 64bd
00000280: fcd8 413b a76c 48bd 9be5 2abc 62fb 96bd
00000290: 65c9 fd3c f896 1ebc bfde b53c 30e7 0cbd
000002a0: 0ff7 b23c c86f b3bc 24b6 9a3d c311 39ba
000002b0: 4313 90bd 1196 113d f36e 8fbd 39ab 55bd
000002c0: c3f6 303b 7698 693d 6cd8 013c 4508 93bd
000002d0: 694c 1d3d 60ba 153d bd75 31bd 67c3 5e3d
000002e0: a849 27bd a984 8f3d c28c 82bc 54e4 c4bc
000002f0: 1ad2 463d 42aa 06bc 0419 ddbc 95cb 5cbd
00000300: 4482 8c3d e9b0 2c3d fd87 61bd c8ae 3e3d
00000310: aee5 2c3d f407 763d f419 653d 63dd 813d
00000320: b7f3 743c 7394 fcbc 5c9a c0bc a353 68bd
00000330: 31ea 4cbd 4bf3 d43c 0027 a13b 7567 0abd
00000340: bc58 9cbd 4765 b83b 6d28 653d f4a0 793d
00000350: 8495 d63b b67c 03bd d5d3 273d afc4 ba3d
00000360: eef6 8c3c 8a72 c03c 8961 8fbd 5031 76bd
00000370: 59a8 c7bc 011d 1ebd 3d5e ba3c 0e25 4cbd
00000380: 0d29 ad3c 170a 193c f921 943d bc4d 553d
00000390: 42cf 75bd 859b 1c3d 6102 243d 66de d0bc
000003a0: e4c9 66bd 7cf3 223c c510 6d3d 9f77 8fbd
000003b0: db41 f0bc 26d6 99bd 3813 933c 7d5a 3a3d
000003c0: b905 b2bc 6b23 af3c 3e87 14bd 41c0 e5bc
000003d0: 6663 633c 2ed3 49bd 50bb 3b3d a1d3 a43c
000003e0: 9711 7bbd 7cde 133d 103a 95bc 0139 d03c
000003f0: 5b78 4cbd 264a 183c 35df a2bd 36a1 6bbd
-0.07258776 -0.03645597 -0.02221715 -0.028652282 0.0033427286 -0.05519624 -0.038981587 0.080049954
0.01887869 0.046166092 0.03589647 -0.0358169 0.047893666 0.05783781 -0.07868792 -0.060877934
-0.019860614 0.030145278 -0.018758468 0.05643051 0.02521791 -0.07473664 0.07836028 -0.073470585
-0.036289815 0.055263232 0.007262319 -0.062467255 -0.026622392 0.06259314 -0.04793939 -0.021719333
-0.03192978 0.019066213 -0.051896084 0.05281412 0.0057139206 0.075355016 0.035589334 -0.06811248
-0.017158715 0.056489483 0.025727158 -0.07540148 -0.009680862 -0.036911853 -0.050920926 0.046282854
-0.030190175 0.037785757 -0.023678364 -0.032460418 0.08896973 -0.0023883998 0.032956883 -0.06792153
0.05686852 -0.051762875 -0.07768714 0.025049005 -0.03827415 -0.01853839 0.0460341 0.056331586
-0.022833671 -0.0829094 0.0029577583 0.01713045 0.021765122 -0.0030906133 -0.003807214 0.0155802285
0.05908573 0.013465308 -0.053102706 -0.013779702 -0.061899815 0.025023676 -0.036501493 0.0731141
-0.03700231 0.0460899 -0.039067317 0.032381922 -0.06897864 -0.05706893 -0.06322914 0.02586833
0.0004895585 0.012854352 0.009693671 -0.043851245 -5.386578e-05 0.06674395 -0.037521247 0.045292486
0.03486007 0.053295914 -0.034461353 0.05784114 0.019284092 0.049857512 0.056889616 -0.055344753
0.024092106 -0.024963748 0.04198038 -0.038690694 -0.020808013 0.021591654 0.064160354 -0.035025377
-0.05858847 0.005459974 -0.070805915 -0.034275353 -0.008655204 -0.041277453 -0.07248651 0.040480193
0.022171358 0.04481911 0.05717008 0.016609594 -0.040681582 -0.051661104 -0.06643677 0.06886201
0.02647924 -0.02205331 -0.046638504 -0.057738926 -0.026158337 -0.03889997 0.032521404 -0.016296169
-0.07646268 0.058282763 -0.04376405 0.080097474 0.09543269 -0.039173897 -0.050028127 -0.06528062
-0.05157089 -0.05690882 0.008976979 -0.08012721 -0.048217062 -0.049132552 0.046528026 0.008538797
-0.07041622 0.055405956 0.06810241 0.070697725 -0.024938978 0.015577229 -0.019142054 -0.055881396
0.0029578796 -0.048931744 -0.010430719 -0.07372166 0.030979821 -0.009679548 0.02220094 -0.034400165
0.021846322 -0.021903887 0.07554272 -0.00070598366 -0.07034924 0.035543505 -0.07003584 -0.052165244
0.002700255 0.057030164 0.007925134 -0.07179312 0.03840295 0.036554694 -0.043325175 0.05438557
-0.04084173 0.07007725 -0.01593626 -0.024034657 0.048540212 -0.008219304 -0.026989467 -0.05390509
0.06860784 0.042160902 -0.05506133 0.046553403 0.042211227 0.06006618 0.055932954 0.06341054
0.014950684 -0.030832505 -0.023511104 -0.056720387 -0.05002803 0.025994917 0.0049179792 -0.03379007
-0.07634112 0.0056273076 0.055946756 0.060944512 0.0065485854 -0.032101355 0.040973503 0.09119546
0.017207589 0.023492116 -0.07001025 -0.06010562 -0.024372267 -0.03860188 0.022750014 -0.049840026
0.021137739 0.0093407845 0.07233042 0.052076086 -0.06001211 0.038234252 0.04004133 -0.025496673
-0.05634488 0.0099457465 0.05787732 -0.07005238 -0.029328277 -0.07511549 0.0179535 0.045496453
-0.021731244 0.021379193 -0.03626179 -0.028045775 0.013878679 -0.049273662 0.045832932 0.020120444
-0.06129607 0.03610085 -0.018216163 0.025417807 -0.049919467 0.009295022 -0.079527296 -0.05752679

lastnet.bias f4 [100]
00000000: 5fff c1bb b134 823d 9752 e9bc 2b86 1bbc
00000010: 17a6 d7bd 8802 fbbd 4e7e 4f3e 111d af3b
00000020: 1c4c a93d 6aa2 0cbd 20bb b13d 047e 02bd
00000030: 0396 493d 57ce 7fbd 521d eb3d 8df4 ba3d
00000040: 5273 9fbd 1832 ffbc 714d be3d b1a5 3fbd
00000050: 29e0 4a3d a7b2 f4bc 269b f7bd 1753 4fbd
00000060: c513 f93d 2e11 2cbd 83f3 373d 8656 74bd
00000070: 7fcd 683d 81a5 a83d 64eb f03d 3afc 3b3d
00000080: 2105 b83d 540a 943c 78f9 0dbc 6369 8f3d
00000090: 4ff8 e33d c794 c5bd 5963 2abd 632d b9bd
000000a0: aebd 83bc de6f 823d 1c49 24bd cd26 cbbb
000000b0: c59b 813d 561a f4bd f514 893c ea6f a23c
000000c0: 4190 0b3d ebca e33c 280a 85bd d48a 07bc
000000d0: 16a4 cd3d bc9b 86bd f13c 483d caa3 c93d
000000e0: 1e3f 4fbb ec55 b33d 3c3f 44bd 9b38 bebb
000000f0: 9271 b93c 20e5 c9bd 26de 6c3d 2ae8 843c
00000100: 5e52 d73d a19c 213e cfe9 333d 9bff 073e
00000110: 0df7 9e3c 9ebd 47bd 721c db3d c5c2 053d
00000120: 6ac7 443d dac2 a8bd 5195 e53d 26ba 85bd
00000130: b385 bebd 20d2 09bd 9656 ca3d 46b5 1e3e
00000140: 7247 e53d 2af6 2d3e c5cd 03bc e8a6 41bd
00000150: 4a54 87bd 94ed f4bd 9753 8f3c 6fbc bc3d
00000160: 8001 0dbe 7cc1 093d b0c7 99bd b466 d4bd
00000170: e149 19bd 107b b53d a8cf 81bd 606f 3e3d
00000180: 522c 8abd a7c4 e9bc 2d19 083e 98a8 713d
-0.005920335 0.06357706 -0.028481765 -0.009492437 -0.10529726 -0.12256342 0.20263025 0.005344041
0.0826647 -0.034334578 0.086782694 -0.03185846 0.049215328 -0.06245264 0.11480202 0.091286756
-0.077856675 -0.031151816 0.092921145 -0.046788875 0.049530182 -0.029870344 -0.12090139 -0.05061635
0.12161974 -0.04200857 0.044909965 -0.059652828 0.0568366 0.08234692 0.11763647 0.04589484
0.08985353 0.018071331 -0.008665435 0.07002523 0.111313455 -0.09647518 -0.04159865 -0.0904186
-0.016081657 0.06368993 -0.040108785 -0.006199694 0.06328539 -0.11919086 0.016733626 0.019828755
0.034073118 0.02780672 -0.06496078 -0.008272845 0.100410625 -0.06572673 0.048886243 0.098456934
-0.0031623314 0.08756623 -0.047911867 -0.0058050877 0.022637162 -0.09858155 0.057829045 0.016223986
0.10513757 0.15782405 0.04392415 0.132811 0.019404912 -0.048764817 0.10698785 0.03265645
0.04804174 -0.0824029 0.112101205 -0.065296456 -0.09302845 -0.033647656 0.09879796 0.15498838
0.11195268 0.16988435 -0.008044665 -0.047278315 -0.06607874 -0.11959377 0.017495913 0.09215628
-0.13770103 0.033631787 -0.075087905 -0.103711516 -0.037423972 0.08861363 -0.063384354 0.046492934
-0.06746735 -0.028536154 0.13290854 0.058998674
