parameter/crf_lstm_parameter/last_sent_net3.ckpt (torch_old, 80969 bytes, 2 tensors)

lastnet.weight f4 [100, 200]
00000000: 0f8d 90bd e765 0dbd 63aa dfbc 87f6 02bd
00000010: 3d3d 0f3c 9edc 59bd e863 29bd 49bc 9c3d
00000020: 4a3f 943c fdd8 333d e247 113d cf6b 06bd
00000030: 2970 4a3d ceac 5c3d 0e23 9cbd c772 82bd
00000040: 8bdd a5bc 37f7 fc3c 356d 94bc 9a2c 5d3d
00000050: ccba b53c 57e2 99bd 9a54 a23d f548 9ebd
00000060: 2da1 eebc 8008 373d c554 ba3a e196 81bd
00000070: be36 cabc de51 813d 90d3 51bd f368 b4bc
00000080: ce23 d7bc a2d4 923c 926e 47bd e818 5f3d
00000090: 2757 cc3b 2a28 933d 843a f83c 7e52 92bd
000000a0: 0b4c 97bc 54d6 623d d27b d83c d9fd 99bd
000000b0: fabb 4cbc d967 09bd ca78 5bbd 219c 253d
000000c0: 388a fcbc d665 343d 6c81 ccbc 1966 1fbd
000000d0: 4a0d b23d 0073 293a 3c96 253d 4124 8bbd
000000e0: 788c 633d a8ad 47bd 2449 9dbd d460 fb3c
000000f0: 558e 0abd 654c b8bc 51b8 373d 8b1c 423d
00000100: a1c5 02bd b41b adbd d7be 413b c7c1 983c
00000110: 316b d33c a5a9 c2ba 3e69 e0bb e52d 323c
00000120: 235b 6f3d d057 4b3c 2988 67bd e7bf 2dbc
00000130: 9335 7abd 265b d53c 0bc0 1abd 1f9b 983d
00000140: a7c8 0ebd 1d72 403d fd15 11bd 2224 1b3d
00000150: 5607 91bd bd46 5abd 48f9 8fbd ced4 d23c
00000160: 3fce 7a3b 8cfe 8f3c bb4a e73b 5e06 28bd
00000170: 06f8 70ba 042e 8f3d d9f7 2bbd 913d 363d
00000180: 41d8 153d 29ea 423d 87e4 16bd c744 703d
00000190: 5ef5 7c3c 954e 5d3d d703 7f3d de67 48bd
000001a0: 558b b83c 27f5 d9bc f273 353d 2a9e f5bc
000001b0: 743e ccbc 51ec a63c c0c5 6c3d 2e49 d7bc
000001c0: ab0d 6bbd 0fa8 003a 21f0 87bd ea82 0ebd
000001d0: 9b0e e6bb 4f12 2bbd 506f 96bd 1378 483d
000001e0: 6702 c53c cacb 233d 9945 663d 849f a93c
000001f0: 525f 1abd 8107 4ebd 9a53 83bd 0a4d 843d
00000200: 5f4c d83c b554 d5bc c989 40bd f3f0 67bd
00000210: efa4 e2bc 9c47 13bd dd54 ea3c 920e 23bc
00000220: 1e2f 9abd c639 673d 4440 20bd a8a4 9c3d
00000230: ccfe bd3d c6be 10bd 6268 50bd 5e1f 93bd
00000240: ca43 46bd 71f2 5bbd 7d1b 343c 8d84 9dbd
00000250: 93c5 4abd ab40 55bd 6f03 253d ee83 fb3b
00000260: 3aee 8fbd 4cc4 6a3d 4dbd 783d 7486 993d
00000270: 42c4 bcbc 932b 4a3c 27bf 8dbc 15be 6abd
00000280: 0491 8fb9 d90d 37bd 5885 26bc f5c2 90bd
00000290: b4eb ed3c 3fd9 b9bb 89d9 9f3c 4d17 16bd
000002a0: dfef 933c 1608 ccbc 97fe 9b3d f00a 3ebb
000002b0: 91c5 92bd 3ff4 023d 61b3 8abd c411 67bd
000002c0: 4445 18bb d5f9 623d 0e50 1cba 77b6 97bd
000002d0: 4c70 283d cdb4 2b3d b9b4 43bd 5a82 5b3d
000002e0: 6e7e 2cbd f891 863d d26d aabc f770 e0bc
000002f0: 3b20 363d 006f 9abc 4bed dcbc 991c 68bd
00000300: 9f0c 7f3d 46cc 333d 360e 5abd 0af9 4e3d
00000310: 359e 243d 7675 6c3d 40ae 5c3d 1cc5 833d
00000320: 4d8c ab3c ef6d 02bd 5839 b8bc 343a 73bd
00000330: 3f15 5abd 2ea6 ad3c 3409 9f3b 6af2 17bd
00000340: 1988 97bd 1852 1a3c ddbb 4a3d 6fbd 773d
00000350: 38e5 133c 9b1f 07bd e735 c93c aea3 b83d
00000360: ee0d 9e3c b842 b53c 1284 74bd d6a4 75bd
00000370: c47a a9bc e5f5 0abd 6842 753c d74e 44bd
00000380: 2ca2 193c 4a81 073c 3e13 993d 64f7 4a3d
00000390: 33cc 71bd 7f62 113d 3d54 353d 831b a2bc
000003a0: bce2 66bd 35ce c73b adb2 6a3d 646b 91bd
000003b0: 16fb e4bc 16fe 91bd b3da 2f3c c9b1 473d
000003c0: 5dbe 9bbc 59b2 943c 539d 18bd 23d2 e9bc
000003d0: faf2 a83c 1798 48bd 264f 3c3d 7226 c33c
000003e0: 4b79 7cbd 7e80 253d c78e 8ebc bd9c e53c
000003f0: 353d 3abd e056 143c 60de b1bd a5ed 51bd
-0.07058155 -0.03452101 -0.027302926 -0.031973388 0.008742628 -0.053188913 -0.041355044 0.076531
0.018096585 0.043908108 0.035468943 -0.032817658 0.04942337 0.053875737 -0.07623874 -0.06369548
-0.020247241 0.0308796 -0.01811848 0.053997613 0.022183798 -0.07513874 0.07926293 -0.07728759
-0.029129589 0.04468584 0.0014215937 -0.06327606 -0.024684306 0.06314443 -0.051227152 -0.0220227
-0.02626219 0.017923657 -0.048689432 0.05446711 0.0062359753 0.07185395 0.03030134 -0.071446404
-0.018468877 0.05538018 0.02642623 -0.07519121 -0.012495989 -0.033546302 -0.05358199 0.0404321
-0.030827627 0.04404243 -0.024964057 -0.038915727 0.08693941 0.0006463975 0.040426478 -0.06794024
0.055553883 -0.048749596 -0.07679966 0.03068582 -0.033827145 -0.022497365 0.044853512 0.047390502
-0.031926755 -0.084525496 0.0029563212 0.018647088 0.025807949 -0.0014851583 -0.0068484833 0.0108752
0.058436524 0.012411073 -0.056526337 -0.010604835 -0.06108625 0.02604444 -0.037780803 0.07451462
-0.034859326 0.046983827 -0.03542136 0.037876256 -0.07081477 -0.053290118 -0.070299685 0.025736239
0.0038269905 0.017577432 0.007058469 -0.041021697 -0.0009192232 0.06991199 -0.041984413 0.044492308
0.03658319 0.047586594 -0.036839034 0.05865934 0.0154393595 0.05403002 0.06225952 -0.04892718
0.022527376 -0.026606156 0.044300027 -0.029982645 -0.024932124 0.020376356 0.057805777 -0.026280012
-0.05738608 0.0004907855 -0.06637598 -0.034792818 -0.007020784 -0.041765507 -0.0734545 0.048942637
0.024048997 0.03998927 0.056218717 0.020705946 -0.03768856 -0.050300125 -0.0641243 0.064600065
0.026403604 -0.026041368 -0.047006402 -0.05662627 -0.027666537 -0.035956964 0.02860492 -0.009952204
-0.07528518 0.05645158 -0.03912379 0.07648593 0.09277114 -0.035338186 -0.050880797 -0.07183717
-0.048404492 -0.053698007 0.010992882 -0.07691298 -0.049504828 -0.052063625 0.040286478 0.0076756394
-0.0702786 0.05731611 0.060727406 0.07496348 -0.023042802 0.0123394905 -0.017303063 -0.057310183
-0.0002738313 -0.04469094 -0.010163628 -0.07068435 0.029043056 -0.0056716497 0.019512909 -0.036643315
0.018058715 -0.0249062 0.076169185 -0.0028998218 -0.07166589 0.031971212 -0.06772495 -0.056413427
-0.0023234645 0.05541404 -0.0005962857 -0.07407849 0.04112272 0.041920472 -0.047779772 0.05359111
-0.04211276 0.0657081 -0.02080432 -0.027397616 0.04446433 -0.018851757 -0.026968619 -0.056667898
0.062267896 0.043895982 -0.05323621 0.05053047 0.04018994 0.057729207 0.053877115 0.0643408
0.020940924 -0.031843122 -0.022488281 -0.05938168 -0.053242918 0.021197405 0.004853392 -0.03709642
-0.073990054 0.009418987 0.049495567 0.060483392 0.009026818 -0.032989126 0.024561835 0.090155944
0.019293752 0.02212654 -0.059696265 -0.059971653 -0.020688422 -0.03392591 0.014969446 -0.04792675
0.009377044 0.008270571 0.07474373 0.049552336 -0.05903263 0.035494324 0.04426979 -0.01978851
-0.056368575 0.00609758 0.057299305 -0.07100561 -0.027951758 -0.07128541 0.010733294 0.048753534
-0.01901167 0.018151449 -0.03725941 -0.028542584 0.020623673 -0.04897317 0.04597392 0.023822043
-0.06163911 0.040405743 -0.017402066 0.02802884 -0.045468528 0.009053916 -0.08684993 -0.051252026

lastnet.bias f4 [100]
00000000: 2723 013b 308e 723d 4747 02bd ff2f cfbc
00000010: 1d9e cfbd e971 d4bd 65d7 3b3e 1845 0e3b
00000020: f2be 9d3d da97 dfbc b39a a03d 6bad e7bc
00000030: 86cd 323d 4ad8 86bd b6b6 d73d 3230 b73d
00000040: e8f1 85bd ab8b 15bd 252b b23d 834e 68bd
00000050: 435f 353d ee9b 06bd 180b d9bd d342 38bd
00000060: 3f38 dd3d 88fc 2abd 76b2 e13c 2039 68bd
00000070: 9588 733d 8418 a53d b328 d13d c6cc 103d
00000080: 777e a13d 93d4 643c ac11 48ba 76ae 883d
00000090: 2fde ab3d eb09 cbbd 94fa 2bbd fef4 9fbd
000000a0: ab79 40bc 691b 643d 5683 fabc 8eac abba
000000b0: c149 6a3d 1582 efbd d6e7 523c 551d 453c
000000c0: 69c1 c03c c988 bc3c 58bb 9bbd e2f6 053b
000000d0: b1a0 b73d bbdd 7cbd 03f5 5c3d b54e ac3d
000000e0: d069 cabb 6787 9a3d 06e1 5fbd 88ab 713b
000000f0: d961 c93c 26b8 aabd 434f 6f3d ac29 e43b
00000100: f22c c83d d915 0f3e bc09 bb3c 22c7 fa3d
00000110: 20f2 a83c 035f 57bd 9f8b c63d 750e 0b3d
00000120: d523 393d d31a 8ebd 73ee c73d 92d0 83bd
00000130: 5e35 babd f974 01bd 127f b03d aeca 0b3e
00000140: 7299 e83d 3c83 203e 785b a2bb 7de4 30bd
00000150: 41db 81bd d721 e2bd 340f 523b 472d 9d3d
00000160: 4146 f8bd 106c ad3c 7791 98bd 9a3b b2bd
00000170: fa7a 08bd 9348 a43d d0ed 81bd 7431 033d
00000180: 9c77 62bd 347e e6bc cbe2 f03d ac84 613d
0.001970479 0.05921763 -0.031806257 -0.025291441 -0.101375796 -0.10373289 0.18343885 0.0021708664
0.077024356 -0.027294088 0.078420065 -0.028280934 0.043653034 -0.065842226 0.10532896 0.089447394
-0.065402806 -0.03651015 0.086996354 -0.0567155 0.0442803 -0.03286355 -0.10597819 -0.044985604
0.10801744 -0.04174474 0.027550917 -0.056695104 0.059456427 0.080613166 0.10212841 0.035351537
0.078854494 0.013966697 -0.0007632028 0.06673901 0.083919875 -0.09914001 -0.041987017 -0.078104004
-0.011747758 0.055690203 -0.030580204 -0.001309769 0.057199243 -0.11694733 0.012872657 0.012030919
0.023529725 0.023014443 -0.07604092 0.0020441343 0.08966196 -0.061734896 0.0539446 0.0841345
-0.0061771646 0.07545357 -0.05465796 0.0036875922 0.02458279 -0.08335905 0.0584252 0.0069629755
0.09774198 0.13973178 0.02283179 0.12245013 0.020623267 -0.052580845 0.09694599 0.033949334
0.045200188 -0.0693871 0.097622775 -0.06436266 -0.0909221 -0.031605694 0.08617987 0.13651535
0.11357392 0.15675062 -0.0049547516 -0.043186653 -0.063406475 -0.11041611 0.0032052519 0.076746516
-0.12122775 0.021169692 -0.0744962 -0.08702774 -0.033320405 0.08021655 -0.06344187 0.032029584
-0.05528985 -0.02813635 0.11762007 0.055058166
