parameter/crf_lstm_parameter/last_sent_net.ckpt (torch_old, 80969 bytes, 2 tensors)

lastnet.weight f4 [100, 200]
000000 03 d1 90 bd b0 63 0c bd 68 81 d8 bc 48 24 f8 bc
       -0.07071116 -0.034274757 -0.026428893 -0.030290738
000010 82 99 0f 3c 54 8a 5c bd 93 d6 23 bd f8 e2 9c 3d
       0.008764626 -0.053842857 -0.039999556 0.07660478
000020 dc 85 8b 3c 1e 4c 37 3d ba a3 14 3d 45 59 08 bd
       0.017031603 0.044750325 0.036288954 -0.03328826
000030 ad 00 47 3d ea 6a 5d 3d bf 45 96 bd 33 85 7e bd
       0.04858463 0.05405704 -0.07337522 -0.062138747
000040 23 e9 92 bc ba f1 f0 3c cb c8 a7 bc 93 c1 5c 3d
       -0.017933434 0.02941214 -0.020481488 0.053895544
000050 dd 97 b1 3c e4 8a 99 bd 0c 0f a2 3d fd 75 9e bd
       0.02167886 -0.074971944 0.07913026 -0.07737348
000060 38 f5 e7 bc cc fa 3e 3d 13 25 c7 3a 84 72 7a bd
       -0.028315172 0.046625897 0.0015193544 -0.061144367
000070 08 40 d8 bc 3f 4f 82 3d 37 bc 4e bd 76 13 bc bc
       -0.02639772 0.06362771 -0.050472464 -0.022958498
000080 cc d9 d5 bc 85 5e 8c 3c dd f1 4b bd 7d 87 5b 3d
       -0.02610483 0.017134914 -0.049791206 0.05359601
000090 dc e8 e2 3b a6 27 92 3d e8 b5 f7 3c 96 82 8e bd
       0.0069247317 0.071364686 0.030238107 -0.06958501
0000a0 b3 b7 95 bc 23 aa 61 3d 8f 1f e4 3c 4d 21 9c bd
       -0.018276071 0.055093896 0.02784708 -0.07623539
0000b0 c0 33 59 bc a1 eb 11 bd 79 9b 56 bd 23 00 23 3d
       -0.013256967 -0.035625104 -0.052394364 0.039795052
0000c0 38 f3 02 bd b2 1a 33 3d 49 2e c0 bc 46 fe 1a bd
       -0.031970233 0.04372663 -0.02345957 -0.03784015
0000d0 cb 26 b0 3d 13 9e 7e b9 3d 42 23 3d dc d4 8b bd
       0.08601149 -0.00024282215 0.03985809 -0.06827709
0000e0 a5 4d 69 3d 81 0a 4c bd 25 3e 9b bd 71 03 ff 3c
       0.056958813 -0.049814705 -0.075802125 0.03112957
0000f0 21 20 09 bd a4 70 b9 bc 4c 4c 34 3d 5a 7e 45 3d
       -0.033477906 -0.022636719 0.044018075 0.0482162
000100 b3 7a fe bc 93 48 aa bd 9c 90 5a 3b 9e 2b 9b 3c
       -0.031064367 -0.08314624 0.0033350354 0.018941697
000110 18 91 cf 3c 77 31 80 bb fe 53 c0 bb f1 35 3b 3c
       0.02533774 -0.0039121467 -0.0058693876 0.011426435
000120 4d 3e 73 3d 44 6b 48 3c 58 29 62 bd 68 e2 2e bc
       0.059385587 0.012232605 -0.05521521 -0.010674097
000130 41 56 7c bd 77 f2 ca 3c d4 3c 10 bd 55 33 97 3d
       -0.061605696 0.02477382 -0.03521426 0.07382838
000140 6b 00 10 bd 2f 3c 3f 3d 8c 82 15 bd 82 df 17 3d
       -0.03515665 0.046688255 -0.036501452 0.037078388
000150 46 e0 8e bd 6a f6 58 bd 7a 0f 91 bd 3b cb c4 3c
       -0.069763705 -0.052969374 -0.0708303 0.02402269
000160 60 cc 81 3b 4b 21 8f 3c 83 27 f3 3b 49 3b 28 bd
       0.003961131 0.01747193 0.0074204816 -0.041072164
000170 b2 cc 67 bb 6f 5a 8f 3d 66 fa 2a bd 80 b7 3b 3d
       -0.003536981 0.06999671 -0.041742705 0.045829296
000180 a7 1a 12 3d 71 3c 48 3d 69 84 0f bd 3c 7f 76 3d
       0.03566995 0.048885766 -0.035038386 0.060179934
000190 f8 29 86 3c d2 6c 61 3d 34 49 80 3d 9a 38 44 bd
       0.016377434 0.05503542 0.062639624 -0.047905542
0001a0 dc 52 bc 3c 99 ac d7 bc 45 52 35 3d 2d 19 f8 bc
       0.02298873 -0.026327418 0.04426791 -0.030285442
0001b0 9f 36 db bc cf f7 a9 3c ee dc 6f 3d 4a c9 ce bc
       -0.026759444 0.020748047 0.058560304 -0.025242466
0001c0 7c 71 6b bd 1f 9e 93 b8 2e 77 86 bd 73 05 03 bd
       -0.057481274 -7.0389586e-05 -0.065657005 -0.03198762
0001d0 4c 09 0c bc 94 c2 28 bd 70 17 92 bd 02 96 4a 3d
       -0.008547138 -0.04120119 -0.071333766 0.049459465
0001e0 50 6e d1 3c e4 84 24 3d 6e 45 68 3d 0a a2 b6 3c
       0.025565296 0.040165797 0.05670684 0.022294063
0001f0 2e 40 1d bd 68 21 4f bd f1 25 7e bd 66 8a 80 3d
       -0.038391285 -0.050568968 -0.062047902 0.062763974
000200 9f ac e0 3c a7 4d cd bc 3a a3 3d bd 59 26 6a bd
       0.027426062 -0.025061442 -0.046298243 -0.057165477
000210 9d 8c e5 bc fd 55 16 bd 37 86 f4 3c a5 52 22 bc
       -0.028021151 -0.0367031 0.029849155 -0.009907399
000220 1b b3 9c bd 2e 53 69 3d 2f f5 24 bd f2 e0 9a 3d
       -0.07651349 0.056964092 -0.040272888 0.07562436
000230 47 b2 b9 3d 45 90 0b bd 11 00 49 bd dc 83 91 bd
       0.09067207 -0.034073133 -0.04907233 -0.07105228
000240 28 35 3a bd a6 38 62 bd 19 de 5c 3c ca 6c 9b bd
       -0.04546085 -0.055229805 0.013480687 -0.07589109
000250 f6 90 48 bd b6 9f 57 bd ef cc 28 3d fd 90 14 3c
       -0.04896637 -0.052642547 0.041211065 0.009067771
000260 12 0a 8c bd 53 2e 6e 3d e4 01 76 3d 34 c5 97 3d
       -0.06837858 0.058149647 0.060060397 0.074106604
000270 97 5d a7 bc 9e 87 6b 3c 41 ba 8f bc 06 33 6a bd
       -0.02043037 0.014375595 -0.017544867 -0.057177566
000280 96 f4 65 ba 3f 61 32 bd 20 7f 45 bc 93 93 91 bd
       -0.0008772103 -0.043549772 -0.012054235 -0.07108226
000290 e4 0d e9 3c 83 f4 8a bb 3c 91 a2 3c ca fc 0e bd
       0.028449006 -0.004240574 0.019844644 -0.034909047
0002a0 77 7f a3 3c fb 8a c9 bc 09 6e 98 3d 1a a4 fc ba
       0.01995824 -0.024602404 0.074428625 -0.001927498
0002b0 05 0f 91 bd 6f 49 04 3d 49 55 8c bd 18 fe 58 bd
       -0.07082943 0.032296594 -0.06852204 -0.052976698
0002c0 7a bc 69 bb 1b b0 68 3d ab af 80 ba e9 7e 96 bd
       -0.003566532 0.056808572 -0.0009817978 -0.07348425
0002d0 6b 1b 25 3d 43 41 29 3d 91 c3 47 bd be 0c 5b 3d
       0.04030935 0.041322004 -0.04877049 0.05347895
0002e0 6b aa 2d bd 71 0d 82 3d 78 00 a4 bc 2a 07 e1 bc
       -0.04239885 0.0635022 -0.020019755 -0.027469236
0002f0 de cc 35 3d ee 99 ae bc 9d af e4 bc b4 aa 66 bd
       0.04438483 -0.021313634 -0.02791577 -0.05631514
000300 fe 9b 7f 3d b7 1f 36 3d de e2 57 bd d3 32 4c 3d
       0.062404625 0.04446384 -0.05270659 0.049853157
000310 79 bd 19 3d 07 05 6c 3d 16 48 5c 3d a7 d8 87 3d
       0.03753421 0.057621982 0.053779684 0.0663312
000320 2c 34 cd 3c 20 f8 0a bd b0 7b b7 bc a4 e2 81 bd
       0.025049292 -0.033928037 -0.022397846 -0.063420564
000330 b3 52 5b bd 13 68 bb 3c 30 4c d4 38 da f8 17 bd
       -0.053545665 0.022876775 0.00010123139 -0.037102558
000340 bb 7f 97 bd bc fa f0 3b 83 f3 3f 3d 31 21 7e 3d
       -0.073974095 0.0073541086 0.04686309 0.062043373
000350 87 c4 45 3c 2b e5 0d bd 15 e3 7e 3c 54 0d b4 3d
       0.012070782 -0.03464238 0.01555707 0.08791605
000360 de 5e 90 3c da 38 ba 3c 73 d8 57 bd a4 9c 78 bd
       0.017623361 0.022732187 -0.052696656 -0.06069626
000370 0a 20 af bc 5b 15 ff bc da 19 66 3c 0e ac 4a bd
       -0.021377582 -0.031138113 0.014044249 -0.04948049
000380 45 38 c2 3b 31 d3 17 3b f1 df 98 3d 26 4e 36 3d
       0.005927118 0.0023166651 0.074645884 0.044508122
000390 f8 60 60 bd d9 12 14 3d 88 06 34 3d e7 1d 86 bc
       -0.054779977 0.036150787 0.04395154 -0.01637168
0003a0 67 33 68 bd b3 f5 d1 3b 88 93 68 3d 47 42 8e bd
       -0.056689646 0.0064074635 0.05678132 -0.06946235
0003b0 0d 31 dc bc 8c e4 8e bd 1b 30 04 3c ef cb 3a 3d
       -0.026878858 -0.069771856 0.00806811 0.045604642
0003c0 b6 c3 a3 bc 0b 22 a4 3c 31 47 25 bd de f8 dd bc
       -0.019990783 0.020035764 -0.040351097 -0.027096208
0003d0 8f 6b c0 3c e8 9b 32 bd e8 96 31 3d 45 d5 cf 3c
       0.023488788 -0.043605715 0.043356806 0.02537025
0003e0 c2 d8 78 bd c0 46 32 3d e3 d3 99 bc fa 75 dc 3c
       -0.06075359 0.043524504 -0.018777793 0.026911724
0003f0 d8 74 30 bd b3 ef 41 3c 36 05 b0 bd 2b ff 45 bd
       -0.04308018 0.011836934 -0.08594744 -0.04833905

lastnet.bias f4 [100]
000000 79 60 0b 3c ee 41 58 3d c9 8d f6 bc 09 1d 01 bd
       0.008506888 0.05279725 -0.030096905 -0.03152183
000010 26 82 ce bd b2 ff bf bd 93 8d 2b 3e ee b4 0c 3a
       -0.100834176 -0.09374942 0.16753225 0.0005367537
000020 bf d8 8e 3d 8d f8 ad bc e9 1a 9b 3d 25 83 bd bc
       0.06974935 -0.021236682 0.07573492 -0.023133824
000030 20 ff 24 3d ea 13 88 bd 3d 98 cd 3d 85 a7 a8 3d
       0.04028237 -0.06644423 0.10038803 0.08235077
000040 8c bb 7c bd 26 e5 15 bd fb 54 9d 3d 6a 8f 76 bd
       -0.061702296 -0.036595486 0.07682224 -0.060195364
000050 eb a6 3a 3d e6 1d 11 bd 76 b8 cd bd e5 59 2f bd
       0.04556934 -0.035428904 -0.10044949 -0.04281034
000060 c8 c0 ca 3d 19 21 16 bd dc c0 86 3c 88 3a 62 bd
       0.09900051 -0.036652658 0.016449384 -0.0552316
000070 48 74 75 3d 06 85 97 3d 24 bb be 3d 9c 07 de 3c
       0.059925348 0.07398419 0.09313038 0.027103238
000080 e2 8a 96 3d 6e dd 45 3c 42 0f b1 3b 62 a4 82 3d
       0.073507085 0.012076719 0.00540343 0.0637901
000090 06 a6 8f 3d c9 2b d5 bd f0 54 24 bd e2 05 8e bd
       0.07014088 -0.10408742 -0.040120065 -0.06934716
0000a0 a0 cf eb bb 9d b5 47 3d ec 73 b2 bc 6e 4d 33 3b
       -0.0071963817 0.048757184 -0.021783791 0.0027359384
0000b0 4e 73 5b 3d 98 96 e6 bd cb 18 31 3c 02 3f 2c 3c
       0.05357676 -0.11259192 0.010809134 0.010513069
0000c0 7f 0d b0 3c fd 9c 93 3c 03 e3 a2 bd 30 85 b6 3b
       0.02149081 0.018019194 -0.07953455 0.0055700764
0000d0 c5 1d b0 3d 77 2d 6b bd 07 22 63 3d e3 f9 9a 3d
       0.08599428 -0.057416406 0.055452373 0.07567193
0000e0 3c 16 70 bc 75 c3 87 3d 1f ca 5a bd 55 cd 24 3c
       -0.014653739 0.06629077 -0.053415414 0.010058721
0000f0 9b 3a ae 3c 71 8b 95 bd 02 a0 71 3d c2 aa 4b bb
       0.02126818 -0.07301987 0.058990486 -0.0031077121
000100 53 80 bf 3d 51 4f 02 3e 8c 87 16 3c b4 60 ea 3d
       0.09350648 0.1272557 0.00918759 0.11444226
000110 04 be e6 3c dd 00 60 bd 5c 31 b4 3d 48 08 0f 3d
       0.028166778 -0.054688323 0.08798477 0.034920007
000120 b1 8a 2b 3d 70 68 80 bd 3d 75 c7 3d 53 90 84 bd
       0.041880313 -0.0626992 0.09739158 -0.0647284
000130 b0 3f af bd 9e df 21 bd f9 8e a2 3d 75 ad fe 3d
       -0.08557069 -0.0395199 0.07937426 0.12435428
000140 f8 c4 e8 3d 44 e3 11 3e df df ad bb 61 5d 2b bd
       0.11365694 0.14246851 -0.0053062285 -0.0418371
000150 af 8c 80 bd b8 33 db bd 3e be ad bb 5b af 8d 3d
       -0.06276833 -0.10703224 -0.0053022197 0.06918212
000160 7a 1f df bd 82 e5 92 3c 11 aa 92 bd 46 76 a4 bd
       -0.108946756 0.017931703 -0.07161344 -0.08030371
000170 0a 5e 07 bd bf bf 97 3d a3 bf 80 bd c6 2b a8 3c
       -0.033048667 0.074096195 -0.06286552 0.020528685
000180 ca ca 3b bd 37 ec ef bc 71 0a d7 3d 66 65 5e 3d
       -0.04584769 -0.02928744 0.105000384 0.05429592
