parameter/crf_lstm_parameter/last_sent_net1_test.ckpt (torch_old, 80969 bytes, 2 tensors)

lastnet.weight f4 [100, 200]
000000 f3 93 90 bd b1 fd 0d bd 96 19 de bc 72 77 02 bd
       -0.07059469 -0.034665767 -0.02711181 -0.031852193
000010 95 07 14 3c 4f d3 59 bd 84 99 28 bd ee 14 9d 3d
       0.009035011 -0.053180035 -0.04116203 0.07670008
000020 e8 c4 94 3c f3 24 35 3d 9c df 10 3d ec 34 07 bd
       0.018160298 0.04422469 0.0353695 -0.033009455
000030 85 75 49 3d 44 f7 5b 3d ce c1 9b bd aa d5 81 bd
       0.04918434 0.053702608 -0.07605325 -0.06339581
000040 bb c3 a4 bc 84 98 fa 3c 96 61 95 bc d7 75 5e 3d
       -0.020112863 0.030590303 -0.01823501 0.0543116
000050 64 a1 b6 3c 7a 60 99 bd 41 b8 a2 3d 6a 67 9d bd
       0.022293754 -0.074891046 0.079453 -0.0768574
000060 6d 34 f1 bc a8 a4 36 3d 72 1b d4 3a ff 12 81 bd
       -0.029443944 0.044590622 0.0016182496 -0.06302451
000070 35 24 ce bc 23 7c 81 3d 83 db 50 bd cb 96 b7 bc
       -0.02516375 0.06322505 -0.050990593 -0.02241077
000080 9a 9e d7 bc 7c 86 94 3c 77 25 45 bd ea b3 5d 3d
       -0.026320744 0.018130533 -0.048131432 0.054126658
000090 1b de d0 3b 3f 1c 93 3d 3f 8c f6 3c 2e e1 91 bd
       0.0063741333 0.07183122 0.030096171 -0.07123028
0000a0 75 61 98 bc a6 c1 62 3d 0d cc d6 3c ff 6d 9a bd
       -0.018601159 0.05536046 0.026220346 -0.07540511
0000b0 6d c4 4a bc ab 30 0b bd 70 d3 5b bd 67 12 26 3d
       -0.012375933 -0.03398196 -0.05366844 0.040544894
0000c0 f5 e9 fe bc 37 24 34 3d 73 9a c9 bc dc 74 1e bd
       -0.031117419 0.04397985 -0.02460978 -0.038685665
0000d0 74 db b0 3d 62 01 6c 39 bc 50 24 3d 52 f4 8a bd
       0.08635607 0.00022507229 0.040116057 -0.06784882
0000e0 7f 00 65 3d 38 57 48 bd d4 d0 9c bd 8d 88 fb 3c
       0.055908676 -0.048911303 -0.07657018 0.03070476
0000f0 f0 e2 0a bd 16 81 b5 bc 65 d6 37 3d 28 ff 42 3d
       -0.03390783 -0.02215628 0.044882197 0.047606617
000100 61 dd 00 bd 74 4f ac bd f1 3b 41 3b 41 34 98 3c
       -0.031461123 -0.08413592 0.002948519 0.018579604
000110 4f 8d d0 3c f9 c3 eb ba 9f 05 d5 bb 2e e4 38 3c
       0.025458006 -0.0017987482 -0.006500914 0.011284871
000120 ed 50 70 3d d1 ef 4a 3c c5 af 65 bd 3d 2f 2c bc
       0.058670927 0.012386278 -0.05607583 -0.010509309
000130 3b 94 7a bd 91 fd d5 3c d3 10 19 bd 4d c3 97 3d
       -0.06117652 0.026121886 -0.03736956 0.074102975
000140 59 c1 0c bd ab e5 3f 3d 96 b3 12 bd 05 88 19 3d
       -0.03436408 0.046849888 -0.035815798 0.037483234
000150 ed 0e 90 bd 0f fd 59 bd 62 1c 8f bd 91 00 d1 3c
       -0.07034097 -0.05321985 -0.069878355 0.025512965
000160 23 27 72 3b 67 cc 90 3c 71 44 ec 3b eb 24 29 bd
       0.0036949597 0.017675592 0.0072103073 -0.041294973
000170 74 19 96 ba 70 a5 8e 3d df 9a 2b bd b9 55 36 3d
       -0.0011451677 0.069651484 -0.041895743 0.044515345
000180 fc bf 14 3d 7a cb 44 3d 35 08 15 bd 18 df 70 3d
       0.036315903 0.048045613 -0.03638478 0.05880651
000190 83 79 7f 3c 4e 28 5e 3d f4 63 7e 3d 13 c1 48 bd
       0.0155929355 0.054237656 0.06210704 -0.049012255
0001a0 d8 0d bb 3c 18 2d d7 bc f7 bd 35 3d 89 6e f6 bc
       0.02283375 -0.02626662 0.044370618 -0.030082004
0001b0 84 24 cf bc 08 c0 a6 3c 80 56 6e 3d ec bd d8 bc
       -0.025285967 0.02035524 0.05818796 -0.02645775
0001c0 98 92 6b bd 2c 00 a4 39 27 17 88 bd 8b 49 0e bd
       -0.05751285 0.00031280646 -0.06645041 -0.034738105
0001d0 58 ff eb bb 48 30 2a bd cf 91 95 bd 82 c9 48 3d
       -0.00720207 -0.04154995 -0.073032014 0.049020298
0001e0 13 b2 c5 3c 9b 3c 24 3d 5e 70 67 3d c2 60 a9 3c
       0.024132764 0.04009686 0.056503646 0.02067602
0001f0 cc f5 1a bd 68 b6 4d bd 14 89 82 bd 75 d2 83 3d
       -0.037832066 -0.050222784 -0.06373802 0.06436626
000200 db b2 d7 3c 17 f8 d3 bc a7 17 3f bd 39 62 67 bd
       0.026330402 -0.025875134 -0.046653416 -0.056490157
000210 bc 8c e3 bc 6b 66 14 bd 8c 97 ed 3c 9f 54 28 bc
       -0.027777068 -0.036230486 0.029002927 -0.0102740815
000220 ba cc 99 bd f8 be 66 3d 88 a8 21 bd 3c f3 9c 3d
       -0.075097516 0.056334466 -0.039467365 0.07663581
000230 f2 f9 bc 3d 50 b7 0f bd fb b7 4f bd 6c ac 92 bd
       0.09227361 -0.03508693 -0.050712567 -0.07161793
000240 66 e6 45 bd 38 b4 5c bd e5 43 3b 3c 36 fa 9c bd
       -0.04831543 -0.053882807 0.011429762 -0.076649114
000250 0d 9f 49 bd 94 36 56 bd 2a 75 24 3d e2 73 f5 3b
       -0.04922395 -0.052298144 0.0401508 0.007490621
000260 59 0e 8f bd 54 c0 69 3d 1c 7f 78 3d ef 84 99 3d
       -0.069851585 0.057068184 0.060668096 0.07496058
000270 9e 21 bb bc e5 53 50 3c 0f 6e 90 bc f8 0a 69 bd
       -0.022843178 0.0127153145 -0.017630605 -0.056895226
000280 ce 40 01 ba 3b f1 34 bd 39 59 2d bc 35 86 90 bd
       -0.0004930616 -0.044175368 -0.010580354 -0.07056848
000290 00 d2 eb 3c 21 ec a7 bb d0 ff a1 3c a4 a5 14 bd
       0.02878666 -0.0051245843 0.019775301 -0.03629078
0002a0 8b b2 95 3c 1b 5a cd bc 66 b3 9b 3d 61 60 1b bb
       0.018273612 -0.02506738 0.07602577 -0.002370857
0002b0 2d a6 92 bd 4b c3 03 3d d4 ed 8a bd 05 3a 66 bd
       -0.07160602 0.032168668 -0.06783643 -0.056207675
0002c0 b5 f2 0d bb 36 bd 64 3d b4 28 a6 b9 43 16 97 bd
       -0.0021659557 0.055844508 -0.00031692313 -0.07377293
0002d0 97 7b 27 3d 48 e5 2a 3d ca aa 42 bd 9f 62 5b 3d
       0.04088935 0.041722566 -0.04752616 0.05356085
0002e0 e2 a5 2d bd 74 89 86 3d 21 8f aa bc d6 db de bc
       -0.042394526 0.06569186 -0.020820202 -0.027204435
0002f0 70 80 36 3d 57 7b 9a bc 01 e3 de bc 6f 2f 66 bd
       0.04455608 -0.018857641 -0.027207853 -0.05619758
000300 30 5a 7f 3d fe b0 33 3d 0c eb 5a bd cc a9 4d 3d
       0.06234187 0.043869965 -0.053446814 0.05021076
000310 21 62 24 3d 25 2f 6b 3d 3e 9b 5d 3d 84 bc 83 3d
       0.040132646 0.057418007 0.05410313 0.06432441
000320 9c 58 ab 3c be cd 01 bd 0a 2a b5 bc 71 da 73 bd
       0.020916276 -0.03169035 -0.022114772 -0.059534494
000330 c7 4a 5c bd 67 ff ae 3c 73 78 94 3b c5 48 18 bd
       -0.05378225 0.02136202 0.00453096 -0.037178773
000340 57 e0 98 bd f1 d4 0c 3c 20 a7 4d 3d eb 95 78 3d
       -0.074646644 0.008595691 0.05020821 0.060689848
000350 ad 0b 17 3c 01 61 05 bd d8 cd ce 3c 77 a5 b7 3d
       0.009219092 -0.032563213 0.025244638 0.08967107
000360 4e 49 9a 3c 92 cf bc 3c f0 56 77 bd 83 f4 76 bd
       0.018833783 0.023048196 -0.060385644 -0.06029178
000370 64 17 aa bc ef dd 0d bd b7 eb 66 3c f7 19 46 bd
       -0.020763107 -0.03463548 0.014094285 -0.048364606
000380 7e 00 1c 3c 6a 1b 19 3c f0 fd 98 3d e9 2b 4a 3d
       0.009521602 0.009344915 0.0747031 0.049358282
000390 95 e8 6e bd 77 a5 11 3d b1 9d 35 3d 12 7f 9e bc
       -0.058327276 0.03555819 0.04433984 -0.019347701
0003a0 0b 72 69 bd f2 48 d0 3b 1f 9d 63 3d 4a 2a 90 bd
       -0.056993525 0.006356352 0.055569764 -0.07039316
0003b0 63 56 e5 bc 91 49 91 bd dd e4 3f 3c 53 62 46 3d
       -0.027995294 -0.0709411 0.01171228 0.048433613
0003c0 83 72 9a bc 27 29 97 3c 59 a0 18 bd 5a 0d e6 bc
       -0.018853432 0.01845224 -0.037262294 -0.028082538
0003d0 e5 2c aa 3c 91 d6 45 bd 2a 4f 3d 3d 8b 89 c7 3c
       0.02077336 -0.04830033 0.046218075 0.024357578
0003e0 9e 85 79 bd 33 0d 21 3d 3b bf 93 bc 85 e3 e4 3c
       -0.060918443 0.03931923 -0.018035522 0.027940521
0003f0 78 db 36 bd 4f f2 1b 3c ae 56 b1 bd ed 3c 53 bd
       -0.044642895 0.00951822 -0.08659111 -0.051571775

lastnet.bias f4 [100]
000000 67 51 e0 3a b9 38 70 3d ab b0 fc bc 6e 23 c5 bc
       0.0017114104 0.058647845 -0.03084596 -0.024064746
000010 a6 f0 d1 bd d3 2b da bd 1f 80 3e 3e 7f d9 1d 3b
       -0.10250978 -0.1065289 0.18603562 0.0024085937
000020 e7 c5 9e 3d 0d e4 e2 bc bf 51 a1 3d 0f 0c ec bc
       0.077525906 -0.027696634 0.0787692 -0.028814344
000030 49 cc 31 3d 12 9f 86 bd ff f2 d8 3d 4e 8c b6 3d
       0.043407712 -0.06573309 0.10593223 0.0891348
000040 40 10 87 bd af df 16 bd 41 60 b2 3d 94 c5 65 bd
       -0.06594896 -0.036834415 0.08709765 -0.05609663
000050 cd 89 39 3d e7 cb 06 bd 07 35 db bd 20 71 39 bd
       0.045297433 -0.0329093 -0.107034735 -0.0452739
000060 f0 3f e2 3d 76 0e 2c bd 67 fb f4 3c dd 40 65 bd
       0.11047351 -0.04200598 0.029905034 -0.05597006
000070 fe 5a 77 3d 74 49 a5 3d 99 a4 d5 3d a0 b1 16 3d
       0.06038951 0.08070651 0.10431785 0.03679049
000080 c8 d7 a3 3d f7 3d 7a 3c 1b 5f e4 ba 41 ee 89 3d
       0.080001414 0.015273563 -0.0017423363 0.067348965
000090 15 81 b2 3d 3f a2 ca bd d8 7d 27 bd a0 a2 a2 bd
       0.08716027 -0.09894227 -0.0408915 -0.079411745
0000a0 c2 12 41 bc eb 7f 6b 3d 78 8a 02 bd da 6f 2f bb
       -0.011784257 0.05749504 -0.031870335 -0.002676955
0000b0 12 65 6e 3d 8c a8 f0 bd 1b 82 61 3c 08 d1 44 3c
       0.058201857 -0.11750898 0.01376393 0.012012728
0000c0 2c 66 c8 3c f3 b5 c3 3c 9d 48 9a bd de 8e 8c 3a
       0.024462782 0.023890471 -0.07533381 0.001072373
0000d0 66 5f ba 3d 49 7b 7c bd d5 16 5a 3d f5 fb ae 3d
       0.09100227 -0.06164101 0.05324443 0.08544151
0000e0 29 6b ae bb ac f9 9c 3d 31 42 60 bd 5f dd 3c 3b
       -0.005322833 0.07664809 -0.054750625 0.002881847
0000f0 f1 1e cd 3c b5 09 ad bd 91 08 73 3d 50 e1 08 3c
       0.025039168 -0.08449117 0.05933434 0.0083545
000100 91 cb c8 3d 88 71 10 3e b8 6e cf 3c 5b 9b fd 3d
       0.09804452 0.14105809 0.02532135 0.12383147
000110 6e 93 a1 3c 83 2c 55 bd eb 22 c9 3d 06 e8 07 3d
       0.01972362 -0.052044403 0.09821113 0.03318026
000120 2d 59 3b 3d 12 4a 92 bd e5 f3 c9 3d ec 36 84 bd
       0.04573934 -0.07143034 0.09860972 -0.06455788
000130 35 a9 ba bd 9f fe 04 bd 58 bc b5 3d 0b 5e 0e 3e
       -0.09114305 -0.032469388 0.08873814 0.13903062
000140 74 ac ea 3d 36 88 22 3e 2d 86 b0 bb bf 81 35 bd
       0.11458674 0.15872273 -0.0053870887 -0.04431319
000150 e8 c2 80 bd 78 cb e3 bd ee c4 88 3b 79 ec a0 3d
       -0.062871754 -0.11122793 0.0041738665 0.078576036
000160 a6 c7 fc bd 8d 34 bd 3c 52 17 99 bd aa 2d b4 bd
       -0.123427674 0.023096347 -0.07475151 -0.08797772
000170 04 51 0a bd 47 36 a6 3d ef df 81 bd 41 85 0b 3d
       -0.03376867 0.08115821 -0.0634154 0.034062628
000180 34 58 63 bd ec 2e e1 bc 8e 8f f5 3d 5a fa 65 3d
       -0.05550404 -0.027488194 0.119902715 0.056146957
