parameter/crf_lstm_parameter/last_sent_net2.ckpt (torch_old, 80969 bytes, 2 tensors)

lastnet.weight f4 [100, 200]
0	0xbd907c6a	-0.0705498
1	0xbd0ec444	-0.034855142
2	0xbcdd105b	-0.026985338
3	0xbd01ab90	-0.031657755
4	0x3c18426d	0.009293181
5	0xbd58f46a	-0.052967466
6	0xbd291ba2	-0.04128612
7	0x3d9d8ca2	0.07692839
8	0x3c940be5	0.018072078
9	0x3d35d68f	0.044394072
10	0x3d114934	0.035470203
11	0xbd078dbd	-0.033094157
12	0x3d4905b7	0.049077716
13	0x3d5c0ef3	0.053725194
14	0xbd9bd20c	-0.07608423
15	0xbd817ac6	-0.06322245
16	0xbca1beaf	-0.019744245
17	0x3cf83147	0.030296935
18	0xbc9528f8	-0.018208012
19	0x3d5ed0d9	0.05439839
20	0x3cb49356	0.022042911
21	0xbd992963	-0.07478597
22	0x3da2c37d	0.07947443
23	0xbd9d6fc5	-0.07687334
24	0xbcf25ad2	-0.029584322
25	0x3d362b9d	0.044475187
26	0x3ad51de1	0.0016259515
27	0xbd80d460	-0.06290507
28	0xbcd0a845	-0.025470862
29	0x3d81d80d	0.063400365
30	0xbd50b1c1	-0.05095077
31	0xbcb6fefc	-0.022338383
32	0xbcd8737b	-0.026422253
33	0x3c943528	0.018091753
34	0xbd457583	-0.04820777
35	0x3d5cd1c5	0.05391099
36	0x3bd9a859	0.006642383
37	0x3d9345a4	0.07191017
38	0x3cf5d2ed	0.030007804
39	0xbd91643f	-0.070991985
40	0xbc985989	-0.018597381
41	0x3d63d1e1	0.055620078
42	0x3cd85820	0.026409209
43	0xbd9b05d7	-0.07569473
44	0xbc4c1949	-0.0124572
45	0xbd0c5c88	-0.034267932
46	0xbd5b7475	-0.05357786
47	0x3d25eeaa	0.04051081
48	0xbd008154	-0.031373337
49	0x3d347509	0.044056926
50	0xbcc73953	-0.024319327
51	0xbd1d67ff	-0.038429257
52	0x3db08157	0.086184196
53	0x3894fe94	7.104609e-05
54	0x3d2481a9	0.040162716
55	0xbd8ae858	-0.06782597
56	0x3d664967	0.056222346
57	0xbd48f1ca	-0.049058713
58	0xbd9c7656	-0.07639758
59	0x3cfd6ff4	0.030937172
60	0xbd0b310f	-0.033982333
61	0xbcb44645	-0.022006163
62	0x3d377cef	0.04479688
63	0x3d428e4c	0.047498986
64	0xbd002e22	-0.031293996
65	0xbdabf5cc	-0.083964914
66	0x3b4ce464	0.003126406
67	0x3c98ee32	0.018668268
68	0x3cd00cef	0.025396792
69	0xbb0b0151	-0.0021210501
70	0xbbcacc32	-0.0061888928
71	0x3c3598b2	0.011083769
72	0x3d6fa1fa	0.058504082
73	0x3c46b122	0.012127193
74	0xbd64f004	-0.05589296
75	0xbc28ef1d	-0.010310915
76	0xbd7b17d4	-0.06130202
77	0x3cd67adb	0.026181629
78	0xbd17a985	-0.0370269
79	0x3d9784d6	0.07398383
80	0xbd0c9d4f	-0.03432971
81	0x3d3f2894	0.046669558
82	0xbd1358ec	-0.035973474
83	0x3d19cea9	0.037550602
84	0xbd8f73d2	-0.07004513
85	0xbd5a34c2	-0.05327297
86	0xbd8efffe	-0.069824204
87	0x3ccf2050	0.025283962
88	0x3b72a575	0.003702489
89	0x3c90b9d5	0.017666737
90	0x3be81b8a	0.007083361
91	0xbd28e8df	-0.04123771
92	0xbaac6e19	-0.001315537
93	0x3d8e3ced	0.069452144
94	0xbd2c8135	-0.04211541
95	0x3d3737c5	0.04473092
96	0x3d13c865	0.036079783
97	0x3d45739c	0.048205957
98	0xbd13cb3a	-0.036082484
99	0x3d7011b9	0.05861065
100	0x3c7fd642	0.015615048
101	0x3d5e9396	0.054339968
102	0x3d7e348e	0.06206184
103	0xbd48f6ed	-0.04906361
104	0x3cbb4e9f	0.022864638
105	0xbcd5cf6d	-0.026099885
106	0x3d35566b	0.044271868
107	0xbcf577fd	-0.029964441
108	0xbccdeef0	-0.025138348
109	0x3ca75b70	0.020429343
110	0x3d6f7e75	0.05847021
111	0xbcd9ae4e	-0.026572373
112	0xbd6b8fe0	-0.057510257
113	0x39d1c756	0.00040012103
114	0xbd8822d3	-0.06647267
115	0xbd0dfe5f	-0.034666415
116	0xbbf50fc8	-0.007478688
117	0xbd2af1e0	-0.041734576
118	0xbd94e4a4	-0.07270172
119	0x3d485bd6	0.048915707
120	0x3cc78750	0.024356514
121	0x3d252923	0.040322434
122	0x3d6804a6	0.056645058
123	0x3ca9ade5	0.020712802
124	0xbd1abdb8	-0.037778586
125	0xbd4d5f41	-0.05013967
126	0xbd82b6f5	-0.063825525
127	0x3d83b356	0.0643069
128	0x3cd72ed5	0.026267448
129	0xbcd19c41	-0.025587203
130	0xbd3f553c	-0.046712145
131	0xbd6802ba	-0.056643225
132	0xbce45ff5	-0.027877787
133	0xbd15944e	-0.036518387
134	0x3cee922a	0.02912243
135	0xbc293a67	-0.010328866
136	0xbd9a3a37	-0.07530635
137	0x3d66c684	0.056341663
138	0xbd226f48	-0.039656907
139	0x3d9d18b2	0.07670726
140	0x3dbd0c01	0.09230805
141	0xbd0fd53e	-0.035115473
142	0xbd4ffa63	-0.050775897
143	0xbd924247	-0.07141548
144	0xbd453036	-0.04814168
145	0xbd5daef2	-0.05412192
146	0x3c3aa9ad	0.011392993
147	0xbd9d19f2	-0.07670964
148	0xbd491696	-0.049093805
149	0xbd5713f9	-0.05250928
150	0x3d251709	0.04030517
151	0x3bf93213	0.0076048463
152	0xbd8eb0d1	-0.06967319
153	0x3d69d81d	0.057090867
154	0x3d792ec3	0.06083561
155	0x3d99a808	0.075027525
156	0xbcbb68c0	-0.022877097
157	0x3c4f0034	0.012634326
158	0xbc920d35	-0.017828563
159	0xbd697ce0	-0.057003856
160	0xb9b065b6	-0.00033645116
161	0xbd352773	-0.044227075
162	0xbc2f3ae9	-0.010695198
163	0xbd907a64	-0.07054594
164	0x3cecd205	0.028908739
165	0xbbac1a79	-0.005252179
166	0x3ca44456	0.020052116
167	0xbd138bd2	-0.036022015
168	0x3c97a5a9	0.01851161
169	0xbccef5dd	-0.025263721
170	0x3d9b21c0	0.07574797
171	0xbb130c37	-0.00224377
172	0xbd92614a	-0.07147463
173	0x3d036655	0.032080013
174	0xbd8b1f2d	-0.06793056
175	0xbd66ea93	-0.05637605
176	0xbb0165b4	-0.0019744458
177	0x3d659016	0.056045614
178	0xb96bf74b	-0.0002250347
179	0xbd96f69f	-0.07371258
180	0x3d266d50	0.040631592
181	0x3d29d80f	0.041465815
182	0xbd41f8ee	-0.04735654
183	0x3d5ab1af	0.05339211
184	0xbd2dacc8	-0.042401105
185	0x3d860117	0.065431766
186	0xbca93a25	-0.020657608
187	0xbcdca78b	-0.02693536
188	0x3d375558	0.044759125
189	0xbc9a153b	-0.018808952
190	0xbcddf39a	-0.027093697
191	0xbd650fa7	-0.05592313
192	0x3d802a70	0.06258094
193	0x3d32e416	0.04367455
194	0xbd5ac74e	-0.053412728
195	0x3d4cf7b3	0.050040912
196	0x3d243e87	0.040098693
197	0x3d6b394a	0.057427682
198	0x3d5d0cda	0.053967334
199	0x3d83f907	0.064439826
200	0x3cab1fae	0.02088913
201	0xbd014d63	-0.031567942
202	0xbcb5c352	-0.022187863
203	0xbd745704	-0.059653297
204	0xbd5ceb44	-0.053935304
205	0x3cad9a36	0.021191698
206	0x3b985c51	0.004649677
207	0xbd18ee62	-0.037336715
208	0xbd98c150	-0.074587464
209	0x3c0b25b6	0.008492878
210	0x3d4d4b9c	0.050120935
211	0x3d78c929	0.060738716
212	0x3c17e395	0.009270568
213	0xbd0593b6	-0.03261157
214	0x3ccf73ce	0.025323775
215	0x3db7770e	0.08958255
216	0x3c983e9f	0.018584548
217	0x3cbe1d64	0.023207374
218	0xbd7788be	-0.060433142
219	0xbd77279a	-0.0603405
220	0xbca8cfb7	-0.020606859
221	0xbd0e18cb	-0.034691613
222	0x3c6718f8	0.014105074
223	0xbd45ef37	-0.048323836
224	0x3c1d9607	0.009618289
225	0x3c1a04a9	0.009400525
226	0x3d98fa4b	0.074696146
227	0x3d49fa02	0.04931069
228	0xbd6e3321	-0.05815423
229	0x3d112c41	0.035442594
230	0x3d35864e	0.044317536
231	0xbc9f6904	-0.019459255
232	0xbd68fdfd	-0.056882847
233	0x3bd167da	0.006390554
234	0x3d6421d6	0.05569633
235	0xbd8fe76d	-0.07026563
236	0xbce70803	-0.028202062
237	0xbd9177be	-0.07102917
238	0x3c401977	0.011724821
239	0x3d45be31	0.048277084
240	0xbc9ac1e7	-0.018891288
241	0x3c95b7b3	0.018276071
242	0xbd192f75	-0.037398774
243	0xbce47600	-0.027888298
244	0x3caa956f	0.020823209
245	0xbd45212c	-0.04812734
246	0x3d3cfd54	0.04614003
247	0x3cc78eef	0.024360148
248	0xbd78eb86	-0.060771488
249	0x3d20fd60	0.039304137
250	0xbc9535eb	-0.018214187
251	0x3ce369fd	0.0277605
252	0xbd369e58	-0.044584602
253	0x3c1d2d25	0.009593283
254	0xbdb16dbd	-0.08663509
255	0xbd534d3d	-0.051587332

lastnet.bias f4 [100]
0	0x3b0d40a1	0.0021553414
1	0x3d6f1111	0.058365885
2	0xbcfd47d8	-0.030918047
3	0xbcc6b1b1	-0.024254652
4	0xbdd22b8b	-0.102622114
5	0xbdd9df4c	-0.106382936
6	0x3e3eae22	0.18621114
7	0x3b183f54	0.0023231106
8	0x3d9ead9b	0.07747956
9	0xbce1dd93	-0.027571475
10	0x3da19929	0.07890541
11	0xbcec467a	-0.0288422
12	0x3d319d86	0.043363117
13	0xbd86b25e	-0.065769896
14	0x3dd91674	0.10599986
15	0x3db6065d	0.088879324
16	0xbd86721f	-0.065647356
17	0xbd176f47	-0.036971357
18	0x3db2149c	0.08695337
19	0xbd6611cb	-0.056169312
20	0x3d39ab7d	0.04532956
21	0xbd06dbc3	-0.032924425
22	0xbddadd26	-0.10686712
23	0xbd396186	-0.04525902
24	0x3de29342	0.110632434
25	0xbd2c1ad3	-0.04201777
26	0x3cf3894b	0.029728552
27	0xbd64a16f	-0.055818018
28	0x3d77bd0f	0.060483035
29	0x3da4cf6b	0.08047374
30	0x3dd57a78	0.1042375
31	0x3d1680cf	0.036743935
32	0x3da367a7	0.079787545
33	0x3c7a7bf9	0.015288346
34	0xbad9d03d	-0.0016617846
35	0x3d89e610	0.06733334
36	0x3db26767	0.08711129
37	0xbdca990c	-0.098924726
38	0xbd26abd9	-0.04069123
39	0xbda30c56	-0.07961337
40	0xbc3fa0d3	-0.011696058
41	0x3d6b24eb	0.057408255
42	0xbd020559	-0.03174338
43	0xbb28cf39	-0.002575828
44	0x3d6f4038	0.058410853
45	0xbdf07023	-0.117401384
46	0x3c62136d	0.013798577
47	0x3c439e8c	0.011939656
48	0x3cc7adb3	0.024374818
49	0x3cc488da	0.023991037
50	0xbd9a4201	-0.075321205
51	0x3aa2d039	0.0012421674
52	0x3dba1d5f	0.09087633
53	0xbd7b2f4a	-0.061324395
54	0x3d5911cf	0.0529955
55	0x3daea7ef	0.085281245
56	0xbbb31100	-0.005464673
57	0x3d9cb0ce	0.0765091
58	0xbd60d771	-0.05489296
59	0x3b368d4b	0.0027855213
60	0x3ccecd28	0.02524431
61	0xbdacc7a2	-0.084365144
62	0x3d73441a	0.05939112
63	0x3c088fc5	0.008335059
64	0x3dc8ab86	0.097983405
65	0x3e1069e7	0.14102899
66	0x3ccf96b2	0.025340412
67	0x3dfdcbd1	0.123923905
68	0x3ca1008d	0.019653583
69	0xbd55e249	-0.052217755
70	0x3dc8f1a0	0.09811711
71	0x3d06e6bc	0.03293489
72	0x3d3c10d2	0.04591448
73	0xbd926503	-0.07148173
74	0x3dca3a34	0.098743826
75	0xbd846f9a	-0.06466599
76	0xbdbaa9d0	-0.091144204
77	0xbd066710	-0.03281313
78	0x3db5eb4d	0.08882771
79	0x3e0e5170	0.13898253
80	0x3deb8b61	0.11501194
81	0x3e227bbd	0.15867515
82	0xbbb9b13a	-0.005666879
83	0xbd35c30a	-0.044375457
84	0xbd806796	-0.062697574
85	0xbde4045a	-0.111336425
86	0x3b82c562	0.003990815
87	0x3da0825a	0.078373626
88	0xbdfc5e9c	-0.12322733
89	0x3cbb96b6	0.022899013
90	0xbd99067f	-0.07471942
91	0xbdb41816	-0.087936565
92	0xbd0a3a53	-0.03374703
93	0x3da65ce6	0.08123188
94	0xbd81db1f	-0.06340622
95	0x3d0b7151	0.034043614
96	0xbd6248a5	-0.05524506
97	0xbcdf7352	-0.027276669
98	0x3df58379	0.11987967
99	0x3d6679cc	0.0562685
