parameter/crf.pth (torch_old, 502645 bytes, 11 tensors)

transitions f4 [31, 31]
000000 00 40 1c c6 00 40 1c c6 00 40 1c c6 00 40 1c c6
       -10000.0 -10000.0 -10000.0 -10000.0
000010 00 40 1c c6 00 40 1c c6 00 40 1c c6 00 40 1c c6
       -10000.0 -10000.0 -10000.0 -10000.0
000020 00 40 1c c6 00 40 1c c6 00 40 1c c6 00 40 1c c6
       -10000.0 -10000.0 -10000.0 -10000.0
000030 00 40 1c c6 00 40 1c c6 00 40 1c c6 00 40 1c c6
       -10000.0 -10000.0 -10000.0 -10000.0
000040 00 40 1c c6 00 40 1c c6 00 40 1c c6 00 40 1c c6
       -10000.0 -10000.0 -10000.0 -10000.0
000050 00 40 1c c6 00 40 1c c6 00 40 1c c6 00 40 1c c6
       -10000.0 -10000.0 -10000.0 -10000.0
000060 00 40 1c c6 00 40 1c c6 00 40 1c c6 00 40 1c c6
       -10000.0 -10000.0 -10000.0 -10000.0
000070 00 40 1c c6 00 40 1c c6 00 40 1c c6 7e c0 fa bf
       -10000.0 -10000.0 -10000.0 -1.9589994
000080 93 81 30 bf 1d b3 4b bf b8 7b f5 3e 52 e9 08 3f
       -0.68947715 -0.7957018 0.47945952 0.5348102
000090 35 24 95 3f 3e 33 d0 be 7e b6 b9 3f 5e e8 c3 3f
       1.1651675 -0.40664095 1.4508817 1.5305288
0000a0 c8 a6 c9 bf 09 75 55 bf e1 3e bb 3d c9 7f 5a bf
       -1.5754023 -0.83381706 0.091428526 -0.85351235
0000b0 0e ba 99 3f f9 a2 73 3f 6d a4 55 3c 8b d2 2e 3f
       1.2009904 0.9517055 0.01303969 0.68290013
0000c0 c5 76 5b be 7d b3 31 bf 8d 33 bf 3f 4f 4d 83 3d
       -0.21432026 -0.694145 1.4937607 0.0641123
0000d0 53 98 02 bf a0 a2 2d bf b2 3c 2f be 1f c6 10 3f
       -0.5101368 -0.6782627 -0.17112997 0.5655231
0000e0 19 26 5b bf 33 36 1c 3d 32 33 51 bf e5 5c cb be
       -0.8560501 0.038137626 -0.8171874 -0.3971931
0000f0 00 40 1c c6 00 40 1c c6 ce 18 f2 3e 36 40 87 be
       -10000.0 -10000.0 0.4728455 -0.26416177
000100 e7 07 06 c0 a9 0e d1 bd 36 6e af bf 1f f2 e9 3e
       -2.0942323 -0.10207874 -1.3705509 0.45692536
000110 d1 88 89 bf a4 d3 80 bf b7 67 22 bd ad f5 6a 3f
       -1.0744878 -1.0064588 -0.03964969 0.9178112
000120 0b da 93 3f ea a6 86 bf c6 98 7c 3f af 25 b6 3e
       1.1550916 -1.0519688 0.98670614 0.35575625
000130 a1 2d 7a be a8 cf a8 3f 42 30 48 3f 2e dd 43 bd
       -0.24431469 1.3188372 0.78198636 -0.047818355
000140 4c f3 3d be c2 70 94 bf 14 ca 96 3f 09 0a 25 bf
       -0.18549842 -1.1596911 1.1780419 -0.6446844
000150 e8 b9 82 3f 1c 7b 2f 3f 4b 7d 94 bf c1 6b a4 bf
       1.0212984 0.68547225 -1.1600736 -1.2845384
000160 77 22 7a be 71 91 b6 bf b2 11 85 3e 00 40 1c c6
       -0.2442721 -1.4263135 0.25990063 -10000.0
000170 00 40 1c c6 fa 17 6e bf 3b 67 1f 3f aa 8b 2c bf
       -10000.0 -0.93005335 0.6226689 -0.6740061
000180 44 bb 20 3d 21 5e 21 3d e3 77 d3 3e 71 65 00 3f
       0.03924109 0.03939641 0.41302404 0.5015479
000190 a2 39 9f 3e d8 5a f2 be 4c 7c 46 3f 87 3e 6d 3f
       0.31098658 -0.47334933 0.7753341 0.92673534
0001a0 8a a9 1c bf ba 24 fa be 4e 0c 69 3e 70 a1 91 bc
       -0.61196196 -0.48856145 0.227586 -0.017777175
0001b0 37 fc a9 be 32 ed a8 3f 16 b3 21 bf 6f 0f d6 bf
       -0.33200237 1.3197386 -0.6316389 -1.672346
0001c0 56 33 4c 3f bf 6e 06 3f 8a 71 85 3f d5 0d c2 bf
       0.7976583 0.52512735 1.0425274 -1.5160471
0001d0 f2 0c db 3d ed 08 98 3f 9f 0a 85 bf 7d 97 6f bf
       0.106958285 1.1877724 -1.0393866 -0.9359053
0001e0 5b fb 90 bf 01 55 3b 3e 00 40 1c c6 00 40 1c c6
       -1.1326708 0.18294145 -10000.0 -10000.0
0001f0 c9 40 77 3f 15 d9 06 3e fd 1b 0e bf 83 b2 9a bf
       0.9658323 0.13168748 -0.55511457 -1.2085727
000200 b5 40 8b 3f a1 92 ca 3d 65 d4 52 3f 3e 6c 6c 3f
       1.0879122 0.098912485 0.8235534 0.92352664
000210 a9 67 9c bf 4b 32 15 bf 19 3c 82 3f 4f f1 81 3f
       -1.2219135 -0.58279866 1.017459 1.0151767
000220 09 a6 c6 be 1d 5a aa 3e 86 7b e0 bf eb 43 61 bf
       -0.3879855 0.33271876 -1.7537696 -0.8799426
000230 87 05 b6 3f 09 7d c7 be 8c 62 95 bf 77 e1 93 3f
       1.4220437 -0.38962582 -1.1670699 1.1553181
000240 92 e1 3e be de 35 79 3d 1a 0c af bf dc 93 38 bf
       -0.18640736 0.060842387 -1.3675568 -0.72100616
000250 88 0f 00 bf 31 2e 83 bf 23 50 31 bf 06 d4 04 40
       -0.500237 -1.0248471 -0.69262904 2.075441
000260 66 69 8d 3e 00 40 1c c6 00 40 1c c6 ed 1c 8b 3f
       0.27619475 -10000.0 -10000.0 1.0868202
000270 47 b6 a5 be af f4 89 be 15 c5 30 bb 36 d0 6a bf
       -0.3236563 -0.2694449 -0.0026972939 -0.91723955
000280 19 cb 8e 3e 20 c4 ae 3f ed e0 0a 40 32 bc ba 3e
       0.27889326 1.3653603 2.1699784 0.36471707
000290 78 73 b8 3a 3a 0e 04 c0 be 94 a8 be 6f 5d 81 3f
       0.0014072498 -2.0633683 -0.3292598 1.0106639
0002a0 fb 75 25 bf 2a 09 01 40 8b 12 19 3f 17 1e 14 be
       -0.6463315 2.0161843 0.5979392 -0.14464603
0002b0 2c ab 16 bf 2a 19 a9 3f 76 7a 7f 3e e2 7b 7d be
       -0.5885494 1.3210804 0.24949059 -0.24754289
0002c0 b9 ff be bf a8 ea da bc 67 f6 65 3e 95 39 e3 bf
       -1.492179 -0.026723221 0.22457276 -1.7751948
0002d0 ec 36 0f be ac 41 a1 bc 82 af 80 3f 92 e6 65 be
       -0.13985795 -0.019684635 1.0053561 -0.22451237
0002e0 00 40 1c c6 00 40 1c c6 b0 8d ca be 6f cb f3 be
       -10000.0 -10000.0 -0.39561224 -0.47616145
0002f0 98 aa 34 be 7b cb b7 3e 8c 9c 90 3f ca 0b 13 c0
       -0.17643201 0.3589743 1.1297774 -2.2975945
000300 6e f7 a6 3e a0 a8 b4 be 85 74 48 bf 1b 6e ab bf
       0.3261065 -0.352849 -0.78302795 -1.3392977
000310 bd 02 8e 3f 2e 75 80 bd 4d c3 42 3f 85 a9 26 bf
       1.1094586 -0.0627235 0.76079255 -0.65102416
000320 34 5d 12 bf 35 6d 1a c0 09 98 8a bd d1 0c 93 3f
       -0.57173467 -2.4129155 -0.0676728 1.1488286
000330 f1 14 cf bf b2 07 93 be 3a 5b fc 3e b7 0c 27 bf
       -1.6178266 -0.2871681 0.4928835 -0.65253776
000340 04 9f c4 be 85 4c 72 3f 7a 61 c0 bf 8c 27 8c 3f
       -0.3840257 0.9464801 -1.5029747 1.0949569
000350 3f b5 ad be 90 d7 52 3f b2 e2 4c be 00 40 1c c6
       -0.33927342 0.8236017 -0.20008352 -10000.0
000360 00 40 1c c6 35 b4 34 3e e0 16 84 be f8 2e 85 3f
       -10000.0 0.17646869 -0.25798702 1.0404959
000370 8d d2 fb 3d 5d 63 a4 3f 25 1c d0 3e 33 08 4e bd
       0.12296019 1.2842823 0.40646473 -0.050300788
000380 85 d8 ff 3f 25 74 66 be f5 80 c8 bf c6 7f 62 bf
       1.9987952 -0.22505243 -1.5664355 -0.88476217
000390 34 78 d2 3f 14 63 73 bf 06 72 85 3f 5c f9 0b bf
       1.6442933 -0.95073056 1.0425422 -0.5467737
0003a0 ce a3 d3 3d 07 ae c4 bf 65 bd ea 3e 31 94 0b bf
       0.10333978 -1.5365609 0.45847622 -0.54523
0003b0 6c 42 8d 3f cf 7b 6c 3f 61 48 47 bf f2 12 96 be
       1.1035895 0.92376417 -0.77844816 -0.2931133
0003c0 dd df a2 bd 4b 27 1b 3f e3 a9 ae bf 11 b5 29 3f
       -0.07952855 0.6060683 -1.3645595 0.6629191
0003d0 29 d9 f3 3d e0 b5 57 3f 00 40 1c c6 00 40 1c c6
       0.119066544 0.84261894 -10000.0 -10000.0
0003e0 74 48 df 3e 05 cf 4f bf 58 7d e6 3e ca 95 8b bf
       0.43609965 -0.8117526 0.45017505 -1.0905087
0003f0 74 6c 89 3e 7d fa 81 be 09 94 a3 3e b0 98 a0 bb
       0.26840556 -0.2538642 0.3194888 -0.0049010143

gru.weight_ih_l0 f4 [300, 100]
000000 b7 a8 4c bd c6 07 3c 3d 02 59 c1 bd 2d c7 be bd
       -0.049965587 0.04590585 -0.09440805 -0.093153335
000010 00 c0 52 bd a1 fd a0 3d 60 f5 bd bc 51 47 94 3d
       -0.051452637 0.07860876 -0.023188293 0.07240165
000020 18 5c 16 3c 23 b6 ab 3d ec 3a d4 bc 3f c1 8a 3d
       0.00917723 0.08384349 -0.025907002 0.0677514
000030 3f 01 a3 3d 1d a9 9c bd 06 0e a4 bd 54 eb 85 3c
       0.07959222 -0.07649443 -0.08010487 0.016347565
000040 f3 06 8d 3d a2 46 1c 3d ca 43 6e 3d 5a b1 b4 bd
       0.06886091 0.0381533 0.058170117 -0.088228896
000050 a8 bc af bd 33 ac 49 bd f2 67 4e 3d a8 72 b6 bc
       -0.08580905 -0.049236488 0.0503921 -0.02227147
000060 38 7b 89 3c 6a 45 71 bd cd 09 b0 3d 6a 25 69 bd
       0.016782388 -0.05890409 0.08595619 -0.056920446
000070 0a 49 0a 3d 40 93 0f bd b4 b7 8e bc da c4 47 bd
       0.03376106 -0.035052538 -0.01742158 -0.048771717
000080 58 58 da bc 34 2d 16 bd 53 c6 78 bd a8 c0 d8 bc
       -0.026653454 -0.036664203 -0.06073601 -0.026459053
000090 e7 bf 59 bd c9 f9 b9 3d c0 6d b6 bd e8 ff 8f 3c
       -0.053161528 0.09080846 -0.08907652 0.01757808
0000a0 80 1f ab bd 82 ef 7f 3d 53 8d ac 3d f4 f0 84 bc
       -0.083556175 0.06248427 0.08425393 -0.016228177
0000b0 98 78 99 bd 71 a7 81 3d eb b9 93 bd b2 32 a7 bd
       -0.074937046 0.06330765 -0.072131954 -0.08163966
0000c0 0f 71 b9 3d b1 7c 8b 3d 2c 04 89 bc b2 e9 8f bd
       0.09054767 0.068108924 -0.016725622 -0.07026996
0000d0 bf 2a 9c 3d 62 e8 46 3d 92 af 58 3d 08 ba 9c 3c
       0.07625341 0.04856146 0.052901812 0.019131675
0000e0 57 fc 64 bd b0 d3 89 bb 58 d1 87 bc 00 bd 5d bb
       -0.055904713 -0.0042061433 -0.016579315 -0.0033834577
0000f0 30 74 29 3c f4 0f cd bc 88 9a 9f bc 9a f2 7e bd
       0.010342643 -0.025032021 -0.019482866 -0.06224308
000100 4a 95 31 bd fb 4d a4 bd c6 ba 41 3d cd 64 99 bd
       -0.043355264 -0.08022686 0.04729726 -0.07489929
000110 7d f5 77 bd f0 9c 2e 3c 96 5a 00 bd 95 14 9d bd
       -0.06053685 0.010657534 -0.03133639 -0.07669941
000120 09 ee bc 3d f1 af 96 3d b3 30 96 3d 7a b4 3c 3d
       0.09225089 0.07357777 0.073335074 0.046070553
000130 16 28 3a 3d e0 be 82 bc c6 3d 79 3d 3a 44 59 3d
       0.045448385 -0.015960157 0.060849927 0.05304358
000140 14 1b 86 bd 94 d6 ab bc c2 b6 76 3d 82 95 12 3d
       -0.065481335 -0.020976342 0.060232885 0.035787113
000150 ec c9 82 bd 0d 0e 59 bd da c5 48 bd 36 cf 41 3d
       -0.0638617 -0.052991915 -0.04901681 0.047316752
000160 7c 97 e3 3c 95 90 c2 bd 8c 44 9f bc b2 92 51 3d
       0.027782194 -0.09500233 -0.019441865 0.05116529
000170 28 27 c3 bd ce de 61 3d 6c c3 0f bd bb b9 a5 3d
       -0.09528953 0.055144124 -0.03509848 0.08092066
000180 0d 5c c9 3d d0 20 33 bd 22 bd 0a 3d fb 4f 9e bd
       0.098320104 -0.043732464 0.033871777 -0.07730099
000190 2f 9c c8 bd c0 ad 82 bd 3f 63 93 3d 25 59 b5 3d
       -0.09795415 -0.063807964 0.07196664 0.088548936
0001a0 59 08 98 3d 80 7a 4c ba 3a 27 8c bd 30 94 d5 3b
       0.07423467 -0.00078002363 -0.068434194 0.0065179095
0001b0 02 da 51 3d 45 63 90 3d f0 4d 6a 3c e2 2f 3a 3d
       0.0512333 0.07050184 0.014300808 0.04545582
0001c0 90 3d c5 bd ca 52 15 3d 3d 37 36 bd 90 63 40 bd
       -0.09630883 0.036455907 -0.044486273 -0.04696995
0001d0 d2 c3 5e 3d a8 14 23 3c 17 12 c4 bd 3b b3 98 bd
       0.054385968 0.009953655 -0.09573763 -0.074560605
0001e0 9f 00 b2 bd c1 71 a2 3d 1f f7 b8 bd 0e 7b 47 3d
       -0.08691525 0.07931853 -0.090315096 0.04870134
0001f0 4e f7 5b 3d a6 d1 8b bd 1e ba 5b 3d 23 32 2f bd
       0.053702645 -0.06827097 0.053644292 -0.042772423
000200 86 48 56 3d 97 8d 40 bd bf 87 b0 3d 83 b4 cb 3d
       0.052315257 -0.04701003 0.086196415 0.09946539
000210 5a 66 52 bd 66 c5 00 bd 49 16 8a 3d 28 fc 49 bc
       -0.05136714 -0.031438254 0.06742532 -0.012328185
000220 0f 57 ba bd 5f a0 b8 bd 28 fe de bc b0 6a e8 3b
       -0.09098636 -0.09014963 -0.0272208 0.0070927963
000230 00 93 91 b9 17 aa a5 3d d0 cb b4 3b e0 e2 a7 bb
       -0.0002776608 0.08089083 0.0055174604 -0.005123481
000240 7a cc a5 bd b7 6b a3 3d 02 83 2a 3d 50 93 f7 bb
       -0.080956414 0.07979529 0.041628845 -0.007555403
000250 60 49 bd 3b 30 07 d2 bb bc e6 e3 3c 55 dd c2 bd
       0.0057765692 -0.006409548 0.027819984 -0.09514872
000260 42 c3 19 3d 37 f1 b5 3d 8e 55 3e 3d 2b 75 a3 3d
       0.037539728 0.08883899 0.04646831 0.079813324
000270 63 34 8f 3d e0 dc bb bc 90 0a 4e 3c 40 d6 39 3b
       0.06992414 -0.02293247 0.0125757605 0.0028356463
000280 cc 76 e2 3c c0 49 fd bc 5f 45 ae 3d 7a 09 68 3d
       0.027644537 -0.030918956 0.08509325 0.056649663
000290 f8 f1 af bd d5 0e c3 bd ea 7d 13 3d fd 08 95 3d
       -0.08591074 -0.09524313 0.036008753 0.07277105
0002a0 d5 64 85 bd 74 b0 ac bc f2 51 47 3d 99 91 90 3d
       -0.06513373 -0.021080233 0.048662134 0.070590205
0002b0 a1 8d 92 3d 97 da 46 bd 85 96 c2 bd 2e bd 1a 3d
       0.0715592 -0.048548307 -0.095013656 0.037778072
0002c0 e8 47 d9 bc 06 23 0c bd 68 db 2c 3c 41 69 cb 3d
       -0.026523545 -0.03421309 0.010550357 0.09932185
0002d0 00 87 bc 3b 56 b8 1d 3d 18 50 76 3c 8d 53 2b bd
       0.005753398 0.038505875 0.015033744 -0.041827727
0002e0 f7 7c 53 bd 58 cc f7 bc a0 6f bb 3c 26 57 76 3d
       -0.051632848 -0.030248806 0.022880375 0.060141705
0002f0 3a 85 65 3d 40 85 38 bb db 50 c9 bd c8 66 c0 3c
       0.056035258 -0.0028155595 -0.09829875 0.02348651
000300 80 99 6f ba c0 f4 84 3a cf 02 9f 3d ba 36 80 bd
       -0.000914 0.0010143742 0.077642076 -0.06260438
000310 da 69 12 3d da 72 6b 3d 87 8e 56 bd 10 50 35 bd
       0.03574548 0.057482578 -0.05238202 -0.044265807
000320 0c 56 ae bc 85 bd c0 3d 64 85 f2 3c 7a 31 6b bd
       -0.021281265 0.09411148 0.029604621 -0.05742023
000330 fd c5 ca 3d c8 e9 ef bc cc c4 b4 3c 83 d1 45 bd
       0.099010445 -0.02928628 0.022066496 -0.04829551
000340 10 d4 1d bc 03 27 56 bd 69 0e bc 3d a3 98 6d bd
       -0.009633079 -0.0522833 0.09182436 -0.058006894
000350 00 6c 6b b9 b2 a1 2c 3d 0d f0 85 bd 14 4a b9 bc
       -0.0002245158 0.042146392 -0.06539927 -0.022618331
000360 aa e4 16 3d 28 f1 e1 bc 4f 28 87 3d 1d a5 70 bd
       0.036839165 -0.027580813 0.06599485 -0.058751214
000370 98 d8 18 3c 40 fe 39 3c 38 d7 9d bc ea e8 c1 bd
       0.009328984 0.011352122 -0.019267663 -0.09468253
000380 e9 44 b0 3d c0 0d 6d 3b 9b 5d b8 bd 40 c5 93 bc
       0.086068936 0.0036171526 -0.09002229 -0.018038392
000390 80 e8 b0 3c 28 9e c7 bc f1 ad c0 3d 0f d2 c8 bd
       0.02159524 -0.024367407 0.09408177 -0.098056905
0003a0 f7 0b b5 3d d6 77 94 bd ae 3d ab bd c0 bb a9 3c
       0.08840173 -0.072494194 -0.08361374 0.020719409
0003b0 c3 65 b8 bd 58 2a e3 bc dd d1 86 bd da 8d 47 3d
       -0.090037845 -0.027730152 -0.06582997 0.048719265
0003c0 70 e8 c2 bd 1d 1e 87 3d 8c 9a ec 3c c0 7e ab 3c
       -0.0951699 0.065975405 0.028882287 0.020934463
0003d0 0c 10 c4 bc 4c 06 8f bc 00 6d 73 bb c0 b4 29 3c
       -0.023933433 -0.017459057 -0.0037143826 0.010358036
0003e0 21 7b 85 3d 46 b2 a0 bd 3a 4b 6c bd af 86 b9 3d
       0.065176256 -0.07846503 -0.05768893 0.09058892
0003f0 b0 32 c1 bd 24 8d 16 bd 7a 0f 34 bd fc 12 e1 3c
       -0.09433496 -0.036755696 -0.043960072 0.027474873

gru.weight_hh_l0 f4 [300, 100]
000000 2c 41 d8 bc 8d 14 3d bd 47 5d a8 3d a9 b9 c6 3d
       -0.026398264 -0.046162177 0.08220916 0.097033806
000010 68 4c 9f bd 7a 3e 21 bd 37 65 4d bd a0 8a 62 3b
       -0.07778245 -0.039366223 -0.050145354 0.003456749
000020 80 fa 9a 3a ea 84 cc bd b3 93 8d 3d d7 a4 2b bd
       0.0011823922 -0.09986289 0.06912937 -0.04190525
000030 74 37 fc 3c 4f 82 b6 3d 10 4b 3f 3c ba 9e 59 3d
       0.03078816 0.08911573 0.011675611 0.05312989
000040 87 57 52 bd 43 42 a5 3d 75 d8 94 3d e8 f3 7f bc
       -0.051353004 0.08069279 0.072678484 -0.015622117
000050 54 ed 99 3c d7 ba 54 bd 7a 0b 36 bd ca de 2f bd
       0.018789925 -0.051935997 -0.04444454 -0.042937078
000060 c0 5a a5 3a 85 dc 8a bd 82 b7 58 3d b4 88 bf 3c
       0.0012615547 -0.06780342 0.05290938 0.023380615
000070 e8 b0 b8 bd e8 52 88 3c f8 c2 90 bd 09 71 9d 3d
       -0.09018117 0.016641095 -0.07068437 0.07687575
000080 a6 bd a9 bd d7 4e ac 3d aa 1e 5f bd c0 37 a8 bd
       -0.08288126 0.08413475 -0.054472603 -0.082137585
000090 84 2e 8c bd d1 0f ab 3d 5b cb b0 bd d2 4e 01 3d
       -0.0684481 0.08352626 -0.08632537 0.03156931
0000a0 76 32 75 3d e8 ad 81 3c 34 28 ed bc 86 78 50 3d
       0.059862576 0.015829995 -0.028949834 0.05089619
0000b0 28 cb ac 3c d6 82 01 3d 3b ea ab 3d d0 a1 70 3c
       0.021092966 0.031618915 0.08394285 0.014687017
0000c0 5a dc ba bd 06 bf 0c 3d 69 81 83 3d 42 1d bc bd
       -0.0912406 0.03436186 0.064211674 -0.09185268
0000d0 6b 89 94 3d 05 40 a9 bd 1d b9 94 bd 24 ed f9 3c
       0.07252773 -0.08264164 -0.0726187 0.030508585
0000e0 b1 c3 94 3d ec 4d cd 3c 30 49 2c 3c d1 da ca 3d
       0.07263888 0.02506157 0.010515496 0.09905017
0000f0 b0 8d 23 bd 33 26 28 bd 6c c9 03 bd 7c b1 84 bd
       -0.039930046 -0.041052055 -0.032174513 -0.06479165
000100 c0 1f a8 3c 68 c1 03 bc 47 b4 ad 3d 8a ac 05 bd
       0.020522952 -0.008041717 0.08481651 -0.03263525
000110 ef 40 af 3d 50 8e 09 bd ac 81 8e 3c 85 96 bf bd
       0.08557307 -0.033582985 0.017395817 -0.09354881
000120 f1 50 8b 3d 13 eb 51 bd f8 1f b4 bc 58 ae a6 bd
       0.06802548 -0.051249575 -0.0219879 -0.08138722
000130 eb b2 92 bd ca f1 7c bd d7 cd ac bd 89 83 c1 3d
       -0.07163032 -0.061754026 -0.08437698 0.094489165
000140 8d ba 9a 3d c1 04 bf 3d 19 e2 a9 3d f4 d6 e6 bc
       0.07555113 0.093270786 0.08295078 -0.02817867
000150 d0 cf 31 3c 9a 26 66 bd 03 5d ad 3d ca d7 4d bd
       0.010852769 -0.056189157 0.08465006 -0.05025462
000160 b8 f7 e2 bc 96 1d 0e bd 22 5d 77 3d 5e 6a a5 bd
       -0.027706012 -0.034696184 0.060391553 -0.080769286
000170 ec 39 ea 3c 80 be 6c 3c a0 b0 83 3b 64 17 d8 3c
       0.028592072 0.014449716 0.004018858 0.026378341
000180 0a b9 45 3d 17 8d 40 bd 0e 89 79 3d 3c a4 81 bd
       0.04827217 -0.047009554 0.06092172 -0.06330153
000190 a7 38 50 bd e2 46 07 3d 20 1a 9b 3c c7 52 bd bd
       -0.050835278 0.033026583 0.018933356 -0.09244304
0001a0 e8 20 29 3c c8 79 d3 bc 8c 06 df bc e1 45 97 3d
       0.010322787 -0.025814906 -0.027224801 0.07386375
0001b0 52 c8 44 3d 91 a5 b4 3d b0 64 0d bd f5 f6 b6 3d
       0.048042603 0.08820642 -0.03451985 0.08933822
0001c0 a6 30 44 3d 92 9b 6f 3d 92 f1 16 3d ff 5d c2 3d
       0.047897957 0.058497973 0.036851473 0.094905846
0001d0 17 03 58 bd 53 fb 3e bd a0 02 1e bb 1f b8 c3 3d
       -0.05273732 -0.0466264 -0.0024110451 0.09556603
0001e0 60 db 87 bc 60 f4 25 3b 3b b3 8c 3d 20 9f 8b 3b
       -0.016584098 0.002532266 0.06870123 0.0042609125
0001f0 a2 b9 7e 3d ae c1 a2 bd 88 22 a8 bd 31 33 8f 3d
       0.062188752 -0.07947098 -0.08209711 0.06992186
000200 cc 99 a2 3c c9 1e 80 3d e2 0b 54 3d 73 18 ad bd
       0.019848727 0.06255872 0.051769145 -0.08451929
000210 2b fd b0 bd 68 47 04 3c f3 5b 5f bd 50 32 34 3c
       -0.08642038 0.008073665 -0.05453105 0.010998324
000220 f7 e0 50 bd 54 4f c2 3c e7 4b 79 bd cf 98 b5 3d
       -0.050995793 0.023719467 -0.0608634 0.088670366
000230 e2 b3 42 3d 00 f3 18 ba 16 bc 2f 3d 09 18 b3 3d
       0.04753483 -0.00058345497 0.042903982 0.08744819
000240 ba 4e bf bd 9b 5a c5 3d 43 c2 af bd 0a 2f 5a 3d
       -0.09341188 0.09636422 -0.08581974 0.053267516
000250 6a 06 41 bd 9f 63 ab 3d cc 03 84 bd 79 bc 9b 3d
       -0.047125258 0.083686106 -0.06446037 0.07604308
000260 b4 32 b6 bc 40 9f 61 3b 04 1c d6 3c 1d 88 87 bd
       -0.022240974 0.0034427196 0.026136406 -0.066177584
000270 9a 63 18 bd 77 d7 9a 3d b4 b2 f4 bc b3 3a 2d bd
       -0.037204362 0.07560628 -0.029870369 -0.042292308
000280 fd 6b a0 bd 80 e7 f0 3a 80 a8 fb ba 30 59 e9 bb
       -0.07833097 0.0018379539 -0.0019199997 -0.0071212277
000290 40 c4 5c bb 0c 60 f4 3c c7 1d c8 3d ac 1c b6 3c
       -0.003368631 0.029830955 0.097713046 0.022230469
0002a0 16 80 8b bd 67 df b6 3d 43 13 a3 3d 30 90 3c 3c
       -0.0681154 0.08929329 0.07962658 0.011508986
0002b0 96 7b 61 3d 06 f9 04 bd 54 2c 09 bd c1 b2 9c 3d
       0.0550495 -0.03246405 -0.03348954 0.07651282
0002c0 6c f3 ea 3c 0e 03 5a 3d 92 48 1e 3d 14 7f df bc
       0.028680526 0.05322557 0.038643427 -0.027282275
0002d0 18 63 a6 bc 76 74 67 3d 4a 7b 63 bd 96 e1 4c 3d
       -0.020310923 0.05650755 -0.0555375 0.050019823
0002e0 58 76 cc bd 79 d4 82 3d 8a e9 ad bd 30 67 8e bb
       -0.0998351 0.06388182 -0.0849181 -0.004345797
0002f0 86 33 08 3d b3 ee ad 3d d5 c9 87 3d 79 0b b4 3d
       0.03325226 0.08492794 0.06630293 0.08791251
000300 78 54 85 3c 28 9a 9a 3c e1 e8 b3 3d ab 76 93 bd
       0.01627563 0.018872336 0.087846525 -0.072003685
000310 8b 5b c3 3d 00 a5 89 39 ec 4e 91 bc b0 f7 49 bc
       0.09538945 0.0002625361 -0.017737828 -0.01232712
000320 c5 b1 8e bd 4d 85 55 bd 33 9f b0 bd fd 65 4c bd
       -0.069675006 -0.05212908 -0.08624115 -0.04990195
000330 64 b0 d6 3c ef 87 85 3d 80 74 d8 3a 82 cb 2d 3d
       0.026207156 0.06520068 0.0016514212 0.04243041
000340 cd a0 c9 3d 67 d6 4c bd 17 30 bb 3d 38 b1 8d bc
       0.098451234 -0.050009158 0.09140032 -0.017296419
000350 66 d3 0d 3d 8a 7f 58 bd 72 ab 77 3d ab 84 b0 3d
       0.034625433 -0.052856006 0.060466237 0.086190544
000360 8b 03 b0 3d ea 84 35 3d ed fe 27 bd f4 f0 83 bc
       0.08594426 0.04431621 -0.0410146 -0.016106106
000370 6b 90 a0 3d 25 19 ab 3d fd 23 98 3d 0e 62 35 3d
       0.078400455 0.08354405 0.07428739 0.044282965
000380 40 f0 47 bb 9d 3f 2a bd 59 99 ba 3d 98 f9 cb 3c
       -0.003050819 -0.041564573 0.0911128 0.024899289
000390 4e b0 1b 3d 80 2d cc bc 22 dd 5b 3d 80 da b3 3a
       0.038009934 -0.02492404 0.053677686 0.0013721734
0003a0 58 b4 9c bd 13 6c 9c 3d 68 27 6c bc a0 41 34 bd
       -0.07651585 0.07637801 -0.014413692 -0.044007897
0003b0 c2 bb cc bd e8 7a 68 bc a3 97 78 bd 44 aa db 3c
       -0.099967495 -0.014189459 -0.060691487 0.026814587
0003c0 a8 c8 87 3c 00 ee b6 bc d8 10 7f 3c 07 7d 8a 3d
       0.016575173 -0.022330284 0.015567981 0.06762128
0003d0 87 a7 6b bd 80 10 67 bc 8f 46 b3 3d 7e 39 61 3d
       -0.057532813 -0.014103055 0.08753692 0.05498647
0003e0 00 94 9b 3a 93 ff b7 bd 2f 97 88 3d e7 bc b5 bd
       0.0011869669 -0.08984294 0.06669461 -0.08873921
0003f0 00 d0 69 ba 40 23 b6 bc 6c 00 c7 3c be 0d 93 bd
       -0.0008919239 -0.022233605 0.024292193 -0.071803555

gru.bias_ih_l0 f4 [300]
000000 76 80 11 bd 19 1f 8d 3d 10 a8 0b bc ca cb 0d bd
       -0.0355229 0.06890697 -0.008523956 -0.034618177
000010 15 d2 83 3d 2e df 77 3d 52 86 73 3d f9 34 94 3d
       0.06436554 0.060515575 0.05945427 0.07236666
000020 29 79 bf 3d 4e cb 41 3d 43 67 c4 3d 7e a0 85 bd
       0.09349281 0.047313027 0.09590008 -0.06524752
000030 c4 f1 e9 3c 4a 43 21 bd c0 cf 92 3c 97 92 87 3d
       0.028557666 -0.039370812 0.017921329 0.06619757
000040 b0 4e 0d bd 58 5b bb bd 10 1c 58 3c f7 96 ae 3d
       -0.03449887 -0.09148282 0.013190284 0.08524888
000050 70 57 5c 3c 61 12 bf 3d 11 a2 c4 3d b2 8e 28 3d
       0.013448581 0.093296774 0.09601224 0.04115171
000060 64 08 dd 3c 1a 16 12 bd 8d 6e 56 bd dd ff a8 bd
       0.02698154 -0.03566561 -0.052351523 -0.08251927
000070 4e 7e a1 bd d2 dd c7 bd a0 5b b8 3c 31 0c 8a 3d
       -0.07885419 -0.09759106 0.022504628 0.067406066
000080 a5 11 95 bd 05 14 a3 bd 76 6c 1b 3d a8 3f 0c 3c
       -0.07278756 -0.07962803 0.037945233 0.008560099
000090 e9 47 a6 3d 76 2d 56 3d df bd cc bd 7e 15 1f 3d
       0.081191845 0.05228945 -0.099971525 0.038838856
0000a0 35 5d af bd d2 db 75 3d 82 98 33 3d 68 b3 98 bd
       -0.085627 0.06002409 0.043846615 -0.07456094
0000b0 8e 2b 64 3d 6a d2 73 bd 07 31 bd bd 18 19 49 bc
       0.0557056 -0.05952684 -0.09237867 -0.012274049
0000c0 50 a4 5b bc a0 10 5b bb 38 aa a7 bd 95 99 8d 3d
       -0.013405874 -0.0033426657 -0.081867635 0.06914059
0000d0 48 b8 9d bd 20 4d ef 3b 6d 4a a9 bd 96 ad a9 bd
       -0.077011645 0.007302895 -0.08266149 -0.08285062
0000e0 70 a7 25 3c 05 28 ac 3d b3 8b ab bd d8 40 8b bc
       0.010110721 0.084060706 -0.08376255 -0.016998693
0000f0 52 29 75 3d b0 f1 0d bc 30 43 a2 bd 3b 46 ae 3d
       0.05985386 -0.00866358 -0.07922971 0.08509489
000100 30 17 bc bd 6e 3b 79 3d c9 c8 c8 3d 6d 1b 65 bd
       -0.0918411 0.060847692 0.09803922 -0.05593436
000110 39 3a bb 3d a0 5f ac 3b b0 f7 a3 3b 1e 89 38 3d
       0.091419645 0.005260423 0.005003892 0.04505264
000120 93 35 a0 bd 95 f2 ae bd 30 65 00 3c 8f 94 af 3d
       -0.078227185 -0.085423626 0.007836625 0.08573257
000130 5c 52 eb 3c 30 1e cc bd 82 bc 79 3d 70 58 27 bd
       0.028725795 -0.09966695 0.06097079 -0.040855825
000140 c0 88 61 bc 4e fb 6d 3d b0 c9 62 3c f9 f7 bb 3d
       -0.013765514 0.05810099 0.013842031 0.091781564
000150 90 ce 64 bc 31 ed af 3d 18 17 95 bc ca bb 35 bd
       -0.013965264 0.085901625 -0.018199489 -0.044368543
000160 c0 38 78 bb c5 1c 87 3d 68 c6 75 3c a0 ff 6c 3b
       -0.0037875623 0.06597284 0.015000917 0.0036163107
000170 77 a7 21 bd 73 9a 1f bd 41 ff 84 3d d5 56 87 bd
       -0.039466348 -0.038965654 0.06493998 -0.06608359
000180 50 16 87 3b c2 f6 17 3d a8 db ad bc 8e 56 2a 3d
       0.004122533 0.03710056 -0.021222904 0.04158645
000190 97 5a 99 3d ac 38 a8 bc 20 16 b7 bb c9 fd bd 3d
       0.07487982 -0.020534836 -0.0055873543 0.09276921
0001a0 6c 11 fd 3c b0 04 27 bd dd 12 48 bd e5 14 94 3d
       0.030892096 -0.040775955 -0.048846114 0.07230548
0001b0 c0 45 51 bd 35 6a 87 3d 6d c1 95 bd 21 15 98 3d
       -0.05109191 0.06612054 -0.07312284 0.07425905
0001c0 8d 3e 9f 3d 5e 0d 0c 3d b6 fa 6c 3d 22 67 13 3d
       0.077756025 0.034192435 0.057856284 0.035987027
0001d0 71 3c a3 3d a0 6a 6b bb ce 1d 4c 3d 32 a2 02 3d
       0.07970513 -0.0035921708 0.04983311 0.031892963
0001e0 4f d4 be 3d 26 59 9f bd 83 3f aa bd 9e 8c 59 3d
       0.093178384 -0.077806756 -0.08312895 0.05311262
0001f0 80 36 2b bd 86 8b 0f bd 2b 71 9c 3d 27 b5 68 bd
       -0.041800022 -0.03504517 0.076387726 -0.056813385
000200 75 02 b4 3d 7a eb 6f 3d c9 fa aa 3d 60 99 81 bc
       0.08789531 0.058574177 0.08348615 -0.015820205
000210 20 20 9a 3c 33 ad 51 bd 99 9f 87 3d 30 9e 0a bc
       0.018814147 -0.051190566 0.06622238 -0.008460566
000220 c8 d7 9f bd a3 75 a1 3d 7a 10 11 3d 12 e9 13 3d
       -0.07804829 0.078837655 0.035416104 0.036110945
000230 ac fa f5 3c 6d f4 a2 3d 68 93 b7 bd 6b ba c3 bd
       0.030026756 0.07956777 -0.089636624 -0.09557041
000240 c4 40 d3 3c 71 22 bb 3d 9d 48 92 bd c2 83 61 3d
       0.025787719 0.091374286 -0.07142756 0.055057295
000250 8a 42 75 bd 02 da 49 3d 36 98 50 3d 00 40 11 bd
       -0.05987791 0.049280174 0.05092641 -0.035461426
000260 c0 dc 83 3a 0a 4d 71 3d 10 fc 31 bd 1e f2 37 3d
       0.0010060295 0.05891136 -0.043453276 0.044908635
000270 76 8c 52 3d c0 9d b5 bd 20 b8 80 bc 71 f7 93 3d
       0.051403485 -0.08867979 -0.015712798 0.0722493
000280 fd 87 6a bd 27 f4 a7 3d 66 1c 07 3d 70 42 24 bc
       -0.057258595 0.08200865 0.032986067 -0.010025606
000290 76 5d 65 3d 88 cb b6 3c 5a 25 62 bd 50 2d ac bb
       0.055997334 0.022313848 -0.055211402 -0.005254425
0002a0 7d aa aa 3d 8d 81 b9 bd 26 a6 4f 3d e3 3b 6c bd
       0.08333299 -0.09057913 0.05069556 -0.0576743
0002b0 18 21 c7 3c 5a ba ba bd 63 0c a6 3d 15 1b b7 bd
       0.024307773 -0.09117575 0.08107831 -0.08940712
0002c0 be f3 61 3d 29 11 b0 3d 04 fa ea 3c 88 84 cb bc
       0.05516409 0.08597023 0.02868367 -0.02484347
0002d0 52 11 3a 3d d2 83 23 3d 2a a5 4b 3d 90 d3 b6 bd
       0.045426674 0.039920636 0.04971806 -0.08927071
0002e0 b9 3b 9c 3d 68 4c b7 3c 5b a8 a3 bd 88 6f 95 bd
       0.07628579 0.0223753 -0.07991096 -0.072966635
0002f0 60 26 61 bd 20 fe 8f bd 6d 08 af 3d d9 25 a8 3d
       -0.054968238 -0.07030892 0.08546529 0.08210344
000300 c0 77 be 3c 50 37 1b bd b4 0a 86 3c 78 49 ea bc
       0.02325046 -0.037894547 0.016362526 -0.028599486
000310 d9 6d 93 3d c3 b3 2c bd 57 50 8f 3d 34 35 a3 3c
       0.07198686 -0.04216362 0.069977455 0.01992283
000320 13 a9 4b bd dd 29 ca 3d 80 dd 33 ba 2c 1d e4 3c
       -0.04972179 0.09871266 -0.0006861314 0.027845941
000330 d0 5a cb 3b cc 67 be 3c 7d 9d 75 bd 69 76 ba 3d
       0.006205894 0.023242854 -0.059964646 0.09104616
000340 2e fd 42 3d 2e 9e 6e 3d 8e 45 0e 3d 30 a0 50 3c
       0.047604732 0.05825632 0.0347343 0.012733504
000350 00 25 9c 3c 93 c6 89 3d d7 62 b7 3d d9 69 8a 3d
       0.019060612 0.06727328 0.08954399 0.0675847
000360 52 6d 6e 3d c2 9d 85 bd e8 42 a5 bd 5e b4 5c 3d
       0.058209725 -0.065242305 -0.08069402 0.05388295
000370 00 56 8c ba a9 0c a1 3d ab 6e a3 bd 7a f3 1e 3d
       -0.0010706782 0.07863743 -0.079800926 0.038806416
000380 bf 77 88 3d 77 09 c2 3d b3 dc b0 bd 3a 2d 5b 3d
       0.06663465 0.094744615 -0.08635845 0.05350993
000390 8a 53 71 bd 5f 1f 83 3d 76 4b 0e bd 6f 1e 85 3d
       -0.05891756 0.06402468 -0.034739934 0.06499945
0003a0 d6 6e 9b bd 76 de 87 bd d8 ad 79 3c 2b 58 c5 3d
       -0.075895 -0.06634228 0.0152392015 0.09635957
0003b0 70 2c c4 bd e3 f8 b0 3d f0 9a 73 bd 12 a8 05 3d
       -0.09578788 0.086412214 -0.05947393 0.032630987
0003c0 4d f0 7d bd 4e dc 80 bd 5b ca 9c 3d 0c d9 f2 bc
       -0.061996747 -0.0629202 0.07655784 -0.029644512
0003d0 6a 41 b3 bd d7 33 55 bd 8f a2 c1 bd 57 15 a0 3d
       -0.08752711 -0.05205139 -0.09454834 0.0781657
0003e0 c8 41 be bc b0 de 23 bd 00 ec cd 38 06 64 01 bd
       -0.023224726 -0.040007293 9.81912e-05 -0.03158953
0003f0 d2 1b 47 3d ae ad 18 3d 28 2b 92 bd 14 7d c7 3c
       0.048610516 0.03727501 -0.07137138 0.024351634

gru.bias_hh_l0 f4 [300]
000000 21 54 83 3d 75 a7 ae bd 4a ca 12 bd 33 50 77 bd
       0.06412531 -0.08528034 -0.03583745 -0.06037922
000010 3b 77 c9 bd 59 f0 83 3d dd cc 83 bd d1 88 c5 3d
       -0.098371945 0.06442327 -0.06435559 0.09645236
000020 55 a5 b9 3d 73 8a 8d bd 00 d4 1e b9 f0 ac 04 3c
       0.09064738 -0.06911173 -0.0001514703 0.008097872
000030 aa 94 6d 3d 18 86 5d 3c b7 f1 20 bd f2 c8 47 3d
       0.058003105 0.01352074 -0.039293017 0.04877562
000040 28 e3 e6 bc 40 ab e5 bc c0 b3 96 3c d5 00 c3 3d
       -0.028184488 -0.02803576 0.018396258 0.09521643
000050 c8 9e b8 bd 7a 61 61 bd fa e9 66 bd 9d 28 67 bd
       -0.0901466 -0.0550246 -0.05637548 -0.056435216
000060 1d 89 1a bd 1b 12 bb 3d cb 82 c8 bd 52 f3 30 3d
       -0.037728418 0.09134313 -0.09790572 0.0432008
000070 40 88 28 bb 38 7a c1 3c 00 e4 46 39 83 97 32 bd
       -0.0025715977 0.023617849 0.00018967688 -0.043601524
000080 e0 4c 49 bd c2 b5 01 3d 0c 7f 89 bc 28 e7 f6 bc
       -0.04914558 0.03166748 -0.016784213 -0.03013952
000090 05 14 a4 3d b4 d1 db 3c 30 be 66 bc bf b6 aa 3d
       0.08011631 0.026833393 -0.01408343 0.08335637
0000a0 30 64 9e bb 53 55 30 bd da 09 15 3d 9e 43 7f 3d
       -0.0048337206 -0.04305012 0.03638635 0.062320344
0000b0 86 cd a4 bd 23 c3 2a bd 40 d0 76 3b 2a 12 84 bd
       -0.08047013 -0.041690003 0.0037660748 -0.06448777
0000c0 75 07 85 bd 84 ac f8 3c 10 cb 74 3c 93 ce ca bd
       -0.06495563 0.0303557 0.014940992 -0.09902682
0000d0 98 55 29 3c 4c 8f 15 bd d4 32 e8 3c 47 b4 b9 bd
       0.010335349 -0.03651361 0.02834455 -0.09067588
0000e0 85 7d cc bd b0 ab a1 bd 00 64 16 3c fe de a0 bd
       -0.099848785 -0.07894075 0.009179115 -0.078550324
0000f0 8f 5b b3 3d 00 ee e0 bb a6 76 94 bd 30 94 93 bb
       0.08757698 -0.0068643093 -0.07249193 -0.0045037493
000100 b4 5d 86 3c 90 4d 02 bd 00 91 aa bd 46 3a 94 bd
       0.016402103 -0.03181225 -0.08328438 -0.07237677
000110 a2 b5 14 3d 76 db 69 3d 3f 27 a1 3d bd 37 bf 3d
       0.03630603 0.05709406 0.07868814 0.09336803
000120 e2 39 4f 3d 5b 73 90 bd 40 fb 89 bd ee c9 35 3d
       0.05059231 -0.07053252 -0.06737375 0.04438203
000130 8d 63 75 bd ba b8 6d 3d 9a 98 c4 bd d0 58 c0 bb
       -0.059909392 0.058037497 -0.09599419 -0.0058699623
000140 78 7c ae bc 92 e3 7f 3d 25 7c 9b bd 90 02 63 bd
       -0.021299586 0.062472887 -0.07592038 -0.055422366
000150 ca 2a 1e 3d 1b 20 a8 bd 96 de 63 3d 0a 0c 12 3d
       0.038615026 -0.08209249 0.055632196 0.035656013
000160 30 d2 a2 bd cc 0a 8b bd d8 82 57 bc 9a c9 77 3d
       -0.07950246 -0.06789169 -0.013153754 0.060494997
000170 f0 6e 78 bd 56 a9 6e 3d 62 87 77 3d b5 4d 93 3d
       -0.060652673 0.05826696 0.060431845 0.07192556
000180 60 c8 a6 bc 80 26 8f bd 31 58 b9 3d 5a bd bd bd
       -0.020359218 -0.06989765 0.09050024 -0.092646316
000190 b0 eb 65 3c 5a 88 42 bd c8 1b af 3c 18 b9 85 3c
       0.014033243 -0.047493316 0.021375552 0.016323611
0001a0 d0 35 9f bd 00 d2 8a bd e3 14 70 bd dd a4 8a bd
       -0.07773936 -0.067783356 -0.05861367 -0.067697264
0001b0 7d fe 83 3d 50 f1 aa bd 00 0c be 3a bb cd bc bd
       0.06445024 -0.08346808 0.0014499426 -0.092189275
0001c0 27 ae 6d bd da b3 06 bd 15 54 b5 3d 1f 62 8d 3d
       -0.058027413 -0.032886364 0.08853928 0.06903481
0001d0 c0 45 3d bb b4 45 d4 3c ed 69 bc bd 07 bb 4c bd
       -0.0028880686 0.025912143 -0.09199891 -0.04998305
0001e0 80 f5 be bb 01 e4 91 3d 8c 41 85 bc 23 1f b2 bd
       -0.0058276057 0.071235664 -0.016266607 -0.08697345
0001f0 40 82 c5 bc 45 0f a7 bd 2d c0 97 bd 6d e8 6a bd
       -0.02410996 -0.08157209 -0.074097015 -0.057350565
000200 fc fb db 3c ff b4 c4 3d d0 de 01 bd 3b 0d b4 bd
       0.026853554 0.09604835 -0.03170663 -0.08791586
000210 e0 e1 be bd a5 cf c1 3d c2 7b 5f 3d fe 3e 37 3d
       -0.09320426 0.09463433 0.054561384 0.04473781
000220 d2 29 09 3d 50 04 67 3c fc 27 8a bd 8e 9d 25 3d
       0.03348715 0.014100149 -0.06745908 0.04043346
000230 4d 98 84 3d 4c 4c 8b 3c 83 7b 3e bd 99 c6 b6 3d
       0.064743616 0.017004155 -0.04650451 0.08924598
000240 ca 90 bc bd d3 1c 42 bd 82 8a ca bd 58 40 14 3c
       -0.09207304 -0.04739077 -0.098896995 0.009048544
000250 ae 7e 99 bd 84 dc f2 3c 7e d4 71 3d 82 41 1e 3d
       -0.07494865 0.029646166 0.05904054 0.038636692
000260 f7 33 60 bd 3e 1e 5f 3d e8 c3 7f 3c 03 df b2 bd
       -0.054737058 0.0544722 0.0156106725 -0.08733942
000270 f3 26 9e bd ba 79 6a 3d 23 d3 c0 3d a0 6e b7 bc
       -0.07722273 0.057244994 0.09415271 -0.022391617
000280 d5 93 c9 3d 12 7c 27 3d 40 85 1c bc b4 39 be 3c
       0.0984265 0.040889807 -0.009553254 0.023220874
000290 75 af a0 3d 28 6f ea bc 15 08 8f bd 50 f1 d9 3b
       0.07845966 -0.028617457 -0.069839634 0.006651081
0002a0 20 5a e8 bc c0 09 08 3b 4d c0 ac 3d 33 3b 92 bd
       -0.028363287 0.0020757765 0.08435116 -0.071401976
0002b0 72 31 40 3d 73 e9 51 bd c1 27 c1 3d 32 35 82 bd
       0.046922155 -0.051248025 0.094314106 -0.063578025
0002c0 7b 34 a2 3d 1e dd a9 bd 30 0e 65 bd 40 7f 2b bb
       0.07920166 -0.08294128 -0.055921733 -0.0026168376
0002d0 ad 0e 4d bd 28 84 91 bc b7 3b bd bd 3f e5 af bd
       -0.050062824 -0.017763212 -0.09239905 -0.08588647
0002e0 e2 6a 1d 3d 60 cf 37 bd 37 43 9d 3d 46 46 8b bd
       0.03843201 -0.044875503 0.07678836 -0.06800513
0002f0 32 13 72 3d bd e4 7c bd 4e d6 69 3d 29 a3 85 3d
       0.059100337 -0.06174158 0.057089143 0.06525261
000300 f6 1d 07 3d 0c ca b2 3c 8e 2a 56 3d 18 7d af bc
       0.032987557 0.02182486 0.052286677 -0.021421954
000310 bd f1 80 3d 20 e8 08 bd c9 e6 91 3d 18 4a 73 bc
       0.06296108 -0.033424497 0.07124097 -0.014849208
000320 e0 09 cf bb 32 9e 45 3d 6d e3 89 bd 95 a5 a7 3d
       -0.006318316 0.04824657 -0.06732831 0.08185879
000330 13 27 9f bd c0 1f 1e 3b 27 3d 6f bd 62 aa 92 bd
       -0.07771125 0.0024127811 -0.05840793 -0.07161404
000340 01 84 94 3d 4d 7e 51 bd 63 d9 22 bd a2 89 23 3d
       0.0725174 -0.05114584 -0.039758097 0.03992618
000350 6c 8a fc 3c 58 ba ef bc 07 02 61 bd 20 c2 9f 3b
       0.030827723 -0.02926366 -0.054933574 0.0048754364
000360 38 9c 84 bd 54 a5 90 3c e4 fd ce 3c 60 6e ca 3c
       -0.06475109 0.01765696 0.025267549 0.024710834
000370 2f dc aa 3d 7a 03 67 3d 12 e4 03 3d 2b bd bf 3d
       0.08342778 0.0563998 0.032199927 0.09362253
000380 bd 11 b7 3d 25 32 c2 bd 73 8c 33 bd e3 f1 b0 bd
       0.0893893 -0.094822206 -0.043835115 -0.08639886
000390 4d 9e 85 3d 26 cb 77 3d fb 8f 8a 3d 1a d6 9d bd
       0.06524334 0.06049647 0.06765743 -0.07706852
0003a0 17 87 c9 bd 6b 20 c1 3d 60 2c 84 bc 95 ef 9a bd
       -0.098402195 0.09430011 -0.01613444 -0.07565228
0003b0 2d dc a2 3d c1 e8 c7 3d 80 0f 01 bc 1d cb 3b bd
       0.079521514 0.09761191 -0.007877231 -0.045848
0003c0 79 5a a8 3d 68 49 1e bc f2 8b 66 3d c5 9b a4 3d
       0.08220381 -0.009661056 0.056285806 0.08037523
0003d0 88 28 82 3c a8 86 cc bc 23 d1 b5 bd 2c 40 0c bd
       0.015888467 -0.024966553 -0.0887778 -0.034240887
0003e0 b0 2c 5c bd 4a a0 9c bd be 08 3e 3d 5a 00 5b 3d
       -0.053753555 -0.0764776 0.046395056 0.053467132
0003f0 70 75 87 bd 8a a6 2e bd 59 34 c8 3d 50 fa 7d bc
       -0.06614196 -0.042639293 0.097756095 -0.015501574

gru.weight_ih_l0_reverse f4 [300, 100]
000000 cf f3 82 3d 88 35 bb bc cd 73 c7 3d 6a b0 59 bd
       0.06394159 -0.022852674 0.09738884 -0.053146757
000010 e7 8e 44 bd 30 a0 a4 bb e1 3f ac 3d 3d e0 19 bd
       -0.047987845 -0.0050239787 0.084106214 -0.037567366
000020 25 8b a7 3d f8 df b3 bd 23 ff 4a bd 92 a8 48 3d
       0.081808366 -0.08782953 -0.049559724 0.048988886
000030 f0 ea 1e bc da 96 87 bd c9 32 b0 3d e2 7d bb bd
       -0.009699568 -0.066205695 0.086034365 -0.091548696
000040 b0 29 87 bd 4c 24 04 bd 8d 27 a3 bd c1 2f a8 3d
       -0.06599748 -0.032261178 -0.07966528 0.08212233
000050 45 69 82 bd 60 35 52 bd 58 95 bc 3c 53 b1 b3 bd
       -0.06367735 -0.051320434 0.023020431 -0.08774056
000060 ae 2a 25 3d 97 6e c7 bd 5a 53 2e 3d 60 9d 2c bb
       0.040323906 -0.0973789 0.04255996 -0.002633892
000070 1e fb 0e 3d 7e df 08 3d a2 44 36 3d dd 8e 9e 3d
       0.034907453 0.033416264 0.044499047 0.07742093
000080 12 e5 47 3d 96 23 5c 3d bf 89 ca 3d 81 39 b8 3d
       0.048802443 0.053744875 0.09889554 0.08995343
000090 a9 b5 82 3d 67 13 62 bd e8 5d 38 3c 10 fd 0c 3c
       0.06382305 -0.055194285 0.011252858 0.008605257
0000a0 00 2c 77 bd c0 90 8f 3c e8 b5 23 3c 9a e7 30 3d
       -0.060344696 0.017525077 0.0099921 0.043189622
0000b0 83 67 c4 3d 79 c8 99 3d 85 1d 91 bd 90 b1 b2 bd
       0.09590056 0.0750894 -0.070857085 -0.087252736
0000c0 ee 30 7c 3d 0a 18 42 3d fa 15 4e 3d df 77 9e 3d
       0.0615701 0.047386207 0.050313927 0.07737707
0000d0 d0 92 ee 3b cf 7a c0 bd c2 69 c0 bd 40 50 89 3c
       0.007280685 -0.09398424 -0.09395172 0.016761899
0000e0 98 47 7f 3c 92 22 03 3d 6a 3b ba bd 18 7a e1 bc
       0.015581034 0.03201539 -0.090933636 -0.02752404
0000f0 60 65 1b 3b 00 20 11 bb 28 13 bc bd 61 a4 af 3d
       0.0023711547 -0.0022144318 -0.09183341 0.08576275
000100 e0 0f e6 bc 2e f1 8e bd 00 c4 66 bb 28 63 99 3c
       -0.028083742 -0.06979595 -0.003521204 0.01872404
000110 e7 f5 39 bd d7 59 b3 bd 85 e7 aa bd 8e 47 2f 3d
       -0.045400526 -0.0875737 -0.0834494 0.04279285
000120 12 3d bb bd 9a 22 8b bd c5 4f aa bd 32 5b 3f 3d
       -0.091425076 -0.06793709 -0.08315996 0.04671783
000130 b8 01 f7 bc 31 44 c2 3d 3d 2a 22 bd 52 b4 1b 3d
       -0.030152187 0.09485663 -0.039591063 0.038013764
000140 e5 dc a3 bd 40 50 78 3b 3e 18 14 3d 92 2d 9e bd
       -0.08001117 0.003788963 0.03615593 -0.077235356
000150 f0 08 3c 3c 54 dc a0 bc f4 08 8a bc c0 8c c7 bc
       0.01147674 -0.01963631 -0.016849972 -0.024359107
000160 ec ce 9e bc 90 5c 44 bd 82 d9 0b 3d 42 31 74 3d
       -0.019385777 -0.047939837 0.03414298 0.05961729
000170 00 eb cd 39 39 97 c7 3d 04 73 87 bd de 8b 8f bd
       0.00039275736 0.0974564 -0.06613734 -0.070090994
000180 2d 86 98 3d c0 14 71 bb ed 74 65 bd 43 f6 74 bd
       0.07447467 -0.003678605 -0.056019712 -0.059805166
000190 dd 11 47 bd b8 21 b1 bc 40 53 4e bc ce fe 9c bd
       -0.04860102 -0.021622524 -0.0125930905 -0.07665788
0001a0 4a c7 9e bd 74 df a3 3c a4 30 d7 3c 59 eb 96 3d
       -0.07752855 0.020004012 0.02626831 0.07369108
0001b0 f6 38 49 3d 56 9d 63 3d b2 62 ac bd a0 f5 bc bb
       0.049126588 0.05556997 -0.08417262 -0.0057665855
0001c0 b0 70 d7 bb 1d 06 a5 bd 40 24 cc bd d0 69 5a bc
       -0.0065747127 -0.08057807 -0.09967852 -0.013330892
0001d0 ac 17 93 bc 00 fb ab 39 16 68 67 3d 8e 9b a2 bd
       -0.017955624 0.0003280267 0.05649575 -0.07939826
0001e0 f2 54 a4 bd 34 73 bd 3c 50 24 17 3c ac d7 93 3c
       -0.080240145 0.023126222 0.009224966 0.018047176
0001f0 5e ad 4f 3d f0 ad 49 bc a0 0f c4 3b f0 46 bf bd
       0.050702445 -0.012309536 0.005983308 -0.09339702
000200 a7 a3 38 bd 40 df 21 bc 18 66 8b bd 2a fa 11 bd
       -0.045077946 -0.009879887 -0.06806582 -0.035638966
000210 0d b0 85 3d ff af ba bd 16 1e 25 3d b0 f0 bb 3b
       0.0652772 -0.091156 0.040311895 0.0057354793
000220 7a 7b 5e bd ab 90 8c 3d 53 a1 b2 3d b0 1c a7 3b
       -0.054316975 0.06863531 0.087221764 0.0050998554
000230 00 4c 25 b9 63 56 5b bd 20 f3 41 bd 00 1b 8a b9
       -0.00015763938 -0.05354918 -0.047351003 -0.00026341528
000240 ac 9b 8f bc 50 b4 e1 bb f7 b7 27 bd b6 56 19 3d
       -0.017530285 -0.00688795 -0.040946927 0.03743621
000250 1c 12 fd 3c c0 60 17 3c 3b 2b c6 3d 32 cd 49 3d
       0.030892424 0.009239376 0.09676214 0.049267955
000260 06 32 5d 3d 87 71 a9 3d cf 3c 95 3d dd 42 8d 3d
       0.054002784 0.08273607 0.07286989 0.06897519
000270 e7 1b c5 bd 74 e5 e4 3c 14 fd f4 3c d7 47 69 bd
       -0.096244626 0.027941443 0.029905833 -0.056953277
000280 dd a8 4b bd 00 58 6a bd b1 75 8b 3d d7 22 49 bd
       -0.049721587 -0.05721283 0.06809557 -0.04910549
000290 e7 1e c5 bd 37 00 b0 3d 2d ba 21 bd 00 8e 75 bb
       -0.09625035 0.08593791 -0.03948419 -0.0037468672
0002a0 80 e3 be bc 25 bd bb bd fd bb 9d bd b4 ee e8 3c
       -0.02330184 -0.09166936 -0.077018715 0.028434135
0002b0 e7 d2 3c bd b2 09 5c 3d f0 58 33 bd b6 cc 74 3d
       -0.04609957 0.053720184 -0.04378599 0.05976554
0002c0 c5 37 93 3d 53 22 64 bd a6 24 7b 3d 02 ec 6a 3d
       0.071883716 -0.055696797 0.061314248 0.05735398
0002d0 5e 92 47 3d 9d 37 a7 3d 8c 0a b4 3c 5d 99 97 3d
       0.04872357 0.08164904 0.021977685 0.074022986
0002e0 59 2a ca 3d 05 83 b8 3d f7 d5 a5 3d 20 bb 1e bd
       0.098713584 0.09009365 0.08097451 -0.038752675
0002f0 f8 03 91 3c 44 12 d6 3c 72 f5 67 3d 00 5b 96 3c
       0.017702088 0.026131757 0.05663056 0.018353939
000300 7d f2 c8 3d 5c 20 02 bd bb 1c be bd 62 4b 81 bd
       0.09811876 -0.03176914 -0.09282824 -0.06313206
000310 50 75 f6 3b bd aa 91 3d a7 8a 5c bd 58 59 ad bd
       0.007521309 0.07112644 -0.053843167 -0.084643066
000320 16 39 3a 3d b4 9e b9 bc 68 2d 8d bc 74 b4 16 bd
       0.045464598 -0.022658683 -0.017233565 -0.036793187
000330 4d f8 93 bd fe 08 a4 bd ea f3 9b bd ef a8 a3 3d
       -0.07225094 -0.080095276 -0.07614882 0.07991206
000340 c8 b2 9f bd 50 b3 fa 3b 12 d1 89 bd d0 4e 71 bc
       -0.07797772 0.0076507702 -0.0672933 -0.014728263
000350 07 c1 88 3d 64 19 fb 3c a3 4b 51 bd 19 d0 c8 3d
       0.06677442 0.030651756 -0.051097523 0.098053165
000360 22 80 7d 3d ca 4a 79 3d 8f 0d be bd ec 46 97 bc
       0.061889775 0.06086234 -0.0927993 -0.018466435
000370 4c 61 94 bc 88 d6 eb bc 1b c1 95 bd 1a d4 78 3d
       -0.018112801 -0.02878882 -0.073122226 0.06074915
000380 13 08 a8 3d 30 84 7f 3c 1d 2b 73 bd d0 57 7b bd
       0.08204665 0.015595481 -0.059367288 -0.06136304
000390 a9 b8 c1 3d 47 e3 9f 3d 68 c5 59 bc d3 18 ab bd
       0.09459049 0.078070216 -0.013291694 -0.08354344
0003a0 1d e8 c9 bd 10 1c 58 bc f5 fb c8 bd 0b 5e bc 3d
       -0.09858725 -0.013190284 -0.09813682 0.09197625
0003b0 70 1a 12 bc 63 9f 45 bd d4 ad c6 bc c6 6f 77 3d
       -0.008917436 -0.048247706 -0.02425281 0.06040933
0003c0 ac 81 c1 3c 88 f8 8b bc c8 ae e8 bc e9 53 b0 3d
       0.023621403 -0.017086282 -0.028403655 0.086097546
0003d0 df 9d c8 bd 6c ff ab bc a9 39 96 3d f7 ec c7 bd
       -0.097957365 -0.020995818 0.073352166 -0.09761994
0003e0 a8 ab 99 bc d8 b5 be bd 86 24 8a bd 26 34 13 3d
       -0.01875861 -0.09312028 -0.067452475 0.035938405
0003f0 7e 47 11 3d 7a b4 5d 3d 5a a6 bd bd b8 4c c5 bd
       0.03546857 0.054127194 -0.09260245 -0.096337736

gru.weight_hh_l0_reverse f4 [300, 100]
000000 8c 2f 84 bc 2a e1 0f bd 56 ad 42 3d 46 bf aa bd
       -0.016135953 -0.035126843 0.047528587 -0.08337264
000010 3e 42 18 3d 64 a3 04 bd 7d 8b 7a bd 68 da 87 3c
       0.03717255 -0.032382384 -0.061168183 0.016583636
000020 65 8e a1 bd ca 5d 01 bd 68 e9 2e 3c ff bb a0 3d
       -0.07888488 -0.031583585 0.010675766 0.078483574
000030 a8 c7 45 bc 3b ca c5 bd 7d 09 cb 3d 60 75 96 bb
       -0.012071528 -0.09657713 0.09913919 -0.004591629
000040 33 f7 bf bd e6 c9 48 3d b2 d6 8b bd 68 83 5f 3c
       -0.093733214 0.04902067 -0.06828059 0.01364217
000050 73 4b 48 bd 32 e2 31 3d 80 fa af 3b b9 68 b9 3d
       -0.04890008 0.043428607 0.005370438 0.090531774
000060 c3 6a 8b 3d 93 62 67 bd 42 84 4d 3d e0 85 ab bc
       0.068074726 -0.056490492 0.05017496 -0.02093786
000070 af 96 9b 3d 4d b7 ae bd f8 27 a9 bc 00 c0 04 bd
       0.075971 -0.085310556 -0.020648941 -0.032409668
000080 65 df bb 3d 98 59 0b bc 08 ba d1 bc 87 da b3 bd
       0.091734685 -0.0085052475 -0.025601402 -0.08781915
000090 e3 35 93 bd 17 2b ae 3d 11 9b 8c 3d 87 05 ba 3d
       -0.071880125 0.085043125 0.06865514 0.090830855
0000a0 b2 36 1b 3d 0c 35 c5 3c 6b d7 aa 3d 8c e3 83 bc
       0.03789396 0.024073146 0.08341869 -0.016099714
0000b0 18 11 1c 3c 30 46 87 bb 42 68 08 3d 7a bc a1 bd
       0.00952556 -0.00412824 0.033302553 -0.07897277
0000c0 e6 83 18 3d dd a6 ae 3d 5f 6b 98 3d ad 36 c2 bd
       0.037235163 0.085279204 0.074423544 -0.09483085
0000d0 f4 58 d6 bc a8 74 f6 bc 2b d6 c2 3d 20 b4 ea bb
       -0.026165463 -0.030084923 0.095135055 -0.007162586
0000e0 ce fa 7f 3d f7 b6 3b bd a2 a4 a1 bd d0 bf 43 3c
       0.062495045 -0.045828786 -0.07892729 0.011947587
0000f0 88 ee ac bd 01 a0 c1 3d b0 d5 66 3c d8 76 ae bd
       -0.08443934 0.094543464 0.014089033 -0.085187614
000100 69 48 c2 3d 60 d0 8e 3b 89 01 c9 3d 8c ab b1 bc
       0.094864674 0.0043583363 0.09814746 -0.021688245
000110 30 d6 8c bb 58 3a 9b bd d5 97 aa bd fe 0c 89 bd
       -0.004297994 -0.075794876 -0.08329741 -0.06691931
000120 36 f2 44 3d 4f 8d a9 3d 80 92 b6 3c 52 7b 2f 3d
       0.048082553 0.082789056 0.022286654 0.042842217
000130 10 e6 64 bd f9 5f ca 3d 7a fe 73 bd a2 0d 14 3d
       -0.055883467 0.098815866 -0.05956886 0.036145814
000140 68 df b7 3c 40 92 00 bd 98 2f 5e bc 32 35 6a 3d
       0.022445396 -0.031389475 -0.013561152 0.057179637
000150 83 a8 55 bd db 5f ac 3d 62 dd 7a 3d 6e 2f 7b 3d
       -0.05216266 0.084167205 0.061246283 0.06132453
000160 c0 ba 8f ba 02 74 59 3d 15 27 b8 3d b4 68 0d bd
       -0.001096569 0.05308915 0.08991829 -0.03452368
000170 86 33 02 bd fa 1b 53 bd bd 6c 29 bd a8 a3 b3 bc
       -0.031787418 -0.051540352 -0.041363467 -0.021928623
000180 02 46 2b 3d 18 9b 82 bd 31 1c 97 3d 7a 5c 6b 3d
       0.04181481 -0.06377238 0.07378424 0.05746124
000190 a8 bc 03 3c b0 9a 4b 3c f0 63 c8 bd 10 6e 07 bc
       0.008040585 0.012427017 -0.097846866 -0.008265987
0001a0 42 6c 05 3d 6f 9c 87 3d 9a 6c 16 3d d0 d0 36 3c
       0.032573946 0.06621634 0.036724664 0.011158183
0001b0 56 32 a0 bd 66 e3 38 3d 96 d8 3c 3d 5f 6e c2 3d
       -0.07822101 0.04513874 0.04610499 0.09493708
0001c0 93 f5 67 bd de e2 31 3d d8 e7 2f bc 22 2a 59 3d
       -0.056630682 0.043429248 -0.010736428 0.053018697
0001d0 c4 10 86 bd e8 15 12 bc e5 8f 80 bd 57 5b 4c bd
       -0.065461665 -0.008916356 -0.06277446 -0.049891796
0001e0 53 93 82 3d 7e 32 76 3d fb f2 9c 3d d2 e4 b5 bd
       0.06375756 0.060106747 0.07663532 -0.08881535
0001f0 2a 9e 69 3d 76 43 15 3d c0 8b 31 3b f2 50 65 3d
       0.057035603 0.03644129 0.0027091354 0.0559854
000200 00 6a 8f bc fa 87 00 3d 60 a2 b1 bc c6 d8 3b 3d
       -0.0175066 0.031379677 -0.021683872 0.045861028
000210 3d 76 c6 bd 68 eb 55 bc 51 0b 8b 3d f8 84 98 3c
       -0.09690521 -0.0130566135 0.06789268 0.018618092
000220 da dc 51 bd c1 57 ad 3d c6 26 15 3d 80 30 ae bb
       -0.05123601 0.08464003 0.03641393 -0.0053158402
000230 83 0e 9a 3d 58 df 59 bc 32 41 b7 bd 82 e3 4a 3d
       0.07522299 -0.013297878 -0.08947982 0.049533375
000240 b4 42 82 bc 50 3e 48 3c 54 36 ec 3c c7 4a 80 3d
       -0.015900947 0.012221888 0.0288345 0.06264263
000250 90 d6 45 3c 29 af ca 3d 90 ed 2a bd c0 b4 6f bc
       0.0120750815 0.098966904 -0.041730464 -0.0146304965
000260 d0 5e 72 bd 2a c9 ba bd fb 07 93 bd 40 e8 54 bc
       -0.05917245 -0.091204 -0.071792565 -0.012994826
000270 82 1d 72 3d 40 4a 93 3c 13 ed c8 bd 0c 1b 8c bd
       0.059110172 0.017979741 -0.09810843 -0.06841096
000280 4b 69 c4 bd 93 b8 2a bd ec 6f fc 3c 83 33 c5 bd
       -0.095903955 -0.04167993 0.030815087 -0.09628966
000290 73 97 43 bd fd 06 b8 bd 2c 16 a9 3c 30 2c d2 3b
       -0.047751855 -0.08985708 0.020640455 0.006413959
0002a0 c8 c4 9f bd 4f 7d a4 3d f8 0f a4 3c 27 20 55 bd
       -0.07801205 0.08031713 0.020027146 -0.052032616
0002b0 f6 3e 0e bd d3 17 97 3d 40 92 9a bd 00 f4 5e 3b
       -0.034728013 0.07377591 -0.07547426 0.0034019947
0002c0 e1 2f c8 3d 5a e0 0f 3d 8e 66 9a bd 80 c0 ab bc
       0.09774757 0.035126068 -0.07539092 -0.020965815
0002d0 f1 a0 89 3d 4c a7 06 bd 00 c0 f1 39 4c 10 a4 3c
       0.0672015 -0.03287439 0.00046110153 0.020027302
0002e0 26 97 33 3d d5 b9 87 3d 2a fc 9a bd f3 78 c4 3d
       0.04384532 0.066272415 -0.07567628 0.09593382
0002f0 49 8b bc 3d 7c a4 dd 3c a5 87 c3 bd 0e 29 a4 bd
       0.09206254 0.027055971 -0.095473565 -0.08015643
000300 02 35 44 3d 00 f7 17 ba 7f 55 9e 3d 8c 48 f4 bc
       0.047902115 -0.0005796999 0.07731151 -0.02981975
000310 ad fb c2 bd 52 21 47 3d cb 9f b6 bd 2b 0c c6 bd
       -0.095206596 0.04861576 -0.08917197 -0.096702896
000320 29 14 96 3d 28 3e dd bc 67 e9 a7 3d 45 b7 91 3d
       0.07328064 -0.027007177 0.08198815 0.07115034
000330 80 29 08 3c 48 68 9c bd 22 32 79 3d 2e 7d 5f 3d
       0.008310676 -0.076370776 0.060838826 0.05456274
000340 a0 b5 63 3b a2 a9 60 3d 98 3a 15 3c f0 5b 51 bc
       0.0034745708 0.054849274 0.009108208 -0.012778267
000350 68 7c 53 3c 60 f8 51 3b 65 77 95 3d 22 67 b3 bd
       0.012908079 0.0032038912 0.07298163 -0.087599054
000360 40 8e 2a 3b d0 e3 5b 3c a8 5f 5c bc 00 7d 3c 3b
       0.002602473 0.013421014 -0.013450541 0.002876103
000370 e5 44 bb bd c3 11 b1 bd c0 a3 be 3c 09 2b c2 3d
       -0.09144 -0.08645966 0.023271441 0.094808646
000380 63 92 3f bd 11 b2 97 3d 20 6e 22 bd 98 93 a1 bc
       -0.046770465 0.0740701 -0.039655805 -0.019723698
000390 d4 19 93 3c c6 9f 10 3d cd e3 af 3d 2d 82 c6 bd
       0.017956652 0.03530862 0.085883714 -0.09692798
0003a0 d1 6b b5 3d 92 e4 58 3d 0d 00 9c bd fd db 88 bd
       0.08858455 0.052952357 -0.07617197 -0.066825844
0003b0 40 c2 2c 3c 1f ee c2 3d 14 b6 d0 3c a7 2f 6d bd
       0.01054436 0.09518074 0.025477447 -0.057906773
0003c0 a0 46 31 bb 12 1b 4f 3d 1f d5 b9 3d d4 42 a5 bc
       -0.0027050152 0.050562926 0.09073853 -0.020173468
0003d0 88 b4 bf bd 30 00 23 3c 8e cb 0d 3d 40 a3 fc bc
       -0.093606055 0.009948775 0.034617953 -0.030839562
0003e0 02 2b 40 3d a8 f7 2d bc dd d8 84 bd ac 70 82 bd
       0.046916015 -0.010618128 -0.06486676 -0.06369147
0003f0 2a 31 04 bd 80 4d a0 3c b2 6a 84 bd e9 a0 bf 3d
       -0.03227345 0.019568205 -0.06465663 0.09356863
