parameter/crf_gru.pth (torch_old, 515045 bytes, 11 tensors)

transitions f4 [31, 31]
0	0xc61c4000	-10000.0
1	0xc61c4000	-10000.0
2	0xc61c4000	-10000.0
3	0xc61c4000	-10000.0
4	0xc61c4000	-10000.0
5	0xc61c4000	-10000.0
6	0xc61c4000	-10000.0
7	0xc61c4000	-10000.0
8	0xc61c4000	-10000.0
9	0xc61c4000	-10000.0
10	0xc61c4000	-10000.0
11	0xc61c4000	-10000.0
12	0xc61c4000	-10000.0
13	0xc61c4000	-10000.0
14	0xc61c4000	-10000.0
15	0xc61c4000	-10000.0
16	0xc61c4000	-10000.0
17	0xc61c4000	-10000.0
18	0xc61c4000	-10000.0
19	0xc61c4000	-10000.0
20	0xc61c4000	-10000.0
21	0xc61c4000	-10000.0
22	0xc61c4000	-10000.0
23	0xc61c4000	-10000.0
24	0xc61c4000	-10000.0
25	0xc61c4000	-10000.0
26	0xc61c4000	-10000.0
27	0xc61c4000	-10000.0
28	0xc61c4000	-10000.0
29	0xc61c4000	-10000.0
30	0xc61c4000	-10000.0
31	0xc1690b80	-14.565308
32	0xc1f1fe29	-30.249102
33	0xc2803fc7	-64.124565
34	0xc1987ff5	-19.062479
35	0xc13049cf	-11.01802
36	0xc06f12f4	-3.7355318
37	0x3f8eeb27	1.1165513
38	0xbf88a9ec	-1.0676856
39	0xbfbefdce	-1.4921205
40	0xc058398b	-3.3785121
41	0x3f7607a4	0.9610541
42	0x3fb4f72f	1.4137934
43	0xbf8d3bd8	-1.1033888
44	0xbf6bc4b1	-0.92097
45	0xbeafcfc3	-0.34338197
46	0xc006465d	-2.0980446
47	0xbfa0835a	-1.2540085
48	0xc137233e	-11.446104
49	0xc0c5f7ee	-6.186515
50	0xc0635ef0	-3.5526695
51	0xc05dfd31	-3.4685786
52	0xc06d9139	-3.7119887
53	0x3ebf29b6	0.3733651
54	0xbf65c7f8	-0.89758253
55	0x3a2d9f4a	0.0006623162
56	0xc06a5d7d	-3.661956
57	0xc0a0fd21	-5.0308995
58	0x3f9bab7c	1.2161708
59	0xbfef43e2	-1.8692591
60	0xc61c4000	-10000.0
61	0xc61c4000	-10000.0
62	0xc1e9edce	-29.241116
63	0xc21facfd	-39.918934
64	0xc18eb08d	-17.836206
65	0xc19220de	-18.266048
66	0xc121f7e6	-10.123022
67	0xbfc14bd4	-1.5101266
68	0x3e904ab6	0.28182
69	0x3f8ce736	1.100806
70	0x3f48a697	0.78379196
71	0x3dc4c932	0.096086875
72	0x3eab17c4	0.3341657
73	0x3ebb64aa	0.36600238
74	0x3e862239	0.26197985
75	0xbdc0ba67	-0.094105534
76	0x3e0935c4	0.13399416
77	0x3fd80fa5	1.6879774
78	0x3e77be31	0.24193646
79	0xc1097c51	-8.592851
80	0xbe361eb5	-0.17785151
81	0xbfb3c241	-1.4043657
82	0xbfb526cf	-1.4152468
83	0xbffa9151	-1.9575597
84	0x3ebc00fa	0.36719495
85	0x3f62efe4	0.88647294
86	0x3f5393f2	0.8264762
87	0xbfbb4a5f	-1.4632071
88	0x3eae5902	0.34052283
89	0x3e9a88cf	0.30182502
90	0xbf07d54c	-0.5305984
91	0xc61c4000	-10000.0
92	0xc61c4000	-10000.0
93	0xc16c6cf6	-14.776602
94	0xc1b133ea	-22.150349
95	0xc197390c	-18.902855
96	0xc1378499	-11.469872
97	0xc0c6fcf3	-6.2183776
98	0xbf2358ca	-0.63807356
99	0x3fe7fe8d	1.8124558
100	0x3e9bc9bf	0.30427358
101	0x3ed2aa8d	0.41145745
102	0xbe5b854e	-0.2143757
103	0x3f881ea3	1.063435
104	0x3e698f8d	0.22808667
105	0xbf272e96	-0.6530546
106	0x3f23365c	0.6375482
107	0x3f5e9d88	0.86959124
108	0xbafc51c6	-0.0019250445
109	0xbe493964	-0.19650799
110	0xc092a0a2	-4.5821085
111	0x3eb5860b	0.3545383
112	0x3eb305ff	0.34965512
113	0xbe451f0a	-0.19250122
114	0xbf6f2fa3	-0.9343206
115	0xbfd1f7a6	-1.6403701
116	0xbf337eac	-0.7011516
117	0xbf35852b	-0.70906323
118	0xbee5040b	-0.44729647
119	0xbe94320a	-0.28944427
120	0x3edb163e	0.42790407
121	0xbf18bd2f	-0.5966367
122	0xc61c4000	-10000.0
123	0xc61c4000	-10000.0
124	0xbf4f74c4	-0.81037545
125	0xc155ce9b	-13.362941
126	0xc10d4445	-8.829167
127	0xc1413350	-12.075027
128	0xc034005d	-2.8125222
129	0x3f78101c	0.9689958
130	0xbf1170ee	-0.5681294
131	0x3e6f88a8	0.23391974
132	0x3fd252d0	1.6431522
133	0xbd7086a5	-0.058722157
134	0xbf3ba59d	-0.7329958
135	0xbfc5e02f	-1.545904
136	0xbe7772d0	-0.24164891
137	0x3fe6edc5	1.8041312
138	0x3f1f3ec3	0.6220514
139	0x3f3bbd3d	0.7333563
140	0x3dc46c9d	0.09591029
141	0xc01009e4	-2.2506037
142	0xbe8d6dab	-0.27622733
143	0xbfc2182c	-1.5163627
144	0xbf7512e6	-0.9573196
145	0x3f026a25	0.50943214
146	0xbf15ad99	-0.58468014
147	0xbf0f3471	-0.55939394
148	0xbf131826	-0.5745872
149	0x3ea9b375	0.33144727
150	0x3f86fd03	1.0545963
151	0x3fd69485	1.6764075
152	0xbe5c0f36	-0.21490178
153	0xc61c4000	-10000.0
154	0xc61c4000	-10000.0
155	0xbf4bade4	-0.7956221
156	0xc015dc35	-2.3415654
157	0xbfa9423d	-1.3223339
158	0x3f44ca6b	0.76871365
159	0x3fe0ec64	1.7572141
160	0xbf0abc4c	-0.5419357
161	0xbeb34e1f	-0.3502054
162	0xbf66876c	-0.9005039
163	0x3fd5277b	1.6652673
164	0xbf22ac13	-0.63543814
165	0x3fe72a15	1.8059717
166	0xbed78b94	-0.42098677
167	0xbeeda89c	-0.464177
168	0xbc98c1b9	-0.018647062
169	0x3f11a946	0.56898916
170	0x3f2a1c80	0.6644974
171	0xbf96d007	-1.1782235
172	0x3db4835f	0.088141195
173	0xbfda90e5	-1.7075468
174	0xbf805d46	-1.0028465
175	0xbe844e34	-0.25840914
176	0xbf95f8fe	-1.1716611
177	0x3f73b43d	0.95196897
178	0x3f13db84	0.5775683
179	0x3f49f7d4	0.7889378
180	0x3fa0ca89	1.2561809
181	0x3faba72d	1.3410393
182	0x3e6d1789	0.23153509
183	0xbfc2f93e	-1.5232313
184	0xc61c4000	-10000.0
185	0xc61c4000	-10000.0
186	0x3f06d638	0.5267062
187	0xbf2627f9	-0.64904743
188	0xbf74ef08	-0.9567723
189	0xbeed18f0	-0.46308088
190	0x3f5cbb65	0.8622344
191	0x3fffdc4a	1.9989102
192	0xbf253e9b	-0.64548653
193	0x3f0a6a09	0.54068047
194	0x3f321418	0.6956191
195	0x4007a8a0	2.119667
196	0x4008fbb1	2.140362
197	0x3f75260b	0.95761174
198	0xbd5c52f9	-0.053790066
199	0x3f736825	0.95080787
200	0xbf6471e6	-0.89236295
201	0x3f9d8a89	1.2307903
202	0xbfe78717	-1.8088101
203	0x3e9b0d36	0.30283517
204	0x3f68a88f	0.908822
205	0x3c04e5c2	0.008111419
206	0x3fbbaaf0	1.4661541
207	0xbf4840db	-0.7822396
208	0xbf866a26	-1.0501144
209	0x3f58f73b	0.84752244
210	0x3ec5984e	0.38592762
211	0x3f93545a	1.1510117
212	0x3dbff16a	0.09372218
213	0xbf88d7d6	-1.0690868
214	0xbfd94f3d	-1.6977307
215	0xc61c4000	-10000.0
216	0xc61c4000	-10000.0
217	0x3fb0cf8d	1.381334
218	0xbf25e018	-0.64795065
219	0xc030d873	-2.763211
220	0x40051699	2.0795043
221	0xbfb212b9	-1.3911964
222	0xbfc4d454	-1.5377297
223	0x3f794882	0.97376263
224	0x3deb5434	0.1149067
225	0x3eb66996	0.3562743
226	0x3f02e4e0	0.51130486
227	0x402b4079	2.67581
228	0x3f66f37b	0.9021527
229	0xbf613646	-0.8797344
230	0x3e86715e	0.26258367
231	0xbfb83cdb	-1.4393572
232	0x3f698214	0.9121411
233	0x3d459dc3	0.048246156
234	0xbfad76a2	-1.3551829
235	0xbf5a43f2	-0.85259926
236	0x3ef4ae28	0.4778912
237	0xbfbee097	-1.4912289
238	0xbe49c64d	-0.19704552
239	0x3eabaa75	0.33528486
240	0x3e6c44f8	0.23073184
241	0xbea1f25d	-0.3163022
242	0x3e2fcc98	0.1716789
243	0x3eb8988b	0.3605388
244	0xbb0e6669	-0.0021728522
245	0xbfc00a8a	-1.5003216
246	0xc61c4000	-10000.0
247	0xc61c4000	-10000.0
248	0xbf2740e6	-0.653334
249	0xbee28b55	-0.44246927
250	0x3f14468e	0.5792016
251	0x3d97f33f	0.074194424
252	0xbf4d0563	-0.80086344
253	0x3f868a2f	1.051092
254	0xbea766fd	-0.3269576
255	0xbf96f1ae	-1.1792505

gru.weight_ih_l0 f4 [300, 100]
0	0xbb4766d9	-0.0030426292
1	0xbcb69765	-0.022288987
2	0x3db99d55	0.09063212
3	0xbe0549c9	-0.13016428
4	0x3d9deb0d	0.07710848
5	0x3db4dd05	0.08831219
6	0xbd19e851	-0.03757507
7	0xbd62cb81	-0.055369858
8	0xbd69efa6	-0.057113312
9	0xbd6499bc	-0.055810675
10	0xbd8e85b7	-0.06959098
11	0xbb8e6b9a	-0.004346323
12	0xbc8ddf90	-0.017318517
13	0x3dfdc788	0.12391573
14	0x3da40d51	0.080103524
15	0x3d38c63f	0.045110937
16	0xbc40412e	-0.01173429
17	0x3d741d6d	0.059598375
18	0xbc8ff043	-0.01757062
19	0xbd731351	-0.059344593
20	0x3d63bd8e	0.055600695
21	0xbdad49ab	-0.08461317
22	0xbe0b5c4d	-0.13609429
23	0xbd4118d5	-0.047142822
24	0x3c9226ba	0.017840732
25	0xbd8b8da9	-0.06814129
26	0x3dbbe40f	0.09174358
27	0x3d8ad771	0.067793734
28	0x3dbeaf33	0.0931076
29	0xbd868f44	-0.065702945
30	0x3db8ba8b	0.09019955
31	0x3d330125	0.043702263
32	0x3d6f4f1c	0.058425054
33	0x3c0f80b8	0.008758716
34	0x3c914421	0.017732682
35	0xbe193654	-0.14962131
36	0xbd00bf0e	-0.031432204
37	0x3dd9ebde	0.10640691
38	0x3deab3fd	0.11460111
39	0x3c70aea6	0.014690077
40	0xbdd5a8ef	-0.10432612
41	0x3b3e22c5	0.0029012423
42	0x3cfef17d	0.03112101
43	0x3d40c647	0.047064092
44	0xbdaa82ae	-0.083257064
45	0xbdb641f2	-0.08899297
46	0x3b8e5bc5	0.004344436
47	0x3dca4f48	0.09878403
48	0xbdfbfe2f	-0.12304341
49	0x3d36d1b1	0.04463357
50	0x3d72b621	0.059255723
51	0x3d8fd0da	0.07022257
52	0xbd913e25	-0.07091931
53	0x3c99a22e	0.018754091
54	0xbd833b28	-0.064077675
55	0xbcbcca88	-0.023045793
56	0xbd8f07cc	-0.06983909
57	0x3c178687	0.009248382
58	0xbdf5b58e	-0.119975194
59	0x3da3af4e	0.07992421
60	0x3d69aea6	0.057051323
61	0x3c5e7527	0.013577736
62	0x3c7940e6	0.015213227
63	0xbdc41164	-0.095736295
64	0x3dc2105b	0.09475776
65	0x3d8f8813	0.07008376
66	0x3d815e34	0.06316796
67	0xbd8825ff	-0.06647872
68	0x3d8c1b29	0.06841118
69	0x3d47eabb	0.04880784
70	0x3cd2662a	0.025683481
71	0xbde1db8d	-0.11028204
72	0x3c22f8b6	0.009946993
73	0xbcae1b3b	-0.021253219
74	0x3d9281b4	0.07153645
75	0x3dd7cf2c	0.10537562
76	0xbda3f524	-0.08005741
77	0x3de28b66	0.110617444
78	0x3cbc917a	0.023018587
79	0x3ddf2a06	0.10896687
80	0xbd240053	-0.04003937
81	0xbc30aaf1	-0.010782943
82	0x3ca7ddb4	0.020491458
83	0x3e1c6bc0	0.15275478
84	0x3d112843	0.035438787
85	0xbd948f70	-0.07253921
86	0x3e0640f6	0.13110718
87	0xbd845d34	-0.064630896
88	0xbcdd1f82	-0.026992563
89	0x3c72cf36	0.014819911
90	0xbd044615	-0.032293398
91	0x3d8abdd7	0.0677449
92	0x3d7cf741	0.061759237
93	0x3e070901	0.13187028
94	0xbd34b20c	-0.04411511
95	0x3d2ef5c9	0.042714868
96	0x3c664813	0.01405527
97	0xbd96920d	-0.07352076
98	0xbca7ccba	-0.020483363
99	0x3d9ef4ed	0.0776156
100	0xbd85dd8a	-0.06536396
101	0x3cc6971e	0.02424198
102	0xbd94f109	-0.07272536
103	0x3ca0ce8a	0.019629735
104	0x3df64a7c	0.120259255
105	0xbd05d270	-0.032671392
106	0xbde785dd	-0.11304829
107	0x3d1c126e	0.038103513
108	0xbdc0b8e1	-0.09410263
109	0x3cc9e104	0.024643429
110	0xbdc5b63c	-0.09653899
111	0xbdb1cee8	-0.08682042
112	0xbcad0eb6	-0.021125179
113	0xbd178a8a	-0.036997356
114	0x3d1dd261	0.03853071
115	0x3c35f5c8	0.011105962
116	0x3dd049a6	0.10170297
117	0xbda67226	-0.08127241
118	0x3d1bc4eb	0.038029592
119	0xbd387195	-0.045030195
120	0x3da8870d	0.08228884
121	0xbd4fa7fa	-0.050697304
122	0x3d329fa2	0.04360927
123	0xbd832d6b	-0.06405147
124	0x3d92768d	0.07151518
125	0xbdbc2ec5	-0.09188608
126	0x3ba37615	0.0049884417
127	0x3d8d6aa6	0.06905107
128	0x3db9e486	0.090767905
129	0x3e0978aa	0.13424936
130	0xbda6a3b3	-0.08136692
131	0x3d807372	0.062720194
132	0xbdd36c87	-0.10323434
133	0x3db8dbce	0.090262994
134	0xbc28fccd	-0.010314179
135	0xbd22d329	-0.03975216
136	0xbc2eebaf	-0.010676309
137	0x3d2fabfa	0.04288862
138	0x3d2753c4	0.04085137
139	0x3d939b12	0.07207312
140	0xbbf86d0b	-0.0075813583
141	0xbd3e2745	-0.04642417
142	0x3d325fc2	0.043548353
143	0x3d92167c	0.07133195
144	0xbb167562	-0.002295815
145	0x3b7fe752	0.003904779
146	0x3d2664f5	0.040623624
147	0xbaa8f106	-0.0012889213
148	0xbcf44ac3	-0.029820805
149	0x3de4febd	0.111814
150	0x3d13004c	0.035888955
151	0x3d0a5470	0.033771932
152	0x3db84a1b	0.089985095
153	0xbd74e7c6	-0.05979135
154	0x3db91a14	0.09038177
155	0x3da2e7cf	0.0795437
156	0x3c016124	0.007896695
157	0x3de4567b	0.11149307
158	0x3d4cbf8e	0.04998737
159	0x3dbd10c9	0.09231717
160	0x3d693927	0.05693927
161	0x3db6711e	0.08908294
162	0x3dc93fb6	0.09826605
163	0xbd46fbb6	-0.048579894
164	0x3db50605	0.08839039
165	0xbbaab2dd	-0.0052093104
166	0x3da82f83	0.08212187
167	0x3dc085cc	0.0940052
168	0x3bb57e79	0.0055387584
169	0x3d873d81	0.06603528
170	0x3cba42bf	0.022736905
171	0x3dd3f066	0.10348587
172	0x3d42fdc7	0.047605302
173	0x3de40508	0.11133772
174	0x3c98095d	0.018559152
175	0x3d5f1213	0.054460596
176	0xbdcb7aaa	-0.09935506
177	0x3d68906b	0.056778353
178	0xbdbdca60	-0.092671156
179	0x3bb95c8d	0.005656785
180	0xbcec370e	-0.028834846
181	0x3d435f0c	0.047698066
182	0xbd2e3173	-0.042527627
183	0x3c25f60e	0.010129465
184	0x3c9aef24	0.01891286
185	0x3c0d4a91	0.008623735
186	0x3c2ba17e	0.010475514
187	0x3b82a4ba	0.003986922
188	0xbd9bc7d4	-0.076064736
189	0x3dad8a81	0.08473683
190	0xbd69295a	-0.0569242
191	0x3d46ddb3	0.048551273
192	0xbdb666e8	-0.089063466
193	0x3d8a4ab8	0.06752533
194	0x3dd4b256	0.103855774
195	0xbd9bd21c	-0.076084346
196	0x3dbe9a97	0.093068294
197	0x3d90d98a	0.07072742
198	0x3c880fe1	0.016609134
199	0xbdb47b71	-0.08812607
200	0x3c55ca47	0.013048715
201	0xbdc63899	-0.09678764
202	0xbdcaeaae	-0.09908043
203	0x3dab3ec1	0.08361579
204	0xbd4c661d	-0.04990207
205	0xbddfe3dd	-0.10932133
206	0x3d00ba14	0.031427458
207	0xbd3ccba1	-0.046092633
208	0x3d2afb5d	0.041743625
209	0xbd4fa75b	-0.050696712
210	0xbdc9d26f	-0.0985459
211	0xbdd8cf92	-0.10586466
212	0x3d514565	0.05109157
213	0xbdc56617	-0.09638613
214	0xbd96be6e	-0.0736054
215	0xbd514860	-0.051094413
216	0x3d8b1884	0.06791785
217	0xbd8e8ae4	-0.06960085
218	0x3d7f58e5	0.062340636
219	0x3dcfcdbc	0.101466626
220	0xbdb8c883	-0.090226196
221	0xbd976d5b	-0.07393905
222	0x3d0e12fb	0.03468607
223	0x3d34ae02	0.04411126
224	0xbd13ce5f	-0.036085483
225	0xbbee11a6	-0.0072652875
226	0xbdc54e5b	-0.09634086
227	0xbc75982a	-0.014989892
228	0x3d9b5488	0.075844824
229	0x3dc7ea20	0.09761453
230	0xbdd9667a	-0.10615249
231	0x3d85702c	0.06515536
232	0x3c8f2058	0.017471477
233	0x3ca9a559	0.020708727
234	0x3dee644a	0.11640222
235	0xbd72ad76	-0.059247456
236	0xbd4cf7d6	-0.050041042
237	0x3da70dae	0.08156906
238	0xbd15cb86	-0.03657105
239	0x3b855ef1	0.004070156
240	0xbdb3a081	-0.08770848
241	0xbd302d1d	-0.043011773
242	0xbd3de32f	-0.046359237
243	0x3cee1c2e	0.029066171
244	0x3bb10323	0.0054019853
245	0x3d47b307	0.04875472
246	0x3dc00278	0.09375471
247	0x3d681776	0.056663
248	0x3df028b1	0.11726511
249	0x3d8be0e7	0.06830006
250	0xbd97699d	-0.07393191
251	0xbd9c6e8f	-0.07638275
252	0xbcb7c348	-0.022431985
253	0x3d21cad9	0.03950009
254	0x3ceae19d	0.028672034
255	0xbd9d6dbb	-0.07686945

gru.weight_hh_l0 f4 [300, 100]
0	0x3da70e1a	0.081569865
1	0xbc8a3cbb	-0.016874662
2	0x3cff830b	0.031190416
3	0x3d949865	0.072556295
4	0x3a64a96b	0.0008722755
5	0xbd9084db	-0.0705659
6	0xbca8d8bd	-0.020611161
7	0xbd7b1f7e	-0.06130933
8	0xbd9e40c4	-0.07727197
9	0xbada6c51	-0.0016664361
10	0x3d71c7d3	0.059028458
11	0xbda7cd78	-0.08193487
12	0x39dbe06d	0.00041938145
13	0x3db74880	0.08949375
14	0x3ce9317d	0.02846598
15	0x3d204362	0.03912676
16	0xbd15c44b	-0.036564153
17	0x3d0c3440	0.034229517
18	0xbd426bf8	-0.04746625
19	0xbda94fda	-0.082671836
20	0xbddfbb13	-0.109243535
21	0xbd8c0f50	-0.06838858
22	0x3c289163	0.010288569
23	0x3d524f41	0.051345114
24	0xbda51cbd	-0.08062122
25	0xbd582e8a	-0.052778758
26	0x3dc66558	0.096872985
27	0x3c575b29	0.013144293
28	0x3b90b5d0	0.004416205
29	0x3c192734	0.009347726
30	0x3c2cd595	0.010548969
31	0x3d913416	0.07090013
32	0xbdbe2339	-0.09284062
33	0x3dc5a674	0.09650889
34	0x3c5416b8	0.01294487
35	0x3d848db4	0.0647234
36	0xbd494ced	-0.049145628
37	0xbd89ff59	-0.06738157
38	0x3d407f4f	0.04699641
39	0x3cdd319d	0.027001197
40	0xbd4d2271	-0.050081674
41	0x3de276f4	0.11057845
42	0x3d61ef27	0.055159714
43	0x3d7ca19a	0.061677553
44	0xbcc461e5	-0.023972461
45	0xbb35f9f2	-0.0027767387
46	0x3d61d740	0.05513692
47	0xbd96a49c	-0.073556155
48	0x3cbd745a	0.02312677
49	0x3d0116c0	0.031515837
50	0x3ccacff1	0.024757357
51	0xbd4d08d7	-0.05005726
52	0xbdc8068f	-0.09766876
53	0x3d91d0eb	0.07119926
54	0xbdbf0ee6	-0.093290135
55	0xbd335eaa	-0.04379145
56	0xbb4ce1d3	-0.0031262531
57	0xbd248cdd	-0.0401734
58	0x3d1fc316	0.039004408
59	0xbd076f71	-0.033065263
60	0x3da04441	0.078255184
61	0xbd83651f	-0.06415772
62	0xbd92b6cc	-0.07163772
63	0x3d74dfcc	0.05978374
64	0x3ddf69fb	0.10908886
65	0x3c341ac2	0.010992708
66	0xbdbbcb73	-0.09169664
67	0xbd895372	-0.06705369
68	0xbd4cda4f	-0.050012883
69	0x3b8e9d82	0.0043522725
70	0xbd6578d8	-0.05602345
71	0xbc7c8881	-0.015413404
72	0x3d0290f8	0.031876534
73	0x3d5d7bb8	0.054073066
74	0xbda8d2e5	-0.0824335
75	0x3da49dfc	0.08037946
76	0xbd8415ad	-0.06449447
77	0xbd4352a6	-0.04768624
78	0xbd47b9ad	-0.04876106
79	0x3d41cd0d	0.047314692
80	0x3d60fdc2	0.054929502
81	0xbcd2d51e	-0.025736388
82	0x3bf0a0db	0.007343394
83	0xbd8af192	-0.06784357
84	0x3d708044	0.058716074
85	0x3cd7d910	0.02634862
86	0xbc83b54f	-0.016077666
87	0x3d3fad9b	0.046796422
88	0x3da2ef63	0.07955816
89	0x3c6f1cbd	0.014594254
90	0x3d6fecca	0.05857543
91	0xbd113eaa	-0.03546015
92	0x3db72d8c	0.08944234
93	0xbda1fd44	-0.07909635
94	0x3cfb7423	0.030695027
95	0xbce10db8	-0.027472362
96	0xbd211df4	-0.039335206
97	0xbdac1694	-0.08402744
98	0x3c831bd8	0.016004488
99	0x3db3bcd2	0.08776249
100	0xbcaa91de	-0.020821508
101	0xbd744956	-0.05964025
102	0x3d8cdeea	0.06878455
103	0xbbbb726a	-0.0057204263
104	0xbdc47b7c	-0.09593865
105	0xbd9fda71	-0.07805336
106	0x3d208dfa	0.0391979
107	0x3c76672c	0.0150392465
108	0x3cafcfd0	0.021461397
109	0x3d355fe8	0.044280916
110	0xbd348bd1	-0.04407865
111	0x3d8c1cd5	0.06841437
112	0x3da13156	0.07870738
113	0xbd60a9f9	-0.0548496
114	0x3d9a6685	0.07539085
115	0x3b5151e6	0.0031939684
116	0xbdca628d	-0.09882078
117	0xbd97ee5a	-0.07418509
118	0xbd689f21	-0.056792382
119	0xbd44ea94	-0.048075274
120	0xbdee289a	-0.11628838
121	0x3d259e06	0.040433906
122	0xbd84c454	-0.06482759
123	0xbb6b4836	-0.0035901195
124	0xbd2d0689	-0.04224256
125	0xbd4641ab	-0.04840247
126	0xbda727ec	-0.08161911
127	0x3ac3d634	0.0014941157
128	0x3c13863a	0.00900417
129	0xbdf528c3	-0.11970665
130	0xbd838d2c	-0.06423411
131	0x3d01e08b	0.03170828
132	0xbce6c839	-0.028171645
133	0x3d00802d	0.031372238
134	0xbc8f5e04	-0.017500885
135	0x3c047f40	0.008086979
136	0xbd9b0e37	-0.07571071
137	0xbd409d6b	-0.047025125
138	0x3dbad8a7	0.091233544
139	0x3d599896	0.053124033
140	0x3b813dec	0.0039441492
141	0xbce6f78d	-0.028194213
142	0xbc25d1eb	-0.010120849
143	0xbcb9656d	-0.022631371
144	0x3c1cd15e	0.009571401
145	0xbcd0923a	-0.025460351
146	0xbb8a7833	-0.0042257546
147	0xbd4ae6cd	-0.049536515
148	0xbd50ffb7	-0.05102512
149	0x3d6e3270	0.05815357
150	0xbdd28bb9	-0.10280556
151	0x3d9151b8	0.07095665
152	0x3d9613df	0.07328009
153	0x3d87c426	0.06629209
154	0x3c89b732	0.016810987
155	0xbc08e1a3	-0.008354577
156	0xbd883f79	-0.066527314
157	0xbdd10806	-0.102066085
158	0xbcee9c2a	-0.0291272
159	0x3d86f407	0.06589513
160	0xbd8f5869	-0.06999285
161	0x3db0a21f	0.08624672
162	0x3c2f2574	0.010690082
163	0xbcbc0cd5	-0.022955338
164	0xbdd21ad5	-0.10259024
165	0x3caa681b	0.020801594
166	0xbd6d2456	-0.05789598
167	0x3d9b4b9b	0.0758278
168	0xbc5a9323	-0.013340744
169	0x3d8d1f6f	0.06890761
170	0x3d180208	0.037111312
171	0xbcb664b4	-0.022264816
172	0x3c594a8a	0.0132624
173	0xbd425d36	-0.047452174
174	0x3b44e05e	0.003004096
175	0x3ca42562	0.020037357
176	0x3d88946a	0.06668933
177	0x3d044242	0.03228975
178	0xbd02ebce	-0.031963162
179	0xbd664fa0	-0.05622828
180	0xbd8004e2	-0.06250931
181	0x3d987582	0.07444288
182	0xbdb80de3	-0.08987024
183	0xbccba4a3	-0.024858778
184	0xbcdc5efe	-0.026900765
185	0x3cce9136	0.025215726
186	0xbd810a94	-0.06300846
187	0x3d807665	0.06272582
188	0x3d9f9881	0.0779276
189	0x3c94a2e7	0.018144084
190	0xbbe4d7e6	-0.006983745
191	0xbcb8e1da	-0.022568632
192	0x3ca8e321	0.020616116
193	0x3d8b509e	0.06802486
194	0xbaacb932	-0.0013177751
195	0xbd91e142	-0.07123043
196	0x3da6715d	0.08127091
197	0x3ce40546	0.027834546
198	0x3cfdbb25	0.030973027
199	0x3d9225e5	0.07136134
200	0xbdfa3e09	-0.122188635
201	0x3d1edfc1	0.038787607
202	0xbda39199	-0.07986755
203	0x3c66b554	0.014081318
204	0x3d7b4772	0.061347432
205	0xbd982a21	-0.074299105
206	0xbb1e1c84	-0.0024125883
207	0x3c1b0758	0.0094622
208	0xbd9ab86c	-0.07554707
209	0xbd1e4851	-0.038643185
210	0x3da0d117	0.07852381
211	0xbd542349	-0.051791463
212	0x3d370973	0.044686746
213	0x3ce1e573	0.02757523
214	0xbbc2cc41	-0.005944759
215	0x3c70a4b0	0.014687702
216	0xbdeb921c	-0.115024775
217	0xbda99026	-0.08279447
218	0xbd979a39	-0.074024625
219	0x3d89322f	0.06699025
220	0x3d33c5ae	0.043889694
221	0xbc8a7b4a	-0.016904492
222	0x3d722f03	0.059126865
223	0x3df14116	0.11779992
224	0xbdcbc8e2	-0.09950425
225	0xbd6a2d90	-0.057172358
226	0xbd90b448	-0.07065636
227	0xbd0ff720	-0.035147786
228	0x37e86883	2.7705222e-05
229	0x3d5c52c9	0.053789888
230	0x3d6930b5	0.056931216
231	0x3d9a4137	0.0753197
232	0x3cd7efe3	0.026359504
233	0xbcecb856	-0.028896492
234	0xbdc6ace5	-0.09700946
235	0xbc9752a7	-0.018472029
236	0x3d9a1f49	0.075254984
237	0xbc40b670	-0.0117622465
238	0xbd3a7e3f	-0.045530554
239	0xbdb73bd1	-0.08946956
240	0xbd2a65a6	-0.041600846
241	0x3b9a3e06	0.004707101
242	0xbc05b570	-0.008160934
243	0xbda6ff28	-0.08154136
244	0x3d63de1a	0.055631734
245	0x3d9ec166	0.077517316
246	0x3da78e2b	0.08181413
247	0x3d75890f	0.059945162
248	0x390a3858	0.00013181695
249	0x3d949015	0.07254044
250	0xbd27de5f	-0.040983554
251	0xbd6a341e	-0.05717861
252	0xbd7f8dd8	-0.062391132
253	0xbccaa1ac	-0.024735294
254	0xbc1b0fd4	-0.009464223
255	0x3da9ef43	0.08297589

gru.bias_ih_l0 f4 [300]
0	0xbd8df753	-0.06931939
1	0x3d8d1b96	0.06890027
2	0x3de78d66	0.113062665
3	0x3cc6e65d	0.024279768
4	0xbcc2a252	-0.023759041
5	0xbce1791f	-0.027523575
6	0xbd7c54be	-0.061604254
7	0xbd04ab56	-0.03238996
8	0xbd85c28c	-0.065312475
9	0xbd0e9c79	-0.034817193
10	0x3dc4e0ef	0.09613215
11	0xbc5e6947	-0.013574905
12	0xbce678ca	-0.028133769
13	0xbb81265b	-0.00394134
14	0x3d6ac98b	0.057321113
15	0x3c2a496b	0.010393481
16	0x3d1afe97	0.037840452
17	0x3d144b21	0.03620446
18	0xbc99b4cf	-0.018762974
19	0x3da7a050	0.08184874
20	0xbbf12b0f	-0.0073598693
21	0x3dcdcb67	0.100485615
22	0x3db585f5	0.08863441
23	0x3cd7e927	0.026356293
24	0x3dd8ffad	0.10595641
25	0xbd44b8f8	-0.048027962
26	0x3dfe69c5	0.12422518
27	0x3db700d6	0.08935706
28	0xb9862506	-0.00025586056
29	0x3d8b72f3	0.06809034
30	0xbd93726e	-0.0719956
31	0xbd6374a5	-0.055531163
32	0x3d88f90d	0.06688128
33	0x3da78f9b	0.081816874
34	0xbc6688ad	-0.014070672
35	0x3d838cc2	0.06423332
36	0xbd50868e	-0.05090957
37	0x3d2292c3	0.039690744
38	0x3c8469e4	0.016163774
39	0x3db0da4a	0.08635385
40	0x3ddad83c	0.10685775
41	0x3d8e980b	0.06962594
42	0xbd8be8e2	-0.06831528
43	0xbd6135bf	-0.054982897
44	0xbc50c735	-0.012742807
45	0xbc8f7c06	-0.017515194
46	0x3ba14e80	0.004922688
47	0xbc2accc2	-0.010424795
48	0xbd0e5597	-0.034749594
49	0xbd7e02e4	-0.062014475
50	0xbd842f9f	-0.064543955
51	0xbc9d9521	-0.01923615
52	0x3d966552	0.07343544
53	0x3c1efb38	0.00970345
54	0x3be77b2b	0.0070642433
55	0xbc195541	-0.009358705
56	0xbdb61078	-0.0888986
57	0xbc37af15	-0.011211176
58	0xbc4f82a5	-0.012665425
59	0xbd63ed1d	-0.05564605
60	0x3cb24c47	0.021764887
61	0xbaf92d29	-0.0019010651
62	0xbb3b521f	-0.0028582884
63	0xbd89f28e	-0.06735717
64	0x3de9400a	0.113891676
65	0xbda1b3af	-0.078956
66	0xbd1bbc08	-0.038021117
67	0x3c1c0dd2	0.009524779
68	0x3d71d56b	0.05904142
69	0xbba579cd	-0.00504992
70	0xbcb10f8b	-0.021613857
71	0xbb37b761	-0.0028032886
72	0x3c1b8b49	0.009493657
73	0xbdaa9438	-0.08329052
74	0xbd33466e	-0.04376834
75	0xbca7c1e5	-0.020478198
76	0x3db41fef	0.08795153
77	0x3ca7874d	0.020450259
78	0x3d74d5f0	0.05977434
79	0x3ce881e6	0.028382253
80	0x3d47c921	0.048775796
81	0xbd2d3eca	-0.04229621
82	0x3dbef83b	0.0932469
83	0x3ddd15e8	0.10795194
84	0x3cac3bde	0.02102464
85	0x3dad3d5c	0.08458969
86	0x3ddc7ca0	0.10765958
87	0x3db56a61	0.08858181
88	0xbd3de9e3	-0.04636563
89	0x3db1d35f	0.08682894
90	0x3da9abbc	0.08284709
91	0xbdec5327	-0.115392976
92	0x3d4599cb	0.04824237
93	0xbc3bc280	-0.011459947
94	0x3db23a06	0.08702473
95	0x3bbc71aa	0.0057508545
96	0x3da9ab8b	0.08284672
97	0x3da6c351	0.081427224
98	0xbbe343f6	-0.006935592
99	0xbd891a02	-0.06694414
100	0xbd0d70e3	-0.034531485
101	0xbe41b6ed	-0.18917437
102	0xbd64cdfb	-0.0558605
103	0x3cfd7e50	0.03094402
104	0x3c6bd658	0.014394365
105	0x3d946b1d	0.07246993
106	0xbd9acca6	-0.07558565
107	0xbdb710b3	-0.08938732
108	0xbdbed360	-0.0931766
109	0x3d45d5ce	0.048299603
110	0x3d364861	0.04450262
111	0xbd485c7e	-0.048916332
112	0xbd795970	-0.06087631
113	0x3d8d7503	0.06907084
114	0xbbc3d067	-0.005975771
115	0xbdb092ce	-0.08621751
116	0x3da07935	0.078356184
117	0xbd5b1307	-0.053484943
118	0x3d1ae51c	0.037816152
119	0xbcaaa19e	-0.020829018
120	0xbd966905	-0.0734425
121	0xbe13e2ff	-0.14442061
122	0xbbadc5e0	-0.0053031296
123	0xbbccd3c7	-0.0062508318
124	0x3d8e4911	0.0694753
125	0xbe11dda1	-0.14244701
126	0xbd315337	-0.04329225
127	0xbd8116ed	-0.06303201
128	0xbd0d96d6	-0.034567676
129	0xbd23dbd9	-0.040004585
130	0x3d8f061a	0.06983586
131	0x3b9a8763	0.0047158464
132	0xbdc69fb5	-0.096984304
133	0x3d83a860	0.06428599
134	0xbd87bb11	-0.06627477
135	0xbd8b22af	-0.06793725
136	0xbbfbe8fa	-0.007687685
137	0xbd8fe344	-0.07025769
138	0xbcd44af5	-0.025914649
139	0x3da8140d	0.082069494
140	0xbccd051b	-0.025026849
141	0x3db6686e	0.08906637
142	0xbdf0e80f	-0.11763012
143	0xbcbdadb8	-0.023154125
144	0xbdac5828	-0.08415252
145	0xbd3ebfaf	-0.046569522
146	0xbd8cf098	-0.06881827
147	0x3d563ae1	0.052302245
148	0xbcad0a95	-0.02112321
149	0xbdced182	-0.10098554
150	0x3c68fcc4	0.01422042
151	0x3b37b9a6	0.002803424
152	0xbdf18989	-0.11793811
153	0x3d14596a	0.036218084
154	0xbd16530a	-0.036700286
155	0xbd883bb0	-0.066520095
156	0x3aac45f1	0.0013143403
157	0xbd554c7a	-0.052074887
158	0xbdac595f	-0.08415484
159	0x3d3dcde5	0.046338934
160	0xbe13b62e	-0.14424965
161	0xbdcf798e	-0.101306066
162	0xbdf53bb3	-0.11974277
163	0xbcab2757	-0.020892782
164	0xbe088f83	-0.13335995
165	0xbc6408d2	-0.013918119
166	0x3b0d78ad	0.002158682
167	0xbde79ea7	-0.113095574
168	0x3d95bb0c	0.07311067
169	0x3d09f639	0.03368208
170	0xbe0a8f93	-0.13531332
171	0x3b22b3ef	0.0024826487
172	0xbc864dcc	-0.016394518
173	0xbdf25c00	-0.11833954
174	0xbdceb05a	-0.1009223
175	0xbdd414e5	-0.10355548
176	0xbcbb99ba	-0.022900451
177	0xbe0aab84	-0.1354199
178	0xbe000e93	-0.1250556
179	0x39df6695	0.00042610304
180	0xbd6aeb18	-0.05735311
181	0xbe202fc1	-0.15643217
182	0xbc4f86ba	-0.012666399
183	0x3caa74d4	0.020807661
184	0x3c24b81e	0.010053663
185	0xbdaf5dc6	-0.08562808
186	0x3d41b145	0.047288198
187	0xbd8a61d6	-0.06756942
188	0xbd8483d4	-0.06470457
189	0xbd22b08f	-0.03971916
190	0xbc8eeb14	-0.017446078
191	0xbdcbfb8b	-0.099600874
192	0x3d29e52c	0.04147832
193	0xbc81c81d	-0.015842492
194	0x3c89a210	0.01680091
195	0xbdb3b1ee	-0.08774172
196	0xbdb811ef	-0.089877956
197	0xbd40570f	-0.046958026
198	0xbd2742c1	-0.040835146
199	0xbd94ef64	-0.07272223
200	0xbd90fd93	-0.070796154
201	0xbdd88c24	-0.10573605
202	0xbc93a193	-0.01802138
203	0xbbda3c92	-0.0066600526
204	0x3c4ee836	0.012628606
205	0x3d1ed4df	0.03877723
206	0x3cde405f	0.027130304
207	0x3e10c6d0	0.14138341
208	0xbd2d3323	-0.042285096
209	0xbdfb5255	-0.12271563
210	0x3d737a6b	0.05944292
211	0xbcf09611	-0.029368432
212	0x3be5226a	0.006992628
213	0x3dbb20a4	0.09137085
214	0x3e39215c	0.18079132
215	0x3daa8ccf	0.08327638
216	0xbd3792ff	-0.04481792
217	0x3da686af	0.081311576
218	0xbc43af8e	-0.011943711
219	0xbcd01d9c	-0.025404744
220	0xbde183fe	-0.11011504
221	0x3c327e8f	0.010894432
222	0x3d245039	0.04011557
223	0xbcb64c1d	-0.02225309
224	0xbdaef1dd	-0.085422255
225	0xbd49e4be	-0.04929041
226	0xbdc0c5f0	-0.094127536
227	0x3e305df4	0.1722334
228	0x3d3569f6	0.044290505
229	0xbc66e452	-0.014092522
230	0x3c87ba23	0.01656825
231	0x3cfc503f	0.030799983
232	0xbba291fe	-0.0049612513
233	0x3d7a69e8	0.061136156
234	0x3c19156e	0.009343488
235	0x3cb213be	0.02173793
236	0xbd3513ab	-0.04420821
237	0x3c844fcc	0.016151331
238	0xbde50f8e	-0.111846074
239	0x3d986534	0.07441178
240	0xbdae6187	-0.085146956
241	0xbe0005b2	-0.12502173
242	0x3d87ed36	0.06637041
243	0x3d313083	0.043259155
244	0x3cb10667	0.021609498
245	0x3e39c607	0.18141948
246	0xbe08dd1e	-0.133656
247	0x3d3ba598	0.04581222
248	0x3c939b56	0.018018406
249	0x3e2872e9	0.16450085
250	0x3d303b87	0.04302552
251	0xbdc714e7	-0.09720784
252	0x3cc087d7	0.023502273
253	0xbd74b211	-0.05974013
254	0x3c8e879a	0.017398644
255	0xbcdb03c8	-0.026735201

gru.bias_hh_l0 f4 [300]
0	0xbd9baa74	-0.07600871
1	0xbd807706	-0.06272702
2	0x3d5d6fc5	0.05406167
3	0xbc89bea5	-0.01681454
4	0x3d45b168	0.04826489
5	0xbcdc074e	-0.026858952
6	0xbcaaadb7	-0.020834787
7	0xbdb1bbf0	-0.08678424
8	0x3d15abfb	0.036540966
9	0xbd5fd78b	-0.054648917
10	0x3d991cc3	0.07476189
11	0x3d8a5bdf	0.06755804
12	0xbd905114	-0.070467144
13	0x3da832d9	0.082128234
14	0x3d474aeb	0.04865543
15	0xbd369fc2	-0.04458595
16	0x3bf43f29	0.0074538183
17	0xbc832a84	-0.016011484
18	0x3bd6c8d9	0.0065547046
19	0x3d41e797	0.047340002
20	0x3d87611c	0.06610319
21	0x3ddcee8d	0.107876875
22	0xbd2fc92a	-0.042916454
23	0x3dadb552	0.0848185
24	0x39961c08	0.00028631114
25	0xbd1edd65	-0.038785357
26	0xbd06060b	-0.032720607
27	0x3d871c17	0.065971546
28	0x3c8e2572	0.01735184
29	0x3cfe3032	0.03102884
30	0xbd972ca1	-0.07381559
31	0xbdba0402	-0.09082796
32	0x3d3846a5	0.044989247
33	0x3d7b3e1c	0.06133853
34	0x3dbf9b2c	0.093557686
35	0xbd71ba7d	-0.05901574
36	0xbccedf25	-0.025252888
37	0x3c1906fd	0.009340045
38	0xbd50f89f	-0.051018354
39	0xbcf8c25d	-0.030366117
40	0xbbefda74	-0.007319743
41	0x3c774ef8	0.015094511
42	0xbd986850	-0.07441771
43	0xbd92df68	-0.071715176
44	0x3dc0eddf	0.0942037
45	0xbc596de5	-0.01327083
46	0x3d220ad2	0.0395611
47	0x3d4aeb05	0.04954054
48	0x3d31c8f7	0.043404546
49	0x3df0dab6	0.11760466
50	0x3cd825ca	0.026385207
51	0x3d29fd5a	0.04150138
52	0x3d94760c	0.07249078
53	0xbd6d0c03	-0.057872783
54	0xbc40b4bf	-0.011761843
55	0x3cb4382e	0.021999445
56	0xbbf719ef	-0.0075409333
57	0x3dc45644	0.09586766
58	0x3adfdc88	0.0017079273
59	0xbd2c99df	-0.04213893
60	0xbd0aa9f3	-0.033853482
61	0xbd752b7f	-0.059855934
62	0x3d4a2c69	0.04935876
63	0x39857787	0.00025456792
64	0xbd883680	-0.0665102
65	0x3d820701	0.06348992
66	0xbc7fbc75	-0.0156088965
67	0xbda7ff22	-0.082029596
68	0x3d35257e	0.04422521
69	0x3dc2aef1	0.09506024
70	0x3db6cb3e	0.08925484
71	0xbd5c132e	-0.05372923
72	0x3d6f7522	0.058461316
73	0xbd82627d	-0.063664414
74	0xbd8221d1	-0.06354106
75	0xbc412409	-0.011788377
76	0xbdb915f9	-0.09037394
77	0x3dcf57c4	0.10124162
78	0x3d88383a	0.06651349
79	0x3d644ac3	0.05573536
80	0x3ab213d7	0.0013586235
81	0xbcb3a250	-0.021927983
82	0x3dbb0466	0.09131698
83	0x3d66c2af	0.05633801
84	0xbd7ab4e0	-0.061207652
85	0xbd971ebb	-0.07378908
86	0xbd7523e3	-0.059848677
87	0x3cff880d	0.031192804
88	0xbbf8566c	-0.0075786617
89	0xbd86a087	-0.06573587
90	0x3d9d2a75	0.07674114
91	0xbc5c0e2a	-0.013431111
92	0x3d874855	0.06605593
93	0x3d64ec15	0.055889208
94	0xbaf85daa	-0.0018948813
95	0x3d9eba71	0.077504046
96	0x3df08e76	0.11745922
97	0x3d4afbe8	0.049556643
98	0xbc01a6c7	-0.007913298
99	0xbda747a3	-0.081679605
100	0xbd48207d	-0.04885911
101	0xbd8d38ed	-0.06895623
102	0xbd2b9592	-0.04189069
103	0xbcde68e9	-0.027149634
104	0xbe2138be	-0.15744302
105	0xbd2c5119	-0.04206953
106	0xbded3cbd	-0.115838505
107	0x3c86448d	0.01639011
108	0x3d3b1dec	0.045682833
109	0xbc2bd6cb	-0.010488222
110	0xbe032acd	-0.12809296
111	0xbc3119e6	-0.010809397
112	0x3d91f45c	0.07126686
113	0x3d49a7ef	0.04923242
114	0xbdc58901	-0.09645272
115	0xbd9b7256	-0.07590167
116	0xbd06c1d5	-0.032899696
117	0x3d557142	0.052109964
118	0xbce2addb	-0.027670791
119	0xbccfa8a6	-0.025348973
120	0x3d391a5b	0.04519115
121	0xbb60af48	-0.0034284163
122	0xbd6c0944	-0.057626024
123	0xbd25ad32	-0.040448375
124	0xbdb1cf20	-0.08682084
125	0xbde92c78	-0.11385435
126	0xbc89269a	-0.01674204
127	0xbb325c84	-0.0027215788
128	0x3d456727	0.048194077
129	0x3ab94bbf	0.0014136954
130	0xbc9a435c	-0.018830948
131	0xbde0d6cb	-0.109784685
132	0xbc02840a	-0.007966051
133	0xbd42f424	-0.047596112
134	0xbd30c1dc	-0.04315363
135	0x3d8729d0	0.06599772
136	0xbd94b1bd	-0.072604634
137	0xbd567ec7	-0.052366998
138	0xbd0f134c	-0.034930512
139	0xbd610d2c	-0.054944202
140	0xbd41d345	-0.047320623
141	0x3cd96b41	0.0265404
142	0xbe0e1035	-0.1387337
143	0xbde9847f	-0.11402225
144	0xbdf41cc7	-0.11919551
145	0x3c8eda9c	0.017438225
146	0xbd42734d	-0.04747324
147	0xbc8da6d2	-0.01729146
148	0x3d78aaf5	0.060709912
149	0xbce4babd	-0.027921075
150	0xbcde3238	-0.027123556
151	0xbd8747da	-0.066055015
152	0xbd7418ec	-0.05959408
153	0xbd813421	-0.06308771
154	0xbb8189d9	-0.0039532003
155	0xbe22732d	-0.15864249
156	0xbe156cd8	-0.14592302
157	0x3bc8eeb8	0.006131973
158	0xbd3ee8f6	-0.046608888
159	0x3c8fd4f6	0.017557602
160	0x3c3c2206	0.011482721
161	0xbe0d0def	-0.13774846
162	0xbdde6653	-0.108593605
163	0x3c234cc8	0.009967037
164	0xbd290020	-0.041259885
165	0x3d39e8f4	0.045388177
166	0xbe00618d	-0.12537213
167	0x3d73ecbd	0.059551943
168	0x3d970085	0.07373146
169	0xbdac513a	-0.0841393
170	0xbdec7882	-0.115464225
171	0x3d66284d	0.056190778
172	0x3d8fab7b	0.07015129
173	0xbde4bbe6	-0.11168651
174	0xbd7c1f9e	-0.06155359
175	0xbd9de04b	-0.07708796
176	0x3da1aaf7	0.07893937
177	0x3d1eab1d	0.038737405
178	0xbd7083a6	-0.0587193
179	0x3b4de9c0	0.0031419843
180	0xbc8a9900	-0.01691866
181	0xbe0f2069	-0.13977207
182	0x3cdd5c98	0.027021691
183	0x3a516abe	0.0007988623
184	0xbe00565f	-0.12532948
185	0x3c917694	0.017756738
186	0xbbf26a05	-0.0073978924
187	0xbdd2c7f8	-0.10292047
188	0xbdf42af2	-0.11922254
189	0xbd5af999	-0.05346069
190	0xbdbab816	-0.09117143
191	0xbc8edf2a	-0.017440397
192	0xbdf0616b	-0.11737331
193	0x3ccfb42e	0.025354471
194	0xbdba3f00	-0.090940475
195	0xbdbf5e32	-0.09344138
196	0xbd2714d6	-0.040791355
197	0xbdfb497b	-0.12269875
198	0xbdafa6e8	-0.08576757
199	0xbe0a6739	-0.13515939
200	0xbc768fb8	-0.015048914
201	0xbd3c45a7	-0.045964863
202	0x3dce4622	0.100719705
203	0x3d2eade8	0.04264632
204	0x3cc66643	0.024218684
205	0x3cdd0d9c	0.026984029
206	0x3dc4d9ab	0.09611829
207	0x3d9bf3c0	0.07614851
208	0x3da654cf	0.08121645
209	0xbd9ba465	-0.07599715
210	0x3d0f3401	0.034961704
211	0xbd89df7a	-0.06732078
212	0xbc54bee8	-0.012984969
213	0x3daa2897	0.08308523
214	0x3d8d75a4	0.06907204
215	0x3e015149	0.12628664
216	0x3cc8c28d	0.024506832
217	0x3da8e958	0.08247632
218	0x3db2e123	0.08734348
219	0xbd917300	-0.07102013
220	0xbd2f9519	-0.0428668
221	0x3cbdbf69	0.02316256
222	0x3ddf118f	0.10892021
223	0xbbd287b7	-0.00642487
224	0x3d32893d	0.043587912
225	0xbc603897	-0.013685367
226	0x3cc333be	0.023828384
227	0x3d399950	0.045312226
228	0x3d5c6deb	0.053815763
229	0xbd3b833d	-0.045779455
230	0x3c8c4029	0.017120438
231	0x3d41b3e2	0.04729069
232	0xba3d9a5f	-0.0007232781
233	0x3db6711f	0.08908295
234	0xbd84b9aa	-0.06480725
235	0x3caa580d	0.020793939
236	0xbd120c57	-0.0356563
237	0x3da107ec	0.07862839
238	0xbca69b96	-0.020337861
239	0x3e11e673	0.14248066
240	0xbd830173	-0.06396761
241	0x3b8ef0ad	0.004362187
242	0x3cdbc0df	0.026825367
243	0x3c172e41	0.009227336
244	0x3dc15a9c	0.094411105
245	0x3e26fe61	0.16307975
246	0xbdc92502	-0.09821512
247	0x3dd09f43	0.10186627
248	0xbd59b7d0	-0.053153813
249	0x3dbf510b	0.093416296
250	0x3c5ca286	0.013466483
251	0xbe0cd9c1	-0.13754942
252	0xbbfa7028	-0.0076427646
253	0xbd875a6c	-0.066090435
254	0xbd682092	-0.056671686
255	0x3d923709	0.071394034

gru.weight_ih_l0_reverse f4 [300, 100]
0	0x3d3b5f0d	0.045744944
1	0x3cbfc457	0.023409052
2	0x3d977fae	0.073974
3	0x3d842687	0.06452661
4	0x3c800a68	0.015629962
5	0x3d754b5e	0.05988633
6	0x3d0671c6	0.032823347
7	0xbdbe15fd	-0.09281538
8	0x3db9b686	0.09068017
9	0xbdc39450	-0.09549773
10	0x3c7bcb19	0.0153682465
11	0xbcdd1fa4	-0.026992626
12	0xbd832635	-0.06403772
13	0xbc998c6e	-0.01874372
14	0x3d2a6574	0.04160066
15	0xbd815368	-0.063147366
16	0xbcd1efb8	-0.025627002
17	0x3dc14237	0.094364576
18	0x3bb16ca6	0.005414563
19	0xbd90ad0f	-0.07064258
20	0xbd8beb6b	-0.06832012
21	0xbdc023c8	-0.09381825
22	0x3d03ad9f	0.032148
23	0xbb30629c	-0.0026914245
24	0xbd83cca3	-0.06435516
25	0xbc30aacf	-0.010782911
26	0x3d89afe8	0.067230046
27	0x3dc081eb	0.0939978
28	0xbdc04870	-0.09388816
29	0xbd3c28a7	-0.045937207
30	0x3da3bcdd	0.07995007
31	0xbdc3fe3b	-0.09569975
32	0xbc9c6802	-0.019092564
33	0x3d35e0cb	0.044403832
34	0x3d03c9ed	0.032174993
35	0x3cf56880	0.029957056
36	0xbcc9fb86	-0.024656069
37	0x3da8679a	0.082228854
38	0xbc2d8ae0	-0.010592192
39	0xbd1426da	-0.036169864
40	0x3dba6ee5	0.09103183
41	0xbbe02636	-0.0068404926
42	0x3d35aa75	0.044352014
43	0xbd587c3b	-0.05285285
44	0x3c06cdae	0.008227749
45	0x3c0aca61	0.008471102
46	0x3da87cb1	0.08226908
47	0xbd3d2657	-0.04617914
48	0xbd9dee6f	-0.07711493
49	0xbc78a8d1	-0.015176968
50	0xbd275d11	-0.04086024
51	0xbd9524cc	-0.07282409
52	0x3dc5931b	0.09647199
53	0x3cd1e4aa	0.02562173
54	0x3d1ed9ab	0.038781803
55	0x3be30e67	0.006929207
56	0xbdbebbd1	-0.09313167
57	0xbd48e76a	-0.04904882
58	0xbd8116ac	-0.063031524
59	0xbd20441e	-0.03912746
60	0x3da51e5c	0.08062431
61	0x3da6eabe	0.08150242
62	0xbd8ad81e	-0.06779502
63	0x3da83e81	0.08215047
64	0x3d82d79f	0.06388783
65	0xbc8c9518	-0.017160937
66	0xbd9b4be7	-0.075828366
67	0xbd278681	-0.040899757
68	0xbdcba939	-0.09944386
69	0xbd866c14	-0.06563583
70	0xbd505721	-0.050864343
71	0xbc42fe68	-0.0119014755
72	0xbc21a61a	-0.009866262
73	0x3dc86313	0.09784522
74	0x3db29029	0.087189026
75	0x3d78b475	0.060718972
76	0xbdc4451c	-0.09583494
77	0xbd6556bc	-0.05599092
78	0x3cab4cbb	0.020910611
79	0x3d8700b3	0.0659193
80	0xbd39521a	-0.045244314
81	0x3d9d5cf2	0.076837435
82	0xbd1a3166	-0.037644766
83	0x3d0cf3ae	0.03441208
84	0x3cf2af91	0.029624732
85	0x3d49d964	0.049279585
86	0x3d633a7b	0.055475693
87	0xbd93afba	-0.072112516
88	0x3dc85940	0.09782648
89	0xbc852b88	-0.016256109
90	0x3dc2fbc0	0.09520674
91	0x3d1a875c	0.037726745
92	0xbceb778e	-0.028743532
93	0xbc0b3b1d	-0.00849798
94	0xbd955307	-0.07291227
95	0xbd3d295b	-0.046182018
96	0xbd9ef7a6	-0.07762079
97	0x3d43416d	0.047669817
98	0x3ba6c38a	0.005089228
99	0x3d410441	0.047123197
100	0xbce6ad8a	-0.028158922
101	0xbdaf37ff	-0.08555602
102	0xbc9232f5	-0.017846564
103	0xbda835d3	-0.08213391
104	0xbdb059a3	-0.08610847
105	0x3d7dc381	0.061954025
106	0x3d9dc05a	0.07702704
107	0xbda4e136	-0.08050768
108	0x3d2e2849	0.042518888
109	0xbd02904e	-0.0318759
110	0xbd07e2f4	-0.033175424
111	0x3d7be1e6	0.06149473
112	0xbd956535	-0.07294694
113	0x3ca636b4	0.020289756
114	0x3d042935	0.03226586
115	0x3db458a6	0.08805971
116	0x3c4d5a68	0.012533762
117	0x3d2a1b42	0.0415299
118	0x3d87f0b5	0.06637708
119	0xbd85d9a0	-0.06535649
120	0xbd16841e	-0.03674709
121	0x3d930dbf	0.07180356
122	0x3d3cf76c	0.046134397
123	0xbca8273e	-0.020526525
124	0x3c484eae	0.01222579
125	0x3c67919c	0.014133837
126	0x3dd31221	0.10306192
127	0x3d7dc67a	0.06195686
128	0xbdbc9006	-0.09207158
129	0xbd861826	-0.06547575
130	0x3d7886c4	0.060675398
131	0xbd27314f	-0.04081851
132	0xbda336de	-0.079694495
133	0xbd82d6fd	-0.06388662
134	0x3ca0caec	0.01962801
135	0xbd6ff5f2	-0.05858416
136	0xbcf5536a	-0.029947001
137	0xbc7e78fd	-0.015531776
138	0x3b43c9a1	0.002987482
139	0xbd9ef155	-0.07760874
140	0xbd63a814	-0.055580214
141	0x3d53d5b4	0.051717475
142	0x3d8b9a0a	0.0681649
143	0x3da6ad49	0.0813852
144	0x3d61c4d1	0.05511934
145	0x3d72ec19	0.05930719
146	0x3d252bcf	0.040324982
147	0xbd7eb13b	-0.06218074
148	0xbbdf3208	-0.006811384
149	0x3cfc0e71	0.030768605
150	0xbdb51dd7	-0.08843582
151	0xbbfd2fb5	-0.0077266344
152	0x39d250f6	0.00040114642
153	0xbd510a09	-0.05103496
154	0x3d9e8cd8	0.077417076
155	0xbd7dff68	-0.062011153
156	0xbd60a195	-0.054841597
157	0xbc16fa95	-0.009215017
158	0xbd6d6f8c	-0.057967708
159	0xbdaaac86	-0.083336875
160	0xbd22b928	-0.03972736
161	0x3d1571e3	0.036485564
162	0x3d5c3067	0.053757098
163	0x3cc20fe3	0.023689216
164	0xbbf7609d	-0.007549359
165	0xbd6329db	-0.05545984
166	0x3d22f314	0.0397826
167	0xbccdd632	-0.02512655
168	0xbd847d3a	-0.064691976
169	0xbd87b307	-0.06625944
170	0xbd6ad00c	-0.057327315
171	0xbbdcaf69	-0.0067347777
172	0xbdb8e7fe	-0.09028624
173	0x3d4abc2e	0.04949587
174	0x3d85f69c	0.06541178
175	0xbc1ca86f	-0.009561642
176	0x3ac2f116	0.0014872875
177	0xbdaed73c	-0.085371464
178	0x3db0d184	0.08633712
179	0x3a34dd2a	0.0006899411
180	0xbdb80d65	-0.0898693
181	0xbbca25f4	-0.006169075
182	0xbd79d3b7	-0.060992923
183	0xbd1f6727	-0.038916733
184	0x3dccca0d	0.09999476
185	0x3dbb80fd	0.09155462
186	0xbd8ffb5e	-0.07030366
187	0x3d901697	0.07035559
188	0x3d795ce9	0.06087962
189	0xbc20a3ca	-0.009804675
190	0xbb943fe5	-0.0045242184
191	0xbd8e741d	-0.069557406
192	0xbdb497d9	-0.08818025
193	0xbd36946b	-0.044575136
194	0xbd472904	-0.0486231
195	0xb9a89190	-0.0003215191
196	0x3dab1306	0.08353238
197	0xbd9b6156	-0.07586925
198	0x3cb0e84c	0.021595143
199	0x3d45d9ae	0.0483033
200	0x3d3a2b0c	0.04545121
201	0x3da51d48	0.080622256
202	0x3dc417aa	0.09574826
203	0x3cb2577b	0.02177023
204	0x3d104fcd	0.035232354
205	0xbd36564a	-0.044515885
206	0xbdc4b322	-0.09604479
207	0x3d421d1a	0.047391035
208	0xbdbfcfea	-0.09365828
209	0xbbb4dfc8	-0.005519841
210	0x3da5dc3d	0.08098648
211	0xbd8da728	-0.06916648
212	0xbd3b46e6	-0.04572191
213	0x3c90abf6	0.017660122
214	0x3d224d54	0.039624527
215	0xbda65d37	-0.08123248
216	0xbbb78116	-0.005600105
217	0x3c9b2007	0.01893617
218	0xbd544a24	-0.05182852
219	0x3db1f42b	0.086891495
220	0x3d56df21	0.052458886
221	0xbc224484	-0.009904031
222	0x3d3be07a	0.045868374
223	0xbb084e91	-0.0020798782
224	0xbc765c1c	-0.015036609
225	0xbd457d9a	-0.048215486
226	0xbd49f15e	-0.04930245
227	0xbdb363e1	-0.08759285
228	0xbd438bce	-0.04774075
229	0xbc60393e	-0.013685523
230	0xbddd98ec	-0.10820183
231	0x3d28ad76	0.04118105
232	0x3d0da975	0.034585435
233	0x3df52ab2	0.11971034
234	0x3dbcc491	0.092171796
235	0xbd688527	-0.05676761
236	0xbd56c85d	-0.052437175
237	0x3ca77337	0.02044068
238	0xbbade172	-0.005306416
239	0x3d3d2457	0.046177235
240	0x3d2f5b32	0.04281158
241	0xbc87a481	-0.016557934
242	0xbd524aa2	-0.051340707
243	0xbcb2a0bd	-0.021805162
244	0xbd812d2d	-0.06307445
245	0x3b9c70f1	0.004774206
246	0xbc271197	-0.010197065
247	0xbd0e02c0	-0.03467059
248	0x3cc60edb	0.024177006
249	0x3d9cb3bb	0.07651468
250	0x3c179756	0.00925239
251	0xbd0e77ec	-0.034782335
252	0xba0a6328	-0.00052790577
253	0x3dafd35e	0.08585237
254	0x3ccb281a	0.024799395
255	0x3d09cb35	0.03364106

gru.weight_hh_l0_reverse f4 [300, 100]
0	0xbb865f8e	-0.0041007465
1	0x3cac9625	0.021067688
2	0xbd952d8d	-0.07284079
3	0xbdcc7251	-0.099827416
4	0x3c86b28c	0.01644256
5	0xbd4b4349	-0.049624715
6	0x3d72f7cc	0.05931835
7	0xbd69ddcb	-0.057096284
8	0x3cf583f2	0.029970143
9	0x3d25c037	0.040466513
10	0xbd3e43d4	-0.046451405
11	0xbd0b26c2	-0.03397251
12	0xbd8f21fb	-0.06988903
13	0x3d8a263f	0.06745576
14	0xbd3b9899	-0.045799825
15	0x3db3b702	0.0877514
16	0x3bfe4fc0	0.007760972
17	0xbda0dcd7	-0.07854622
18	0xbd0239ac	-0.03179328
19	0x3db8bedd	0.09020779
20	0x3da2f843	0.079575084
21	0xbda56cd9	-0.08077402
22	0x3c90fef8	0.017699704
23	0xbc55c69d	-0.013047841
24	0xbdc1a284	-0.094548255
25	0xbcbccc2a	-0.023046572
26	0x3d0a1cbd	0.033718813
27	0x3c552ca8	0.013011135
28	0xbd05317a	-0.032517888
29	0xbcc0ea28	-0.023549154
30	0xbdb4ad9f	-0.08822178
31	0xbd8e3cda	-0.069452
32	0x3d9fb4e4	0.07798174
33	0xbc130637	-0.00897365
34	0xbcf3a2be	-0.029740687
35	0xbbfa19f4	-0.0076324884
36	0x3d58746b	0.0528454
37	0x3d60a424	0.054844037
38	0x3d8803c0	0.0664134
39	0xbc02bbc1	-0.007979334
40	0x3d75ba15	0.059991915
41	0x3d9327a5	0.07185296
42	0xbdb70a09	-0.08937461
43	0x3d3df546	0.04637649
44	0xbd9bb21e	-0.076023325
45	0xbdc629bc	-0.09675929
46	0xbd388c81	-0.04505587
47	0xbdcb4180	-0.099246025
48	0x3d1a7990	0.037713587
49	0x3d13ad7f	0.03605413
50	0x3ce0d52c	0.027445398
51	0xbc90efcf	-0.017692475
52	0xbda34ee9	-0.07974035
53	0xbd7d0096	-0.061768137
54	0x3dbad20f	0.09122097
55	0xbdc62965	-0.09675864
56	0xbdb74e54	-0.08950487
57	0xbd8dec9f	-0.069298975
58	0xbd5a0208	-0.053224593
59	0xbdc09d19	-0.09404964
60	0xbc9f4387	-0.01944138
61	0x3d58a1f2	0.052888818
62	0xbc025b73	-0.0079563735
63	0xbdc1e430	-0.094673514
64	0xbd166ce1	-0.03672493
65	0x3cbc290f	0.022968797
66	0x3c388ca9	0.011264005
67	0x3d9bd9f7	0.07609933
68	0xbd6cf210	-0.057848036
69	0x3d2f1544	0.04274489
70	0x3d350d4f	0.044202145
71	0x3a3332af	0.00068358605
72	0xbcdc5286	-0.026894819
73	0x3b87810a	0.0041352557
74	0xbd697030	-0.056991756
75	0x3d5bbf0c	0.053648993
76	0x3d3f6ed5	0.046736557
77	0x3d248f24	0.040175572
78	0x3d974278	0.07385725
79	0xbd5d90aa	-0.05409304
80	0xbd374604	-0.044744506
81	0xbcb3208c	-0.021866105
82	0x3dc6ce99	0.09707374
83	0x3d39e7db	0.04538713
84	0xbdc52b0f	-0.096273534
85	0x3db99755	0.090620674
86	0x3d3ee780	0.046607494
87	0xbb11f696	-0.002227222
88	0x3c9cd61d	0.019145066
89	0xbd3a21d6	-0.045442425
90	0x3c98c30c	0.018647693
91	0x3d9789bb	0.07399317
92	0xbdb4aeee	-0.08822428
93	0x3d2c2bbd	0.0420339
94	0xbd42ad87	-0.04752877
95	0xb861252b	-5.3678796e-05
96	0x3d2e4db0	0.042554557
97	0xbccf4401	-0.025300981
98	0xbd95fcf0	-0.073236346
99	0x3d7c28c3	0.06156231
100	0x3db43cf4	0.088006884
101	0x3b7431c9	0.003726112
102	0xbb854d72	-0.00406807
103	0xbd199995	-0.037499983
104	0xbd23f1b6	-0.040025435
105	0x3dbd92b0	0.09256494
106	0x3dbd8f75	0.09255878
107	0xbda79b50	-0.081839204
108	0x3d03ea21	0.032205705
109	0xbd6aed05	-0.057354946
110	0xbda5ec18	-0.08101672
111	0x3db9160c	0.09037408
112	0x3d4d1aa0	0.05007422
113	0xbc831c9b	-0.016004851
114	0x3d646326	0.055758618
115	0xbd86310e	-0.06552325
116	0x3c55edfb	0.013057227
117	0xbd2db1b3	-0.042405795
118	0x3cb0ff4e	0.021606114
119	0x3dbe03c9	0.09278066
120	0x3d0bb520	0.03410828
121	0x3d49362d	0.04912393
122	0xbdb8895d	-0.09010575
123	0xba57cc71	-0.0008232063
124	0xbbd1fb78	-0.0064081512
125	0xbc9ef105	-0.019402036
126	0x3d0f2db5	0.0349557
127	0xbcfcebac	-0.030874096
128	0x3da5dfa3	0.08099296
129	0xbcc33570	-0.023829192
130	0xbdbaadf3	-0.091152094
131	0xbdb1fb4e	-0.08690511
132	0x3d93a123	0.07208469
133	0x3beb1396	0.0071739657
134	0x3d426a21	0.047464494
135	0x3d70a773	0.058753442
136	0xbd4691bc	-0.048478827
137	0x3ca1aa94	0.019734658
138	0x3d21992d	0.03945272
139	0x3d43f42f	0.047840293
140	0x3dabd19f	0.083895914
141	0x3d9c3954	0.07628122
142	0xbd5b51b8	-0.05354473
143	0xbb100b5e	-0.0021979432
144	0x3dc4ff1a	0.09618969
145	0xbdb159d2	-0.0865971
146	0xbd1764af	-0.036961254
147	0xbd91073d	-0.07081459
148	0xbcf955c3	-0.030436402
149	0x3d9d4881	0.07679845
150	0xbd3c4b72	-0.045970388
151	0xbd814163	-0.063113
152	0xbca2a743	-0.019855147
153	0x3d8bf412	0.06833662
154	0xbcd49dcc	-0.02595415
155	0x3d7b78eb	0.061394613
156	0x3d1ce25b	0.038301807
157	0x3d8d5a9a	0.069020465
158	0xbdb33890	-0.08751023
159	0x3d9fbb56	0.07799403
160	0xbda0bb74	-0.07848254
161	0x3c8db1c5	0.017296681
162	0xbd971c2e	-0.07378422
163	0xbcb0b301	-0.02156973
164	0x3b61b636	0.0034440882
165	0x3c745588	0.01491297
166	0x3c4fcc96	0.012683054
167	0x3bf77c27	0.007552642
168	0x3cf2cafa	0.029637802
169	0xbd505061	-0.050857905
170	0x3c21b3bb	0.009869511
171	0x3d593530	0.05302924
172	0x3d7c9566	0.061665915
173	0x3d02767a	0.03185127
174	0x3ca53ed2	0.020171557
175	0x3a5a86e8	0.00083361426
176	0x3ccd3e91	0.025054248
177	0x3c770fe7	0.015079475
178	0x3d507a4e	0.05089789
179	0x3dbacd8a	0.09121235
180	0xbc47582e	-0.01216702
181	0x3dcb87d8	0.099380195
182	0x3dc6a153	0.09698739
183	0x39a830af	0.0003207973
184	0x3a32929a	0.00068120065
185	0xbc7a403c	-0.015274104
186	0xbb27953e	-0.0025571133
187	0x3c881efc	0.016616337
188	0x3c4c80ee	0.012481911
189	0x3ac09502	0.0014692845
190	0x3d8fb981	0.07017804
191	0xbd3349c5	-0.043771524
192	0xbd9535e9	-0.07285673
193	0xbd5bcd16	-0.053662382
194	0x3d6e0bdc	0.05811678
195	0x3db262df	0.087102644
196	0x3dc332d0	0.09531176
197	0x3d98b593	0.074565075
198	0x3d7fe82c	0.062477276
199	0xbd057e58	-0.032591194
200	0x3dc3e59e	0.095652804
201	0xbdb20517	-0.08692377
202	0xbc277e36	-0.010222962
203	0xbdb94149	-0.09045655
204	0x3dbcf547	0.092264704
205	0x3da221fc	0.07916638
206	0xbdb2ee52	-0.08736862
207	0xbd098e6a	-0.033583082
208	0xbca3de12	-0.020003352
209	0x3d3a043d	0.0454142
210	0xbd081c1a	-0.033229925
211	0xbdd63dbb	-0.10460993
212	0xba903b08	-0.0011003921
213	0x3cf904e8	0.030397847
214	0xbb4a0eba	-0.0030831532
215	0xbddde061	-0.108338125
216	0x3da8dae1	0.08244873
217	0xbd98719b	-0.074435435
218	0x3d8fd944	0.07023862
219	0x3db07e2b	0.08617815
220	0x3da4be7a	0.08044143
221	0x3de3da9d	0.111256815
222	0xbdca5f49	-0.098814555
223	0xbcfb97e7	-0.030712081
224	0x3dc4e8c6	0.096147105
225	0x3d1eaf31	0.038741294
226	0xbd57df8b	-0.05270342
227	0xbc7233da	-0.01478287
228	0xbc9d5c2a	-0.019208986
229	0x3cfd517a	0.03092264
230	0xbdb3397b	-0.08751198
231	0xbdbf3925	-0.09337071
232	0x3da9cfe3	0.08291604
233	0x3cca4d29	0.024694996
234	0xbd9d677d	-0.076857544
235	0xbd7d370f	-0.061820086
236	0x3dbe92a9	0.09305317
237	0x3db9460a	0.09046562
238	0x3d23110d	0.039811183
239	0x3dd9999e	0.10625003
240	0x3d9d249a	0.07672997
241	0xbd535a07	-0.05159953
242	0x3bd2c5fc	0.006432293
243	0xbc48fac9	-0.012266823
244	0xbcf880d4	-0.030334868
245	0xbd087699	-0.03331623
246	0x3bad86bd	0.005295603
247	0xbd89f8f5	-0.06736938
248	0xbd512c31	-0.051067535
249	0x3c939626	0.018015932
250	0xbc510c31	-0.012759254
251	0xbceb18c6	-0.028698336
252	0x3dbf8944	0.09352353
253	0xbd722906	-0.059121154
254	0xbd868996	-0.06569211
255	0xbdbe7d15	-0.09301201
