parameter/crf_gru.pth (torch_old, 515087 bytes, 11 tensors)

transitions f4 [31, 31]
-10000.0 -10000.0 -10000.0 -10000.0 -10000.0 -10000.0 -10000.0 -10000.0
-10000.0 -10000.0 -10000.0 -10000.0 -10000.0 -10000.0 -10000.0 -10000.0
-10000.0 -10000.0 -10000.0 -10000.0 -10000.0 -10000.0 -10000.0 -10000.0
-10000.0 -10000.0 -10000.0 -10000.0 -10000.0 -10000.0 -10000.0 -14.577062
-30.308037 -64.31297 -19.106844 -11.046056 -3.7393415 1.1150169 -1.0683706 -1.4927496
-3.3798554 0.96043 1.4136287 -1.1036339 -0.9215449 -0.34370962 -2.0982652 -1.2542608
-11.478034 -6.2045894 -3.5666873 -3.4782429 -3.7160165 0.3726631 -0.89823323 -0.0002880207
-3.667047 -5.0436034 1.2154845 -1.869729 -10000.0 -10000.0 -29.279955 -40.052673
-17.890553 -18.305607 -10.151708 -1.5123101 0.28179857 1.100559 0.78363353 0.09489444
0.33415237 0.36599624 0.26192924 -0.09419279 0.13398345 1.6877631 0.24188416 -8.618952
-0.18396142 -1.4082856 -1.4231288 -1.9618762 0.36715943 0.88630253 0.82612365 -1.46463
0.33747908 0.30179527 -0.53069717 -10000.0 -10000.0 -14.790846 -22.201199 -18.941957
-11.498475 -6.22629 -0.6381203 1.8124558 0.30427092 0.41145277 -0.21438856 1.063435
0.22808667 -0.6530546 0.6375465 0.86959124 -0.0019258035 -0.19650841 -4.5954075 0.3541307
0.34887558 -0.19336657 -0.9343797 -1.6403701 -0.7011522 -0.709064 -0.44734967 -0.2895657
0.42790383 -0.5966383 -10000.0 -10000.0 -0.81145024 -13.400781 -8.850119 -12.086904
-2.8143675 0.9689798 -0.5681294 0.23391686 1.643149 -0.05872266 -0.7329958 -1.545904
-0.24164891 1.8041312 0.6220514 0.7333558 0.09591021 -2.2547908 -0.27634454 -1.5168077
-0.9573559 0.5094291 -0.58468014 -0.5593955 -0.5745872 0.33144203 1.0545533 1.6764059
-0.21490204 -10000.0 -10000.0 -0.7962231 -2.345674 -1.324131 0.7685834 1.7572141
-0.5419357 -0.3502054 -0.9005039 1.6652673 -0.63543814 1.8059717 -0.42098677 -0.464177
-0.018647062 0.56898916 0.6644974 -1.1782235 0.088141195 -1.7075468 -1.0028465 -0.25840914
-1.1716611 0.95196897 0.5775683 0.7889378 1.2561809 1.3410393 0.23153509 -1.5232313
-10000.0 -10000.0 0.5266092 -0.65051156 -0.95679945 -0.46308202 0.8622344 1.9989102
-0.64548653 0.54068047 0.6956191 2.119667 2.140362 0.95761174 -0.053790066 0.95080787
-0.89236295 1.2307903 -1.8088101 0.30283517 0.908822 0.008111419 1.4661541 -0.7822396
-1.0501144 0.84752244 0.38592762 1.1510117 0.09372218 -1.0690868 -1.6977307 -10000.0
-10000.0 1.381222 -0.6486963 -2.763301 2.0794756 -1.3911964 -1.5377297 0.97376263
0.1149067 0.3562743 0.51130486 2.67581 0.9021527 -0.8797344 0.26258367 -1.4393572
0.9121411 0.048246156 -1.3551829 -0.85259926 0.4778912 -1.4912289 -0.19704552 0.33528486
0.23073184 -0.3163022 0.1716789 0.3605388 -0.0021728522 -1.5003216 -10000.0 -10000.0
-0.65333706 -0.44336742 0.5791466 0.07416085 -0.80086344 1.051092 -0.3269576 -1.1792505
00000000: 0040 1cc6 0040 1cc6 0040 1cc6 0040 1cc6
00000010: 0040 1cc6 0040 1cc6 0040 1cc6 0040 1cc6
00000020: 0040 1cc6 0040 1cc6 0040 1cc6 0040 1cc6
00000030: 0040 1cc6 0040 1cc6 0040 1cc6 0040 1cc6
00000040: 0040 1cc6 0040 1cc6 0040 1cc6 0040 1cc6
00000050: 0040 1cc6 0040 1cc6 0040 1cc6 0040 1cc6
00000060: 0040 1cc6 0040 1cc6 0040 1cc6 0040 1cc6
00000070: 0040 1cc6 0040 1cc6 0040 1cc6 a53b 69c1
00000080: dc76 f2c1 3ea0 80c2 d1da 98c1 a5bc 30c1
00000090: 5f51 6fc0 e0b8 8e3f 5ec0 88bf 6b12 bfbf
000000a0: 8d4f 58c0 bede 753f c9f1 b43f e043 8dbf
000000b0: 5eea 6bbf b5fa afbe fa49 06c0 9e8b a0bf
000000c0: 07a6 37c1 ff8b c6c0 9b44 64c0 889b 5ec0
000000d0: 37d3 6dc0 b3cd be3e 9df2 65bf 7c01 97b9
000000e0: e6b0 6ac0 3365 a1c0 ff94 9b3f 4853 efbf
000000f0: 0040 1cc6 0040 1cc6 593d eac1 f035 20c2
00000100: da1f 8fc1 e271 92c1 656d 22c1 6193 c1bf
00000110: e747 903e 1edf 8c3f 359c 483f 0458 c23d
00000120: 0516 ab3e dc63 bb3e 971b 863e 26e8 c0bd
00000130: f532 093e 9f08 d83f 7bb0 773e 3ae7 09c1
00000140: 6260 3cbe b442 b4bf 1629 b6bf c21e fbbf
00000150: 52fc bb3e b9e4 623f d77c 533f ff78 bbbf
00000160: 0fca ac3e e984 9a3e c5db 07bf 0040 1cc6
00000170: 0040 1cc6 4ea7 6cc1 0e9c b1c1 2189 97c1
00000180: c1f9 37c1 c53d c7c0 da5b 23bf 8dfe e73f
00000190: 66c9 9b3e f0a9 d23e ad88 5bbe a31e 883f
000001a0: 8d8f 693e 962e 27bf 3f36 233f 889d 5e3f
000001b0: 3e6b fcba 8039 49be 940d 93c0 9e50 b53e
000001c0: d29f b23e e301 46be 8233 6fbf a6f7 d1bf
000001d0: b67e 33bf 3885 35bf 040b e5be f541 94be
000001e0: 3616 db3e 4abd 18bf 0040 1cc6 0040 1cc6
000001f0: 34bb 4fbf 9969 56c1 169a 0dc1 f563 41c1
00000200: 991e 34c0 0f0f 783f ee70 11bf e787 6f3e
00000210: b552 d23f 2c87 70bd 9da5 3bbf 2fe0 c5bf
00000220: d072 77be c5ed e63f c33e 1f3f 35bd 3b3f
00000230: 926c c43d 7e4e 10c0 087d 8dbe c126 c2bf
00000240: 4715 75bf f269 023f 99ad 15bf 8b34 0fbf
00000250: 2618 13bf c5b2 a93e 9afb 863f 7894 d63f
00000260: 480f 5cbe 0040 1cc6 0040 1cc6 47d5 4bbf
00000270: 861f 16c0 207d a9bf e2c1 443f 64ec e03f
00000280: 4cbc 0abf 1f4e b3be 6c87 66bf 7b27 d53f
00000290: 13ac 22bf 152a e73f 948b d7be 9ca8 edbe
000002a0: b9c1 98bc 46a9 113f 801c 2a3f 07d0 96bf
000002b0: 5f83 b43d e590 dabf 465d 80bf 344e 84be
000002c0: fef8 95bf 3db4 733f 84db 133f d4f7 493f
000002d0: 89ca a03f 2da7 ab3f 8917 6d3e 3ef9 c2bf
000002e0: 0040 1cc6 0040 1cc6 dccf 063f ed87 26bf
000002f0: cff0 74bf 1619 edbe 65bb 5c3f 4adc ff3f
00000300: 9b3e 25bf 096a 0a3f 1814 323f a0a8 0740
00000310: b1fb 0840 0b26 753f f952 5cbd 2568 733f
00000320: e671 64bf 898a 9d3f 1787 e7bf 360d 9b3e
00000330: 8fa8 683f c2e5 043c f0aa bb3f db40 48bf
00000340: 266a 86bf 3bf7 583f 4e98 c53e 5a54 933f
00000350: 6af1 bf3d d6d7 88bf 3d4f d9bf 0040 1cc6
00000360: 0040 1cc6 e2cb b03f f610 26bf ecd9 30c0
00000370: 2116 0540 b912 b2bf 54d4 c4bf 8248 793f
00000380: 3454 eb3d 9669 b63e e0e4 023f 7940 2b40
00000390: 7bf3 663f 4636 61bf 5e71 863e db3c b8bf
000003a0: 1482 693f c39d 453d a276 adbf f243 5abf
000003b0: 28ae f43e 97e0 bebf 4dc6 49be 75aa ab3e
000003c0: f844 6c3e 5df2 a1be 98cc 2f3e 8b98 b83e
000003d0: 6966 0ebb 8a0a c0bf 0040 1cc6 0040 1cc6
000003e0: 1941 27bf 0e01 e3be f442 143f a5e1 973d
000003f0: 6305 4dbf 2f8a 863f fd66 a7be aef1 96bf

gru.weight_ih_l0 f4 [300, 100]
-0.0031223367 -0.021883942 0.09091091 -0.13028969 0.07691333 0.08848228 -0.037406385 -0.055284113
-0.05721279 -0.05595791 -0.069591604 -0.0043356335 -0.01740299 0.1240684 0.08008487 0.045243468
-0.011739552 0.05995141 -0.017610883 -0.059491094 0.055645574 -0.08456162 -0.13613033 -0.046915777
0.017985933 -0.06809273 0.09176007 0.067736 0.09313713 -0.06570832 0.09033565 0.043572143
0.058129154 0.00848177 0.017564464 -0.149428 -0.031598244 0.10642671 0.114658415 0.014728015
-0.10426259 0.0027865097 0.030767724 0.04732904 -0.08321165 -0.08917339 0.004269162 0.099022895
-0.12311961 0.044552624 0.059447125 0.07036922 -0.07108849 0.018590951 -0.06435359 -0.0227947
-0.069776095 0.0093257325 -0.11990466 0.079840794 0.05709824 0.013411441 0.015184796 -0.095475525
0.09471889 0.06971292 0.062841706 -0.066478185 0.06860169 0.04893492 0.02606338 -0.110530615
0.009945117 -0.021299347 0.07176079 0.105159104 -0.08002444 0.11083027 0.023224011 0.108826555
-0.040258363 -0.010670652 0.020892868 0.15270409 0.0350979 -0.072404206 0.13105111 -0.064556435
-0.027052332 0.014825396 -0.032252003 0.06784388 0.06170418 0.13176318 -0.04400005 0.042636476
0.01405477 -0.07342377 -0.020572452 0.07766665 -0.06536032 0.024239603 -0.07272495 0.019628054
0.12025994 -0.03266839 -0.11304618 0.038106397 -0.09409892 0.024642326 -0.09653614 -0.086822316
-0.021124344 -0.03699505 0.038530212 0.011102179 0.101705216 -0.08127267 0.038030874 -0.04503444
0.0822932 -0.050698835 0.04361246 -0.06405666 0.071519256 -0.09188465 0.004990346 0.06905486
0.09077005 0.13424519 -0.08136375 0.06272392 -0.10322636 0.09025851 -0.010313888 -0.039746344
-0.010681938 0.042890344 0.040848315 0.0720776 -0.007584737 -0.0464272 0.043544333 0.071333624
-0.0022970515 0.0039014637 0.040627945 -0.0012916651 -0.029823685 0.111808375 0.035891406 0.03377861
0.08998376 -0.05978975 0.09038331 0.079542555 0.007898264 0.11149016 0.049984857 0.092317395
0.05694343 0.089086145 0.09826548 -0.048588365 0.08839577 -0.0052096704 0.082121305 0.09400351
0.005536687 0.06603837 0.022735577 0.10348916 0.04760229 0.11133637 0.01855571 0.054463767
-0.099352546 0.056777734 -0.09267448 0.0056548775 -0.028829698 0.047700673 -0.04253155 0.0101275565
0.018917946 0.008626058 0.010474299 0.003979396 -0.07606631 0.084735096 -0.056925472 0.048552714
-0.089066245 0.06752488 0.10384912 -0.07608476 0.09307197 0.07072694 0.016612127 -0.08812276
0.012930904 -0.09656228 -0.098114885 0.08391664 -0.050771095 -0.10860432 0.03174523 -0.045869857
0.041805796 -0.05076014 -0.099319875 -0.10469791 0.052299112 -0.09692169 -0.07361108 -0.050690453
0.069039084 -0.06776881 0.063332126 0.100817636 -0.08976042 -0.07470735 0.03536594 0.04533716
-0.03509805 -0.00728211 -0.09609488 -0.0135806585 0.07646157 0.09639265 -0.107098825 0.06536957
0.016986502 0.01931391 0.11675714 -0.05743949 -0.05107931 0.08183671 -0.03671566 0.003983759
-0.08734885 -0.043692842 -0.04713741 0.027567558 0.0062647997 0.047910135 0.09408029 0.05692634
0.11735 0.06737771 -0.07308953 -0.07621054 -0.022416295 0.039417945 0.028121995 -0.07681696
00000000: 1ea0 4cbb f445 b3bc 802f ba3d a96a 05be
00000010: bc84 9d3d 3336 b53d 7037 19bd 9871 62bd
00000020: f557 6abd 1f34 65bd 0b86 8ebd ee11 8ebb
00000030: b790 8ebc 9317 fe3d 8903 a43d 3751 393d
00000040: 4057 40bc 9c8f 753d b344 90bc efac 73bd
00000050: 9dec 633d a52e adbd c065 0bbe c22a 40bd
00000060: 3c57 933c 3474 8bbd b4ec bb3d 2cb9 8a3d
00000070: aebe be3d 1592 86bd e601 b93d b478 323d
00000080: d618 6e3d 1ff7 0a3c 5ae3 8f3c a703 19be
00000090: 296d 01bd 3ff6 d93d 08d2 ea3d c64d 713c
000000a0: a087 d5bd e09d 363b 980c fc3c 18dc 413d
000000b0: df6a aabd 8aa0 b6bd 54e4 8b3b 84cc ca3d
000000c0: 2226 fcbd d07c 363d d47e 733d bd1d 903d
000000d0: d896 91bd 0d4c 983c d1cb 83bd f3bb babc
000000e0: c5e6 8ebd f5ca 183c 9390 f5bd 9283 a33d
000000f0: d8df 693d a9bb 5b3c a7c9 783c ac88 c3bd
00000100: fafb c13d a6c5 8e3d 27b3 803d b725 88bd
00000110: 0b7f 8c3d fc6f 483d df82 d53c e05d e2bd
00000120: d8f0 223c f87b aebc 52f7 923d a85d d73d
00000130: dbe3 a3bd fbfa e23d 4840 be3c 75e0 de3d
00000140: f4e5 24bd f5d3 2ebc 8527 ab3c 765e 1c3e
00000150: d1c2 0f3d a848 94bd 4332 063e 2a36 84bd
00000160: da9c ddbc 38e6 723c ad1a 04bd bbf1 8a3d
00000170: 86bd 7c3d edec 063e 6539 34bd 96a3 2e3d
00000180: fa45 663c 345f 96bd 8f87 a8bc b10f 9f3d
00000190: a2db 85bd 2292 c63c d2f0 94bd 03cb a03c
000001a0: d84a f63d 4acf 05bd c184 e7bd 7415 1c3d
000001b0: efb6 c0bd b4de c93c bdb4 c5bd e6cf b1bd
000001c0: f60c adbc 1f88 17bd dbd1 1d3d eae5 353c
000001d0: d34a d03d 4972 a6bd 43c6 1b3d 0876 38bd
000001e0: 5689 a83d 95a9 4fbd fba2 323d 2330 83bd
000001f0: b078 923d 052e bcbd 0e86 a33b a26c 8d3d
00000200: a6e5 b93d 9277 093e 0aa2 a6bd 6675 803d
00000210: 5868 d3bd 74d9 b83d 95fb 28bc 10cd 22bd
00000220: 4c03 2fbc c9ad 2f3d 9050 273d 6c9d 933d
00000230: 6389 f8bb 732a 3ebd 8b5b 323d 5d17 923d
00000240: 218a 16bb b3af 7f3b 7d69 263d 174d a9ba
00000250: cd50 f4bc cafb e43d de02 133d 715b 0a3d
00000260: 6849 b83d 19e6 74bd e31a b93d 35e7 a23d
00000270: b867 013c f454 e43d ecbc 4c3d e710 bd3d
00000280: 843d 693d cc72 b63d 693f c93d 9804 47bd
00000290: d708 b53d e2b5 aabb 372f a83d ea84 c03d
000002a0: 196d b53b 203f 873d f63f ba3c 20f2 d33d
000002b0: 9efa 423d 5304 e43d 2502 983c 6615 5f3d
000002c0: 5979 cbbd c58f 683d 1ecc bdbd 8d4c b93b
000002d0: 422c ecbc c861 433d 9035 2ebd 0dee 253c
000002e0: cff9 9a3c 4f54 0d3c 659c 2b3c 9865 823b
000002f0: a7c8 9bbd 9889 ad3d af2a 69bd 36df 463d
00000300: 5d68 b6bd 7c4a 8a3d d9ae d43d 54d2 9bbd
00000310: 849c be3d 49d9 903d 2816 883c b579 b4bd
00000320: 24dc 533c 72c2 c5bd 75f0 c8bd 7ddc ab3d
00000330: 5af5 4fbd f16b debd 4907 023d 08e2 3bbd
00000340: 8e3c 2b3d dde9 4fbd 3868 cbbd dc6b d6bd
00000350: 9837 563d e17e c6bd 68c1 96bd cba0 4fbd
00000360: 5d64 8d3d 60ca 8abd 46b4 813d 7a79 ce3d
00000370: 50d4 b7bd 2b00 99bd e0db 103d 75b3 393d
00000380: f9c2 0fbd c49e eebb 64cd c4bd 6981 5ebc
00000390: e297 9c3d 8269 c53d a156 dbbd 7be0 853d
000003a0: 4727 8b3c 3438 9e3c 5e1e ef3d ac45 6bbd
000003b0: 8a38 51bd 019a a73d 2963 16bd 318a 823b
000003c0: f4e3 b2bd 44f7 32bd 2813 41bd 5cd5 e13c
000003d0: f348 cd3b 6b3d 443d 2bad c03d 982b 693d
000003e0: 3255 f03d 53fd 893d f7af 95bd 4614 9cbd
000003f0: 61a2 b7bc b674 213d 1960 e63c 3652 9dbd

gru.weight_hh_l0 f4 [300, 100]
0.081741296 -0.016889539 0.030921785 0.07186354 0.0008121914 -0.07056725 -0.020621616 -0.06128249
-0.07782199 -0.0016856947 0.05883151 -0.08279579 0.00030769457 0.08946026 0.028494924 0.03914671
-0.03657116 0.03487341 -0.04748904 -0.082705654 -0.10925643 -0.06751178 0.010282169 0.051367946
-0.08062368 -0.053573377 0.0969376 0.013119177 0.0041709994 0.009337648 0.010576315 0.07100594
-0.09266741 0.09654025 0.012956846 0.06469759 -0.04910157 -0.067754604 0.046793558 0.027026074
-0.050010435 0.11063862 0.054410648 0.061663285 -0.023748897 -0.002655126 0.055184077 -0.073469065
0.023173971 0.031485334 0.024347672 -0.04932612 -0.097667575 0.07197408 -0.09334485 -0.04363097
-0.0029238444 -0.040244035 0.039014157 -0.033299062 0.07830476 -0.064736106 -0.07088891 0.058960773
0.10833969 0.010948029 -0.09186541 -0.06701596 -0.050043214 0.004512317 -0.05627738 -0.015714137
0.031878084 0.054017834 -0.08244424 0.080300525 -0.06438149 -0.04759871 -0.048878502 0.047481902
0.054962926 -0.025595935 0.0076099555 -0.06787247 0.05887314 0.026383411 -0.015790228 0.046510857
0.07949878 0.015364812 0.058556307 -0.034693584 0.08944975 -0.079079665 0.030834805 -0.027473327
-0.03834283 -0.083987966 0.016018212 0.08757477 -0.020821286 -0.059640147 0.06878405 -0.0057199784
-0.09594052 -0.07805523 0.039196026 0.015037377 0.02146234 0.044282783 -0.04407861 0.06841471
0.07870925 -0.054851465 0.07538896 0.0031920997 -0.09882049 -0.074185774 -0.05679425 -0.0480734
-0.11628649 0.040433593 -0.064829454 -0.0035896616 -0.042240687 -0.048402056 -0.08161722 0.0014922459
0.009004486 -0.11970476 -0.064232334 0.03170956 -0.028171768 0.031370364 -0.017499013 0.008086055
-0.075708814 -0.047024053 0.09123481 0.05312216 0.003944578 -0.02819394 -0.010120448 -0.0226295
0.009570353 -0.025461735 -0.0042238897 -0.049538374 -0.051023245 0.058151696 -0.10280612 0.07095824
0.07328196 0.0662917 0.016811123 -0.008354695 -0.066527426 -0.10206777 -0.029125351 0.06589525
-0.069993146 0.08624568 0.010689688 -0.022956898 -0.10259172 0.02080346 -0.057895854 0.07582591
-0.013342605 0.06890729 0.037110146 -0.022264643 0.013260611 -0.047450308 0.0030059563 0.020037474
0.06669119 0.032291617 -0.031962782 -0.05622702 -0.06250742 0.07444318 -0.089868955 -0.024860462
-0.026900886 0.025217503 -0.06300783 0.062725194 0.07792611 0.018144771 -0.006981889 -0.022567045
0.02061425 0.06802672 -0.0013174752 -0.0712323 0.081271976 0.02783641 0.030974884 0.07136145
-0.12282064 0.03877733 -0.079050474 0.01460542 0.060742043 -0.07490971 -0.0030276992 0.008852181
-0.07527675 -0.038038954 0.07784293 -0.051451482 0.045309328 0.026957745 -0.006541045 0.014068036
-0.11376275 -0.084008284 -0.07462328 0.06760565 0.0445085 -0.017215012 0.058533967 0.11792161
-0.098901264 -0.056735653 -0.07005253 -0.035759013 -0.0007155448 0.054397073 0.057475954 0.07614081
0.027008327 -0.02949255 -0.09639851 -0.017635077 0.07585051 -0.010477843 -0.044556584 -0.09008238
-0.041508418 0.0049418253 -0.0077562374 -0.08090594 0.054466505 0.07720505 0.08241677 0.05932137
0.0007393956 0.07192894 -0.040863667 -0.057651777 -0.061788213 -0.025096811 -0.0100940075 0.08361561
00000000: fb67 a73d ee5b 8abc af4f fd3c 312d 933d
00000010: 3ee9 543a 9085 90bd aaee a8bc 5903 7bbd
00000020: 2361 9fbd 87f2 dcba 4ff9 703d d790 a9bd
00000030: 1152 a139 f136 b73d 306e e93c 4d58 203d
00000040: a4cb 15bd 6cd7 0e3d de83 42bd 9561 a9bd
00000050: d6c1 dfbd 9e43 8abd 8b76 283c 3267 523d
00000060: 071e a5bd c26f 5bbd 3887 c63d d1f1 563c
00000070: e1ac 883b effc 183c 4848 2d3c 906b 913d
00000080: 69c8 bdbd e5b6 c53d f348 543c 2c80 843d
00000090: ba1e 49bd edc2 8abd 9aaa 3f3d c965 dd3c
000000a0: bed7 4cbd 8096 e23d b3dd 5e3d a492 7c3d
000000b0: 0c8d c2bc 9f01 2ebb b308 623d f376 96bd
000000c0: 57d7 bd3c c4f6 003d c574 c73c 300a 4abd
000000d0: f005 c8bd 2567 933d 962b bfbd 63b6 32bd
000000e0: f89d 3fbb eed6 24bd 4fcd 1f3d 9964 08bd
000000f0: 3f5e a03d 5d94 84bd 342e 91bd da80 713d
00000100: 33e1 dd3d 5d5f 333c ef23 bcbd aa3f 89bd
00000110: 1dfa 4cbd 0fdc 933b 1c83 66bd efba 80bc
00000120: 9892 023d ce41 5d3d 87d8 a8bd 9a74 a43d
00000130: 71da 83bd ddf6 42bd d334 48bd 627c 423d
00000140: ce20 613d 91ae d1bc ef5c f93b b900 8bbd
00000150: f624 713d 0622 d83c 825a 81bc 2b82 3e3d
00000160: 42d0 a23d b1bc 7b3c bdd8 6f3d dc1a 0ebd
00000170: 6e31 b73d 85f4 a1bd 4699 fc3c be0f e1bc
00000180: 5f0d 1dbd e201 acbd a038 833c 675a b33d
00000190: 6791 aabc 3a49 74bd a7de 8c3d a86e bbbb
000001a0: 777c c4bd 6cdb 9fbd 038c 203d 555f 763c
000001b0: cad1 af3c dd61 353d c68b 34bd 031d 8c3d
000001c0: 5132 a13d eeab 60bd 8765 9a3d 8c32 513b
000001d0: 6662 cabd b6ee 97bd 16a1 68bd 9de8 44bd
000001e0: 9c27 eebd b29d 253d 4ec5 84bd 8740 6bbb
000001f0: 9204 2dbd 3c41 46bd ee26 a7bd 7797 c33a
00000200: 8d87 133c c527 f5bd 3e8c 83bd e2e1 013d
00000210: 7bc8 e6bc 367e 003d 175a 8fbc 5f7b 043c
00000220: 390d 9bbd 4b9c 40bd 51d9 ba3d 9f96 593d
00000230: 8541 813b faf6 e6bc 3cd0 25bc 8061 b9bc
00000240: f8cc 1c3c 2195 d0bc 8e68 8abb c0e8 4abd
00000250: c0fd 50bd 7930 6e3d 048c d2bd 8e52 913d
00000260: da14 963d f1c3 873d 7bb7 893c 21e2 08bc
00000270: 883f 88bd e808 d1bd 4a98 eebc 17f4 863d
00000280: 9158 8fbd 93a1 b03d cd23 2f3c 1b10 bcbc
00000290: 9c1b d2bd 056c aa3c 3424 6dbd 9d4a 9b3d
000002a0: f19a 5abc 441f 8d3d cf00 183d 5764 b6bc
000002b0: 0943 593c 415b 42bd 94ff 443b a125 a43c
000002c0: 6495 883d 3744 043d 68eb 02bd 4e4e 66bd
000002d0: e403 80bd aa75 983d 370d b8bd 2ba8 cbbc
000002e0: 3f5f dcbc f094 ce3c 400a 81bd 1176 803d
000002f0: b997 9f3d 58a4 943c 54c8 e4bb 86de b8bc
00000300: 37df a83c 9851 8b3d 22af acba 3de2 91bd
00000310: ec71 a63d 2f09 e43c 0abf fd3c f425 923d
00000320: 6389 fbbd fad4 1e3d 37e5 a1bd 924b 6f3c
00000330: a6cc 783d 436a 99bd 5d6c 46bb bd08 113c
00000340: b22a 9abd bcce 1bbd 1d6c 9f3d cabe 52bd
00000350: 4696 393d 7dd6 dc3c 4356 d6bb 9f7d 663c
00000360: 72fc e8bd 890c acbd 17d4 98bd d574 8a3d
00000370: 8b4e 363d 7f06 8dbc 50c1 6f3d e380 f13d
00000380: bf8c cabd a563 68bd b377 8fbd 0b78 12bd
00000390: 6693 3bba 77cf 5e3d e86b 6b3d b7ef 9b3d
000003a0: 9140 dd3c 5c9a f1bc 956c c5bd 7077 90bc
000003b0: 8357 9b3d 42ab 2bbc f780 36bd 1c7d b8bd
000003c0: bb04 2abd 09ef a13b 0928 febb 03b2 a5bd
000003d0: 4518 5f3d ae1d 9e3d 20ca a83d f7fa 723d
000003e0: 00d4 413a 7b4f 933d a960 27bd 4524 6cbd
000003f0: a315 7dbd d497 cdbc 5661 25bc a93e ab3d

gru.bias_ih_l0 f4 [300]
-0.06938423 0.068898425 0.11245837 0.024220884 -0.023758477 -0.027523892 -0.06160338 -0.032389477
-0.06538546 -0.03481764 0.09607551 -0.013632487 -0.028134335 -0.003940913 0.057321396 0.010394226
0.037842937 0.03613877 -0.01876269 0.08184881 -0.007360298 0.100498654 0.08863716 0.026354838
0.10595617 -0.048169907 0.12423336 0.08935719 -0.00036730725 0.06809112 -0.07201272 -0.055564046
0.06681419 0.081818886 -0.014072479 0.06420966 -0.050909363 0.039687034 0.016243314 0.086354576
0.106823444 0.069510676 -0.06835248 -0.054965306 -0.012826089 -0.017547924 0.004924707 -0.010421899
-0.034749344 -0.06201461 -0.06440715 -0.019239038 0.07342438 0.009617607 0.0066636777 -0.009281087
-0.0890868 -0.011221821 -0.012667798 -0.05634692 0.021846522 -0.0018680315 -0.0028644954 -0.06747567
0.11395818 -0.078954555 -0.0380832 0.009525764 0.059043612 -0.005100507 -0.02168861 -0.002803843
0.009498115 -0.08329136 -0.043751102 -0.02127686 0.08795146 0.020451168 0.05971489 0.028322028
0.04877678 -0.042569306 0.09326777 0.108221225 0.021102123 0.0846071 0.10747917 0.088581264
-0.04714786 0.08682699 0.08285082 -0.11648724 0.04824549 -0.011457717 0.08674275 0.005749731
0.082853705 0.08142768 -0.006935794 -0.06723698 -0.034559254 -0.18854906 -0.055831265 0.031213677
0.014412023 0.07247275 -0.07556087 -0.08934068 -0.0926174 0.048303045 0.044643927 -0.04869543
-0.06128703 0.069071494 -0.005819986 -0.08612826 0.07730702 -0.05333964 0.037840664 -0.021300592
-0.07337685 -0.1440577 -0.00518443 -0.0064436123 0.0695244 -0.14141315 -0.043285433 -0.063298926
-0.034575753 -0.040003687 0.069658294 0.004853162 -0.09698091 0.064552575 -0.06629455 -0.06792373
-0.008053838 -0.070091695 -0.025904076 0.08216606 -0.025278091 0.08900011 -0.11726964 -0.023432698
-0.08417066 -0.04605952 -0.06878537 0.052375216 -0.021106474 -0.10121034 0.014074527 0.002807257
-0.118077494 0.03646661 -0.036704794 -0.06652889 0.0012886017 -0.0521917 -0.084015705 0.04634502
-0.14428352 -0.10129733 -0.11910448 -0.0210119 -0.13336815 -0.013948682 0.0021657734 -0.113138236
0.07312788 0.033995856 -0.1353294 0.0021411134 -0.01626461 -0.11829709 -0.100780085 -0.103567615
-0.022922693 -0.13489324 -0.12509246 0.0003144507 -0.057064097 -0.15643026 -0.012680408 0.02060865
0.009925872 -0.08561963 0.04697212 -0.06763264 -0.06472491 -0.03974363 -0.017447809 -0.09959137
0.041439567 -0.015568681 0.016786473 -0.087741785 -0.08989391 -0.046930574 -0.040768266 -0.07273713
-0.070969366 -0.10573619 -0.019348485 -0.007271677 0.012612202 0.03878939 0.027141573 0.1413937
-0.042259496 -0.12272295 0.060237054 -0.028969733 0.006947873 0.091375984 0.18079732 0.08328181
-0.04624688 0.0837895 -0.011931481 -0.02541834 -0.11012764 0.011775286 0.04012427 -0.022253983
-0.08543691 -0.04906696 -0.09442376 0.17225066 0.044437412 -0.014086135 0.016819473 0.03119171
-0.003935143 0.061163068 0.009344156 0.023285488 -0.04423549 0.016404586 -0.11119387 0.074434854
-0.0856071 -0.12590194 0.06573336 0.043283843 0.022021985 0.18210013 -0.1336365 0.045828033
0.018005425 0.16450362 0.043685973 -0.096895784 0.023464581 -0.058915522 0.017051592 -0.025965374
00000000: 5219 8ebd 9e1a 8d3d 9350 e63d e06a c63c
00000010: 23a1 c2bc c979 e1bc d353 7cbd d4aa 04bd
00000020: d0e8 85bd f19c 0ebd 3dc3 c43d cb5a 5fbc
00000030: fa79 e6bc c622 81bb d7c9 6a3d 8b4c 2a3c
00000040: 3201 1b3d 3f06 143d 36b4 99bc 59a0 a73d
00000050: a82e f1bb 3dd2 cd3d 6687 b53d 1ae6 d73c
00000060: 8cff d83d cf4d 45bd 0f6e fe3d e700 b73d
00000070: 2593 c0b9 5b73 8b3d 687b 93bd 2097 63bd
00000080: e1d5 883d a990 a73d 4190 66bc 5b80 833d
00000090: 5686 50bd df8e 223d b310 853c abda b03d
000000a0: 40c6 da3d 9d5b 8e3d 63fc 8bbd 4d23 61bd
000000b0: 8424 52bc aac0 8fbc 705f a13b 9dc0 2abc
000000c0: 5455 0ebd 0803 7ebd e5e7 83bd 309b 9dbc
000000d0: 855f 963d 2b93 1d3c fb5a da3b b30f 18bc
000000e0: 2473 b6bd bbdb 37bc 998c 4fbc 07cc 66bd
000000f0: 7af7 b23c bcd8 f4ba 42ba 3bbb af30 8abd
00000100: e862 e93d edb2 a1bd 21fd 1bbd f311 1c3c
00000110: b7d7 713d 2722 a7bb 50ac b1bc aec0 37bb
00000120: fb9d 1b3c a994 aabd 5b34 33bd cf4c aebc
00000130: e51f b43d 3589 a73c 9a97 743d 9903 e83c
00000140: 29ca 473d 275d 2ebd 2c03 bf3d 17a3 dd3d
00000150: 5cde ac3c 7d46 ad3d 0a1e dc3d 186a b53d
00000160: 1d1e 41bd 59d2 b13d b1ad a93d dd90 eebd
00000170: 109d 453d 26b9 3bbc 2fa6 b13d 3d68 bc3b
00000180: 34af a93d 8ec3 a63d a845 e3bb 8bb3 89bd
00000190: 018e 0dbd 0113 41be 53af 64bd d3b3 ff3c
000001a0: 6820 6c3c 986c 943d a8bf 9abd 3ff8 b6bd
000001b0: 31ae bdbd 6ad9 453d 8ddc 363d dc74 47bd
000001c0: 1c08 7bbd 5b75 8d3d 95b5 bebb 0364 b0bd
000001d0: 2553 9e3d ab7a 5abd d0fe 1a3d 947e aebc
000001e0: 9a46 96bd dd83 13be 27e2 a9bb f024 d3bb
000001f0: cf62 8e3d 9cce 10be 114c 31bd dea2 81bd
00000200: 4e9f 0dbd e8da 23bd 02a9 8e3d 4607 9f3b
00000210: ed9d c6bd 2434 843d 70c5 87bd 991b 8bbd
00000220: 3ff4 03bc 3c8c 8fbd c934 d4bc ae46 a83d
00000230: 0014 cfbc b145 b63d 112b f0bd eef5 bfbc
00000240: ab61 acbd e8a8 3cbd 58df 8cbd 6587 563d
00000250: 7ce7 acbc 5e47 cfbd d898 663c f5f9 373b
00000260: 9dd2 f1bd 035e 153d c457 16bd 4c40 88bd
00000270: 4ce6 a83a f7c6 55bd 6d10 acbd 47d4 3d3d
00000280: 0fbf 13be f974 cfbd 0ded f3bd 2621 acbc
00000290: a991 08be 0389 64bc a6ef 0d3b 05b5 e7bd
000002a0: 12c4 953d 3d3f 0b3d ca93 0abe ec51 0c3b
000002b0: 5c3d 85bc bf45 f2bd ca65 cebd 421b d4bd
000002c0: 5fc8 bbbc 7421 0abe 3d18 00be dcdc a439
000002d0: 0bbc 69bd 412f 20be 7cc1 4fbc 79d3 a83c
000002e0: 20a0 223c 5859 afbd d665 403d fb82 8abd
000002f0: 7e8e 84bd 37ca 22bd b5ee 8ebc 8ff6 cbbd
00000300: 89bc 293d c813 7fbc c983 893c f7b1 b3bd
00000310: 4c1a b8bd 463a 40bd a0fc 26bd 34f7 94bd
00000320: 6358 91bd 378c d8bd b780 9ebc 3f47 eebb
00000330: 69a3 4e3c a0e1 1e3d 0158 de3c 83c9 103e
00000340: 4b18 2dbd 2c56 fbbd 21bb 763d ef51 edbc
00000350: fcaa e33b 5523 bb3d ef22 393e a78f aa3d
00000360: 5e6d 3dbd d499 ab3d 427c 43bc 1f3a d0bc
00000370: 9a8a e1bd 21ed 403c 5959 243d fc4d b6bc
00000380: 8cf9 aebd 70fa 48bd 3f61 c1bd 7a62 303e
00000390: 0104 363d 88c9 66bc fec8 893c c285 ff3c
000003a0: 5ff2 80bb 2086 7a3d 3b18 193c 35c1 be3c
000003b0: 4630 35bd e962 863c 9db9 e3bd 4d71 983d
000003c0: c652 afbd 70ec 00be 369f 863d 664a 313d
000003d0: 7367 b43c 7578 3a3e 02d8 08be 2db6 3b3d
000003e0: 1d80 933c a373 283e 10f0 323d 4c71 c6bd
000003f0: cb38 c03c 6751 71bd c8af 8b3c 56b5 d4bc

gru.bias_hh_l0 f4 [300]
-0.07607355 -0.062728845 0.05345739 -0.016873417 0.04826545 -0.026859269 -0.020833919 -0.08678375
0.036468 -0.05464936 0.07470525 0.06750045 -0.07046771 0.08212865 0.048655715 -0.044585206
0.007456311 -0.01607717 0.0065549864 0.04734007 0.06610276 0.10788991 -0.0429137 0.084817044
0.00028607962 -0.0389273 -0.03271241 0.06597168 0.017240394 0.031029608 -0.07383271 -0.09086084
0.04492216 0.061340548 0.09355587 -0.059039384 -0.025252681 0.009336329 -0.05093882 -0.030365389
-0.0073540257 0.0149792535 -0.07445491 -0.07169758 0.09412042 -0.013303561 0.039563127 0.049543437
0.043404788 0.11760454 0.026522001 0.04149849 0.07247972 -0.057958625 -0.01216241 0.022077058
-0.0077291504 0.09585701 0.0017055531 -0.0428398 -0.033771843 -0.05982289 0.049352553 0.00013606099
-0.06644369 0.06349136 -0.015670972 -0.082028605 0.0442274 0.09500965 0.08918007 -0.05372978
0.05846577 -0.063665256 -0.06352381 -0.012587037 -0.09037398 0.10124252 0.066454045 0.055675134
0.001359613 -0.022201082 0.09133785 0.05660729 -0.061130162 -0.07377165 -0.06002906 0.031192271
-0.00836089 -0.06573782 0.07674487 -0.014525395 0.06605905 0.05589144 -0.002176858 0.07750292
0.117466204 0.049557082 -0.007913495 -0.08197245 -0.048886877 -0.06833093 -0.041861452 -0.026879974
-0.15742537 -0.0420667 -0.115813725 0.016436726 0.046242017 -0.010484773 -0.12795164 -0.010588501
0.070856154 0.049233094 -0.09629695 -0.07581242 -0.03394885 0.052255265 -0.02764627 -0.025820546
0.045256782 -0.0030655088 -0.05750732 -0.040641163 -0.08677173 -0.11282049 -0.016735226 -0.0029885161
0.048185986 0.0014145884 -0.01900849 -0.10964737 -0.007962645 -0.04732951 -0.0431734 0.06601122
-0.072970785 -0.052200995 -0.034919944 -0.054847613 -0.04757187 0.026474139 -0.13837326 -0.11430082
-0.119213656 0.017948233 -0.047440343 -0.017218482 0.060726654 -0.028145893 -0.027269445 -0.066051185
-0.059733476 -0.062839165 -0.0039577 -0.15865128 -0.14594875 0.00601515 -0.046469755 0.017563686
0.011448859 -0.13773976 -0.10795532 0.009847916 -0.041268073 0.045357615 -0.12536505 0.059509244
0.07374867 -0.08382551 -0.115480304 0.055849243 0.07028119 -0.11164407 -0.061411384 -0.0771001
0.078917116 0.039264083 -0.058756173 0.0030303318 -0.016629651 -0.13977017 0.027007677 0.0005998561
-0.12545727 0.017765174 -0.007713967 -0.10298369 -0.11924288 -0.05348516 -0.091173165 -0.017430905
-0.11741206 0.025628278 -0.09095491 -0.09344145 -0.04080732 -0.122671306 -0.08570071 -0.1351743
-0.015182367 -0.045965157 0.09954687 0.042370535 0.024200115 0.02699247 0.09612474 0.076153725
0.08135559 -0.076002344 0.035734583 -0.06691142 -0.01301234 0.08308864 0.06907694 0.12628965
0.023110997 0.083838515 0.08735097 -0.07102984 -0.042874046 0.02327667 0.10891702 -0.0064295665
0.04358 -0.013434116 0.023543153 0.045324624 0.053922243 -0.045773152 0.01737083 0.047592215
0.00028899562 0.08909883 -0.06480813 0.022208432 -0.03567468 0.078872085 -0.019708032 0.14249189
-0.06429002 0.0036984638 0.026312381 0.009252917 0.09473159 0.16367929 -0.09820527 0.101873375
-0.053162478 0.09341805 0.014127763 -0.13723679 -0.00767126 -0.06551636 -0.05637731 0.07174845
00000000: 73cc 9bbd fb77 80bd 23f6 5a3d 1f3a 8abc
00000010: feb1 453d f807 dcbc e5ab aabc aebb b1bd
00000020: 785f 153d 02d8 5fbd 11ff 983d ad3d 8a3d
00000030: 6051 90bd 1133 a83d 374b 473d fa9e 36bd
00000040: 1254 f43b 45b4 83bc 36cb d63b a9e7 413d
00000050: e260 873d 63f5 dc3d 47c6 2fbd 8fb4 ad3d
00000060: f5fc 9539 3c72 1fbd 73fd 05bd 291c 873d
00000070: ba3b 8d3c ce31 fe3c 9b35 97bd 4015 babd
00000080: 4d00 383d 3a40 7b3d 389a bf3d 48d3 71bd
00000090: b6de cebc 67f7 183c 39a5 50bd d6c0 f8bc
000000a0: 0afa f0bb 8b6b 753c d17b 98bd 2ed6 92bd
000000b0: 35c2 c03d 2ef7 59bc f20c 223d 0fee 4a3d
000000c0: 38c9 313d a6da f03d ab44 d93c 52fa 293d
000000d0: 3f70 943d 0666 6dbd d844 47bc f2da b43c
000000e0: d044 fdbb ae50 c43d de8c df3a c978 2fbd
000000f0: 5854 0abd d908 75bd e725 4a3d 98ab 0e39
00000100: a113 88bd c207 823d 6960 80bc 9dfe a7bd
00000110: ca27 353d 6b94 c23d 0aa4 b63d c213 5cbd
00000120: ce79 6f3d ee62 82bd c518 82bd dc39 4ebc
00000130: fe15 b9bd 3d58 cf3d 0f19 883d 9c0b 643d
00000140: 0b35 b23a 0bdf b5bc 570f bb3d 0cdd 673d
00000150: 9f63 7abd 9715 97bd 08e1 75bd ef86 ff3c
00000160: 1dfc 08bc 8da1 86bd 6a2c 9d3d ecfb 6dbc
00000170: f849 873d 6cee 643d 9ea9 0ebb dab9 9e3d
00000180: 1f92 f03d 5efc 4a3d 9ba7 01bc 2ce1 a7bd
00000190: 9b3d 48bd 16f1 8bbd ea76 2bbd 6433 dcbc
000001a0: 1e34 21be 224e 2cbd bf2f edbd 50a6 863c
000001b0: 4568 3d3d 53c8 2bbc c105 03be 647b 2dbc
000001c0: 081d 913d a4a8 493d 5637 c5bd 8b43 9bbd
000001d0: f30d 0bbd 9e09 563d 6e7a e2bc 9c85 d3bc
000001e0: 2d5f 393d b4e6 48bb cc8c 6bbd 5977 26bd
000001f0: 60b5 b1bd 6e0e e7bd 5018 89bc fbda 43bb
00000200: ab5e 453d b669 b93a b1b7 9bbc cd8e e0bd
00000210: c175 02bc 97dc 41bd 97d6 30bd e430 873d
00000220: b571 95bd b6d0 55bd 3708 0fbd e4a7 60bd
00000230: b9da 42bd 4be0 d83c b8b1 0dbe 8c16 eabd
00000240: 4a26 f4bd 2c08 933c ce50 42bd c60d 8dbc
00000250: 83bc 783d 3792 e6bc 2c64 dfbc d845 87bd
00000260: 17ab 74bd d2b1 80bd 98af 81bb 7b75 22be
00000270: 9773 15be bc1a c53b 1257 3ebd b8e1 8f3c
00000280: ff93 3b3c a70b 0dbe ae17 ddbd 2759 213c
00000290: b608 29bd e8c8 393d b25f 00be f7bf 733d
000002a0: 8b09 973d b6ac abbd f080 ecbd 2dc2 643d
000002b0: 96ef 8f3d a5a5 e4bd 818a 7bbd a8e6 9dbd
000002c0: 4c9f a13d 60d3 203d 50aa 70bd 8898 463b
000002d0: e83a 88bc e91f 0fbe 343f dd3c a93f 1d3a
000002e0: df77 00be 4588 913c 72c5 fcbb 1de9 d2bd
000002f0: 9c35 f4bd 4113 5bbd ffb8 babd 42cb 8ebc
00000300: bc75 f0bd 65f2 d13c 9146 babd 3b5e bfbd
00000310: 9425 27bd 183b fbbd db83 afbd 226b 0abe
00000320: 76bf 78bc f645 3cbd 3bdf cb3d ba8c 2d3d
00000330: 523f c63c 501f dd3c 0cdd c43d 7cf6 9b3d
00000340: c29d a63d 1ea7 9bbd 6d5e 123d db08 89bd
00000350: b631 55bc 602a aa3d 3678 8d3d 1352 013e
00000360: 4653 bd3c 87b3 ab3d 11e5 b23d 1878 91bd
00000370: b29c 2fbd b7ae be3c e30f df3d 1daf d2bb
00000380: f180 323d c41a 5cbc 92dd c03c 50a6 393d
00000390: 92dd 5c3d a17c 3bbd 454d 8e3c 0ef0 423d
000003a0: 5684 9739 7379 b63d 20ba 84bd 75ee b53c
000003b0: 9d1f 12bd b087 a13d bd72 a1bc 65e9 113e
000003c0: 7caa 83bd ed61 723b 108d d73c 8c99 173c
000003d0: a302 c23d 8b9b 273e d81f c9bd fda2 d03d
000003e0: e6c0 59bd f651 bf3d 2278 673c cd87 0cbe
000003f0: 315f fbbb 712d 86bd e5eb 66bd daf0 923d

gru.weight_ih_l0_reverse f4 [300, 100]
0.045748767 0.02340679 0.07397447 0.06452519 0.015630472 0.05988933 0.03282569 -0.0928122
0.09068395 -0.09549908 0.015371421 -0.026994733 -0.064037114 -0.018741291 0.041600257 -0.06315138
-0.02562474 0.094363876 0.005415656 -0.07064684 -0.06831597 -0.0938195 0.032151382 -0.0026968599
-0.064350925 -0.010781299 0.06723168 0.09400157 -0.09388639 -0.045941554 0.079953335 -0.095695965
-0.01908425 0.044399314 0.032175012 0.029962832 -0.024661915 0.08223087 -0.0105953915 -0.03616498
0.09102814 -0.0068436256 0.044347983 -0.052851174 0.008226075 0.008467799 0.08227333 -0.046182003
-0.07711763 -0.015182478 -0.040857945 -0.072817415 0.096470356 0.02562353 0.038783055 0.006927846
-0.09312979 -0.049052063 -0.06303398 -0.039126996 0.080628484 0.08150551 -0.06779578 0.08214188
0.063892856 -0.017161133 -0.07582881 -0.040901694 -0.09944604 -0.06563277 -0.050865937 -0.011897714
-0.009869691 0.09784383 0.08718521 0.060722068 -0.09583247 -0.055991422 0.020907499 0.06591729
-0.045238987 0.0768401 -0.037648685 0.034409974 0.029629795 0.0492816 0.055474337 -0.07212046
0.097824775 -0.016257597 0.0952056 0.03772834 -0.028746175 -0.008498427 -0.07291932 -0.046182252
-0.0776171 0.047669325 0.005091936 0.047126416 -0.028158674 -0.08555561 -0.01784551 -0.08213349
-0.086108655 0.06195393 0.077027015 -0.0805069 0.042518992 -0.03187619 -0.033175364 0.06149493
-0.07294706 0.020289652 0.032266047 0.088059336 0.012534839 0.04153027 0.06637753 -0.06535681
-0.036746677 0.071803614 0.046134964 -0.020526048 0.012227078 0.014133774 0.103061475 0.061957978
-0.092072226 -0.06547605 0.060675286 -0.040818587 -0.079694845 -0.06388743 0.019627897 -0.058582712
-0.029947318 -0.015530495 0.0029874707 -0.07760841 -0.055580936 0.051717315 0.06816424 0.08138478
0.05511909 0.05930651 0.04032488 -0.06217998 -0.0068110153 0.030768787 -0.08843542 -0.0077264775
0.0004004214 -0.051034983 0.0774162 -0.062011216 -0.054841124 -0.009215293 -0.057968445 -0.08333648
-0.039727133 0.03648515 0.053757723 0.023689149 -0.0075492207 -0.055460405 0.0397815 -0.02512627
-0.06469171 -0.066259146 -0.057326343 -0.0067346003 -0.090286985 0.049496133 0.06541172 -0.009562125
0.0014874305 -0.08537035 0.086337954 0.0006897389 -0.08986939 -0.0061684237 -0.060992546 -0.038917728
0.099993825 0.091554806 -0.07030322 0.07035551 0.060879298 -0.009804319 -0.004523636 -0.06955698
-0.08817995 -0.04457568 -0.0486234 -0.00032120178 0.0835323 -0.075868554 0.021595467 0.04830333
0.04547402 0.080608286 0.09575319 0.021761114 0.03523541 -0.044497367 -0.09603109 0.047410775
-0.09363505 -0.0055279285 0.08100535 -0.06917718 -0.045716878 0.017673902 0.03962188 -0.081256464
-0.0055839443 0.018934939 -0.051819764 0.08686369 0.052485924 -0.009912658 0.045889784 -0.0021111306
-0.015009375 -0.048206046 -0.049291823 -0.08756639 -0.047729157 -0.013712414 -0.10818274 0.04120369
0.034634333 0.11968015 0.09217317 -0.056728356 -0.052473657 0.020453986 -0.00532623 0.04620601
0.04278935 -0.016578224 -0.051366623 -0.0217962 -0.06308286 0.0047527677 -0.010170095 -0.034686364
0.024160335 0.076480016 0.0092677 -0.03474134 -0.0005379981 0.0858623 0.024806673 0.03363324
00000000: 0f63 3b3d 99bf bf3c ed7f 973d c825 843d
00000010: 7a0b 803c 844e 753d 3b74 063d 5314 bebd
00000020: 82b8 b93d 0695 c3bd 6ad8 7b3c 0f24 ddbc
00000030: e425 83bd 5687 99bc 0865 2a3d 8355 81bd
00000040: faea d1bc d941 c13d d175 b13b 4aaf 90bd
00000050: 3ee9 8bbd 7024 c0bd 2bb1 033d cdbd 30bb
00000060: 6bca 83bd 0ca4 30bc c3b0 893d e583 c03d
00000070: 8247 c0bd 362d 3cbd 93be a33d 3ffc c3bd
00000080: 9356 9cbc 0edc 353d f2c9 033d 9d74 f53c
00000090: c907 cabc a968 a83d 4b98 2dbc bb21 14bd
000000a0: f66c ba3d 7e40 e0bb 3ba6 353d 797a 58bd
000000b0: a9c6 063c 86bc 0a3c eb7e a83d 5729 3dbd
000000c0: d9ef 9dbd eebf 78bc a95a 27bd 4c21 95bd
000000d0: 4092 c53d 70e8 d13c fbda 1e3d fc02 e33b
000000e0: d5ba bebd d1ea 48bd f617 81bd a143 20bd
000000f0: 8c20 a53d 5cec a63d 84d8 8abd 013a a83d
00000100: 42da 823d 8195 8cbc 234c 9bbd 8988 27bd
00000110: 5eaa cbbd 796a 86bd cd58 50bd a1ee 42bc
00000120: 7cb4 21bc 5962 c83d 298e b23d b4b7 783d
00000130: d043 c4bd 4357 65bd 3446 ab3c a5ff 863d
00000140: 844c 39bd 585e 9d3d 8235 1abd 79f1 0c3d
00000150: 2fba f23c 81db 493d 0f39 633d e4b3 93bd
00000160: 5b58 c83d a72e 85bc 27fb c23d 0889 1a3d
00000170: 197d ebbc fd3c 0bbc b956 95bd 9a29 3dbd
00000180: b7f5 9ebd e940 433d 41da a63b a107 413d
00000190: 05ad e6bc c837 afbd bf30 92bc 9a35 a8bd
000001a0: bc59 b0bd 67c3 7d3d 57c0 9d3d cde0 a4bd
000001b0: 6528 2e3d 9c90 02bd e4e2 07bd 1ce2 7b3d
000001c0: 4565 95bd 7c36 a63c 6729 043d 7458 b43d
000001d0: ed5e 4d3c a51b 2a3d f1f0 873d cbd9 85bd
000001e0: af83 16bd c60d 933d 04f8 3c3d 3e26 a8bc
000001f0: 1554 483c 5891 673c e511 d33d a6c7 7d3d
00000200: 5d90 bcbd 4f18 86bd a686 783d 6431 27bd
00000210: 0d37 a3bd 6ad7 82bd afca a03c 6df4 6fbd
00000220: 1454 f5bc 9e73 7ebc 71c9 433b 28f1 9ebd
00000230: d6a8 63bd 89d5 533d b199 8b3d 10ad a63d
00000240: 8ec4 613d 62eb 723d b42b 253d 6fb0 7ebd
00000250: f02e dfbb d30e fc3c a11d b5bd 642e fdbb
00000260: a7ef d139 0f0a 51bd 628c 9e3d 79ff 7dbd
00000270: 16a1 60bd befb 16bc 5270 6dbd 51ac aabd
00000280: ebb8 22bd 7471 153d 0f31 5c3d bf0f c23c
00000290: 745f f7bb 732a 63bd edf1 223d 9bd5 cdbc
000002a0: 167d 84bd e0b2 87bd 07cf 6abd ecad dcbb
000002b0: 62e8 b8bd 75bc 4a3d 94f6 853d 76aa 1cbc
000002c0: e3f5 c23a a6d6 aebd f4d1 b03d 98cf 343a
000002d0: 710d b8bd 7d20 cabb 52d3 79bd 3268 1fbd
000002e0: 90c9 cc3d 1681 bb3d 22fb 8fbd 8d16 903d
000002f0: 925c 793d 4ba2 20bc 023b 94bb e473 8ebd
00000300: b197 b4bd fd94 36bd 5529 47bd f966 a8b9
00000310: fc12 ab3d f960 9bbd fae8 b03c b6d9 453d
00000320: f742 3a3d f515 a53d 401a c43d 5d44 b23c
00000330: 0153 103d df42 36bd f3ab c4bd cd31 423d
00000340: bcc3 bfbd a023 b5bb 22e6 a53d c4ac 8dbd
00000350: 9f41 3bbd dcc8 903c 8d4a 223d ca69 a6bd
00000360: 85f9 b6bb 721d 9b3c f640 54bd 97e5 b13d
00000370: 7bfb 563d b368 22bc edf6 3b3d e55a 0abb
00000380: e2e9 75bc b473 45bd 39e6 49bd 0256 b3bd
00000390: a67f 43bd 08aa 60bc ea8e ddbd 33c5 283d
000003a0: bbdc 0d3d de1a f53d 49c5 bc3d fe5b 68bd
000003b0: 9eee 56bd 1e8f a73c a887 aebb 8342 3d3d
000003c0: e343 2f3d 0ecf 87bc cf65 52bd f28d b2bc
000003d0: 9631 81bd 1bbd 9b3b 78a0 26bc 4a13 0ebd
000003e0: e5eb c53c 8ea1 9c3d 8dd7 173c ef4c 0ebd
000003f0: 7108 0dba 93d8 af3d 5d37 cb3c 02c3 093d

gru.weight_hh_l0_reverse f4 [300, 100]
-0.0041014943 0.021067293 -0.07284483 -0.09982816 0.016442679 -0.04962065 0.059321698 -0.05710183
0.029968383 0.040462825 -0.046447676 -0.0339673 -0.06988953 0.06745268 -0.045799322 0.08775403
0.0077648447 -0.0785487 -0.031789515 0.09020323 0.07957902 -0.08077926 0.017698871 -0.0130527
-0.09454927 -0.023049813 0.033721346 0.013005653 -0.032512728 -0.023550145 -0.08822476 -0.06945464
0.07797807 -0.00896899 -0.029739505 -0.00762953 0.052839674 0.0548403 0.06641286 -0.007983705
0.05999774 0.07185308 -0.08937683 0.046379235 -0.07602549 -0.09675559 -0.045054875 -0.099245116
0.03770925 0.036051136 0.02744871 -0.01769072 -0.079742 -0.061772417 0.09121652 -0.096757606
-0.08950742 -0.06930087 -0.05322754 -0.094047755 -0.019438501 0.0528934 -0.007957783 -0.094678
-0.036727313 0.022967288 0.011263906 0.0761025 -0.057852175 0.042746127 0.044205405 0.00068053685
-0.026899097 0.0041384054 -0.05698995 0.053650837 0.046735153 0.040176596 0.07386072 -0.054091234
-0.044746388 -0.021865081 0.09707842 0.0453923 -0.09627746 0.09062383 0.046606366 -0.0022231855
0.019142032 -0.045442387 0.018648764 0.07399457 -0.08822361 0.04203544 -0.04753318 -5.3908087e-05
0.042556148 -0.025302868 -0.07323061 0.061566353 0.08800699 0.0037258314 -0.00406605 -0.037499312
-0.040025014 0.09256201 0.092556715 -0.08183575 0.032206625 -0.05735262 -0.08101918 0.09037093
0.050074045 -0.016003136 0.05575894 -0.06552519 0.013055296 -0.042403404 0.021604437 0.09278385
0.03410564 0.04912776 -0.09010531 -0.0008203526 -0.006408311 -0.019400684 0.03495391 -0.030870236
0.08098976 -0.023828248 -0.0911509 -0.08690231 0.07208597 0.007171261 0.047463406 0.058751523
-0.04847511 0.019737154 0.039453685 0.04784334 0.083892144 0.07628105 -0.053543605 -0.002200394
0.09619123 -0.08660013 -0.03696126 -0.070814565 -0.030433327 0.07680018 -0.04597229 -0.063114464
-0.019854356 0.068339065 -0.025951285 0.061393265 0.038304064 0.069021516 -0.08750875 0.07799276
-0.07848505 0.017293794 -0.07378299 -0.021566583 0.0034454882 0.01491368 0.012682058 0.007549488
0.029640645 -0.05085829 0.009867398 0.05303101 0.061668243 0.031848125 0.020170923 0.0008328786
0.025054857 0.0150789125 0.050895423 0.09121171 -0.012165395 0.09937909 0.09698407 0.00031735838
0.0006834753 -0.015275259 -0.0025568195 0.016613599 0.012483948 0.0014687463 0.070177115 -0.04377316
-0.07285658 -0.053663492 0.058119822 0.087102875 0.09531054 0.074565575 0.0624731 -0.032593597
0.09564978 -0.08692611 -0.010233996 -0.09045851 0.09226637 0.07917756 -0.08735909 -0.0335976
-0.020007066 0.04540397 -0.03321941 -0.10459624 -0.0011032742 0.030390685 -0.0030805676 -0.10833015
0.082458235 -0.07444206 0.070248865 0.086165816 0.080450475 0.111242875 -0.09881719 -0.030723402
0.09614316 0.038732298 -0.052695774 -0.014795694 -0.019195214 0.030921299 -0.08752047 -0.093375325
0.08290745 0.024707435 -0.07685575 -0.06181154 0.0930389 0.090455405 0.039809607 0.10623899
0.07674298 -0.051599793 0.0064256703 -0.01226071 -0.03034062 -0.033307604 0.0052995468 -0.06736549
-0.0510793 0.018007265 -0.012749896 -0.028692769 0.093518786 -0.059130542 -0.06570415 -0.09301134
00000000: d465 86bb 5195 ac3c ac2f 95bd b572 ccbd
00000010: ccb2 863c 063f 4bbd 4ffb 723d 9ce3 69bd
00000020: 4180 f53c 59bc 253d eb3f 3ebd 4c21 0bbd
00000030: 3e22 8fbd a124 8a3d 1298 3bbd 63b8 b33d
00000040: 3d70 fe3b 24de a0bd b935 02bd 79bc b83d
00000050: 53fa a23d 996f a5bd 39fd 903c feda 55bc
00000060: 0ca3 c1bd f6d2 bcbc 651f 0a3d aa15 553c
00000070: 112c 05bd 3cec c0bc 2faf b4bd 3c3e 8ebd
00000080: f7b2 9f3d acf2 12bc 43a0 f3bc 2301 fabb
00000090: 6a6e 583d 39a0 603d 7703 883d 16ce 02bc
000000a0: 31c0 753d b527 933d 330b b7bd 27f8 3d3d
000000b0: 41b3 9bbd cb27 c6bd 768b 38bd 0641 cbbd
000000c0: 0475 1a3d 5baa 133d 1edc e03c 21ec 90bc
000000d0: c64f a3bd 1305 7dbd bacf ba3d da28 c6bd
000000e0: ab4f b7bd 9ded 8dbd 1f05 5abd 1c9c c0bd
000000f0: 7e3d 9fbc c0a6 583d 5c61 02bc 8ae6 c1bd
00000100: 616f 16bd e525 bc3c 3f8c 383c a1db 9b3d
00000110: 67f6 6cbd 9016 2f3d ba10 353d 0e66 323a
00000120: 7f5b dcbc 769b 873b 4b6e 69bd fbc0 5b3d
00000130: 5c6d 3f3d 3790 243d 4a44 973d c58e 5dbd
00000140: fd47 37bd 661e b3bc 0dd1 c63d 47ed 393d
00000150: 1e2d c5bd fd98 b93d 51e6 3e3d ddb2 11bb
00000160: c0cf 9c3c cc21 3abd 4bc5 983c 778a 973d
00000170: 94ae b4bd 5b2d 2c3d 27b2 42bd 5e1b 62b8
00000180: 5b4f 2e3d f647 cfbc eef9 95bd 002d 7c3d
00000190: 023d b43d 142d 743b 803c 85bb e198 19bd
000001a0: 45f1 23bd 2791 bd3d 608e bd3d 8099 a7bd
000001b0: 18eb 033d 95ea 6abd 62ed a5bd 6514 b93d
000001c0: 711a 4d3d 0219 83bc 7c63 643d 1232 86bd
000001d0: e1e5 553c 31af 2dbd cafb b03c 7605 be3d
000001e0: 5bb2 0b3d 313a 493d 2289 b8bd ee0c 57ba
000001f0: cffc d1bb 2fee 9ebc d52b 0f3d 94e3 fcbc
00000200: f6dd a53d 7533 c3bc 53ad babd d7f9 b1bd
00000210: cfa1 933d e6fc ea3b fd68 423d 70a5 703d
00000220: d68d 46bd d0af a13c 309a 213d 61f7 433d
00000230: a5cf ab3d 3d39 9c3d 8a50 5bbd 7c34 10bb
00000240: e8ff c43d 695b b1bd b164 17bd 3a07 91bd
00000250: 504f f9bc 6a49 9d3d 714d 3cbd 2842 81bd
00000260: 9aa5 a2bc 5af5 8b3d ca97 d4bc 8177 7b3d
00000270: b9e4 1c3d 275b 8d3d ca37 b3bd abba 9f3d
00000280: c5bc a0bd b7ab 8d3c 891b 97bd 67ac b0bc
00000290: b3cd 613b 8258 743c 68c8 4f3c b261 f73b
000002a0: f0d0 f23c c850 50bd deaa 213c 0b37 593d
000002b0: d797 7c3d 2e73 023d 7e3d a53c 8955 5a3a
000002c0: d83f cd3c 8b0d 773c b877 503d 34cd ba3d
000002d0: 5d51 47bc 4487 cb3d 969f c63d 1f63 a639
000002e0: 402b 333a 1445 7abc 5090 27bb 3e19 883c
000002f0: 7989 4c3c f382 c03a 05b9 8f3d 7c4b 33bd
00000300: d535 95bd 40ce 5bbd 0d0f 6e3d fe62 b23d
00000310: 2c32 c33d d6b5 983d cbe3 7f3d dd80 05bd
00000320: 08e4 c33d 5106 b2bd 7eac 27bc 5042 b9bd
00000330: 27f6 bc3d d827 a23d 53e9 b2bd a39d 09bd
00000340: dce5 a3bc 83f9 393d 1311 08bd 8e36 d6bd
00000350: bd9b 90ba e3f5 f83c 59e3 49bb 33dc ddbd
00000360: dddf a83d 1475 98bd a3de 8f3d b477 b03d
00000370: 38c3 a43d 4ed3 e33d ab60 cabd a5af fbbc
00000380: b4e6 c43d c2a5 1e3d 86d7 57bd a369 72bc
00000390: 483f 9dbc aa4e fd3c ef3d b3bd 903b bfbd
000003a0: 62cb a93d 3f67 ca3c 8c66 9dbd 192e 7dbd
000003b0: 2e8b be3d af40 b93d 660f 233d d493 d93d
000003c0: 6c2b 9d3d 4e5a 53bd 6e8e d23b 25e1 48bc
000003d0: e48c f8bc 8e6d 08bd d2a7 ad3b ebf6 89bd
000003e0: 8738 51bd f983 933c f1e4 50bc 190d ebbc
000003f0: c786 bf3d de32 72bd e68f 86bd bb7c bebd

gru.bias_ih_l0_reverse f4 [300]
-0.084976055 0.0567817 0.06977102 0.077467136 0.048507072 0.07661133 0.06048891 0.08268839
0.064561866 0.056567315 -0.08280065 -0.040182218 0.013302616 -0.008850832 0.04392957 0.020740682
0.078005426 0.07266926 0.03421219 0.070382245 0.05034198 -0.024762362 0.09874072 0.04817569
-0.039801292 0.035044707 -0.05536063 -0.0064855195 0.0741798 0.06933707 0.06347206 0.11418484
0.01762612 -0.00690894 -0.056465358 0.08288396 0.11671549 0.07683101 -0.027158435 0.12042682
0.05297235 0.104344636 0.08756821 -0.0026851534 0.10338861 0.089284346 0.04752689 0.009592841
0.014635815 -0.035095282 0.051247705 0.06160344 -0.08502241 0.05438393 0.08210989 -0.010424093
0.09507594 -0.023183085 -0.025133368 -0.023432348 -0.058832217 0.008123995 -0.06051531 0.06476712
-0.08586642 -0.017281951 0.071855344 0.07935498 0.03485901 -0.072747804 0.05531183 0.06383609
0.057510752 0.04536263 0.065669015 -0.041124426 0.11858225 0.05828394 0.062153056 0.04317484
0.13054124 0.05683205 0.00885357 -0.0043097646 0.088215314 -0.007904524 0.030319031 -0.05770002
0.030994857 0.04689722 0.019408574 0.051556464 0.09575947 0.037185982 0.043871175 0.10482827
-0.010954468 0.08674282 -0.05732488 0.06438871 0.06077839 0.058892228 -0.028759046 -0.091315225
-0.000779248 0.059455458 -0.017559854 0.07339078 -0.02280766 0.026176102 -0.061321273 -0.01321534
-0.09559072 -0.06423261 0.002249722 -0.048902225 -0.13102147 -0.018620806 -0.04798418 -0.10193015
0.07783329 0.047297165 -0.0875359 -0.0786794 -0.12583451 0.07909286 -0.06002522 0.023711935
-0.06848784 0.07224709 -0.089799784 -0.13231473 -0.08337201 -0.05185372 0.0242001 -0.008063712
-0.007960069 -0.05356221 -0.033945575 -0.116236046 -0.10743745 -0.071293294 0.048900668 0.03003112
-0.035724487 -0.12358925 0.018469524 -0.15442777 0.01786644 0.039989293 -0.043417033 0.020369956
0.03758945 -0.04220616 0.038815398 -0.11949215 -0.06869143 -0.09388571 0.009147027 0.04504274
0.03152298 0.028178478 -0.054757897 -0.049220882 -0.01656129 0.051209707 0.011609869 0.026692647
0.014546438 0.06854159 0.0023075363 0.007175201 -0.11492113 -0.13129583 0.036095873 0.0024936448
0.00092143536 -0.06749758 -0.03250279 0.07378489 -0.13756728 -0.1021944 0.05049175 0.033213753
-0.0009493579 0.038948815 0.029562842 -0.059938718 -0.0020168151 -0.033541843 -0.13247155 0.06042727
0.04550851 0.0050868266 -0.044307422 0.04113756 -0.082748264 -0.13644809 -0.072473705 -0.097000025
0.054970987 0.09974079 0.02681506 -0.05997302 -0.1086306 -0.15549049 -0.07492338 -0.0048792595
-0.01623878 0.1578201 -0.015820758 -0.12046341 -0.012705453 -0.04399937 0.10652575 -0.07856251
-0.048530485 0.18647209 -0.0077905 0.14035685 -0.09656616 0.18330653 0.035371065 0.061837398
0.009812939 0.044967026 -0.15486905 -0.022703713 0.032960013 -0.061997827 -0.0620367 0.047305886
-0.11214039 -0.028882692 0.057718746 -0.082778014 0.026147502 0.10166524 -0.053966407 0.09965835
0.0118231075 -0.037592087 0.06532612 -0.09715936 0.14509316 0.011728411 -0.01139519 -0.09467875
0.19084238 0.08285548 -0.0963578 -0.1727116 0.05442577 -0.09012748 0.14359404 -0.015881537
00000000: ed07 aebd ee93 683d 1ce4 8e3d 17a7 9e3d
00000010: 5aaf 463d 67e6 9c3d 38c3 773d 8858 a93d
00000020: 0339 843d 21b3 673d 6393 a9bd 1c96 24bd
00000030: 37f3 593c 1403 11bc 7eef 333d 5de8 a93c
00000040: 4fc1 9f3d 9fd3 943d 1522 0c3d 9124 903d
00000050: 6433 4e3d 70da cabc 9338 ca3d df53 453d
00000060: ae06 23bd 0a8b 0f3d d4c1 62bd 7b84 d4bb
00000070: 94eb 973d 9800 8e3d a4fd 813d bed9 e93d
00000080: a764 903c 6464 e2bb 3848 67bd 11bf a93d
00000090: 8808 ef3d 9459 9d3d 5e7b debc 56a2 f63d
000000a0: 89f9 583d a4b2 d53d f656 b33d 66f9 2fbb
000000b0: 68bd d33d b6da b63d 8eab 423d 4b2b 1d3c
000000c0: 0fcb 6f3c 12c0 0fbd 1de9 513d e453 7c3d
000000d0: 3b20 aebd afc1 5e3d 3b29 a83d d1c9 2abc
000000e0: 2db7 c23d 74ea bdbc 7ee4 cdbc 32f5 bfbc
000000f0: 0dfa 70bd 811a 053c e7de 77bd a0a4 843d
00000100: bcda afbd e192 8dbc e528 933d dd84 a23d
00000110: 52c8 0e3d cdfc 94bd a88e 623d 7fbc 823d
00000120: 6590 6b3d 2ace 393d 7a7d 863d 1672 28bd
00000130: 40db f23d 24bb 6e3d 3494 7e3d 1ad8 303d
00000140: 9aac 053e b9c8 683d 900e 113c ed38 8dbb
00000150: 3baa b43d fa81 01bc 9e5f f83c db56 6cbd
00000160: ede8 fd3c 4d17 403d bbfe 9e3c df2c 533d
00000170: 8a1d c43d 5450 183d 43b2 333d 34b0 d63d
00000180: 5e7a 33bc 38a6 b13d 7ecd 6abd 3ade 833d
00000190: c3f2 783d fa38 713d 1798 ebbc 7a03 bbbd
000001a0: 7346 4cba 9187 733d afd9 8fbc e84d 963d
000001b0: 21d7 babc 446f d63c 042c 7bbd 2785 58bc
000001c0: 11c5 c3bd 638c 83bd 1270 133b b34d 48bd
000001d0: 7e2a 06be a98a 98bc 0f8b 44bd c1c0 d0bd
000001e0: 0f67 9f3d acba 413d 0646 b3bd aa22 a1bd
000001f0: c3da 00be 70fb a13d 01dd 75bd 883f c23c
00000200: 5a43 8cbd 48f6 933d f3e8 b7bd 837d 07be
00000210: f2be aabd 9164 54bd 4a3f c63c a91d 04bc
00000220: f36a 02bc 0c64 5bbd 840a 0bbd 2a0d eebd
00000230: 2a08 dcbd 3802 92bd 114c 483d d303 f63c
00000240: d753 12bd 5c1c fdbd 664d 973c 5022 1ebe
00000250: a45c 923c d0cb 233d 0fd6 31bd e5de a63c
00000260: 65f7 193d 5ee0 2cbd e5fc 1e3d 4db8 f4bd
00000270: 18ae 8cbd 2747 c0bd 69dd 153c bc7e 383d
00000280: 3e1e 013d 8dd6 e63c d149 60bd d69b 49bd
00000290: 8bab 87bc 45c1 513d 5237 3e3c 8aaa da3c
000002a0: 2f54 6e3c 885f 8c3d 093a 173b f31d eb3b
000002b0: c55b ebbd 6a72 06be 44d9 133d 6b6c 233b
000002c0: 7b8c 713a 2c3c 8abd a521 05bd 881c 973d
000002d0: 70de 0cbe 4c4b d1bd 70d0 4e3d 250b 083d
000002e0: 55de 78ba cb88 1f3d c62d f23c 4d82 75bd
000002f0: 8b2c 04bb 2c63 09bd 9fa6 07be 9682 773d
00000300: 2267 3a3d 65af a63b b37b 35bd dc7f 283d
00000310: ec77 a9bd 0cb9 0bbe 186d 94bd f3a7 c6bd
00000320: 4229 613d e644 cc3d 42ab db3c 45a6 75bd
00000330: b879 debd e638 1fbe 6e71 99bd 32e2 9fbb
00000340: 3107 85bc 989b 213e 899a 81bc 85b5 f6bd
00000350: 882a 50bc af38 34bd 2c2a da3d 62e5 a0bd
00000360: e7c7 46bd 8af2 3e3e 7347 ffbb b5b9 0f3e
00000370: 7bc4 c5bd b5b4 3b3e 40e1 103d 3649 7d3d
00000380: 73c6 203c 582f 383d fe95 1ebe 23fd b9bc
00000390: 1401 073d 6ff1 7dbd 321a 7ebd d1c3 413d
000003a0: dca9 e5bd 659b ecbc 7e6a 6c3d 8587 a9bd
000003b0: 4933 d63c de35 d03d e10b 5dbd ad19 cc3d
000003c0: b5b5 413c 29fa 19bd b3c9 853d 7dfb c6bd
000003d0: 4d93 143e 8528 403c e4b2 3abc efe6 c1bd
000003e0: 2f6c 433e 22b0 a93d 3d57 c5bd 4fdb 30be
000003f0: 8eed 5e3d c294 b8bd 510a 133e ff19 82bc
