parameter/linear_share.pth (torch_old, 566573 bytes, 10 tensors)

gru.weight_ih_l0 f4 [300, 100]
000000 eb 11 ac 3c 45 c1 99 3d 21 df 7b 3d e4 ef 2f bd
       0.021004638 0.07507566 0.06149209 -0.042953387
000010 a2 8d aa 3c df 02 50 3d e2 e5 31 3c af 58 d6 bc
       0.020819489 0.050783988 0.010858031 -0.026165335
000020 5d 40 5f bd 6a ee 50 3d 46 18 5b bd 76 57 a5 bc
       -0.05450474 0.05100862 -0.053489946 -0.020183306
000030 94 9a 8a bd cf 95 00 be b2 7a 89 3c 2b e7 b0 3d
       -0.06767765 -0.12557147 0.016782138 0.08637842
000040 a3 77 c0 bd 99 02 82 bd 14 03 83 bd f3 7b 7b 3c
       -0.09397819 -0.06348152 -0.063970715 0.015349376
000050 23 6a 66 bc f6 ac c5 bd 1a a6 87 bd 9b c7 87 3d
       -0.014063391 -0.0965213 -0.06623478 0.066298686
000060 de 1a 2d bd e4 8f a3 3d 6c 6b ea 3c 23 e2 b3 3d
       -0.04226195 0.07986429 0.028615676 0.087833665
000070 98 65 16 bc 5c 6d 1f bd 62 bd 07 bd 8b 64 2f bd
       -0.009179495 -0.038922653 -0.033139594 -0.042820495
000080 ad 0c 14 3e 8c d1 04 be f2 0f ad 3d a8 fb 1e bd
       0.1445796 -0.12970561 0.08450307 -0.038814217
000090 b2 9d bb bd 3e 68 59 bb 8a ce 4b bd 77 89 28 3d
       -0.09160937 -0.0033173705 -0.049757518 0.04114672
0000a0 ac 70 88 3c a8 24 8d 3d 6e 1a ae bd 6d ca 91 3c
       0.016655289 0.06891757 -0.08501135 0.01779672
0000b0 09 63 1a 3e 41 e6 bc 3c bf d2 8d bd 15 43 cd 3d
       0.15076841 0.023059012 -0.06924962 0.100225605
0000c0 6f 32 8b bd b0 07 95 3d 31 de 06 be a2 c5 fb bd
       -0.06796729 0.07276857 -0.13170697 -0.12293555
0000d0 82 77 b1 3d bc 13 1c 3b 93 c4 ba 3d 68 42 a2 3c
       0.086653724 0.0023815474 0.09119525 0.019807056
0000e0 db 1b 64 3c b0 b7 21 3d 1e a7 d5 3d 3b 4a 5b 3d
       0.013922657 0.03948182 0.10432266 0.05353759
0000f0 6c bc 14 3d c0 b4 e4 3b 8b 87 28 bc 07 65 80 bc
       0.036312506 0.006979555 -0.010286222 -0.015673174
000100 33 6d fa bd 22 3b 2b 3d a8 90 3e 3d 3d 4c 17 bd
       -0.12227859 0.04180444 0.046524674 -0.03693794
000110 ce 27 3e 3d 00 d4 63 3d b5 73 9a 3d 3e 19 cc bb
       0.04642468 0.0556221 0.075416006 -0.006228595
000120 13 6c 21 3e 62 23 b1 bb 97 f4 2c 3d 6c 7b 20 bd
       0.15763883 -0.0054058293 0.042225447 -0.039180204
000130 99 c1 0e bd 1c 74 ed 3d 4c cf e2 3d 07 a1 b0 bd
       -0.034852598 0.11594412 0.11074695 -0.086244635
000140 e1 f2 a8 3d 30 c8 1a be 22 2c 25 bd 62 6b 06 3e
       0.082494505 -0.15115428 -0.04032529 0.13126901
000150 b6 75 38 3d f5 06 76 3d 6d 38 8f 3d de 39 33 bd
       0.045034133 0.06006523 0.06993184 -0.04375636
000160 c4 9a 05 3d ef 7e 87 3c 02 a9 46 bd 57 f6 a2 bd
       0.0326183 0.016540019 -0.048501022 -0.07957142
000170 f3 fa 53 3c 84 6e 87 bd c4 89 bd bd 57 94 8e bb
       0.012938249 -0.06612876 -0.09254792 -0.0043511796
000180 c3 ae 7b 3d bc 19 ca 3c fd cf 67 bd 1d d2 ef 3c
       0.061445963 0.024670474 -0.056594837 0.029274995
000190 49 90 0e 3e c7 fb 64 3d 0f da 8a 3c 59 f9 80 bc
       0.13922228 0.055904176 0.016949682 -0.015743898
0001a0 a6 d2 fa bd a2 62 ad bc 85 5d 9b bd c8 51 3e bc
       -0.12247209 -0.021165196 -0.07586197 -0.011616178
0001b0 33 0d 5a 3c 93 79 04 3c 4c cc 4a 3c cd 5d 3b bd
       0.013308811 0.008085626 0.01237781 -0.045743752
0001c0 42 c2 8f bd 0f 9c 41 3d 18 a9 54 3d 93 56 e2 bc
       -0.070194736 0.04726797 0.051919073 -0.027629172
0001d0 22 7f 1e bc 36 19 8d 3d 1d 84 63 3d cf 55 9b 3d
       -0.0096738655 0.06889574 0.055545915 0.07584726
0001e0 1f 85 9b bd 7a d8 8b bd b3 a6 1b be 24 9b 43 3d
       -0.0759375 -0.06828399 -0.1520031 0.047755376
0001f0 d4 69 0f 3e 3f 8e 0e 3e 1a b8 94 bd 9e c6 aa bc
       0.14005214 0.1392145 -0.07261677 -0.020846661
000200 bd 2c 29 3d 4b a8 a9 3d f3 1b 7d bd 6a a6 83 bd
       0.04130243 0.082840525 -0.061794233 -0.06428225
000210 13 e5 14 3e 72 5d 39 3d 36 66 fa 3a ef bd a3 bb
       0.1454051 0.045255132 0.0019103948 -0.004997007
000220 7f eb 52 3d 45 d8 dd 3d 39 5e e7 bd 8c 34 a7 3c
       0.051494118 0.10832266 -0.112972684 0.020410798
000230 cf ce 39 3e b8 a5 85 3d cd 0e db bc 69 09 5b bd
       0.18145297 0.06525749 -0.026740456 -0.05347577
000240 13 35 85 bd c0 6e 80 bd 3f 87 b1 3d f1 e3 a1 3d
       -0.06504264 -0.06271124 0.08668374 0.079048045
000250 c5 1b 4a bd 9e 6c 6a 3d e5 23 96 bd 44 42 91 3b
       -0.04934289 0.05723249 -0.07331065 0.0044329483
000260 08 38 56 bd 75 b4 f0 bd e2 f3 f2 3c 81 d5 20 be
       -0.05229953 -0.117531694 0.029657308 -0.15706445
000270 1f f2 74 bd 96 1d 4a 3e 2e 16 89 3d 6e 09 2a 3d
       -0.059801217 0.19737849 0.066936836 0.0415129
000280 70 1c 46 3e 85 16 03 bd 73 58 4d 3b b3 fb 2b 3e
       0.19346786 -0.0320039 0.0031333237 0.16795234
000290 e2 e1 47 3d 32 0a b0 bd 18 b3 43 bc 55 f9 b9 3d
       0.048799403 -0.085956946 -0.011944555 0.090807594
0002a0 03 12 18 be 32 3e 4d bd f3 68 d5 3d 38 19 37 3d
       -0.14850621 -0.050108142 0.10420408 0.044701785
0002b0 26 75 0a 3d 5d 32 8f bc 82 dc df bd e5 54 13 be
       0.033803128 -0.01748007 -0.109307304 -0.14387853
0002c0 41 df 82 3d bf 6e 5f 3c 07 6c b0 bc d7 8e 13 bc
       0.063902386 0.013637244 -0.021535886 -0.009006224
0002d0 f9 97 37 bd 05 2f d6 bd 70 91 f3 3d 2f fe f0 3c
       -0.044822667 -0.10458187 0.118929744 0.02941808
0002e0 2c 22 28 3e de 3a a7 3d 2f 02 9a bd 53 bb 69 bd
       0.16419286 0.08165525 -0.07519948 -0.057063412
0002f0 87 26 cf bd 73 67 c6 3d 9a 26 f9 bd 45 02 32 3d
       -0.101147704 0.096877 -0.12165566 0.043459196
000300 49 2a 2c 3d 7b 84 60 be 67 48 42 3c 11 92 f2 bc
       0.042032514 -0.21925537 0.011858082 -0.029610666
000310 c7 f4 dc bd d2 46 3c be 33 30 e6 bc bb 4d a2 3d
       -0.10788875 -0.18386391 -0.028099155 0.07924982
000320 c6 c1 c1 3b 4f a3 29 3b 9c d0 34 bd 98 a0 18 bd
       0.005912992 0.0025884693 -0.044144258 -0.03726253
000330 a7 04 1a 3d 51 94 8b 3c 71 ef 79 bd cf 81 de bb
       0.037602093 0.017038496 -0.061019365 -0.0067903767
000340 76 bd 43 bd fd 1c 6c 3c b9 17 f2 bc 02 07 af bd
       -0.047788106 0.014411208 -0.029552327 -0.085462585
000350 cc 57 8e 3d 3b 29 93 bd be e3 45 3c 81 3a 81 3d
       0.0695034 -0.071855985 0.012078224 0.06309987
000360 1b ee 01 3e e2 cd 5d bd a0 3b fc bc 97 49 96 bd
       0.12688486 -0.054151423 -0.03079015 -0.07338255
000370 fa bd c8 3d bd 06 8b 3d 00 54 eb 3d 29 70 6f bd
       0.0980186 0.067883946 0.11490631 -0.058456574
000380 d2 d1 60 3d 1c 6b c9 bd b9 25 47 bc 80 99 b5 bb
       0.0548876 -0.098348826 -0.01215499 -0.0055419803
000390 1a 64 a4 3c 79 d7 e4 bd c7 3e f5 bd e0 b9 53 3b
       0.020067263 -0.11173911 -0.119748645 0.0032306835
0003a0 e4 80 86 3d f2 a4 01 3e 5f 93 09 3d dd d7 55 3d
       0.06567553 0.12660578 0.03358781 0.052207816
0003b0 a0 d2 b1 3c 21 a0 b2 3d af f8 bf bd 8d 9b d6 3d
       0.02170688 0.087219484 -0.093736045 0.10478888
0003c0 8d 6c 80 bd 0d 61 9a 3d 22 52 da 3b f1 e7 0e bd
       -0.062707044 0.07538042 0.006662623 -0.034889165
0003d0 87 fa f0 3c 44 7d a2 bd 57 ad d5 3d 68 93 a6 3c
       0.029416336 -0.07934049 0.104334526 0.02033396
0003e0 dc f3 52 3d 60 ac 67 bd ff a8 ac bd be b8 83 bd
       0.051502094 -0.056560874 -0.08430671 -0.06431721
0003f0 18 52 ba bd a0 dc b3 bc 10 cb b1 bd bd f7 03 3b
       -0.090976894 -0.021955788 -0.08681309 0.0020136677

gru.weight_hh_l0 f4 [300, 100]
000000 29 48 b7 3d e6 00 73 3d 6d 05 01 bd 3c 31 b9 3d
       0.0894931 0.05932703 -0.031499315 0.09042594
000010 56 df a6 bd e1 6f 97 bd 2a 06 69 bc 35 89 9d bc
       -0.08148067 -0.07394386 -0.014222661 -0.019230464
000020 9b f5 cd bc ab 33 22 bd 6f da b4 bd 31 0a 79 3d
       -0.025141528 -0.039600056 -0.088307254 0.060800735
000030 cd 6f be bd 34 ed 47 bd 71 42 8d 3b 00 c3 eb 3c
       -0.09298668 -0.0488102 0.004310899 0.028779507
000040 2f a6 96 bc 3a f3 2d bd de 34 73 bd 1c 32 73 bd
       -0.01838979 -0.042468287 -0.05937659 -0.05937396
000050 7e 55 30 bb 48 0e 7f 3b 3b ff da 3d 80 55 a8 bd
       -0.0026906426 0.0038918424 0.106932126 -0.08219433
000060 b2 8a 99 bd af fc 0d 3e 67 16 a9 3d 54 63 0c 3b
       -0.07497157 0.13865922 0.08256226 0.002142151
000070 c2 86 47 3a 16 62 ae 3d d7 f2 ba 3d 2b 2f a4 bd
       0.0007611328 0.08514802 0.09128349 -0.08016809
000080 61 85 19 3e f8 f7 33 3d bb c4 68 bd 1e e6 4d 3d
       0.14992286 0.043937653 -0.05682824 0.050268285
000090 88 54 9e bd cb 7a ca 3d ec eb 7a 3b 22 b5 e4 3d
       -0.07730967 0.09886702 0.0038287593 0.11167361
0000a0 c6 08 4d bc 3f 9f 74 bd 61 b8 ff 3c 6f c6 a7 bd
       -0.012514299 -0.05972218 0.031215848 -0.08192145
0000b0 74 1a da 3c 52 42 5b 3c 53 6b a5 3d d6 3f c3 bd
       0.026623942 0.013382511 0.08077111 -0.0953366
0000c0 c9 b9 b4 bd 8c 91 d9 3b 43 33 94 3d ac 81 e3 3b
       -0.08824498 0.006639665 0.0723634 0.0069429483
0000d0 32 ed 11 bd 2d 86 49 3d 1b 64 28 3d 54 3f a4 3c
       -0.035626598 0.049200226 0.041111093 0.020049728
0000e0 35 4d 97 3c 30 e3 0c be f8 dc 70 bd 3a 94 15 bd
       0.018469432 -0.1375854 -0.058804482 -0.036518313
0000f0 81 4c 06 bd 28 39 7e bd eb 9c 8c 3b 17 95 f0 bd
       -0.032787804 -0.062066227 0.004291167 -0.11747187
000100 47 6c b8 bc 37 6a 16 bd bb 46 8c 3c 98 3d ed 3d
       -0.022512568 -0.036722388 0.01712357 0.11584014
000110 45 da a0 bd 64 fb 7e 3d 44 0c a4 3c 81 4c c0 bd
       -0.078541316 0.062251464 0.02002538 -0.09389592
000120 b9 44 97 3d c5 dc 67 bb 3d 95 b9 bd d7 a9 af bd
       0.07386155 -0.0035379392 -0.09061668 -0.08577316
000130 0a f7 8b 3c 8f 1b 9f 3d c5 10 fe bc f3 3a 47 3d
       0.01708557 0.07768928 -0.031013856 0.048640203
000140 99 94 11 3e ff bf bc bb 9b 2a 85 bd 6f 93 94 bd
       0.14216842 -0.0057601924 -0.06502267 -0.07254683
000150 a8 0b 83 bd 23 f8 bf 3d 80 0b c8 3a 57 36 be 3d
       -0.06398708 0.093735 0.0015262216 0.09287708
000160 1a 51 93 bd 43 97 dc bb 0d f8 1f 3d cb 06 ed 3d
       -0.07193203 -0.006731899 0.03905492 0.11573561
000170 55 8e e6 bc bc 13 51 3d f3 b5 e2 3d 72 f8 14 bc
       -0.028144041 0.05104421 0.1106986 -0.009092437
000180 2a af b5 bd 17 9c 28 3d 0e d8 c3 bc 6c 82 ca 3d
       -0.088713005 0.041164484 -0.023906734 0.09888157
000190 d6 40 74 3d 16 7a 01 bc 5a 86 8e bd f4 69 64 3d
       0.059632145 -0.007902643 -0.06959219 0.055765107
0001a0 24 46 c6 3d 1a e3 73 3d bc 80 52 bd e3 a1 4f bc
       0.09681347 0.059542753 -0.051392302 -0.012672874
0001b0 8e 51 a0 3d 10 4c f9 39 47 fd a3 3d 0a 24 92 3d
       0.07828055 0.00047549652 0.08007293 0.0713578
0001c0 ee 88 05 3d 53 ce d8 bc bd c6 16 3d dd f8 5f bb
       0.03260129 -0.02646557 0.036810625 -0.0034175434
0001d0 bd ff 0f 3e 4c 9f c3 bc 3e 51 23 bd 94 f9 43 3b
       0.140624 -0.02387967 -0.0398724 0.0029903399
0001e0 4a 63 82 3c 48 e0 ef 3d 73 a0 de 3d e8 c7 c0 3d
       0.015916485 0.117127 0.10870447 0.09413129
0001f0 8e b6 89 3d e1 03 22 39 84 ab 86 3b 7b ed 86 3d
       0.06724273 0.00015450969 0.0041098017 0.065882646
000200 f0 96 8f bb 88 2f 1e 3d ef 29 1e bc ef fc 67 3d
       -0.004382007 0.038619548 -0.009653552 0.0566377
000210 94 cb ba 3b b3 0d 71 3d 3c bc 9e ba 9f 61 72 bd
       0.005700538 0.058850955 -0.0012110542 -0.05917513
000220 c4 32 15 bd f1 2e 88 3d 9d 4a 1c bd ee 3a 3f bd
       -0.036425367 0.06649578 -0.038157094 -0.04668706
000230 86 e9 7f 3d 06 94 5d 3c 1b 64 38 bc 68 f7 22 bc
       0.062478565 0.013524061 -0.011254336 -0.009946682
000240 15 a3 94 bc 22 72 aa bb 6c 32 e2 bd 9f 47 fa 3d
       -0.01814417 -0.005201594 -0.110447735 0.12220692
000250 37 82 84 bd 59 eb d1 3d ff 6e 96 bd 98 05 8b 3d
       -0.06470149 0.10249967 -0.073453896 0.06788176
000260 13 54 78 3d c1 50 5c bc 8a 40 e5 3c 99 87 83 3d
       0.060627054 -0.013446988 0.027984876 0.064223476
000270 77 4f 33 3c 95 6a 45 bd 18 aa 80 bd c8 16 81 bd
       0.010944239 -0.048197348 -0.06282443 -0.06303173
000280 b8 b6 03 bd a1 29 7b bd 05 fa d6 bd 49 25 94 bc
       -0.032156676 -0.061318997 -0.10496906 -0.018084185
000290 82 4e 33 3d 20 9e 7a bc a6 fb d2 3d ea 4d f5 3d
       0.043776043 -0.015296489 0.103019044 0.119777516
0002a0 5b 52 bb bd 3e 71 3f 3d aa 9f b2 3c 1d 74 ed 3b
       -0.091465674 0.046738856 0.02180465 0.007246508
0002b0 3a 04 fd 3c 55 d6 1c bd 29 b7 ef bd 5a 17 81 3c
       0.030885804 -0.03829034 -0.11704857 0.015758205
0002c0 0e 04 94 bd 6c 53 48 bd 1a be 20 bd 74 17 7c bc
       -0.07227336 -0.048907682 -0.039243795 -0.015386451
0002d0 da 65 81 3d 56 82 67 bb a2 74 f1 bd 37 60 8a 3d
       0.06318255 -0.003532549 -0.11789824 0.06756633
0002e0 e3 72 62 bd a2 63 d2 3d db 89 8a bc 42 0f d7 bd
       -0.055285346 0.1027291 -0.016911438 -0.10500957
0002f0 b3 2a 83 3d 51 ba ca 3c a8 34 0b bd 12 17 71 3d
       0.064046286 0.024747046 -0.033985764 0.058859892
000300 8e 8d 33 bd 99 14 0a 3e 44 eb 81 3c 83 7f 8a bd
       -0.04383617 0.1348442 0.015859254 -0.06762602
000310 73 01 3b 3c 43 c4 f9 3c 24 50 36 bd 53 78 61 bd
       0.01141392 0.030489093 -0.04451002 -0.05504639
000320 0c a7 d9 bc fa 9d 71 3d bd 82 64 3d 5a 81 36 3d
       -0.026568912 0.05898855 0.055788744 0.044556953
000330 ba c6 8d bd c9 00 ad bc bf 60 c4 bc 3c aa 84 3d
       -0.0692267 -0.021118538 -0.023971913 0.06477782
000340 55 d4 64 bc c1 3f 5d bd 77 cd 60 3d 24 ae 4d 3d
       -0.0139666395 -0.05401588 0.054883447 0.0502149
000350 dc 2b fa 3d 05 96 1e bd 8b 06 4b 3d bf 62 a9 3d
       0.12215397 -0.03871729 0.049566787 0.082707874
000360 90 64 a0 3d ad 1d ea bb 69 b3 bd bc 55 39 a8 3d
       0.07831681 -0.007144651 -0.023156838 0.0821406
000370 35 ea 2d 3d bd c8 43 3d ee 64 27 3d ed 9b 33 bd
       0.042459685 0.04779886 0.04086774 -0.043849874
000380 78 a2 27 bd 2b 10 67 bd c7 09 2e bd b8 65 7c bd
       -0.040926427 -0.056411903 -0.042489793 -0.061620444
000390 88 97 16 3c d9 bf e7 3c d3 42 a3 3d fc 3b 17 bd
       0.009191401 0.028289722 0.0797173 -0.03692244
0003a0 8d cb 60 bd 75 d7 97 bd 41 73 3b 3d dd 91 57 3c
       -0.05488162 -0.07414142 0.04576421 0.013157335
0003b0 53 36 65 bc bb 4a 3d 3b 66 12 ba 3d 10 1c 5d bd
       -0.013990003 0.0028883654 0.090855405 -0.05398184
0003c0 de 0d 05 bd 32 fe a5 3d 72 45 94 3d 3d 09 a9 3b
       -0.032483928 0.081051245 0.07239808 0.005158572
0003d0 fc 61 7d 3d 25 51 3c bd db bd 69 bd 7c 52 90 bd
       0.061861023 -0.045975823 -0.057065826 -0.07046983
0003e0 74 b0 41 3b f6 d4 4d 3b 85 b4 90 bd ad 9b e9 bc
       0.0029554637 0.0031407452 -0.07065681 -0.028516615
0003f0 62 84 18 bd ea 48 57 3d 3a 25 bc bc db 04 0e bd
       -0.037235625 0.05255977 -0.02296697 -0.0346726

gru.bias_ih_l0 f4 [300]
000000 09 5d 4c 3d 87 86 3a 3e d4 b7 f2 3d cd f7 35 3e
       0.049893413 0.1821538 0.11851469 0.1777031
000010 c5 9d 11 3e 97 ca 8b 3d a7 b7 a3 3d c4 37 12 3e
       0.1422034 0.0682575 0.07994013 0.14279085
000020 92 e4 61 3d 2a e6 f6 3d 15 72 2b 3c b6 f6 62 3e
       0.055149622 0.12055619 0.010464211 0.22164425
000030 ed d4 12 3e 35 01 c0 3d e5 e0 1d 3e 32 0b 3a 3e
       0.14339037 0.0937523 0.15417822 0.18168333
000040 59 21 01 3e 97 ba 30 3e 41 d4 8c 3d 01 b1 7b bd
       0.12610377 0.17258678 0.06876422 -0.0614481
000050 66 9d 77 bd 4a 1f d4 3d 1f 55 1e 3e 12 bc 55 3d
       -0.06045284 0.103575304 0.15462159 0.05218131
000060 32 b9 c8 3d 40 95 f1 3d 69 51 a1 3d 04 4d bd 3d
       0.09800948 0.11796045 0.07876856 0.09243205
000070 c2 de 15 3d 16 aa 1e 3e 2e ac 0a 3e ff 76 42 3d
       0.03658939 0.1549457 0.13542244 0.047476765
000080 43 3d d5 3d 62 aa 0a bd d4 ec 3a 3e 8e ee 25 3e
       0.10412075 -0.033853896 0.18254405 0.16204283
000090 e2 46 99 3d f1 72 06 3e 8f 9a 73 3c 51 0d 24 3d
       0.07484223 0.13129784 0.014868393 0.040051762
0000a0 bb 6e 6d 3c f8 fd 20 3d ba b8 3d bd 07 56 0c 3e
       0.014491732 0.039304703 -0.046318747 0.13704692
0000b0 7f 72 62 3e 5c 80 aa 3b fe 84 cd 3c f1 9d 0c 3d
       0.2211399 0.00520329 0.02508783 0.034330312
0000c0 b8 e5 7b 3d f6 55 5b 3b 3f f7 81 3c 26 c8 1c 3e
       0.061498374 0.0033467985 0.015864966 0.15310726
0000d0 d3 73 b0 3d 60 28 36 3e dd 1f c5 bc 25 52 80 3b
       0.08615842 0.1778884 -0.024063045 0.0039160424
0000e0 68 a4 de bc db 35 15 3d 6b 23 97 3d 23 a8 3d 3d
       -0.027178004 0.036428314 0.07379802 0.046302926
0000f0 5c 59 e1 3d c3 bb 6d bd 56 21 0b 3d 98 40 74 bd
       0.11003372 -0.05804039 0.03396734 -0.059631914
000100 85 f7 d3 3d 2e 5b 5b 3e ac 1a d2 3d 84 c9 24 3e
       0.10349945 0.21421501 0.102589935 0.16092497
000110 e0 a5 fa 3d a2 09 c3 3d 5e 88 85 bd ff 83 a5 bc
       0.122386694 0.09523322 -0.065201506 -0.020204542
000120 62 76 2b 3b a5 cd 84 3d 3b 10 a7 3d ef c5 c3 bc
       0.002616309 0.06484536 0.081573926 -0.023898093
000130 b4 8b b5 3c 49 79 13 3d c1 e2 e4 3d 9f b1 44 3e
       0.022161342 0.03600434 0.111760624 0.19208382
000140 ce 1c 37 3e f1 49 4a bc 87 ed b1 3c 25 12 02 3e
       0.17882082 -0.012346731 0.021719707 0.12702234
000150 23 ae 4a 3b fe 62 f3 3c 86 2e 39 3e e1 7e 97 3e
       0.0030926547 0.02971029 0.18084154 0.29588988
000160 04 8d 8b 3c 09 1c 1b 3d 7e ea e4 3b 38 23 94 bc
       0.017035015 0.037868533 0.0069859615 -0.0180832
000170 11 b7 c4 3d e3 85 b9 bc 9d 47 a1 3d 90 4d 9a bc
       0.0960523 -0.02264685 0.07874987 -0.018835813
000180 31 df 7d 3d 22 73 e2 bc 3d f7 5c 3d a9 c7 43 3d
       0.06198043 -0.02764279 0.053946722 0.047797833
000190 38 38 5b bc f9 b3 f1 3c 59 91 2c 3d 06 4f 16 3d
       -0.013380103 0.029504763 0.0421308 0.036696456
0001a0 7b 2f 7b 3e 2a c5 bb bd c3 5f b1 bd b2 58 ba 3b
       0.24529831 -0.091684654 -0.08660843 0.005686843
0001b0 29 e5 6a bc fe 4b 23 bd 15 37 d4 3d 2e 3d f0 bc
       -0.014336863 -0.039867394 0.103620686 -0.029326048
0001c0 cb e6 05 3e de 2c 93 3c c5 20 88 3e 42 c2 84 3e
       0.13076322 0.01796573 0.265875 0.25929457
0001d0 93 21 b3 3e 93 d9 37 3e 1e 6b 3d bd 9b 14 d8 bd
       0.34986553 0.17954092 -0.046244733 -0.10550805
0001e0 2f 3a a1 bd 58 d9 fe 3d c5 aa 1c 3e 18 9d 3d bd
       -0.07872426 0.12443799 0.15299518 -0.046292394
0001f0 72 30 0c 3b 29 98 63 3d a9 b1 b2 bc 97 37 44 bb
       0.002139118 0.055565033 -0.02181323 -0.002994036
000200 9d a3 21 3b a2 4b fb bc f3 5e cd 3d f9 30 d4 3d
       0.0024664172 -0.030675713 0.10027876 0.10360903
000210 56 2a 3b 39 65 26 d3 3c 2c d0 82 3e 43 ae ac 3d
       0.00017849481 0.025775144 0.25549448 0.08431675
000220 af 6a 93 bd 9f 14 b0 3d 75 68 9d 3d 49 af 8d 3d
       -0.07198083 0.08597683 0.07685939 0.069181986
000230 77 64 0a 3e c9 32 44 3d 25 51 4e 3a 55 9c d8 3e
       0.13514887 0.047899995 0.0007870368 0.42306772
000240 02 2f 10 3c d9 4e b7 bd cc 8b ea 3d 30 fe 94 3c
       0.00880027 -0.08950586 0.114524454 0.018187612
000250 82 53 9e 3e 79 7d 81 bc 82 28 a7 3d d9 f5 1a 3e
       0.30923086 -0.0158069 0.08162023 0.15132846
000260 c6 26 7a bc 08 78 c4 3d 3f 5a 1e bd 4e 1d d0 bd
       -0.015268033 0.09593207 -0.038660284 -0.101618394
000270 13 87 8f bc d9 2f dd 3c e9 fa 94 bc 88 30 a4 3d
       -0.017520463 0.027000355 -0.01818605 0.08017069
000280 2f 7a ea 3d 5f a3 3c bd d5 c2 8d bd 84 92 62 3b
       0.11449086 -0.04605424 -0.06921927 0.0034572193
000290 80 8c f1 3c c1 4f 82 bc 74 21 86 bd ac a6 c5 3d
       0.029485941 -0.01590717 -0.065493494 0.09650931
0002a0 e7 d3 b8 bd 5d fd 30 bd 4f 6b ee bd 03 ce 99 3d
       -0.09024792 -0.043210376 -0.11641561 0.07509997
0002b0 6d 01 2e 3e 0b 66 ed bc 4c a4 be 3d d8 c8 3e 3e
       0.16992731 -0.028979322 0.09308681 0.18631303
0002c0 bb f3 20 bd 5c a6 9a bd bf f5 13 bc 07 ac bf 3d
       -0.03929494 -0.07551262 -0.009030758 0.093589835
0002d0 1e 9c ad bb a2 a9 cb bd 91 cf 23 3d 51 d3 f0 3d
       -0.0052981516 -0.09944464 0.039992873 0.117590554
0002e0 07 65 54 bd f3 11 23 3d 7f 0f 25 be dd 38 ae 3d
       -0.05185416 0.03981204 -0.16119193 0.085069396
0002f0 54 ac 6e 3c 6f db b0 3d a0 49 27 bd 77 0f 1a be
       0.014567453 0.08635604 -0.0408417 -0.15044962
000300 b9 0a 59 be 93 9d ad 3e 9e 2d 82 bd 43 6e 33 be
       -0.21195497 0.33909282 -0.06356357 -0.1752253
000310 34 da b9 bd 6f 6a 2e 3c 9f 9c 32 3c 83 8e e5 bd
       -0.09074822 0.010645493 0.010901599 -0.112088226
000320 7e f7 96 bd 9d 0a c4 be ea 87 a3 bd 56 cf 74 be
       -0.07371424 -0.38289347 -0.07984908 -0.23907217
000330 55 69 cf 3e 76 dd cc bd f8 d1 15 be ab 85 f8 3e
       0.4051005 -0.10003178 -0.14630878 0.4853948
000340 e5 d4 0b be 39 dd 8d bd 08 78 99 3d 2a a4 c3 3e
       -0.13655432 -0.069269605 0.07493597 0.38211185
000350 ea 20 29 3e c2 a5 d6 bd 6d e7 0d bd 08 39 bc be
       0.16516462 -0.104808345 -0.034644533 -0.3676226
000360 35 f3 e9 3d f5 a5 73 be 20 b5 87 bd c5 7f 6b bd
       0.11423341 -0.23793776 -0.06626344 -0.057494897
000370 ef 75 91 be 88 49 d2 bb d8 33 db bd 11 bf 7f bc
       -0.2841029 -0.006417457 -0.10703248 -0.015609519
000380 d0 e3 b7 3e a5 05 47 be 5e c4 1f be 2c 20 f9 bd
       0.35915995 -0.19435747 -0.15602252 -0.121643394
000390 ed 15 39 3e fd b0 63 bd 7b 4b a2 be af ec 95 3e
       0.1807477 -0.05558871 -0.31698212 0.29282138
0003a0 1f 17 95 3e 15 6c f9 bb 75 da f4 3d e8 76 16 3d
       0.29119202 -0.0076117613 0.1195573 0.03673449
0003b0 18 1b 0a bd cf 96 90 3c 62 01 b9 bd f0 51 d6 bd
       -0.033717245 0.017650036 -0.09033467 -0.10464847
0003c0 38 13 dd 3d c3 60 ab be 68 70 a2 3e b6 95 13 3e
       0.10794681 -0.3347226 0.31726384 0.14412579
0003d0 66 ca 1b 3e 90 7f 59 3d a6 b7 6e bd 04 b9 25 3e
       0.15213928 0.05310017 -0.05828061 0.16183859
0003e0 03 10 8b 3d 6c 18 37 be 5c a2 62 bd 8e 30 39 be
       0.06790163 -0.1788041 -0.05533062 -0.18084928
0003f0 bb 8b a4 bd d3 46 b0 be 0c ea 36 3e 7c 0b 75 be
       -0.08034464 -0.34429035 0.1786272 -0.23930162

gru.bias_hh_l0 f4 [300]
000000 64 eb 4a 3d d7 fb 15 3c df 99 98 3c ff d9 8e 3d
       0.049540892 0.009154282 0.018628059 0.06975173
000010 f1 d5 2d 3e 97 59 9b 3d b3 f5 bd 3c 95 c4 7b 3e
       0.16976143 0.07585447 0.023188448 0.24586709
000020 2a 87 9a bd ae a7 75 bc 83 a3 28 3e 54 88 38 3e
       -0.07545312 -0.014993591 0.16468625 0.18020755
000030 25 2a b6 bc de 7f 6e 3d 96 f4 25 3e de ee d1 3d
       -0.022236893 0.058227412 0.16206583 0.102506384
000040 76 72 e1 ba cb 40 b6 3d 44 57 2e bd 45 8d c0 3d
       -0.001720025 0.08899077 -0.04256369 0.09401945
000050 97 cf 82 3d 08 3f 22 3d ae 69 bf 3d 3c d6 e9 3d
       0.06387251 0.039610893 0.09346329 0.11417815
000060 54 91 9f 3d 53 31 ab bc 4b 8f f0 3d a0 8a 23 bd
       0.07791391 -0.020897543 0.11746081 -0.039927125
000070 c0 d1 84 bc 36 1d 08 3e f4 70 fa 3d c8 bd c4 3d
       -0.016213298 0.13292393 0.12228575 0.096065104
000080 d3 d7 d8 ba c9 1e 07 3e 73 d7 3b 3e d0 4b c8 3d
       -0.0016543813 0.13195337 0.18343906 0.09780085
000090 f2 a3 b1 3c 79 0e 95 bc 74 8f 23 3e 19 31 4d 3e
       0.02168462 -0.018195378 0.15972692 0.2003826
0000a0 06 4d 4f 3d 7c 78 f6 3c 0c b3 43 3d 2a 39 50 3d
       0.050610565 0.030086748 0.047778174 0.050835766
0000b0 67 98 39 3e e3 b2 df 3d 9b 66 c4 3d 00 f8 0c 3e
       0.18124543 0.10922792 0.09589883 0.1376648
0000c0 3f d5 74 bd f3 23 36 3d aa 50 03 3e 8a ba 0f 3e
       -0.05977368 0.044467878 0.1282374 0.14036003
0000d0 6d 90 e4 3a c8 8f a7 3d c9 71 87 bd 16 d3 09 3e
       0.0017438062 0.08181721 -0.066135 0.13459429
0000e0 45 2b cd bc 43 9d bf 3c 8a 6c 27 3e 0a 70 e8 3d
       -0.025045047 0.023390418 0.16349998 0.11349495
0000f0 92 a2 14 3c e1 94 b0 3b d4 67 e0 bb 98 c2 67 bd
       0.009071963 0.0053888415 -0.006848315 -0.056582063
000100 a7 55 6d 3c d5 19 c6 3c 7e e1 55 3d 16 f0 81 3d
       0.014485753 0.02418224 0.052217 0.06344621
000110 31 ae ac 3d 1f 30 77 3c 81 f9 dc 3d 82 41 19 3e
       0.08431662 0.015087157 0.107897766 0.14966395
000120 da c8 94 3d d7 b7 d9 3d e1 52 7a bc 80 96 a0 3d
       0.07264872 0.10630768 -0.015278549 0.078412056
000130 8d 8f 84 3d 6d 65 82 bc 75 1a a8 3d c1 ab 1a 3e
       0.06472693 -0.015917504 0.08208171 0.15104581
000140 a7 15 2d bc 73 75 ca 3d 35 92 4f bd 3e b1 55 3d
       -0.010564244 0.09885683 -0.050676543 0.052170984
000150 5d 1d 9e bc 53 6b 69 3d c1 c9 4a 3c f4 20 46 3e
       -0.01930111 0.056987118 0.012377203 0.19348508
000160 27 0b c1 3d 2d fb e8 3d 79 42 1f bd 83 c2 6f 3d
       0.09425955 0.11376033 -0.038881753 0.05853511
000170 9f 34 07 bd b3 c5 9f bb b7 a7 b9 3d b3 89 9c 3d
       -0.033009168 -0.0048758625 0.09065192 0.076434515
000180 dd cd bb bc 7d 19 1a 3d 65 c4 0f 3e 18 1a d7 3d
       -0.022925312 0.037621964 0.14039762 0.10503024
000190 01 a6 b5 3d 34 67 37 bd dc 5e 9c 3c 33 bd a1 3c
       0.08869553 -0.044776157 0.019088201 0.019743538
0001a0 64 88 24 3e 6e 7b 6a 3d c0 33 ff bd 3e f8 65 3d
       0.16067654 0.057246618 -0.124610424 0.056144945
0001b0 13 47 e7 bd 31 e5 95 bd b5 73 e8 3d ee e3 e4 bc
       -0.11292853 -0.073191054 0.11350194 -0.027940717
0001c0 13 08 67 3b 34 ff 54 bd 1a 94 b0 3d cc d2 9b 3e
       0.0035252615 -0.052001193 0.08621998 0.30434263
0001d0 82 e8 80 3e d8 46 b0 3e 11 2a c7 3c 1f 4e 52 bd
       0.2517739 0.3442905 0.024312051 -0.051344033
0001e0 be 19 68 3d 57 fc 12 3c 08 83 48 3e 43 6f 18 3c
       0.056665175 0.008971295 0.19581234 0.009303871
0001f0 8b 21 3f bd e5 15 f3 bc ec 22 7d bc 33 f7 b0 3d
       -0.04666285 -0.029673526 -0.015450221 0.086408995
000200 6c d0 28 3e 43 d9 a9 bc 2d 44 0b 3e 41 92 83 3e
       0.16485757 -0.020733481 0.13600226 0.2569752
000210 97 4f 0a 3d aa 73 39 3d 02 4a 9f 3e 78 f9 d2 3d
       0.03376731 0.04527632 0.3111115 0.10301489
000220 47 6b c8 3d b2 e5 b0 3c 54 96 72 3b c1 29 2f 3e
       0.097860865 0.021593902 0.0037015872 0.17105772
000230 15 76 8a bc c7 69 37 3d ba b9 37 3d 42 02 d5 3e
       -0.016902009 0.04477861 0.044854857 0.41603285
000240 8e 06 1f 3d 7c 5d 26 ba b2 8c cb 3d cb 21 d6 bd
       0.03882461 -0.0006346328 0.09938945 -0.10455664
000250 9d be 24 3e eb 97 50 3c 12 94 27 3b 5d c0 60 3e
       0.16088338 0.012731533 0.0025570435 0.21948381
000260 3b ea fd 3d 41 6c 6f 3e a9 78 30 bd b5 22 82 3b
       0.123981915 0.2338114 -0.04308382 0.0039714226
000270 7d 97 a5 bd 15 a9 87 3c 76 a2 23 3d 5b b5 ee bc
       -0.08085535 0.016560117 0.039949857 -0.029139211
000280 40 f4 23 3d 89 4d 06 be d4 a1 05 ba d6 10 d4 3b
       0.040027857 -0.13115515 -0.00050976616 0.0064717336
000290 a9 ac 4e 3d 55 7d 1f bd c8 4c 8f bb f6 6b cc bc
       0.05045763 -0.038937885 -0.0043731667 -0.024953824
0002a0 0f e1 5e bd 8f 7d 88 3d f6 46 4c bd 59 5b d9 3c
       -0.05441385 0.066645734 -0.04987236 0.026532816
0002b0 10 fc 4f 3d a5 68 b1 3c e7 09 e9 3d fe 77 09 3e
       0.050777495 0.021656344 0.11378842 0.1342468
0002c0 34 5a 11 3d c2 7f 13 be e2 d2 18 3d b7 b4 f2 3d
       0.035486415 -0.14404204 0.03731049 0.11850875
0002d0 f2 50 6e 3d 66 1c da bc a6 ee 0e bc 72 64 37 3e
       0.058182664 -0.02662487 -0.00872389 0.1790941
0002e0 c8 2a f4 bd 21 12 52 3d 62 8a 05 be c0 c7 df 3c
       -0.119222224 0.05128682 -0.1304107 0.027316928
0002f0 64 99 1f 3d 1e 9e 0e 3e 23 5a 60 bd 5b e2 00 be
       0.038964644 0.13927504 -0.05477346 -0.12586348
000300 f6 5e 26 be 99 92 94 3e 4e 1c 16 be a9 c4 4e be
       -0.16247162 0.29018095 -0.14659235 -0.20192207
000310 0a 62 ab 3d b9 94 3a 3c fc e9 b6 bc 77 64 b7 bc
       0.08368309 0.011387997 -0.02232837 -0.022386773
000320 e7 0e 39 3d 8b 18 2c be d9 f9 8b 3d cb a6 3a be
       0.045180228 -0.16806237 0.06834764 -0.18227689
000330 60 79 84 3e 44 b5 2a 3d 47 73 81 3c 6d fa a5 3e
       0.25873852 0.041676775 0.015802039 0.32417622
000340 45 b2 77 39 a0 1f 00 3c 91 4b b1 3d db f6 52 3e
       0.00023622166 0.00782004 0.08656991 0.2060198
000350 17 82 8b 3e 4f 48 96 bc c9 f8 7c bd 2f fd 09 be
       0.27247688 -0.018345026 -0.061760698 -0.13475488
000360 ea 42 d5 3c 81 3e 2e be 69 4c 06 3d 90 e2 5b bc
       0.026032884 -0.17016031 0.032787714 -0.013420716
000370 e0 bd 42 be e0 c1 c8 bc 67 91 e0 bd e2 fc 9c bb
       -0.19017744 -0.02450651 -0.10965233 -0.004790888
000380 48 96 31 3e 92 91 15 bd 74 48 be bd da eb 38 3c
       0.17342484 -0.03651578 -0.09291163 0.0112867
000390 31 32 92 3d fe a5 5e bd 07 6f 0c be 81 12 56 3e
       0.071384795 -0.05435752 -0.13714229 0.20905496
0003a0 75 25 6a 3e 3d b9 e4 ba b4 0f 76 3d d0 94 50 bd
       0.22865851 -0.0017450225 0.06007357 -0.05092317
0003b0 71 52 b2 bd f3 9b 7f 3d f0 2a 0c be 59 33 4b be
       -0.08707131 0.062404584 -0.13688254 -0.19843806
0003c0 a7 5d 3e bd 88 9e dd bd f4 7a 98 3d 3c ec dc 3d
       -0.046476033 -0.10821253 0.074453264 0.10787246
0003d0 75 00 f3 3d e5 10 fb 3d a0 b2 9f 3d b1 8b 9f 3d
       0.118653215 0.12259082 0.07797742 0.07790316
0003e0 9f e2 cb bd 0a 05 98 bd 2c d0 b3 bd e1 53 b4 3a
       -0.09955334 -0.07422836 -0.0877994 0.0013757908
0003f0 32 41 99 3d 4c 4d 47 be a8 27 4c bd 83 85 59 be
       0.07483138 -0.1946308 -0.049842507 -0.21242337

gru.weight_ih_l0_reverse f4 [300, 100]
000000 23 89 65 3d 23 98 9d bd 53 bd 0b 3d d3 df 2c 3c
       0.056038987 -0.076950334 0.0341161 0.010551411
000010 15 98 c4 3c 52 7a d3 bc 43 b7 a5 3d da 93 11 3d
       0.0239983 -0.025815163 0.08091595 0.035541393
000020 56 23 fa bc d5 aa c7 bd fa 12 62 bc 81 d6 42 3c
       -0.030534428 -0.097493805 -0.01379847 0.011891962
000030 b2 33 a3 bd 5b 91 b1 bc 1b 08 9e 3c 3c ae b2 3d
       -0.079688445 -0.021675756 0.019290974 0.08724639
000040 60 a4 9e 3d ed 54 89 bd 28 f4 77 3d af 79 bb bd
       0.07746196 -0.067056514 0.06053558 -0.09154069
000050 5f a4 77 bc e2 2f 8e 3c 05 26 69 3d 0f 5a c6 bd
       -0.015114873 0.017356817 0.056921024 -0.09685146
000060 68 62 00 3d 33 76 3c 3d 79 9f 59 bc 4e be 5b 3d
       0.031343848 0.04601116 -0.01328265 0.053648286
000070 ed 6f b0 3c af 2e bd bd 7b ee dd bc 69 31 17 3d
       0.021537745 -0.0923742 -0.027091255 0.036912356
000080 cd 2a b9 3c e3 7c b6 bd 36 13 c9 3c 58 c8 fa bc
       0.022603417 -0.08910539 0.024545293 -0.03061311
000090 9d a9 2a bd 05 04 d7 3b d8 7f 75 3d e7 c4 47 bd
       -0.041665662 0.0065617585 0.059936374 -0.048771765
0000a0 aa f4 28 bd ac ce 12 bd 83 d3 be 3a 36 2c 70 3d
       -0.041248955 -0.03584163 0.0014558885 0.058635913
0000b0 1e 3a 8b bc 28 3c b6 3d ab 5b 48 bd 92 db f3 bc
       -0.016995486 0.08898193 -0.048915546 -0.029767785
0000c0 b8 2e a4 bc c7 58 b9 3d e0 43 74 bd cc 47 c5 3d
       -0.020041808 0.09050136 -0.059635043 0.09632835
0000d0 4b e9 b6 bb 22 48 34 bd 40 4d 90 3d 24 be 71 bd
       -0.00558201 -0.044014104 0.07045984 -0.059019223
0000e0 38 19 e9 3c 2b 36 27 3d db c4 5f bd 05 f7 d0 bc
       0.028454408 0.040823143 -0.054631095 -0.025508413
0000f0 33 36 a8 3d e2 9d 80 bd 1f 0a 5b bd ff 0d af bc
       0.08213463 -0.06280114 -0.05347645 -0.021368979
000100 61 91 c6 bd 53 73 84 bc 39 61 07 3d 97 a4 74 bc
       -0.096956976 -0.016168272 0.033051703 -0.014931819
000110 b5 93 ca 3d 97 da 8b 3c d8 16 b5 3d ad 07 49 3d
       0.09891454 0.017072005 0.08842248 0.049079586
000120 a7 bd 8f 3d f3 99 4f bc b5 9e 99 3d 96 b8 c5 bc
       0.07018595 -0.012670982 0.07500974 -0.024135869
000130 96 bc 8f 3c ea 1b 35 bd 19 68 7c 3d 01 47 16 bd
       0.01754598 -0.044216074 0.061622713 -0.03668881
000140 b5 e0 98 ba 99 9f 24 bd 2c 57 83 bd b6 b1 99 bd
       -0.0011663648 -0.040191267 -0.06413111 -0.07504599
000150 54 ec 63 bd f1 47 86 ba 43 43 6e 3d f5 c9 08 bc
       -0.055645302 -0.0010244829 0.058169615 -0.008348932
000160 a0 f9 b6 bd 6f c4 2d bc 4e 2c 65 bc b6 45 cf bd
       -0.08934331 -0.010605915 -0.013987614 -0.10120718
000170 dc 3e 8e bd c2 7e 37 bd 66 0d 7b 3c 63 e0 69 bd
       -0.06945583 -0.04479862 0.015323019 -0.057098757
000180 38 43 83 3d f5 fb 5a 3d 76 82 04 3d b4 a5 f0 3c
       0.06409305 0.05346294 0.03235098 0.029375888
000190 aa b1 03 3d 95 0c 8f bc 98 9f b3 bd 40 96 08 3d
       0.032151856 -0.017462054 -0.087706745 0.033346415
0001a0 b3 90 23 bd e8 4e 33 bd 7b 1a 7a 3d 44 8b 76 bd
       -0.039932918 -0.043776423 0.06106041 -0.060191408
0001b0 30 95 3e bc b7 ea 8e bd ab 99 32 bd e7 e6 7c bd
       -0.011632249 -0.06978362 -0.04360358 -0.061743643
0001c0 61 e9 af 3d d5 c4 1f 3d d0 f7 b5 3d fb 01 ca bd
       0.08589435 0.039006073 0.08885157 -0.09863659
0001d0 72 51 cf 3b e9 6b c9 bd 0c 43 07 bd 55 f2 91 3d
       0.0063268477 -0.09835035 -0.033022925 0.07126299
0001e0 07 86 02 bd c1 92 0e 3b e8 6e ae bc 12 bc b7 bd
       -0.0318661 0.0021754953 -0.021293119 -0.089714184
0001f0 4e 2d c9 3c 7a c7 25 bd b3 03 69 3d 5a 20 4d 3d
       0.024557736 -0.04047344 0.056888293 0.05007968
000200 b5 32 a1 bd 98 29 9d 3d 9c 8c a4 bd 14 08 c1 3b
       -0.07871 0.07673949 -0.080346316 0.0058908556
000210 31 6e cd 3c f0 94 80 3c a9 17 f7 bb d0 f1 76 3d
       0.025076957 0.015696019 -0.0075406623 0.060289204
000220 99 08 53 bc 92 2b 45 3c 80 20 92 bd 28 6f ba 3c
       -0.012880468 0.012034314 -0.07135105 0.022758082
000230 55 ce 16 3d 06 4b e4 3b cc c4 91 bd fb ab 25 bd
       0.036817867 0.0069669513 -0.07117614 -0.040447216
000240 22 92 78 bd 39 07 42 3d 3c 1a 4a bd 99 a3 58 3d
       -0.060686238 0.04737017 -0.049341425 0.052890394
000250 7e 0d d6 3c 25 43 a4 bd ec 58 9a 3d dd 8e cc bd
       0.02612948 -0.08020619 0.07536492 -0.099881865
000260 eb f2 a0 bc db d7 a3 bd 7e 51 0a bd e8 5e 93 3d
       -0.019647082 -0.080001555 -0.033769123 0.07195836
000270 3e 4d bc 3d 52 71 85 bb 76 0b a8 ba 1f 4a 37 bd
       0.0919442 -0.0040723467 -0.0012820798 -0.04474842
000280 be f5 ed 3b 1f 18 63 3d 78 87 99 bd 61 20 76 3d
       0.007261961 0.055442926 -0.07496542 0.060089473
000290 4e 65 47 bd c8 9b c9 3d 38 93 a2 3d c0 73 38 3b
       -0.048680596 0.09844166 0.07938236 0.0028145164
0002a0 f9 5c c9 3d 37 2e c4 bd 9d b4 6f bd 8c 18 ad 3d
       0.09832186 -0.09579127 -0.058521856 0.084519476
0002b0 f4 d5 09 3c f6 47 28 bc 17 b1 35 bd 43 0f 96 bc
       0.008412827 -0.010271063 -0.04435834 -0.018317824
0002c0 71 bd 46 3d 30 80 a1 bc b2 67 41 3c a2 d5 d4 bb
       0.04852051 -0.019714445 0.011804508 -0.0064951936
0002d0 88 f9 3c 3c af 3a 22 bd b8 c9 0f bd 1f 72 2f bd
       0.011534102 -0.039606746 -0.035104483 -0.042833444
0002e0 5e 96 1f 3d d2 cf 05 bd 2c aa b5 3a a9 b0 a3 bd
       0.03896176 -0.032668896 0.0013859919 -0.079926796
0002f0 dd 4f a6 3d 6f 77 b5 bc 0b 42 37 3d 7f e3 bc 3d
       0.081207015 -0.022151677 0.044740718 0.09223079
000300 cc 04 3f bb d6 16 bb bd 98 7f 3f 3d 25 1f 20 3d
       -0.0029147146 -0.09135215 0.046752542 0.0390922
000310 79 07 a3 3d ed b1 a4 3d fb 25 ad 3c 72 cb e8 b8
       0.0796041 0.08041749 0.021136275 -0.00011100517
000320 76 f8 18 3c 72 a6 8d 3d da b7 8c 3d 7a 21 66 3d
       0.009336581 0.069165125 0.068710044 0.05618427
000330 d9 52 ab 3d d2 42 8f 3d 1c 60 98 bd e7 dc 80 bd
       0.08365411 0.06995167 -0.074402064 -0.06292134
000340 e6 76 c3 bd de 15 7f bd b4 bc 55 3c d5 04 86 3a
       -0.095441625 -0.062276714 0.013045479 0.0010224829
000350 fd 7e 8b bc c6 71 ad 3d c9 5c ab bb 05 f5 9d 3d
       -0.017028326 0.08468966 -0.0052295667 0.077127494
000360 04 82 99 bc c9 22 7b bd 5a 11 e4 bb 25 f4 db 3c
       -0.018738754 -0.06131247 -0.0069600763 0.026849816
000370 9a 05 19 bd 68 0d bc 3d 94 c1 cd 3d b6 68 45 bd
       -0.037358858 0.091822445 0.10046688 -0.048195563
000380 10 31 e8 bb f4 5d a3 3d a2 9a a1 bd 71 3e 4e 3c
       -0.007085927 0.079769045 -0.07890822 0.012588129
000390 7a 9f b8 bd f1 a6 5e 3d 5e 32 9e bd 60 31 c7 bd
       -0.09014793 0.054358426 -0.077244505 -0.097262144
0003a0 d0 f1 08 3d 24 0d ba bc 36 3e 87 3d 72 d1 79 3d
       0.033433735 -0.022711344 0.06603663 0.06099076
0003b0 4f 02 96 bd 45 52 c3 bd d2 8d f6 3a ba 06 b0 bd
       -0.07324659 -0.09537176 0.0018810576 -0.08595033
0003c0 b5 97 4c 3d a2 8d 05 3c 5e 2e da 3c c9 e9 01 3d
       0.049949367 0.008151444 0.026633438 0.031717096
0003d0 22 39 86 3d 0e d8 9d bd d8 9e 81 bc 35 61 c3 3d
       0.06553866 -0.07707225 -0.015822813 0.09540025
0003e0 39 b2 97 3d b0 16 af 3d f3 f4 a8 3d 73 0e e4 3b
       0.0740704 0.08549249 0.08249845 0.0069597303
0003f0 35 b1 30 3c 17 a0 17 bc c9 59 84 3d 76 98 b7 ba
       0.010784437 -0.009254477 0.06462438 -0.0014007229

gru.weight_hh_l0_reverse f4 [300, 100]
000000 3a 1c 9f 3d ea 66 99 3c 4d 72 9f 3c 7d 8f c6 3d
       0.07769056 0.018725831 0.019463683 0.09695337
000010 2f bb b6 bd 97 c8 04 bd 89 4b a4 bd cd 76 c3 3d
       -0.08922421 -0.03241786 -0.0802222 0.09544144
000020 51 be 31 bd 5b 1b 0d 3d bd 76 fe bc f6 ea c0 3d
       -0.04339439 0.034449916 -0.031062478 0.09419815
000030 a1 e2 be bc 78 6e 03 3d 73 4a 3a bd 42 12 a2 bc
       -0.023301424 0.032087773 -0.045481157 -0.019784097
000040 f6 3e 03 bd 07 51 46 bd 31 ac 86 3d 57 d0 1b 3c
       -0.032042466 -0.048417117 0.06575812 0.009510121
000050 fb a6 96 3d 38 f0 b4 3c 59 5b 52 bc 8c 79 c6 3d
       0.07356068 0.022087201 -0.012839162 0.09691152
000060 cb 93 bf bc 82 51 a2 bd b2 f4 9e 3c 8d d5 c9 3d
       -0.023385903 -0.07925703 0.01940379 0.09855185
000070 22 75 fc bc 18 b3 ca bd 23 2e 2b 3d 24 53 04 bd
       -0.030817572 -0.09897441 0.041792046 -0.03230585
000080 02 42 b5 3d aa 79 4f 3d 64 98 b6 bd a9 60 e7 3c
       0.088504806 0.050653137 -0.08915785 0.028244333
000090 ca 92 6a bc a0 e8 2b bd 61 61 e8 bb 16 70 c9 3c
       -0.014317224 -0.041969895 -0.0070916866 0.02458958
0000a0 25 8f f5 bc c4 1c 8a bd 70 33 31 3d 2b ab c1 bd
       -0.029975483 -0.06743768 0.043261945 -0.09456476
0000b0 6f a1 86 bc 60 6f b3 bd 0e ea 09 bd 63 20 62 3c
       -0.0164344 -0.087614775 -0.033670478 0.013801667
0000c0 c1 29 4f bd 8c 36 25 bd ab 72 ae bd b7 d6 c3 3d
       -0.05057693 -0.040335223 -0.08517965 0.09562438
0000d0 89 5a 14 3d e1 11 c4 bd 7a 5b fc bc 67 2e ba 3d
       0.036219154 -0.09573723 -0.030805338 0.09090882
0000e0 c2 67 f6 3c e6 04 c7 bd e4 98 a5 3d ca 12 69 3d
       0.030078772 -0.09717731 0.08085802 0.056902684
0000f0 fa ac 11 bd f7 f1 4d bd de 03 61 3c b4 93 95 3c
       -0.035565354 -0.050279584 0.013733832 0.018258907
000100 04 73 51 3d 56 2a 3b 3c c7 16 bd 3c 83 1f 53 bd
       0.051135078 0.011423668 0.02308215 -0.051543724
000110 ca bb ae 3d 68 a9 41 bd af 36 a3 3d b1 54 7c bc
       0.08531912 -0.0472807 0.079694144 -0.015401051
000120 8f e7 25 3d 39 5b af 3d b9 f9 66 bb de ba 3d bd
       0.040504035 0.08562321 -0.003524406 -0.04632079
000130 a1 e1 b9 3d 6e 14 21 bd ff 79 c7 3d c9 4d c4 3d
       0.090762384 -0.039326124 0.09740066 0.09585149
000140 28 f7 8c 3d fb f3 63 bd 4b f5 7c 3d 1a a1 87 3d
       0.06883079 -0.0556526 0.061757367 0.066225246
000150 98 96 46 3d d5 80 30 bd 4b e3 40 bc 12 2f 57 bd
       0.04848346 -0.043091614 -0.011772941 -0.052535124
000160 bf 0c c9 bd 19 e8 0f 3c 99 97 b3 3d 64 c4 ba bc
       -0.09816884 0.008783364 0.08769149 -0.022798724
000170 0a c4 83 3d 6b 8c c8 bd a2 71 9f bd 9f 16 9f bd
       0.06433876 -0.097924076 -0.077853456 -0.077679865
000180 dd f2 a9 3c 35 94 e0 3c 3a 1b 55 bd 23 63 2a bd
       0.020745689 0.02741442 -0.05202792 -0.04159845
000190 2a 82 27 3d ab 71 0c 3d 7e c7 ab 3b e2 c5 8b 3c
       0.04089562 0.03428809 0.005242287 0.017062131
0001a0 a0 af 38 bd 9f fe b2 bd 78 ad 3c bd 10 2e 56 3b
       -0.045089364 -0.08739971 -0.04606387 0.0032681264
0001b0 df 91 cd bb 23 a8 78 bd bd fa 3f bd 1c 7b e3 3c
       -0.0062734927 -0.060707223 -0.046869982 0.027768664
0001c0 35 f5 c2 3c d6 cb a2 3d 6f ee 4f 3c 81 ca 93 3d
       0.023798564 0.07949035 0.012691124 0.07216359
0001d0 c6 c9 1b 3c 8e 6d 46 bd e3 8c c1 3b 50 ac 97 3d
       0.009508556 -0.048444323 0.0059066876 0.07405913
0001e0 77 59 71 bd 5e 46 af 3d 5a 59 c0 3d 94 5b 7f bb
       -0.05892321 0.08558343 0.093920425 -0.0038964497
0001f0 4a 33 ba 3d 76 ee ac 3d 1e 59 b7 3d af 90 aa 3d
       0.09091814 0.0844392 0.08952545 0.083283775
000200 cd c2 a4 bd a6 35 c9 bd 73 ea ca bd 18 fc 54 bc
       -0.08044968 -0.09824686 -0.09907999 -0.012999557
000210 b7 fa 02 3d b6 cd c1 bb 15 9f c2 bc 47 d7 a7 bc
       0.03197738 -0.0059144152 -0.023757497 -0.020488394
000220 fa d9 8c 3d 77 ec 54 bd f6 90 1b 3c 74 69 44 bd
       0.06877513 -0.051983323 0.009495011 -0.04795213
000230 45 d3 0e bd b9 63 87 bd 89 0b 9c bd 52 d2 a4 3d
       -0.03486945 -0.066108175 -0.07619388 0.08047928
000240 6d dc 94 bd a6 84 87 3d 3f 15 c2 3c ac 27 90 3d
       -0.072686054 0.066170976 0.023691772 0.07038817
000250 95 de a9 bd 62 88 55 bd 8f d9 2c 3c c7 5e 25 3c
       -0.08294407 -0.052132018 0.010549917 0.010093397
000260 f7 59 52 bc 69 06 b7 bc 49 8d d0 3c 65 af 2b bd
       -0.012838832 -0.022341924 0.025457995 -0.041915316
000270 77 fe 93 bd e5 25 80 3d 02 37 df 3c 8a de bd 3d
       -0.0722627 0.06257228 0.02724791 0.092709616
000280 c7 b5 b1 bd a7 97 c7 bd cf 29 80 3d 7a b9 29 3d
       -0.086772494 -0.09745722 0.06257974 0.04143665
000290 1a 64 ad bd 88 13 7b bd 1e 8e bd 3d cb 3c a4 bc
       -0.084663585 -0.061297923 0.09255622 -0.02004852
0002a0 b0 7b 8e 3d 08 f6 75 3d 1f 64 98 bd 72 a7 2e 3d
       0.06957185 0.060049087 -0.074409716 0.042640157
0002b0 a2 50 5e bb 50 88 90 bd 6c f1 6b 3d 12 cd 55 bd
       -0.0033922573 -0.070572495 0.057603285 -0.052197523
0002c0 05 a2 d6 3c 65 fd be 3d 3a b6 93 bd 27 01 15 3c
       0.026200304 0.09325675 -0.07212491 0.009094513
0002d0 48 9f 30 bb 05 a4 92 3c d7 8a 57 bd 97 66 49 bd
       -0.0026950408 0.017900476 -0.052622642 -0.049170103
0002e0 91 f3 5e bd b7 7b 85 3d 96 09 7a bd f8 13 2e bd
       -0.0544315 0.06517737 -0.061044298 -0.042499512
0002f0 df 4a e8 bb 01 39 95 bd e9 ce b1 bd e0 db 84 bd
       -0.0070890035 -0.07286263 -0.08682043 -0.0648725
000300 d3 00 d4 bc 63 39 c0 3d c9 79 d6 bc 0d 96 84 3d
       -0.0258793 0.09385946 -0.026181119 0.064739324
000310 07 54 bd 3d a2 5b 63 bd 72 fd 49 3b fd 65 b1 3c
       0.092445426 -0.05550731 0.0030821231 0.021655077
000320 20 bb 31 bc a9 a4 6b bd 8e 4b bf 3d ca d2 a0 bd
       -0.010847837 -0.05753008 0.09340583 -0.07852705
000330 1a 74 b7 bd 1d 02 b7 3d 76 29 8a 3c cb 35 46 bd
       -0.089576915 0.0893595 0.016865473 -0.048391145
000340 33 f9 1a 3d a9 d6 79 bc 71 20 72 bd 69 24 39 bd
       0.03783531 -0.015248933 -0.05911297 -0.04520074
000350 96 c1 96 bd c8 aa c1 3d f4 d1 07 3c 22 09 48 bd
       -0.07361142 0.09456402 0.008289803 -0.048836835
000360 03 9e da bc 62 f6 30 bd 31 26 99 bd 89 4e 65 bc
       -0.026686674 -0.04320372 -0.074779876 -0.013995775
000370 1b e6 62 3c bb 42 a5 39 fc 4d 89 bd bc d2 6a bd
       0.013848807 0.0003152097 -0.067043275 -0.05732988
000380 79 33 44 bc a9 52 4a 3d 94 fd 11 bd 6a 27 a0 3d
       -0.011975163 0.049395237 -0.03564222 0.07820018
000390 82 e0 a8 bd 29 2d 16 3d dc 06 ad bd 2e 44 26 3d
       -0.082459465 0.03666416 -0.08448574 0.040592365
0003a0 75 55 09 3d 88 02 35 bd 5a 14 50 bd b9 27 32 3d
       0.033528764 -0.044191867 -0.05080066 0.043494914
0003b0 00 98 a3 3d 0e 00 8c bc 35 a6 60 bd 67 6c 65 3d
       0.07987976 -0.01708987 -0.054846007 0.056011584
0003c0 43 1f 8c 3d cd 24 ab 3d f7 85 de bc a8 a9 99 bd
       0.068419 0.083566286 -0.027163489 -0.075030625
0003d0 d4 8e aa bd 57 9a 6e bc 23 a9 b1 3c 16 81 98 3d
       -0.083280236 -0.014563165 0.021687096 0.07446496
0003e0 87 5e 04 3d 0c 06 99 3d a9 04 62 3b 89 c4 a4 3d
       0.03231671 0.074718565 0.003448764 0.080452986
0003f0 ea e4 b4 bd b8 66 95 3d 21 9f 96 3c 03 a7 e4 bc
       -0.088327244 0.07294983 0.018386425 -0.027911669

gru.bias_ih_l0_reverse f4 [300]
000000 4c 67 80 3d 7f 28 b4 bd 27 e1 1f bd e1 d2 c6 bc
       0.06269702 -0.087967865 -0.03903308 -0.024270477
000010 01 c8 2c bd 4d 1a 95 3c 24 81 25 3d 9a b0 5c bd
       -0.042182926 0.018201018 0.04040636 -0.053879358
000020 bb 00 a2 3c 64 65 16 3d 9d db a6 bd 10 3f e6 bb
       0.019775739 0.036717787 -0.08147357 -0.0070265606
000030 a7 d1 00 bd 04 5d ad 3d e3 83 8d bc 56 f3 7f bd
       -0.03144994 0.08465007 -0.017274803 -0.062487923
000040 8c 03 87 3a bc 59 b3 3d db 95 ac bc f8 63 17 3d
       0.001030074 0.0875735 -0.02106755 0.036960572
000050 ab 52 89 3d 4b d5 3a 3b 7e 02 a8 bb bb 92 76 3d
       0.06705221 0.002850848 -0.00512725 0.060198527
000060 6e df c3 3c 9b 8e c6 bc 9d 50 08 bd c6 1a 95 3d
       0.02391025 -0.024237921 -0.033280004 0.07280497
000070 38 8a 58 3d 85 5a ab 3d 4b d9 0e bd 3f 6d 95 bd
       0.05286619 0.083668746 -0.034875195 -0.07296228
000080 93 a9 5a bd f3 38 b8 3d fa 80 2d bb 31 97 35 bd
       -0.053384375 0.08995237 -0.002647458 -0.04433364
000090 af c0 f9 bb cd 58 9c 3d 9c 54 06 3c c0 26 83 bd
       -0.0076218466 0.07634125 0.008198883 -0.06403875
0000a0 fb 26 b0 bd 0b 89 68 3d cf 90 4f 3d ac be 0b bd
       -0.08601185 0.05677132 0.05067521 -0.034117386
0000b0 cc b7 59 bd cb e2 9a bd ae 2d 4f 3d 46 d2 a9 bd
       -0.053153798 -0.075627886 0.050580673 -0.082920596
0000c0 71 86 4d bd 5f 07 ed ba f3 52 d7 bc 27 af 92 3d
       -0.05017704 -0.0018083862 -0.02628467 0.07162314
0000d0 7a a2 a2 bd c0 08 a8 bb f0 54 c0 3d ec 54 8a ba
       -0.07941146 -0.005127996 0.093912005 -0.0010553873
0000e0 bf 15 ef bc c8 52 4f bc 35 7c 86 3d d3 d5 16 3c
       -0.029185174 -0.012654014 0.06566659 0.009206253
0000f0 85 8e 4d bd a6 c4 1d bd 97 3e 97 3c 74 37 28 3d
       -0.050184745 -0.038517617 0.018462462 0.04106851
000100 ed 05 b5 bd 6b 8e 4e bc 04 23 d8 bc 82 d3 e4 bc
       -0.08839021 -0.012607197 -0.026383884 -0.027932886
000110 c0 e2 93 bc 69 be a9 bd dc 4e 31 bd e1 d3 71 bd
       -0.018052459 -0.08288271 -0.043288097 -0.059039954
000120 87 a2 ac bd d8 06 5d bd 18 e9 75 bd f6 44 28 3c
       -0.08429437 -0.053961605 -0.06003675 0.010270348
000130 1a 82 31 bc 11 a4 32 bd 85 4f 23 bd 0c 03 f5 3c
       -0.010834241 -0.043613497 -0.039870758 0.02990868
000140 0c 1a 9b bd 55 16 78 3d 78 83 1b bd ae 7a 42 bd
       -0.075733274 0.060568172 -0.037967175 -0.047480278
000150 52 6d 7b 3c 8e dd 1b 3d 20 59 ab 3d 18 1f 0d 3c
       0.015345888 0.038053088 0.083666086 0.00861337
000160 d8 4e 1a 3b 50 49 86 3d a2 ee 82 bd e8 b0 97 bd
       0.002354553 0.06556952 -0.06393172 -0.07406789
000170 03 69 be bd 12 38 61 bc b1 bf 4a bd fc 99 c5 bd
       -0.09297373 -0.013746278 -0.049499217 -0.09648511
000180 58 a4 75 bd 50 b9 98 3d 52 60 93 3d 71 bc 98 bd
       -0.059971184 0.074572206 0.07196106 -0.07457817
000190 81 cf 02 3b f3 23 f8 bc 1c c8 b5 3d c6 f5 8b 3d
       0.0019960108 -0.03029058 0.088760585 0.06833987
0001a0 f5 68 5e bd 37 57 0f 3c 2a 47 ef bc c5 56 99 3d
       -0.054299314 0.008748821 -0.029208738 0.07487253
0001b0 78 c1 67 bd ef d2 a8 bd 87 27 d9 bc 69 58 85 bd
       -0.05658099 -0.082433574 -0.026508106 -0.065110035
0001c0 c0 43 84 bd 12 eb ba bd 96 d9 fa bb c3 87 23 3d
       -0.06458235 -0.09126867 -0.007655333 0.039924394
0001d0 16 da 1b bc 93 80 68 3d 89 3f c1 bd b6 1e b2 bd
       -0.009512445 0.056763243 -0.094359465 -0.08697264
0001e0 ee 72 cb 37 39 31 b3 bd c4 dc d8 bc aa f1 ba 3d
       2.4253004e-05 -0.08749623 -0.026472457 0.09128125
0001f0 c3 60 65 bd 8f a0 88 bd 66 08 8f bd e7 cc b5 bd
       -0.056000482 -0.06671249 -0.06984024 -0.08876973
000200 34 aa ab 3d 61 db a8 3d 6b 89 0a bd 9c 92 84 3d
       0.08382073 0.08244968 -0.03382246 0.06473276
000210 88 e5 49 3d 6c 21 c1 3d 45 be ba bd eb 2b c4 3d
       0.049291164 0.09430203 -0.09118322 0.09578689
000220 1c f8 a6 3d 0c 19 31 bd dc 22 b1 3d 6d 26 a5 bd
       0.08152792 -0.043236777 0.08649227 -0.0806397
000230 5f 60 39 3c ea 2c ca 3c 9a 33 7c 3c 64 9f 8d bb
       0.011314481 0.02467962 0.015393162 -0.0043219794
000240 2a b7 9b 3d 95 42 2b bd 9b b4 df bc 16 9b 9d 3c
       0.07603295 -0.041811544 -0.0273078 0.01923899
000250 cc 07 b2 3d 02 c3 d3 3c ab fe b2 bd c4 a4 33 3d
       0.086928934 0.025849823 -0.0873998 0.043858305
000260 64 81 12 3d 39 85 7f 3c 5e 4e ef bc 72 ef a3 3b
       0.035767928 0.015595728 -0.029212173 0.0050029093
000270 10 ee b7 bc 51 4d 47 bc f8 cf d2 3d e8 2a ef 3c
       -0.022452384 -0.01216443 0.10293573 0.029195264
000280 7a bc 5a bd 80 9a 8f 3d ac ef b5 bd ca 65 6c 3d
       -0.0534024 0.070118904 -0.088836044 0.05771426
000290 dc af 9e bd 9b 48 80 bd b1 09 d9 3b 1b 35 8e 3d
       -0.07748386 -0.062638484 0.0066234698 0.06943723
0002a0 f7 5a 01 bd 13 de 06 3d 24 65 38 bd 38 c5 87 3c
       -0.03158089 0.03292663 -0.04501833 0.016573533
0002b0 0e d8 d4 3c a4 11 37 bd bd 6b 52 3c 9b ed d4 3d
       0.02598193 -0.044694558 0.01284307 0.10396882
0002c0 db 70 0c bd 9b 02 bc 3d d0 e1 78 bd 2f 68 b7 bc
       -0.034287315 0.091801845 -0.060762227 -0.022388546
0002d0 e8 18 4f bc b2 56 b0 3d c8 36 6f bd b8 6c 23 3d
       -0.012640215 0.08610286 -0.058401853 0.039898604
0002e0 ce a8 3e 3c 2c 0f 93 ba 2b db c6 3d 7d ba a2 3c
       0.011636926 -0.0011219732 0.09709772 0.019864315
0002f0 38 33 f9 3c d4 8e d7 3d 53 54 3a 3d 94 54 c4 3b
       0.03041993 0.10525289 0.045490574 0.005991528
000300 05 74 cb bc 1d 5e 27 bd b5 2d a2 bd 38 ab 6e 3c
       -0.024835596 -0.040861238 -0.07918874 0.014567189
000310 6d fc b8 3c eb 5b 11 bd 1f 1a 91 3a 3b 4d d5 3d
       0.022581303 -0.03548805 0.0011070407 0.10415121
000320 04 fc ce bd 52 c8 37 3e 13 a4 b9 bd fe 71 49 3e
       -0.10106662 0.1794751 -0.09064498 0.19672391
000330 c1 32 09 3e 06 48 54 be 8f be 98 3e 8c 50 ba bd
       0.13398267 -0.207306 0.29832885 -0.09097394
000340 60 8c ee bd 0e 68 14 3c 03 62 46 3e 3d 8e ae bd
       -0.11647868 0.009058012 0.19373326 -0.085232235
000350 64 fb 07 3e 6e 54 a7 3c 07 9e 8a 3e 2a e1 e7 3d
       0.13279492 0.020426001 0.2707369 0.113222435
000360 77 2b c1 bd 0e ab 6b 3e 34 7c b3 3d 03 25 e7 3c
       -0.094321184 0.23014471 0.08763924 0.02821589
000370 e4 e5 ed 3c 20 5d 39 bd 1b d8 f3 bd 19 d6 88 3d
       0.029040284 -0.045254827 -0.11906453 0.06681461
000380 a5 c0 5a 3e 74 bb e9 bd 5b d5 05 3e 97 e4 14 3d
       0.2136255 -0.11412707 0.1306967 0.036350813
000390 e5 f9 22 be a7 2a ae 3d d7 8a b1 3d f9 47 60 bc
       -0.1591564 0.08504229 0.0866906 -0.013689035
0003a0 8f 55 e6 3c ad a2 30 bd 78 75 9d 3b b7 20 8d bd
       0.02811697 -0.04312389 0.004805263 -0.068910055
0003b0 b6 9e 46 3e 2e 14 1d 3e 5e 42 f0 3d 2f 4d f0 3d
       0.19396481 0.15339729 0.117314085 0.117334716
0003c0 04 5b b1 3d f5 10 fe bd b3 28 12 bd b7 aa 9e 3d
       0.08659938 -0.12405578 -0.035683345 0.07747405
0003d0 f9 10 91 bd 12 c8 ad bd c9 32 05 be 6a 32 60 bd
       -0.070833154 -0.08485426 -0.13007654 -0.05473558
0003e0 a4 37 4d bd 06 99 11 3e dd a9 91 3d ca 36 b8 3d
       -0.05010189 0.1421853 0.07112477 0.08994825
0003f0 7e a4 66 3d 4d 50 20 be a1 31 a4 bd 71 39 03 3e
       0.056309216 -0.15655632 -0.080172785 0.12814881
