parameter/sec_dummy.pth (torch_old, 515087 bytes, 11 tensors)

transitions f4 [31, 31]
-10000.0 -10000.0 -10000.0 -10000.0 -10000.0 -10000.0 -10000.0 -10000.0
-10000.0 -10000.0 -10000.0 -10000.0 -10000.0 -10000.0 -10000.0 -10000.0
-10000.0 -10000.0 -10000.0 -10000.0 -10000.0 -10000.0 -10000.0 -10000.0
-10000.0 -10000.0 -10000.0 -10000.0 -10000.0 -10000.0 -10000.0 -12.783089
-26.046465 -55.221066 -16.214478 -9.4834385 -3.373553 1.377541 -0.92643404 -1.3952266
-3.1996946 1.0289211 1.4494164 -1.074154 -0.8240594 -0.30979806 -2.0736282 -1.213468
-9.69472 -4.914706 -2.8950021 -2.8574421 -3.2394168 0.4621999 -0.769984 0.13723181
-3.3109121 -4.1278377 1.332902 -1.802583 -10000.0 -10000.0 -25.65493 -34.353092
-14.703403 -15.615965 -8.495601 -1.3006166 0.2883618 1.1777992 0.82341003 0.2600985
0.33627257 0.36775 0.26864552 -0.07944223 0.13618724 1.7244803 0.25144887 -6.993151
0.17109674 -1.1336743 -1.0410819 -1.6096172 0.37266707 0.9311839 0.87783486 -1.3393465
0.5595643 0.30855605 -0.5153879 -10000.0 -10000.0 -12.884589 -18.664463 -16.082922
-9.300822 -5.004316 -0.596604 1.8143679 0.30886248 0.41745076 -0.20517099 1.063733
0.22819269 -0.6528545 0.63995945 0.8700991 -0.0013102264 -0.1959555 -3.445486 0.57544345
0.54331255 0.065769866 -0.87967885 -1.6403345 -0.7000631 -0.70717937 -0.4154326 -0.23164806
0.42836314 -0.59405285 -10000.0 -10000.0 -0.6756221 -11.439972 -7.3053794 -10.209251
-2.4177725 0.99342096 -0.56792974 0.24288665 1.6489433 -0.058113288 -0.7329953 -1.5459039
-0.24157353 1.8054343 0.62207127 0.7345545 0.096074924 -1.8025413 -0.17821458 -1.1270679
-0.9374377 0.5125847 -0.5846664 -0.5555329 -0.5745148 0.33507538 1.0868938 1.6803725
-0.21443775 -10000.0 -10000.0 -0.69372976 -1.8896115 -1.1326554 0.8586671 1.7716051
-0.54135287 -0.3501633 -0.9004653 1.6659648 -0.6354006 1.8060478 -0.42097554 -0.46416715
-0.018638786 0.56900436 0.6645135 -1.1782229 0.12644468 -1.70732 -1.0013416 -0.2578861
-1.1716386 0.95198965 0.5776954 0.7889704 1.2586519 1.342987 0.23157966 -1.5231563
-10000.0 -10000.0 0.5590396 -0.40544075 -0.9477429 -0.46134907 0.86295396 1.9993412
-0.6454864 0.5406853 0.6956241 2.1196768 2.1403644 0.9576119 -0.053789783 0.9508081
-0.8923629 1.2307907 -1.8088101 0.30438694 0.9091988 0.008409425 1.4664812 -0.7822335
-1.0501144 0.8475243 0.38593012 1.1511265 0.093764074 -1.0690868 -1.6977307 -10000.0
-10000.0 1.4190373 -0.48244995 -2.7441711 2.110335 -1.3911691 -1.5377294 0.9737632
0.114907496 0.3562748 0.5113051 2.6758113 0.9021528 -0.8797344 0.26258367 -1.4393572
0.91214114 0.04824619 -1.3551115 -0.8525874 0.4780289 -1.4912285 -0.19704399 0.3352849
0.23073208 -0.3163022 0.17168404 0.36055377 -0.0021727146 -1.5003216 -10000.0 -10000.0
-0.6516264 -0.28286082 0.59648407 0.108665206 -0.8007396 1.0511901 -0.32695648 -1.1792489
00000000: 0040 1cc6 0040 1cc6 0040 1cc6 0040 1cc6
00000010: 0040 1cc6 0040 1cc6 0040 1cc6 0040 1cc6
00000020: 0040 1cc6 0040 1cc6 0040 1cc6 0040 1cc6
00000030: 0040 1cc6 0040 1cc6 0040 1cc6 0040 1cc6
00000040: 0040 1cc6 0040 1cc6 0040 1cc6 0040 1cc6
00000050: 0040 1cc6 0040 1cc6 0040 1cc6 0040 1cc6
00000060: 0040 1cc6 0040 1cc6 0040 1cc6 0040 1cc6
00000070: 0040 1cc6 0040 1cc6 0040 1cc6 8887 4cc1
00000080: 295f d0c1 5fe2 5cc2 40b7 81c1 2abc 17c1
00000090: 4be8 57c0 4353 b03f c82a 6dbf c996 b2bf
000000a0: ccc7 4cc0 b0b3 833f 7a86 b93f e17d 89bf
000000b0: 8ff5 52bf da9d 9ebe 53b6 04c0 eb52 9bbf
000000c0: 931d 1bc1 4645 9dc0 b747 39c0 55e0 36c0
000000d0: 9b52 4fc0 77a5 ec3e ac1d 45bf 7f86 0c3e
000000e0: fce5 53c0 3f17 84c0 889c aa3f 0abb e6bf
000000f0: 0040 1cc6 0040 1cc6 4c3d cdc1 9169 09c2
00000100: 2441 6bc1 feda 79c1 fbed 07c1 9b7a a6bf
00000110: 28a4 933e 20c2 963f 00cb 523f a12b 853e
00000120: eb2b ac3e ba49 bc3e e88b 893e 9cb2 a2bd
00000130: ab74 0b3e c5bb dc3f e8bd 803e e5c7 dfc0
00000140: fc33 2f3e 3d1c 91bf 2c42 85bf f007 cebf
00000150: 38ce be3e 1162 6e3f c9b9 603f b56f abbf
00000160: 9b3f 0f3f 0ffb 9d3e 76f0 03bf 0040 1cc6
00000170: 0040 1cc6 4727 4ec1 d250 95c1 d3a9 80c1
00000180: 2bd0 14c1 5b23 a0c0 0abb 18bf 353d e83f
00000190: 3923 9e3e 1bbc d53e 5818 52be 6728 883f
000001a0: 58ab 693e 7921 27bf 62d4 233f d1be 5e3f
000001b0: e7bb abba 8fa8 48be d882 5cc0 4350 133f
000001c0: 8816 0b3f 5ab2 863d a232 61bf 7bf6 d1bf
000001d0: 5637 33bf b509 35bf 95b3 d4be 2635 6dbe
000001e0: 6a52 db3e d913 18bf 0040 1cc6 0040 1cc6
000001f0: 92f5 2cbf 200a 37c1 abc5 e9c0 1859 23c1
00000200: c9bc 1ac0 d650 7e3f d863 11bf 47b7 783e
00000210: 9310 d33f 3308 6ebd 94a5 3bbf 2ee0 c5bf
00000220: 0d5f 77be 7918 e73f 1040 1f3f c40b 3c3f
00000230: eec2 c43d acb9 e6bf e27d 36be c343 90bf
00000240: ebfb 6fbf c038 033f b2ac 15bf 6737 0ebf
00000250: 6713 13bf 008f ab3e 561f 8b3f 7216 d73f
00000260: 9295 5bbe 0040 1cc6 0040 1cc6 4698 31bf
00000270: cade f1bf dafa 90bf 9bd1 5b3f f5c3 e23f
00000280: 1a96 0abf 9b48 b3be e584 66bf 563e d53f
00000290: 9da9 22bf 932c e73f 1b8a d7be 51a7 edbe
000002a0: 5eb0 98bc 45aa 113f 8f1d 2a3f 02d0 96bf
000002b0: b77a 013e 7689 dabf f62b 80bf a609 84be
000002c0: 41f8 95bf 98b5 733f d9e3 133f f7f9 493f
000002d0: 811b a13f ffe6 ab3f 3823 6d3e c9f6 c2bf
000002e0: 0040 1cc6 0040 1cc6 381d 0f3f ee95 cfbe
000002f0: 479f 72bf f235 ecbe 8dea 5c3f 6aea ff3f
00000300: 993e 25bf 5a6a 0a3f 6c14 323f c9a8 0740
00000310: bbfb 0840 0e26 753f ad52 5cbd 2968 733f
00000320: e571 64bf 8d8a 9d3f 1787 e7bf 9bd8 9b3e
00000330: 41c1 683f afc7 093c a8b5 bb3f 7440 48bf
00000340: 266a 86bf 5af7 583f a298 c53e 1d58 933f
00000350: 6107 c03d d6d7 88bf 3d4f d9bf 0040 1cc6
00000360: 0040 1cc6 04a3 b53f ae03 f7be 80a0 2fc0
00000370: bb0f 0740 d411 b2bf 51d4 c4bf 8c48 793f
00000380: 9f54 eb3d a769 b63e e4e4 023f 7e40 2b40
00000390: 7cf3 663f 4636 61bf 5e71 863e db3c b8bf
000003a0: 1582 693f cc9d 453d 4b74 adbf 2b43 5abf
000003b0: 34c0 f43e 93e0 bebf e6c5 49be 76aa ab3e
000003c0: 0845 6c3e 5df2 a1be f1cd 2f3e 819a b83e
000003d0: 1a64 0ebb 8a0a c0bf 0040 1cc6 0040 1cc6
000003e0: fdd0 26bf 22d3 90be 2eb3 183f dd8b de3d
000003f0: 45fd 4cbf 668d 863f d766 a7be a1f1 96bf

gru.weight_ih_l0 f4 [300, 100]
0.0003852571 -0.030747952 0.091145486 -0.12089648 0.08267697 0.08761604 -0.03514897 -0.049349967
-0.06045807 -0.054017562 -0.06784205 -0.006182387 -0.017010491 0.122614965 0.06645988 0.038902845
-0.008772958 0.05351446 -0.012321882 -0.062111266 0.056429535 -0.08364396 -0.12199837 -0.05147879
0.019794274 -0.058867995 0.08173632 0.0716786 0.085442565 -0.058577716 0.08159253 0.040361207
0.07150529 0.023039266 0.020270435 -0.14106719 -0.04062859 0.104714155 0.09910631 0.019214606
-0.115254894 0.00040891446 0.03814272 0.043968063 -0.08391472 -0.07688985 0.0032517808 0.08538711
-0.104134366 0.04605673 0.05307733 0.061187707 -0.068629585 0.02848779 -0.062172513 -0.037191626
-0.07545873 0.0015996924 -0.120169744 0.071156815 0.048297357 0.015771382 0.00013788705 -0.09965745
0.08554867 0.07301347 0.07111271 -0.06455728 0.07074511 0.046855908 0.028525589 -0.09544618
0.0016875484 -0.029995283 0.0663626 0.10273266 -0.07073565 0.102401696 0.028064534 0.0975628
-0.032152914 -0.0162671 0.007792926 0.13881558 0.03614429 -0.080075756 0.1271295 -0.07726106
-0.025067965 0.0070141717 -0.037304353 0.06301306 0.059332233 0.13117902 -0.048141375 0.04542044
0.014806403 -0.07594606 -0.02266628 0.07632547 -0.06200371 0.0372436 -0.07502252 0.01446345
0.114566304 -0.023735445 -0.11159879 0.032519143 -0.087390415 0.014146052 -0.08943003 -0.09439571
-0.030906368 -0.026087342 0.043259557 0.008785006 0.09393469 -0.0819194 0.035848513 -0.040611412
0.07944404 -0.04609749 0.036071688 -0.06708177 0.07994823 -0.09258741 0.0013512709 0.06120872
0.08874646 0.1325868 -0.068847455 0.06706739 -0.11231029 0.08008532 -0.015765976 -0.042115517
-0.011955424 0.052452974 0.053373855 0.07844054 -0.003228856 -0.043533884 0.03246742 0.07975107
-0.012351009 -0.0026257122 0.034270708 0.0081553105 -0.03361879 0.11536782 0.044767637 0.03738118
0.080323406 -0.061527584 0.08138389 0.09192452 0.019940898 0.10936132 0.050923217 0.099334374
0.06632841 0.079378955 0.108760774 -0.050436422 0.0867305 -0.005870069 0.083179645 0.08863205
0.0040436685 0.0662491 0.017849566 0.09208644 0.04534537 0.11355096 0.019098984 0.06315962
-0.09978072 0.07046157 -0.084935814 0.009728721 -0.028630815 0.050174803 -0.026436705 0.012865842
0.01604065 0.009735506 0.019530732 -0.0017204131 -0.071360245 0.09212125 -0.047129452 0.057642907
-0.08007603 0.06337299 0.103593 -0.07151528 0.096928604 0.07366457 0.016324982 -0.08470063
0.0073531135 -0.087244034 -0.09099378 0.08068371 -0.048782643 -0.10794729 0.028898979 -0.04420366
0.042408694 -0.053383294 -0.09584805 -0.10403221 0.047224727 -0.09067974 -0.06745394 -0.056299184
0.059187178 -0.061345715 0.056240916 0.09875553 -0.08540407 -0.07364282 0.037813626 0.045830265
-0.036816176 -0.008058991 -0.09186081 -0.012389722 0.078294545 0.099579245 -0.10630172 0.0659368
0.017373728 0.014664505 0.107663155 -0.05219073 -0.05215976 0.07934892 -0.03854619 0.006086342
-0.08791007 -0.044402122 -0.04656826 0.035316657 0.01043462 0.043185122 0.09768171 0.057098787
0.11520387 0.07347637 -0.072602384 -0.07568364 -0.021248069 0.03549443 0.023880614 -0.072960645
00000000: 55fc c939 21e3 fbbc 7caa ba3d 9398 f7bd
00000010: 8b52 a93d 0a70 b33d 5ef8 0fbd 3123 4abd
00000020: e2a2 77bd 8541 5dbd c6f0 8abd 9f95 cabb
00000030: 9659 8bbc 8e1d fb3d 1e1c 883d 9758 1f3d
00000040: 74bc 0fbc fa31 5b3d b8e1 49bc 6268 7ebd
00000050: a822 673d 864d abbd 48da f9bd 6cdb 52bd
00000060: 9a27 a23c 911f 71bd 5f65 a73d 3bcc 923d
00000070: 83fc ae3d 30ef 6fbd fc19 a73d cb51 253d
00000080: 5e71 923d d8bc bc3c 2f0e a63c eb73 10be
00000090: 2a6a 26bd 6074 d63d 40f8 ca3d f367 9d3c
000000a0: c20a ecbd 9263 d639 8a3b 1c3d db17 343d
000000b0: 7bdb abbd 6d78 9dbd d41b 553b 70df ae3d
000000c0: 6644 d5bd fba5 3c3d 9d67 593d f69f 7a3d
000000d0: ab8d 8cbd 3a5f e93c 9ba8 7ebd 3f56 18bd
000000e0: 1b8a 9abd c5ac d13a 8e1b f6bd aaba 913d
000000f0: 73d3 453d fc32 813c c695 1039 3519 ccbd
00000100: 2434 af3d 1688 953d 8aa3 913d 9b36 84bd
00000110: d0e2 903d fbeb 3f3d 7fae e93c 4979 c3bd
00000120: ba30 dd3a abb8 f5bc 1de9 873d 8065 d23d
00000130: dadd 90bd fbb7 d13d 98e7 e53c 01cf c73d
00000140: c6b2 03bd 9542 85bc cd5b ff3b ac25 0e3e
00000150: 090c 143d c2fe a3bd 3c2e 023e 0c3b 9ebd
00000160: 555b cdbc 23d7 e53b 73cc 18bd fe0c 813d
00000170: 5b06 733d cb53 063e e42f 45bd c90a 3a3d
00000180: 8e96 723c 9c89 9bbd a2ae b9bc 8750 9c3d
00000190: 9af7 7dbd bf8c 183d 68a5 99bd 1bf8 6c3c
000001a0: bda1 ea3d d670 c2bc e88d e4bd cb32 053d
000001b0: bff9 b2bd d8c4 673c 1727 b7bd 8a52 c1bd
000001c0: 5a2f fdbc 1fb5 d5bc ef30 313d fcee 0f3c
000001d0: d560 c03d 5cc5 a7bd e4d5 123d 2758 26bd
000001e0: 8fb3 a23d b9d0 3cbd e8bf 133d 2b62 89bd
000001f0: e6bb a33d 789e bdbd 211d b13a ffb5 7a3d
00000200: b4c0 b53d d6c4 073e e5ff 8cbd a15a 893d
00000210: f002 e6bd c603 a43d a627 81bc 5281 2cbd
00000220: afe0 43bc eed8 563d 8b9e 5a3d 6fa5 a03d
00000230: 379b 53bb 9650 32bd 8ffc 043d 8754 a33d
00000240: e35b 4abc 2414 2cbb 715f 0c3d da9d 053c
00000250: dbb3 09bd f745 ec3d 455e 373d 021d 193d
00000260: 9980 a43d 5904 7cbd 99ac a63d ec42 bc3d
00000270: 185b a33c d4f8 df3d dd94 503d d26f cb3d
00000280: 30d7 873d 6f91 a23d f8bd de3d 6c96 4ebd
00000290: c39f b13d b559 c0bb 175a aa3d b884 b53d
000002a0: c080 843b 9cad 873d 4139 923c d197 bc3d
000002b0: 11bc 393d 688d e83d 7975 9c3c d559 813d
000002c0: d659 ccbd 284e 903d d4f2 adbd 3765 1f3c
000002d0: 2c8b eabc 1884 4d3d ca91 d8bc 41cb 523c
000002e0: ae67 833c ac81 1f3c eafe 9f3c 7c7f e1ba
000002f0: 5225 92bd 11aa bc3d d00a 41bd f81a 6c3d
00000300: e7fe a3bd b3c9 813d 9128 d43d 9a76 92bd
00000310: 8182 c63d 73dd 963d f8bb 853c 8677 adbd
00000320: 63f2 f03b 00ad b2bd f25a babd 803d a53d
00000330: 4fd0 47bd 7813 ddbd 8dbd ec3c e60e 35bd
00000340: bdb4 2d3d 71a8 5abd fc4b c4bd d70e d5bd
00000350: b76e 413d 4db6 b9bd 4b25 8abd f999 66bd
00000360: 416e 723d a545 7bbd e05c 663d 5740 ca3d
00000370: 54e8 aebd 0cd2 96bd 76e2 1a3d 84b8 3b3d
00000380: 8fcc 16bd dc09 04bc 8521 bcbd 43fe 4abc
00000390: e458 a03d 34f0 cb3d b7b4 d9bd df09 873d
000003a0: 5953 8e3c 6443 703c 807e dc3d f2c5 55bd
000003b0: 79a5 55bd b081 a23d 9ce2 1dbd f06f c73b
000003c0: 320a b4bd 00df 35bd 5cbe 3ebd 33a8 103d
000003d0: f8f5 2a3c e2e2 303d 590d c83d 6be0 693d
000003e0: 02f0 eb3d c77a 963d 8fb0 94bd 0600 9bbd
000003f0: 6e10 aebc 9c62 113d 47a1 c33c 646c 95bd

gru.weight_hh_l0 f4 [300, 100]
0.083789125 -0.018421488 0.058652297 0.06851862 0.006893244 -0.069612086 -0.019636132 -0.058342848
-0.07959364 -0.0019170889 0.054541852 -0.08686351 0.009063719 0.093074754 0.031233113 0.04321682
-0.04882147 0.03606422 -0.045067452 -0.08510732 -0.110761546 -0.058364425 0.012345782 0.05316688
-0.08336016 -0.055983976 0.090711445 0.015805257 0.0060232296 0.008079553 -0.0017426126 0.065926224
-0.09098232 0.1009779 0.010321209 0.06336843 -0.050464205 -0.06682812 0.050047398 0.030431058
-0.060837705 0.09734711 0.05248744 0.065619536 -0.026065582 -0.0043694554 0.054088797 -0.07069057
0.021500459 0.036816232 0.019000873 -0.045063443 -0.099050134 0.06961428 -0.090410925 -0.04535198
0.0009323071 -0.042478327 0.030379036 -0.03125817 0.066847146 -0.07412636 -0.06909769 0.059049785
0.09981493 0.012350827 -0.09187822 -0.06562814 -0.049164817 0.008782602 -0.050647452 -0.009981645
0.03858925 0.053001214 -0.086480305 0.07658286 -0.068404295 -0.0566905 -0.060497154 0.04806432
0.05126802 -0.017751109 0.0077892346 -0.059245676 0.063897565 0.019078253 -0.017464474 0.056064676
0.07326279 0.01895459 0.055624336 -0.033390876 0.091201276 -0.08532514 0.040303726 -0.025326861
-0.040945828 -0.08473959 0.011162235 0.08650477 -0.020240994 -0.058395512 0.06972729 -0.005110054
-0.09714876 -0.07895853 0.036579918 0.012912465 0.021889722 0.045964926 -0.04796931 0.0655749
0.078977115 -0.057040352 0.07315086 0.0013484923 -0.098770864 -0.07473308 -0.05833503 -0.04864416
-0.11460174 0.042965688 -0.067174256 -0.003724115 -0.04250456 -0.05076322 -0.08119226 0.00078020286
0.008377567 -0.1173706 -0.0618632 0.031074459 -0.024658445 0.0299328 -0.017091678 0.009272029
-0.075705595 -0.046275157 0.09274021 0.05109173 0.004632917 -0.027492078 -0.011824434 -0.023498718
0.009249462 -0.025949953 -0.0013542745 -0.051009472 -0.04844117 0.058314923 -0.10105561 0.0734078
0.072890766 0.069250815 0.016912682 -0.004819173 -0.06277693 -0.10335592 -0.027723245 0.06494473
-0.07281943 0.081696115 0.013333839 -0.022976452 -0.10053166 0.0231841 -0.060327277 0.07358496
-0.01598629 0.072519615 0.03618766 -0.022736182 0.011413359 -0.045275867 0.005663957 0.020078897
0.06906939 0.031954855 -0.030127933 -0.058281194 -0.059690285 0.07795384 -0.09221375 -0.02596965
-0.021068536 0.024232695 -0.06417644 0.064485654 0.07601843 0.015928281 -0.004824028 -0.020376433
0.018298207 0.0693571 0.0032519393 -0.071039036 0.08284303 0.030610789 0.03357592 0.068306156
-0.09484756 0.034850806 -0.061096773 0.010567364 0.0664802 -0.07037304 0.0015966382 0.016372396
-0.0813687 -0.040341415 0.08207029 -0.059999894 0.04120163 0.03268731 0.0022504919 0.023399742
-0.11888315 -0.077943794 -0.06936486 0.06641081 0.037861045 -0.0023604082 0.064745 0.10725161
-0.10067565 -0.064206444 -0.07178461 -0.029094523 0.0015995736 0.048388503 0.054077506 0.07807116
0.021787498 -0.019607158 -0.09664599 -0.012359227 0.07520041 -0.015901303 -0.037642077 -0.08490887
-0.02870819 0.013416442 -0.015091315 -0.07512024 0.052026823 0.083927624 0.07830325 0.069538616
-0.0032121155 0.0743888 -0.049270917 -0.04793732 -0.059608918 -0.024334246 -0.012664326 0.07785702
00000000: a299 ab3d a9e8 96bc 643d 703d 7e53 8c3d
00000010: b9e0 e13b c890 8ebd f4db a0bc e9f8 6ebd
00000020: fe01 a3bd d446 fbba 4767 5f3d 7fe5 b1bd
00000030: fe7f 143c fa9d be3d 96dc ff3c 1f04 313d
00000040: 06f9 47bd 13b8 133d a698 38bd bf4c aebd
00000050: f3d6 e2bd 890f 6fbd f645 4a3c 84c5 593d
00000060: bbb8 aabd 744f 65bd ecc6 b93d 077a 813c
00000070: 835e c53b 1a60 043c 6068 e4ba 5404 873d
00000080: f054 babd 80cd ce3d 4a1a 293c 4fc7 813d
00000090: 8eb3 4ebd 2edd 88bd 80fe 4c3d 8e4a f93c
000000a0: f530 79bd ec5d c73d 12fd 563d 8963 863d
000000b0: 7d87 d5bc a62d 8fbb 378c 5d3d 38c6 90bd
000000c0: bb21 b03c 9ecc 163d b8a7 9b3c 7294 38bd
000000d0: ccda cabd ee91 8e3d 5d29 b9bd ffc2 39bd
000000e0: 1266 743a c1fd 2dbd 75dd f83c 9108 00bd
000000f0: 28e7 883d 90cf 97bd 1783 8dbd 30de 713d
00000100: c56b cc3d 205b 4a3c a62a bcbd 0c68 86bd
00000110: 0c61 49bd e7e4 0f3c b473 4fbd 0e8a 23bc
00000120: c30f 1e3d cd17 593d 961c b1bd 79d7 9c3d
00000130: 8d17 8cbd 4c34 68bd ddcb 77bd 18df 443d
00000140: 6afe 513d c66a 91bc d63c ff3b 98ab 72bd
00000150: badc 823d ff49 9c3c a811 8fbc 13a4 653d
00000160: cd0a 963d a846 9b3c 58d6 633d dfc4 08bd
00000170: bcc7 ba3d f2be aebd 8515 253d 477a cfbc
00000180: d0b6 27bd f38b adbd cfe1 363c 6a29 b13d
00000190: 71d0 a5bc 2230 6fbd 2ecd 8e3d 3d72 a7bb
000001a0: eef5 c6bd 03b5 a1bd d3d4 153d ce8e 533c
000001b0: 1352 b33c b845 3c3d 787b 44bd 224c 863d
000001c0: c1be a13d 25a3 69bd 1ed0 953d e5bf b03a
000001d0: 6148 cabd a80d 99bd b6f0 6ebd 193f 47bd
000001e0: 51b4 eabd cafc 2f3d a892 89bd 4810 74bb
000001f0: 4319 2ebd 18ed 4fbd 2148 a6bd 8786 4c3a
00000200: 1042 093c ff5f f0bd 4464 7dbd dd8f fe3c
00000210: 8200 cabc a235 f53c d903 8cbc b5e9 173c
00000220: 890b 9bbd 058b 3dbd 94ee bd3d 9045 513d
00000230: bacf 973b 1137 e1bc 45bb 41bc 6280 c0bc
00000240: 0e8b 173c ff94 d4bc e981 b1ba 4fef 50bd
00000250: 406a 46bd a1db 6e3d 3ef6 cebd d456 963d
00000260: c147 953d 5fd3 8d3d 778c 8a3c 27ea 9dbb
00000270: 3191 80bd 45ac d3bd dc1b e3bc be01 853d
00000280: 5a22 95bd 4b50 a73d 2d76 5a3c 1d39 bcbc
00000290: 8be3 cdbd 95ec bd3c bc19 77bd b6b3 963d
000002a0: aef5 82bc 2a85 943d 8339 143d 3b41 babc
000002b0: 19ff 3a3c 3073 39bd b798 b93b 807c a43c
000002c0: 4174 8d3d 18e3 023d dbce f6bc 43b8 6ebd
000002d0: cd7d 74bd 43a6 9f3d 90da bcbd 4ebe d4bc
000002e0: ec97 acbc a583 c63c f06e 83bd 0e11 843d
000002f0: 8daf 9b3d 077c 823c e112 9ebb 7aec a6bc
00000300: 1fe6 953c 180b 8e3d 7d1e 553b ea7c 91bd
00000310: 9ba9 a93d 7ac3 fa3c e786 093d 19e4 8b3d
00000320: 703f c2bd b8bf 0e3d 9c40 7abd bd22 2d3c
00000330: c526 883d be1f 90bd 4a46 d13a 671f 863c
00000340: a2a4 a6bd 0a3d 25bd 7814 a83d 73c2 75bd
00000350: 0ac3 283d 21e3 053d fd7c 133b d1b0 bf3c
00000360: 0279 f3bd ffa0 9fbd 2a0f 8ebd 6402 883d
00000370: 2f14 1b3d 14b1 1abb 0799 843d bba6 db3d
00000380: 092f cebd ab7e 83bd cf03 93bd a357 eebc
00000390: c9a8 d13a 0633 463d 6080 5d3d c6e3 9f3d
000003a0: b27b b23c 319f a0bc 55ee c5bd 5b7e 4abc
000003b0: ac02 9a3d 7343 82bc 942e 1abd b4e4 adbd
000003c0: 702d ebbc a3d0 5b3c 9041 77bc a4d8 99bd
000003d0: 141a 553d 3fe2 ab3d 745d a03d 436a 8e3d
000003e0: 5b82 52bb 2859 983d 4dd0 49bd ec59 44bd
000003f0: 7b28 74bd 9d58 c7bc 087e 4fbc 8073 9f3d

gru.bias_ih_l0 f4 [300]
-0.069337405 0.06552489 0.11598579 0.02429937 -0.025203228 -0.030025473 -0.061838333 -0.033177175
-0.06940272 -0.03701147 0.098772004 -0.014023631 -0.02979415 -0.0055542733 0.057005778 0.009190711
0.035224766 0.035985224 -0.02084519 0.07479582 -0.007812818 0.09995982 0.087640055 0.02698922
0.10310124 -0.04819488 0.11266844 0.08922489 -0.0029478732 0.06745202 -0.08132022 -0.05898515
0.06174677 0.080073506 -0.016788462 0.06408175 -0.054402567 0.039350893 0.015480788 0.08493163
0.09672106 0.06976599 -0.06826627 -0.060691144 -0.013433074 -0.016342806 0.0046960507 -0.009443193
-0.03528681 -0.06831482 -0.06593917 -0.011696398 0.07257269 0.011165806 0.0052290186 -0.008282488
-0.08985552 -0.0006348904 -0.0141954785 -0.061737098 0.019055484 -0.0044664238 -0.0037078569 -0.05868462
0.10598082 -0.08072376 -0.03774123 0.0074036466 0.058804993 -0.00663431 -0.012340377 -0.005397078
0.007951893 -0.08323702 -0.045930408 -0.024299227 0.087523654 0.016687842 0.0568843 0.020112567
0.048294827 -0.038031224 0.09275072 0.10105172 0.051074106 0.077184826 0.106530435 0.08551402
-0.050196875 0.08304432 0.082601264 -0.09174176 0.04763563 -0.012552755 0.08381142 0.0061351936
0.08107868 0.08105727 -0.008266668 -0.067519285 -0.029686077 -0.15842718 -0.044290233 0.023273667
0.024838114 0.08340516 -0.07271374 -0.089056924 -0.08005954 0.05590929 0.059535302 -0.02298382
-0.06351419 0.07003357 -0.0084639015 -0.09103835 0.086076275 -0.04947502 0.04426335 -0.004823564
-0.07392243 -0.11824669 -0.0031851695 0.010921491 0.077556096 -0.12105955 -0.028980667 -0.043724887
-0.028437236 -0.03794537 0.07511292 0.0122320615 -0.0773273 0.05952899 -0.055831954 -0.061401516
0.01192518 -0.07575221 -0.012879797 0.08129564 -0.029534439 0.09060433 -0.08802357 -0.015724624
-0.066394776 -0.054508857 -0.06418649 0.049961247 -0.018676063 -0.078831434 0.010159073 0.011270096
-0.10974001 0.04507982 -0.033278737 -0.051353816 0.012687057 -0.040303554 -0.08643511 0.051439382
-0.1402843 -0.08849208 -0.0937994 -0.009671574 -0.11929376 -0.008495115 0.009983164 -0.11121322
0.076380834 0.042820252 -0.12700406 -0.0065529486 -0.013878295 -0.11916081 -0.105591975 -0.097481474
-0.024836024 -0.126722 -0.12800276 0.010974343 -0.06159583 -0.1482262 0.0052508684 0.015899688
-0.010187746 -0.082980104 0.05052761 -0.063179284 -0.049500015 -0.03195545 -0.015616088 -0.091438815
0.04629583 -0.014965532 0.030824201 -0.077358484 -0.074036315 -0.0445545 -0.04206767 -0.062223848
-0.06812493 -0.070715286 0.003170816 -0.008542817 -0.0359817 0.021199211 0.021447113 0.13828449
-0.028795995 -0.105848774 0.03636097 -0.026811397 0.032838218 0.07251717 0.17284365 0.069663055
-0.037915945 0.061485562 -0.027739989 0.0042841593 -0.10909286 0.0037976599 0.039288398 0.0045423363
-0.06490081 -0.052967265 -0.07959196 0.13357341 0.037628464 -0.011158394 0.029103728 0.041693196
0.012430497 0.0565126 0.028300999 -0.010663875 -0.00871067 0.023903923 -0.05747396 0.064948745
-0.101000845 -0.10780077 0.06473263 0.06653329 -0.0473099 0.15033212 -0.13037148 0.053706888
0.028910989 0.12987232 0.028481118 -0.018842306 0.05147649 -0.05188164 0.03801823 -0.013789092
00000000: c500 8ebd ea31 863d f589 ed3d 790f c73c
00000010: 0077 cebc fbf7 f5bc 314a 7dbd cae4 07bd
00000020: 0323 8ebd 5799 17bd fa48 ca3d 5fc3 65bc
00000030: dc12 f4bc 9f00 b6bb e47e 693d a394 163c
00000040: d847 103d 3e65 133d 88c3 aabc 8d2e 993d
00000050: 5501 00bc bcb7 cc3d a17c b33d 7f18 dd3c
00000060: be26 d33d ff67 45bd b6be e63d 8abb b63d
00000070: 1b31 41bb 4924 8a3d 378b a6bd 6a9a 71bd
00000080: 2eea 7c3d 94fd a33d f587 89bc 4b3d 833d
00000090: 3ad5 5ebd 672e 213d 22a3 7d3c a2f0 ad3d
000000a0: b115 c63d 79e1 8e3d 30cf 8bbd 4797 78bd
000000b0: 6516 5cbc 59e1 85bc 54e1 993b 9fb7 1abc
000000c0: e788 10bd a4e8 8bbd 1e0b 87bd 40a2 3fbc
000000d0: fea0 943d c9f0 363c 3058 ab3b 46b3 07bc
000000e0: 2c06 b8bd c66e 26ba 2794 68bc 0ae0 7cbd
000000f0: 3f1a 9c3c 145b 92bb 84ff 72bb 495f 70bd
00000100: 790c d93d 8052 a5bd 8c96 1abd 4a9a f23b
00000110: 81dd 703d a064 d9bb 4b2f 4abc f9d9 b0bb
00000120: a848 023c 2c78 aabd 8621 3cbd 2c0f c7bc
00000130: 9a3f b33d f1b4 883c 83ff 683d 1cc3 a43c
00000140: ccd0 453d a1c6 1bbd 17f4 bd3d 34f4 ce3d
00000150: 1533 513d 1413 9e3d a12c da3d f921 af3d
00000160: 3d9b 4dbd 2413 aa3d da2a a93d 1be3 bbbd
00000170: 941d 433d 12aa 4dbc 52a5 ab3d bc09 c93b
00000180: 940c a63d 5b01 a63d eb70 07bc 8d47 8abd
00000190: 3730 f3bc bc3a 22be ad69 35bd 6ba8 be3c
000001a0: 4d79 cb3c 53d0 aa3d f1ea 94bd 7a63 b6bd
000001b0: 42f6 a3bd 2401 653d 4adb 733d 9048 bcbc
000001c0: ba13 82bd c36d 8f3d 2dac 0abc 5072 babd
000001d0: c248 b03d 52a6 4abd 7d4d 353d fd0e 9ebb
000001e0: a564 97bd 522b f2bd 47be 50bb 0ef0 323c
000001f0: bbd5 9e3d 12ee f7bd dd68 edbc de18 33bd
00000200: 35f5 e8bc 9b6c 1bbd cdd4 993d fc68 483c
00000210: c75d 9ebd acd4 733d 0cb0 64bd 2880 7bbd
00000220: d561 433c fa23 9bbd c905 53bc 547e a63d
00000230: 35f2 f1bc c38e b93d b445 b4bd edd0 80bc
00000240: fcf9 87bd ae44 5fbd 3574 83bd 2aa4 4c3d
00000250: 8bfe 98bc 6072 a1bd 3e72 263c 35a6 383c
00000260: 5fbf e0bd 9ea5 383d 494f 08bd 6158 52bd
00000270: 60dd 4f3c 5715 25bd e404 b1bd 1ab2 523d
00000280: b0a6 0fbe 563b b5bd e619 c0bd 8675 1ebc
00000290: 4950 f4bd 182f 0bbc 6d90 233c c2c3 e3bd
000002a0: 8e6d 9c3d 4a64 2f3d 5a0d 02be 1eba d6bb
000002b0: ca61 63bc 950a f4bd 9b40 d8bd 5ea4 c7bd
000002c0: eb74 cbbc 69c3 01be 2813 03be bbcd 333c
000002d0: e94b 7cbd 9cc8 17be 7a0f ac3b 1040 823c
000002e0: 81ea 26bc 79f1 a9bd 0af6 4e3d 2464 81bd
000002f0: 87c0 4abd b8e3 02bd 9fda 7fbc 4644 bbbd
00000300: b2a0 3d3d fe31 75bc 0983 fc3c 206e 9ebd
00000310: 5aa0 97bd c87e 36bd 264f 2cbd 6fde 7ebd
00000320: 1585 8bbd 2dd3 90bd 77cd 4f3b 2cf7 0bbc
00000330: 8c61 13bd f8a9 ad3c dbb1 af3c 739a 0d3e
00000340: 94e5 ebbc 3ec7 d8bd 3eef 143d 93a3 dbbc
00000350: 5e81 063d e283 943d edfd 303e 81ab 8e3d
00000360: c04d 1bbd 49d8 7b3d f93e e3bc 2262 8c3b
00000370: 146c dfbd 29e2 783b dfec 203d e1d7 943b
00000380: b7ea 84bd 34f4 58bd 1c01 a3bd 78c7 083e
00000390: 4e20 1a3d b2d1 36bc f16a ee3c 7cc6 2a3d
000003a0: 49a9 4b3c c279 673d 7fd7 e73c 89b7 2ebc
000003b0: 33b7 0ebc 29d2 c33c d169 6bbd d903 853d
000003c0: 88d9 cebd a6c6 dcbd 8b92 843d 9b42 883d
000003d0: 07c8 41bd aaf0 193e 1a80 05be c1fb 5b3d
000003e0: bdd6 ec3c 40fd 043e 3c51 e93c 2e5b 9abc
000003f0: 03d9 523d d881 54bd 01b9 1b3d a5eb 61bc

gru.bias_hh_l0 f4 [300]
-0.07602689 -0.06610452 0.0569838 -0.016795598 0.046821877 -0.029360842 -0.021068249 -0.08757245
0.03245236 -0.056843456 0.07740139 0.06711061 -0.072128385 0.0805167 0.048339993 -0.045789592
0.00483772 -0.016231293 0.004472928 0.040286675 0.0656513 0.10735118 -0.043912847 0.085452326
-0.002570428 -0.038952094 -0.044280145 0.065838955 0.014660114 0.030389996 -0.08314021 -0.09428263
0.03985408 0.059594885 0.090841375 -0.05916912 -0.028745515 0.008999726 -0.05170239 -0.03179018
-0.017458176 0.015233742 -0.07436878 -0.07742365 0.093515165 -0.012098345 0.03933501 0.050523035
0.042868517 0.11130712 0.024991555 0.049042065 0.07162801 -0.05641157 -0.013597381 0.02307612
-0.008496596 0.10644535 0.00017811502 -0.048229735 -0.03656374 -0.062422268 0.04851008 0.0089282105
-0.07442389 0.061724454 -0.015328722 -0.08415216 0.04398849 0.09347744 0.098530166 -0.056323923
0.056920346 -0.06361066 -0.06570333 -0.015609264 -0.090804696 0.09748042 0.063623406 0.047466062
0.0008768656 -0.01766273 0.09082078 0.04943691 -0.031159548 -0.081196554 -0.060980804 0.028123973
-0.011409314 -0.069523 0.07649521 0.010221917 0.06544963 0.054797366 -0.005109604 0.07788949
0.115691796 0.049186204 -0.009244381 -0.082255 -0.04401393 -0.038206838 -0.030320238 -0.034820896
-0.14700235 -0.031136204 -0.11296716 0.016722072 0.058802124 -0.0028795414 -0.11306346 0.01512376
0.06863116 0.050194774 -0.09894222 -0.08072238 -0.025181217 0.056121636 -0.021224583 -0.009343607
0.04471299 0.02274736 -0.05550897 -0.023276536 -0.07874263 -0.0924666 -0.0024300744 0.016586537
0.054325912 0.0034734823 -0.013555502 -0.10227002 0.011692591 -0.052355006 -0.03271074 0.072535634
-0.052993037 -0.05786114 -0.021895725 -0.055720378 -0.05182852 0.028077194 -0.109127775 -0.10659417
-0.101438396 0.009499907 -0.042840857 -0.019633649 0.06315845 -0.0057657054 -0.03118556 -0.057589486
-0.051395226 -0.054227427 -0.0005311615 -0.14347786 -0.13455269 0.017904207 -0.04888876 0.0226577
0.015450469 -0.124935225 -0.082650065 0.021188788 -0.027192192 0.050812118 -0.11755011 0.06143703
0.077001624 -0.07500303 -0.1071546 0.04715596 0.072668955 -0.11250771 -0.06622267 -0.07101354
0.07700555 0.04743807 -0.061665636 0.013690263 -0.021160712 -0.13156582 0.04493957 -0.00410943
-0.14557265 0.020406445 -0.0041594044 -0.09853093 -0.10401901 -0.045697197 -0.08934282 -0.009276874
-0.11255836 0.026232086 -0.07691902 -0.083058216 -0.0249493 -0.120296694 -0.08700098 -0.12466235
-0.013537888 -0.020079732 0.1108058 0.044424176 -0.014559493 0.019575708 0.09352268 0.07495339
0.08815089 -0.06541485 0.024963556 -0.07217881 -0.0039083525 0.07188116 0.06388687 0.12086372
0.030128302 0.07729393 0.07797407 -0.050926138 -0.043432575 0.022743892 0.108490616 0.011361017
0.05240257 -0.018183166 0.053638145 0.00935855 0.050481483 -0.044261873 0.023707656 0.055920206
0.009981754 0.08656569 -0.053742196 -0.0030800474 -0.0064633004 0.08529352 0.014351161 0.13665886
-0.08031297 0.017133515 0.029888144 0.019476043 0.06533209 0.1363774 -0.09642399 0.10620262
-0.04635513 0.068496406 0.009711986 -0.08429453 0.009416395 -0.06241518 -0.0422325 0.070647165
00000000: fcb3 9bbd ce61 87bd d867 693d ec96 89bc
00000010: 4cc8 3f3d 2686 f0bc 5297 acbc 2f59 b3bd
00000020: c4ec 043d afd4 68bd 9f84 9e3d 4a71 893d
00000030: 0cb8 93bd f1e5 a43d 2800 463d de8d 3bbd
00000040: bd85 9e3b 7df7 84bc a491 923b a403 253d
00000050: 3074 863d efda db3d f5dd 33bd a101 af3d
00000060: a074 28bb 3b8c 1fbd 195f 35bd 93d6 863d
00000070: fa30 703c 71f4 f83c 6a45 aabd 4017 c1bd
00000080: 083e 233d c419 743d 0b0b ba3d 525b 72bd
00000090: b77b ebbc 9673 133c e3c5 53bd 6b36 02bd
000000a0: 7304 8fbc f296 793c a94e 98bd 4a90 9ebd
000000b0: e184 bf3d 2338 46bc bf1d 213d 3ef1 4e3d
000000c0: e696 2f3d fdf4 e33d 17bb cc3c 55e0 483d
000000d0: b5b1 923d d20f 67bd 8dc7 5ebc 220a bd3c
000000e0: 4e35 0bbc 0500 da3d 63c4 3a39 8b8c 45bd
000000f0: dcc3 15bd 7eae 7fbd 81b2 463d a147 123c
00000100: 8d6b 98bd c8d2 7c3d 5225 7bbc f857 acbd
00000110: 462d 343d 1a71 bf3d 2fca c93d eab3 66bd
00000120: 4f25 693d 4e46 82bd 788f 86bd 00be 7fbc
00000130: d0f7 b9bd d0a3 c73d fd4c 823d c66b 423d
00000140: 74dd 653a 6eb1 90bc 3f00 ba3d 5b7e 4a3d
00000150: 4f42 ffbc 614a a6bd 02c7 79bd 3f64 e63c
00000160: 22ee 3abc 1362 8ebd 85a9 9c3d d479 273c
00000170: 750a 863d 3473 603d 776e a7bb 8684 9f3d
00000180: d2ef ec3d 7977 493d bf75 17bc 4f75 a8bd
00000190: f347 34bd c67e 1cbd 2662 f8bc 5ba0 0ebd
000001a0: c987 16be 5a11 ffbc 545b e7bd bafc 883c
000001b0: 7fda 703d b0b6 3cbb d18d e7bd a6c9 773c
000001c0: 7e8e 8c3d 0999 4d3d 38a2 cabd c651 a5bd
000001d0: d748 cebc cddf 653d 2ddf adbc ee15 19bc
000001e0: f824 373d ac58 ba3c 605d 63bd 6fae bebc
000001f0: d143 a1bd 215f bdbd e241 1fbb 7de0 873c
00000200: d984 5e3d 5da3 633b e517 5ebc f272 d1bd
00000210: 4892 3f3c 3472 56bd b2fb 05bd 908d 943d
00000220: 3a0f 59bd ceff 6cbd aa5e b3bc 0d3b 64bd
00000230: 244a 54bd 2502 e63c 627e dfbd 0b4e dabd
00000240: efbe cfbd 7fa5 1b3c e579 2fbd bfd6 a0bc
00000250: 3859 813d 3eee bcbb dc78 ffbc f4e2 6bbd
00000260: cd83 52bd 941d 5ebd a53d 0bba dceb 12be
00000270: 2ec8 09be d8ab 923c 953f 48bd a49c b93c
00000280: f723 7d3c 0ade ffbd 7044 a9bd 1c94 ad3c
00000290: 29c2 debc 5e20 503d 1dbe f0bd 65a5 7b3d
000002a0: 07b3 9d3d 309b 99bd df73 dbbd 9c26 413d
000002b0: 76d3 943d 716a e6bd c09f 87bd 8c6f 91bd
000002c0: 16b5 9d3d 6c4e 423d 1b95 7cbd 204d 603c
000002d0: 3b59 adbc 31b9 06be 8e12 383d 66a8 86bb
000002e0: ff10 15be 6b2b a73c 9d4b 88bb 96ca c9bd
000002f0: eb07 d5bd fc2c 3bbd 5ef9 b6bd 08fe 17bc
00000300: ff84 e6bd ace4 d63c b887 9dbd 6d1a aabd
00000310: 7962 ccbc 1d5e f6bd 922d b2bd f94e ffbd
00000320: 05ce 5dbc 407e a4bc 27ee e23d 20f6 353d
00000330: f18a 6ebc 3c5d a03c d288 bf3d 2a81 993d
00000340: 7488 b43d 39f8 85bd 5f80 cc3c 7cd2 93bd
00000350: a311 80bb 6e36 933d 1fd7 823d 6687 f73d
00000360: a1cf f63c 484c 9e3d dfb0 9f3d ed97 50bd
00000370: 5be6 31bd 6651 ba3c 5430 de3d 8f23 3a3c
00000380: 14a4 563d ddf4 94bc acb3 5b3d 9b54 193c
00000390: acc5 4e3d f04b 35bd 8f36 c23c 960c 653d
000003a0: 838a 233c 5a49 b13d c720 5cbd 9fda 49bb
000003b0: 18ca d3bb 5eae ae3d 2221 6b3c 4df0 0b3e
000003c0: 207b a4bd 965b 8c3c fbd7 f43c 398c 9f3c
000003d0: d5cc 853d 84a6 0b3e f179 c5bd c280 d93d
000003e0: e0de 3dbd d847 8c3d 061f 1f3c 9ca2 acbd
000003f0: 3947 1a3c 0fa7 7fbd fcfb 2cbd 76af 903d

gru.weight_ih_l0_reverse f4 [300, 100]
0.04628884 0.023575654 0.074185275 0.06467312 0.014946008 0.06030438 0.032685746 -0.09197784
0.091037944 -0.09681975 0.016150394 -0.026572248 -0.06421823 -0.01916742 0.041258886 -0.06409036
-0.025929684 0.09528695 0.0056301127 -0.07110987 -0.06871861 -0.09361933 0.033045076 -0.002968384
-0.06380562 -0.0099915005 0.066778116 0.094300054 -0.09437082 -0.046437696 0.07971266 -0.0959552
-0.018557504 0.043433283 0.03194411 0.031466633 -0.025538495 0.08247586 -0.010975917 -0.036087744
0.09119991 -0.0074628456 0.043908585 -0.05339776 0.00834084 0.008263809 0.082678616 -0.046638396
-0.07692017 -0.015960645 -0.040418442 -0.07344884 0.09588771 0.026067052 0.038144045 0.0065737534
-0.09256454 -0.04965079 -0.06228818 -0.03961192 0.080081284 0.08154711 -0.068734534 0.081924215
0.06329013 -0.017123606 -0.07561136 -0.041567918 -0.09915288 -0.06496733 -0.050555103 -0.011636758
-0.010240589 0.0965265 0.086316034 0.060706165 -0.09502936 -0.056404132 0.021390835 0.06552396
-0.044882197 0.07679178 -0.03783417 0.033513885 0.029954176 0.049350448 0.055425372 -0.07281959
0.09821737 -0.01614513 0.09538979 0.037850395 -0.028940946 -0.00936498 -0.073563814 -0.046188716
-0.07772975 0.048451304 0.004407256 0.047480166 -0.027686087 -0.08641131 -0.019123886 -0.082266435
-0.08569213 0.0628938 0.0763279 -0.07974322 0.043333072 -0.03380298 -0.030896278 0.059654344
-0.07442475 0.020370629 0.03158911 0.08536065 0.01191062 0.04099216 0.06657228 -0.06608354
-0.03586507 0.07170987 0.048687004 -0.022203086 0.012703149 0.01522104 0.102319986 0.05960944
-0.09305181 -0.06569625 0.060668685 -0.040644564 -0.07747369 -0.06365336 0.01979704 -0.056873992
-0.03138494 -0.013995437 0.0018582544 -0.07757908 -0.05730375 0.051020924 0.06779557 0.0819289
0.055312954 0.059076786 0.04106229 -0.06256339 -0.007420467 0.030865345 -0.089114346 -0.008125333
-0.0015440733 -0.04976888 0.078253314 -0.06208959 -0.052782957 -0.01126486 -0.05670639 -0.08341834
-0.040113397 0.03776144 0.052124333 0.022483528 -0.008353721 -0.054194536 0.04090891 -0.024511335
-0.06590394 -0.065137506 -0.058819387 -0.0043964004 -0.09200493 0.047448505 0.06452675 -0.00875307
0.001508512 -0.086349934 0.086588666 0.0007723242 -0.08791612 -0.005993231 -0.0616251 -0.04027312
0.10154415 0.09101904 -0.068874314 0.06732609 0.061249737 -0.010304908 -0.004501121 -0.06911752
-0.088441126 -0.0443533 -0.04992587 0.00023208163 0.08366327 -0.07561882 0.021562025 0.049674023
0.04454503 0.08183884 0.09015212 0.020539757 0.034074448 -0.038924027 -0.093688466 0.042683728
-0.08918002 -0.005188346 0.07837208 -0.070457585 -0.042884942 0.020657387 0.04159513 -0.07832776
-0.010919333 0.019204231 -0.053197384 0.0877644 0.054250423 -0.010478097 0.03959783 -0.0028138338
-0.014105263 -0.049681347 -0.048143547 -0.09191048 -0.045520604 -0.016690768 -0.10172423 0.047330964
0.031910837 0.11492099 0.09138351 -0.061636113 -0.054698545 0.018606966 -0.0005132701 0.050609857
0.04899251 -0.011956441 -0.054832425 -0.01861913 -0.06563973 0.002318521 -0.0132790655 -0.03177872
0.021443605 0.07535962 0.015073187 -0.030739408 -0.0013218254 0.08133212 0.02611482 0.039085157
00000000: 5e99 3d3d bb21 c13c 73ee 973d 5773 843d
00000010: 1ae0 743c ba01 773d 7de1 053d e15e bcbd
00000020: 1a72 ba3d 6f49 c6bd d54d 843c 0bae d9bc
00000030: d984 83bd fe04 9dbc 14ff 283d cf41 83bd
00000040: 7d6a d4bc ce25 c33d cf7c b83b 0da2 91bd
00000050: 58bc 8cbd 7ebb bfbd 465a 073d 3889 42bb
00000060: 85ac 82bd 64b3 23bc f7c2 883d 6320 c13d
00000070: 7d45 c1bd 7435 3ebd 6440 a33d 2984 c4bd
00000080: e805 98bc 19e7 313d d4d7 023d 28e3 003d
00000090: 1b36 d1bc 1be9 a83d 55d4 33bc bed0 13bd
000000a0: 05c7 ba3d e38a f4bb 7dd9 333d 9cb7 5abd
000000b0: 05a8 083c ed64 073c 6853 a93d e707 3fbd
000000c0: 5288 9dbd e6bf 82bc cf8d 25bd 586c 96bd
000000d0: c760 c43d 928a d53c ee3c 1c3d a468 d73b
000000e0: 7a92 bdbd a05e 4bbd e421 7fbd 1c40 22bd
000000f0: a801 a43d 2c02 a73d b1c4 8cbd e2c7 a73d
00000100: 419e 813d ce46 8cbc 21da 9abd 1f43 2abd
00000110: aa10 cbbd 970d 85bd de12 4fbd 1aa8 3ebc
00000120: 25c8 27bc b0af c53d 76c6 b03d 07a7 783d
00000130: c19e c2bd 0508 67bd d53b af3c 6d31 863d
00000140: 65d6 37bd 0245 9d3d 01f8 1abd db45 093d
00000150: 7662 f53c b223 4a3d b705 633d 7022 95bd
00000160: 3026 c93d cb42 84bc b95b c33d 0409 1b3d
00000170: 9015 edbc 936f 19bc a0a8 96bd 6130 3dbd
00000180: c630 9fbd e074 463d be6a 903b 907a 423d
00000190: efcd e2bc 6af8 b0bd b2a9 9cbc 4e7b a8bd
000001a0: 5b7f afbd 77ce 803d cd51 9c3d 6a50 a3bd
000001b0: 057e 313d fe74 0abd 311a fdbc 1d58 743d
000001c0: 016c 98bd 4ee0 a63c 9563 013d 91d1 ae3d
000001d0: c324 433c 65e7 273d 0c57 883d cf56 87bd
000001e0: 40e7 12bd a0dc 923d 066c 473d 3fe3 b5bc
000001f0: de20 503c ab61 793c 248d d13d 0729 743d
00000200: f391 bebd c18b 86bd ba7f 783d ea7a 26bd
00000210: 87aa 9ebd b15c 82bd 672d a23c b4f4 68bd
00000220: 7f8d 00bd 1e4d 65bc ac90 f33a c8e1 9ebd
00000230: 56b7 6abd 51fb 503d 67d8 8a3d 57ca a73d
00000240: d68f 623d 80fa 713d ef30 283d 3c21 80bd
00000250: 6427 f3bb 52d9 fc3c 9581 b6bd 1e20 05bc
00000260: 8162 caba 74da 4bbd 4643 a03d a751 7ebd
00000270: f132 58bd 3f90 38bc f644 68bd 3cd7 aabd
00000280: f24d 24bd bdab 1a3d 5380 553d 602f b83c
00000290: 0cde 08bc 17fb 5dbd 1a90 273d ffcb c8bc
000002a0: a5f8 86bd d066 85bd 99ec 70bd ae0f 90bb
000002b0: 156d bcbd 5d59 423d 9a26 843d 0969 0fbc
000002c0: 43b9 c53a 3cd8 b0bd 6655 b13d cd75 4a3a
000002d0: 5e0d b4bd de62 c4bb 9a6a 7cbd 6df5 24bd
000002e0: 61f6 cf3d 3168 ba3d fa0d 8dbd 43e2 893d
000002f0: 01e1 7a3d ebd5 28bc 247e 93bb 7c8d 8dbd
00000300: 9f20 b5bd ceab 35bd 127f 4cbd f05a 7339
00000310: a657 ab3d 0ade 9abd d8a2 b03c fd76 4b3d
00000320: d974 363d 1f9b a73d ada1 b83d fe42 a83c
00000330: a691 0b3d cd6e 1fbd bddf bfbd 22d5 2e3d
00000340: 04a4 b6bd 0003 aabb 8b81 a03d 114c 90bd
00000350: 1fa8 2fbd ae39 a93c a85f 2a3d 4e6a a0bd
00000360: 01e7 32bc 3152 9d3c 80e5 59bd d2bd b33d
00000370: b135 5e3d 53ac 2bbc 5631 223d 4c68 38bb
00000380: c319 67bc ab7e 4bbd 2b32 45bd 903b bcbd
00000390: d073 3abd 14bb 88bc cb54 d0bd 1dde 413d
000003a0: f0b4 023d b25b eb3d 4727 bb3d 2676 7cbd
000003b0: 950b 60bd a36d 983c f98c 06ba 484c 4f3d
000003c0: 5fac 483d f3e4 43bc f797 60bd 2587 98bc
000003d0: 1f6e 86bd 54f2 173b 7090 59bc 672a 02bd
000003e0: 80aa af3c 2556 9a3d 87f5 763c 36d1 fbbc
000003f0: 1a41 adba 7491 a63d bfee d53c c217 203d

gru.weight_hh_l0_reverse f4 [300, 100]
-0.0043060128 0.020862265 -0.07291142 -0.0994027 0.016164917 -0.04906686 0.060027223 -0.057881095
0.030297257 0.039736427 -0.046701837 -0.033863258 -0.070363104 0.067815214 -0.045419533 0.08847328
0.0070950123 -0.07830314 -0.030980298 0.09030327 0.07974513 -0.08175311 0.01846174 -0.012884198
-0.094432585 -0.023825463 0.034512922 0.013114341 -0.032785095 -0.024243966 -0.08817675 -0.06989402
0.078077406 -0.008147127 -0.029084496 -0.0069602244 0.053219397 0.054230254 0.06693513 -0.007917469
0.05968107 0.07171876 -0.08977301 0.04710973 -0.07644514 -0.09609882 -0.04436053 -0.09935055
0.03679992 0.036303017 0.028089963 -0.01837616 -0.079700455 -0.061687585 0.09047567 -0.09764984
-0.089095876 -0.06919028 -0.053604007 -0.093762696 -0.018984536 0.053788375 -0.008450418 -0.09545931
-0.03738835 0.022934861 0.01126949 0.076319724 -0.05767573 0.043340456 0.044445425 0.00022310556
-0.026785407 0.0047568716 -0.0563111 0.05347998 0.046999052 0.040876865 0.0736944 -0.053335
-0.04411717 -0.021979194 0.0977863 0.046338443 -0.09604922 0.09050084 0.046816465 -0.0013181166
0.018338425 -0.04600037 0.019170573 0.074230045 -0.08871064 0.042715587 -0.04736767 0.00018103237
0.04292481 -0.02481992 -0.07238185 0.062282618 0.087398134 0.0034707517 -0.0051843473 -0.038290072
-0.038621392 0.092471875 0.09253834 -0.08163149 0.0319615 -0.056764793 -0.07995572 0.091161214
0.049365975 -0.016503956 0.05611438 -0.065615796 0.01388297 -0.042522207 0.021721615 0.09229164
0.033382405 0.048430372 -0.091646865 -0.00012208492 -0.007144171 -0.020057665 0.035148773 -0.030774899
0.082065746 -0.022690745 -0.09210781 -0.08554192 0.07250538 0.0072591347 0.04655968 0.05862922
-0.049277935 0.019957524 0.0391045 0.046698626 0.083008945 0.075680286 -0.053229664 -0.0031787173
0.096201316 -0.08717156 -0.037090164 -0.06902188 -0.0312039 0.07637038 -0.04635398 -0.06201608
-0.020502398 0.069284596 -0.02582695 0.06164291 0.03853035 0.06948111 -0.08727729 0.078498706
-0.07886132 0.018094426 -0.07405415 -0.022290545 0.0035152638 0.013775776 0.013875681 0.0072351894
0.029728774 -0.05084591 0.010055533 0.052706543 0.060303975 0.03191843 0.020166874 0.0010914345
0.025567869 0.014977754 0.050461043 0.09109282 -0.012595617 0.09927451 0.09705523 0.0009777512
7.83975e-05 -0.015325221 -0.002803786 0.016897127 0.011835051 0.0013889158 0.06994001 -0.04416831
-0.07216942 -0.053786 0.05790614 0.08697465 0.094390996 0.0734866 0.06331747 -0.032724094
0.09476567 -0.08853732 -0.012014056 -0.0953112 0.094842926 0.08094216 -0.08553817 -0.03440841
-0.016827311 0.045247495 -0.03210585 -0.10331873 -0.0017087118 0.0334899 -0.0048292098 -0.10661776
0.08427557 -0.077525035 0.070989594 0.08407492 0.082120515 0.110283084 -0.09852028 -0.03036085
0.096110515 0.037640207 -0.05129197 -0.015927762 -0.017538762 0.0294813 -0.08873777 -0.089526
0.081316605 0.025155354 -0.08076255 -0.060224697 0.09169776 0.08926938 0.03511123 0.104895525
0.076413915 -0.05183582 0.0057326765 -0.013192504 -0.03177338 -0.035736043 0.0068176817 -0.0635917
-0.05195527 0.016330287 -0.013932065 -0.024632253 0.09217505 -0.061023187 -0.06835927 -0.0919544
00000000: 7419 8dbb 57e7 aa3c 9552 95bd a593 cbbd
00000010: 4a6c 843c 55fa 48bd 1bdf 753d ba14 6dbd
00000020: f431 f83c aac2 223d 6d4a 3fbd 33b4 0abd
00000030: 881a 90bd b4e2 8a3d d509 3abd 7b31 b53d
00000040: 477d e83b 665d a0bd 65ca fdbc ecf0 b83d
00000050: 6a51 a33d 2d6e a7bd 133d 973c 3e18 53bc
00000060: df65 c1bd 9e2d c3bc 6c5d 0d3d 88dd 563c
00000070: aa49 06bd 489b c6bc 0396 b4bd 9924 8fbd
00000080: 0ce7 9f3d 877b 05bc 9c42 eebc 9812 e4bb
00000090: 95fc 593d 8b20 5e3d 4915 893d 46b8 01bc
000000a0: 2374 743d 49e1 923d e9da b7bd 22f6 403d
000000b0: 458f 9cbd 75cf c4bd 63b3 35bd 4d78 cbbd
000000c0: 83bb 163d 79b2 143d ec1c e63c 9a89 96bc
000000d0: fe39 a3bd 1fac 7cbd 4f4b b93d a4fc c7bd
000000e0: e677 b6bd a2b3 8dbd e08f 5bbd a806 c0bd
000000f0: 7585 9bbc 3351 5c3d 9f73 0abc 2c80 c3bd
00000100: 8724 19bd e4e1 bb3c aba3 383c 844d 9c3d
00000110: 633d 6cbd c385 313d 680c 363d 71f1 6939
00000120: 126d dbbc 88df 9b3b 78a6 66bd d30d 5b3d
00000130: 1482 403d 806e 273d 17ed 963d cd75 5abd
00000140: 35b4 34bd b60d b4bc 2f44 c83d 61cd 3d3d
00000150: 74b5 c4bd 8158 b93d 9fc2 3f3d a7c4 acba
00000160: 773a 963c e26a 3cbd 9b0b 9d3c ec05 983d
00000170: edad b5bd 8af6 2e3d 9a04 42bd 82d3 3d39
00000180: edd1 2f3d 2553 cbbc ef3c 94bd 0f1c 7f3d
00000190: cbfd b23d 8d75 633b 75e1 a9bb 0dd6 1cbd
000001a0: 7731 1ebd e561 bd3d be84 bd3d 692e a7bd
000001b0: 10ea 023d 3382 68bd d3bf a3bd bbb2 ba3d
000001c0: fa33 4a3d 4e33 87bc 31d8 653d 9361 86bd
000001d0: 6675 633c c42b 2ebd 87f1 b13c 6603 bd3d
000001e0: fdbb 083d ed5e 463d 5ab1 bbbd ec03 00b9
000001f0: a619 eabb f94f a4bc 29f8 0f3d a41b fcbc
00000200: 1612 a83d f1e1 b9bc 05a3 bcbd 9a30 afbd
00000210: b37d 943d 09de ed3b 5db5 3e3d 3125 703d
00000220: a9d7 49bd f67d a33c 0a2c 203d 0f47 3f3d
00000230: 9800 aa3d 44fe 9a3d 5907 5abd 0752 50bb
00000240: 3205 c53d 0187 b2bd dbeb 17bd 585b 8dbd
00000250: 529f ffbc 1368 9c3d acdd 3dbd 9304 7ebd
00000260: a5f4 a7bc 15e5 8d3d 0a93 d3bc 477d 7c3d
00000270: 00d2 1d3d 1d4c 8e3d 70be b2bd eec3 a03d
00000280: 0b82 a1bd c33a 943c b4a9 97bd a99a b6bc
00000290: 5760 663b cbb3 613c d356 633c 2b15 ed3b
000002a0: c289 f33c cd43 50bd f6bf 243c d1e2 573d
000002b0: 4d01 773d e6bc 023d 0035 a53c 770e 8f3a
000002c0: b573 d13c 4165 753c 3db0 4e3d df8e ba3d
000002d0: d95d 4ebc 6f50 cb3d e4c4 c63d e327 803a
000002e0: 5669 a438 a316 7bbc b9bf 37bb d86b 8a3c
000002f0: cde7 413c 480c b63a b53c 8f3d d4e9 34bd
00000300: 90cd 93bd b54e 5cbd fd2e 6d3d c41f b23d
00000310: 1150 c13d 2480 963d 97ac 813d b309 06bd
00000320: 8114 c23d 0e53 b5bd 9ad6 44bc 8532 c3bd
00000330: 023d c23d 01c5 a53d a32e afbd d5ef 0cbd
00000340: 6ed9 89bc 7055 393d 6c81 03bd c598 d3bd
00000350: dbf6 dfba b52c 093d 593e 9ebb 6a5a dabd
00000360: ac98 ac3d 72c5 9ebd fe62 913d 792f ac3d
00000370: cd2e a83d 19dc e13d 00c5 c9bd 51b7 f8bc
00000380: 97d5 c43d 9e2c 1a3d 8717 52bd f07a 82bc
00000390: 73ad 8fbc c482 f13c 26bc b5bd 6859 b7bd
000003a0: 5289 a63d 9a12 ce3c d666 a5bd 2cae 76bd
000003b0: 09cc bb3d ddd2 b63d cbd0 0f3d 77d3 d63d
000003c0: e67e 9c3d cc51 54bd 2dd9 bb3b 5f25 58bc
000003d0: ce24 02bd f55f 12bd dc66 df3b 5d3c 82bd
000003e0: 0dcf 54bd 18c7 853c 5143 64bc 94c9 c9bc
000003f0: 46c6 bc3d 73f3 79bd f2ff 8bbd 9752 bcbd

gru.bias_ih_l0_reverse f4 [300]
-0.08566576 0.056789618 0.068214014 0.07460566 0.04623642 0.07676359 0.057994045 0.07359075
0.050294038 0.051718242 -0.06472451 -0.04219884 0.018484171 -0.011285839 0.03490021 0.019272495
0.07193088 0.07164992 0.032212876 0.05588919 0.046497297 -0.02901899 0.094320744 0.045612104
-0.039977055 0.029451802 -0.057046045 -0.014916398 0.08189091 0.06525133 0.059459854 0.10911813
0.013210919 -0.013490727 -0.05512731 0.08127128 0.11023426 0.07542342 -0.026039131 0.11510375
0.045869447 0.10500045 0.084127165 -0.008784695 0.097550675 0.087334126 0.04648871 0.015512066
0.007693333 -0.034688253 0.046968438 0.063143365 -0.083731495 0.04851566 0.07813354 -0.007786586
0.09162925 -0.02454294 -0.026522156 -0.030049888 -0.05867669 0.003170278 -0.04679025 0.059049334
-0.0881725 -0.020661898 0.07020637 0.07740128 0.030507118 -0.07608076 0.053328216 0.0577278
0.052572127 0.044478502 0.06325844 -0.04655413 0.118121296 0.056695454 0.058857348 0.041259967
0.12640011 0.0686532 0.0062924954 -0.011008896 0.09176304 -0.011732138 0.03260696 -0.05842167
0.026156161 0.04609591 0.014847116 0.052926842 0.10219605 0.035444632 0.037671693 0.10308851
0.009932032 0.0901252 -0.059521537 0.06337164 0.06126817 0.04652197 -0.026985468 -0.089478165
-0.0016501823 0.061073974 -0.017145218 0.072555535 -0.025857447 0.03506698 -0.053083085 4.2277257e-05
-0.085026525 -0.053666815 0.011587459 -0.048984192 -0.12190367 -0.014966458 -0.04677002 -0.1029336
0.07542104 0.044315092 -0.081355885 -0.07285458 -0.11771303 0.07694345 -0.06600184 0.028446287
-0.05976378 0.070645146 -0.08957668 -0.12518568 -0.077518806 -0.05000578 0.017982244 -0.0078095705
-0.0022013297 -0.051634163 -0.03064915 -0.10987289 -0.099085405 -0.063079655 0.05148241 0.035628688
-0.029634204 -0.11855913 0.020715099 -0.14795557 0.023006937 0.04468896 -0.037699416 0.0129669085
0.039347753 -0.034568734 0.04560078 -0.11018835 -0.06414192 -0.087630525 0.015839199 0.025037162
0.044725463 0.033486906 -0.07116269 -0.049878955 -0.015771767 0.057772674 0.010263608 0.030389031
0.02196132 0.06780611 0.0041528977 -0.004960357 -0.11257085 -0.12156706 0.035328683 0.010610512
-0.0066685975 -0.06920226 -0.027745403 0.073386446 -0.13266915 -0.1065262 0.05061854 0.028089678
0.006612471 0.036147736 0.03289783 -0.06584268 -0.0037189769 -0.028952634 -0.12633705 0.06309972
0.040642817 0.0065226117 -0.03218068 0.04925792 -0.08377878 -0.13068683 -0.075633466 -0.09476855
0.039153833 0.088052265 0.014107672 -0.06794816 -0.12153404 -0.13829921 -0.061105493 -0.0194648
-0.029913843 0.14306584 -0.0022772853 -0.1030459 -0.025199156 -0.041199807 0.117014386 -0.06967827
-0.037246693 0.19437121 0.011570577 0.13407703 -0.07750294 0.15574302 0.050436545 0.0424148
0.0019880796 0.02566425 -0.14813174 -0.037323937 0.05690219 -0.06251694 -0.078638434 0.050915662
-0.12114741 -0.0127625875 0.048993964 -0.07326807 0.0068962914 0.10778469 -0.061799895 0.08545846
0.018787382 -0.0122084115 0.06367154 -0.097015016 0.13580503 0.023135876 -0.0020992334 -0.091059186
0.15680133 0.08018991 -0.07388668 -0.15764658 0.041162167 -0.10478524 0.14017117 -0.036815606
00000000: 8871 afbd 3b9c 683d cab3 8b3d daca 983d
00000010: 6662 3d3d 3b36 9d3d 2a8b 6d3d bfb6 963d
00000020: 1f01 4e3d 82d6 533d 498e 84bd b1d8 2cbd
00000030: 1e6c 973c 3de8 38bc 86f3 0e3d 5ae1 9d3c
00000040: 7f50 933d 31bd 923d a6f1 033d 10ec 643d
00000050: f373 3e3d 3cb9 edbc 3c2b c13d c2d3 3a3d
00000060: fbbe 23bd e844 f13c 1da9 69bd e863 74bc
00000070: 6cb6 a73d 7da2 853d 2d8c 733d 5379 df3d
00000080: 9c72 583c 3608 5dbc 2dcd 61bd 8f71 a63d
00000090: 80c2 e13d 9877 9a3d 0450 d5bc 84bb eb3d
000000a0: 9ae1 3b3d 7a0a d73d dd4a ac3d aeed 0fbc
000000b0: a6c8 c73d 3cdc b23d f26a 3e3d 5226 7e3c
000000c0: 5b18 fc3b 4515 0ebd fa61 403d 4f51 813d
000000d0: 6b7b abbd 5bb8 463d 7a04 a03d 9e26 ffbb
000000e0: 1ea8 bb3d 470e c9bc fe44 d9bc 2f2b f6bc
000000f0: f856 70bd 70c4 4f3b 22a7 3fbd b7dd 713d
00000100: c993 b4bd 2443 a9bc 5bc8 8f3d 9084 9e3d
00000110: 10ea f93c 3bd0 9bbd b06e 5a3d fc73 6c3d
00000120: df55 573d 172f 363d a48d 813d 8baf 3ebd
00000130: 94e9 f13d 7e39 683d 6714 713d 3600 293d
00000140: 086f 013e 0d9a 8c3d 4731 ce3b a85e 34bc
00000150: 43ee bb3d 2738 40bc e08e 053d 904b 6fbd
00000160: 7245 d63c 11cf 3c3d 5141 733c d1c9 583d
00000170: 2a4c d13d 642e 113d a24d 1a3d 1220 d33d
00000180: f6b9 223c 9093 b83d dbcc 73bd fec8 813d
00000190: 55f4 7a3d d28d 3e3d a110 ddbc 5440 b7bd
000001a0: ee4a d8ba b428 7a3d 2174 8cbc ff97 943d
000001b0: ffd2 d3bc 65a2 0f3d a66d 59bd dc52 3138
000001c0: 6322 aebd bcd1 5bbd 53d9 3d3c a6a3 48bd
000001d0: a2a8 f9bd e035 75bc ec91 3fbd dace d2bd
000001e0: 5976 9a3d be83 353d ea9d a6bd c834 95bd
000001f0: 8713 f1bd 8794 9d3d f92b 87bd 3008 e93c
00000200: deca 74bd 67ae 903d fa73 b7bd ad30 00be
00000210: 2ec2 9ebd dcd2 4cbd 804f 933c 6de7 ffbb
00000220: 2f44 10bb 587e 53bd ed13 fbbc 0a05 e1bd
00000230: 4aed cabd e82f 81bd 38df 523d 63ef 113d
00000240: 6ec3 f2bc 21cf f2bd b6b2 a93c aa81 17be
00000250: 0b79 bc3c c50b 373d b46a 1abd 2873 543c
00000260: 1c2b 213d f297 0dbd e2c7 3a3d 6eaa e1bd
00000270: d75c 83bd a277 b3bd 35c1 813c bc1a cd3c
00000280: 0c32 373d 9129 093d bfbd 91bd e04d 4cbd
00000290: cb33 81bc 0aa3 6c3d b128 283c 6bf2 f83c
000002a0: 3ae8 b33c eedd 8a3d 0815 883b 7e8a a2bb
000002b0: 8c8b e6bd 27f8 f8bd cfb4 103d b7d7 2d3c
000002c0: 4084 dabb eab9 8dbd 544a e3bc a24b 963d
000002d0: 6cda 07be 692a dabd 6355 4f3d 531c e63c
000002e0: 6dad d83b a60f 143d e0bf 063d 87d8 86bd
000002f0: 14ba 73bb 132e edbc 805e 01be 6d3a 813d
00000300: 1579 263d a2bb d53b e4cf 03bd acc2 493d
00000310: 3694 abbd c5d2 05be b8e5 9abd 0316 c2bd
00000320: c55f 203d bf54 b43d dd23 673c 6828 8bbd
00000330: d7e6 f8bd 4f9e 0dbe c149 7abd a574 9fbc
00000340: e00d f5bc da7f 123e 823e 15bb bb09 d3bd
00000350: 766e cebc 21c1 28bd 3da5 ef3d 7bb3 8ebd
00000360: fd8f 18bd 3f09 473e 8492 3d3c 7d4b 093e
00000370: ddb9 9ebd 197b 1f3e 8d96 4e3d 24bb 2d3d
00000380: 714a 023b d53d d23c d9af 17be fce0 18bd
00000390: 4512 693d e208 80bd 300d a1bd f18c 503d
000003a0: 221c f8bd 2c1a 51bc e5ad 483d 920d 96bd
000003b0: 49fa e13b 38be dc3d e321 7dbd d804 af3d
000003c0: ffe7 993c ca05 48bc 3966 823d cfaf c6bd
000003d0: 7910 0b3e 7387 bd3c 4b93 09bb 3d7d babd
000003e0: 8790 203e 9c3a a43d e651 97bd 1b6e 21be
000003f0: a999 283d a599 d6bd 0889 0f3e f6cb 16bd
