parameter/shared.pth (torch_old, 566559 bytes, 10 tensors)

gru.weight_ih_l0 f4 [300, 100]
00000000: a539 a93c 1498 9b3d 2be6 7a3d 41c8 33bd
00000010: 7af1 b03c 2fce 513d ef20 413c c5b6 d9bc
00000020: d49b 5cbd a610 4f3d b6f9 60bd 4835 b7bc
00000030: 547f 88bd 906f 00be 076d 883c 4e0a b13d
00000040: ad48 bfbd 0e95 82bd 4778 82bd e900 813c
00000050: b103 65bc 1954 c3bd 4caf 86bd 1652 893d
00000060: 1c64 2bbd 7792 a53d 57ef ed3c 47e6 b33d
00000070: b88f 2bbc 15cc 18bd 00a6 06bd cd21 31bd
00000080: 4dbb 133e de7f 05be 6fe5 ad3d c87f 20bd
00000090: 1a6e bcbd c9f7 6dbb 6620 4fbd d3e4 2a3d
000000a0: dc32 833c c737 8c3d 4e46 afbd 5ecd 883c
000000b0: 5d99 1a3e b7b0 ae3c 595f 90bd f68c ce3d
000000c0: df58 8abd 201c 943d b0bc 05be 2618 fdbd
000000d0: 104a b13d 60a7 2c3b 747a ba3d 3d69 a13c
000000e0: 0fbc 613c 7a43 243d 1c23 d83d 8e9f 5c3d
000000f0: 1793 173d 19cd d43b be5e 2cbc ef4e 89bc
00000100: c33f f9bd 6169 2d3d f78a 3b3d 1d70 1abd
00000110: 1b98 3e3d 582c 673d 1bad 983d 3798 f1bb
00000120: edd3 203e 66f4 99bb c48b 283d 6c6c 28bd
00000130: c625 0cbd 9a92 eb3d 3599 e43d d28b b1bd
00000140: 21dd a93d 394a 1abe e6a6 24bd 5a19 073e
00000150: 0f19 373d 850d 763d 1b88 903d ad2e 36bd
00000160: a9cb 073d b858 803c 1c3e 46bd 032c 9fbd
00000170: 4f81 493c aeb8 88bd 1f52 bcbd feb1 68bb
00000180: 5d37 7d3d bbb6 c83c 02d6 66bd 699d ee3c
00000190: 0003 0f3e d823 783d 9a6f 993c 5350 71bc
000001a0: 88a7 f3bd dee9 bbbc d95f 93bd e836 4dbc
000001b0: 5ddf 823c 7886 ba3b 0f6d 793c d015 44bd
000001c0: 9d66 8ebd 3b69 453d 8930 583d a13e e0bc
000001d0: c36a 5ebb 92e8 8b3d bccd 5d3d 1ae0 a33d
000001e0: 360c 9bbd 4736 8cbd d6e7 1bbe 9b91 2c3d
000001f0: 5404 0e3e 2a3c 0c3e 24b7 95bd 09c3 acbc
00000200: 3441 2b3d 4aad a73d 9f26 88bd 5229 89bd
00000210: 9071 143e df0a 273d 6a47 f539 d1ae feba
00000220: d7ee 463d 1a63 da3d a9eb e9bd f383 9f3c
00000230: 14ad 383e b700 843d 6b09 dabc 453e 51bd
00000240: a63c 88bd 4a13 6dbd 0299 ac3d ad9f a43d
00000250: 01be 42bd f4eb 713d d5f9 9cbd d174 eb3b
00000260: c68e 63bd 6611 ecbd b43d e23c 3795 22be
00000270: d057 5ebd 3b3e 4a3e ae44 8e3d e40d 283d
00000280: 109d 493e 4e5c f1bc 6d8c 933b 38e8 283e
00000290: 1281 4a3d ac44 abbd 0eea 58bc 768e ba3d
000002a0: 61cb 1abe f4ce 43bd 6f10 db3d 4276 263d
000002b0: 183a f63c 5679 96bc 8d0b e1bd 37d6 18be
000002c0: 8f2c 893d 8478 5a3c bd57 c8bc 4b9a 22bc
000002d0: fdb7 20bd 24fe d9bd 9bee f93d 83a3 d43c
000002e0: 7589 293e 9c0e ab3d b567 92bd 38bd 5dbd
000002f0: 4922 dcbd aa0b ca3d 73b1 eebd 3859 363d
00000300: 550e 293d fb2d 65be 0651 3f3c e45d edbc
00000310: 0422 dbbd d252 39be 2863 eebc 3c9f a23d
00000320: 7aa0 bb3b 8ae1 183b 1cd6 33bd e7ca 1abd
00000330: f70f 1c3d b668 823c f269 7abd 21cd e7bb
00000340: d414 47bd f368 5c3c 6d65 f3bc cafb aebd
00000350: ec18 903d a303 94bd ec37 4a3c cea7 7e3d
00000360: 4cb3 013e 2866 5cbd b038 fbbc c492 97bd
00000370: 7aef ca3d ab8c 8a3d f34c ed3d 555b 74bd
00000380: 784f 5c3d 56cd c9bd c6cf 47bc 5665 9abb
00000390: b59d a23c 3ff5 e5bd c8f7 f3bd 6522 533b
000003a0: 987e 863d a3eb 013e b9fc 093d 8b25 553d
000003b0: afa4 a83c 2174 b13d 1ce0 bfbd 4498 d63d
000003c0: af4c 80bd e501 993d 7951 d83b 8761 0cbd
000003d0: 7aae ee3c 4d35 a1bd 2331 d73d 8054 a63c
000003e0: c828 573d d28f 67bd 4e3c aebd e98b 84bd
000003f0: da04 bcbd 21df b1bc 58c3 b2bd 21a7 183b
0.02065737 0.07597366 0.06125466 -0.04389215 0.02159952 0.051222023 0.011787637 -0.02657641
-0.053859547 0.050552987 -0.054925643 -0.022364274 -0.06664911 -0.12542558 0.01665355 0.086445436
-0.09340034 -0.06376086 -0.06370597 0.015747504 -0.013977931 -0.09537525 -0.06576404 0.0670511
-0.04184352 0.080845766 0.02904479 0.08784156 -0.010471277 -0.037304003 -0.032873154 -0.043245126
0.14426918 -0.13037059 0.084910266 -0.03918436 -0.09200688 -0.0036311022 -0.050568007 0.04172213
0.016015463 0.06846576 -0.085583314 0.01669949 0.15097566 0.021324499 -0.07049436 0.1008548
-0.06755232 0.07231927 -0.1306026 -0.123581216 0.086567044 0.002634488 0.09105387 0.019703502
0.013777747 0.040103413 0.105535716 0.0538631 0.03700551 0.006494176 -0.010520635 -0.016761271
-0.12170365 0.042336825 0.045786824 -0.037704576 0.046531778 0.056438774 0.07454892 -0.0073728818
0.15705843 -0.004698324 0.041148916 -0.041119024 -0.03421571 0.115025714 0.111620344 -0.08669247
0.0829413 -0.15067376 -0.04019823 0.13193265 0.044701632 0.060071487 0.0705721 -0.044478107
0.03315321 0.015667304 -0.048399076 -0.077720664 0.012298896 -0.0667585 -0.09195351 -0.0035506482
0.061820377 0.024501195 -0.056356438 0.029127793 0.13965988 0.06058106 0.018729974 -0.014728623
-0.118971884 -0.022938665 -0.07196016 -0.012525298 0.015975649 0.0056922995 0.0152237555 -0.047872365
-0.06953166 0.04819606 0.05278066 -0.027373614 -0.0033938147 0.06831469 0.05415128 0.08001728
-0.075706884 -0.0684629 -0.15225157 0.042131048 0.13868839 0.13694826 -0.07310322 -0.021089094
0.04181023 0.08187349 -0.066479914 -0.06697334 0.14496446 0.04078185 0.0004678325 -0.0019430761
0.04856762 0.106634334 -0.11421902 0.019472098 0.18034774 0.06445449 -0.026615819 -0.051084775
-0.06652193 -0.057879724 0.084276214 0.08038268 -0.047544483 0.059062913 -0.07664839 0.0071855565
-0.05555608 -0.11526756 0.027617313 -0.15877233 -0.054282963 0.19750302 0.06946693 0.041028872
0.19688821 -0.02946296 0.004502824 0.16494834 0.049439497 -0.083627075 -0.013239397 0.091092035
-0.15116645 -0.047804788 0.10696494 0.040640123 0.030056998 -0.018368404 -0.10988531 -0.14925466
0.06697952 0.013334397 -0.0244559 -0.009924482 -0.039237965 -0.106441766 0.122037135 0.025956875
0.16556342 0.08352396 -0.07148687 -0.05413553 -0.10748727 0.09865506 -0.116549395 0.04451868
0.041273434 -0.22380821 0.011677032 -0.028975435 -0.10699847 -0.18098 -0.029100016 0.07940528
0.0057259174 0.002332779 -0.043905362 -0.03779116 0.038101163 0.01591907 -0.061136194 -0.007074014
-0.048603848 0.013452756 -0.02971145 -0.08544119 0.070360035 -0.07227256 0.012342434 0.06217175
0.12666053 -0.05380836 -0.03066668 -0.0740104 0.09908958 0.067651115 0.115869425 -0.059657414
0.053786725 -0.09853618 -0.012195533 -0.004711787 0.019850591 -0.112284176 -0.11912495 0.0032216546
0.065671146 0.12687545 0.03368828 0.052037757 0.02058634 0.08664728 -0.09368917 0.10478261
-0.06264626 0.074710645 0.006601509 -0.034272697 0.029135931 -0.078714944 0.10507419 0.020303965
0.052529126 -0.056533642 -0.08507596 -0.06471998 -0.09180613 -0.021712841 -0.08728665 0.0023292976

gru.weight_hh_l0 f4 [300, 100]
00000000: e992 b93d 2edd 733d c116 01bd c6f9 b93d
00000010: 9b6d a7bd 6440 98bd d573 65bc 6e10 9cbc
00000020: 77c7 c6bc 589b 24bd ad39 b7bd f934 783d
00000030: 9e2b bebd 6de6 4abd ae20 923b 332d ed3c
00000040: 72cb 91bc 81cd 2ebd d1fc 73bd c825 72bd
00000050: 4846 15bb d0d5 463b add1 da3d cbbd a8bd
00000060: ac25 9abd 9805 0e3e 4c73 a83d a38c 033b
00000070: ecdc c239 d785 ae3d e6f6 bb3d 0973 a4bd
00000080: 1479 193e 9777 333d 6bae 67bd 6100 503d
00000090: 488b 9dbd 7078 c93d f3f0 703b e119 e33d
000000a0: 3c68 4ebc 20b5 73bd 51e9 013d 988d a6bd
000000b0: bae8 d63c 0a9b 5d3c 201e a63d a384 c3bd
000000c0: ad95 b4bd 1fb9 d53b a298 933d 8b9f cf3b
000000d0: 25e0 12bd d5c0 4b3d 7aa6 293d c054 a03c
000000e0: 68e4 973c a027 0dbe 5efd 6ebd 1e47 16bd
000000f0: c516 07bd 078c 7ebd c310 8c3b 7d0e f0bd
00000100: e173 b9bc fae8 16bd aeb4 8c3c 40ba ed3d
00000110: 5ac3 9fbd ffa1 803d cffd 9c3c 4881 bebd
00000120: 1217 963d 7bad 58bb f010 bbbd 31a1 afbd
00000130: 462f 8b3c d3bb 9e3d d6d2 fabc bf0b 493d
00000140: cf6b 113e 75c0 c2bb 757e 85bd 61d7 92bd
00000150: b9d4 82bd b142 bf3d ad43 af3a 9049 bf3d
00000160: db5b 94bd 681c d1bb a2ad 1e3d 905b ed3d
00000170: 7dbf e2bc 9cdc 533d 47ba e13d 68de 04bc
00000180: 871c b7bd ec21 283d d49b c2bc 1ce4 ca3d
00000190: 07e2 723d b597 16bc 99c7 8fbd ad3c 6f3d
000001a0: 8709 c43d cb02 6d3d c3d5 55bd d6f3 6ebc
000001b0: b23b 9c3d dcd1 a6b8 7582 a23d a5ba 993d
000001c0: cd16 043d f29b e4bc 60f4 133d 0059 beb9
000001d0: 3a11 0e3e 700e b2bc 17ce 2abd 7eaf 033b
000001e0: 2d9d 693c 1f9c ea3d 8508 df3d 4d00 c43d
000001f0: 4e2f 8c3d 8cc3 80ba fa3d b23b fbe2 843d
00000200: 603c fabb 0fea 1a3d c6ba 06bc 4681 613d
00000210: fd95 933b 9d83 703d f24f 36bb 9780 72bd
00000220: 82d3 13bd 055e 883d efab 23bd a7bb 35bd
00000230: 2840 7e3d a12a 883c 5855 43bc f426 26bc
00000240: aff1 a6bc 124a 8bbb 51b5 dbbd 513e f73d
00000250: b6e4 81bd cf31 d33d acce 94bd bd10 8c3d
00000260: b1bc 733d ca97 53bc c63a dc3c e11e 843d
00000270: 995d 253c 8a91 3fbd 2a81 86bd de58 81bd
00000280: 987b 0abd c154 7fbd 1f90 d4bd 722a 86bc
00000290: 235d 263d af3b 9bbc 67dc d53d a647 f53d
000002a0: 9917 bdbd 49c1 4e3d 2ad2 c03c 4f12 193c
000002b0: 9d5f fc3c 5c53 20bd 64b2 f2bd 2213 6f3c
000002c0: 27a9 94bd 08a7 45bd 3399 1bbd ad9f 41bc
000002d0: 1713 833d f99c 71bb 7d9d f0bd aa15 923d
000002e0: 011b 5dbd d07f d13d c337 79bc af28 d3bd
000002f0: 0a51 833d 9e85 c03c b063 0cbd faee 773d
00000300: d21a 38bd 1d22 0a3e ed97 8a3c 8586 88bd
00000310: e791 143c 940f e93c 10e9 31bd ce22 65bd
00000320: 300c e2bc 26b7 713d 883e 623d 22b8 343d
00000330: 9fc9 8bbd 7b3e acbc be21 c7bc c014 863d
00000340: 1672 77bc 77d4 60bd c490 623d 1eb0 513d
00000350: 6832 f93d 6d8e 1cbd 8382 4c3d 7d69 a93d
00000360: 84f7 9f3d f60f edbb a35c bbbc 2d59 a83d
00000370: 2b2a 2a3d fbd5 443d 8cae 273d e046 2fbd
00000380: eca7 26bd efa2 64bd f835 30bd fdfe 7ebd
00000390: 789b 133c e3dc e63c bd1a a13d 96ed 17bd
000003a0: 408d 60bd 14e3 96bd 7c5e 3c3d 248e 4d3c
000003b0: 487f 69bc f920 403b e617 ba3d 654e 5ebd
000003c0: 92a8 04bd bb28 a53d 364f 943d a553 b83b
000003d0: 33c5 7d3d 4c47 3fbd 2694 69bd 14d7 8fbd
000003e0: 234a 4e3b f45f 843b 682c 90bd 8a00 e7bc
000003f0: 8aac 18bd ae9e 543d f4b7 c1bc 9a21 0fbd
0.09061224 0.059537105 -0.03151584 0.090808436 -0.081752025 -0.074341565 -0.014004667 -0.019050803
-0.024265034 -0.04018721 -0.08946548 0.060597394 -0.09285663 -0.049536157 0.004459462 0.028952217
-0.017797206 -0.042676453 -0.059567276 -0.059118062 -0.0022777487 0.0030339845 0.10684524 -0.08239325
-0.075267166 0.13869321 0.08225116 0.002007284 0.00037167163 0.08521622 0.091779515 -0.08029754
0.14987594 0.04381522 -0.056562822 0.05078161 -0.076925814 0.09837425 0.003676471 0.110889204
-0.012598094 -0.059498906 0.03171665 -0.081324756 0.02623402 0.013525734 0.08111215 -0.09546783
-0.08817611 0.0065223123 0.07206847 0.0063361577 -0.035858292 0.049744446 0.04141853 0.019571662
0.01854153 -0.13784647 -0.0583471 -0.036688916 -0.0329807 -0.06214526 0.004274459 -0.117215134
-0.022638263 -0.036843278 0.017175999 0.1160779 -0.07800932 0.06280898 0.019163994 -0.09302002
0.07328619 -0.0033062387 -0.0913409 -0.08575667 0.016990315 0.077506684 -0.030618113 0.049083468
0.14201282 -0.005943353 -0.065182604 -0.071699865 -0.0638823 0.09338892 0.0013371609 0.09340203
-0.072440825 -0.00638156 0.038739808 0.1158973 -0.0276792 0.05172406 0.11021858 -0.008109666
-0.08940988 0.041047975 -0.023755945 0.0990679 0.059297588 -0.009191443 -0.07020492 0.058407474
0.0957213 0.05786399 -0.052205812 -0.014584502 0.076285735 -7.954586e-05 0.07935039 0.07506303
0.032248307 -0.027906392 0.036121726 -0.00036305934 0.13873759 -0.0217354 -0.04170045 0.0020093615
0.014258665 0.11455559 0.10890297 0.0957037 0.0684496 -0.0009823903 0.005439517 0.064886056
-0.007636592 0.037820872 -0.008223241 0.055054925 0.004503964 0.058719266 -0.0027818647 -0.059204664
-0.03609038 0.06658558 -0.03995889 -0.044368412 0.062072903 0.01662189 -0.011922203 -0.010141123
-0.020378916 -0.004250773 -0.10727943 0.12072433 -0.06342451 0.103122346 -0.07265982 0.0683913
0.059506122 -0.012914607 0.026883494 0.06451202 0.010093116 -0.046769656 -0.06567605 -0.06315778
-0.033809274 -0.062336687 -0.103790514 -0.016377661 0.040616166 -0.018949358 0.10442429 0.119765565
-0.092330165 0.0504773 0.023537714 0.009342744 0.03080731 -0.039141998 -0.118504316 0.014591964
-0.07258826 -0.048254997 -0.0379879 -0.011817855 0.064001255 -0.0036867245 -0.117487885 0.07133038
-0.05398083 0.102294564 -0.015211049 -0.10310494 0.06411941 0.023501214 -0.034274757 0.06053064
-0.044947453 0.13489576 0.016918147 -0.066662826 0.009067989 0.028449811 -0.043435156 -0.055941395
-0.027593702 0.059012555 0.055235416 0.044120915 -0.068255655 -0.021025887 -0.024308082 0.065469265
-0.015102884 -0.054890122 0.05531384 0.05119335 0.12167817 -0.038221765 0.049929153 0.082720734
0.07810882 -0.0072345687 -0.022871321 0.08220134 0.04154412 0.04805563 0.040937945 -0.0427922
-0.040687487 -0.055819448 -0.04302022 -0.062254895 0.009009235 0.028181499 0.07866428 -0.037091814
-0.054822206 -0.073675305 0.045988545 0.012546096 -0.014251538 0.0029316528 0.090865895 -0.05427398
-0.032387324 0.08064409 0.07241671 0.0056252056 0.061955642 -0.046698853 -0.05702605 -0.07023445
0.0031477294 0.004039759 -0.0703972 -0.0281985 -0.03727392 0.05190914 -0.023647286 -0.034944154

gru.bias_ih_l0 f4 [300]
00000000: c065 4a3d 753c 383e 6dc1 f33d ea51 363e
00000010: 0086 103e e7f8 883d e3d5 a23d cf77 0c3e
00000020: 0487 5c3d dbbb f53d 25d7 263c 88ee 5e3e
00000030: 5be6 133e 660f c43d eb5a 1b3e ac0b 3b3e
00000040: a113 fc3d 7fef 303e 9e40 8a3d 6677 7abd
00000050: 62e0 78bd 73d9 ca3d 39bd 1c3e 3445 5c3d
00000060: 0f83 c43d 75dc f13d ff81 a23d 2236 bb3d
00000070: 967e 153d 8073 1f3e a3ed 093e ada7 3e3d
00000080: e905 d73d b1c5 0bbd 7453 363e 405b 273e
00000090: aa8a 973d 3b46 033e 3caf 753c 47e6 0e3d
000000a0: 7db2 613c 6933 263d a90f 3abd 9cb7 0a3e
000000b0: bce6 5c3e ed6a b03b ed4f ce3c 0c1b 073d
000000c0: 8617 7c3d 55dc 603b a74a 7d3c dbf8 1c3e
000000d0: b154 ae3d 06c5 383e 9864 c2bc b84a 3b3b
000000e0: f74c dabc 52ac 123d a99e 913d 51d8 3c3d
000000f0: 3988 e03d eeda 6ebd 67de 073d bb23 74bd
00000100: 13b2 d23d e16d 5c3e d303 d43d 0b38 243e
00000110: 60cb fa3d c4e1 c73d 6fda 87bd 3563 a4bc
00000120: 2bd9 4e3b b67e 833d 6d05 a53d e2e9 c9bc
00000130: 8f74 b13c b569 153d e04e e13d 328e 433e
00000140: b7de 323e d6e6 4dbc 901b ab3c efd2 013e
00000150: 9976 553b 4b95 ff3c faae 393e 4bfb 963e
00000160: 231a 953c 43f9 0e3d f20f da3b 98db a1bc
00000170: 3e6e c33d 2a0b d1bc fa2c 9e3d bfa2 95bc
00000180: 65fe 7e3d 5385 f3bc b50c 523d f6dc 3d3d
00000190: c2c3 4fbc 8602 f53c 5a60 313d d26f 123d
000001a0: dd58 7c3e 8acc b9bd c04b aebd 452d 2d3b
000001b0: c82f 89bc 5020 27bd bc3a d43d 4653 1cbd
000001c0: fb3a 053e 154a 8d3c 0de2 8b3e ec1e 833e
000001d0: 1f61 b13e 66a9 383e e206 3dbd 1ef1 d7bd
000001e0: 1b7b a8bd 0715 013e 7aae 1e3e def4 31bd
000001f0: e1e1 1c3b 5491 653d ca49 b1bc 5039 8dbb
00000200: fff2 ad3b fba3 fcbc 0d01 d43d 7f8a d33d
00000210: eae0 e2b9 fdf1 c23c 8d82 853e 2960 aa3d
00000220: 566c 96bd 933e b13d b6aa 9c3d 43fa 863d
00000230: 29bc 0d3e f861 483d 4c58 5b3b 91bb d73e
00000240: 7f15 ee3b be3e babd 72cd ea3d a6db aa3c
00000250: 5cc2 9d3e b897 a3bc dc12 9d3d 050a 1d3e
00000260: e3fb 8bbc 91ab c63d 7ccb 1abd 9269 cebd
00000270: 4aa6 a4bc 5613 ce3c 3969 82bc edba a13d
00000280: 1e6b f13d c485 36bd f85f 9dbd 7dbf 743b
00000290: 772d f13c 038a 66bc 5d0b 8ebd f1f1 c03d
000002a0: a8a2 bbbd a074 36bd 1b08 edbd e6c2 9c3d
000002b0: b2fc 2d3e e88d 04bd 8190 bb3d f1c3 423e
000002c0: 8bf1 35bd 7d2c a1bd b7eb f8bb 8146 c03d
000002d0: 8644 f3bb 647c cdbd 34fc 213d 3052 f83d
000002e0: 7aa0 4fbd 50db 1c3d f099 26be d194 af3d
000002f0: 0761 563c 7677 a63d 6ada 26bd a0fb 1abe
00000300: cebf 57be 8074 a83e 2d1a 7fbd 16c4 33be
00000310: 4328 bbbd 82e6 1c3c 236d d33b 6e1b debd
00000320: baf5 8ebd 5471 c1be 7b8f 9fbd 58bb 75be
00000330: 886d cf3e 3318 cbbd 7d20 13be 6ba5 fa3e
00000340: d1b2 0bbe 4fab 89bd 71f4 a23d f149 c33e
00000350: 367a 223e 1b3c d5bd 2ecf 06bd 95c3 bcbe
00000360: 0df2 df3d 40d6 74be 72e3 96bd 65aa 62bd
00000370: 9924 8dbe baff 23bc 3800 d3bd ad5e 3bbc
00000380: 4956 b73e b878 46be 5390 27be 9d71 fbbd
00000390: 7d50 383e 372a 64bd dd8b a0be 09d4 953e
000003a0: 6ee1 973e 03d9 3dbc c6bc 023e 6c89 053d
000003b0: d9b8 10bd 44f6 a93c 5296 a7bd cbee dcbd
000003c0: ffd0 e33d 97fb aabe fd7a a33e 8c91 143e
000003d0: c3c5 153e adc0 593d 9f2f 5abd f21c 273e
000003e0: 2c93 933d a8d6 36be ccc9 85bd 02b6 34be
000003f0: b9d1 aabd 210b b1be f80f 323e 2556 76be
0.049413443 0.17991813 0.119021274 0.17804685 0.14113617 0.06688099 0.07950952 0.13717578
0.0538397 0.11998721 0.01018313 0.2177068 0.14443342 0.095732495 0.15171401 0.18266171
0.123084314 0.1727886 0.06750606 -0.061149023 -0.060760863 0.099047564 0.15306558 0.053776935
0.0959531 0.11809627 0.07934951 0.091411844 0.036497675 0.15571404 0.13469557 0.046546627
0.10499174 -0.03412408 0.17805272 0.16343403 0.07399495 0.1281976 0.014995392 0.03488758
0.013775465 0.040576372 -0.04542509 0.13546604 0.21572393 0.0053838403 0.025184596 0.03298478
0.06154587 0.0034311016 0.015459693 0.15329306 0.08512247 0.18043908 -0.023729607 0.0028578471
-0.026648028 0.03580887 0.0711034 0.046104733 0.109634824 -0.058314256 0.033171084 -0.059604388
0.10287871 0.2152629 0.10352292 0.16037004 0.12245822 0.09759858 -0.0663346 -0.020066837
0.0031562548 0.064206526 0.080576755 -0.024647657 0.021662025 0.036477763 0.11001372 0.19097212
0.17467771 -0.012567243 0.020887166 0.12678121 0.003257191 0.031199118 0.18133155 0.29488596
0.01820094 0.034905683 0.006654733 -0.01975803 0.095425114 -0.025518019 0.07723422 -0.01826608
0.06225433 -0.02972666 0.05128165 0.046353303 -0.01268095 0.02990843 0.04330478 0.03575117
0.24643274 -0.09072216 -0.08510542 0.0026424688 -0.016746417 -0.0408023 0.10362765 -0.038165353
0.1301078 0.01724724 0.273209 0.2560953 0.3464441 0.1803337 -0.046149142 -0.10544036
-0.082266055 0.12605678 0.15496245 -0.043446414 0.0023938345 0.0560468 -0.02164163 -0.0043098107
0.0053085084 -0.03083991 0.10351763 0.103291504 -0.00043273653 0.02379703 0.26076165 0.08319122
-0.07344882 0.08654513 0.07649748 0.065907024 0.13841309 0.048921555 0.0033469377 0.4213529
0.007265746 -0.090939984 0.11464967 0.02085669 0.30812347 -0.019969806 0.07669613 0.15335853
-0.017087882 0.097006924 -0.037791714 -0.1007873 -0.020098824 0.025155704 -0.015919315 0.078969814
0.11788009 -0.044561163 -0.0768432 0.0037345581 0.029440625 -0.0140709905 -0.06935761 0.09421147
-0.091618836 -0.044544816 -0.115738116 0.076543614 0.16990927 -0.032361895 0.09158421 0.19020058
-0.044419806 -0.078698136 -0.007596459 0.093884476 -0.00742394 -0.10033491 0.03954716 0.12125051
-0.05069015 0.03829509 -0.1626966 0.08573306 0.013084657 0.08128254 -0.04073564 -0.1513505
-0.21069261 0.32901382 -0.062280823 -0.1755527 -0.09138539 0.009576442 0.006452219 -0.108450755
-0.06980462 -0.37781775 -0.077910386 -0.23997247 0.40513253 -0.09916725 -0.14367862 0.4895433
-0.13642432 -0.06722128 0.0795678 0.3814235 0.15866932 -0.10411855 -0.032912426 -0.36867967
0.109348394 -0.23909855 -0.073676005 -0.055338282 -0.27566984 -0.0100097 -0.10302776 -0.011436147
0.35808018 -0.19381988 -0.16363649 -0.122775294 0.17999454 -0.05570432 -0.31356707 0.29263332
0.29664177 -0.011587384 0.12767324 0.03260176 -0.035332534 0.020747311 -0.08182968 -0.10787734
0.11123847 -0.33395073 0.3192977 0.14508647 0.14626221 0.053162266 -0.05326807 0.16319636
0.07205805 -0.17855322 -0.0653263 -0.17647555 -0.08340783 -0.34578803 0.17388904 -0.24056299

gru.bias_hh_l0 f4 [300]
00000000: 1af4 483d 0da7 e23b dcbd 9c3c ff8d 8f3d
00000010: 3abe 2c3e fc87 983d 3e6d ba3c f504 763e
00000020: 9837 9dbd 74ff 7ebc 7d59 283e e67f 343e
00000030: d5a5 adbc 399c 763d 9f6e 233e 7eef d33d
00000040: 6850 9bbb a5a9 b63d c17f 33bd ef2a c13d
00000050: 722f 823d 5bb2 0f3d 9f39 bc3d 161b ed3d
00000060: f85a 9b3d d117 aabc 1cc0 f13d 2fba 27bd
00000070: a793 85bc 8de6 083e cdf4 f83d 07d6 c23d
00000080: 23ad 4dba 16d8 063e 133e 373e 8a24 cb3d
00000090: 25b1 aa3c 4c78 aebc 4cb1 233e 75e7 473e
000000a0: 8c5e 4c3d 8671 003d 715e 473d 77c0 493d
000000b0: 750c 343e 7a12 e03d b199 c43d 8097 0b3e
000000c0: 2ba5 74bd 997c 363d ede6 023e 35eb 0f3e
000000d0: 9a5e 393a 15c9 ac3d 05c3 86bd c2bd 083e
000000e0: bdd3 c8bc 868a ba3c 25aa 243e 8f08 e83d
000000f0: 9a13 0e3c 35a2 a73b 6486 fabb b2a5 67bd
00000100: 2c26 633c b2ac ce3c bfb3 593d 1ecd 803d
00000110: 7ed3 ac3d 28f5 8e3c d8a8 da3d ef65 193e
00000120: 2fe4 953d 4169 d83d 0c57 85bc 6f0e 9f3d
00000130: 6489 833d 3e0e 7dbc 4486 a43d 3788 193e
00000140: 4701 71bc 3e02 ca3d 10fc 52bd 5ab3 543d
00000150: 2ac5 9cbc f584 6f3d d6c7 523c 531a 453e
00000160: 636e c33d 22ea e23d 479e 20bd abe7 683d
00000170: a8c7 09bd 0cd8 fdbb 308d b63d fab4 9d3d
00000180: 3892 b9bc fb91 113d aa09 0d3e 0b25 d43d
00000190: 8615 b73d afc1 35bd d8fb a53c b3fd 993c
000001a0: 71b1 253e 8d6f 6e3d 1c20 fcbd 3b81 593d
000001b0: 8b37 ecbd dfcf 97bd 6d77 e83d 9fa6 16bd
000001c0: e5fd 3b3b e2f1 57bd 0597 bf3d 962f 9a3e
000001d0: a04f 7e3e e2ae b03e 1ef5 c73c 9b05 52bd
000001e0: 769b 593d 4379 2d3c e086 4a3e f214 473c
000001f0: 8c17 3ebd 6727 efbc 9152 7abc 2546 ae3d
00000200: a4b9 2b3e 3631 abbc 4595 0e3e ba68 833e
00000210: 72cf 073d 9c59 313d 8cfc a13e 8fab d03d
00000220: 646b c53d ca8b b53c d2c9 5a3b 92cf 2b3e
00000230: ee7b 5fbc e798 3b3d 1037 423d 7d21 d43e
00000240: 14be 183d bb76 07bb 2ace cb3d 77ab d0bd
00000250: 219c 233e 3d66 0c3c 483a 1bbb e7d4 623e
00000260: be31 fa3d 7586 703e 01ea 2cbd 726f 9d3b
00000270: e0df aabd 1018 713c 9aec 2c3d 138f f8bc
00000280: 4fd4 313d 76c6 04be e13b 05bc cd27 dd3b
00000290: 557d 4e3d 84f8 17bd 2bf3 06bc 4043 dfbc
000002a0: 477e 64bd 32c3 853d 077f 49bd 592d e53c
000002b0: e1e7 4f3d 18b5 953c 53f6 e53d ca72 0d3e
000002c0: d7bb f83c 0dc3 16be dbb3 1e3d 614f f33d
000002d0: 699d 653d d964 e1bc 2c40 16bc d923 3b3e
000002e0: eec8 f1bd b5db 4b3d b814 07be ea35 e53c
000002f0: 0887 193d 416c 093e 39eb 5fbd 68ce 01be
00000300: e513 25be 7169 8f3e 67cc 14be 911a 4fbe
00000310: 6e15 aa3d e110 293c 9b5e dbbc 0394 99bc
00000320: 2974 3f3d 59c9 2abe e7eb 8c3d 6b8a 3bbe
00000330: 0a2c 843e 8ef2 293d 51b4 883c 96f2 a63e
00000340: 60b7 0d3a bbeb 193c 55a4 b63d d40f 543e
00000350: 8b9f 893e 2cd3 95bc 6827 7fbd 9ba7 09be
00000360: 2be3 cf3c cdfa 2dbe c23b e33c e6a5 54bc
00000370: af27 3dbe ffff e6bc 0e49 dcbd 59b6 b7ba
00000380: 85b9 2f3e 9280 17bd dc40 c3bd 3c5c 423c
00000390: 690e 903d 7b2d 60bd d19d 0abe e37d 563e
000003a0: 973f 6d3e f366 35bb e59d 7d3d 498d 54bd
000003b0: 0edf b3bd 421c 8a3d 39a5 05be 0ba0 4fbe
000003c0: ade2 34bd a556 dbbd b842 993d 2f5c dd3d
000003d0: f5f2 ed3d 65d7 fe3d 30bc a53d 6349 a13d
000003e0: 48a1 c9bd 22f7 94bd 6e4d bdbd 6e66 943b
000003f0: 2969 943d ebad 46be 96e9 53bd 76ad 5abe
0.04906092 0.0069168867 0.0191335 0.070095055 0.1686944 0.07447812 0.022757169 0.24025328
-0.07676619 -0.015563834 0.16440387 0.17626914 -0.021197239 0.06020758 0.15960167 0.10348414
-0.00473981 0.08919076 -0.043823007 0.09432017 0.06356706 0.035082202 0.09190678 0.11577432
0.0758571 -0.02076331 0.1180422 -0.040949043 -0.016305758 0.13369198 0.12156067 0.09513479
-0.0007845929 0.13168368 0.17894773 0.09919079 0.020836422 -0.021297596 0.15985602 0.19521888
0.049894854 0.031358264 0.04867405 0.049255814 0.17582877 0.10941024 0.09599627 0.13632011
-0.05972783 0.04455242 0.12783404 0.14054568 0.00070712867 0.08436791 -0.06580166 0.13353637
-0.024515027 0.022771131 0.1608053 0.113297574 0.008671666 0.005115772 -0.007645415 -0.056554504
0.013864081 0.025228832 0.053149935 0.06289123 0.084387764 0.017450884 0.10676736 0.14980291
0.07318913 0.105669506 -0.016276859 0.07766425 0.064226896 -0.01544529 0.08033422 0.14993368
-0.014709777 0.09863709 -0.051509917 0.051928855 -0.019136984 0.058476407 0.012865027 0.19248323
0.09542539 0.110798135 -0.039213445 0.05686156 -0.033637673 -0.007746702 0.08913648 0.07700534
-0.02265273 0.03553961 0.13773218 0.10358628 0.08939652 -0.044374164 0.02026169 0.018797731
0.1618097 0.058211852 -0.12310812 0.05310176 -0.115340315 -0.07412695 0.11350904 -0.036779996
0.0028685268 -0.05272091 0.093549766 0.3011443 0.24835062 0.34508425 0.024408873 -0.051274877
0.053126775 0.010587993 0.19778013 0.01215099 -0.046409175 -0.029193593 -0.015278474 0.08509473
0.16770035 -0.020897489 0.1392413 0.25665838 0.03315682 0.04329835 0.3163799 0.10188972
0.09639624 0.022161383 0.0033384454 0.167784 -0.013640387 0.045800116 0.047415793 0.414318
0.037290648 -0.0020670134 0.09951432 -0.10188954 0.15977527 0.008569297 -0.0023685861 0.22151528
0.12216519 0.23488791 -0.04221535 0.004804545 -0.08343482 0.01471521 0.04221783 -0.03034166
0.043415364 -0.12966332 -0.008131952 0.0067491294 0.050412495 -0.037102237 -0.008236687 -0.027253747
-0.05578449 0.06531371 -0.04919341 0.027975725 0.050758246 0.018274829 0.11228623 0.1381332
0.030363007 -0.14722843 0.038745742 0.11880375 0.05605832 -0.027513908 -0.009170573 0.18275394
-0.118059024 0.049770076 -0.13191497 0.02797981 0.03748229 0.13420202 -0.054667685 -0.12676394
-0.1612087 0.28010133 -0.14531098 -0.20224978 0.08304869 0.010318966 -0.02677851 -0.018747335
0.04674164 -0.1667837 0.06880932 -0.18314521 0.2581485 0.041491084 0.016687544 0.32606953
0.0005406048 0.009394581 0.089180626 0.20709163 0.26879534 -0.018289171 -0.06229344 -0.13442843
0.025376877 -0.16990204 0.027738456 -0.012979006 -0.1847217 -0.02819824 -0.107561216 -0.0014016136
0.17160614 -0.03698785 -0.09533855 0.011862811 0.070339985 -0.054730874 -0.13536765 0.2094646
0.23168789 -0.002767977 0.061918158 -0.051892553 -0.08782779 0.06743671 -0.13051309 -0.20275895
-0.044161487 -0.107098855 0.07483429 0.10808598 0.11618606 0.12443427 0.080925345 0.078753255
-0.09845215 -0.07273699 -0.09243284 0.004528812 0.0724662 -0.19402282 -0.051736437 -0.21355233

gru.weight_ih_l0_reverse f4 [300, 100]
00000000: b292 653d a493 9dbd 1bb7 0b3d d5a4 2c3c
00000010: 64b1 c43c ca8a d3bc 36c0 a53d a698 113d
00000020: f517 fabc 5eab c7bd 9669 62bc 3d7d 423c
00000030: 7b34 a3bd 8b6d b1bc 7413 9e3c 5dac b23d
00000040: 8898 9e3d 1d58 89bd d1f5 773d 1a80 bbbd
00000050: 5bc7 77bc be14 8e3c 0e1d 693d de56 c6bd
00000060: 4a4f 003d 0787 3c3d 8592 59bc b5c4 5b3d
00000070: 117b b03c 4929 bdbd 6cd2 ddbc 7f29 173d
00000080: 3340 b93c f57e b6bd b915 c93c 97d2 fabc
00000090: 58b0 2abd 47a8 d63b 3783 753d 66b9 47bd
000000a0: 37f9 28bd 7ecf 12bd ef3b bf3a cb40 703d
000000b0: 901a 8bbc 2b3a b63d ca68 48bd 3be8 f3bc
000000c0: 032a a4bc 995a b93d ea49 74bd 9b4a c53d
000000d0: 5f64 b7bb cf4a 34bd 9d4d 903d 22b2 71bd
000000e0: ca0c e93c 883a 273d dabe 5fbd 8a04 d1bc
000000f0: b82b a83d 13a3 80bd eb04 5bbd 0004 afbc
00000100: 7f8c c6bd aa7d 84bc 2179 073d f7ba 74bc
00000110: 739b ca3d 95e7 8b3c d417 b53d 490d 493d
00000120: f1b7 8f3d 9234 4fbc fb97 993d c1f5 c5bc
00000130: 40dc 8f3c ab26 35bd e892 7c3d bb4d 16bd
00000140: 4bc4 99ba ae91 24bd 455a 83bd 90b0 99bd
00000150: 37eb 63bd 4161 85ba 2e48 6e3d e1e0 08bc
00000160: 3bfa b6bd 4bb4 2dbc 7a2c 65bc d63a cfbd
00000170: c733 8ebd 598a 37bd 5ee9 7a3c 99df 69bd
00000180: 0e43 833d 20f7 5a3d 4f78 043d aa90 f03c
00000190: 64ad 033d 9e01 8fbc b59d b3bd 199c 083d
000001a0: a38a 23bd 1351 33bd 3418 7a3d 4c8d 76bd
000001b0: c17a 3ebc 43ec 8ebd 8791 32bd 08e5 7cbd
000001c0: a0ec af3d aabe 1f3d 95f8 b53d dcfe c9bd
000001d0: 41b1 cf3b ba68 c9bd 6745 07bd fcf5 913d
000001e0: d981 02bd ef39 0f3b 295e aebc f1bd b7bd
000001f0: 7a40 c93c 92c9 25bd 0e03 693d 6b1e 4d3d
00000200: 9335 a1bd 7a27 9d3d d68e a4bd acf7 c03b
00000210: 6362 cd3c 9ea2 803c ee15 f7bb 6bf0 763d
00000220: 3ff1 52bc b847 453c f522 92bd 1b5c ba3c
00000230: 04d2 163d fc95 e43b 97c4 91bd d8b1 25bd
00000240: 0d9a 78bd 350d 423d e515 4abd 52a6 583d
00000250: 3a0e d63c dc41 a4bd 5a59 9a3d 2090 ccbd
00000260: 38ea a0bc 3dd6 a3bd dc52 0abd 935f 933d
00000270: 2e54 bc3d eb64 85bb b7cb a7ba d540 37bd
00000280: d129 ee3b ee18 633d 1887 99bd 6122 763d
00000290: 1a62 47bd a1a0 c93d a88f a23d 6344 383b
000002a0: 1857 c93d 0d2e c4bd 2bb1 6fbd 5514 ad3d
000002b0: 10da 093c 5f81 28bc 96af 35bd c30d 96bc
000002c0: 27bb 463d 0e89 a1bc 5337 413c 43b8 d4bb
000002d0: f206 3d3c f03f 22bd 99c4 0fbd a976 2fbd
000002e0: bb95 1f3d bed1 05bd 2478 b53a 81b3 a3bd
000002f0: 3f4e a63d cd6c b5bc 2640 373d 02de bc3d
00000300: 4ace 3fbb 0a14 bbbd a77f 3f3d db20 203d
00000310: b308 a33d 29b4 a43d c336 ad3c fdd3 e2b8
00000320: ef1a 193c b2af 8d3d 2cb4 8c3d f11b 663d
00000330: a262 ab3d 5337 8f3d 6d49 98bd 22e2 80bd
00000340: aa6d c3bd 593d 7fbd a199 553c b7f0 823a
00000350: 2869 8bbc c377 ad3d eb4b abbb 49e9 9d3d
00000360: 4bb3 99bc 533c 7bbd 8270 e4bb 67db db3c
00000370: ac0c 19bd 7e04 bc3d b9b0 cd3d 997f 45bd
00000380: 6680 e9bb 906d a33d 5d92 a1bd 3131 4e3c
00000390: d4a6 b8bd 60a9 5e3d 8b37 9ebd 8d30 c7bd
000003a0: bcfb 083d 1604 babc 9c46 873d b3cb 793d
000003b0: ab07 96bd 5f53 c3bd 90e7 f53a 640c b0bd
000003c0: 5d9e 4c3d e879 053c 7f2a da3c 770f 023d
000003d0: 0d3c 863d 6ad2 9dbd 5ec6 81bc 1356 c33d
000003e0: 9cb9 973d cd1f af3d d6f3 a83d f8d7 e33b
000003f0: 0a3d 303c 19e2 17bc b44a 843d ad54 b4ba
0.056048103 -0.07694176 0.03411017 0.010537346 0.024010368 -0.025823016 0.08093302 0.035545968
-0.030529002 -0.097494826 -0.013819119 0.011870679 -0.07968994 -0.02165868 0.019296385 0.08724282
0.07743937 -0.067062594 0.060537163 -0.09155293 -0.015123214 0.017343875 0.056912474 -0.09684537
0.031325616 0.04602721 -0.013279562 0.05365439 0.021543058 -0.0923639 -0.027077876 0.036904808
0.02261362 -0.08910934 0.024546491 -0.030617995 -0.04167208 0.006550822 0.05993959 -0.048760794
-0.041253295 -0.03584241 0.0014590005 0.05865554 -0.01698044 0.088978134 -0.04892806 -0.029773822
-0.020039564 0.09050483 -0.059640802 0.096333705 -0.005596682 -0.044016656 0.070460536 -0.05900777
0.028448481 0.040827304 -0.05462537 -0.02551486 0.08211464 -0.06281104 -0.053471487 -0.021364212
-0.09694766 -0.016173203 0.033074502 -0.014937154 0.09892931 0.0170782 0.088424355 0.049084935
0.07017506 -0.012646811 0.07499691 -0.024165036 0.017561078 -0.04422633 0.06166354 -0.036695223
-0.0011731473 -0.040177993 -0.06413702 -0.0750438 -0.05564424 -0.0010176079 0.058174305 -0.008354397
-0.089344464 -0.010602067 -0.013987655 -0.10118644 -0.069434695 -0.044809673 0.015314428 -0.057098005
0.06409274 0.053458333 0.032341298 0.029365856 0.03214778 -0.017456826 -0.087703146 0.03335199
-0.039927136 -0.04377849 0.06105824 -0.060193345 -0.0116259465 -0.06978657 -0.043595817 -0.06174186
0.085900545 0.03900019 0.08885304 -0.09863064 0.006338269 -0.09834428 -0.03302517 0.07126996
-0.031862114 0.00218546 -0.021285133 -0.08971775 0.024566878 -0.040475436 0.05688768 0.050077837
-0.078715466 0.07673545 -0.08035056 0.0058889 0.025071329 0.015702542 -0.007540456 0.060287874
-0.0128749 0.012041025 -0.07135574 0.022748997 0.03682138 0.0069758873 -0.07117575 -0.04045281
-0.06069379 0.047375876 -0.049337287 0.05289299 0.02612983 -0.08020374 0.07536574 -0.09988427
-0.019642934 -0.07999847 -0.033770427 0.07195964 0.091957435 -0.0040708682 -0.0012801801 -0.044739563
0.0072681685 0.055443697 -0.0749647 0.06009138 -0.04867754 0.09845091 0.079375565 0.0028116934
0.09831065 -0.09579096 -0.05851857 0.08451144 0.008413807 -0.010284751 -0.044356905 -0.018317109
0.048518326 -0.019718673 0.0117929755 -0.0064916923 0.0115373 -0.039611757 -0.0350996 -0.042837773
0.038961153 -0.03267073 0.0013845009 -0.07993222 0.08120393 -0.022146607 0.04473891 0.09222032
-0.0029267245 -0.091346815 0.046752598 0.039093833 0.079606436 0.08042175 0.021144276 -0.00010816006
0.0093448 0.06918277 0.068703026 0.05617899 0.08368422 0.06992974 -0.0743588 -0.062931314
-0.09542401 -0.062314365 0.013037116 0.0009989952 -0.017017916 0.08470108 -0.005227556 0.07710511
-0.018762251 -0.061336827 -0.00697142 0.026838018 -0.0373656 0.09180544 0.10043473 -0.04821739
-0.007125902 0.07979882 -0.07889245 0.01258497 -0.09016195 0.054360747 -0.07725438 -0.09726057
0.033443198 -0.022707026 0.066052645 0.06098528 -0.07325681 -0.09537386 0.0018761028 -0.08596113
0.049955714 0.0081467405 0.026631592 0.03175303 0.065544225 -0.07706149 -0.01584166 0.09537902
0.07408449 0.085509874 0.08249633 0.0069532357 0.01075674 -0.0092702145 0.06459561 -0.0013758146

gru.weight_hh_l0_reverse f4 [300, 100]
00000000: 721a 9f3d c068 993c 6e69 9f3c cb92 c63d
00000010: caba b6bd ddcd 04bd 3d48 a4bd 1978 c33d
00000020: dbc2 31bd 361d 0d3d 9a6d febc cde9 c03d
00000030: b0db bebc 0971 033d 5043 3abd db0c a2bc
00000040: 1b42 03bd 904d 46bd dbac 863d 19cb 1b3c
00000050: 1aa7 963d f1f2 b43c 2761 52bc a07a c63d
00000060: b791 bfbc ce52 a2bd 70f6 9e3c 53d5 c93d
00000070: b379 fcbc e0b2 cabd c62f 2b3d fe56 04bd
00000080: d842 b53d 177a 4f3d aa99 b6bd 2e61 e73c
00000090: 4f86 6abc 0ce6 2bbd 854b e8bb 6076 c93c
000000a0: 668f f5bc fe1c 8abd f231 313d 31a9 c1bd
000000b0: 04a6 86bc e06f b3bd 5feb 09bd f118 623c
000000c0: 552b 4fbd c834 25bd 5f71 aebd 30d7 c33d
000000d0: 745b 143d a813 c4bd b35d fcbc 9d2f ba3d
000000e0: 446f f63c fc04 c7bd b699 a53d 3315 693d
000000f0: c0ac 11bd 4ced 4dbd a700 613c 789a 953c
00000100: e172 513d 3424 3b3c e50e bd3c c122 53bd
00000110: 4fba ae3d 46ad 41bd fc36 a33d 9659 7cbc
00000120: 9eec 253d f159 af3d 1123 67bb cdbc 3dbd
00000130: 79e0 b93d 160f 21bd be7b c73d e84d c43d
00000140: fef5 8c3d 21f8 63bd ebf6 7c3d 60a1 873d
00000150: 6897 463d c67f 30bd a3f5 40bc 682c 57bd
00000160: 2d0c c9bd 79fb 0f3c 9096 b33d 04cc babc
00000170: 92c4 833d 1f8d c8bd 3b72 9fbd 8416 9fbd
00000180: 5cee a93c 258f e03c 5c1e 55bd 7960 2abd
00000190: 5f81 273d 2672 0c3d aebf ab3b f2c8 8b3c
000001a0: 47af 38bd 39ff b2bd c8ab 3cbd ac33 563b
000001b0: af9a cdbb cfa7 78bd 8bf9 3fbd 037a e33c
000001c0: 1ff7 c23c 16cc a23d 37f6 4f3c c8ca 933d
000001d0: 3ec7 1b3c 886c 46bd 0690 c13b 3fac 973d
000001e0: 7559 71bd 7646 af3d 2859 c03d c555 7fbb
000001f0: a433 ba3d 2aee ac3d 4f59 b73d a990 aa3d
00000200: 1cc3 a4bd 8835 c9bd 44ea cabd 87fe 54bc
00000210: fbfa 023d 11ce c1bb f39f c2bc a4d7 a7bc
00000220: 75da 8c3d a4eb 54bd eb93 1b3c b368 44bd
00000230: 20d3 0ebd d863 87bd b60b 9cbd bbd2 a43d
00000240: bedc 94bd 7a84 873d 4514 c23c 7527 903d
00000250: bbde a9bd e187 55bd b8db 2c3c f05f 253c
00000260: 0d59 52bc 7108 b7bc 7a8c d03c d5ae 2bbd
00000270: f8fd 93bd c025 803d 3438 df3c e2de bd3d
00000280: b2b5 b1bd 2297 c7bd c429 803d 74ba 293d
00000290: 4064 adbd ff13 7bbd b48d bd3d 0e3e a4bc
000002a0: 5b7b 8e3d 2bf5 753d 0c64 98bd 46a7 2e3d
000002b0: 383e 5ebb a588 90bd b1f0 6b3d 77cd 55bd
000002c0: 8da0 d63c f6fd be3d c6b5 93bd 0401 153c
000002d0: 96a6 30bb dea1 923c 528a 57bd 5466 49bd
000002e0: 43f3 5ebd df7b 853d a00a 7abd 8613 2ebd
000002f0: b949 e8bb 7438 95bd 1dcf b1bd 41dc 84bd
00000300: a300 d4bc 3839 c03d b779 d6bc ff95 843d
00000310: c253 bd3d 405c 63bd 58f4 493b 4567 b13c
00000320: 7bb9 31bc 81a6 6bbd 914b bf3d 43d3 a0bd
00000330: d174 b7bd 5602 b73d 7426 8a3c 6f34 46bd
00000340: f1f9 1a3d e0d4 79bc 9121 72bd 9d23 39bd
00000350: 35c2 96bd efaa c13d 74ca 073c cf08 48bd
00000360: 239e dabc 38f8 30bd 8f26 99bd b151 65bc
00000370: 4fe7 623c 6191 a539 bf4d 89bd f7d1 6abd
00000380: 0e40 44bc 2753 4a3d c0fe 11bd 1d27 a03d
00000390: 00e0 a8bd 0f2c 163d 0607 adbd 7c42 263d
000003a0: 1e56 093d 7601 35bd fe14 50bd 4f29 323d
000003b0: 2397 a33d 3a03 8cbc 00a7 60bd 206c 653d
000003c0: c61e 8c3d 2925 ab3d f485 debc 80a9 99bd
000003d0: 858e aabd b197 6ebc d0ac b13c 2a81 983d
000003e0: c65d 043d 9b05 993d 8607 623b 5bc4 a43d
000003f0: f1e4 b4bd 6667 953d 09a1 963c d0a7 e4bc
0.07768716 0.018726707 0.019459452 0.09695967 -0.08922346 -0.03242289 -0.08021591 0.09544391
-0.04339872 0.034451686 -0.031058121 0.09419594 -0.023298115 0.03209022 -0.04547435 -0.01978152
-0.032045465 -0.048413813 0.06575938 0.0095088715 0.07356091 0.0220885 -0.012840546 0.096913576
-0.023384912 -0.0792595 0.01940462 0.098551415 -0.03081975 -0.09897399 0.041793607 -0.032309525
0.0885064 0.050653543 -0.08916028 0.028244581 -0.014314248 -0.041967437 -0.0070890808 0.024592578
-0.029975604 -0.06743811 0.043260522 -0.09456099 -0.016436584 -0.08761573 -0.033671733 0.013799892
-0.050578434 -0.04033354 -0.085177176 0.09562528 0.03622003 -0.09574062 -0.030806398 0.09091113
0.030082352 -0.097177476 0.08085959 0.056904983 -0.035565138 -0.050275132 0.013733066 0.018262133
0.051134948 0.011422206 0.023078391 -0.051546816 0.08531629 -0.047284387 0.07969472 -0.015402218
0.04050886 0.08562077 -0.0035268704 -0.046322633 0.09076018 -0.039321028 0.09740399 0.09585172
0.06882857 -0.055656556 0.061758917 0.06622577 0.048484236 -0.043090604 -0.011777314 -0.052532583
-0.098167755 0.008787983 0.08768952 -0.02280236 0.06433977 -0.09792542 -0.077854596 -0.077679664
0.020743541 0.027412007 -0.052030906 -0.04159591 0.040894862 0.034288548 0.005241356 0.017063592
-0.045089033 -0.08740086 -0.04606226 0.0032684607 -0.0062745432 -0.06070691 -0.046868842 0.02776814
0.023799477 0.079490826 0.01269298 0.07216412 0.009507952 -0.048443347 0.0059070615 0.074059
-0.058923203 0.08558361 0.09392005 -0.0038961035 0.09091881 0.08443864 0.08952581 0.08328373
-0.08045027 -0.098246634 -0.09907964 -0.013000137 0.031977635 -0.0059144576 -0.02375791 -0.020488568
0.06877605 -0.051982537 0.009495716 -0.04795141 -0.034869313 -0.066108406 -0.07619421 0.08048006
-0.07268666 0.06617065 0.023691306 0.07038776 -0.082944356 -0.052131537 0.010550432 0.010093674
-0.012838614 -0.022342892 0.02545761 -0.04191478 -0.07226175 0.062572 0.02724848 0.09271027
-0.08677234 -0.09745623 0.06257966 0.04143758 -0.08466387 -0.061298367 0.09255543 -0.020049121
0.06957122 0.060048264 -0.074409574 0.042639993 -0.0033911597 -0.07057313 0.057602588 -0.0521979
0.026199603 0.09325783 -0.07212405 0.00909448 -0.0026954762 0.01789945 -0.052622147 -0.049169853
-0.05443121 0.06517767 -0.06104529 -0.042499088 -0.0070888666 -0.07286158 -0.08682082 -0.064873226
-0.02587921 0.093859136 -0.026181085 0.06473922 0.09244491 -0.0555079 0.0030815806 0.021655688
-0.010847445 -0.057531837 0.09340585 -0.07852795 -0.08957828 0.089359924 0.016864039 -0.04838985
0.03783602 -0.015248507 -0.059114043 -0.04519998 -0.07361261 0.09456431 0.008288015 -0.048836526
-0.026686734 -0.04320547 -0.074780576 -0.0139965275 0.013849094 0.00031579568 -0.06704282 -0.057329144
-0.011978162 0.049395707 -0.03564334 0.0781996 -0.082458496 0.03666311 -0.08448605 0.04059075
0.033529393 -0.044190846 -0.05080127 0.043496426 0.079878114 -0.017091382 -0.054846764 0.05601132
0.06841807 0.08356697 -0.027163483 -0.07503033 -0.08327965 -0.014562533 0.021688849 0.07446511
0.03231599 0.07471772 0.0034489348 0.08045264 -0.088327296 0.07295112 0.018387334 -0.02791205

gru.bias_ih_l0_reverse f4 [300]
00000000: a169 803d 4b26 b4bd aef2 1fbd 218f c7bc
00000010: 40c6 2cbd ab2e 953c 5539 253d d2a9 5cbd
00000020: a97c a23c 766b 163d ede3 a6bd db7a e5bb
00000030: ebe0 00bd 645b ad3d 6107 8fbc bbef 7fbd
00000040: aaf4 883a d453 b33d 2a99 acbc 344e 173d
00000050: ac4f 893d e032 3c3b f917 a8bb ed8e 763d
00000060: 68c3 c33c f590 c6bc 405f 08bd 5e17 953d
00000070: 7d8d 583d 2f5b ab3d 9fdc 0ebd de7d 95bd
00000080: 5cb2 5abd 7537 b83d 4831 2dbb 949d 35bd
00000090: 2317 fabb 6153 9c3d a929 063c 292a 83bd
000000a0: bd1f b0bd be79 683d aa9a 4f3d c7b0 0bbd
000000b0: 29aa 59bd 1fe1 9abd 892c 4f3d 62cb a9bd
000000c0: b486 4dbd c861 ecba 7e3b d7bc 5fb5 923d
000000d0: 25a3 a2bd e5cf a7bb ad53 c03d 6278 8bba
000000e0: d651 efbc 5d63 4fbc eb75 863d 088f 173c
000000f0: e28a 4dbd 3aee 1dbd 0038 973c 5b05 283d
00000100: 940f b5bd 3fa4 4ebc f85b d8bc 3cdd e4bc
00000110: 8cf5 93bc f7ba a9bd 6055 31bd 88d5 71bd
00000120: 77b3 acbd 93fc 5cbd 6702 76bd 50d1 273c
00000130: c9d3 31bc fcd5 32bd 764b 23bd 3b05 f53c
00000140: 782c 9bbd f9d9 773d ff88 1bbd 6a7d 42bd
00000150: 3f6f 7b3c fcd9 1b3d 8452 ab3d 823c 0d3c
00000160: 8199 183b 2e2e 863d b3ec 82bd 01a5 97bd
00000170: 2d6a bebd f133 61bc 24c9 4abd 189c c5bd
00000180: c4a1 75bd 27be 983d f24f 933d c0bf 98bd
00000190: 0002 e73a 683b f8bc 4fca b53d ff96 8b3d
000001a0: 6971 5fbd 055c 113c 3f05 f1bc 0e42 993d
000001b0: 47b3 67bd 6592 a8bd 8058 d9bc cd67 85bd
000001c0: 7a7b 84bd 24d9 babd d79b 01bc 58b0 233d
000001d0: 43df 1bbc 6d10 683d 8d01 c1bd d525 b2bd
000001e0: 502d e8b5 12b6 b3bd 5867 d8bc 4a4f bb3d
000001f0: 116d 65bd 91dc 88bd a638 8fbd 7795 b5bd
00000200: 1765 ab3d 11d9 a83d 60a2 0abd 43ab 833d
00000210: 629f 493d fa45 c13d 7b8b babd 5cbf c33d
00000220: 4180 a63d 317e 2fbd 40d0 b13d d7bc a4bd
00000230: b8a0 3a3c a0b4 ca3c 4971 7c3c 797e 8ebb
00000240: aa23 9c3d 669e 2abd 2bd0 e0bc 7de0 9d3c
00000250: ae03 b23d 7380 d23c 943b b3bd 4c29 333d
00000260: 2023 123d a825 803c a72a efbc 4fb2 a53b
00000270: 81c1 b6bc 0d1f 45bc d9e5 d23d 2bfc ee3c
00000280: 5ef1 5abd 0aad 8f3d 23b7 b5bd dd78 6c3d
00000290: 9e84 9ebd 6c5f 80bd 5b98 d23b 0746 8e3d
000002a0: a0da 00bd 36f7 063d 8968 38bd dbd5 883c
000002b0: 6b6b d53c 5381 36bd de5c 523c bea1 d43d
000002c0: 8cfd 0cbd fb67 bc3d f6b0 78bd c799 b7bc
000002d0: d577 4fbc b6c0 b03d 8958 6ebd add6 233d
000002e0: 6d72 403c 4df6 9eba 4dea c63d 525c a23c
000002f0: f67f fb3c 20d2 d73d 105b 3a3d 9b29 cc3b
00000300: 0ede c9bc 6eee 27bd 63db a2bd cd55 6f3c
00000310: 4a84 b93c d592 11bd 17e6 e43a 7483 d43d
00000320: c495 cebd f386 373e 6bbe b8bd 8c1e 483e
00000330: 93ad 083e 02da 53be 2318 983e fbf7 b9bd
00000340: 5dd4 efbd 6515 153c 1cfb 453e 9d14 afbd
00000350: 7f6a 073e aeec a73c 5a98 893e 8945 e83d
00000360: 06e2 c1bd 051e 6b3e c602 b33d 2bb5 ec3c
00000370: 3309 f03c aaca 37bd 1c12 f5bd c84f 883d
00000380: 0a56 5a3e 4aff e8bd b8c4 063e c38b 153d
00000390: 6508 23be 05af ad3d a419 b13d 0608 5dbc
000003a0: 083e e53c 4052 31bd 5abc 9d3b 95f9 8cbd
000003b0: bbf3 453e dbaf 1c3e 908c ef3d f6d6 ef3d
000003c0: 591c b03d 501b ffbd 5ac1 14bd 57b5 9e3d
000003d0: 4eab 91bd c82d b0bd 450f 05be 074f 61bd
000003e0: 53d1 4ebd e580 103e 7c1e 923d 730c b63d
000003f0: 0e27 643d 8d4e 20be 54d3 a3bd 292f 023e
0.06270147 -0.08796366 -0.039049797 -0.024360241 -0.042181253 0.01821073 0.04033788 -0.05387289
0.019834833 0.036723576 -0.08148942 -0.007003171 -0.0314645 0.08464697 -0.017459573 -0.062484484
0.0010448892 0.08756223 -0.021069128 0.036939815 0.06704649 0.0028716847 -0.005129811 0.0601949
0.023896888 -0.024239043 -0.033293962 0.072798476 0.05286931 0.08367001 -0.03487837 -0.07299398
-0.053392753 0.089949526 -0.002642708 -0.04433973 -0.0076321526 0.07633091 0.0081886435 -0.06404526
-0.085998036 0.056756727 0.05068461 -0.034104135 -0.053140793 -0.0756247 0.05057958 -0.08290745
-0.05017729 -0.0018034512 -0.026273485 0.071635 -0.079412736 -0.0051212185 0.0939096 -0.0010640735
-0.029213827 -0.012657967 0.0656546 0.00925041 -0.050181277 -0.03855727 0.01845932 0.041020732
-0.08840862 -0.0126124015 -0.026411042 -0.027937524 -0.018061422 -0.08287614 -0.04329431 -0.05904153
-0.08432668 -0.05395181 -0.060060885 0.010242775 -0.010853716 -0.043661103 -0.039866887 0.02990972
-0.07576841 0.06051061 -0.037972447 -0.047482885 0.015346347 0.038049683 0.08365348 0.008620383
0.0023284855 0.06551777 -0.06392803 -0.07404519 -0.09297595 -0.013745294 -0.04950823 -0.09648913
-0.059968725 0.07458144 0.07192983 -0.074584484 0.0017624497 -0.030301765 0.08876478 0.068159096
-0.054551516 0.008872037 -0.029421447 0.07483302 -0.056567457 -0.082310475 -0.026531458 -0.06513939
-0.06468864 -0.091234475 -0.00791069 0.039963096 -0.009513679 0.05665629 -0.09424124 -0.08698622
-1.7298535e-06 -0.087749615 -0.026416466 0.091459826 -0.056012217 -0.06682695 -0.06993227 -0.08866399
0.08368891 0.08244527 -0.03384626 0.0642915 0.049224265 0.09437175 -0.09108635 0.09557983
0.08129931 -0.042844955 0.08682299 -0.08043831 0.011390857 0.024744332 0.015407869 -0.004348573
0.0762399 -0.041654967 -0.027443012 0.019272083 0.08692108 0.025696015 -0.08751598 0.043740556
0.03567803 0.015642956 -0.029195143 0.0050566564 -0.022309067 -0.012031329 0.10297746 0.029172977
-0.053452842 0.070154265 -0.08872821 0.05773245 -0.077401385 -0.062682 0.0064268536 0.069469504
-0.031458497 0.032950602 -0.045021567 0.016703537 0.026052197 -0.044556927 0.012839524 0.103824124
-0.03442149 0.0919952 -0.060715638 -0.022412194 -0.0126628475 0.08630507 -0.058189902 0.039999653
0.011746031 -0.0012127847 0.09712658 0.019819412 0.030700665 0.10538125 0.045497 0.0062305457
-0.024642017 -0.04099887 -0.07952001 0.014607859 0.022646088 -0.03554042 0.0017463592 0.10376635
-0.10087159 0.17922573 -0.09020694 0.19542903 0.13347463 -0.20688632 0.29705915 -0.09080502
-0.11710427 0.009099339 0.19334072 -0.085488535 0.13224219 0.0204986 0.26874048 0.11341388
-0.09466939 0.2296067 0.08740763 0.028894981 0.029301262 -0.04487101 -0.11966345 0.06655842
0.21321884 -0.113768175 0.1316098 0.03651024 -0.15921171 0.08480648 0.08647469 -0.0134906825
0.02798368 -0.04329133 0.004813713 -0.068835415 0.19331257 0.15301459 0.11696732 0.117109224
0.08599157 -0.12456381 -0.036317207 0.077494316 -0.07112752 -0.08602482 -0.12994106 -0.055007007
-0.050492596 0.1411167 0.07134721 0.08889093 0.055701308 -0.15654965 -0.07999292 0.12713303
