parameter/coder/decoder1.pth (torch_old, 566631 bytes, 10 tensors)

comboutput.weight f4 [100, 200]
00000000: a315 1c3d 5348 02bd bbfc c9bc 16e8 f53c
00000010: b1a8 253d c312 be3c a730 dbbb 5dde ab3d
00000020: 6148 f03c 7f7c c9bb 1106 e5bc 87aa 703d
00000030: a243 41bd 1ce4 a2bc b631 7bbd b9e0 303d
00000040: df7d 3abd d5bd 60bc a1d8 4b3d 47c8 9e3c
00000050: 2aa3 f73c 70d8 fabc 03b5 353d c955 57bd
00000060: f1b7 ac3a 8287 6dbd dc31 d23c 9a5a 62bd
00000070: 520e 20bd 173d 3abd fed4 dc3c 13f6 433d
00000080: 774d 093c 6b66 8fbd 2f3f 163d 34b7 34bd
00000090: bf9d 13bd 64da 9e3d 96a2 893d f02b 78bd
000000a0: ff35 983c 2617 953c a95b b0bc 956a babc
000000b0: fafe 803d 1a78 83bc 1238 72bd 47f6 2dbd
000000c0: 96fd 1e3a a780 213d e697 8d3b 59ec ab3b
000000d0: 2631 373d c6d2 dcbc e805 533d 3618 313d
000000e0: 94fc 2d3d 0ea4 ad3b dc43 10bd b628 873c
000000f0: 2ecc 83ba 1ddb 94bb cc55 1bbd a7a3 af3c
00000100: c5e6 08bd 01a8 22bd 104f 2bbd e495 b9bb
00000110: bc53 7f3d 4d39 3b3d 69aa 2f3d ab14 67bd
00000120: cf53 da3c 6e9a 303d 82cc 3238 a11d 123d
00000130: fce2 313d 1903 e23c 2109 febc 9a97 80bd
00000140: bb84 da3c c24c 093d 8553 02bd 3405 40bd
00000150: 0747 56bc 1c22 1abd 5b43 04bc 4d98 45bd
00000160: e89e be3c bcd4 9bbc a6ff 9fbd 9d58 32bb
00000170: 4465 603d d276 96bd baa3 9fbb dc2e cd3c
00000180: d20e f93c e60a 7e3d bfbe 2c3c 64eb 823a
00000190: d02c 0e3d db49 0e3c e342 143d 535d 24bd
000001a0: 06f3 ae3c 6b87 16bd 6c09 133d 5220 ac3d
000001b0: b949 45bd ec15 a0bd bef9 b53c 1d35 3cbd
000001c0: a377 ad3c 43bc 21bd 80d7 35bd 77ce 94bc
000001d0: 16a2 0ebd 9d41 8a3d 99c6 7e3d eb8e 12bd
000001e0: 85d7 0e3d 43d3 b2bc 7bc5 e23c 475e c7bc
000001f0: 76a1 05bc 576c 9abd 68bc 43bc 0c77 24bd
00000200: 11c9 743d 671f f73c 2870 183d c192 1e3d
00000210: ecf9 74bd 5b2d 80bc 000e 183d ca80 b33c
00000220: d113 0e3d ecd2 2f3d 7052 50bd ae0e 09bd
00000230: 4083 49bd 5837 813d 66ce 80bd 6f77 4cbd
00000240: d07e c33c 6806 14bb 61c1 27bd 15b3 45bd
00000250: 66a0 cdba 2057 dc3c 276b 87bc 2692 fe3c
00000260: 8f22 82bc cfd1 67bc 3f54 6dbd e89b 833b
00000270: 0193 653d 2d7d 293d 02b7 9bbc ec79 7cbd
00000280: 28c2 8ebc ae08 42bd 45e8 1ebd 8ea9 9a3c
00000290: d127 653d 88b4 adbc 2c28 6fbd 890b fb3c
000002a0: 1a3a 97bc 3b55 093c 33c3 8abd 799b 453d
000002b0: b01f c03c 40a4 3ebc 0ed4 46bd 0846 24bd
000002c0: 5d20 82bd d6c0 923d b972 03bd 37ba 70bc
000002d0: d8ae 8fbd 5240 2a3c 07c1 a83c 17e5 5c3d
000002e0: 5814 403d c538 44bc 74f4 20bc 52c6 d8bc
000002f0: cb0c 193d e601 06bd af4e 8bbd 77f5 3e3d
00000300: 8ef3 b93c 682d ddbc 1521 a33c 89e4 893d
00000310: 1372 91bd 282a 05bd 38c1 ed3a 22db b23c
00000320: e694 6f3d 1533 68bc 9dd0 64bd 4435 563d
00000330: 3bb7 93bc 8bb7 223d ee8f 91bd 296c 25bd
00000340: 5870 a0bd c7e1 44bc de3c 3bbd f92b 8a3c
00000350: a125 8bbd 625b 09bc 8e01 adbd 025d fdbc
00000360: 1014 5cbd 421f 8eba 0a47 d43c a5be ecbb
00000370: baef 6abd 228b 573d ffba 25bd ee42 36bc
00000380: abf8 853c 23bd 1abd 307c 99bc 5fdf 8bbd
00000390: a937 08bc a80d 523d 5a92 683c dc3e d9bc
000003a0: 7825 8bbc 0531 20bd 67d0 9dbd 08bc 01bd
000003b0: 6742 4f3c 57b3 e93b 15c1 3d3d 551a 7abc
000003c0: 876f 433c d09b 973d 7389 843d 2866 ae3c
000003d0: b0df 533d 344d ce3b 4a17 dc3c 130e 923b
000003e0: 8634 323d c043 04bd 5507 22bd 5e9e 003c
000003f0: da4a 5cbd f1e2 7c3c 3a68 03bc c844 06bd
0.038106572 -0.031807255 -0.024656644 0.030017894 0.04044408 0.023202306 -0.0066891494 0.08392022
0.029331388 -0.0061488743 -0.027956994 0.058756378 -0.04718364 -0.019884162 -0.061326705 0.043183062
-0.045530196 -0.0137171345 0.04976714 0.019382609 0.03022917 -0.030620784 0.04436208 -0.052572045
0.0013177377 -0.05799056 0.02565854 -0.055262186 -0.039076157 -0.045468416 0.026957031 0.047842097
0.008380285 -0.070019566 0.03668135 -0.04412003 -0.03603911 0.077564985 0.06720464 -0.060588777
0.018580435 0.018199515 -0.021528082 -0.0227559 0.06298633 -0.01604848 -0.059135504 -0.042471197
0.0006065009 0.039429333 0.004321086 0.0052466807 0.044724606 -0.026955973 0.051519305 0.04323598
0.042477205 0.005299098 -0.035220966 0.016498905 -0.0010055357 -0.004542722 -0.03792362 0.02144034
-0.033423204 -0.039711002 -0.041823447 -0.0056636203 0.062335715 0.045708943 0.042887125 -0.056416195
0.026651291 0.043116026 4.262897e-05 0.035672788 0.04342936 0.027589368 -0.031010212 -0.06278916
0.026674619 0.033520468 -0.03181793 -0.046879962 -0.013078458 -0.037630185 -0.008072699 -0.04824095
0.023269132 -0.019022338 -0.07812433 -0.0027213462 0.054784074 -0.07346882 -0.0048718126 0.025046758
0.030402575 0.062022112 0.010543524 0.0009988365 0.034710705 0.008684601 0.0361966 -0.040128063
0.021356117 -0.03675024 0.035897657 0.08404602 -0.04816601 -0.07816681 0.022213813 -0.04594909
0.021175211 -0.03948618 -0.04439497 -0.018164856 -0.034822546 0.06750796 0.062201116 -0.03578083
0.034873504 -0.021829253 0.027682057 -0.024336947 -0.008156171 -0.075401954 -0.011946775 -0.040152594
0.059762064 0.030166341 0.037216336 0.038714174 -0.059808657 -0.015646627 0.037122726 0.021911997
0.034686867 0.04292576 -0.05085987 -0.033461265 -0.049197435 0.06309384 -0.062893674 -0.04991859
0.02386418 -0.0022586826 -0.040955905 -0.04826649 -0.0015688061 0.026897013 -0.016530586 0.031075548
-0.01588562 -0.014149143 -0.05794167 0.004016388 0.056048397 0.041379143 -0.019008163 -0.06163971
-0.017426565 -0.04737156 -0.03879573 0.018879678 0.055946175 -0.021204248 -0.05838792 0.030645149
-0.018460322 0.008382137 -0.067755125 0.048243973 0.02345261 -0.01163584 -0.048542075 -0.04010585
-0.06353829 0.07165687 -0.03209183 -0.014692835 -0.07015771 0.010391312 0.020599855 0.053929415
0.0468944 -0.011976426 -0.009823907 -0.026461754 0.037365716 -0.032716654 -0.06802117 0.046620812
0.022699144 -0.02699919 0.019913236 0.06733043 -0.07101836 -0.032510906 0.0018139249 0.021833006
0.05849161 -0.014172335 -0.05586301 0.05229689 -0.018031707 0.03972582 -0.071075305 -0.040386353
-0.07833928 -0.01201672 -0.045712344 0.01686667 -0.067942865 -0.008383604 -0.08447562 -0.030928139
-0.05373007 -0.0010843056 0.02591278 -0.007224875 -0.057357527 0.05262292 -0.040461536 -0.011124356
0.016353926 -0.03777803 -0.018735975 -0.06829714 -0.008314052 0.051282555 0.014195049 -0.026519231
-0.01698564 -0.03910925 -0.07705765 -0.03167346 0.012650109 0.0071319747 0.046326715 -0.015265067
0.011928446 0.07402766 0.06471529 0.021288946 0.051726997 0.0062958244 0.026866574 0.004457244
0.04350712 -0.032291174 -0.039557774 0.007850258 -0.05378232 0.015434966 -0.008020455 -0.03278044

comboutput.bias f4 [100]
00000000: b6e3 903d 2820 5cbd 2bea 4dbd 92ac 35bd
00000010: de91 92bd 64db a83d 81e7 a0bb 8f8b ddbb
00000020: e8a1 53bd aaee ffbc 6a5c 04be 82f4 dc3d
00000030: a55c 21bc 35c9 79bd 6a4d b1bd 34a4 babd
00000040: 49eb 30bd 98e7 983c ee7d 533d f81a f7bb
00000050: 4ff9 8e3d 5706 9ebd 6970 ce3c cbe3 043d
00000060: 5ecf 4bbc e3e4 14bd adce fdbc b728 d73c
00000070: 8150 e63c d516 0e3c ab78 533d 6698 b13c
00000080: 0fe6 f63c ba50 ed3c 7765 623c 6fcf 10bd
00000090: 09f3 f0bc a2a7 8a3c 0938 75bc 9603 b53b
000000a0: e51a cd3d d360 473c 45a4 38bd e1fe 3e3d
000000b0: e04c 6dbc ad5b 813d afe7 0bbb c617 d1ba
000000c0: d2e3 073d 5123 79bd 59ce 61bd e38c 5b3d
000000d0: 0352 05bd 2b1d 34bc 3dd8 ad3d 8180 a8ba
000000e0: 0a47 88bd 3b3c c73d 941d 803d 6525 313c
000000f0: d80d 913d 2385 853b d877 69bd 6f68 c6bd
00000100: 746e 6bbd c07b f7bd 1786 a53c a725 8a3c
00000110: 18f9 2cbd 37fb 5fbd 718e 543d 6c11 1e3e
00000120: cd86 4cbc 8a17 a8bc 02d9 e03c f4a0 b03d
00000130: 30f3 8cbc 98fa 1a3d 39b7 87bd 9881 22bd
00000140: 04fe 863c 3edd 0ebd 82b7 babd 503f d43c
00000150: 8eee c53d e4e0 f8bd 85dd 28bd 2957 963d
00000160: b7e4 953c 7fcf fabc b791 70bd c7e8 1abc
00000170: b2f5 b6b9 9a6c d73c b7e9 1fbd b534 70bc
00000180: e822 4cbd 0a44 873d d050 203b 85a8 193d
0.070746824 -0.053741604 -0.050272148 -0.04435403 -0.07156728 0.082449704 -0.00491041 -0.0067610214
-0.051668078 -0.031241734 -0.12925878 0.10788824 -0.009848748 -0.0609829 -0.08657344 -0.091133505
-0.043193135 0.01866512 0.051633768 -0.0075410567 0.069811456 -0.07716053 0.025200086 0.032443803
-0.012439577 -0.036351096 -0.03098234 0.026264532 0.02811456 0.008672436 0.05162875 0.021679115
0.030138997 0.028969157 0.013818136 -0.035354074 -0.029412763 0.016925637 -0.014966973 0.005524109
0.10014895 0.012169081 -0.045078535 0.04662979 -0.01448366 0.06316314 -0.002134781 -0.001595252
0.03317625 -0.060824696 -0.05512843 0.053601157 -0.032548916 -0.010993282 0.0848851 -0.001285568
-0.066541746 0.09728285 0.062556416 0.010812138 0.070827186 0.004074709 -0.056999058 -0.09687888
-0.057478383 -0.1208415 0.02020554 0.016863657 -0.04222974 -0.054682937 0.051893655 0.15436333
-0.012483311 -0.020519037 0.027447227 0.08624449 -0.017205805 0.03783664 -0.06626744 -0.03967437
0.016478546 -0.03487896 -0.091170326 0.025909096 0.09664641 -0.121522695 -0.041226882 0.07340843
0.018297536 -0.03061652 -0.058732715 -0.0094549125 -0.00034896802 0.026296902 -0.039041247 -0.014661004
-0.049837977 0.06604774 0.002446223 0.03751423

gru.weight_ih_l0 f4 [300, 100]
00000000: dcb0 97bd 3ffc 803d 564e bbbd 9c11 aabc
00000010: 183b 92bb 42cb 1c3d f6b8 cb3b 5fa5 943c
00000020: e12d bb3d e389 fb3c 9b02 51bd 55d6 15bd
00000030: a65a c9bd 10e2 8bbc ef0e 7cbd fde6 c6bd
00000040: 850c 2b3d 4d50 ad3d b8a4 213c ba3d 83bc
00000050: d184 75bc 51c3 4dbc 1f72 623d f70c b7bd
00000060: 6fb7 043d da56 8b3d e634 6c3d ce2a 823d
00000070: 1c4b 773d 3e3f 42bd 5e27 2cbc d8b5 a9bc
00000080: 1822 80bc e33b 223c 16d9 a0bd 43a5 b9bd
00000090: 4e13 f8bc 08e4 b2bd d7e0 04bd c226 cbbc
000000a0: 819e 8e3d df65 6f3d 4464 babd 2208 543d
000000b0: 890e 9a3d eab4 f53c f908 84bd 5ef0 c53d
000000c0: 73bf b4bd 3dcf 5bbc 1329 773d a691 b1bc
000000d0: b713 343d 98bf 33bd 8a4a 6ebd e318 523d
000000e0: 6f05 403d de1e c8bd f5ac 6f3c b5b8 a1b9
000000f0: 8ef4 a5bd a3a6 2fbd 022d 12bd f0ce a9bd
00000100: 7de2 81bd 784f 08bd b411 19bd 1a18 e03c
00000110: 1869 fc3b fcd5 a23a fe65 88bd bf47 753c
00000120: 0caa 1bbc b8e3 a0bd 7b3f bbbd 8ab8 25bd
00000130: 04da 223c 07ca 843d 34d6 55bc 9788 743c
00000140: 3c55 563d d22d bf3d c30a 02bc 1a74 96bd
00000150: ac86 4ebd 9867 c33d 9693 6c3c fd56 603d
00000160: 263b 32bc 255f 683b 4cb6 0ebb a423 24bd
00000170: 914e 85bd a6aa 923d 5e24 0c3d 26b6 e23c
00000180: 328a 853d 558e 1ebd 06f3 a4bd c8d7 6ebd
00000190: 5860 953d 26c7 9b3d 6b59 9fbd 3438 5cbc
000001a0: 6833 71bd c164 9d3d 6882 383d a765 07bc
000001b0: 0d25 763d dbbe 823c e528 023b 1b3e 873c
000001c0: 7f69 57bd b7c9 cfbb 3742 fcbc c893 64bd
000001d0: 1c64 9d3d b2b3 993d e691 c23d 816e c73d
000001e0: 00aa 04bd a79f 76bd 9984 8bbc fced 953d
000001f0: a03d dcbc 3c2e 6abd f487 a8bd d098 4f3d
00000200: 6998 c53d 6247 e1bc 6fe5 27bc a3a6 bf3d
00000210: def2 64bd d3be ad3d f802 95bd 0bfd e13b
00000220: 4ab3 463d 0836 5dbb 9f5d a4bd 2380 1c3c
00000230: 6332 9abc cace 353d d6e5 24bd fa05 bb3d
00000240: 5910 f93c 7ce0 c9bb bfd3 d33c df69 d33c
00000250: 2792 69bd 2d8a 56bb 7e1b c7bd 159a 5bbd
00000260: d81c 3f3b a899 8e3d 303e 503d ebbd cbbc
00000270: a30f 86bd e6b1 993d 26f9 c83d ef1e 1ebd
00000280: f6da 08bd 88ef 4ebb 75fa b3bc 156a a6bd
00000290: 9931 35bc 79a1 713d d269 0b3c e832 0cbd
000002a0: 7600 163c e72a aa3d abf4 a13c 7412 39bd
000002b0: 07d7 5b3d db3e 4dbc 3152 07bc 631d 833c
000002c0: 4804 98bd e210 1b3d 5b78 4c3d 3646 a0bc
000002d0: bf5e bdbd 4361 f73b fa8a 903d 3dcc 903d
000002e0: 4d30 d2bc 7ca3 9abd 0858 b13d 00ce aebd
000002f0: 68fc e9bc 9ee5 283d b55b 2dbd b8ab 79bc
00000300: d4a3 923d 5490 aebd afce 6c3d 86e4 aebd
00000310: aa50 7fbc d4f5 bd3d daab a8bd c3ce 8f3d
00000320: e7e4 5cbd 1d13 71bd 0a3c 723d 3077 60bd
00000330: 2877 7ebc 2ac8 a93d eecf 073d 4df4 fc3b
00000340: 550e fa3c a713 993d 7bae 86bd 09d1 55bd
00000350: 227c 1e3d 9e8d f43c 100e 563c 6ed8 a63d
00000360: 08d4 59bd 65ba 79bd 9025 c1bd f7b2 cabc
00000370: 726d adbc 034d b9bd eaff 5f3d a0ea 493d
00000380: fab1 433c 81c4 ae3d aa3f 89bd 5090 ac3d
00000390: 6ef6 b1bc 3a54 223d 2703 89bd ffe0 2a3c
000003a0: a0a8 eb3c 9704 00bd d961 463d ee55 2cbd
000003b0: 11a2 a03a cabb 20bd 83ea 35bc 6eeb 953d
000003c0: c359 473d 056a 88bd 36f9 b73d b0a2 273d
000003d0: af71 ba3d 1a66 9f3d 84d6 0e3c 0fdf 0f3d
000003e0: 0264 263d c4c2 93bd 493d 063c 3098 9b3d
000003f0: 28ab 4bbc 6233 853d 6266 62bd 0fff d0ba
-0.0740678 0.06298112 -0.09145801 -0.02076035 -0.004462611 0.03827978 0.0062171174 0.018145261
0.0913961 0.030705398 -0.051027875 -0.036581356 -0.09831743 -0.017075568 -0.06153768 -0.09712026
0.041759986 0.08462582 0.009865932 -0.016020644 -0.014985279 -0.012558774 0.055284616 -0.0893802
0.0324015 0.06803675 0.057667635 0.063558206 0.060374364 -0.047423594 -0.010507433 -0.020716593
-0.015641257 0.009901973 -0.07853906 -0.09064724 -0.030282643 -0.087349 -0.032440986 -0.024798755
0.06963826 0.05844676 -0.091011554 0.05176557 0.075223036 0.029993493 -0.06447024 0.09664987
-0.088255785 -0.013416109 0.060341906 -0.021675896 0.043964114 -0.04388389 -0.058176555 0.051293265
0.046880182 -0.097715124 0.0146286385 -0.0003084593 -0.08103286 -0.042883527 -0.035687454 -0.08291423
-0.06342027 -0.033278912 -0.0373704 0.027355243 0.007702958 0.0012423391 -0.066600785 0.014970719
-0.009500992 -0.07855934 -0.09142967 -0.040459193 0.009939674 0.06483846 -0.013051558 0.014925144
0.05232738 0.093349114 -0.007937136 -0.07346363 -0.0504214 0.09541243 0.014439484 0.05477046
-0.01087836 0.0035457101 -0.0021776138 -0.040073052 -0.06509126 0.07161455 0.03421437 0.027674746
0.06520499 -0.038709957 -0.080541655 -0.058311254 0.07293767 0.07606344 -0.07780727 -0.013441134
-0.058886915 0.07685233 0.04504624 -0.008263982 0.060093928 0.015960148 0.00198608 0.016509106
-0.052590843 -0.006341185 -0.030793292 -0.055804998 0.0768511 0.07504977 0.09500484 0.09737874
-0.032388687 -0.06021085 -0.017031 0.073207825 -0.026884854 -0.057173 -0.08229056 0.050682843
0.096482106 -0.027499858 -0.010247572 0.09357955 -0.05589568 0.084836625 -0.07275957 0.00689662
0.048510827 -0.003375413 -0.08025669 0.009552035 -0.018822854 0.044386663 -0.04025825 0.09131999
0.030403303 -0.006160794 0.025857804 0.02580732 -0.057024147 -0.0032736168 -0.097220406 -0.05361374
0.002916148 0.06962901 0.050840557 -0.024870833 -0.06545951 0.075046346 0.09813146 -0.03860372
-0.033411942 -0.0031575877 -0.021970013 -0.08125702 -0.011059188 0.058991883 0.008509116 -0.034228235
0.009155383 0.08308964 0.019769987 -0.045183614 0.053671863 -0.012527193 -0.008259342 0.016005224
-0.074226916 0.037857898 0.049919467 -0.01956473 -0.09246587 0.0075494363 0.07057758 0.07070205
-0.025657797 -0.075507134 0.08659369 -0.08535385 -0.02856274 0.041234605 -0.042323787 -0.015238695
0.07160154 -0.08523622 0.057814296 -0.08539681 -0.015583197 0.092754036 -0.08235903 0.070218585
-0.053929236 -0.05885612 0.05913929 -0.054801166 -0.015531339 0.082901314 0.03315728 0.0077195526
0.030524412 0.074744515 -0.06576248 -0.052201305 0.0386926 0.029852685 0.013064876 0.081467494
-0.053180724 -0.060968775 -0.094309926 -0.02474354 -0.021170352 -0.09047892 0.054687418 0.04929602
0.011944288 0.08533574 -0.06701596 0.08425963 -0.021723952 0.039631106 -0.066900544 0.01042962
0.02876693 -0.031254377 0.04843316 -0.042074136 0.0012255331 -0.03924159 -0.011103275 0.07320295
0.048669588 -0.066608466 0.0898308 0.040926635 0.09103715 0.07783146 0.008718137 0.035124835
0.04062272 -0.07214883 0.008193322 0.07597387 -0.012430944 0.06503941 -0.05527342 -0.0015945154

gru.weight_hh_l0 f4 [300, 100]
00000000: 3676 abbd cddb 7a3d 2703 193d 8019 9dbd
00000010: 9379 653d 23e8 9fbc 541b af3d 163e 743d
00000020: 5ecd 2b3d 3f3c b43d 98f8 c73d 7af3 913d
00000030: 95f3 a9bd c486 a33d d0ac 443d 9980 8bbc
00000040: 691b e4bb 9f36 36bd 58a1 ab3d 6c5c f5bc
00000050: a8c2 05bd bc49 143c 872f a2bd 9042 a23b
00000060: 3957 463d 93cc 4bbd 29d8 62bd b7c3 28bd
00000070: c932 0ebd 64d8 28bc 9c7c 3d3d 91d1 873b
00000080: e934 103d 7ca2 e1bc 07d5 9a3d 0e1e a13c
00000090: 7d45 acbd 7d11 9d3d 85ba 8abd 1295 15bd
000000a0: 81ef 98bc 5076 b1bc e1b8 b73c 6d8b ea3c
000000b0: 9084 babd e835 493d 1bd8 643d 34b4 b7bc
000000c0: 9c9d dabc 60d7 03bd bd5e 783d 8fc0 b63d
000000d0: 49c8 313d 2be2 3b3d 3a48 8dbd 0b2f ef3c
000000e0: eaa5 923d b00d 36bd ee80 ab3c eec3 913c
000000f0: dd9e a33d 668e ae3a dbd4 3dbd baa1 8d3d
00000100: f6cc 2fbd dce5 093b b6a6 2a3d 45e8 653d
00000110: 9450 c43d ce28 673d dd22 683d 4d34 24bd
00000120: 83f5 72bd 153d dbbc a5ee a43d 5f2f bd3a
00000130: 4621 f9bc 039b bcbd dcbb dabc 1fdc 613d
00000140: 7d2d dc3c 33fb 58bd 0c44 343b 1023 343d
00000150: 1bee 3ebd fc08 5dbd a96d 3d3b b505 c1bd
00000160: 0c22 e0bc e882 133d 3838 90bd ec55 e23c
00000170: e6ee ac3d 6294 94bc f331 8a3d 5384 cbbc
00000180: ab2f 77bd 3991 e5bb 6989 7e3c d32a 903d
00000190: fc6f 01bd 0a72 a9bd a89d 35bc b905 86bc
000001a0: 47fa 5c3d b8a5 22bd 1a6f a4bd a8f4 8fbd
000001b0: 5c69 2cbd 2624 1a3d 45f5 a2bc 4ade fdbb
000001c0: dae7 ba3d 7b8b 8f3d d528 653c a246 8fbd
000001d0: 26cb 3f3d 2501 1abd 67a7 8d3d c00f dabd
000001e0: cc7d 903c 0784 afbb bad3 ad3d e023 18bd
000001f0: 5359 373d dafa 413d 6136 bc3d c1de 213d
00000200: 334f 7b3c 0ba2 583b 45e6 8ebd 5893 a73d
00000210: 8c08 0c3d 95da c43c 0c8b 983a 1ef3 9d3c
00000220: 0951 0b3d eebc 043d 2b9e 413d 584b 3dbd
00000230: 82be 7c3d 1424 81bd 5d6c a93d a40e a6bd
00000240: 0a77 75bd bae1 88bd c6d8 94bd f1fa a3bd
00000250: 9d18 9fbc 773d 033d a150 9f3d 11c4 91bc
00000260: 4602 b9bd be1e b43b 4223 47bc 9ddf 983d
00000270: 3f68 c23d c9c5 363d b70c ae3d 71b7 b1bd
00000280: bb77 8b3d 4479 753c b878 9fbd 7d6f 633d
00000290: 2ce2 c43c f798 c2bd 60f4 b03d 53f3 3ebd
000002a0: 6680 7dbd d00e 80bc 0b31 ab3c 6973 9abd
000002b0: 95c3 bcbd e83b 79bc 9713 0cbd 1d3c 96bc
000002c0: 8a65 503d 46e1 2a3d b3ab a43d efd7 8abc
000002d0: 4801 b73d 42ac aeb9 c593 cb3c 16f1 f53c
000002e0: e2df a9bd 6a3b bb3d 7e9e b43c 0ca6 04bd
000002f0: 47fb d4bb 8825 acbc 4797 c33d b904 d63c
00000300: d19d b23d 9403 173d a030 e53c 84cf 72bc
00000310: 674e 3bbc 25d1 bd3d ad9b 9b3d af8a bfbc
00000320: 70f9 b63d 0a3f 1b3d c308 1ebc 06b5 a63d
00000330: 2435 62bd 5768 b4bd 3bcc 88bd e8d4 273d
00000340: 795e 42bd b844 b5bb 9b8f 00bb 4283 a53d
00000350: d957 35bd 6e1b 94bc 55b4 c5bd 57df ca3d
00000360: e014 513d b410 5abd d8ac 9dbd c44d 9b3d
00000370: 0bd4 c43d e455 c3bc be7c b23d d2ab b03d
00000380: 064e 7abb 0d1d cbbd b253 753d 2137 983c
00000390: 3385 b33c 5708 123d 93ab 35bc 2a92 a63d
000003a0: a543 94bc f710 ce3c 4231 06bd d4a4 a43b
000003b0: 3cb3 123d ce40 a73d 2a86 bcba 4c53 78bc
000003c0: 3f1a a1bb 4a13 5f3b 61c0 bb3d c3f8 7f3c
000003d0: 8cbe babd efc7 a33d dfec 97bd 8d35 273d
000003e0: feb8 1f3c 61e7 9d3d 89e4 943d 4501 d13b
000003f0: 79bb a5bd c002 b43d 2490 28bd 9b24 01bc
-0.08372156 0.061244775 0.037356522 -0.07670879 0.056024145 -0.019519871 0.08550134 0.059629522
0.0419439 0.088005535 0.09764212 0.071265176 -0.08298413 0.07984689 0.04801637 -0.017029094
-0.0069612754 -0.044485684 0.08380383 -0.029951297 -0.03265634 0.009050783 -0.07919221 0.0049517825
0.048423026 -0.049755644 -0.055381928 -0.041202273 -0.0347164 -0.010305498 0.046261415 0.0041448553
0.03520671 -0.027543299 0.07560163 0.019667652 -0.08411691 0.07669351 -0.06773857 -0.036519118
-0.018668892 -0.021662861 0.022427024 0.028630937 -0.091073155 0.049123675 0.055870157 -0.022424795
-0.026686482 -0.03218782 0.060637224 0.089234464 0.043403897 0.045869987 -0.06898542 0.029197237
0.07160552 -0.044446647 0.020935502 0.017793622 0.07989285 0.0013317585 -0.046345573 0.069156125
-0.042920075 0.0021041548 0.041662894 0.056129713 0.095856816 0.0564354 0.056673873 -0.04008894
-0.05931617 -0.026762525 0.0805333 0.0014433673 -0.030411374 -0.09209254 -0.026700906 0.055141564
0.02687716 -0.052973937 0.002750638 0.04397875 -0.046613794 -0.053963646 0.0028904474 -0.09424917
-0.027359985 0.036013514 -0.07041973 0.027628861 0.08444004 -0.01813716 0.06747808 -0.02484337
-0.060348194 -0.0070058373 0.015535691 0.07039418 -0.031600937 -0.08273704 -0.011084951 -0.01636015
0.05394962 -0.039708823 -0.080290034 -0.07029086 -0.042092666 0.03763213 -0.019892344 -0.007747446
0.091262534 0.07009026 0.013986786 -0.06995894 0.046824597 -0.037598748 0.06916695 -0.10647535
0.01763811 -0.005356315 0.08487649 -0.037143588 0.04476292 0.04735837 0.091900595 0.039519075
0.015338707 0.003305557 -0.06977514 0.081824005 0.03418784 0.02403001 0.0011638119 0.019280966
0.034012828 0.03240674 0.04726998 -0.04621443 0.06170512 -0.063057095 0.08272622 -0.08108261
-0.059927978 -0.06683679 -0.07267909 -0.08006848 -0.019420916 0.03204104 0.077790506 -0.017793687
-0.09033637 0.005496829 -0.012154402 0.07464526 0.094925396 0.044622216 0.08498519 -0.08677567
0.06809946 0.014982525 -0.07786697 0.055526245 0.024033628 -0.09501832 0.08640361 -0.04661877
-0.06189003 -0.015632063 0.020897409 -0.07541544 -0.09216992 -0.015212037 -0.03419837 -0.018339211
0.050878085 0.041718744 0.080405615 -0.016948668 0.08935791 -0.00033316208 0.024850735 0.030022185
-0.082946554 0.09142192 0.022048231 -0.032384917 -0.006499681 -0.02101399 0.09550338 0.026125299
0.08721507 0.036868647 0.027977288 -0.014819983 -0.011432267 0.09268407 0.07598052 -0.02338156
0.08934295 0.037901916 -0.009645644 0.08139996 -0.05522646 -0.08808964 -0.06679579 0.040974528
-0.047453377 -0.0055318736 -0.0019616846 0.08081676 -0.04427323 -0.018079486 -0.09653536 0.0990588
0.0510453 -0.053238586 -0.07698983 0.07583192 0.096107565 -0.023844667 0.08715199 0.08626522
-0.0038193478 -0.0991765 0.05989427 0.018580975 0.0219141 0.035652485 -0.01108827 0.08133347
-0.018098662 0.025154574 -0.03276182 0.005024532 0.035815462 0.081666574 -0.0014383246 -0.015156578
-0.004916459 0.0034038597 0.09167553 0.015623274 -0.09118375 0.07997119 -0.074182265 0.040822554
0.009748695 0.07710148 0.07270152 0.006378325 -0.08092398 0.08789587 -0.04115309 -0.007882263

gru.bias_ih_l0 f4 [300]
00000000: 2afa a83d a422 7f3d c805 f3bc a035 42bd
00000010: bec8 223d 0ebb c53d c088 aa3d 1f3f 3b3d
00000020: 271a 91bc fef0 92bd fe1b 03bc acd5 bbbc
00000030: 4b99 6a3d 7ccc 7c3d 1c6a 9b3d d639 823d
00000040: f779 e93c ee50 b7bd a30c 79bd 6e98 08bc
00000050: f032 f7bb c7b8 cc3c 6eba a53c c478 c2bc
00000060: fcc9 c23d 737c a23d 5794 98bd 4d23 55bb
00000070: d32f 87bd 792e 073d 8aeb 1e3b 5dd8 b53d
00000080: c476 c2bd 4263 7b3c 4f16 133d 0a49 863d
00000090: 12f3 383d 578b b63d a9c1 76bd 6682 c6bd
000000a0: 68e7 bf3d 9753 353b 8aaa 1abc 7aa2 a63c
000000b0: 5cdb 88bd 28e5 b23b 44fb a0bd 31e8 97bd
000000c0: 5dad 4b3d 95c6 69bd 8626 6cbd 8d69 17bd
000000d0: 85f1 9e3d 8312 ca3d 6622 5d3d edeb 893d
000000e0: fd91 87bd 9947 1b3c 29ab a4bd f6f0 7fbc
000000f0: 3cfd 813c bffe 203d b139 bcbc 125d d2bb
00000100: bd1a c53d e146 2c3c 9a1a 3c3d 613f b9bd
00000110: c6f6 c33b 9c0a 763b 9f9b e6bc d046 aabc
00000120: fd9e ecbc 7f27 c1bd ef9f 5cbc a2a0 56bd
00000130: feb0 1a3d 3ce0 35ba bba3 d5bc 9e94 6ebb
00000140: 939c 39bd 52d8 7e3d b19e d6bc 9bb8 e83c
00000150: e472 c63d 9995 7dbd 4f96 4b3d 0f1b 463d
00000160: b937 63bd 7240 94bb ebc0 c0bd 93cb 8dbc
00000170: 2ad1 633d 5753 153d 31e4 83bd 3a52 a7bd
00000180: b630 71bc 1549 c93d 72ec 903d f5f5 85bd
00000190: 69e9 1ebd cc00 9abc 0a29 743d 552d 67bd
000001a0: 9e9c 85bd 0471 983d 17a4 99bb ed40 1c3c
000001b0: c32c ab3d 3203 b43d 5dde 43bc ec0c 45bd
000001c0: b4d5 323d e92a 733d 52cb b9bd 9106 c73d
000001d0: 18cb 3b3d 3437 893b cf80 90bd 1cff 8d39
000001e0: bb52 d03c 470d 70bd bf9e ae3c 1e4e b23b
000001f0: 38f7 c53c 1073 b13d 3f77 ae3d a59b 02bd
00000200: 4e53 223d 0784 a4ba dac0 b43d dd99 47bd
00000210: 6f7d ae3d d8d6 843d e580 1cbc cf92 6f3d
00000220: 76ca bbbd 42a1 0d3d e3d3 f43b 5217 833c
00000230: b032 b13d 892c 603b f81a 493d 377f 4b3d
00000240: 5359 d63c 9d81 783d e145 9cbd 6104 b63c
00000250: 2966 a0bd 4834 7ebd 1148 c8bd fa9b 6abc
00000260: a7bc d53c 3f03 40bd 663f cabd 012c febc
00000270: 73f8 243d 11d9 cabc 7b71 813c dc9d 3cbd
00000280: 68bb bfbd 6a0b b43b d79b 17bd 5d9a a7bd
00000290: 186e 3d3c a831 79bd 0e56 0ebd 02c0 203c
000002a0: a34c 713d d528 adbc 2e31 44bd 5630 573d
000002b0: e706 acbd 8946 0abb 971b 22bd 02d3 573d
000002c0: bb96 053d 9b59 393c 19d4 aa3d 192c 423d
000002d0: 720e c13d 44fa 943b 661a f13c 1deb ac3d
000002e0: 4047 60bd 9d05 023d 6890 ebbc 7dfa febb
000002f0: cf17 babd fb58 3bbc 1f47 673d 1a72 7dbd
00000300: 3af4 843d 45bb 323d cd12 29bd fe84 9ebd
00000310: a006 3ebd 12be b63d c2e7 a3bd 941c b63c
00000320: 7449 48bd 4773 11ba ba32 74bd 3a27 8b3a
00000330: 063e 20bc 7124 98bd 8730 ba3d efd4 0ebb
00000340: d483 00bd 8342 b13d 646d 9dbd 16e2 a83d
00000350: 7149 873d 6bce 52bd 21a2 f53d f545 1fbd
00000360: 1341 273d 75b0 e8bc 684b 16bd b0ab 643b
00000370: 6591 bbbd bb35 6bbd 9af1 a13d 837d 5abd
00000380: 79d9 9abb b0e8 063d 984b 33bd 2fa0 453d
00000390: dd5f 19bc ce62 5dbd fd74 163d 4b1f 15bd
000003a0: 9d5d 9c3d 3feb cb3c 24f6 f63d 4f42 47bc
000003b0: 17ef d8bd 04a0 90bd 20bf ba3d c89b c5bd
000003c0: 99a7 16bd e822 27bd 93cb 24bd 360f c7ba
000003d0: ee9e 84bd 4528 023e 560e 7d3d bb6b a0bd
000003e0: fae0 6cbd c0d9 703d 4708 e0bd 1986 dbbd
000003f0: e682 ddbd e5da a83b d83d 9bbd a56a 1cbd
0.0825084 0.062288895 -0.029665843 -0.047414422 0.039742224 0.096548185 0.08326864 0.045714494
-0.017712666 -0.07174872 -0.008002279 -0.022929035 0.057275098 0.06171845 0.07588598 0.063586876
0.02850054 -0.08950983 -0.060803067 -0.008337123 -0.007543914 0.024990452 0.020230498 -0.023739226
0.09511182 0.07933893 -0.074501686 -0.0032522262 -0.066009186 0.033003304 0.002424928 0.08879159
-0.09495309 0.015343489 0.035909947 0.065569 0.045153685 0.08913296 -0.060243282 -0.0969284
0.09370309 0.0027668232 -0.009440074 0.020341147 -0.066824645 0.0054594465 -0.07860425 -0.07417334
0.04972588 -0.05707415 -0.057653926 -0.036965895 0.0776091 0.09866812 0.053987883 0.067344524
-0.06619642 0.009477519 -0.08040459 -0.015621414 0.015867822 0.039305445 -0.022976728 -0.0064197863
0.096242405 0.010514946 0.045923807 -0.09045292 0.0059803454 0.0037542945 -0.028150378 -0.02078572
-0.028884405 -0.094313614 -0.0134658655 -0.052399285 0.03776645 -0.00069380156 -0.02607905 -0.00364045
-0.045315336 0.062218018 -0.026198717 0.02840834 0.096898824 -0.061910246 0.049703892 0.04836565
-0.055473063 -0.004524284 -0.09411796 -0.017308986 0.055619396 0.036456432 -0.064400084 -0.0816998
-0.014721086 0.098283924 0.07076348 -0.06541053 -0.038796816 -0.018799208 0.05960945 -0.056439716
-0.06524013 0.07443431 -0.0046887505 0.009536964 0.08358147 0.08789672 -0.011954871 -0.048108026
0.043660834 0.059367094 -0.090719834 0.09718049 0.045847982 0.004187489 -0.07055818 0.00027083687
0.025430074 -0.058606412 0.02131593 0.005441441 0.024165735 0.086645246 0.08518838 -0.031886715
0.039630227 -0.0012551554 0.08825846 -0.04873072 0.08520018 0.06486291 -0.009552215 0.058489617
-0.09169476 0.034577616 0.007471548 0.01600233 0.08652246 0.0034206233 0.049097985 0.04968187
0.02616564 0.060670484 -0.07630516 0.022218885 -0.078319855 -0.062061578 -0.097793706 -0.014319414
0.026090933 -0.046878096 -0.098753735 -0.031026842 0.040276002 -0.024761708 0.015801182 -0.046048984
-0.09361917 0.0054945247 -0.037013855 -0.08183739 0.011561893 -0.06083837 -0.034750037 0.009811403
0.058910977 -0.021137634 -0.047898464 0.05253633 -0.08399754 -0.002109917 -0.039577093 0.052691467
0.03261445 0.0113128675 0.08341236 0.047405336 0.09426583 0.0045464355 0.029431533 0.08443282
-0.05475545 0.031743634 -0.028755382 -0.0077813254 -0.090865724 -0.011434789 0.05646431 -0.061876394
0.06491895 0.043635625 -0.041277695 -0.0774021 -0.046393037 0.08922972 -0.08003189 0.022230424
-0.048898175 -0.00055484887 -0.05961869 0.0010616549 -0.009780413 -0.07428826 0.09091287 -0.0021794399
-0.03137572 0.08655264 -0.0768688 0.082462475 0.06605805 -0.051466387 0.11993814 -0.038885076
0.040833544 -0.028404454 -0.036693007 0.0034892373 -0.09158591 -0.05742429 0.0790741 -0.053342354
-0.004725632 0.03293675 -0.043773264 0.048248466 -0.0093612345 -0.054049306 0.036732662 -0.036406796
0.07635043 0.024892448 0.12058666 -0.012161805 -0.10592478 -0.070617706 0.091184855 -0.096488535
-0.036780927 -0.040804774 -0.040233206 -0.0015187028 -0.06475626 0.12710674 0.06178125 -0.07833048
-0.057831742 0.058801413 -0.10939079 -0.107189365 -0.108159825 0.0051530474 -0.07580155 -0.03818764

gru.bias_hh_l0 f4 [300]
00000000: f56a 3a3d e449 dc3b 3b5d 213c 825f 933d
00000010: 4c60 b93d e5a7 acbd cb77 89bd 8369 943d
00000020: 10c2 193d ba18 3cbd d7a8 3d3c 4ca3 b8bc
00000030: e05d 463d 2363 9d3d cf50 9bbd 1160 413d
00000040: bf74 0abd 77e8 ba3d 3bab a43d 4052 7d3d
00000050: 3d21 7ebd 3065 a4bd fc23 03bd fbd8 9bbd
00000060: 43e9 0e3d 6dba b1bd 3338 7f3d bb05 52bd
00000070: 3f37 8bbc 84f9 5b3d 3b90 bc3d 397d ac3d
00000080: 8e54 9c3d 4e7f 873d bb35 4b3c 89fb a23d
00000090: 59bb ca3d f26c 08bc c7d8 ea3b 85bb 573d
000000a0: 4513 87bd 65b7 393b c2ea 763d d065 07bb
000000b0: dcf4 16bc c70b b6bd ad91 58bd f7f7 ad3d
000000c0: 7ecf 0cbc 0818 3b3d 4fa0 c5bd 03d5 c53c
000000d0: 4f23 12bd de50 ad3d 3993 9bbd f27d 3b3d
000000e0: 2e61 6bbd ee61 843d 9659 48bd 154d 5b3d
000000f0: 72fd 78bd 1a55 3d3d 3988 1abc 8866 efbc
00000100: 7d1c 50bd 60f6 b63c 7f00 a1bd 991b 5c3d
00000110: 83a2 043c be5a 99bd 3408 8039 e0ff 3cbc
00000120: 5495 db3b 5d34 a8bd a554 763d 2bc6 fb3c
00000130: fd55 5138 d3dc 12bb 5f26 943d ea02 2c3c
00000140: c29a 70bd 213d f43c a27c 953d 5a72 423c
00000150: d65a 323d 6644 c1bd 7433 c4bc 4844 b9bd
00000160: 53df 743d 59a3 c03c e22d a8bc e651 363d
00000170: 8b7d 12bd a87c 943d 5bc2 0cbd c98c 8fbc
00000180: 5f74 56bd cc28 64bc d032 8ebc 6043 b8bd
00000190: c1ae 983b 10c3 da3c 3dcf 943d 99bb b0bd
000001a0: 0923 5bbd c41b d23c 2ea9 203d 6cf9 b93d
000001b0: bdf1 01bd 0b6f be3c 6df1 823d 42a7 9bbd
000001c0: f807 4abc 10e5 9a3d 9ef5 64bd 6106 c1bd
000001d0: 08ac b73c 777e 6bbc 9c3a 77ba 63c7 553d
000001e0: 7121 af3d 5438 2bbd c51b fe3b 3ee8 cbbd
000001f0: 8ece 703d e39b 973d 25f7 74bc 52a3 cabd
00000200: 9ba1 81bd f426 b4bd ae89 9d3d 84dc ba3d
00000210: 8c51 a93d d831 99bd 77c7 bbbc 6803 5abd
00000220: c133 033c f9dc d6bc 9e38 f4bb cf2d bbbc
00000230: 60e3 363d d6d1 70bd 5d9a 033d 6951 8f3c
00000240: 8fa0 c13d ffc7 743d 7f51 62bd 71f0 683d
00000250: 1f05 9e3c 1bb7 4dbd 82be 8abc 3176 e43c
00000260: f5fd a5bd afb9 64bd 37c2 21bd 28cf 89bb
00000270: 40e8 71bd 5aae 2dbd 596c a6bd 9748 41bd
00000280: 610e a9bd 2f7e bcbd c459 2b3d 04d4 173d
00000290: 17ca 53bc 10a1 40bd 04d6 923d 1310 9c3d
000002a0: dc2c b7bc a34d 4bbd 8277 e03c 9f5c 37bd
000002b0: df24 ddbc 2687 0cbd a9b5 683d e9dc 87bd
000002c0: 43c0 b73d f637 c5bd 3d9a 0ebd 2bf6 21bd
000002d0: f2e3 39bd 4f50 3a3d e9de 973d a92b e13c
000002e0: 2cb2 b43d 68dd d93c 369d 6d3d 7954 96bc
000002f0: 8130 adbd 710c 99bd 3b29 703d ba6d 8fbc
00000300: f257 c6bd f599 9c3c e4cd a3bd a6b4 afbd
00000310: 34c6 853d 319d bebd 2583 e6bb 1496 59bc
00000320: c0c9 b23d b36b c8bc 8f89 7b3c 675e 24bd
00000330: 56db 633d 5ba1 2cbd 7ac2 d83d f2e6 b63d
00000340: 657e 883d fb4f 5cbc 100b d3bd 16c5 b1bd
00000350: fd7d 9ebd 968b b5bd d674 833d 4a39 443d
00000360: f0b8 b2bc 426a 42bd 861d c03c ca45 b03d
00000370: c9c0 483d 864f 21bc 3148 34bc 34cf 653d
00000380: 56f8 8d3d 28c9 74bd 45a9 8ebd c53f 303c
00000390: 24d1 a8bd fa88 abbd 98bc a7bd 23c1 1dbd
000003a0: a753 963b 4f58 003d 2e95 793d c5f9 843d
000003b0: 94bc 3e3d ccec e4bd a31b 50bd d81f 1e3d
000003c0: aff6 83bd 9e9c 41bd 6dce 37bd f279 b73d
000003d0: 1870 823d e4e8 5f3c 8f1e 89bc 6439 253d
000003e0: 819a a83d 57d3 02bd e10e b73d cfdc 33bd
000003f0: 2212 853d b3bc 9c3d f0a2 c9bd 2a41 00bc
0.04551216 0.0067226756 0.009848888 0.07195951 0.0905157 -0.08430461 -0.06712302 0.07246687
0.037538588 -0.04592202 0.011575899 -0.022538804 0.04842937 0.076849245 -0.075837724 0.047210757
-0.033802744 0.091263704 0.08040472 0.061846018 -0.062043417 -0.080271125 -0.03201674 -0.07609745
0.034890424 -0.08678136 0.062309455 -0.051274996 -0.016994117 0.053704754 0.09207197 0.08422322
0.07633315 0.06616078 0.012402947 0.07958133 0.09899015 -0.008326756 0.007166955 0.052669067
-0.06595472 0.0028338071 0.060282476 -0.002066005 -0.009213652 -0.08888965 -0.052873302 0.08494561
-0.008594392 0.045677215 -0.09649717 0.024149423 -0.035678204 0.0846269 -0.0759644 0.045774408
-0.057465725 0.06463991 -0.04891356 0.053540308 -0.06078858 0.046223737 -0.009431892 -0.029223695
-0.05080842 0.022334278 -0.07861423 0.053737257 0.008095386 -0.07488011 0.00024420174 -0.011535615
0.006701151 -0.082131125 0.060139317 0.030734142 4.9909566e-05 -0.0022409454 0.07233881 0.010498742
-0.05874134 0.029814305 0.072991624 0.011868084 0.04354366 -0.09436874 -0.023950316 -0.09046227
0.05978329 0.02351539 -0.020529691 0.0445117 -0.03576426 0.07250339 -0.03436504 -0.017523186
-0.052357074 -0.013925742 -0.017358214 -0.08997226 0.004659504 0.026704341 0.0726609 -0.086295314
-0.05350021 0.025648005 0.039223842 0.090807766 -0.03172468 0.023246309 0.063937046 -0.07600261
-0.012331001 0.075632215 -0.0558983 -0.09425045 0.022420898 -0.014373413 -0.0009431036 0.052192103
0.085513 -0.041801766 0.007754775 -0.09956406 0.058790736 0.0740278 -0.014951502 -0.09894432
-0.06329652 -0.08796492 0.07692276 0.09124091 0.08267507 -0.0748021 -0.02292226 -0.053225905
0.008007945 -0.026228415 -0.0074530384 -0.022848992 0.044650435 -0.058793865 0.032129634 0.017494874
0.09454452 0.059761044 -0.055253502 0.056869928 0.019289551 -0.05022345 -0.016936544 0.02788839
-0.08105079 -0.055841144 -0.03949186 -0.004205603 -0.05905938 -0.042402603 -0.081261344 -0.047188368
-0.08254696 -0.09203755 0.041833654 0.03706743 -0.0129266 -0.0470286 0.071697265 0.076202534
-0.022360258 -0.049634587 0.027400736 -0.044766065 -0.02699512 -0.034308575 0.05681387 -0.06633932
0.08972218 -0.09629814 -0.03481506 -0.039541405 -0.0453834 0.045486744 0.074155636 0.02748664
0.08823046 0.026594833 0.058011256 -0.018350827 -0.08456517 -0.07473076 0.05863307 -0.017508376
-0.09684743 0.019116381 -0.07998255 -0.08579378 0.06531945 -0.09307326 -0.0070346766 -0.01328041
0.08729887 -0.024465417 0.015352621 -0.04012909 0.055629097 -0.042146068 0.105839685 0.08930768
0.06664733 -0.013446803 -0.103048444 -0.08680169 -0.07738874 -0.088645145 0.06418769 0.047906198
-0.0218167 -0.047464617 0.023451578 0.08607061 0.04901198 -0.00984562 -0.01100354 0.056105807
0.06932132 -0.05976215 -0.06965879 0.010757391 -0.082430154 -0.083757356 -0.08190268 -0.038514268
0.004587609 0.031334218 0.060933284 0.06492952 0.04656656 -0.11177978 -0.050807606 0.038604587
-0.064435355 -0.047268502 -0.044874597 0.08958806 0.063690364 0.013666365 -0.016738204 0.040337935
0.08232594 -0.03193983 0.08938385 -0.04391175 0.06497599 0.07653179 -0.09845531 -0.007828036

gru.weight_ih_l0_reverse f4 [300, 100]
00000000: 21e3 b83d 3e80 89bd 449d 39bd 0c0e 973d
00000010: ec16 383d 0cac c5bd 8da0 83bd 75cd 9dbd
00000020: 7ef2 a8bd 3551 f93a d3a3 4a3d 597b 9bbd
00000030: 7365 c7bd 0ad1 033b e71a 9bbd 27f7 39bd
00000040: 7984 a33d cd9d b33d 88a5 ef3c 13ad bb3c
00000050: d2ba 8cbc e22e 663c 6577 783d abe2 68bd
00000060: 11e4 7cbc 0632 62bc 667f af3d 2984 7dbc
00000070: bc7e b23d 9ace 223d 4457 efbc 5f4d 22bd
00000080: f563 1c3c ebf4 7c3d 0469 db3a d5cd c6bc
00000090: 966b 873d b22c 6dbd 04e2 843c 02f7 7a3c
000000a0: b84f aa39 e4f5 6dbb 7266 733d b6b3 c43d
000000b0: 725c 0d3c a2c1 0cbd b1d4 2c3d 6ac2 9bbb
000000c0: 5bb4 a43d d32c 81bd 14aa bebd 8c4a 9a3d
000000d0: e189 af3c e76a bdbc f948 82bd 6b9e 4e3d
000000e0: 96b2 bebd cdad 223d cd28 bcbd a068 bebd
000000f0: 4dc1 763d 1994 683d a715 c0bc 7062 ff3a
00000100: 39cd 6dbd d787 81bd 5916 013b a072 de3c
00000110: 1fe0 523d e3a4 0dbd 1324 573d f9d8 3ebd
00000120: 53a8 c8bd 801b 92bc 6cb2 20bd 65ef c13c
00000130: 6b1a 6bbd 3ea3 c63c 0bf1 9abd 90de bbbd
00000140: 5f9e 9fbb fab3 c43c 2cef be3d 609e 2b3c
00000150: 5277 343c 26b4 35bb f875 403d af9c 923d
00000160: 2894 763d ce72 c5bc a154 32bd d8ba adbd
00000170: 854e 90bd 6fc6 9abd ceff 953d 600e c8bd
00000180: 254d c93d 8346 883d e3bc ae3d a5a5 55bd
00000190: f66c aa3d 2802 66bd 9414 23bd c0b0 df3c
000001a0: dcc2 c6bc daa2 1b3d 605e 353d 7a52 7dbc
000001b0: 038f 1bbd f07e 903d 9633 8dbd 40e1 bdbd
000001c0: 6620 0d3d 7988 42bd 65b4 c5bd 8a00 733d
000001d0: 48be 11bd bba0 70bc 18cf ba3d 1241 dd3c
000001e0: 4509 b03c c582 17bd c78a 12bd 401c c9bd
000001f0: 365e a6bd a113 a93d ce12 30ba 1c22 193c
00000200: 764a b23d 57c4 bf3c 12b1 253d f59f 7fbd
00000210: ebc5 93bd 2313 a3bd a314 b73d 1783 6e3c
00000220: 277f 433d 1514 22bd c927 a93d b3ca 3abd
00000230: 8b70 1f3c 8e4e 263d 3231 36bc 2e1f c6bd
00000240: e090 8a3c 8acf 00bd f980 c1bb 8e75 ec3b
00000250: 83f4 ac3d 9e66 b63d c3c3 78bc e878 a43a
00000260: 3f0f a33d e9db b5bd 7209 eb3c b3e0 c5bd
00000270: d6e8 843d 8f90 5dbd 12d4 44bd b603 bcbd
00000280: bc0b 8cbc c3b6 c2bc ce97 92bd de6f b23d
00000290: e0b4 523c 81e1 1b3c aedf 5b3d 0ce7 973d
000002a0: 96c2 4dbd 2ca2 acbd 7666 833d 1373 c6bd
000002b0: eb0f 623d 1d09 a63c c054 56bd d7f3 66bc
000002c0: 4953 fc3c 785b 1abd 27ac 85bd e1a5 c03d
000002d0: a98b 2abd 1c49 a5bb 5bf6 1abd d9d2 aa3d
000002e0: 2406 c53d d5cd 83bd a6d1 1cbd 1a03 f6bb
000002f0: d912 74bd de52 8dbd 0c7e 53bc 4c24 863c
00000300: 0cf8 b03d 9107 8a3c 5054 783c 8e97 273d
00000310: 7764 19bd fb2a 27bd db66 64bd 631a 053c
00000320: 0f79 bcbc c1f3 c63d 1cc9 adbc d3ae a2bd
00000330: 485d 6cbc 802f 24bd a26f ed3c 3ca3 e5bc
00000340: 2a61 a9bc 6ce3 bbbc 094b 43bd 9574 01bd
00000350: ad5e a4bd a360 4cbd 743d 84bc d6f1 86bd
00000360: cd4f 1fbd 0886 03bd fcc5 57bc 7589 2bbd
00000370: e308 8cbc 4b67 8ebd 0933 ae3c fb84 15bd
00000380: 8a2f 8bbd e64e 923d a309 3d3d e9a6 563d
00000390: 4866 c4bd 910f a03d d551 c0bc a07c ca3d
000003a0: e17d 9cbc 6a8f 233d 2b79 3a3a 0d89 9dbd
000003b0: a396 7a3c 8a5e 9e3d 89c4 88bd a4ea 88bd
000003c0: 19f8 fe3c ce4d a8bb 0a29 e93a 4778 44bd
000003d0: 1379 81bd dfe6 be3d c7a4 e8ba 0f67 14bc
000003e0: d9f5 b03d d3c5 873d da53 803d a8e5 8c3d
000003f0: 6607 883b 06f8 bcbd 1d3b e83c 29a0 7b3d
0.090276964 -0.067139134 -0.045315996 0.07375726 0.044943735 -0.09651956 -0.06427107 -0.077052034
-0.08249377 0.0019021394 0.04947264 -0.07591886 -0.09736147 0.002011361 -0.075734906 -0.04540172
0.079842515 0.087703325 0.029253736 0.022909677 -0.017178927 0.014049264 0.06066074 -0.056856792
-0.015435235 -0.013805872 0.08569221 -0.015473404 0.08715579 0.03974781 -0.029216416 -0.039624568
0.009545316 0.06175701 0.0016739671 -0.02426807 0.06612317 -0.057903953 0.016221054 0.01531768
0.00032484322 -0.0036309892 0.05942387 0.0960459 0.008627998 -0.03436435 0.042195026 -0.0047534006
0.080422126 -0.06307378 -0.093097836 0.0753375 0.02142805 -0.023122264 -0.06361575 0.050444048
-0.09311406 0.03971653 -0.0918747 -0.092972994 0.06024294 0.056781862 -0.023447825 0.0019484293
-0.058057044 -0.063247375 0.0019697158 0.027154267 0.05148327 -0.034581076 0.052524637 -0.04659364
-0.0979773 -0.017835379 -0.039232656 0.023673723 -0.05739824 0.024247762 -0.075655065 -0.0917331
-0.004871174 0.0240116 0.09322962 0.010474771 0.011014776 -0.0027725785 0.046987504 0.07158791
0.060199887 -0.024102595 -0.04353774 -0.08482903 -0.070462264 -0.075573795 0.073241815 -0.09768367
0.09829167 0.06654074 0.08532121 -0.052159924 0.08321564 -0.0561544 -0.039814547 0.02730596
-0.024262838 0.037997104 0.044279456 -0.0154615585 -0.037978183 0.070554614 -0.06894605 -0.09271479
0.034454726 -0.04749343 -0.09653548 0.059326686 -0.035581857 -0.014686759 0.09121531 0.027008567
0.021488795 -0.036989946 -0.03577688 -0.098198414 -0.08123438 0.08255697 -0.00067166693 0.009346511
0.087056085 0.023409052 0.04045207 -0.062408406 -0.07215484 -0.079626344 0.08939483 0.014557621
0.047728684 -0.039569933 0.082595415 -0.045603465 0.009731422 0.04060226 -0.0111201275 -0.09673916
0.016914785 -0.031447925 -0.0059052673 0.007216162 0.084450744 0.089062914 -0.015183392 0.001254824
0.07961892 -0.08879835 0.028691027 -0.096619986 0.064897224 -0.05409294 -0.04805381 -0.09180395
-0.01709544 -0.023768788 -0.07157861 0.08712743 0.012860507 0.009514214 0.053680114 0.074171156
-0.0502344 -0.08429369 0.06416027 -0.096899174 0.05519096 0.020268017 -0.052326918 -0.014096222
0.030801432 -0.037684888 -0.06526976 0.09406639 -0.041637097 -0.0050441157 -0.0378326 0.08340997
0.09620312 -0.06435744 -0.038285874 -0.007507694 -0.059588287 -0.06900571 -0.01290847 0.01637473
0.08641061 0.016849311 0.01515682 0.04091602 -0.037449326 -0.040812474 -0.055762153 0.008123967
-0.023006944 0.09714461 -0.02121406 -0.07943501 -0.014426537 -0.040084362 0.028983895 -0.028031938
-0.020676214 -0.022935592 -0.04767898 -0.031605322 -0.080258705 -0.049896847 -0.016142584 -0.06589095
-0.038894463 -0.032110244 -0.013169762 -0.041879136 -0.017094081 -0.06953295 0.02126457 -0.036503773
-0.06796177 0.07143955 0.04615177 0.05240527 -0.09589821 0.07815469 -0.02347652 0.098870516
-0.019102992 0.039931692 0.00071133923 -0.07692156 0.015294704 0.07732876 -0.06678111 -0.06685379
0.031124162 -0.005136228 0.001778872 -0.047966268 -0.06321921 0.09321379 -0.0017749303 -0.009057774
0.08640642 0.06629529 0.062659934 0.06879741 0.0041512726 -0.09226994 0.0283485 0.061432038

gru.weight_hh_l0_reverse f4 [300, 100]
00000000: e653 4bbc 065a 933d 5077 bcbd ac3f 82bd
00000010: b5e1 5fbc 21f5 10bc 9c6e 80bd 8c25 b2bc
00000020: 6d4b 903d b0c6 8c3d 3b02 913d b6e7 46bd
00000030: 6868 bdbd 5bce 8d3d 8b5f 4d3d df8a bcbb
00000040: 3475 163b 679a a1bd 2d81 4e3d 2306 2dbd
00000050: 90f6 e23c e85a 843d 64b7 083d da91 9dbb
00000060: 0ecd 41bd 3900 c4bd 0550 46bd fec8 223d
00000070: 7038 d5bc 5fef c83c 9245 84bd be2f 5c3d
00000080: 3619 abbd a8bb 83bd d4bc 773d 6d52 a3bd
00000090: 6c64 273d c0ae c3bd 7664 2a3c a64b be3d
000000a0: f3ad cf3b b1dd 38bd 82e0 2abc 18b2 fdbc
000000b0: e5f3 6fbd c7f8 2d3d 20f2 1f3d eb6f 13bc
000000c0: 90f4 c63d 1e36 b03d 665b 2bbc 0daa 9cbb
000000d0: 114b c9bb 67e7 f8bc 3ead bb3d cea2 2bbd
000000e0: 1f21 233c 1959 9fbd e32b 24bd 9bb4 6d3d
000000f0: 0446 87bd 64dc 3e3d 1b7a a73d fffa 76bc
00000100: 5202 53bd e315 9fb9 2a8b 953d 37e0 ca3d
00000110: c359 1238 4ab8 c53d f44b ab3d da33 df3b
00000120: f006 da3c e01a a93c 3e85 693d 0153 babd
00000130: 037b 3cbd 0ccb 553d 6793 c3bd ca21 b33d
00000140: 51f5 433c b56b 6dbc a844 a6bd 56f8 edbc
00000150: 1f7d 973c 3373 8b3d 28e9 6f3d ce9c 413a
00000160: 9a61 9b3c 08d7 02bd 2cd1 f13c 6334 90bd
00000170: ca60 c5bc 81b6 343d 7b1c f6bc 6832 613c
00000180: 3cbb afbd ac0a 9bbc cffb 573d d77f b4bd
00000190: b624 90bd 86cf 563d 7e95 0d3c 9d7c 98bd
000001a0: a2de 573d 2830 80bd 3555 97bd 4b34 0b3d
000001b0: 440a 073d 75d1 633d 3a12 b6bd 6396 c53d
000001c0: 353c 76bd c73b eebc 55d6 a53d 88af 44bd
000001d0: 02b5 26bd e11a aabd 4ac1 3d3d b6a2 f33c
000001e0: 11bb c83d a224 353d c023 0fbc 36be a43d
000001f0: 8648 d83c d94b 4cbd 45c7 90bd 8c56 ca3d
00000200: 2c93 cdbc 550b 4f3d 79d1 0a3d 16ec c03d
00000210: b83b d33c 5b81 abbc fc45 ea3c 71bd 823d
00000220: 77a6 cabd fc42 8cbd 5f87 a13d 20d1 cfba
00000230: 0f26 c13d ee94 92bd b8dd b2bb 32e1 61bd
00000240: d764 6d3d 0d3c a9bc c5c6 96bb 7022 19bd
00000250: e717 bd3d 1909 7ebd 6f7c 7bbd 810d 2d3d
00000260: def9 deba 4f6f c3bd 4a41 f0bc 3fce e23c
00000270: f3c5 ce3c 681d 05bd bd81 1c3d a1e0 a3bd
00000280: 3c87 b53d 7131 2f3d 10f9 89bd 1432 ffbc
00000290: d718 4dbc 6953 bd3d bd80 a63d 2e3c 49bd
000002a0: d686 493c 92cd b03b 92d5 493d 5b55 24bd
000002b0: feef 6b3d 08ac 73bc 0d7a c13d b1fd 0b3d
000002c0: 2156 113d 6aee ac3d 15e9 0d3d d4a5 47bd
000002d0: 2c9c c8bd 50cc 6ebc b3ca e73b 84ec bf3d
000002e0: b412 85bd 1936 943d 0642 d33b f87b 4abd
000002f0: 4c69 b8bd 4522 6bbd 7896 353d 5f57 1d3d
00000300: 4557 933d ddb3 bcbc e43c 3bbd 413e c63d
00000310: 9274 b93d 22cd 503d 5378 a43d f70b 27bd
00000320: 6657 ca3c a2ef 4b3d 5370 613d 8e66 953d
00000330: bbf8 99bd f0e2 55bd 2965 053d 743e de3b
00000340: 0ca6 713d 2452 713d 1cc2 60bd d6df 8b3d
00000350: 07df 01bd fc7f 053c e2cd 5a3c e5f6 123d
00000360: 654b 1b3d 7931 813d 565d 38bd 5f30 a33d
00000370: 5a4f 443d 15af f4bc 2e20 71bd c334 323d
00000380: e900 7a3c d043 c83c 82d7 5f3b f6e0 16bb
00000390: fd92 cdbb 16d9 93bd 4312 313c 068c faba
000003a0: 4557 a8bd 659a 08bd 1bb8 20bd cf39 d5bc
000003b0: 760c 11bd e027 293d a330 d53c d3f7 4f3c
000003c0: cf8f 283d a3e0 833d 00d2 81bd 39e7 c73d
000003d0: fdc9 fdbc 514e 7f3d d8af b7bd 23ba 61bd
000003e0: a85e 6cbd 718a a5bb 2987 913d f4bf b93d
000003f0: 2706 c2bd 4024 393d 2c8c 963d 0d65 f93c
-0.01241014 0.07194905 -0.092024446 -0.06359801 -0.013664653 -0.008847506 -0.06271097 -0.02174642
0.07045636 0.06873834 0.070805036 -0.04856082 -0.092484295 0.06924125 0.050139945 -0.0057538594
0.0022958042 -0.07890778 0.05041616 -0.04224218 0.02770546 0.064626515 0.03337802 -0.0048086466
-0.047314696 -0.09570355 -0.048416156 0.039742462 -0.026027888 0.024528204 -0.06458582 0.053756468
-0.08354418 -0.06432277 0.060482815 -0.07974706 0.040867254 -0.09554815 0.010399928 0.092917725
0.006337875 -0.045133296 -0.010429503 -0.03096871 -0.058582205 0.04247358 0.039049268 -0.008998851
0.09714615 0.08604072 -0.010458803 -0.004781014 -0.006142982 -0.030383779 0.09163903 -0.04190331
0.009956627 -0.07780666 -0.040080916 0.058033567 -0.06605151 0.0465969 0.08177587 -0.015074491
-0.051515885 -0.0003034315 0.07301934 0.09906047 3.489271e-05 0.09654291 0.08364096 0.006811601
0.026614636 0.020642698 0.057011835 -0.09097863 -0.04601575 0.052195594 -0.09549599 0.08746679
0.011960343 -0.014491011 -0.08118564 -0.02904908 0.01849228 0.06809082 0.058571965 0.00073857314
0.018967438 -0.03194335 0.029518686 -0.07041242 -0.024094004 0.04411936 -0.030042877 0.013744928
-0.08580634 -0.018925987 0.052730378 -0.08813446 -0.07038252 0.052444004 0.008641599 -0.07445643
0.052702554 -0.06259185 -0.07389299 0.033985417 0.032968774 0.055619676 -0.08890195 0.096478246
-0.06011601 -0.029081238 0.08097521 -0.048018962 -0.040699966 -0.08305908 0.046326913 0.029740673
0.09801305 0.04422439 -0.008736551 0.08044092 0.02640177 -0.04987702 -0.07069258 0.09879789
-0.025094591 0.050547916 0.033891175 0.0942003 0.025785312 -0.020935705 0.028597824 0.06383789
-0.09895032 -0.06848714 0.07887148 -0.0015855171 0.09431087 -0.07157312 -0.00545856 -0.055146404
0.057957496 -0.020658517 -0.004601332 -0.037386358 0.09233075 -0.062020395 -0.061397966 0.042249206
-0.0017011722 -0.09542715 -0.029328007 0.027686236 0.025240874 -0.032498747 0.038209666 -0.08001829
0.088636845 0.04277176 -0.06736958 -0.031151809 -0.012518129 0.09244425 0.08130024 -0.049129657
0.012300214 0.0053955996 0.049275942 -0.040120464 0.05760192 -0.014872558 0.094471075 0.034177486
0.03548253 0.084439114 0.034646112 -0.04874213 -0.097954124 -0.014575079 0.007073724 0.09371284
-0.06497708 0.07236881 0.0064470796 -0.049434632 -0.09004459 -0.05740573 0.04433295 0.0384134
0.0719438 -0.023034984 -0.045712367 0.09679843 0.09055437 0.05097688 0.080307625 -0.040782895
0.024699878 0.04978908 0.05503876 0.072949514 -0.07518145 -0.052218378 0.032567177 0.0067823473
0.058996245 0.058916226 -0.054872617 0.06829803 -0.031706836 0.00814819 0.01335475 0.03587999
0.0379137 0.06308264 -0.045010887 0.079682104 0.047927238 -0.029868642 -0.05886858 0.04350735
0.015259006 0.024446398 0.0034155552 -0.002302227 -0.006273626 -0.0721914 0.010807577 -0.0019115217
-0.0821977 -0.033350367 -0.039238077 -0.026028542 -0.035412274 0.041297793 0.026024168 0.012693363
0.04115277 0.064393304 -0.063388824 0.09760899 -0.030980105 0.062330548 -0.089690864 -0.055109154
-0.05770746 -0.005051904 0.07105858 0.09069815 -0.0947383 0.045200586 0.073509544 0.030443693
