parameter/coder/encoder2.pth (torch_old, 820230 bytes, 13 tensors)

gru.weight_ih_l0 f4 [300, 100]
000000 81 e5 91 bc 0d 2c 78 bb 07 d7 41 39 3f ff 68 bc
       -0.017809631 -0.0037868053 0.00018486018 -0.014221012
000010 44 14 d8 3c 8a c5 eb 3c bf 5d f9 bc 91 58 29 bc
       0.02637685 0.028780717 -0.03044021 -0.010336057
000020 36 b3 a0 3c b8 b3 ee 3c 8b 8f 20 bc 0f 0a a7 3c
       0.019616704 0.029138431 -0.009799848 0.020390538
000030 d1 cc ea bb 93 58 2b 3c d8 db 0d 3c 1b 5c e4 3c
       -0.0071655293 0.010458129 0.008658372 0.02787595
000040 4c 26 c6 3c 73 ba 02 bd 78 78 f8 3c 0d d8 fb ba
       0.024188183 -0.031916093 0.030330881 -0.0019214168
000050 74 8a 29 bc 7e 1c e8 bc 8d 41 23 bc bc 75 96 3c
       -0.010347951 -0.028333899 -0.009964359 0.018366687
000060 c9 2e 81 bc ad 41 72 3b 38 91 c7 3b ee f3 50 3c
       -0.01576938 0.0036965415 0.0060903095 0.01275347
000070 d3 bd 05 bc be 10 aa bc 1b f1 cd 3c 95 c8 9a 3c
       -0.008162933 -0.020759936 0.025139382 0.018894473
000080 37 79 f2 bc ce 1c 64 3c af c6 86 3c 2a 4b bb bc
       -0.029598815 0.013922883 0.016452162 -0.02286299
000090 78 e8 42 bc e5 97 64 3c 44 3d 63 bc 1f c7 bf 3c
       -0.011896245 0.01395223 -0.013869587 0.023410378
0000a0 16 32 3b bc 9a d6 b2 bc cf 75 c7 bc a0 48 eb bc
       -0.011425516 -0.021830846 -0.024348168 -0.028721154
0000b0 99 c4 27 bc ec 47 ff bc ae d5 39 3c 4d ee 1d bc
       -0.010239744 -0.031162225 0.011342449 -0.009639335
0000c0 aa d6 b6 3b 52 ac 98 bb 35 97 0f 3c e6 ed ec 3c
       0.005579789 -0.004659214 0.008764078 0.028922033
0000d0 19 b5 90 3b 19 1b 15 3c 36 54 75 bb 77 b2 1c bc
       0.00441612 0.009100699 -0.0037434227 -0.009564034
0000e0 d9 fa 6f 3c 7b 89 e9 3c 60 12 61 3c b3 11 9a bc
       0.014647209 0.028507939 0.013737291 -0.018807268
0000f0 6e 07 09 3b cf 92 de bb b0 50 90 3b de f6 80 bc
       0.002090897 -0.0067924033 0.00440415 -0.015742715
000100 97 8c 9d bb 7b 58 5e bc 5e 49 a1 bc de 00 12 bc
       -0.0048080194 -0.0135709 -0.019688305 -0.00891134
000110 6c bc 3e 3c 17 3e 14 3c 19 72 c9 bc 56 49 38 3c
       0.011641603 0.0090480065 -0.024590539 0.011247953
000120 84 24 d4 bb 6a 26 93 bc ac 17 4f bc c9 bd 6f bc
       -0.0064740796 -0.017962653 -0.012639921 -0.014632651
000130 0e 69 99 bc e9 93 db 3c 19 9a 09 3c f7 f3 38 bc
       -0.018726852 0.026803927 0.008398556 -0.0112886345
000140 0f fd cd 3c 8a 0b a0 bb fa 54 48 bc de e2 c9 3c
       0.025145082 -0.004884188 -0.012227291 0.024644312
000150 7c 80 47 3c 2c 44 bd bb 2a 3f a3 bc bb 5e 80 3c
       0.012176629 -0.005775949 -0.01992758 0.015670171
000160 7c e8 74 3b 46 27 db bc d7 9f d5 36 24 a5 d9 3c
       0.0037370017 -0.026752125 6.3665025e-06 0.026568003
000170 70 e9 c9 bb 6c 6c d3 bb af eb 84 3a 02 ff cb 3c
       -0.006161861 -0.006452134 0.001014104 0.02490187
000180 a3 3d 08 ba 57 32 9c bb 7b 04 a1 bc 34 1b 46 3c
       -0.0005197173 -0.004766743 -0.019655457 0.012091447
000190 d7 da 09 3d 5b 58 cf 3b 1e ce a6 3c ae 3c f9 3c
       0.033655968 0.0063276715 0.020361956 0.030424442
0001a0 2c 6d 12 3d e7 84 e7 3a d5 3c ae bc 6a 51 45 bc
       0.035748646 0.0017663509 -0.021269241 -0.012043336
0001b0 ce c4 9d 3b 36 6a db bc a4 2e a6 bc 4a 5f 01 3c
       0.0048147207 -0.026784044 -0.020285912 0.007896254
0001c0 8b 3d db 3c 78 ee 7f bc 2d 91 d9 3c f3 b3 97 3c
       0.026762744 -0.01562082 0.026558483 0.018518424
0001d0 4b 1d 06 3b 21 10 de bc 8b 3e 29 bc b0 f8 d7 3c
       0.0020464237 -0.0271073 -0.010329853 0.0263637
0001e0 28 7a 97 bc e3 db 44 bc 3f 93 94 bc 13 0b ba 3c
       -0.018490866 -0.012015316 -0.018136619 0.022710359
0001f0 5e 0c b9 3c 2e 58 33 bb 95 69 f2 bc 08 1a 93 bc
       0.022588905 -0.0027365792 -0.029591361 -0.017956749
000200 0e c1 00 bd 42 88 a8 bc 99 20 08 bd f9 ff d2 39
       -0.03143411 -0.020572785 -0.033234213 0.00040245036
000210 14 82 c7 3c 7c 4c a3 3c 06 16 42 bc 82 3d f3 3c
       0.024354018 0.019933932 -0.011846071 0.029692415
000220 bb 35 ae bc 02 83 d9 ba b3 c7 79 3c d4 3f 88 3b
       -0.021265855 -0.001659483 0.015245366 0.0041579995
000230 3e f2 83 bc 19 47 93 bc 78 30 9c 3c 36 b3 02 3b
       -0.016106721 -0.017978238 0.01906608 0.0019943244
000240 f3 92 0e bd b1 60 95 3c 09 50 a0 bb ff d9 fd 3c
       -0.03480811 0.018234583 -0.0048923534 0.030987738
000250 f8 04 4b 3c a5 f8 54 bc cd 00 44 3c 18 b3 ff 3b
       0.012391321 -0.012998735 0.011963082 0.007803332
000260 6a 44 03 bd 68 99 d8 3c 71 d5 d4 3b c9 5b 39 3c
       -0.032047667 0.026440337 0.0064951708 0.011313387
000270 8e 5b 2b bd db 14 6f ba 0e a6 e1 3a c4 42 0f 3d
       -0.04183536 -0.0009120234 0.0017215626 0.034975782
000280 93 5d 6c bb 48 00 e4 3c c4 53 ad bc cf e3 ad 3c
       -0.0036066517 0.027832165 -0.021158107 0.021226792
000290 38 da 5f 3b 51 23 ee 3c 6f f5 e9 bb b6 2a 9e 3c
       0.0034157168 0.029069575 -0.0071398537 0.019307476
0002a0 d6 3b e4 bc 8b 08 04 bd 70 27 42 3c cd 54 ee bc
       -0.027860563 -0.03223471 0.011850223 -0.02909317
0002b0 87 5c d0 3c e1 f8 1e 3d c9 30 13 3c b8 26 26 bc
       0.025434745 0.03881157 0.008983799 -0.010141067
0002c0 52 eb 7f bc 33 65 09 bc 65 4d 14 3d 4c a0 bf bc
       -0.01562007 -0.008385944 0.03620662 -0.023391865
0002d0 89 78 05 3d 29 c0 62 3c 97 b7 ce 3b 16 b8 ef bc
       0.032585654 0.01383976 0.0063085067 -0.029262584
0002e0 3f 5d ef 3b be ce 97 3a 04 0f 8c bc 41 ad d6 bc
       0.007304817 0.0011582 -0.017097004 -0.02620566
0002f0 59 cf 86 bc 12 d3 9e 3c 0d c8 c6 3c c6 cd dc bc
       -0.016456293 0.019387756 0.024265314 -0.02695359
000300 87 69 d7 3c 38 45 e5 bc b8 52 76 3c 25 1d 16 bc
       0.026295437 -0.027987108 0.01503437 -0.009162222
000310 21 ed 9f bc 19 c5 19 3c 43 4a 5f 3c dd 89 b7 3c
       -0.019522252 0.009385371 0.013628545 0.022404606
000320 c8 57 53 3c a4 fb 80 bc 7e 0c 1a 3c f6 f7 f1 3b
       0.012899347 -0.015744992 0.009402392 0.0073842956
000330 2e d5 e4 3c b7 67 65 bc 14 29 d7 3b 1d 9b b7 bb
       0.027933683 -0.014001778 0.006566176 -0.0056032077
000340 5c 17 ad 3b f1 0a d2 3c c3 fc 82 3c 76 31 e2 3c
       0.0052823257 0.025639983 0.015989667 0.027611475
000350 96 fa 00 3c 0a ae a2 3a bc 3b ea 3b 23 6f d6 bb
       0.007872244 0.0012411487 0.007148234 -0.0065440102
000360 42 8d e6 bc 9a 25 a1 bc c2 87 ec 3c 67 1e ed 3c
       -0.028143529 -0.01967125 0.028873328 0.028945161
000370 d7 da 2c bb 1a 94 a0 3c 69 be bd bc 4a 8e e2 3b
       -0.0026375556 0.01960187 -0.023162084 0.006913935
000380 0b 70 cb 3c 44 75 8b 3c 86 b9 ed 3c 5d 9a b1 bc
       0.0248337 0.01702369 0.029019129 -0.021680051
000390 78 bf bc ba b6 c0 d3 3b 75 ff 0c 3c 7b 87 c0 3b
       -0.0014400324 0.006462182 0.008605828 0.0058755255
0003a0 a5 61 c3 3c 62 21 d0 3c e8 2e 8e 3b f5 c0 02 3c
       0.023850271 0.025406543 0.0043390878 0.007980575
0003b0 16 4e 0a 3c 07 0b 9f bb 9b 22 69 3c 21 84 b2 bc
       0.008441469 -0.0048536095 0.014229442 -0.02179152
0003c0 34 43 89 3c 1a 9e 8a bb 58 62 9c 3c 10 b4 c5 bc
       0.016755678 -0.004230273 0.019089863 -0.024133712
0003d0 a6 6f 32 bc 06 3e 1b bc ae e5 be 3c 28 29 87 3c
       -0.010890877 -0.009475237 0.02330288 0.016499117
0003e0 90 13 01 3c 08 16 a6 3c cd d3 06 3b 63 7b e7 3c
       0.007878199 0.020274177 0.002057302 0.028257078
0003f0 87 b2 a4 3c dc a3 ab bc bd 15 99 bb 2d b1 66 bb
       0.02010466 -0.020952158 -0.004671781 -0.003520082

gru.weight_hh_l0 f4 [300, 100]
000000 97 ef dc 3c 02 12 98 bc a7 d4 bb bc e1 8d 92 3a
       0.026969714 -0.018563274 -0.022928549 0.0011181199
000010 0d 08 6e 3c 35 1d 93 3c 34 2a 49 3c 4a c8 b7 bc
       0.014528287 0.017958263 0.012278128 -0.022434372
000020 18 49 09 3b 5f 44 d3 bc d1 20 ef bc d1 d8 06 3a
       0.0020948108 -0.025789438 -0.029190453 0.00051440025
000030 19 ca 03 bd e1 c8 58 3c 05 2d 71 3a 7f c5 e0 3b
       -0.032175157 0.013231487 0.0009200129 0.006859481
000040 09 40 b0 bc f1 e6 5e bc 0d 0c 06 3d 0a d7 71 bc
       -0.02151491 -0.013604865 0.032726336 -0.014760742
000050 57 2a e1 bc c4 e3 d5 3a 3c 61 e7 3c f4 94 7f bc
       -0.02748601 0.001631849 0.028244607 -0.015599478
000060 a7 fa e6 3c a5 bd 98 3c 28 63 f9 3c aa 4a 4c 3c
       0.028195692 0.018645117 0.03044279 0.012468973
000070 79 4e 59 bb b2 07 e5 3c 36 35 d5 3c cd fb d5 bc
       -0.0033158346 0.027957771 0.02602635 -0.026121045
000080 e2 af bd 3c 43 50 36 bc 1b 17 ba ba b1 b1 9d bc
       0.023155157 -0.011127534 -0.001419756 -0.019249769
000090 36 90 a4 bc db 84 d0 bc ad dc 45 3c 79 e4 12 bc
       -0.020088296 -0.025453975 0.012076539 -0.008965605
0000a0 c4 c4 8c bc ff 30 90 bc fb ec 38 bc 81 38 d7 3b
       -0.017183669 -0.017601488 -0.011286969 0.006568015
0000b0 19 45 10 bc 53 50 4e 3b 34 9d c9 b9 15 8f 56 bc
       -0.008805537 0.0031480982 -0.00038454833 -0.013095637
0000c0 d9 9a 85 3c 7d 42 73 3b ff 43 ab 3c 11 f0 39 3a
       0.016309189 0.0037118488 0.020906447 0.00070929626
0000d0 65 92 1b bc b0 a8 c9 3c db e6 9f 3b 4c 34 00 bd
       -0.009495352 0.02461657 0.004879815 -0.031299874
0000e0 76 7d ff 3c b6 f5 38 bc b5 c1 7d 3c d8 84 2f 3b
       0.031187754 -0.011289051 0.015488078 0.0026782062
0000f0 ce 08 04 bc 4d c4 d4 3c 3a ee 01 bc c9 e6 bb bc
       -0.00805874 0.02597251 -0.007930333 -0.022937195
000100 c5 4f c6 3c 89 a8 d6 bc 78 e9 e0 bb 9e f2 a1 bc
       0.024207959 -0.02620341 -0.006863769 -0.01976901
000110 97 aa 94 bb 1c b3 a5 3b 9e e6 1b 3b 79 48 b5 3b
       -0.0045369375 0.005056752 0.0023788582 0.005532321
000120 14 9d b6 bc a5 49 86 bb d9 2d dd bc 14 ed b8 3c
       -0.022291698 -0.0040981346 -0.0269994 0.022573985
000130 00 39 94 bc f8 85 21 bc 2d bb 85 3b 9a 2a cb 3c
       -0.018093586 -0.009858601 0.004081151 0.024800587
000140 7f 08 7c 3c 89 c0 2a bc fb 70 6f bc ac f2 18 3c
       0.015382885 -0.0104218805 -0.014614339 0.009335201
000150 65 4e e8 3a 26 aa cc 3c 8c b9 ed 3c df 48 9d 3c
       0.0017723559 0.024983477 0.02901914 0.019199787
000160 3e 8b a6 3c 2f 01 ea 3c 64 c7 fb bc 6c c6 34 bb
       0.020330068 0.028565018 -0.030734725 -0.002758409
000170 df 30 09 bc 58 27 cb 3c 16 da fe bc 0f fc 8a 3b
       -0.008373468 0.024799034 -0.03110985 0.0042414735
000180 4d 71 bf bc 67 75 48 3b 23 4b ca bc 7b 70 3c 3c
       -0.023369456 0.0030587555 -0.024694031 0.011501427
000190 f2 6b 36 3b 5a 75 92 3b 2a 1f c9 3c 78 34 84 bc
       0.0027835337 0.004469556 0.024550993 -0.0161383
0001a0 bc 43 f4 bb 1f d0 06 3c 23 bb 00 bd fd c4 87 3b
       -0.0074543636 0.008228331 -0.031428467 0.004143356
0001b0 f2 65 08 bd 8a e5 e4 bc a9 59 bb 3c 23 6f ab bc
       -0.033300348 -0.027941484 0.022869902 -0.020927018
0001c0 f1 02 ff 3b 67 cd 65 bb 14 fc a2 bc b8 19 d8 3b
       0.007782333 -0.0035065056 -0.01989559 0.006594863
0001d0 1c c5 48 3c 73 59 84 3b 90 b4 21 3c c0 4d 8c bc
       0.012254026 0.0040389835 0.00986971 -0.017126918
0001e0 48 f5 01 bd a5 cb bf 3c 6a 8a a2 3c 29 e7 99 3c
       -0.03172806 0.023412535 0.019841392 0.018786984
0001f0 f5 1d 0a bd 7c d7 a0 3c 75 38 5f bc c2 7d 11 3c
       -0.033719976 0.019634001 -0.0136243 0.008880081
000200 83 a1 e7 3c 39 57 5e bc 15 fe 14 3d 67 6f 9b bc
       0.028275257 -0.0135706 0.036375124 -0.01897402
000210 f3 d6 65 bc 55 f1 b2 3c 53 53 b6 3c cf a9 a0 bc
       -0.014028299 0.021843592 0.022256529 -0.019612221
000220 65 90 bc 3b 7f 91 aa 3c bd 14 dc bc 67 ba 09 3c
       0.005754518 0.020821331 -0.026865358 0.008406258
000230 0a e1 b3 bc cc be 9f 3b 97 a8 37 bb 4d e9 a4 bc
       -0.021957893 0.0048750397 -0.0028024071 -0.020130778
000240 42 48 9d bc 38 5b 85 bc 6f e7 1e 3c c2 16 d6 bc
       -0.019199494 -0.016278848 0.009698733 -0.026133899
000250 81 d1 d6 bc 11 b0 af bc 99 32 52 3c 14 b0 c5 3b
       -0.026222946 -0.02144626 0.012829446 0.006032953
000260 33 c7 38 bc 6a 55 7e bc 2e 95 bb bc 12 29 fc 3a
       -0.011277962 -0.015523294 -0.022898283 0.0019238314
000270 bc d8 f5 bb 2d 9e cf bb 5f 57 a6 3c be 46 56 bc
       -0.0075026434 -0.0063359947 0.020305334 -0.01307839
000280 2c 19 bc 3b 57 e5 84 3c 3f e1 25 3c 1a c4 a1 bc
       0.0057403054 0.016222639 0.010124504 -0.019746829
000290 71 4b 67 3c 65 55 ef 3c c2 d1 ee bc 79 81 e3 3c
       0.014117108 0.029215524 -0.029152755 0.027771698
0002a0 eb 0c 04 bd 1f 36 0b 3d 33 06 65 bc ba 48 bd bc
       -0.032238882 0.03398716 -0.013978529 -0.023105968
0002b0 b1 44 89 3c 03 fc b1 bc 2c 0b d1 bb 4a ac 19 3d
       0.016756387 -0.021726614 -0.0063795056 0.037517823
0002c0 f8 4b 84 bc 55 36 82 bc 1c 61 23 39 84 f8 70 3c
       -0.016149506 -0.015895048 0.00015581067 0.014707688
0002d0 2d cf 89 b9 84 39 1a 3d 92 c8 0e 3d 49 b8 82 3c
       -0.00026285034 0.037652507 0.034859248 0.015957015
0002e0 69 2f cd bc f8 12 1f 3c c8 5e 57 3c de dd 04 3b
       -0.025047021 0.009709112 0.013145156 0.0020273845
0002f0 88 ec 0d 3c 99 b8 d6 bb e6 5f 35 bc e6 5c 05 3c
       0.0086623505 -0.0065527675 -0.011070227 0.0081398245
000300 52 68 61 bc af d2 4a bc c9 63 24 bc 5a a8 28 bc
       -0.013757782 -0.012379332 -0.010033556 -0.010294044
000310 fa c9 61 3c 58 7b ed bb d2 dc 06 bb 86 f5 a5 bc
       0.013781065 -0.0072473697 -0.0020578397 -0.020258676
000320 9b b3 a9 bc 4b 76 f4 bb f6 0e d4 3c a2 c5 f0 bb
       -0.020715525 -0.0074603907 0.02588604 -0.0073477784
000330 10 4d 3c bb ee e7 9c 3c ff 8f 3d 3c f5 d1 eb bc
       -0.0028732456 0.019153561 0.011569976 -0.028786639
000340 54 01 71 bc 1c 71 42 bc be 88 ac 3c dc 39 1a bc
       -0.014709789 -0.011867788 0.021061298 -0.009413209
000350 1f 60 8d 3c 79 ff 68 bc 92 6c a3 3c de ea 1e bb
       0.017257748 -0.014221066 0.019949231 -0.0024248878
000360 0d 09 32 3c c8 ff 82 bc 30 3f ba 3c 5f 5c 9b bc
       0.010866416 -0.015991107 0.022735208 -0.018964944
000370 31 7f 85 bc 20 12 48 bc b0 4e f1 bc 1e b1 88 3c
       -0.016296001 -0.012211353 -0.029456466 0.016686019
000380 ca 78 d8 bc 16 5e 1a bc a8 f4 25 bc bd 64 55 3c
       -0.026424784 -0.009421846 -0.010129131 0.013024506
000390 e8 8f f0 38 c8 62 dd 3c 30 9c a0 3c d4 c2 51 3c
       0.000114708964 0.027024642 0.019605726 0.012802798
0003a0 1a b2 55 bb 4e 89 d3 3c ed 31 cf 3c c3 6e c7 bc
       -0.0032607378 0.025822308 0.025292361 -0.024344807
0003b0 04 e8 de 3c 0a 63 b8 bc 75 c4 c9 3a d4 2e 99 bc
       0.027210243 -0.022508163 0.0015393632 -0.018699087
0003c0 7a a0 cf bc 11 83 87 3c 4b 92 bd bc ed 7a 87 bb
       -0.025345076 0.01654199 -0.023141047 -0.004134527
0003d0 5f 62 0e 3c 97 8c 2a 3c c7 09 86 bc 8b 57 55 bb
       0.008690446 0.010409496 -0.016362084 -0.00325534
0003e0 a7 18 77 3c 77 52 61 3b ac 84 a8 ba 9e 64 bb 3c
       0.015081561 0.0034381428 -0.0012856922 0.022875126
0003f0 4c bf 27 3c dd 06 60 3c 62 81 99 3b 8e 21 be 3b
       0.01023848 0.013673511 0.004684613 0.00580234

gru.bias_ih_l0 f4 [300]
000000 b9 cc f7 bc 95 0d c5 bb e3 8c 81 bc dc d6 bf bb
       -0.030248987 -0.006013582 -0.01581425 -0.0058544707
000010 8e 6b b5 3c 5d 4d 18 3c 86 59 3d 3d 1c 76 bb 3c
       0.022146013 0.009295789 0.046227954 0.022883467
000020 75 88 0c 3d 3a a9 d4 bb 05 98 3e bc 5a 9d b1 3a
       0.034309823 -0.0064899 -0.011632924 0.0013550923
000030 21 a5 01 ba 6b 07 a7 bb 33 e7 ad 3c da 7e 21 3b
       -0.00049455656 -0.00509732 0.021228408 0.002464226
000040 9e 9d 81 bc 89 35 b0 bc c0 f2 0d bc d3 c9 ac bc
       -0.015822228 -0.021509903 -0.008663833 -0.021092331
000050 4f 47 cc 3b d6 ba 1d bb 61 d6 45 bd 22 34 e3 3c
       0.0062340866 -0.0024067662 -0.04830015 0.02773482
000060 6f 11 59 bc d0 d9 42 3c bb 95 a8 bc 80 2d 6f bc
       -0.013248785 0.011892751 -0.02057921 -0.01459825
000070 5f ed 9a bc 11 1f c1 bc a1 14 8c bc 2f 97 0f 3d
       -0.018912015 -0.023574384 -0.01709968 0.03505629
000080 29 77 a3 b9 08 9f 3d 3d a5 6f 85 bc c4 2e 6e 3c
       -0.00031178564 0.046294242 -0.016288588 0.014537517
000090 f9 bc 55 bc 74 fb 1b 3c d6 85 cc bc d5 e5 c5 3b
       -0.013045543 0.0095204 -0.024966162 0.006039361
0000a0 50 59 cd bb 75 8a 27 3b b0 25 1c 3b 33 58 09 3d
       -0.0062667504 0.0025564705 0.0023826174 0.03353138
0000b0 6e 5b 42 bc 1e 8c a2 3c 7e 99 b1 3c b8 f5 9f bc
       -0.011862619 0.019842204 0.021679636 -0.019526348
0000c0 8a 80 88 bb 38 eb 01 3d 77 fe 56 3a d8 6a bd 3c
       -0.0041657137 0.031718463 0.00082013704 0.023122236
0000d0 e4 98 b4 3c 45 d6 d7 b8 ca 7c ea 3b 8e a6 13 bb
       0.02204556 -0.0001029191 0.0071559893 -0.0022529694
0000e0 4f 1f a1 3c b1 2a bf bc af 1f fe 3c c8 4e a2 3c
       0.01966825 -0.023335787 0.031020967 0.019812956
0000f0 ab ad 0e 3c cc 7a 8f 3c 43 a4 2e 3c 39 35 e2 bc
       0.008708398 0.017514609 0.01065928 -0.02761327
000100 fc d7 ca bc 81 29 89 bb c6 8f f8 ba a7 d5 82 3a
       -0.024761193 -0.004185856 -0.0018963746 0.0009981886
000110 2a 7b 33 bc df 42 89 bb e8 44 af 3c 22 7f f6 3c
       -0.010954658 -0.00418888 0.021395162 0.030089919
000120 62 f4 f7 3c 81 63 5f 3c 02 f1 c1 bc eb 53 11 3d
       0.030267898 0.013634563 -0.023674492 0.03548042
000130 ae 26 19 3c cd e3 ad 3c 54 93 9c ba 86 5a 90 3c
       0.009347601 0.021226788 -0.0011945763 0.01762129
000140 19 da e2 bb 18 d3 9d 3c c1 64 f4 3c ca eb ae bc
       -0.006922972 0.019265696 0.0298332 -0.021352667
000150 34 c3 4a bc aa ea 52 3b 97 9a 23 b7 b2 a8 95 b8
       -0.012375642 0.0032183328 -9.75155e-06 -7.1362956e-05
000160 a7 8b 09 bd 53 eb 0e bc 0c af e1 3b 1d c4 dc 3c
       -0.03358045 -0.008723098 0.0068873223 0.026948983
000170 e3 65 11 3d 59 de b7 3b be 97 89 bc 6f 0b 48 bc
       0.035497557 0.0056112227 -0.01679599 -0.012209757
000180 b0 b8 eb 3b ff 06 e9 bc c0 3f d7 3c 02 11 8f 3c
       0.0071936473 -0.028445719 0.026275516 0.017464165
000190 e8 68 90 3c 13 04 96 bd 6f 45 b7 3d 8c c9 2b bd
       0.017628148 -0.07324996 0.0894879 -0.041940257
0001a0 ee 98 83 bd 8d 49 ea 3c 72 30 3d bd 3f 86 c5 3d
       -0.064256534 0.028599525 -0.04618878 0.09644746
0001b0 f9 d5 04 be 90 55 d5 bd e0 d5 39 3c aa 03 57 3d
       -0.12972249 -0.104167104 0.011342496 0.05249373
0001c0 ef 67 dc 3c a7 d2 b0 3c 58 d8 51 bb e7 27 86 bd
       0.026905028 0.021584822 -0.003201982 -0.065505795
0001d0 44 46 93 3d 9f 0a 26 be 85 74 1f 3d 12 55 6f 3d
       0.071911365 -0.16214989 0.03892948 0.05843074
0001e0 d7 b7 2a be 36 35 3a bb 46 46 b5 3d 34 7f 18 be
       -0.16671692 -0.0028413064 0.08851294 -0.14892274
0001f0 8e 53 9a 3c 22 bd 8a 3d 11 05 c3 3d 22 9f 2b bc
       0.01883867 0.067743555 0.09522451 -0.010474952
000200 28 ee d6 3d be 7e 2c bb 60 78 a2 bd 65 28 14 be
       0.104946434 -0.0026320661 -0.07933116 -0.14468534
000210 6c 94 e6 bc b0 11 de bd da aa 2f 3d 1f ad 48 3d
       -0.028146945 -0.108432174 0.042887546 0.048993226
000220 39 2c 30 3d 9e 85 9e 3d 95 bf d3 bd 5e 27 ac bc
       0.043010924 0.07740329 -0.10339276 -0.021014865
000230 f8 88 44 be c3 2d ce 3d 51 51 49 be 1e 93 0c be
       -0.19192874 0.10067322 -0.19659926 -0.13727996
000240 39 d5 71 bd 6c eb 9d 3c ae de da bd 79 fb 47 3d
       -0.059041236 0.019277297 -0.10687004 0.048823807
000250 3b 59 9e 3d 6d 51 48 bd 9c f5 65 3d 5b a0 b6 bd
       0.07731863 -0.04890578 0.056142434 -0.08917304
000260 75 af a6 3d 9e 0d 50 be e9 48 7b 3d d3 7c ad 3d
       0.081389345 -0.20317695 0.06134883 0.08471074
000270 f1 4a 20 3d 43 11 99 3d 05 36 c5 bd 71 b5 ae bc
       0.03913397 0.074739955 -0.09629444 -0.021326752
000280 c5 69 b7 3d ea c5 70 3d fb 28 32 be 97 0d 9a 3d
       0.08955721 0.058782496 -0.17398445 0.07522123
000290 5f af 97 bc c4 e9 36 be bb f9 2b 3d ba 5d 22 be
       -0.01851624 -0.17862612 0.04198621 -0.15856066
0002a0 e2 a7 e4 3c 76 02 1f be 00 79 74 bc b9 3e b4 bb
       0.027912084 -0.15528283 -0.014921427 -0.005500641
0002b0 be 96 49 3d ea 02 d1 bc a2 10 4d 3d e7 28 23 3c
       0.049216025 -0.025514085 0.05006469 0.009958482
0002c0 96 26 9d bd 14 da a8 bc 4a 09 23 3c 54 90 b6 3c
       -0.07673375 -0.0206118 0.009950945 0.022285618
0002d0 d5 8d 75 3d e5 3c ee bd 10 0a 41 bc 87 6d eb 3d
       0.059949715 -0.116327085 -0.011782184 0.114955
0002e0 35 a7 a7 bd f3 f3 6a 3d 3d d5 f9 3c 3a 67 83 3d
       -0.08186189 0.057361554 0.030497188 0.06416173
0002f0 a9 0f d5 ba 76 6b fd bd 92 8d 88 3d b4 86 ef 3c
       -0.0016255277 -0.12374012 0.066676274 0.029239036
000300 0b ee b0 bd fd 78 fa bb 45 41 de bd ec f9 ae bc
       -0.08639153 -0.0076438175 -0.10852293 -0.021359406
000310 df e5 da 3d 43 45 9d bd 2a 6a 06 be 70 cd cf 3c
       0.10688376 -0.07679226 -0.13126436 0.025366515
000320 54 13 82 bd 9f 62 50 3e 31 bf e1 bc 6a 9d 44 bd
       -0.06351343 0.20350121 -0.027556987 -0.048001684
000330 84 e0 72 3e 2b c4 5a 3e a1 9e 48 be c0 ea 3b bb
       0.23718458 0.21363895 -0.19591762 -0.0028673857
000340 7c 96 52 be 85 ea 84 be 91 84 0c 3e e8 c7 91 ba
       -0.20565218 -0.25960174 0.13722445 -0.0011122199
000350 02 db fd 3d ae 9d e9 3d 4f 87 74 bd a8 ac 18 3e
       0.12395288 0.11407028 -0.059699353 0.14909613
000360 fb 5a 8f 3d 7a 93 8a be 45 57 f8 bd 43 8f f3 3d
       0.06999775 -0.2706564 -0.1212602 0.118925594
000370 f0 2e 73 be 74 24 3c 3e 13 12 23 3e 3e 01 8e 3e
       -0.23748374 0.18373281 0.15924864 0.27735323
000380 f2 f7 7c bd 73 bf dc bd 46 64 2e 3d a5 9d 88 3b
       -0.061759897 -0.107787035 0.042576097 0.0041691833
000390 ac 83 77 bc 53 de 49 be aa fc b3 bd a8 21 84 be
       -0.015107077 -0.19713716 -0.08788426 -0.25806928
0003a0 7a 9f df bd 11 86 40 be 0e 8e a0 bd 5f 69 81 3d
       -0.109190896 -0.18801142 -0.07839595 0.06318926
0003b0 77 ac 43 be 00 09 8c 3d 34 bf 8a be 7a 1f 0a be
       -0.19108759 0.06837654 -0.27099 -0.1348857
0003c0 d6 dd 79 3e 7c 07 0a 3e 29 ce 65 3e 06 d5 69 be
       0.2440103 0.13479418 0.22441925 -0.22835168
0003d0 c4 0f 19 be f6 52 39 3d b1 24 56 3e f9 f2 7b 3d
       -0.1494742 0.045245133 0.20912434 0.061511014
0003e0 1b c0 dc bd e9 f2 95 3d 3c cb 1e be 9a f8 16 3e
       -0.10778829 0.07321722 -0.15507215 0.14743271
0003f0 24 b5 ec 3d ae c9 86 3e df 7e 1d 3e b3 5f d9 bd
       0.11557987 0.26325744 0.15380429 -0.10613956

gru.bias_hh_l0 f4 [300]
000000 07 d1 b9 3b 6c 78 31 3d f0 02 a9 3c c3 9f d1 bc
       0.00567067 0.043327734 0.020631284 -0.025588876
000010 19 9c 04 3d a9 e4 a8 bb 83 f5 ab 3b 92 e4 58 bc
       0.03237543 -0.0051542115 0.005247773 -0.013238089
000020 81 07 d0 bc dd a8 63 3c 1d 41 d3 bc 6b 8c c8 3c
       -0.025394203 0.013895241 -0.025787884 0.024481019
000030 f0 4f 93 3c 9b f3 91 bc 18 f7 b2 3b 68 85 2e 3a
       0.017982453 -0.017816355 0.005461585 0.00066574523
000040 29 9a cf 3b 3f bb d3 3c 6f b3 92 bc cf 5b 74 3c
       0.006335516 0.025846122 -0.017907826 0.014914467
000050 b8 ba 0b bc 02 cc 28 bc a7 c2 14 bd 17 27 03 3d
       -0.008528404 -0.0103025455 -0.036318447 0.0320197
000060 a1 c6 99 bc 0b b3 9b 3b 99 fc fe bc 83 f2 a8 3c
       -0.018771471 0.004751568 -0.031126307 0.020623451
000070 0a 60 94 bc 42 a7 52 3c b6 31 90 bc f1 da 92 3c
       -0.018112201 0.01285726 -0.017601829 0.017926665
000080 11 4f 07 bd 9b dc ae 3c 38 4b e6 bc b0 fb 13 3c
       -0.033034388 0.021345427 -0.028112039 0.009032175
000090 71 d8 80 3c 18 3b f9 3c 81 bb 05 3d e1 52 69 3a
       0.015728207 0.030423686 0.03264952 0.00089005945
0000a0 8a 1b 69 3c 96 ef 2b bc aa ca 26 3b 0a 6c ac 35
       0.014227757 -0.010494133 0.0025450387 1.2846442e-06
0000b0 80 16 5a 3c 95 4b a8 bc e8 9d 19 bc 8b 59 3e 3b
       0.0133110285 -0.020543853 -0.009376027 0.002904507
0000c0 dc 3e d5 3c e0 a0 d3 3b 6e 59 03 3b 3d 69 00 bd
       0.02603095 0.006458387 0.0020042318 -0.031350363
0000d0 70 1c 63 3c 98 9c 00 3d c6 0e 88 bb 94 2d 18 ba
       0.0138617605 0.03139934 -0.0041521518 -0.00058051315
0000e0 dd 0f b1 3b d3 e6 af 3c a7 a0 d5 bb 64 41 7f bb
       0.0054035024 0.02147237 -0.0065193954 -0.0038948888
0000f0 b8 c5 89 3b bb 4f d8 ba 5a 93 89 3c cc 76 b8 3c
       0.004204478 -0.0016503254 0.016793896 0.022517584
000100 de 96 5a 3a 4b 7d 6a ba 48 82 52 3c 4c 42 3b bc
       0.0008338521 -0.00089450617 0.012848444 -0.011429381
000110 b8 be 8e 3c 09 96 89 bc 97 1d ff 3b b4 84 86 bc
       0.017424926 -0.016795175 0.00778551 -0.0164207
000120 92 eb 21 3c 94 6c bf ba 10 bf b6 bc 69 c2 24 3d
       0.0098828245 -0.0014604502 -0.022307903 0.040224466
000130 67 1f 0b bd b5 29 a4 b8 e5 ee e0 3c 94 18 b6 3c
       -0.033965494 -7.827898e-05 0.027457664 0.022228517
000140 aa a9 e8 bc 43 49 37 3b 13 43 10 3c b7 d7 7e bc
       -0.028401215 0.0027967251 0.008805054 -0.01555436
000150 a7 43 89 3c 32 c3 a1 ba 4d 14 3e 3c 16 fd 83 bc
       0.016755892 -0.0012341498 0.01160152 -0.016111892
000160 7f d9 9f 3b fe c4 29 3b bc 33 05 3d 1e 9e 44 3c
       0.0048782225 0.002590477 0.03252004 0.012000589
000170 eb be 06 3d c7 16 ee bb d5 f8 64 bc 76 2f 61 bc
       0.032896917 -0.007265899 -0.013975342 -0.013744226
000180 28 a5 b1 3c bf eb 81 3c 15 31 cf ba f5 ab a9 3c
       0.021685198 0.015859483 -0.0015807474 0.020711878
000190 c6 de d7 3c e9 3e f3 bc 61 c6 7b 3d e6 81 9d 3b
       0.026351344 -0.029693084 0.061468486 0.004806745
0001a0 92 38 c6 bd 91 83 43 ba 79 1a cf bc 56 42 ad 3d
       -0.09678759 -0.00074582646 -0.025281178 0.08459918
0001b0 60 18 fa bd 9e 73 04 be 0c 21 dc bc ce ea 88 3d
       -0.122116804 -0.1293473 -0.026871227 0.066854104
0001c0 c0 be d3 3c 7e d0 7f 3d 41 fc 3d 3c a9 a1 e0 bc
       0.025847793 0.062454693 0.011595787 -0.027420836
0001d0 ec 7a 8e 3d 40 a2 1e be 83 d3 79 3d 95 ef a4 3c
       0.06957039 -0.15491581 0.06099273 0.020133773
0001e0 23 63 13 be fd be 2d 3b 8b 38 5f 3d 01 ae 35 be
       -0.14393286 0.0026511543 0.054497283 -0.17742158
0001f0 f3 70 18 bb 34 c0 4a 3d 6e a4 b7 3d bd 85 d5 3c
       -0.0023260682 0.049499705 0.08966909 0.026064748
000200 b9 b5 ae 3d 22 b2 43 bd 2d 7c 11 bd b8 3f 13 be
       0.085307546 -0.047777303 -0.035518814 -0.14379776
000210 92 c4 97 ba 5d cf d3 bd 7a 83 2c 3d 5e 91 eb 3c
       -0.0011578968 -0.10342286 0.042117573 0.02875584
000220 da bf 49 3d 18 2a 84 3d f2 7b bd bd 2f 03 cb 3c
       0.04925523 0.06453341 -0.09252156 0.024781791
000230 74 72 24 be e2 39 f2 3d e1 94 5e be 8b 8d 03 be
       -0.16059285 0.118274465 -0.2173648 -0.12846963
000240 38 f9 72 bc d9 89 4c 3c b3 83 92 bd b8 44 03 3d
       -0.014829926 0.012484037 -0.07154026 0.032047957
000250 ad 27 28 3d c8 ac 5b bd 7f b5 95 3d cd 00 a1 bd
       0.041053463 -0.053631574 0.07310008 -0.07861481
000260 81 9e 96 3d 25 01 3b be 20 fc b5 3d 95 75 2d 3d
       0.07354451 -0.18262155 0.0888598 0.042348463
000270 a9 25 a9 3b f4 c6 f9 3d a5 c5 c7 bd 6e 46 63 bc
       0.00516196 0.121961504 -0.097544946 -0.013871772
000280 b0 8e bc 3d 7f a9 5b 3d bf d2 11 be b6 2e cf 3d
       0.09206903 0.05362844 -0.1424055 0.10116331
000290 ba ac 65 bd 91 17 3e be f2 17 b5 3c 29 a3 04 be
       -0.056072928 -0.18563677 0.022106145 -0.12952866
0002a0 cf 84 4b 3d 9e 4a 10 be 30 95 33 3d 67 ad ee 3c
       0.049687203 -0.14090964 0.04384345 0.029135419
0002b0 49 2d c1 3c e5 55 d0 bb 6a e1 44 3c ee dd 37 3d
       0.023581164 -0.0063578957 0.0120166335 0.044889383
0002c0 ea a2 8d bd 2c 28 7a bd 58 bd 51 3d 00 a3 8f bc
       -0.06915839 -0.061073467 0.051205963 -0.01753378
0002d0 8b 40 7c 3d a8 bf 13 be 9a f4 29 bd 93 49 8a 3d
       0.06158499 -0.1442858 -0.041493036 0.067523144
0002e0 f9 16 95 bd 67 9d 9c 3d bd 01 15 3d 23 55 cf 3d
       -0.07279772 0.076472096 0.03637861 0.101236604
0002f0 81 fa 8d 3c e8 cf e8 bd a3 5c 82 3d b5 68 c4 bc
       0.017331364 -0.1136778 0.06365325 -0.02397571
000300 a0 fb b5 bd a2 40 5b 3c 6d 73 ab bd 18 be f4 bc
       -0.08885884 0.013382109 -0.08371625 -0.0298758
000310 9e 84 18 3e 6d 02 f3 bc 96 e8 fe bd 1f b8 c3 3c
       0.1489434 -0.029664243 -0.12446706 0.023891507
000320 be a6 38 bd 1c d7 8e 3d 1a af 63 bc 4e 66 05 3d
       -0.045080893 0.069746226 -0.013896728 0.03256827
000330 b5 7f a1 3d e4 78 c1 3d 01 8a df bd 20 43 8a bc
       0.07885686 0.09446886 -0.10914994 -0.01687771
000340 14 de c6 bd ea 34 15 be fd cf 85 3d 1b 9d 9a bb
       -0.09710327 -0.14570966 0.06533811 -0.0047184355
000350 27 4f bb 3d a3 a8 e1 3c 8a 92 e3 bc 57 77 b2 3d
       0.091459565 0.027546233 -0.027779836 0.087141685
000360 8e f6 78 3c e3 30 24 be fd 79 57 bc 02 56 64 3d
       0.015195502 -0.16034274 -0.013151643 0.055746086
000370 26 a2 d3 bd 37 f6 bf 3d 7e 74 4f 3d be 49 e7 3d
       -0.10333662 0.09373134 0.050648205 0.11293362
000380 c1 0c 19 bd e2 e0 41 bd 47 a1 dd 3a 91 74 8f 3c
       -0.03736568 -0.047333606 0.0016909026 0.017511638
000390 99 7b 6b bd c3 a8 ac bd c9 55 84 bd ec d5 09 be
       -0.05749092 -0.08430626 -0.06461675 -0.13460511
0003a0 8a 88 49 bd d1 1a 1c be 70 f9 bf bc 6e 22 16 3c
       -0.04920248 -0.15244605 -0.02343437 0.009163482
0003b0 59 d0 b6 bd b6 bd 4d 3d 16 50 d7 bd 1d 47 81 bd
       -0.08926458 0.05022975 -0.10513322 -0.06312392
0003c0 03 e9 ef 3d b7 aa 4f 3d 9d b2 cd 3d 54 05 d6 bd
       0.11714365 0.050699916 0.100438334 -0.10450235
0003d0 cd dd 1c bd 08 0f 0f 3d ab 0e e7 3d fe 70 eb 3c
       -0.038297463 0.034926444 0.112820946 0.028740402
0003e0 2b b4 52 bd 70 bc c1 3c 69 b8 43 bd d0 47 c4 3d
       -0.051441353 0.023649424 -0.04778329 0.0958401
0003f0 07 e6 9a 3c f0 a7 f3 3d e2 4c c6 3d 0b 6e 90 bd
       0.018908514 0.11897266 0.09682633 -0.07052239

gru.weight_ih_l0_reverse f4 [300, 100]
000000 68 fc e9 bc 4a 44 97 bc 9b eb 0e bc 06 de de 3b
       -0.02856274 -0.01846518 -0.008723165 0.0068013696
000010 ba 38 4e 3c 53 b7 ce 39 b9 eb ef 3b 1a 5d ad bc
       0.012586767 0.0003942797 0.0073218015 -0.021162558
000020 fc ae ff 3a f6 5a 1e 3c 3c 92 5b bc 90 a9 a3 3c
       0.0019507105 0.009665241 -0.013401564 0.019978315
000030 50 3b f9 3c a5 fe d1 3c fb 60 a9 bc db d7 c9 bc
       0.03042379 0.02563412 -0.020676127 -0.02463906
000040 8b 71 82 bb 82 a2 56 bc 82 fa ff bc fc 38 8c 3b
       -0.0039808205 -0.013100268 -0.031247381 0.004279254
000050 18 7c 9b bc eb ff 96 bc aa 7f b4 3c 36 60 ea 3b
       -0.018980071 -0.018432578 0.022033531 0.0071525825
000060 26 d1 0a bb 99 ea 46 bc 75 a3 a3 bc 59 a9 e0 3c
       -0.002118179 -0.012140893 -0.019975403 0.027424501
000070 c0 a1 09 3c d0 33 e8 bc 9d 11 d3 bc bb 4b 98 bc
       0.008400381 -0.028345019 -0.025765235 -0.018590799
000080 60 6f 20 3c 74 83 25 ba 9d 35 ed bb 84 78 02 ba
       0.009792179 -0.00063138385 -0.007239057 -0.00049770647
000090 b2 9e fa bc 0b 41 e8 bc 63 63 93 3c b1 c1 37 3c
       -0.03059325 -0.028351327 0.017991727 0.011215613
0000a0 0e e8 7d bc ff ff d6 3c 8c 4d 93 bb 89 73 17 bb
       -0.015497221 0.026245115 -0.0044953283 -0.0023109636
0000b0 19 5e c0 bb 33 cc 1c bb da b2 e3 bc a7 5d d9 3a
       -0.0058705923 -0.0023925423 -0.027795244 0.0016583697
0000c0 b5 94 db 3c 38 81 df 3c 6b d2 c0 bb 2d b1 aa bc
       0.026804307 0.027283296 -0.005884459 -0.020836437
0000d0 f1 52 4a 3c 03 2a 70 bb 2b 2f 61 bc 65 fd af 3c
       0.012348876 -0.0036646135 -0.013744156 0.021483133
0000e0 1a dc 31 3c 1e 0e 7d bc 8f 07 59 bc f0 c8 95 3c
       0.010855699 -0.01544526 -0.013246431 0.018284291
0000f0 07 c1 36 bc 87 c1 6d bc 72 16 e2 3c 0f 6c d0 bc
       -0.01115442 -0.014511473 0.027598593 -0.025442151
000100 e9 19 8e bc 7b 0a 08 bc 94 8e 68 3c 05 76 a0 3b
       -0.01734634 -0.00830328 0.0141941495 0.0048968815
000110 0e fc 8a bc 85 41 9d bc 8b ea af 3c 3c 90 b6 3b
       -0.016965892 -0.019196281 0.021474143 0.0055713933
000120 be 48 9f bc 49 8a e3 bc ed f9 fc 3c fa a7 79 bb
       -0.019443866 -0.0277759 0.030880893 -0.0038094507
000130 47 c8 bf bc 90 01 17 bb 0a 02 ba 3c 50 c9 b4 bc
       -0.02341093 -0.0023041703 0.02270605 -0.02206865
000140 73 ae f5 bc da 15 fa 3b 51 b7 da bc 33 64 bf bc
       -0.02999041 0.0076319994 -0.02669874 -0.023363208
000150 b3 24 9d bc 25 60 df 3a 53 a4 d2 bc b8 1f e4 3a
       -0.019182539 0.0017042203 -0.025713122 0.0017404472
000160 0f cd de bc 19 3b a1 3c f1 1d a4 3b 1e 8b 09 3c
       -0.027197389 0.0196815 0.005008452 0.0083949845
000170 73 69 d1 3c 00 a2 ba 3b c9 78 ad 3c 4c 0f 78 3c
       0.025562977 0.0056955814 0.021175759 0.015140366
000180 3c 21 fa 3b eb 0e 21 3a f5 87 96 3c f7 ef 9e 3b
       0.0076333564 0.00061438855 0.018375376 0.0048503834
000190 62 eb 6d bc f9 d6 46 3a b5 ec 35 3c 57 7b 47 bc
       -0.014521452 0.0007585134 0.011103799 -0.012175403
0001a0 70 da d3 bc 6f 68 c2 3c 3e 39 f5 bc b2 39 b8 ba
       -0.025860995 0.023731438 -0.029934522 -0.001405528
0001b0 2c 8c 8f bc 59 b1 6b 3c 07 1c ff bc b7 16 26 3c
       -0.017522894 0.014385545 -0.031141294 0.010137252
0001c0 48 d2 7b 3c 36 92 b2 3b 03 f7 ff 3a e4 d7 a1 bc
       0.015369959 0.0054495586 0.0019528571 -0.019756265
0001d0 45 af e8 3c c1 bb 26 3c 88 8f ce bc 97 f2 de 3c
       0.028403888 0.0101766 -0.025214925 0.027215285
0001e0 61 3c f4 3c 62 2c 19 3c 11 26 be 3b b4 57 90 bc
       0.029813947 0.009348961 0.0058028777 -0.017619945
0001f0 53 a1 f8 bc 75 0d 6c 3c 52 6f 3f 3c 3e 05 7e 3c
       -0.030350363 0.014407505 0.011684256 0.0155041795
000200 96 9a 42 bc 4e fc bf 3c 3b 4f b5 3c be 97 e6 bb
       -0.0118776765 0.023435738 0.022132507 -0.007037132
000210 25 c0 fb 3c 71 4e 94 3c c8 89 2a bb 0c 61 d1 bc
       0.03073127 0.01810381 -0.0026022065 -0.02555897
000220 d5 03 f7 3c 5b f7 83 3c e3 e6 dd 3c 40 30 98 bc
       0.030153194 0.01610916 0.027087634 -0.018577695
000230 15 dd b4 bc f3 05 f6 bc 9e 39 d8 bc 64 70 3b 3c
       -0.022078076 -0.030032134 -0.026394662 0.01144037
000240 23 a9 29 3b 05 0e 96 3c 73 88 a1 3c 03 d3 91 bc
       0.0025888167 0.018317232 0.019718384 -0.017800814
000250 3f 74 21 3c 48 fe 15 3c 3a eb 89 3c f2 f0 81 bc
       0.009854375 0.009154864 0.016835798 -0.015861962
000260 5c 50 e1 3c 6d ed ce 3c e5 1a e7 3c 2f 89 5c 3c
       0.027504139 0.025259698 0.028211066 0.0134604415
000270 ee 34 f0 bc 31 63 b0 bc 13 c8 9d b9 a6 fd 2a 3c
       -0.029322114 -0.021531673 -0.0003009444 0.010436451
000280 28 7e 6e 3b d8 00 d6 bc f6 6a b0 3c 78 0c 55 bc
       0.0036391113 -0.02612345 0.021535378 -0.013003461
000290 8a 10 b4 bc 4c b3 a3 ba 12 3f 22 bc 25 9c f9 3c
       -0.021980543 -0.0012489348 -0.009902732 0.030469963
0002a0 b1 f3 e4 3c 86 88 f8 b9 4d be 04 bc a6 ea 3e bc
       0.027948232 -0.00047403964 -0.008102012 -0.011652624
0002b0 19 6a 97 3c e7 5f 65 bc 70 50 fb 3c 71 7b aa bc
       0.018483208 -0.013999916 0.030678004 -0.020810815
0002c0 d7 19 30 ba 09 e9 d5 bc 3f 65 e4 3c 63 35 7c bc
       -0.00067177176 -0.026112096 0.02788031 -0.015393588
0002d0 2f 1d 62 bc d0 c3 26 3a 94 79 98 3c 87 dd e7 3c
       -0.013800903 0.0006361576 0.01861266 0.028303875
0002e0 9d 9d 7a 3c e1 85 06 bc 52 eb 92 bc 46 a8 90 bc
       0.015296367 -0.00821063 -0.017934475 -0.017658364
0002f0 61 81 7c bc ff 6b ff 3c 20 6e 16 3c d9 c4 50 bc
       -0.015411706 0.031179426 0.009181529 -0.012742245
000300 42 53 5a bb 5c b8 38 3c ed 5d 94 bc 3b c1 f4 bc
       -0.0033313786 0.011274423 -0.018111194 -0.029877296
000310 5e c3 eb bc 47 a9 da bb 95 f5 90 ba 9d 1a 18 3c
       -0.028779682 -0.0066730115 -0.0011059517 0.009283689
000320 2d ea ca 3b 97 90 97 bc 24 7e d2 3c d5 08 cf bc
       0.0061924667 -0.018501563 0.025694914 -0.025272766
000330 bf 28 84 3c 6d 17 9d 3c 7e 85 32 bc 7f cd c1 3c
       0.01613271 0.01917621 -0.010896085 0.023657558
000340 f6 0d 52 bb b7 3e d7 3c 21 a5 90 3c 79 f8 c8 3b
       -0.0032051778 0.026275022 0.017656865 0.006133136
000350 30 94 a6 3c fd 87 6a 3c 19 25 cd 3c ef ac ca 3b
       0.020334333 0.014314649 0.025042104 0.006185166
000360 1f 64 65 bc 52 ea cb 3c 27 f5 b8 3c 71 fe 36 3c
       -0.0140009215 0.024892006 0.022577835 0.011169062
000370 08 c5 1c bc 2a b6 bf 3c 76 91 27 bc c5 e7 f7 3b
       -0.00956846 0.023402292 -0.010227552 0.007565471
000380 10 48 99 bb e4 37 f4 3c c9 52 16 bc 1b fc a4 ba
       -0.00467778 0.029811807 -0.009175011 -0.001258734
000390 8c 3e 3a 3c 1e 02 d1 3c 5a 42 57 bc ba 38 f2 3c
       0.011367451 0.025513705 -0.013138378 0.029568065
0003a0 cf 9f 14 3c e1 53 d7 3c 49 74 aa 3b 47 36 e0 bc
       0.009071304 0.026285114 0.0052018506 -0.027369631
0003b0 db 51 ab 3c 42 9e 23 3b ae eb e6 3b 8a 5d 99 bc
       0.020913055 0.0024966155 0.007047138 -0.01872136
0003c0 1f 1b f8 bc 06 55 19 bc dc 5d d9 3c 0e 2a 2b bc
       -0.03028637 -0.00935865 0.026534013 -0.010447038
0003d0 9e ba f2 3a 89 f8 d6 3a 15 b7 fa bb e1 b2 8b bc
       0.0018518751 0.0016400974 -0.0076512196 -0.01705307
0003e0 8e 1e e5 3c 1f b7 fc 3c d3 e0 e3 bc d9 72 ff 3c
       0.027968671 0.030849038 -0.027817165 0.031182693
0003f0 10 b3 bb 3c bf e0 fb 3c c9 c6 f0 3c df 57 b7 3c
       0.022912532 0.030746816 0.029391663 0.022380767

gru.weight_hh_l0_reverse f4 [300, 100]
000000 e7 01 f0 bb 2a ca ab 3c 7c b1 ce bc a1 bf ba 3c
       -0.0073244455 0.020970423 -0.025231116 0.022796454
000010 c8 2a e9 bc 17 bd ce bc 1f 9c 43 bc 53 fb 41 3c
       -0.028462783 -0.02523665 -0.011939078 0.0118397055
000020 a1 3a eb 3c 99 00 e2 bb 7c ee 7f bc 7e 68 ab 3c
       0.02871448 -0.006897044 -0.015620824 0.02092385
000030 f6 4d d4 3b 39 4d f6 bb 65 99 b1 3c 7c 22 dd 3b
       0.00647902 -0.00751653 0.02167959 0.0067484956
000040 44 b9 eb 3c 9a 06 14 bb b3 d7 35 3c 6a f9 ab 3c
       0.028774865 -0.0022586943 0.01109879 0.020992953
000050 be 95 f6 3c f3 90 5c 3c 79 11 fa bc 98 a9 15 3b
       0.0301007 0.013462293 -0.03052591 0.0022836681
000060 9b df fb 3b 10 1c 82 bb 07 c8 3d bb 3e ea b3 39
       0.007686568 -0.0039706305 -0.0028958337 0.00034316065
000070 f5 e7 78 bc 0a 4d e0 bc 86 a3 c2 3c a1 8f 82 bc
       -0.015192022 -0.027380485 0.023759615 -0.015937628
000080 c2 27 c3 3c e8 f0 d1 bc 7d 16 d4 3a 3e 19 de bb
       0.023822669 -0.025627568 0.0016181018 -0.0067779114
000090 fc 3a 73 3b bc b2 c9 3c e8 da 83 b9 b8 5e 7e 3c
       0.0037114015 0.02462136 -0.00025149365 0.015525512
0000a0 6c de 14 bb 3b 22 6a bc b7 23 ef bc 5b ea 00 bc
       -0.0022715582 -0.014290388 -0.029191835 -0.007868375
0000b0 aa 77 f5 3b 2d 1b 6b 3a fc 72 6c 3c 6d c5 8d 3c
       0.0074910717 0.0008968588 0.014431711 0.017306054
0000c0 fc a0 4c bc d6 0a 0c 3c 25 8c d2 3c 31 4e cd bb
       -0.012489554 0.008547505 0.025701592 -0.0062654247
0000d0 3d 9b fb bc 8c f6 0f 3c 47 ad 82 bc a6 71 82 3c
       -0.030713672 0.008786809 -0.015951766 0.015923332
0000e0 5d f7 ab bc 78 82 94 bc 42 ca 9b bc 1f e8 5a 3c
       -0.020991975 -0.018128619 -0.019017342 0.013361006
0000f0 47 eb f9 3c 6d d1 52 bb 77 21 f8 bb ca f9 d9 bc
       0.030507697 -0.0032168285 -0.0075723487 -0.026608367
000100 e1 ad e5 bb a2 c0 dd 3c 58 25 66 3c 10 ed 7a bc
       -0.0070092534 0.027069394 0.014046989 -0.015315309
000110 90 df 1d bb b4 13 f8 bc 42 fd b3 ba fd d9 5d bc
       -0.0024089552 -0.030282833 -0.0013732093 -0.013540742
000120 3b fc 16 bb 22 6f b1 3c 1e 3c a6 bc f4 c5 e6 3c
       -0.0023038525 0.021659438 -0.020292338 0.028170563
000130 14 f4 b7 bb 7c db 83 3c 66 27 a3 bc 0c 18 33 3c
       -0.005613813 0.01609587 -0.019916248 0.010931026
000140 49 7a 92 bc b5 cb ae bb 7e c6 ca bc c8 49 81 3c
       -0.017880576 -0.0053343424 -0.024752852 0.015782252
000150 50 d7 a3 bb 06 39 4a bb 6f 11 22 3c 31 df 56 3c
       -0.0050000325 -0.0030856743 0.009891852 0.013114736
000160 18 e9 36 3c 26 e9 99 3c 76 90 92 3c cf c0 c4 3c
       0.011163972 0.018787932 0.01789115 0.02401772
000170 82 26 a4 3b 6d 99 dd bc 8c 34 9e 3c ea 87 9c bc
       0.0050094733 -0.027050698 0.019312166 -0.019107778
000180 9a 02 e4 39 fd a8 40 3c 6f 99 db 3b 24 44 fe 3c
       0.00043489487 0.01175904 0.0067016403 0.031038351
000190 21 71 de 3c 4e f1 7a bb 33 3e 82 3c 46 d5 ca bc
       0.027153553 -0.0038290801 0.0158988 -0.0247599
0001a0 5c 13 7f bc 7f ea fa 3c e7 e2 eb 3c ad bd 8f bc
       -0.0155685805 0.030629395 0.028794719 -0.0175465
0001b0 62 a2 a1 bc ad a2 92 3c 0d 39 f7 3c bf 4b fc bc
       -0.01973075 0.017899835 0.030178571 -0.030797837
0001c0 66 10 36 3c 52 d6 b3 bc 6a 4d fd bc b7 3c b5 39
       0.011112308 -0.021952782 -0.030920703 0.00034568246
0001d0 42 27 dd 3b 72 5b c0 3c fb 28 e9 3c 83 22 83 bc
       0.0067490647 0.023481105 0.028461924 -0.016007667
0001e0 40 cd b0 bc d4 a7 5e 3b c7 ec 85 bc ad 69 9c bc
       -0.021582246 0.0033974545 -0.016348256 -0.019093359
0001f0 17 76 a7 3b e1 74 d3 3a 68 87 2c bc 58 2a 7b 3c
       0.005110513 0.0016132855 -0.01053033 0.01532992
000200 f0 66 d8 3c 1b 7f 6b bb 73 e6 75 bb f8 1e c4 bb
       0.026416272 -0.0035933915 -0.0037521392 -0.005985137
000210 6e 7d e7 bc a2 d8 65 bc d2 78 17 3c 71 4b be 3c
       -0.028258052 -0.0140287 0.009245114 0.023229333
000220 a5 96 70 3c 44 42 0f bc 80 db cb 3b 20 d2 ae bc
       0.014684354 -0.008743826 0.006221235 -0.02134043
000230 1d 73 41 bc 6d 20 51 3c e5 69 61 3c 6f 49 8c 3c
       -0.01180723 0.012764079 0.013758157 0.01712486
000240 09 cf c3 bb 5e 20 da bc 4c 40 c5 bc 7c 39 a3 bc
       -0.0059756082 -0.026626762 -0.02407851 -0.019924872
000250 c4 a5 4b bb 9c 66 76 bc 51 4f 15 bc 96 39 e9 bc
       -0.0031074146 -0.015039112 -0.009113149 -0.028469842
000260 98 96 af ba 55 af 1c bc 10 24 dc bc 44 2a fd 3c
       -0.0013396321 -0.009563287 -0.026872665 0.030903943
000270 14 1b 5e 3c db 36 d4 bc 83 8a 50 3c 7f 56 81 3c
       0.013556261 -0.025905063 0.012728336 0.015788315
000280 cc ec 77 bc f9 f9 94 3c a7 e8 16 bc e2 a5 99 bc
       -0.01513214 0.018185603 -0.009210742 -0.018755857
000290 77 91 c3 bc 4f f1 fb bc 42 ad 95 3c f0 29 61 3b
       -0.023873074 -0.030754713 0.018271092 0.0034357272
0002a0 f8 31 fa bc 7b ac f6 bb 2a 8a ab 3b 3f 1d cf 3c
       -0.030541405 -0.0075278855 0.0052349763 0.0252825
0002b0 e0 ef e6 bc b9 2c f6 3c d5 49 7f 3c 07 30 32 3b
       -0.028190553 0.030050622 0.015581568 0.002718927
0002c0 d2 a1 47 ba 40 98 ae bb 91 29 74 3c df 80 00 bb
       -0.00076153607 -0.005328208 0.014902488 -0.0019608063
0002d0 41 de e6 bc f2 e4 f7 3c 15 63 19 bc 93 78 8b 3b
       -0.02818215 0.030260537 -0.009362002 0.004256317
0002e0 59 8d f0 bc 7a 79 7c 3c 88 55 93 3b 7a 3f ba 3c
       -0.029364275 0.015409822 0.00449628 0.022735346
0002f0 ee 8d db 3c 11 58 e7 bc 0c 6c 8b bc 08 42 d2 bb
       0.026801076 -0.028240236 -0.017019294 -0.006416563
000300 ca 6c 8b bc 52 bd a4 3c 2a 16 4b bc a5 37 56 3c
       -0.017019648 0.020109806 -0.012395421 0.01307479
000310 23 25 e1 3c f7 19 fa 3c 4a 61 ed 3c 6c 34 53 bb
       0.027483528 0.03052996 0.028977055 -0.003222729
000320 1e cc a7 3a 5a 0c f0 bb cb 3e 88 3c 9a 5e ca bc
       0.001280192 -0.007325691 0.016631505 -0.024703313
000330 de 7d c9 3c c7 3b 84 3c 51 80 ea 3c b7 b0 9d 3a
       0.024596151 0.016141785 0.02862564 0.0012030815
000340 07 a6 ea bb d2 40 bb 39 e1 db db bc 2d 52 39 bc
       -0.0071609053 0.00035715714 -0.026838245 -0.011311096
000350 d7 7f 2f 3c c5 7f 05 3c a4 07 ab 3c 11 f3 f9 bb
       0.010711632 0.008148138 0.020877667 -0.0076278527
000360 33 41 df 3c f4 61 f7 3c e4 ae bf bc ce e3 4d bb
       0.02725277 0.030198075 -0.023398824 -0.00314163
000370 09 a8 1a bc 9a 34 98 bc d8 65 cf 3c a9 21 3d 3b
       -0.009439477 -0.01857977 0.025317118 0.0028859174
000380 9d ac ab bc ba 8f 8b bc 84 16 4d bb 3d ed e3 bc
       -0.020956332 -0.017036308 -0.0031293938 -0.027823085
000390 29 fb f5 3c 9c 1e 93 3c b6 eb a1 3b e6 4e 56 bb
       0.030026989 0.017958932 0.004941429 -0.0032700836
0003a0 21 67 44 bc 55 cc b7 bc a5 ad 94 bc c0 bf 2f bc
       -0.0119874785 -0.0224363 -0.018149206 -0.010726869
0003b0 7c f9 fd 3c d7 03 f5 3c 4b 18 b7 b9 71 02 dc bc
       0.031002752 0.029909058 -0.0003492258 -0.026856633
0003c0 4f 6a b3 3b b3 2f 96 3c 65 61 d5 bc fe d0 0c 3c
       0.0054753195 0.018333292 -0.026047418 0.0085947495
0003d0 6d 8f f1 bc 91 ce fa bc 74 3d 3b 3c 5b e3 84 ba
       -0.029487336 -0.030616077 0.011428226 -0.0010138558
0003e0 05 bb 54 3c 1e ad 2f 3b fc 17 77 bc 0b 8d 12 bc
       0.012984042 0.0026806067 -0.015081402 -0.00894476
0003f0 c7 c2 6e bc 79 e4 ce 3c 45 76 92 3c f3 29 bc bb
       -0.014572806 0.025255429 0.017878661 -0.0057423054

gru.bias_ih_l0_reverse f4 [300]
000000 54 31 1b 3c c5 70 f4 3c 8e a6 a8 bb 5b 39 12 bc
       0.00947221 0.029838929 -0.005146808 -0.008924807
000010 ed 16 33 bc dc 46 57 bc 5a 41 13 3c bf c2 a0 bc
       -0.010930759 -0.013139453 0.008987749 -0.019624112
000020 6d 01 02 3c 46 c6 02 3d 03 77 ec 3c 7a 1a c0 3c
       0.00793491 0.03192737 0.028865343 0.023450125
000030 ae 1b de 3c 71 c2 ce bb b4 3f a5 3c 53 51 9a 3c
       0.027112808 -0.0063098003 0.020171978 0.018837607
000040 80 a2 eb 3c 07 34 2e 3c 12 f8 2f 3c ac 41 3c 3c
       0.02876401 0.0106325215 0.010740297 0.011490267
000050 46 d7 d4 bc 10 52 a4 bc 8f 59 ee 3c 92 ce b7 bc
       -0.025981557 -0.020058662 0.02909544 -0.022437368
000060 90 32 21 3c cc a2 a2 3b c7 99 1d 3c 04 cd e8 bc
       0.009838715 0.0049632546 0.009619183 -0.028418072
000070 4b 20 da 3a 8f 42 c9 3c fe 88 b9 bc bf 1e 3d bc
       0.0016641704 0.02456787 -0.02264833 -0.011542975
000080 99 a9 42 bb 31 bc ab 3b c0 7f 09 3b 3e 58 5c 3a
       -0.002970314 0.00524094 0.0020980686 0.0008405483
000090 82 22 fd 3c 5b bf e9 bc 65 df 9f bb 54 ac f1 3c
       0.030900244 -0.028533628 -0.0048789256 0.029501118
0000a0 41 eb d8 bb 43 15 c3 3c 1a 26 8a 3c a6 7f 21 bc
       -0.0066198413 0.02381385 0.016863871 -0.009857094
0000b0 9a 3c b8 bb bd ef 62 bc 94 8c 64 3c 7f b0 e0 3c
       -0.0056224586 -0.013851103 0.013949532 0.02742791
0000c0 08 ec c0 3c 97 2a 84 3c cc cd af bb 16 31 2f bc
       0.023550048 0.01613359 -0.005365109 -0.010692855
0000d0 52 dc cf bc 39 66 6c 3a f5 23 ff 3c ab d3 a0 3c
       -0.025373612 0.0009017918 0.031145075 0.019632181
0000e0 7e e7 b8 3c bc 9b 66 bb c7 ad fa bc b3 f1 cc 3a
       0.022571322 -0.003518804 -0.030600442 0.0015635997
0000f0 aa 0b 2c 3b e8 a6 dc 3c 11 67 f6 bb 32 ec d7 3b
       0.002625207 0.026935056 -0.0075196107 0.006589436
000100 3b 62 69 3a 1d 0d b5 bc 0b d7 ad 3c 44 85 f1 3a
       0.0008902882 -0.02210098 0.021220705 0.0018426557
000110 bc ba cc 3c ab 2d e1 bc 09 b6 f6 bc 98 38 d7 3c
       0.024991386 -0.027487596 -0.030116098 0.026272103
000120 e7 da 5f 3b e8 52 9b bb 07 8e 14 bc 6e 1f ba 3c
       0.0034157576 -0.004740108 -0.009067065 0.022720065
000130 67 72 2f ba 2a ff 91 ba ab fa 55 3c 50 ae a2 bc
       -0.00066927675 -0.0011138667 0.013060252 -0.01985851
000140 c5 a7 e7 bc 47 9b e4 3b 16 da 1b 3c d3 d2 ce bb
       -0.028278241 0.0069765183 0.009512445 -0.0063117533
000150 39 26 dd 3b fc 36 db 3c 1b 24 ac bc 43 2c 05 bc
       0.0067489413 0.026759617 -0.02101331 -0.008128229
000160 05 75 a7 bc a0 f4 45 bc 7b c5 cf bc 2c 2c 05 3d
       -0.020441541 -0.012082249 -0.02536272 0.03251283
000170 70 8e ec bc 2e e3 6d bc cd 29 73 3c 64 a3 e0 3c
       -0.028876513 -0.014519496 0.014841509 0.02742166
000180 f1 dd d7 3c 45 e7 fc bc fe 0d af bc 9c 36 72 bc
       0.026350947 -0.030871997 -0.021368977 -0.014783528
000190 47 fc e1 bc 4e 43 f9 bc 0f dd 53 3d 7e 74 12 3d
       -0.027586116 -0.030427601 0.05172449 0.035755627
0001a0 66 b2 82 3c 74 e6 12 3d 43 3b 33 3c f1 6c 34 bc
       0.015954208 0.03586431 0.010939422 -0.011012302
0001b0 a8 44 71 3d ea 2e 45 bd 07 10 51 3c 7b 42 d6 3c
       0.058903366 -0.048140444 0.012760169 0.026154747
0001c0 46 49 c1 3c 74 5c 6a 3d c7 d5 d9 3c ca 74 8b 3d
       0.02359451 0.057217076 0.026591195 0.06809385
0001d0 6d a3 1b 3d 1b f0 e9 3c 72 f5 c6 3c 7a 32 87 bc
       0.03799765 0.028556874 0.02428696 -0.016503561
0001e0 15 54 81 3d 0f 25 83 bc be 32 e8 ba 90 63 0f 3d
       0.063148655 -0.016008882 -0.0017715318 0.03500706
0001f0 8b 5d 36 3d 1f 9e 63 bb f6 03 72 3d 37 19 6c 3c
       0.044522803 -0.0034731699 0.05908581 0.014410309
000200 ea 25 bb 3c 20 19 52 3d 46 d1 a3 3d 73 87 30 3d
       0.022845227 0.051293492 0.079989 0.043097924
000210 99 aa 0b 3d 21 cb 7d bc 66 ea 53 3d c7 23 40 3c
       0.03409824 -0.015490324 0.05173721 0.01172728
000220 2d 4f 22 3d aa 7d 6a bc 54 24 93 bc 4e 02 2b 3d
       0.03962629 -0.014312187 -0.017961659 0.041750245
000230 91 e4 3a 3c cf 86 cc bc 0b ea 26 3d f0 84 21 3c
       0.011407034 -0.024966625 0.040750545 0.009858355
000240 79 20 0d 3c 89 38 13 3d 02 bb 08 bc 64 b1 e3 3b
       0.008613699 0.035942588 -0.008345367 0.006948637
000250 d5 dc 17 bd 71 46 33 3d 11 90 36 3d 4a aa a2 bc
       -0.037075836 0.04376835 0.044570986 -0.01985659
000260 0e 20 25 ba 71 91 64 3c f1 fa 29 3c 1f d2 e2 3c
       -0.0006299027 0.013950692 0.0103747705 0.027688084
000270 87 d5 cd bb 43 a5 06 3c 44 cc 54 3d 59 6c 88 bc
       -0.006281558 0.008218112 0.051952615 -0.016653227
000280 a3 85 86 3b d5 1a 63 3b 62 f6 a9 3d eb f0 03 3d
       0.004105286 0.0034653444 0.08298947 0.03221218
000290 e4 b2 f8 3c 84 98 8d 3c 67 a5 74 bb d0 64 5b ba
       0.03035874 0.01728464 -0.0037330033 -0.0008369209
0002a0 b9 b0 7d 3c 63 00 f1 3c d7 fe 23 3d 5d 75 65 3c
       0.0154840285 0.02941913 0.040037956 0.014005032
0002b0 fe 5e 5b bc 3c 2f 40 3d 11 49 7b 3b 10 a9 af 3c
       -0.013389347 0.046920046 0.0038343112 0.02144292
0002c0 6b 0b 20 3d b0 95 84 3c b8 b5 07 3b 31 b3 00 3d
       0.03907339 0.016184658 0.0020707678 0.03142089
0002d0 00 92 78 3d d1 7f 86 bc 77 ac 8d bc 36 89 39 3d
       0.06068611 -0.01641837 -0.017294152 0.04529687
0002e0 87 17 2b 3d 3f 8f 50 bd 6e a8 8e 3c cb 01 2e 3d
       0.041770484 -0.05091786 0.017414298 0.04248218
0002f0 10 8f 07 3d 1c c5 f6 3c 97 39 7f bc b5 be 83 3c
       0.03309542 0.030123286 -0.015577695 0.016082147
000300 2f b7 4e 3c 44 8a 26 bd fc 21 ed 3c 3e 5c 00 3c
       0.012616917 -0.040659204 0.02894687 0.007834492
000310 e7 33 24 bc 55 f5 00 bd 5c a8 34 3d e9 6e 07 3d
       -0.01002214 -0.031483967 0.044105873 0.033064757
000320 c2 82 08 be 87 50 62 bd 0e a2 72 3d 4c 02 fa 3c
       -0.1333113 -0.055252578 0.05923658 0.030518673
000330 eb 89 ed bd 3b ac 04 bd 6d 83 7c 3d 2b 5e c8 3c
       -0.115985714 -0.032390814 0.061648775 0.024458965
000340 ee ee e2 3d 5b 4c 0f be 90 dd c1 bb 31 2c 2b bd
       0.110807285 -0.13993971 -0.005916305 -0.04179019
000350 27 d0 29 bc 3e 21 b7 3d 1e 1e dd bb a9 d3 d3 3c
       -0.010364569 0.08941887 -0.006747975 0.025857763
000360 88 e4 80 bd c8 a9 a8 3d bd 4f 44 3d da 34 f4 bc
       -0.06293589 0.08235508 0.047927607 -0.029810358
000370 bf de ae 3d 10 d7 3a bd 9d ab 3d 3d 9f 66 eb bd
       0.08538579 -0.045615256 0.04630624 -0.11494183
000380 8c d3 96 3d f8 7d ac bb 01 11 4e 3d 7f 10 d5 3d
       0.07364568 -0.00526404 0.050309185 0.10403537
000390 51 91 8e bc 00 fe 0e bd b6 e4 89 3d 81 4b 36 bb
       -0.017403277 -0.034910202 0.06733076 -0.0027816
0003a0 98 9b 78 bd bf d5 b6 bd 02 40 d8 bd 38 8f 5e bd
       -0.06069526 -0.089274876 -0.105590835 -0.054335803
0003b0 18 19 0f 3d 13 cb df bc 65 6e 2e 3e c7 7d 9b 3c
       0.03493604 -0.027318513 0.170343 0.018980874
0003c0 74 0e 22 be ca 57 66 bd 11 49 1c 3d 00 63 09 be
       -0.15825826 -0.056236066 0.03815562 -0.13416672
0003d0 69 69 d3 bb 6b fb d6 bd b3 16 df 3c 88 d9 09 3e
       -0.006451775 -0.10497173 0.027232504 0.13461888
0003e0 3d 3c 4d 3d c8 5c 03 be 65 9f 29 3d a8 ef 66 3e
       0.050106276 -0.12828362 0.041411776 0.22552359
0003f0 8a 41 c5 bc ad d6 75 bd 67 de e8 bd 04 85 dc bd
       -0.024079103 -0.060019184 -0.11370545 -0.10767558
